Policy Gradient/walker_ppo_model_9000.pth (torch, 34323 bytes, 11 tensors)

actor.0.weight f4 [64, 24]
0	0xbdf034d5	-0.11728827
1	0x3ec2ab16	0.38021153
2	0xbd81f214	-0.06345001
3	0x3f38744f	0.7205247
4	0xbe1d2154	-0.15344745
5	0xbda83b1e	-0.08214401
6	0x3f33ca8e	0.7023095
7	0xbe22d082	-0.15899852
8	0xbe449eb7	-0.1920117
9	0xbe07c19a	-0.13257447
10	0xba5b0c5a	-0.00083560275
11	0xbe4cbd9d	-0.19994207
12	0x3d859994	0.06523433
13	0x3c3a194d	0.011358571
14	0x3e5cbda0	0.21556711
15	0x3e2ec7c4	0.17068392
16	0x3cf10acf	0.0294241
17	0xbd33c266	-0.043886565
18	0x3e359694	0.17733222
19	0xbe1ae092	-0.1512473
20	0x3d48978b	0.048972648
21	0x3e1f1a37	0.15537344
22	0x3e0cd805	0.1375428
23	0x3d1057b4	0.03523989
24	0xbcc4adae	-0.024008598
25	0x3e148687	0.14504443
26	0x3e4a1f71	0.19738556
27	0x3e15cb63	0.14628367
28	0x3e8373a4	0.25674164
29	0x3e26f7a6	0.16305408
30	0x3f2e324f	0.68045515
31	0xbe0500fb	-0.12988655
32	0xbe26b28f	-0.16279052
33	0xbd5f1c44	-0.054470316
34	0x3e183320	0.14863253
35	0x3deebe61	0.11657406
36	0xbd2de357	-0.042453136
37	0x3d94c33c	0.072638005
38	0x3dfe55c0	0.12418699
39	0x3dac09a0	0.08400273
40	0xbd272f42	-0.040816553
41	0x3dd86a67	0.1056717
42	0xbddb3930	-0.10704267
43	0x3d350e7b	0.044203263
44	0x3cfbbf7f	0.03073096
45	0xbd709267	-0.05873337
46	0x3addb106	0.0016913719
47	0x3dffe66a	0.1249512
48	0xbd9e85f8	-0.07740396
49	0xbecf2cc3	-0.40463838
50	0xbb9eab3b	-0.0048421896
51	0xbede88f7	-0.4346387
52	0xbe05f12f	-0.13080285
53	0x3d3aeba1	0.04563487
54	0x3eddb8e4	0.43305123
55	0x3df43a44	0.11925176
56	0xbe46dc17	-0.19419895
57	0x3e025989	0.12729467
58	0xbe2ab2d3	-0.16669779
59	0x3ec09348	0.37612367
60	0xbe14cdf4	-0.1453169
61	0x3e51dc5c	0.20494217
62	0xbe7a8360	-0.24464178
63	0xbe6d29d5	-0.23160489
64	0xbe5dfe8e	-0.21679136
65	0x3cd17a17	0.025570912
66	0xbe6ea6d0	-0.23305821
67	0x3dd5d59e	0.10441135
68	0xbd58c05b	-0.05291782
69	0xbe1cc825	-0.15310724
70	0xbe455a82	-0.19272807
71	0xbd6eecfa	-0.058331467
72	0xbe871332	-0.26381832
73	0xbeb20855	-0.34771982
74	0xbdfd09d9	-0.12355394
75	0xbe732696	-0.23745188
76	0xbebd62e2	-0.36989504
77	0xbe1961e4	-0.14978749
78	0xbc592fd6	-0.013256034
79	0xbe053c5b	-0.13011305
80	0xbd21c8f9	-0.039498303
81	0x3de20231	0.11035574
82	0x3d8b8043	0.06811573
83	0xbd2581ef	-0.040407117
84	0x3db23578	0.087016046
85	0x3c75b6b2	0.014997171
86	0xbe33bd8b	-0.17552774
87	0xbe84f311	-0.25966695
88	0xbe32f6ff	-0.17477034
89	0x3d84c332	0.06482543
90	0xbd95c210	-0.07312405
91	0x3d55e2cf	0.052218255
92	0x3cb674af	0.022272436
93	0xbe2c1860	-0.16806173
94	0x3e09fe33	0.13475876
95	0x3d3d718f	0.046250876
96	0xbe1e2180	-0.15442467
97	0xbe7518ce	-0.23935243
98	0xbe473bf0	-0.19456458
99	0xbedfa65e	-0.43681616
100	0x3e12a41d	0.14320417
101	0x3c6c2699	0.014413499
102	0xbee3daa0	-0.44502735
103	0xbd60de92	-0.05489976
104	0xbdb33af4	-0.08751479
105	0xbc97c31a	-0.018525649
106	0xbc10e68d	-0.00884403
107	0x3ed72f06	0.42028064
108	0x3e2a4622	0.16628316
109	0x3e389e5e	0.18029162
110	0x3da2c42e	0.079475746
111	0x3d9a8065	0.075440206
112	0xbe5a6b51	-0.2133
113	0xbca79b63	-0.020459836
114	0xbdbdeceb	-0.09273704
115	0xbd4527a4	-0.048133507
116	0x3d0fdde8	0.035123736
117	0xbe15b63a	-0.14620295
118	0xbe2e3856	-0.17013678
119	0x3d5a1409	0.053241763
120	0x3ddf236d	0.10895429
121	0xbdb44fd3	-0.08804288
122	0x3d214444	0.039371744
123	0xbe461af9	-0.19346227
124	0x3d874b9d	0.06606219
125	0xbccffc1d	-0.025388772
126	0x3eecfd71	0.4628711
127	0xbd1633b6	-0.03667041
128	0x3de48006	0.11157231
129	0xbd97117f	-0.07376384
130	0x3c97f6a9	0.018550234
131	0x3dec6b33	0.11543884
132	0xbe0e97a0	-0.13925028
133	0x3e71ab37	0.2360047
134	0xbd341dbd	-0.043973673
135	0xbe15a45e	-0.14613482
136	0xbc5c2051	-0.013435439
137	0x3e111f42	0.1417208
138	0xbe079877	-0.13241754
139	0xbe244af5	-0.16044219
140	0xbd5e1e9c	-0.05422841
141	0x3d2b8a18	0.041879743
142	0xbdff05bb	-0.12452265
143	0xbc70d7d4	-0.014699895
144	0xbdeab2c7	-0.1145988
145	0xbe80aaf0	-0.25130415
146	0x3d1ca4c3	0.038243067
147	0xbec75509	-0.38932064
148	0xbe65d8d1	-0.2244599
149	0x3e09d613	0.13460569
150	0x3e6c1425	0.2305456
151	0x3da4c061	0.08044506
152	0x3da31630	0.07963216
153	0x3e00cbaf	0.12577699
154	0x3e043138	0.129094
155	0x3e9b70b6	0.3035943
156	0x3e0ed062	0.13946679
157	0x3de15ee4	0.11004427
158	0xbd1379de	-0.036004893
159	0x3c583918	0.013197206
160	0x3d91293c	0.07087943
161	0x3d59e6bb	0.053198557
162	0xbe464373	-0.19361667
163	0x3d49d299	0.049273107
164	0xbe00a9a1	-0.12564708
165	0xbd96a445	-0.07355551
166	0xbe49447b	-0.1965503
167	0xbdac845f	-0.08423685
168	0xbd8681d0	-0.065677285
169	0x3e85b6ba	0.26115972
170	0x3e259389	0.16169561
171	0x3f125866	0.57166135
172	0x3e64e64e	0.2235348
173	0x3adf3222	0.001702849
174	0x3ef7e8c1	0.48419765
175	0xbce3d7b4	-0.027812816
176	0xbc7bc32f	-0.01536636
177	0xbbdeae5d	-0.006795688
178	0xbdef7e2b	-0.116939865
179	0xbea67646	-0.3251211
180	0xbdf2914f	-0.11844122
181	0x3cbb6347	0.022874488
182	0x3e634805	0.22195442
183	0x3dfaf701	0.122541435
184	0x3e049c90	0.12950349
185	0x3d1172e2	0.03550995
186	0x3d823654	0.063580185
187	0xbd34f31f	-0.04417717
188	0x3e06c7c8	0.13162148
189	0x3e152b03	0.14567189
190	0x3dc65be2	0.09685494
191	0xbe46bb27	-0.1940733
192	0xbc9fe33b	-0.019517532
193	0xbe696fe5	-0.2279659
194	0xbe8c348e	-0.27383846
195	0xbec93cad	-0.39304104
196	0x3e8456db	0.25847515
197	0xbd2c6295	-0.042086203
198	0xbf0f54ef	-0.55988973
199	0x3c35359a	0.011060143
200	0x3e4e7931	0.20163418
201	0xbc4d3ddc	-0.012526955
202	0x3c43c197	0.011948011
203	0x3e19b9cf	0.15012287
204	0xbd9d3979	-0.07676978
205	0xbe1ad73b	-0.15121166
206	0x3e27e2cc	0.1639511
207	0x3ca2c032	0.019867036
208	0xbca96a73	-0.020680642
209	0xbd912eac	-0.0708898
210	0x3cfaae03	0.030600553
211	0x3e1a126a	0.15046087
212	0x3e1362ae	0.14393112
213	0xbd5c5b64	-0.053798094
214	0xbdff9561	-0.12479664
215	0x3e3329a9	0.17496361
216	0xbdff62f2	-0.12470044
217	0xbe1e1607	-0.1543809
218	0xbe64271b	-0.22280543
219	0xbf11062d	-0.5665005
220	0xbe42731a	-0.1898922
221	0xbcac3cfa	-0.02102517
222	0xbf3233b4	-0.6961014
223	0xbd90b81f	-0.07066368
224	0x3db14f56	0.0865771
225	0x3e18d9cf	0.14926837
226	0x3e076f00	0.13225937
227	0xbe6b3bbc	-0.22972006
228	0x3daad830	0.08342016
229	0x3dc0b4c7	0.094094805
230	0xbd454fbd	-0.048171747
231	0xbe2bcc04	-0.16777045
232	0x3db343bc	0.08753154
233	0xbe324d94	-0.17412406
234	0xbd286364	-0.04111041
235	0xbe905536	-0.2819001
236	0xbd9687bc	-0.07350108
237	0xbe0506f5	-0.12990935
238	0x3d29b79e	0.041434877
239	0x3dd48a74	0.1037797
240	0xba1c5394	-0.0005963382
241	0x3ed9e6c3	0.4255887
242	0x3dd73110	0.10507405
243	0x3e9ecccd	0.31015626
244	0x3e34e795	0.17666467
245	0xbd2ad44b	-0.041706365
246	0x3e4a094a	0.19730106
247	0xbc8b93ba	-0.017038215
248	0xbd225dd0	-0.039640248
249	0xbd8fa4f6	-0.07013886
250	0x3e3fa0a1	0.18713619
251	0xbec89b13	-0.39180812
252	0x3e094ac3	0.13407426
253	0xbdbdedee	-0.09273897
254	0xbd17cb3f	-0.037059065
255	0x3d8e26d0	0.06940997

actor.0.bias f4 [64]
0	0xbe2e4f7c	-0.17022508
1	0xbe2034d4	-0.15645152
2	0x3e75195c	0.23935455
3	0xbbedccf9	-0.0072571007
4	0x3e7dfcd1	0.24803473
5	0xbdf33cc6	-0.11876826
6	0xbe24bbd2	-0.16087273
7	0xbd6cf073	-0.057846498
8	0xbe379840	-0.17929173
9	0x3e134b47	0.14384185
10	0xbe06a011	-0.13146998
11	0x3ca06a2d	0.019581879
12	0xbdd5524f	-0.1041609
13	0xbc837856	-0.016048592
14	0xbd0e1e3a	-0.034696795
15	0xbcc02472	-0.023454878
16	0xbd7fcc79	-0.06245086
17	0xbddda920	-0.10823274
18	0x3e117623	0.14205222
19	0x3de32c24	0.110924035
20	0xbd7dbe5e	-0.061949126
21	0x3de6c5b9	0.11268181
22	0x3e57b901	0.21066667
23	0xbda39e0c	-0.079891294
24	0xbe33ddff	-0.17565154
25	0x3e11eb89	0.14250006
26	0xbc2826df	-0.010263174
27	0xbe3aef13	-0.18255262
28	0xbe1def0b	-0.15423219
29	0xbe52c127	-0.20581494
30	0x3e2c12f4	0.16804105
31	0xbdd5cf4d	-0.1043993
32	0xbe2b0847	-0.16702376
33	0x3e07167f	0.13192175
34	0xbe32bcf9	-0.174549
35	0xbe1b7ee4	-0.15185124
36	0xbdc365f2	-0.09540929
37	0xbc8a260c	-0.016863845
38	0x3db56333	0.088568114
39	0x3e26fcf1	0.16307427
40	0x3e1f3c83	0.15550427
41	0x3e09e6a1	0.13466884
42	0x3dd03b37	0.10167544
43	0x3c789cf2	0.015174137
44	0x3e0881b1	0.13330723
45	0xbc42b84a	-0.011884758
46	0x3d99112e	0.0747398
47	0xbd860a16	-0.065448925
48	0x3d839d8c	0.06426534
49	0xbd9309b9	-0.07179589
50	0xbe2ecc2a	-0.1707007
51	0x3d6b91cb	0.057512086
52	0x3d5333b5	0.051562984
53	0x3da5d1b7	0.080966406
54	0xbdf60a6e	-0.12013708
55	0x3e0f4acf	0.13993381
56	0x3de1f59d	0.11033175
57	0x3e195927	0.14975415
58	0xbdc834b1	-0.09775675
59	0xbc98678c	-0.018604062
60	0x3db9565e	0.09049676
61	0xbca0c207	-0.01962377
62	0xbd5e4e8e	-0.054274134
63	0x3e2cfac8	0.1689254

actor.2.weight f4 [32, 64]
0	0x3e2302da	0.15919057
1	0x3e278503	0.16359334
2	0x3c97b453	0.018518602
3	0xbe818b0c	-0.25301397
4	0xbcb2a42a	-0.021806795
5	0x3e242f78	0.16033733
6	0x3e0f62d7	0.14002548
7	0x3ddfc3e0	0.10926032
8	0x3e057f16	0.1303676
9	0xbe87048d	-0.2637066
10	0x3e74a260	0.23890066
11	0x3e29d533	0.16585235
12	0x3d774ab3	0.060373973
13	0x3d2422b2	0.04007215
14	0x3e0811ad	0.13287993
15	0xbd8d30b5	-0.06894056
16	0x3d4bf6cf	0.049795922
17	0x3e8a5966	0.2702133
18	0x3e460e8d	0.19341488
19	0xbdc77242	-0.0973859
20	0x3e978ba7	0.29598734
21	0xbe879bf7	-0.2648618
22	0xbecb3330	-0.3968749
23	0x3d703f4c	0.058654115
24	0x3d7bf208	0.061510116
25	0x3c56a321	0.013100416
26	0x3de0bf2f	0.109739654
27	0x3d5df474	0.054188207
28	0x3de5b940	0.11216974
29	0x3e15d31b	0.14631312
30	0xba6001e9	-0.00085452065
31	0x3d70e585	0.058812637
32	0x3e3a545b	0.18196242
33	0x3d2327ba	0.039832808
34	0x3d8808f1	0.066423304
35	0x3e16a091	0.14709689
36	0x3ba8e809	0.005154614
37	0xbdeee051	-0.11663879
38	0xbd0b862f	-0.034063514
39	0xbe738e1d	-0.2378468
40	0xbe50dcae	-0.20396683
41	0xbdf46532	-0.11933364
42	0xbe06b88d	-0.13156338
43	0xbe305286	-0.1721898
44	0x3d23f8e0	0.040032268
45	0x3e713c09	0.23558058
46	0xbd606230	-0.05478114
47	0xbdfe24f5	-0.12409393
48	0x3d3193c6	0.04335382
49	0x3d0565f3	0.03256793
50	0x3e7a62dc	0.24451774
51	0xbe7ae3a8	-0.24500906
52	0x3c8f52a9	0.01749547
53	0xbd8d1906	-0.068895385
54	0xbdd8ca2f	-0.105854385
55	0xbd845e6d	-0.06463323
56	0xbd8f875e	-0.07008241
57	0xbdf74176	-0.120730326
58	0xbc18f685	-0.009336119
59	0x3c2f438f	0.01069726
60	0xbe4ce9f6	-0.20011124
61	0xbe0af68d	-0.13570614
62	0xbd9503b7	-0.07276099
63	0xbe5b1d83	-0.21397977
64	0xbf0d5ee3	-0.5522291
65	0xbe190a98	-0.14945447
66	0xbc68d20e	-0.014210237
67	0xbda449ef	-0.08021914
68	0x3eaa3209	0.332413
69	0x3c817ce8	0.01580663
70	0xbc97f67a	-0.018550146
71	0xbecb98a1	-0.39764884
72	0x3e904148	0.28174806
73	0x3e48247b	0.19545166
74	0xbe061226	-0.1309286
75	0x3dd5ca95	0.1043903
76	0xbdde1663	-0.10844114
77	0x3ecbbbed	0.39791813
78	0xbe95d727	-0.2926571
79	0xbe291abe	-0.16514108
80	0xbde36a5d	-0.111042716
81	0x3d75e90d	0.060036708
82	0xbde377cb	-0.11106833
83	0xbe68816b	-0.22705619
84	0xbe40603e	-0.18786713
85	0xbe901c90	-0.2814679
86	0xbcfd5e08	-0.030928627
87	0xbe61c32c	-0.22047108
88	0x3c1728de	0.009226052
89	0xbb2de569	-0.0026534444
90	0x3d4f5c99	0.050625417
91	0xbc9c8e13	-0.019110715
92	0xbe3a7dcd	-0.18212052
93	0x3c2104d5	0.009827812
94	0xbd6d51f1	-0.057939474
95	0xbcdc69b3	-0.02690587
96	0xbe34d3f5	-0.1765898
97	0x3e0e1ce3	0.13878207
98	0xbe538b9b	-0.20658724
99	0xbd621e52	-0.055204697
100	0xbdc6e25f	-0.097111456
101	0xbd6c4b32	-0.0576889
102	0xbe266a66	-0.16251525
103	0x3e958a18	0.2920692
104	0x3e2ad86e	0.16684124
105	0xbb0fea9d	-0.0021959909
106	0x3e144b16	0.14481768
107	0x3d069ea6	0.032866143
108	0xbda0b71e	-0.07847427
109	0xbe0fe552	-0.14052323
110	0x3e615e9c	0.22008747
111	0xbc868090	-0.016418725
112	0xbe3fc802	-0.1872864
113	0x3c5dc5e3	0.013535949
114	0xbe0b2e02	-0.1359177
115	0x3d879519	0.06620235
116	0x3cfde93c	0.030995004
117	0x3da5edfd	0.08102033
118	0xbeeaca86	-0.45857638
119	0x3d2d9ace	0.04238396
120	0x3e1d1ac8	0.15342247
121	0xbbcdd2c7	-0.00628123
122	0x3c31a6bc	0.010842975
123	0x3d7257c2	0.059165724
124	0xbcdead62	-0.027182285
125	0xbc1e318a	-0.009655366
126	0xbd4fbc3f	-0.050716635
127	0x3ebeaf8d	0.3724331
128	0xbe3cdbce	-0.18443224
129	0xbdc54521	-0.09632326
130	0x3e1fe18c	0.15613383
131	0x3e5aae62	0.21355584
132	0x3d173b87	0.036922004
133	0xbd1a12dd	-0.037615646
134	0x3e013bc3	0.12620454
135	0xbe97a69d	-0.29619303
136	0xbbc07abe	-0.005874007
137	0x3df97094	0.12179676
138	0xbe09048f	-0.13380645
139	0xbe5b9880	-0.21444893
140	0xbe5e00fc	-0.21680063
141	0xbcbfc442	-0.023409013
142	0xbda54be7	-0.08071118
143	0xbdd3dabd	-0.103444554
144	0xbe5ba998	-0.21451414
145	0xbd99db2f	-0.07512509
146	0xbd1d2ded	-0.038373876
147	0x3e597e1b	0.21239512
148	0xbe17c78b	-0.14822213
149	0x3e5683ef	0.20948766
150	0x3e8e5aba	0.27803594
151	0xbc29171f	-0.010320454
152	0x3cb49175	0.022042016
153	0x3d5dc84b	0.054146092
154	0xbc11c36d	-0.008896691
155	0xbe1385bf	-0.14406489
156	0xbd551ed6	-0.05203136
157	0xbdbd6123	-0.09247043
158	0x3bd48b36	0.006486322
159	0xbe755ea7	-0.23961888
160	0xbd22de97	-0.03976306
161	0x3db3d7f1	0.08781422
162	0x3db070f4	0.08615294
163	0xbe471190	-0.19440293
164	0x3b7131ac	0.0036803288
165	0x3d6ce12f	0.05783194
166	0xbd2d7cb1	-0.042355243
167	0x3e7ebb14	0.24876052
168	0x3e11c75b	0.14236204
169	0x3e9e147a	0.30874997
170	0x3db738ad	0.08946357
171	0xbddb28a2	-0.107011095
172	0x3ddbde36	0.10735743
173	0xbee69a46	-0.45039576
174	0xbce7d0df	-0.02829784
175	0x3e83a393	0.25710735
176	0x3ca37136	0.019951444
177	0xbccd253a	-0.025042165
178	0xbe001ec9	-0.12511744
179	0x3d1ea4b9	0.03873131
180	0xbe1f146d	-0.15535136
181	0x3e33e0d7	0.17566238
182	0x3e0e9b63	0.13926463
183	0x3dff16dc	0.12455532
184	0xbd0e6528	-0.03476444
185	0x3cf869c4	0.03032387
186	0x3d726f56	0.05918821
187	0x3cf8b35a	0.030358959
188	0x3df30efd	0.11868093
189	0xbcb2148e	-0.021738317
190	0x3dc13990	0.09434807
191	0x3e91216d	0.28345814
192	0x3d7498bd	0.059715975
193	0x3e910c91	0.283299
194	0x3ecb4230	0.39698935
195	0x3d890592	0.066905156
196	0xbe292880	-0.16519356
197	0x3e323f4c	0.17406958
198	0x3e5f6ab3	0.21818046
199	0xbc5c3eb9	-0.013442689
200	0xbe60a540	-0.21938038
201	0xbe806a8d	-0.25081292
202	0xbe0d425d	-0.13794847
203	0xbe041c27	-0.12901364
204	0x3c1b24dc	0.009469237
205	0xbe2b5def	-0.16735052
206	0x3dd768da	0.10518046
207	0x3e3ca274	0.18421346
208	0x3d764407	0.06012347
209	0xbe90ae83	-0.28258142
210	0x3e039011	0.12847926
211	0x3ed6d9b6	0.41962975
212	0x3d2a92fb	0.041644078
213	0x3dc8c6a5	0.098035134
214	0x3d1da607	0.038488414
215	0xbcea2307	-0.028581155
216	0x3e156ceb	0.1459233
217	0xbc3ac000	-0.011398315
218	0x3ca77e12	0.020445857
219	0xbb72d2ad	-0.0037051842
220	0x3e261c8d	0.16221829
221	0x3d884891	0.06654466
222	0xbeb9556b	-0.3619798
223	0xbf0f23c7	-0.55913967
224	0x3c402c54	0.011729319
225	0x3e43a5ec	0.19106263
226	0x3ddacae7	0.10683232
227	0xbd8d7ced	-0.06908593
228	0x3cd56b3f	0.026052115
229	0xbdc71f0f	-0.09722721
230	0x3e0f8ca4	0.14018494
231	0xbe4ff12b	-0.20306842
232	0x3e39ea78	0.18155849
233	0x3d4b71e8	0.049669176
234	0xbc1d9452	-0.009617882
235	0xbd35945d	-0.044330943
236	0x3e81ee8c	0.2537731
237	0xbcbc9f57	-0.023025198
238	0x3e34d4be	0.1765928
239	0x3e529572	0.20564821
240	0x3eaae859	0.33380392
241	0x3e37cbbc	0.17948812
242	0xbed00901	-0.4063187
243	0x3e1673ee	0.14692661
244	0xbe0e0f0c	-0.13872927
245	0xbe12811b	-0.14307062
246	0xbc86538c	-0.01639726
247	0xbe41fe1c	-0.18944591
248	0xbc248ea0	-0.01004377
249	0x3e5b2de6	0.21404228
250	0x3da95510	0.082681775
251	0x3dd99557	0.106241874
252	0x3e533b91	0.20628192
253	0x3d605a4b	0.05477361
254	0xbde8434e	-0.11340962
255	0x3dd9de89	0.10638148

actor.2.bias f4 [32]
0	0xbc974f8d	-0.01847055
1	0x3de92acc	0.11385116
2	0x3d566d3a	0.05235026
3	0x3c9e5e27	0.019332005
4	0xbd635243	-0.055498373
5	0xbd9d7e4a	-0.07690103
6	0xbdef36b9	-0.116803594
7	0xbc831e8b	-0.016005775
8	0xbcc50be5	-0.024053523
9	0x3dcf2264	0.10113981
10	0xbda6abba	-0.08138223
11	0xbd0baa06	-0.034097694
12	0xbdc1aba8	-0.09456569
13	0x3da0db0f	0.07854282
14	0xbd5a842d	-0.05334871
15	0x3bc760ed	0.0060845525
16	0x3ddcce9e	0.107815966
17	0xbd2e8625	-0.0426084
18	0x3d74c20a	0.059755363
19	0x3b61b8d1	0.0034442435
20	0x3c20791d	0.009794501
21	0xbcc86222	-0.024460856
22	0xbb1b9bd2	-0.0023744
23	0x3df631fb	0.12021252
24	0xbdeec3e8	-0.1165846
25	0x3da5d964	0.080981046
26	0x3b26b86b	0.0025439512
27	0xbd8e85ab	-0.06959089
28	0xbb899596	-0.0041987402
29	0xbcda4f09	-0.026649015
30	0x3de86d38	0.11348957
31	0xbdf9dda9	-0.122004814

actor.4.weight f4 [4, 32]
0	0xbeaa5ade	-0.3327245
1	0xbc823a3d	-0.01589691
2	0x3f085c1e	0.5326556
3	0x3e238a3d	0.15970702
4	0xbe6b0dcd	-0.22954483
5	0xbefc4ad4	-0.4927584
6	0xbe07e4f0	-0.13270926
7	0x3d3cf84b	0.046135228
8	0x3e10029b	0.14063494
9	0xbee1a3a5	-0.44070163
10	0xbdf053e9	-0.117347546
11	0x3db827ce	0.08991967
12	0xbf5c3b17	-0.86027664
13	0x3dfd7b19	0.12376995
14	0x3efc776c	0.49309862
15	0x3e153d12	0.14574078
16	0x3d5fcd62	0.054639228
17	0x3e0e4a55	0.13895543
18	0x3e9ec1a7	0.3100712
19	0x3f271b2d	0.6527584
20	0x3dbb7d8e	0.09154807
21	0x3ed4169b	0.41423497
22	0x3e5d0ef8	0.21587741
23	0x3f293a74	0.6610482
24	0xbe6797dd	-0.22616525
25	0xbdc0b3a6	-0.09409265
26	0x3d5c8fda	0.053848125
27	0x3dfeda87	0.124440245
28	0xbded886b	-0.11598285
29	0xbeacf3df	-0.3377981
30	0x3c465557	0.012105308
31	0xbe6aa09a	-0.22912827
32	0xbe40f0c6	-0.18841848
33	0x3f22c90d	0.6358803
34	0x3ebf6c6d	0.3738741
35	0xbe971cf8	-0.2951429
36	0xbe6441a4	-0.22290665
37	0x3d84f305	0.06491665
38	0xbeb81dea	-0.35960323
39	0xbeaece3c	-0.3414172
40	0xbecc7057	-0.39929458
41	0x3c5c91f3	0.013462531
42	0x3f27d05e	0.6555232
43	0x3f58b034	0.84643865
44	0x3ca3fee7	0.020019008
45	0x3e9c1570	0.30485106
46	0x3e280abc	0.16410345
47	0xbf21a8a9	-0.6314798
48	0x3ec8f242	0.39247328
49	0xbd2a1d10	-0.041531622
50	0x3f1cae5b	0.61203545
51	0x3ddf5e06	0.109066054
52	0xbe7e40d2	-0.24829414
53	0x3e91fb81	0.28512195
54	0x3eea5b0b	0.45772585
55	0x3cd0526f	0.025429932
56	0xbe44ccd9	-0.19218768
57	0x3e090a77	0.13382898
58	0x3cb19112	0.02167562
59	0xbef0e9c8	-0.4705336
60	0x3ef57cb1	0.47946694
61	0xbe85e367	-0.26150057
62	0xbedb2773	-0.42803535
63	0xbed3e3b2	-0.41384655
64	0xbc096226	-0.008385217
65	0xbcd6eb1d	-0.026235158
66	0xbe2289ed	-0.15872927
67	0xbeaa4dd4	-0.33262503
68	0xbe3d97b9	-0.18514909
69	0x3dca7a10	0.09886563
70	0xbe9d50eb	-0.30725798
71	0xbea5d042	-0.3238545
72	0xbe6e3cc7	-0.23265372
73	0x3d832435	0.0640339
74	0xbe3f5ea5	-0.18688448
75	0x3e1ff8b8	0.15622222
76	0x3e1fef8d	0.15618725
77	0x3e317080	0.17328072
78	0x3b7e84ed	0.0038836554
79	0x3d95fbcb	0.07323416
80	0x3e36a4db	0.17836325
81	0xbea4b602	-0.3217011
82	0xbe010281	-0.12598611
83	0xbe47f16e	-0.19525692
84	0x3b484bc4	0.0030562738
85	0x3d3376f1	0.043814603
86	0xbe8de29b	-0.2771195
87	0xbd806b22	-0.06270434
88	0xbd0e67c8	-0.034766942
89	0x3d370ae3	0.044688117
90	0xbadb9f07	-0.0016755768
91	0xbe79881d	-0.2436833
92	0xbccfa062	-0.025345031
93	0x3dae0617	0.08497255
94	0x3eb4dc13	0.35324153
95	0x3bb40b7e	0.005494534
96	0xbd63a6cc	-0.05557899
97	0xbe403695	-0.18770821
98	0x3c424109	0.011856326
99	0xbe13367c	-0.14376253
100	0xbeeb89c3	-0.4600354
101	0x3e5ec59d	0.21755071
102	0xbe9c34ca	-0.30509025
103	0xbe060304	-0.13087088
104	0xbe10b77c	-0.14132494
105	0x3ec68d95	0.38779894
106	0xbca1c4b5	-0.019747118
107	0x3e3a8895	0.18216164
108	0xbd178b7f	-0.03699827
109	0xbe2bf228	-0.16791594
110	0xbec3bf96	-0.38232106
111	0x3e010c10	0.12602258
112	0xbe8a944a	-0.2706626
113	0xbf23a839	-0.6392856
114	0x3e25c638	0.16188896
115	0x3c315260	0.010822862
116	0xbeba5988	-0.36396432
117	0xbebac2f8	-0.36476874
118	0xbe7cbaa8	-0.24680579
119	0x3dacade2	0.08431603
120	0x3eae5eff	0.3405685
121	0xbf05459b	-0.52059335
122	0xbf22832e	-0.63481414
123	0x3c33cd85	0.010974293
124	0x3e816091	0.25268987
125	0xbe925e59	-0.28587607
126	0x3e9e6bf9	0.30941752
127	0xbe4f49e4	-0.20243031

actor.4.bias f4 [4]
0	0x3df31fff	0.11871337
1	0xbdb2cabb	-0.08730074
2	0x3e481e61	0.19542839
3	0xbe188069	-0.14892735

critic.0.weight f4 [64, 24]
0	0x3e53f3ac	0.20698422
1	0x3e178306	0.14796075
2	0x3e21b5fd	0.1579208
3	0xbdec4b23	-0.11537769
4	0xbd7460be	-0.059662573
5	0xbdbbbd49	-0.09166963
6	0x3db76136	0.089540884
7	0x3df1630f	0.11786472
8	0x3e356276	0.17713341
9	0xbdfacd73	-0.122462176
10	0x3dcb8523	0.09937503
11	0xbd4357d8	-0.047691196
12	0xbc2e77b4	-0.010648657
13	0x3e49d8c1	0.19711591
14	0xbe17e328	-0.14832747
15	0xbdaa0ad7	-0.08302849
16	0x3d2d43c4	0.042300954
17	0x3dc1f989	0.09471423
18	0xbd58734b	-0.052844327
19	0xbd277419	-0.040882204
20	0xbd8ddf1e	-0.06927322
21	0xbc25945a	-0.010106171
22	0xbe275da2	-0.16344312
23	0xbd9c493d	-0.076311566
24	0x3ccbdae5	0.02488465
25	0x3dfbf648	0.12302834
26	0x3e23e98b	0.16007058
27	0x3ca641e8	0.020295098
28	0xbdb40ad3	-0.08791127
29	0x3e14f248	0.14545548
30	0xbe472b09	-0.1945001
31	0x3d93289c	0.0718548
32	0x3d556745	0.05210044
33	0xbc71edef	-0.0147662
34	0x3e3b08b5	0.1826504
35	0x3e081f05	0.13293083
36	0x3e45227a	0.19251433
37	0xbde70dd7	-0.112819366
38	0xbd6db0de	-0.05803
39	0xbe05368c	-0.13009089
40	0x3dff2120	0.1245749
41	0xbe124181	-0.142828
42	0x3da22ee0	0.07919097
43	0x3e0e9394	0.13923484
44	0x3d822f0a	0.06356628
45	0x3d414395	0.047183592
46	0xbd6d5534	-0.057942584
47	0xbce37802	-0.027767185
48	0xbdb3221e	-0.08746742
49	0x3d267f75	0.040648896
50	0x3dbd6f90	0.092497945
51	0xbd8fc42d	-0.070198394
52	0xbe1705b4	-0.1474827
53	0xbdaa1a6c	-0.08305821
54	0xbdce49a0	-0.100726366
55	0xbdb29ce5	-0.087213315
56	0x3e22ed70	0.15910888
57	0x3e0a3b3a	0.13499156
58	0x3e1c86c2	0.15285781
59	0x3923fac6	0.00015638312
60	0xbdc0744a	-0.093971804
61	0x3e1d49a4	0.15360123
62	0xbe5835a2	-0.2111421
63	0x3b80dbbe	0.0039324453
64	0xbe20b60a	-0.15694442
65	0xbdf68c67	-0.12038498
66	0x3dc74f1c	0.09731886
67	0xbe3baa4a	-0.18326679
68	0xbdf20639	-0.11817593
69	0xbe279d87	-0.16368686
70	0x3e40a6cd	0.1881363
71	0xbd8dc410	-0.069221616
72	0x3e26b55b	0.16280119
73	0xbdb49e16	-0.08819215
74	0x3e0da848	0.13833725
75	0xbd744e4b	-0.05964498
76	0x3d3516f7	0.044211354
77	0x3ddafc86	0.10692696
78	0x3df6c14b	0.120485865
79	0xbdf29bd3	-0.11846127
80	0x3e1871c0	0.14887142
81	0x3e10d28d	0.14142819
82	0x3d914a55	0.07094256
83	0x3da004d0	0.07813418
84	0xbd935ceb	-0.07195457
85	0x3dae51a7	0.08511668
86	0x3df5afa5	0.11996392
87	0x3dfb6680	0.1227541
88	0x3cd2c0fa	0.025726784
89	0xbe2b5b20	-0.1673398
90	0x3e367f5f	0.17822026
91	0xbe2e7c49	-0.17039599
92	0xbe2172dd	-0.15766473
93	0x3c7c5b2d	0.015402597
94	0x3d1f9d3e	0.038968317
95	0x3e1392a9	0.14411415
96	0xbe0a2d23	-0.13493781
97	0xba0e1529	-0.0005420023
98	0xbde8bdd4	-0.11364332
99	0xbe4f29d3	-0.20230798
100	0x3e0c7775	0.13717444
101	0xbc9c3723	-0.01906926
102	0x3e011e0c	0.12609118
103	0xbd1da9fa	-0.03849218
104	0x3de14897	0.110001735
105	0xbe1839cc	-0.14865798
106	0x3d310737	0.04321977
107	0xbdb08644	-0.08619359
108	0x3b1c4707	0.0023846047
109	0xbd63a097	-0.055573072
110	0xbe5296f7	-0.20565401
111	0xbdcc7c82	-0.099846855
112	0x3dfbcad0	0.12294543
113	0xbe2b3bf4	-0.16722089
114	0x3e28cf79	0.16485395
115	0x3da063e1	0.078315504
116	0x3da94552	0.08265175
117	0x3e010232	0.12598494
118	0xbe430c2e	-0.19047615
119	0xbc3e926d	-0.01163159
120	0xbc67525a	-0.014118755
121	0x3d7fe70f	0.062476214
122	0xbe27c32a	-0.16383043
123	0xbcdd4b5f	-0.027013479
124	0x3d8aa62d	0.06769977
125	0xbde17a43	-0.11009648
126	0xbc44fcf9	-0.012023204
127	0xbdb118e9	-0.08647329
128	0x3dadfdf2	0.08495702
129	0x3d88f56f	0.06687438
130	0x3d9e2de4	0.07723597
131	0xbd2a39b7	-0.041558947
132	0xbb30a419	-0.0026953279
133	0x3e10ec20	0.14152575
134	0xbbb04063	-0.0053787692
135	0x3d8bc988	0.068255484
136	0x3db19844	0.086716205
137	0x3db0f511	0.08640493
138	0xbe4529d8	-0.19254243
139	0xbdefd633	-0.11710777
140	0xbcab8001	-0.02093506
141	0xbcd1a4e8	-0.025591329
142	0x3e3b72ec	0.18305558
143	0x3ca0a8ff	0.019611834
144	0xbd7b88b9	-0.061409686
145	0xbe1f3f63	-0.15551524
146	0xbdcc27cf	-0.099685304
147	0x3dd9bf6a	0.106322125
148	0x3e068f1f	0.13140534
149	0x3e006b00	0.12540817
150	0xbcfe88f3	-0.031071162
151	0x3b1919c3	0.0023361302
152	0x3e0384f4	0.12843686
153	0xbd0c910e	-0.034318022
154	0x3dc4b339	0.096044965
155	0x3ca0ddfe	0.019637104
156	0x3d88d89c	0.0668194
157	0xbe33c0a3	-0.17553954
158	0xbdb5e396	-0.08881299
159	0xbe369ca6	-0.17833194
160	0x3e1eda67	0.15513001
161	0x3de70c6f	0.112816684
162	0xbd90b4ec	-0.07065758
163	0xbe175f68	-0.14782488
164	0xbdfa8a26	-0.12233381
165	0x3e16f191	0.14740588
166	0x3e0743ec	0.13209504
167	0x3d897bb0	0.06713045
168	0xbe1c7b3d	-0.15281387
169	0x3dc3d5cd	0.09562264
170	0x3cd6e28e	0.026231077
171	0xbbf91178	-0.0076009594
172	0x3e30bbff	0.17259215
173	0x3d4cf82d	0.050041366
174	0xbded8c57	-0.11599033
175	0xbce39146	-0.027779233
176	0xbe1b0909	-0.15140165
177	0x3e23d132	0.1599777
178	0x3dbcc9cb	0.092181765
179	0x3db6b74a	0.08921678
180	0x3da32f72	0.07968034
181	0x3dd9915c	0.10623428
182	0xbdec6e1c	-0.11544439
183	0x3e24b2e2	0.16083863
184	0xbe444bbd	-0.19169517
185	0x3d8e7127	0.06955176
186	0xbd327589	-0.04356912
187	0x3c856dc4	0.016287692
188	0x3d9eab1c	0.0774748
189	0xbe5232c4	-0.20527178
190	0xbd2c5e0c	-0.042081878
191	0x3dd02433	0.101631545
192	0xbe17f27e	-0.14838597
193	0x3db668b4	0.08906689
194	0xbe31d27f	-0.17365454
195	0x3d0ca8c5	0.03434064
196	0xbce59ffb	-0.028030386
197	0x3d1224b9	0.035679553
198	0xbdd3be26	-0.10339002
199	0x3dc3d9ec	0.0956305
200	0xbdf433c3	-0.11923935
201	0x3dcec4f7	0.10096162
202	0xbd356a6f	-0.044290956
203	0x3dd0c873	0.10194483
204	0xbe32036d	-0.1738412
205	0xbc1715e4	-0.009221528
206	0xbdc3fc2a	-0.09569581
207	0xbd8031cb	-0.06259497
208	0x3c582bbe	0.013194023
209	0xbe2282fe	-0.15870282
210	0xbe20f10e	-0.15716955
211	0x3dfa9fd8	0.12237519
212	0x3d093266	0.03349533
213	0x3de863cf	0.11347162
214	0xbe3e4d6f	-0.18584226
215	0xbe0ed781	-0.13949396
216	0x3e0d10f9	0.13776006
217	0x3d14f4fe	0.036366455
218	0x3da3798d	0.07982168
219	0x3da03179	0.07821936
220	0x3da591df	0.08084463
221	0x3da33f27	0.0797103
222	0xbdc031c8	-0.09384495
223	0xbdbab3f2	-0.09116353
224	0x3e3623fa	0.17787161
225	0x3c046928	0.008081712
226	0x3daedbad	0.085379936
227	0x3d98199d	0.0742676
228	0xbddb8130	-0.10718
229	0xbe51e298	-0.20496595
230	0xbe4d447a	-0.20045653
231	0xbdfe413d	-0.12414787
232	0x3d994a00	0.074848175
233	0xbd02623e	-0.031831972
234	0xbd954ff3	-0.0729064
235	0xbe1c9177	-0.15289865
236	0x3d2fca1b	0.042917352
237	0xbd037e93	-0.032103132
238	0x3d7c5691	0.061605994
239	0x3d0dbb8f	0.034602698
240	0xbe812f55	-0.25231424
241	0x3ba72f44	0.00510207
242	0xbe3f13df	-0.18659924
243	0x3e0c0376	0.13673195
244	0xbe1a1fc9	-0.15051188
245	0xbc18f9f1	-0.009336934
246	0xbd842452	-0.0645224
247	0x3d86ddcb	0.065852724
248	0xbcf988f1	-0.030460807
249	0x3e070ba3	0.13188033
250	0x3e1088a5	0.14114626
251	0xbde3f4b6	-0.11130659
252	0xbd7fed40	-0.06248212
253	0xbe2304bb	-0.15919773
254	0x3e28b8cb	0.16476743
255	0xbdf3d2c7	-0.11905437

critic.0.bias f4 [64]
0	0x3e40cce3	0.18828158
1	0x3dd8d114	0.105867535
2	0xbdfaee8f	-0.12252533
3	0xbe2474bd	-0.16060157
4	0x3e360e05	0.17778786
5	0x3c1c63a5	0.0095452415
6	0x3de4ba7a	0.1116838
7	0x3e3cbec0	0.1843214
8	0xbd014f7d	-0.031569947
9	0x3c0d5cbc	0.008628067
10	0x3e0f9853	0.14022951
11	0xbe306619	-0.17226447
12	0xbd2555fc	-0.040365204
13	0x3e0e4a7c	0.13895601
14	0xbcbcb18e	-0.023033883
15	0x3c92d740	0.017924905
16	0xbd026a53	-0.03183968
17	0xbcd4cb3b	-0.025975814
18	0xbe2ce279	-0.16883267
19	0xbd7d65d4	-0.06186469
20	0x3c523996	0.012831112
21	0xbdb18848	-0.08668572
22	0xbe35478e	-0.17703077
23	0xbce9d563	-0.028544134
24	0x3e5ddafc	0.21665567
25	0xbd3bf533	-0.045888137
26	0x3dbdedb9	0.092738576
27	0xbde4b56a	-0.111674145
28	0xbb2d7ecf	-0.002647329
29	0xbe0eec14	-0.13957244
30	0xbd8e851f	-0.069589846
31	0x3e292074	0.16516286
32	0xbd0f2167	-0.034943964
33	0x3d1530a5	0.036423344
34	0x3d8e4fbf	0.06948804
35	0xbe48253a	-0.19545451
36	0xbe0d3e42	-0.1379328
37	0xbcfc053f	-0.03076422
38	0xbe207339	-0.15668954
39	0xbc3955c6	-0.011311954
40	0x3dc8dd53	0.09807839
41	0x3c34cbb1	0.011034892
42	0xbe3c8679	-0.18410672
43	0xbe0e2f5f	-0.13885258
44	0xbe06bbb8	-0.13157547
45	0xbe4e0280	-0.20118141
46	0xbe1cc3b6	-0.15309033
47	0x3b78b633	0.0037950396
48	0x3df7d723	0.12101581
49	0x3d98d219	0.07461948
50	0xbe27ce51	-0.16387297
51	0xbe27a9a8	-0.16373312
52	0x3dd09e03	0.10186388
53	0x3de73f2f	0.11291348
54	0x3d98c3a0	0.074591875
55	0xbd59252c	-0.053013965
56	0x3e1b7332	0.15180662
57	0xbd294098	-0.041321367
58	0xbe3a2cbe	-0.1818113
59	0x3d53fc75	0.051754434
60	0xbe1a4fce	-0.15069506
61	0x3d979867	0.07402115
62	0xbe22e349	-0.15907015
63	0xbdadec2a	-0.0849231

critic.2.weight f4 [32, 64]
0	0x3d92e0cf	0.07171785
1	0xbd9e41ad	-0.077273704
2	0xbd8f3e4e	-0.069943056
3	0xbcbc590b	-0.022991678
4	0x3d6ff91e	0.058587186
5	0xbd935697	-0.0719425
6	0xbdd80ed8	-0.10549706
7	0xbd2f705a	-0.042831756
8	0x3dbe760c	0.092998594
9	0x3dc1b64b	0.09458598
10	0xbdf77abe	-0.12083958
11	0x3ccffb1a	0.02538829
12	0xbd958992	-0.0730163
13	0xbe03f540	-0.12886524
14	0xbd05b58b	-0.032643836
15	0x3e0018e0	0.12509489
16	0xbccbbbde	-0.024869855
17	0xbcdcba85	-0.026944408
18	0xbdd46a30	-0.10371816
19	0x3dae5577	0.08512395
20	0x3dc0e525	0.09418706
21	0x3daad25e	0.083409056
22	0xbdd4cb67	-0.103903584
23	0xbd25b5e2	-0.04045666
24	0x3dbc63a5	0.09198693
25	0x3dca50b8	0.09878677
26	0xbd9574c0	-0.07297659
27	0x3dc1a760	0.094557524
28	0x3d6b824e	0.057497315
29	0xbdbee9d2	-0.093219414
30	0x3daa493a	0.08314748
31	0xbc47b27d	-0.012188551
32	0x3c62352f	0.013806625
33	0xbd70483e	-0.058662646
34	0x3cead34e	0.028665211
35	0xbd8feb03	-0.07027247
36	0xbc5befd1	-0.013423876
37	0xbc70e61a	-0.014703298
38	0xbdd5cdfa	-0.104396775
39	0x3dc9991c	0.098436564
40	0xbdbe9ad6	-0.09306876
41	0x3d966577	0.07343572
42	0x3c2b600f	0.010459914
43	0x3b8f416e	0.0043718135
44	0x3d3ef405	0.046619434
45	0x3dbca25b	0.09210654
46	0xbdfd0819	-0.1235506
47	0x3d7e75d1	0.062124077
48	0xbd93988a	-0.07206829
49	0x3de39609	0.11112601
50	0xbd9da3bb	-0.07697245
51	0x3d9f7f91	0.07788003
52	0xbdfafa56	-0.12254779
53	0xbbfca134	-0.0077096466
54	0x3d59619d	0.053071607
55	0x3e01fdc2	0.12694457
56	0x3ddccb0b	0.10780915
57	0xbd7f6a46	-0.06235721
58	0xbdcb76f2	-0.099347964
59	0x3d0298d3	0.031884026
60	0x3dd1184c	0.102097124
61	0xbd51a222	-0.051180013
62	0xbd3700a9	-0.044678364
63	0xbd89187d	-0.06694124
64	0x3daec663	0.08533933
65	0xbcab00af	-0.02087435
66	0x3dc535c1	0.09629393
67	0xbca93f38	-0.020660028
68	0x3dcffe73	0.10155954
69	0x3c904dbe	0.017615195
70	0xbd85c88d	-0.06532393
71	0x3c4d1141	0.012516321
72	0xbdb840bf	-0.08996724
73	0xbda3bead	-0.07995353
74	0x3cbce1f4	0.023056962
75	0xbdc3d5ec	-0.09562287
76	0x3de62262	0.11237027
77	0x3de714a8	0.11283237
78	0x3db75cbf	0.08953237
79	0xbc3dbe06	-0.01158095
80	0x3d9d3f08	0.07678038
81	0x3d812adb	0.06307002
82	0xbcfef4dd	-0.03112262
83	0x3cc7df55	0.024398485
84	0xb9e81f00	-0.00044273585
85	0xbd284b3c	-0.041087374
86	0xbd84d41d	-0.0648577
87	0x3ddb5783	0.10710051
88	0xbd87011a	-0.06592007
89	0xbd0954f5	-0.033528287
90	0xbda5f9b0	-0.08104265
91	0x3db4a449	0.088203974
92	0xbdc48b25	-0.09596852
93	0xbd30fce6	-0.043209933
94	0x3bf2d086	0.007410112
95	0x3d4b6e4e	0.04966574
96	0xbde2a220	-0.11066079
97	0xbdbc9bc1	-0.09209395
98	0xbdc37254	-0.09543291
99	0x3dbc2170	0.09186065
100	0x3d86346d	0.06552968
101	0xbd1c2d8f	-0.038129386
102	0x3ce74183	0.02822948
103	0x3debba96	0.11510198
104	0x3d540cdc	0.051770076
105	0x3d5e6f80	0.054305553
106	0x3d6b0108	0.05737403
107	0xbdef1c3d	-0.11675308
108	0x3dae3a95	0.085072674
109	0xbded623c	-0.11591002
110	0x3dc1b03e	0.09457444
111	0x3d23fc2f	0.040035423
112	0xbde7824a	-0.113041475
113	0xbcc47957	-0.02398364
114	0xbd603b5d	-0.054744113
115	0xbde7316d	-0.11288724
116	0xbdf35974	-0.11882296
117	0x3d34bb9d	0.044124234
118	0xbd37edb9	-0.044904444
119	0x3c15fef7	0.009155027
120	0x3dc2f445	0.09519247
121	0xbd695c15	-0.056972582
122	0xbd83a530	-0.064279914
123	0x3d884c79	0.06655211
124	0xbcf08a93	-0.029362952
125	0xbd44fb82	-0.04809142
126	0xbd95a323	-0.073065065
127	0x3d3af568	0.045644194
128	0x3d5b0c6e	0.05347865
129	0xbd8cac2e	-0.06868778
130	0x3e03471a	0.12820092
131	0xbd34fa81	-0.04418421
132	0xbc06bb39	-0.008223348
133	0xbcb211cb	-0.021737
134	0x3d25aeab	0.04044978
135	0x3d49eaa5	0.04929604
136	0xbd06ff46	-0.03295829
137	0xbddc73bd	-0.10764263
138	0x3d9d1cba	0.07671495
139	0xbdec3c8b	-0.11534985
140	0xbc62d41d	-0.013844517
141	0x3dadfd89	0.084956236
142	0x3d31fae8	0.043452173
143	0x3d848daa	0.06472333
144	0x3d161fb3	0.036651324
145	0xbd3963c5	-0.045261163
146	0xbd4130af	-0.04716557
147	0xbd8e1f19	-0.06939525
148	0x3c83c8bb	0.016086927
149	0xbcf11591	-0.029429229
150	0xbd76ad3b	-0.0602238
151	0x3c8a415e	0.016876873
152	0x3db590ee	0.08865534
153	0xbd36452c	-0.04449956
154	0x3d04e9df	0.0324496
155	0x3ca992e1	0.02069992
156	0x3ddad077	0.10684293
157	0xbd484c75	-0.04890104
158	0x3d04e9ee	0.032449655
159	0x3cd90e86	0.026496183
160	0x3dbefbd5	0.09325377
161	0xbe103846	-0.14083967
162	0x3d8b5fa7	0.068053536
163	0x3b885fc6	0.0041618077
164	0xbda0d8db	-0.07853862
165	0x3d638d8f	0.055554923
166	0xbd0c3395	-0.03422888
167	0xbcfd70a6	-0.030937504
168	0xbcf81ff5	-0.030288676
169	0xbdda622a	-0.106632546
170	0x3d6aa9e4	0.057290927
171	0xbdb336ed	-0.08750711
172	0xbd0073ca	-0.031360425
173	0x3cb326c3	0.021869069
174	0xbd0f0f02	-0.034926422
175	0x3c677f87	0.014129526
176	0x3bd97a15	0.0066368678
177	0x3d862871	0.06550682
178	0x3d836b47	0.06416946
179	0x3d8271ba	0.06369348
180	0x3dda8189	0.10669238
181	0x3c9172c3	0.017754918
182	0xbbe56b68	-0.007001329
183	0xbdee29a2	-0.116290346
184	0xbb7df311	-0.0038749615
185	0xbc16e04b	-0.009208749
186	0x3dc7d7ea	0.09757979
187	0x3dc81294	0.097691685
188	0x3d3b5093	0.04573114
189	0xbd15ae70	-0.03654331
190	0x3d89d5b0	0.06730211
191	0x3d90087c	0.07032868
192	0xbcb07a1e	-0.021542605
193	0x3d955d99	0.07293243
194	0x3c412fc2	0.0117911715
195	0xbdd4079b	-0.10353013
196	0x3d2aa03b	0.041656714
197	0xbd7caeca	-0.06169013
198	0xbd1b1c47	-0.037868764
199	0x3d8ad3bd	0.06778667
200	0x3cbbe5f3	0.022936797
201	0xbdcafcfc	-0.09911534
202	0x3cfd5773	0.030925488
203	0xbc81e5fa	-0.015856732
204	0x3d28ea77	0.041239228
205	0xbd508eda	-0.050917484
206	0xbd1524f1	-0.036412183
207	0xbdcf6c50	-0.10128081
208	0x3c3ba147	0.011452026
209	0xbcf5a947	-0.029987944
210	0xbdb31c16	-0.08745591
211	0xbdfdc16a	-0.123904064
212	0xbdc54473	-0.09632196
213	0x3dda624b	0.10663279
214	0xbe07006f	-0.13183759
215	0xbdaba2ff	-0.083806984
216	0x3dc83ef4	0.09777632
217	0x3d4a0d54	0.049329117
218	0x3c410ce0	0.011782855
219	0x3df8fbd9	0.12157411
220	0x3dea4913	0.11439719
221	0x3db63d34	0.08898392
222	0x3d7e5c64	0.06209983
223	0xbd16ab20	-0.03678429
224	0xbdbc3ab2	-0.09190883
225	0x3da8cd66	0.08242302
226	0xbdf50df8	-0.11965555
227	0xbdaa9c28	-0.08330566
228	0xbdc0b40d	-0.09409342
229	0x3e0e64c5	0.13905628
230	0xbd3a78d2	-0.04552538
231	0x3dd21c49	0.10259301
232	0xbdb80b6e	-0.08986555
233	0x3c912bc7	0.01772107
234	0x3db5b4dd	0.088723876
235	0x3d431bf1	0.04763407
236	0x3db2a85c	0.08723518
237	0xbdcb23e8	-0.09918958
238	0x3db60766	0.0888813
239	0x3dcb008a	0.09912212
240	0xbd6d0191	-0.057862822
241	0x3d8bffe1	0.068359144
242	0x3de6549c	0.11246607
243	0x3ddb4b29	0.10707695
244	0xbd90f6b4	-0.07078305
245	0x3cd704d0	0.026247412
246	0xbd608f97	-0.054824438
247	0xbd59008d	-0.05297904
248	0xbd20deb7	-0.039274897
249	0x3cd4adee	0.025961842
250	0x3dfce976	0.12349217
251	0xbd8251e0	-0.06363273
252	0xbcfca8cd	-0.03084221
253	0xbdb35937	-0.08757251
254	0x3d859fd5	0.06524626
255	0x3d53b955	0.05169042

critic.2.bias f4 [32]
0	0xbd1f2b26	-0.03885951
1	0x3c8f378c	0.017482542
2	0xbdde3b79	-0.10851187
3	0x3c116eef	0.008876546
4	0x3da234b1	0.07920206
5	0xbdaa88aa	-0.08326848
6	0x3d0c9731	0.034323875
7	0xbdcf8f63	-0.10134771
8	0xbc9a081c	-0.018802695
9	0x3d9e41a7	0.07727366
10	0x3d922445	0.07135824
11	0x3d6d497f	0.05793142
12	0x3de9910c	0.114046186
13	0xbdbbf611	-0.09177793
14	0x3db00acb	0.085958086
15	0x3d1bc486	0.038029216
16	0xbdb12d5a	-0.08651228
17	0xbd5abe2f	-0.05340403
18	0xbd1b7e62	-0.037962325
19	0x3d9e27ba	0.07722421
20	0x3d8b56c4	0.068036586
21	0x3d23c8b9	0.039986346
22	0xb86f95ef	-5.7121677e-05
23	0xbd72320e	-0.059129767
24	0x3e0d0733	0.13772278
25	0x3b12da78	0.002240805
26	0x3da2cf07	0.079496436
27	0x3d81bcf9	0.06334872
28	0xbbaa8823	-0.005204217
29	0x3ddc71c0	0.107638836
30	0xbce2235c	-0.027604751
31	0x3df22166	0.118227765

critic.4.weight f4 [1, 32]
0	0x3d4acdb8	0.049512595
1	0x3db5b5f8	0.088725984
2	0xbe0e3896	-0.13888773
3	0xbd6a9e7a	-0.05728004
4	0x3dabfd02	0.08397867
5	0x398a1e34	0.00026343914
6	0x3e105d79	0.14098157
7	0x3e042587	0.1290494
8	0x39d9af4f	0.0004152008
9	0x3e1d71ef	0.15375493
10	0x3dac705c	0.08419868
11	0xbda4dd9f	-0.08050083
12	0xbbfdc6ec	-0.0077446606
13	0xbd2f4f27	-0.042800095
14	0x3ca4609e	0.020065602
15	0xbdf75e04	-0.12078479
16	0x3e020830	0.12698436
17	0xbdcd9802	-0.10038759
18	0xbd34a3e0	-0.044101596
19	0x3d810112	0.06299032
20	0xbca97f33	-0.020690536
21	0xbdbb1c49	-0.09136254
22	0xbcb9e8f2	-0.022694085
23	0xbd9bc37b	-0.07605644
24	0xbd1a032c	-0.03760068
25	0x3de30a2f	0.11085927
26	0xbca1a2cd	-0.01973095
27	0xbcb3090c	-0.0218549
28	0x3ddd10e2	0.10794236
29	0xbdf507af	-0.11964356
30	0x3e11a652	0.14223602
31	0xbdbcf895	-0.09227101
