Policy Gradient/walker_ppo_model_400.pth (torch_old, 584582 bytes, 11 tensors)

actor.0.weight f4 [256, 24]
000000 4d 9a 29 3d 2d 6c a8 bd 39 ed 69 3e 81 da 0f be
       0.04140692 -0.08223758 0.228444 -0.14048196
000010 85 b8 c1 3d c7 0a d8 3d b3 9d f2 bd fd 49 ab bb
       0.094590224 0.105489306 -0.11846485 -0.005227326
000020 59 9e a8 3b 2a de 28 be 38 d8 81 3e 93 f3 bf 3d
       0.0051458296 -0.16490999 0.25360274 0.0937263
000030 be e0 2a 3e 86 e6 79 3c ec 94 d3 bc c0 83 a3 38
       0.16687295 0.015252715 -0.025827847 7.796986e-05
000040 a4 ff 4a 3e 2e 83 bf 3d 35 c3 46 3d 83 85 9a bd
       0.19824082 0.093511924 0.048526008 -0.075449966
000050 8e 33 30 3e 78 37 bc bd a8 5b 69 bc a2 2e 53 3e
       0.17207167 -0.09190267 -0.014243044 0.20623258
000060 4d 5f 9a 3d 6d 59 94 3e 21 67 15 be cd f9 c2 3c
       0.075377084 0.28974476 -0.14590122 0.023800755
000070 79 1e 3d 3c 43 c2 7e be b2 3d 71 3e 65 16 a6 3d
       0.01154291 -0.24878792 0.23558691 0.0810974
000080 b6 72 f0 3a 09 3d 1a 3e 55 6f ac ba d7 67 ad bd
       0.0018344733 0.15062346 -0.0013155738 -0.084670715
000090 9a a8 28 be 09 a9 c1 bd af 9f 8d bd f1 82 15 be
       -0.16470566 -0.09456069 -0.06915223 -0.14600731
0000a0 63 91 e8 bd d3 cd 49 bd f8 7a 27 3e 47 46 a5 3d
       -0.11355855 -0.049268555 0.16355503 0.08070045
0000b0 57 66 d2 bd e6 56 b2 3c ad f7 1f 3e d3 77 c6 bd
       -0.10273426 0.021769952 0.15621825 -0.096908234
0000c0 a9 3f 2e 3d 09 7e f3 bd 99 a1 8b be 8c d8 bc 3e
       0.04254118 -0.11889274 -0.27271727 0.36883962
0000d0 cd de e9 bd e8 1d a5 be 53 1a bb 3d 4e a2 ae 3d
       -0.11419449 -0.3224938 0.0913588 0.08527051
0000e0 4f fc b5 3a ef 30 12 3e e2 79 be 3d e1 4f 4a be
       0.0013884398 0.14276479 0.09300591 -0.19757034
0000f0 e0 ce ed bd ec 26 13 3e 8d 5e 33 be 84 91 39 bd
       -0.11611724 0.14370316 -0.17516537 -0.04530479
000100 d8 51 45 3e 59 c9 01 3e be d7 0e 3e f3 a9 de bd
       0.19269502 0.12674464 0.13949487 -0.10872259
000110 aa b4 46 3c e0 48 d4 3d 72 a7 18 bd 38 64 9b bc
       0.012128035 0.10365462 -0.037269063 -0.018968686
000120 ea a6 49 be f4 15 e1 3d fd 6b ef 3c 1c fe e9 3d
       -0.19692579 0.10990515 0.029226298 0.11425421
000130 0d 22 21 be 22 9f b5 be da 1a cc 3c 70 00 e7 3d
       -0.15735646 -0.3547297 0.024915148 0.1127938
000140 04 ea 23 be 45 da 1d 3e ca bf 8c bd b0 96 47 3e
       -0.16007239 0.15415294 -0.06872518 0.19491076
000150 9a dc 82 be 1f 60 19 be 81 a8 3e 3c ca 4e 41 3d
       -0.2555893 -0.14978074 0.011636854 0.04719428
000160 47 c6 97 3c 63 fa 0c bd 64 f8 de bd e8 2f a9 bc
       0.018527163 -0.034418475 -0.108872205 -0.020652726
000170 ed fe f7 bc 4e 0d 90 3c 14 d1 64 bd a6 76 b7 bd
       -0.030272925 0.01758447 -0.055863455 -0.08958177
000180 77 f5 24 3e 62 91 47 be 30 a4 8f bd 27 be c2 3e
       0.16109262 -0.19489053 -0.07013738 0.380357
000190 8a 5f bd bc 0f 76 53 be 80 17 4a be 16 51 47 3d
       -0.023116846 -0.20650505 -0.19735527 0.048661314
0001a0 91 ed 7b bd 3b 6e 43 3e 4a 79 77 3e 7b cb 34 bd
       -0.061505858 0.19085018 0.24167362 -0.044139367
0001b0 84 42 4d bd 54 83 93 bd 01 01 ef bc ec b8 4a 3e
       -0.050112262 -0.07202783 -0.029175283 0.19797105
0001c0 ef 36 25 3e 3b 8b 4b 3e 00 4a 29 bc fd 7b 01 3e
       0.16134237 0.19877331 -0.010332584 0.12644954
0001d0 d5 e6 f7 bd 13 57 b3 3d 0c 3e 60 bd 3f 2f cf 3c
       -0.121045746 0.087568425 -0.054746673 0.025291083
0001e0 87 b1 f4 bd 59 74 07 be 93 bf 27 3e 33 41 9e 3d
       -0.11947923 -0.13227977 0.16381674 0.077272795
0001f0 4a 57 69 3e f2 49 19 3e 91 09 00 3e 47 62 0b be
       0.22787204 0.14969614 0.1250365 -0.13611709
000200 ce 49 be bc 65 b3 a4 bc 63 74 19 be 72 f9 09 3e
       -0.023228552 -0.020105073 -0.14985804 0.13474062
000210 67 96 c0 bd 4c 3b 38 3e 78 41 53 3d ae 03 68 3d
       -0.09403687 0.1799137 0.051576108 0.056644134
000220 6a af 51 3e f2 cc 3e 3e 06 67 65 3c fa 0f 1d 3e
       0.20477071 0.18632868 0.0140016135 0.15338126
000230 8b dd 6e bd 18 2a 23 be 14 cb c9 bd 60 e7 b5 bd
       -0.05831675 -0.15934026 -0.09853187 -0.08882022
000240 49 e5 ce bc 84 6b 7b 3e 2b a1 99 be 6e ae 86 3d
       -0.025255816 0.24552733 -0.30005774 0.065762386
000250 aa 4e 14 be 36 63 93 be 8e 72 8a bd eb 94 e8 3d
       -0.14483133 -0.2878663 -0.06760131 0.11356529
000260 fc 28 81 be d4 eb c2 3d ab 33 0a 3e 63 bc ad bd
       -0.2522658 0.09517637 0.13496272 -0.084831975
000270 89 db f0 bd 9e c0 f8 3c e9 1a aa 3d b0 73 df 3d
       -0.11760623 0.030365285 0.08305914 0.109107375
000280 b5 a9 3b be 2b 58 5b bc 8d 00 39 be 88 6f 74 3d
       -0.18326457 -0.01338772 -0.18066616 0.059676677
000290 cc 18 f2 bd 9f e0 40 3e e4 06 46 3e 96 6d a7 bd
       -0.11821136 0.18835686 0.19338566 -0.08175199
0002a0 f7 f1 77 3d b0 05 61 be a7 9b 40 3e 24 8c 11 bd
       0.06053349 -0.21974826 0.18809377 -0.03553404
0002b0 2d 89 2e 3e a7 55 89 3e f2 d3 f3 3d 51 25 82 3c
       0.17044516 0.2682316 0.1190566 0.015886934
0002c0 cf ec 3b bc 17 55 2e be 29 56 05 3e 29 b3 3a be
       -0.011470034 -0.17024647 0.13021149 -0.18232407
0002d0 c0 63 65 3e 08 82 fb 3d c3 05 b3 bd 04 e2 aa 3d
       0.22401333 0.12280661 -0.08741333 0.0834389
0002e0 37 4e 86 bd 3e c7 49 3c de b7 55 3d 36 e3 2f be
       -0.06557887 0.012315569 0.052177303 -0.17176518
0002f0 07 81 a9 bd 51 03 db bd 02 90 8e 3d 73 c1 f9 3d
       -0.08276563 -0.10693992 0.06961061 0.12195101
000300 ee 8d 1f bd b7 65 66 3d f4 14 d5 bd e0 5c 86 3d
       -0.038953714 0.056249347 -0.10404387 0.06560683
000310 81 d8 3a be 6d 4a 6c 3d 38 6b 46 3e 28 e7 23 3e
       -0.18246652 0.057688165 0.19376838 0.16006148
000320 a8 fe f0 3d a6 47 12 3e 47 ac 1d bd 87 1a 25 be
       0.11767322 0.14285144 -0.038494375 -0.161234
000330 1b 03 9b 3d 12 d6 85 3c bb 39 fb 3d 8b 53 47 be
       0.07568952 0.016337428 0.122668706 -0.19465463
000340 3e 68 d0 bd 35 87 5b 3d c3 4d 11 be 20 6f ea 3d
       -0.101761326 0.05359574 -0.1418982 0.11446977
000350 d9 91 29 3e 29 74 31 3c 22 a5 13 bd 7e e1 4b bd
       0.16559543 0.010830917 -0.036046155 -0.049775593
000360 ee db 8e bd 2e 8e f0 bd 45 4c 22 3e f0 c5 4c bd
       -0.06975542 -0.117458686 0.15849407 -0.049993455
000370 3d 0b 5f 3e 24 7c 90 be d1 dc 1f 3e ab 77 82 3e
       0.21781631 -0.28219712 0.15611579 0.25481924
000380 59 24 65 bd de cd 3b 3e 3a db 6a 3e 1d a2 a3 bd
       -0.055942867 0.18340251 0.22935191 -0.07989905
000390 49 45 69 be 19 70 9d bc 3d 58 05 be a1 bf 05 be
       -0.22780336 -0.019218491 -0.13021941 -0.13061382
0003a0 d2 45 19 be 7a f4 bc 3d 91 b6 86 3d 69 91 52 3e
       -0.1496804 0.09226318 0.065777905 0.20563282
0003b0 46 91 2b 3e b7 62 9b 3c 3c b0 35 3e 75 88 3f be
       0.16754636 0.01896797 0.1774301 -0.18704398
0003c0 bc eb 1c bd 2c 2d db bd 14 22 6e bd 61 85 c3 be
       -0.03831075 -0.10701975 -0.05813797 -0.38187698
0003d0 df 58 d6 bd 9c ca 00 3e 61 2c 97 bd 03 9f 39 bd
       -0.104661696 0.1257729 -0.073815115 -0.04531766
0003e0 30 f4 77 3d 13 44 60 be 48 a2 e3 bc 59 a9 3d bd
       0.06053561 -0.21900968 -0.027787343 -0.04630408
0003f0 c9 88 1f 3e c8 4c e3 bd 88 45 94 3d e2 02 24 3e
       0.15579523 -0.11098629 0.072398245 0.16016725

actor.0.bias f4 [256]
000000 05 8c 03 be c5 48 b4 bd 5d 61 1d be c3 96 2f 3b
       -0.12846382 -0.08802942 -0.15369172 0.0026792742
000010 d5 31 ef bd fe e7 19 be df 43 45 bd 1d a5 47 3d
       -0.116794266 -0.15029904 -0.04816043 0.04874145
000020 6f c4 9c bd e7 7b 3f 3e f6 54 cb 3d 90 35 5f bd
       -0.07654654 0.18699609 0.099283144 -0.05449444
000030 31 ae 38 3e b3 6f 89 bd 9d a0 24 3e 2b f4 b0 bd
       0.18035199 -0.06710758 0.16076894 -0.08640321
000040 e7 32 19 3e ae e7 19 3e 13 e1 ab bd 06 89 32 be
       0.14960824 0.15029785 -0.08392539 -0.17435083
000050 ce b5 67 3b fc 86 cc bd 6d db 92 3d 2e 98 d5 3d
       0.0035356167 -0.09986684 0.071707584 0.104294166
000060 5b fb d2 bd bf 2b 2c be e0 72 3f be b0 1e 57 bd
       -0.103018485 -0.16813563 -0.18696165 -0.0525195
000070 80 65 b0 bc dc 79 23 be 26 29 59 3d dc 9d 61 be
       -0.021532774 -0.15964454 0.053017758 -0.22032875
000080 93 aa 46 be 27 9a cc bd f0 45 0a bd a8 c6 2b be
       -0.19401006 -0.0999034 -0.033758104 -0.16775
000090 cb a3 ed 3c 6d 69 15 be 09 78 37 bd 95 17 45 3e
       0.029008767 -0.14590998 -0.04479221 0.19247277
0000a0 c0 f4 1d 3e ec 72 1a 3e 58 73 62 bd 18 5f b9 bd
       0.15425396 0.15082902 -0.05528578 -0.09051341
0000b0 56 70 0a be a3 84 49 be 17 6f 20 be f9 8d 1d be
       -0.13519415 -0.19679503 -0.15667377 -0.1538619
0000c0 a9 50 2b bc 7e 2c e7 bd 80 a6 e5 bd 19 0f fe 3c
       -0.010456243 -0.11287783 -0.11213398 0.031013058
0000d0 1a 18 fd 3b dd 47 bf 3d e5 cb 2c bd 4f ea 36 3e
       0.0077238204 0.09339879 -0.042186636 0.17862819
0000e0 90 e8 35 3e 61 43 05 bd 2b f6 4d 3d e7 31 51 3d
       0.17764497 -0.03253496 0.050283592 0.05107298
0000f0 39 d0 89 3d ec c9 2d bd 77 b2 bd bd b3 a8 96 3d
       0.067291684 -0.042428896 -0.09262555 0.073563956
000100 83 2b 2d bd 49 74 d2 3c 32 f7 b4 3d 56 a8 2a 3d
       -0.042277824 0.025690215 0.08836211 0.041664444
000110 1d bb 4c 3c 82 51 09 3e 66 14 4e be 41 45 da bd
       0.012495783 0.13409999 -0.20124969 -0.106577404
000120 2a 84 00 be c8 bb 43 be 35 2e b1 ba bf 1d 02 3d
       -0.12550417 -0.19114602 -0.0013517799 0.03176665
000130 7f 1f 33 3e 0e 1e fe bd 01 73 16 3d 2e 1f 2c 3d
       0.17492484 -0.12408076 0.03673077 0.042021923
000140 28 7d 14 3d 0a 78 53 3e 34 89 1a 3d 1d 35 9b 3d
       0.03625217 0.2065126 0.037728503 0.0757849
000150 90 40 7e 3d c6 c1 2d 3b 1e 1a 10 be fe 02 08 3c
       0.06207329 0.0026513203 -0.14072463 0.008301495
000160 78 ad 80 3b 09 51 2d 3c 58 d3 ef 3c f7 63 b0 3d
       0.003926929 0.010578402 0.029275581 0.08612817
000170 3d 0b 11 3e 93 0c b4 bd 14 45 40 be 27 15 1b 3e
       0.14164443 -0.08791461 -0.18776351 0.15144788
000180 85 8b 4d 3e 88 29 12 be 0b d0 88 3d 02 35 bf bd
       0.20072754 -0.14273655 0.06680306 -0.09336282
000190 cf df a7 bd d5 0d 57 bd 1c 9b c0 bd 27 e4 35 be
       -0.08196985 -0.052503426 -0.09404585 -0.17762814
0001a0 78 0c 51 3e 77 03 32 3e 60 18 d1 3d 74 5a f2 3d
       0.20414913 0.17384134 0.10209727 0.11833659
0001b0 92 be 2e 3e 57 72 fd bd 07 a5 47 3e 3e 6f 03 be
       0.17064884 -0.12375324 0.19496547 -0.12835404
0001c0 ea a4 41 bc ce 2a 62 3d a8 bd 9d bd 02 29 46 3d
       -0.011819104 0.055216603 -0.0770219 0.04837895
0001d0 c6 0a 33 3e 09 75 29 be 6d ec f5 bd 2c 5b 08 be
       0.17484578 -0.16548552 -0.12007985 -0.1331603
0001e0 3a 00 db 3d 2f 78 54 3c 7e e4 1a 3d 21 c2 cc bc
       0.106934026 0.012968107 0.037815563 -0.024994912
0001f0 d1 80 51 be a9 e1 c0 bd bf 56 f9 3c a1 79 a8 3d
       -0.20459296 -0.09418041 0.030436872 0.08226324
000200 95 f5 c7 bd 3b 7e dc bc bc 6b f0 bc 45 02 d0 bd
       -0.09763638 -0.02691566 -0.029348247 -0.10156683
000210 6e e9 22 bd 49 0f f0 3d 88 97 37 bd 83 53 ff 3d
       -0.039773397 0.117216654 -0.044822246 0.124671005
000220 36 fd a3 3c b7 98 9c bc 1a f0 e5 3d a7 4f 4d bd
       0.020018201 -0.019115789 0.11227436 -0.05012479
000230 59 6d cf 3d a0 34 84 3d ff 9b a0 bd 4b 1c b9 3b
       0.10128278 0.0645535 -0.07842254 0.0056491247
000240 0f 1c f2 bd 45 9c 0e 3e 2d 70 0d 3e ae 20 b9 3d
       -0.11821758 0.139268 0.13812323 0.09039436
000250 ae b1 07 bd d3 7d e7 3d 20 43 ae 3d 49 3e bd bc
       -0.033128433 0.11303296 0.08508897 -0.023100989
000260 03 48 77 bc 6f 0a 35 be 1c 69 ba 3c 24 2f 45 3e
       -0.0150928525 -0.17679761 0.022755198 0.19256264
000270 ed e5 03 be 02 aa 11 be 9f a4 d5 bd a4 1e aa 3d
       -0.12880678 -0.14225009 -0.104317896 0.083066255
000280 af 30 8f bd fd 5a d8 bd 83 5d ca bd bd 34 1c bd
       -0.069917075 -0.1056423 -0.09881117 -0.038136233
000290 93 ed 3c 3e 6b 1d 1e 3e ab 03 fa bd f4 b3 48 be
       0.18450002 0.1544091 -0.12207731 -0.19599897
0002a0 bb 0d 2f 3e 3e 75 cd bd b4 15 3e 3d 0c 1a 4e 3d
       0.17095082 -0.10032128 0.046407416 0.05031781
0002b0 33 b5 41 bd 85 7f 07 3e a7 dc e6 3d 5c 28 14 3e
       -0.047291946 0.13232239 0.11272555 0.14468521
0002c0 b7 20 12 be 08 87 18 be 5c 8a 5c 3c fe 6f 83 3d
       -0.14270292 -0.1489526 0.013460722 0.06417845
0002d0 87 1d 00 be 55 6f 13 3e b4 50 58 be df 76 15 3d
       -0.12511264 0.14397939 -0.21124536 0.036490317
0002e0 38 7b 35 3e bb 76 d3 3d a8 11 34 3e 40 72 42 bd
       0.17722785 0.103253804 0.1758486 -0.04747224
0002f0 92 19 37 3e 95 f4 c4 bd e9 eb bf bd 14 20 1c 3e
       0.17880848 -0.09616963 -0.09371168 0.15246612
000300 e4 99 3f be 99 f6 d3 3a 47 ca cf 3d 63 19 0e be
       -0.18711048 0.0016171514 0.10146003 -0.13876872
000310 03 06 87 bd 67 a1 30 3e a2 ff 2a be 4a 82 a0 3b
       -0.065929435 0.1724907 -0.16699079 0.004898344
000320 fb a4 a0 3d 5e 69 9c bd 30 63 2c 3e fe 9e a4 bd
       0.078439675 -0.07637285 0.16834712 -0.08038138
000330 25 c9 43 3e 32 91 3e 3e 0c 4f d6 bd 45 88 14 be
       0.191197 0.18610075 -0.10464296 -0.14505108
000340 19 6d 08 be db 49 04 be 7d a2 19 3e 84 cf 43 3d
       -0.13322867 -0.12918799 0.1500339 0.047805324
000350 43 a9 47 be aa 80 48 bd 4a 32 b2 bc b4 98 2a 3e
       -0.19498162 -0.04895083 -0.021752495 0.16659814
000360 a0 13 bf bd 12 72 26 3e 04 3a 31 3e 72 7f ae bd
       -0.09329915 0.16254452 0.17307287 -0.08520402
000370 63 9a 90 3d cb e6 ef bc 42 8e b9 bd 7a 7c 23 be
       0.07060697 -0.029284855 -0.09060337 -0.15965453
000380 a0 7d 11 be 66 c4 e6 bc bc b8 0e be 99 d2 c3 3c
       -0.14208078 -0.028169822 -0.13937658 0.023904132
000390 74 84 b7 bd 49 d4 1f 3d f9 99 59 3c df a9 98 bd
       -0.0896081 0.03902081 0.013281339 -0.07454275
0003a0 42 94 27 3d 63 99 c6 3d 51 7d f7 3d 8e bc bc bd
       0.040912874 0.09697225 0.12084449 -0.092156515
0003b0 4e 9e de 3d 50 65 2d 3d 87 45 4d bc 8e b2 e8 bc
       0.10870038 0.042332947 -0.012528784 -0.028405454
0003c0 a7 4e 32 3e c5 7a 48 3e dc 5e dd 3d 14 6b 63 3d
       0.17412816 0.19578083 0.108091086 0.05552204
0003d0 d3 4e 04 bd 69 bf 42 3e d2 11 c6 3d 3c dc 2f 3e
       -0.032301735 0.1901833 0.09671368 0.17173856
0003e0 9e f7 61 3d 70 33 d5 bd 8d 30 3a be 00 4a 46 3d
       0.055167787 -0.104102015 -0.18182583 0.048410416
0003f0 dc 6f b2 bd 91 ea c9 bd ea e2 1d 3d d8 46 44 be
       -0.08712742 -0.09859193 0.03854648 -0.1916765

actor.2.weight f4 [256, 256]
000000 ae 14 3a bd 41 6a 88 3d c8 33 86 3c a5 ff df bc
       -0.045429878 0.06660891 0.016382113 -0.02734358
000010 0b b8 f9 3c 66 47 dd bc 11 79 0c 3b 72 ca e1 bc
       0.030483266 -0.027011584 0.0021434466 -0.027562354
000020 3d 7e 06 3b 92 c2 88 3d db d0 20 3d a4 50 87 bd
       0.0020522021 0.06677736 0.03926168 -0.06607178
000030 5a eb ed 3c 2b a7 36 3c 66 1f a6 bd dd a4 8e 3c
       0.029042888 0.011148254 -0.081114575 0.017412597
000040 35 2c 62 bd af 68 11 3d 5c fc b4 3c 47 88 62 3d
       -0.05521794 0.035500225 0.02209299 0.055305745
000050 1f fb 49 3c 92 69 1c bd 45 d1 87 bd 05 37 34 3c
       0.012327938 -0.038186617 -0.06631712 0.010999446
000060 79 14 90 bd 61 10 67 bd 07 8f 50 3d 90 86 81 3c
       -0.07035155 -0.056412105 0.05091765 0.015811235
000070 32 a0 9e 3d 3a 51 93 bc c1 ab 46 3d c1 d6 18 bd
       0.077453986 -0.017983068 0.04850364 -0.03731418
000080 a3 e7 88 3d 21 ec 92 3d 70 0f 3f bd 38 04 b7 3d
       0.06684806 0.07173944 -0.04664558 0.089363515
000090 fe 55 88 3d 9d 9c 8c 3d 5f b2 9e 3c 3c 59 39 bc
       0.06657027 0.06865809 0.019372163 -0.011312779
0000a0 2a ba 7a 3d b2 37 31 3c 57 40 c0 3c 60 41 32 bd
       0.061212696 0.010816501 0.02346818 -0.043519378
0000b0 7b 77 51 3c b6 77 7a 3d 50 6a 26 bd 26 02 76 3d
       0.012784834 0.06114932 -0.04062873 0.060060643
0000c0 30 10 ca bc d8 17 ae 3d cb 12 e4 3c 12 a4 64 ba
       -0.024665922 0.085006416 0.027840992 -0.0008721958
0000d0 fc 7c 73 3b dd c6 33 bc 0d a4 3d 3c 7e f8 5b bc
       0.0037153354 -0.010972706 0.011574757 -0.013425944
0000e0 a9 6b 6c bc c8 4e 24 bd 03 81 fa bd 72 80 7e bc
       -0.014429965 -0.040114194 -0.12231638 -0.015533553
0000f0 c0 c1 67 3d 20 ef c1 bc 89 a8 8e bd 00 b4 45 bd
       0.05658126 -0.023673594 -0.06965739 -0.048267365
000100 0e fe ba 3c 32 42 c3 bb d7 61 d9 bc 60 d4 7d bc
       0.02282622 -0.005958819 -0.026535911 -0.015492529
000110 65 ae d2 3b 04 8e 7b 3d c0 94 fd ba 77 c1 5f 3c
       0.006429481 0.061414734 -0.0019346699 0.013656965
000120 c7 3d cf 3a 10 bc 90 3d 86 85 8a 3c 54 64 1c bd
       0.0015811258 0.0706712 0.016909372 -0.038181618
000130 02 1e 9e bd 8d 94 6b 3d 51 a3 89 bc e9 53 13 bc
       -0.07720567 0.057514716 -0.016801508 -0.008992174
000140 6f d1 8d bc 4b 1e 1d 3d 5a 7f bf 3c 5a bf 63 bc
       -0.01731178 0.038358968 0.023376156 -0.013900602
000150 46 e2 f7 3c f3 aa 2b bc 99 4e 80 3d 98 63 90 3b
       0.030259263 -0.010477769 0.06264991 0.0044064038
000160 43 6b 8a bd c1 3c 63 3d 27 63 8b 3d 63 d0 57 ba
       -0.0675874 0.05547786 0.06806021 -0.0008232651
000170 03 47 d0 b8 37 a6 8c 3c 47 42 a7 bb af 43 84 bd
       -9.93144e-05 0.017169101 -0.0051043364 -0.06458222
000180 bf ec 9b bc 25 05 bf bd 05 46 fb 3b d7 5c b7 bc
       -0.019033788 -0.09327153 0.007668259 -0.022383137
000190 f9 25 64 3c 4f 4e cd 3a c3 66 bc bc bb 72 b0 3c
       0.013925069 0.0015663597 -0.02299822 0.021539083
0001a0 49 93 20 3c ce 99 c5 3c 81 82 e7 bc 5b ee 65 bd
       0.0098007405 0.024121191 -0.028260471 -0.056135517
0001b0 86 b7 f9 3c 18 59 17 bd e1 a2 99 bc 42 e0 88 3d
       0.030483019 -0.0369502 -0.018754425 0.06683399
0001c0 2b b6 c1 3c 52 04 86 bd 25 2f 68 3d 7c c6 99 bc
       0.023646435 -0.06543793 0.056685586 -0.018771403
0001d0 de ab 5d 3d c5 51 24 bd a1 f3 05 3e 08 a3 52 bd
       0.054118983 -0.040117044 0.13081218 -0.05142501
0001e0 24 f6 e1 3b 78 59 67 bd c1 ef e7 3c 91 d3 40 3d
       0.0068957973 -0.05648181 0.028312566 0.047076765
0001f0 77 66 42 3d af 75 8e bc a7 ba f8 bc 67 e8 9b bd
       0.047461 -0.0173901 -0.03036244 -0.076126866
000200 ef 49 ae 3c e5 9f cd bb a4 3c 31 3c a2 3f 99 bd
       0.021275489 -0.0062751644 0.0108176805 -0.0748284
000210 a0 4e 57 bd 09 6b 97 3c 73 bc 72 3d 33 f5 11 bd
       -0.052565217 0.018483656 0.05926175 -0.03563423
000220 86 4f b0 3c e5 20 0a 3d 6b 53 9b bb a9 5f 5f bb
       0.021522295 0.033722777 -0.004740169 -0.0034084118
000230 bd 9f b4 bc c0 69 2d bd 6c 0b ac 3c 43 6a 06 bc
       -0.022048825 -0.04233718 0.02100154 -0.008204046
000240 9e d8 fb bd f8 a5 29 3d dc de 46 3d 7e ea 2c 3d
       -0.12297176 0.041418046 0.04855238 0.042215817
000250 5c 74 14 bd 9b b2 cb bd f2 80 45 bd 7c 72 8c 3d
       -0.03624378 -0.09946176 -0.048218675 0.06857774
000260 5f ff b7 bd ee 72 20 bc d7 0b 0d 3d 01 6a 9b bd
       -0.08984255 -0.009793026 0.03443512 -0.07588578
000270 46 af 39 3c 5f 26 3d bd 61 f0 42 bc 42 c1 64 3d
       0.011333292 -0.04617917 -0.011898131 0.055848368
000280 5c cf 0c bd 34 b0 63 3d 78 65 02 3d ed bd 47 3c
       -0.03437744 0.055587962 0.03183505 0.012191278
000290 50 88 95 3d b8 f3 58 3b d2 eb af 3d 21 0b c2 3c
       0.0730139 0.0033104252 0.08589901 0.023686947
0002a0 4a 3b 76 bb f1 3e 1f 3d 2f df 46 3d 9d 89 a0 3d
       -0.003757196 0.038878385 0.04855269 0.07838748
0002b0 71 96 61 3c 8b 8f 17 3b f0 e5 0e bd 44 68 03 3c
       0.013768778 0.002312633 -0.034887254 0.008020464
0002c0 41 8c c9 bd 74 d1 7a 3c ed cf 32 3d 3c 7f 0d bc
       -0.098412044 0.015308727 0.043655325 -0.008636292
0002d0 f7 3f 3d bc ad 7a 97 bd 9e 8d 00 3d 43 ac 2b bd
       -0.011550895 -0.073964454 0.031385057 -0.04191233
0002e0 80 77 ae bc a4 ec 26 b9 ce 59 2e bd 4a 4c df bd
       -0.021297216 -0.00015919149 -0.042566113 -0.10903223
0002f0 ac 66 9d bc 68 c9 2f 3d 8b 86 5d bc 1a f7 b7 3c
       -0.019213997 0.042916685 -0.013520847 0.022456694
000300 29 68 75 bc 9f b1 ed bd 31 9e ed bc f1 ea 72 bd
       -0.014978447 -0.11606144 -0.029006096 -0.05930609
000310 83 98 57 bd 93 1f 39 3b db c3 32 3d a8 fb b5 bc
       -0.05263568 0.002824758 0.043643814 -0.022214726
000320 dc c1 d5 3c 22 4d 94 3d 1e 48 6e 3d 3b 58 d1 3d
       0.026093416 0.072412744 0.058174245 0.10221907
000330 bd bb 1c bd a5 5d bd 3c 38 82 9b bc 30 b4 4a 3d
       -0.03826498 0.023115942 -0.018982992 0.049488246
000340 ed 3d 71 bc 53 d4 c9 3c 58 d9 b7 bc 1b 0c 3e 3c
       -0.014724237 0.024637377 -0.022442505 0.011599566
000350 47 1e 55 3d 1d e4 f8 3c 29 2e 9b bd c7 70 13 bd
       0.052030828 0.03038221 -0.07577164 -0.035996225
000360 a7 fd 92 3d f3 91 07 bd 01 3d c1 3c b3 0e d5 bc
       0.071772866 -0.033098172 0.02358866 -0.026007986
000370 54 94 f9 bb 75 b3 23 bd a0 66 d2 3c a6 29 49 bd
       -0.007616559 -0.039966065 0.025683701 -0.049111985
000380 75 2d 01 bd 9c af ff bc 45 bd 02 bd 93 e4 2b 3d
       -0.03153749 -0.031211667 -0.031918783 0.041966032
000390 85 25 bd bc f2 ca f8 3c 5b f2 6a bb 83 cf 79 3d
       -0.02308918 0.03037021 -0.0035850022 0.060988914
0003a0 3a bc 56 bc a5 eb 56 bd 57 67 57 bb 44 11 84 3d
       -0.0131064 -0.052470822 -0.0032867992 0.06448606
0003b0 2f e2 03 bd 08 9f a7 3c 92 c2 ef bc b4 3a b1 3c
       -0.032198127 0.020461574 -0.029267583 0.021634437
0003c0 21 cf 19 bc c7 98 6b bc 1f a8 c0 bb bd d8 c5 bc
       -0.009387762 -0.014379687 -0.0058794166 -0.0241512
0003d0 7b d0 b3 3c 6f ae 18 bc f9 91 ef bc f0 52 04 be
       0.021949997 -0.009318932 -0.02924441 -0.12922263
0003e0 4e be 14 3c 04 57 95 bd 9a f2 09 bd e0 f4 55 3b
       0.009078575 -0.072919875 -0.03367863 0.0032647178
0003f0 e9 87 07 3e 77 3e 84 3d bf a8 fd 3c 42 1c 5a 3c
       0.1323544 0.06457227 0.030964253 0.013312401

actor.2.bias f4 [256]
000000 b9 82 8c bd 44 da c4 bb af f2 2a bd 11 00 e7 3c
       -0.06860871 -0.0060074646 -0.041735347 0.028198274
000010 c0 a9 93 3c a5 80 3e bd c6 15 e7 bc 31 20 cd 3c
       0.018025279 -0.046509404 -0.028208625 0.025039764
000020 7a df 81 3c 08 e2 30 bc e0 f3 2c bc d4 c0 1d 3d
       0.015853632 -0.010796078 -0.010556191 0.038513973
000030 3e 19 85 bc 77 54 22 3d 12 fb f8 3b e7 ea 66 3d
       -0.016247388 0.039631333 0.0075982893 0.056376364
000040 fd 42 1f bd 27 ed 00 3c b6 84 3d 3d 73 ae a7 3d
       -0.038882244 0.0078690415 0.04626914 0.081875704
000050 4e fd 38 3d 81 72 86 bd 0e 22 e9 3c 1e 3a 2b bd
       0.045163445 -0.06564809 0.028458621 -0.04180347
000060 8a f8 45 3d f8 27 27 bb be 22 e5 bc d4 f0 47 bd
       0.04833273 -0.0025506 -0.027970668 -0.048813656
000070 02 cf 79 bc a4 db 08 bc 38 42 12 3d b7 57 e1 3c
       -0.015247108 -0.008353148 0.035707682 0.027507646
000080 4e 6c bd bc 05 95 01 3d 52 c5 71 3d ec 61 63 3d
       -0.023122933 0.031636257 0.05902607 0.055513307
000090 61 cb 8e bd e9 5c 78 3c 4a ca db bc 18 1b 91 3c
       -0.06972385 0.01515887 -0.026829857 0.017713115
0000a0 4d d8 58 3d 51 24 6d 3c fd 50 6a 3d e7 eb 9f 3c
       0.052940655 0.014473991 0.057206143 0.019521667
0000b0 31 0f 03 bc 0c ac 52 3a 91 b8 ca bc bb 79 2a 3d
       -0.007999227 0.0008036501 -0.024746211 0.041619997
0000c0 3c 05 9b 3c a9 11 ed bc 90 6b 3c 3d ff 89 00 3d
       0.018923394 -0.028939085 0.046001017 0.031381603
0000d0 99 7e a6 bc 1e cf df 3b 85 76 47 3d f6 2a 9b bc
       -0.020324038 0.00683011 0.048697013 -0.018941384
0000e0 4d a8 5b bd 93 6f 6b bd 9f 0c 17 bd c6 c6 91 bd
       -0.0536273 -0.057479452 -0.03687727 -0.07117991
0000f0 8d 81 39 3d 35 cc af bd ac 03 ef bb 9c 74 aa bc
       0.045289565 -0.08583871 -0.007294139 -0.020807557
000100 01 20 9c bd d6 3a 38 bd 62 c8 0b 3d c4 f2 47 bc
       -0.07623292 -0.044977985 0.034126647 -0.012203876
000110 c7 63 0d 3d 2f 21 30 3d da 4c 85 3c 2c fb 0f 3d
       0.034518983 0.043000396 0.016271997 0.035151646
000120 e1 ce d1 3b ce f2 41 bd c9 d1 94 bd 2f 72 0b bd
       0.0064028357 -0.047350697 -0.07266576 -0.03404444
000130 48 2f 15 bd 5e cb 93 bc cb 6f 36 3d 4a 5a 6c 3c
       -0.036422044 -0.018041309 0.044540208 0.014425823
000140 08 3a 3c bd 74 f9 18 bd 77 d8 65 bd c0 21 06 3d
       -0.04595378 -0.037347272 -0.05611464 0.03274703
000150 97 02 43 bc 30 3d c8 3c 4d eb f3 3c 7a 02 0f bd
       -0.011902473 0.024443239 0.029775286 -0.03491447
000160 17 e3 12 3d 52 0e 5d bb b4 f3 44 3d 56 2c 18 bd
       0.0358611 -0.003373046 0.048083976 -0.037151657
000170 60 00 8a 3d a5 a2 35 3c f4 7a ca 3c c6 8c a6 bc
       0.06738353 0.011086141 0.024716832 -0.020330798
000180 82 cf e6 bc 18 66 3b bd 6b be fc 3c 71 0e 80 3c
       -0.02817512 -0.04575166 0.030852517 0.015631886
000190 31 81 d9 bc 3a 26 f2 bb c2 a1 2f 3d cd 46 01 bb
       -0.026550861 -0.007389811 0.042878874 -0.0019726038
0001a0 a0 e2 4e bc ca 7a 57 bd 7e ea fa bc 2d ac b7 3c
       -0.012627274 -0.052607335 -0.030629393 0.022420967
0001b0 6d 95 24 bd d6 0a 62 bd f3 86 64 3c 56 bd 04 bd
       -0.040181566 -0.055186115 0.01394819 -0.032407127
0001c0 5c 18 ba 3c 6e bf df 3c bc 7f 90 bc 73 14 d8 bc
       0.022716694 0.02731296 -0.017639033 -0.026376938
0001d0 a5 2c 96 bd c6 3c 0e 3d b8 53 51 3d c7 73 8b 3c
       -0.07332734 0.034725927 0.05110523 0.01702298
0001e0 c5 5d 3b 3d 00 1c 90 bc 1d c0 2e 3d 3f 99 05 bd
       0.045743722 -0.017591476 0.042663682 -0.03261685
0001f0 b6 6d 32 3d df a3 82 3d 7d ae a6 bc 89 e2 96 bc
       0.04356166 0.06378912 -0.020346874 -0.018418567
000200 81 98 d2 3c 97 9a 48 3d 9f 72 54 bc c4 bc 36 bd
       0.025707485 0.048975553 -0.012966781 -0.044613615
000210 3e 69 5d bd ba f4 12 bc f8 7f b9 bb a5 ae 77 3d
       -0.054055445 -0.00896948 -0.005661007 0.06046929
000220 ed 73 49 3d 65 ce ad bc 50 c7 57 bd 89 78 bf bc
       0.04918282 -0.02121658 -0.052680314 -0.023372905
000230 b0 7f 16 3d 51 c5 30 bd f3 fc 65 3d 0d da 43 3b
       0.036742866 -0.043156926 0.056149434 0.0029884607
000240 ca 6c fc bb c6 4e 1e bc b9 68 37 bd 73 ad 16 bb
       -0.0077033984 -0.009662336 -0.044777606 -0.0022991567
000250 ec bc 6e 3d 4e da 62 bd 32 91 ed 3c b9 6d c7 3c
       0.05828564 -0.055383973 0.028999899 0.024344312
000260 cc 30 d1 3c 3c f8 24 bd 58 d7 75 bd 21 a1 5a 3d
       0.025535963 -0.040275797 -0.06001982 0.05337632
000270 98 63 29 3d bb 64 40 bd 7e 1d ec 3b b5 72 02 bd
       0.041354746 -0.046971064 0.007205664 -0.031847674
000280 e9 87 68 bd 15 c4 f4 3c a7 c2 51 3d fa 32 e8 bc
       -0.05677024 0.029878655 0.051211026 -0.02834462
000290 5c 9a ea 3c ee c7 d0 3c bf 48 2d bd e0 ca d4 3c
       0.028638057 0.025485959 -0.042305704 0.025975645
0002a0 b8 07 35 3c a7 f3 16 3d fd 76 a3 3c 23 50 9e bc
       0.011049204 0.03685346 0.019954199 -0.019325322
0002b0 29 41 42 3d 88 21 38 bd 33 a9 64 bc f7 2a 36 3d
       0.047425423 -0.044953853 -0.013956356 0.04447457
0002c0 94 5f c3 3c 7f d4 a7 3c 2a 08 25 bd 58 72 89 bc
       0.023849286 0.020487068 -0.04029099 -0.016778156
0002d0 f0 9e b4 bc de 87 53 3d 89 a5 31 bd 14 81 13 bc
       -0.022048444 0.051643245 -0.043370757 -0.009002943
0002e0 73 9f ff b8 0c bb a0 3c bf 1a 93 bc 9e 48 79 bd
       -0.00012189047 0.01962044 -0.01795709 -0.06086027
0002f0 9f 94 76 bd 83 97 38 bd ef ea 6f bc 24 16 e0 bc
       -0.06020033 -0.045066368 -0.014643415 -0.027354307
000300 ec eb 02 3d 1e 0a e2 3c 51 a8 39 3d 15 98 64 bd
       0.031963274 0.027592715 0.045326535 -0.0558091
000310 2d 66 ee bb 3f 87 6c bd 18 19 8b bc d4 8e d4 3c
       -0.007275364 -0.05774617 -0.01697974 0.025947012
000320 0e 7c a0 3d a9 e0 0e 3d 88 99 72 bd 86 a6 31 3d
       0.078361616 0.03488222 -0.05922845 0.0433717
000330 85 2c ca 3c 62 e3 90 3c ce 26 04 bc aa 2f 4c bd
       0.024679432 0.01768655 -0.008065892 -0.049850143
000340 60 c8 91 3b 1b ad 19 3d 45 c0 3b 3c 54 48 0c 3d
       0.0044489354 0.037518602 0.011459415 0.034248665
000350 f6 0f b7 3c 0a 50 fb 3b 8a 76 21 3d 8b c4 5e bd
       0.022346478 0.0076694535 0.03941969 -0.054386657
000360 15 4a 4d bd 4d cb 27 bd fa a9 84 bd e2 47 47 3b
       -0.05011948 -0.040965367 -0.06477733 0.0030407836
000370 51 70 ee 3c f5 2f fa bb 7b 05 7c bc f9 56 18 3d
       0.029106291 -0.0076351115 -0.015382166 0.03719232
000380 be a9 89 3c 3d 3e b1 bc 59 00 38 3c 11 b1 6f bd
       0.016804572 -0.021636123 0.011230552 -0.058518473
000390 62 ba 65 bd af 0e bb 3c 3b c5 5e 3d 60 7e 82 bd
       -0.05608595 0.02283415 0.054387312 -0.0637176
0003a0 36 a8 6c bd 74 99 81 bb 0d 1a ce 3a 55 fe 58 bd
       -0.057777606 -0.0039550606 0.0015724316 -0.052976925
0003b0 c0 98 b8 3c 8b ec 1f 3c 71 d6 35 bd d0 1c 39 bd
       0.022533774 0.009760986 -0.04439396 -0.045193493
0003c0 8a 17 ab 3c 61 1a 52 3c 61 13 d3 3c 38 c7 33 39
       0.020885248 0.012823672 0.025766077 0.00017144985
0003d0 3b 51 36 3d c3 6c 19 3d 10 f6 a2 bc 42 06 50 bd
       0.04451106 0.03745724 -0.019892722 -0.050787218
0003e0 a9 f0 49 3d e3 3b fb bc 6d 04 fe 3c e2 37 4b bd
       0.049301777 -0.030668205 0.03100797 -0.04961384
0003f0 71 3e c4 bc ae a7 ce 3c 69 a0 8a bd d5 b2 7f 3d
       -0.023955556 0.02522644 -0.06768877 0.062426407

actor.4.weight f4 [4, 256]
000000 22 4f 6f bb b4 7e 84 3d b9 4c 6b bd 53 0b c7 bc
       -0.0036515673 0.06469479 -0.057446215 -0.024297392
000010 2a d9 c0 3d bb 76 9e 3d c9 17 f0 3c e2 0c a8 3c
       0.09416421 0.0773749 0.029308217 0.020513956
000020 06 68 93 bd 8a 37 0f bd 25 61 d1 3d e6 a6 8b 3d
       -0.07197575 -0.034965076 0.10223607 0.06818943
000030 f4 38 e3 3d 88 44 8f 3d 25 62 30 3d 28 24 ca 3d
       0.11094847 0.06995493 0.043062348 0.098701775
000040 a7 28 e2 3d 2b 61 3a 3d be 40 c0 ba c3 98 b8 3d
       0.1104291 0.045502823 -0.0014667732 0.09013512
000050 8c 45 bb 3d 6c 68 71 bc 2d da ac 3d c8 30 40 bd
       0.091441244 -0.014734369 0.08440051 -0.04692152
000060 39 1a 2b 3d 7a 09 6d bc 7e e5 07 3e 65 cd 35 bd
       0.041773055 -0.014467591 0.13271138 -0.044385333
000070 c0 9e 82 3d 4d d5 b0 bd 2a 3d 8c 3c b6 91 b0 3d
       0.063779354 -0.08634434 0.017119009 0.08621542
000080 06 79 ce 3d c6 a4 42 3d 21 ac b0 3d 03 8c f6 bd
       0.10081677 0.04752042 0.08626581 -0.12038424
000090 15 15 6e 3d ff 5e 43 3d f1 2e 8d 3d c4 a7 94 bd
       0.058125574 0.047698017 0.06893719 -0.07258561
0000a0 31 a4 11 3e 4f 99 a2 3d db 89 e2 3d aa 52 2e bd
       0.1422279 0.079393975 0.1106145 -0.042559303
0000b0 42 c7 6a 3c 07 0e 90 bd a3 a0 07 bb b7 dc 46 3e
       0.014329733 -0.070339255 -0.0020695112 0.19420134
0000c0 ef 6e b2 3d df 74 94 3b 7c ab 98 3d da 6e d5 bd
       0.08712565 0.0045305337 0.07454583 -0.10421534
0000d0 aa 29 20 3d b2 6b 8e bc 35 00 17 be 95 d5 89 bd
       0.039102234 -0.017385338 -0.14746173 -0.06730191
0000e0 0a 30 cf bd 47 aa a6 bc 70 29 9a bd 99 e8 e4 bb
       -0.101165846 -0.020344866 -0.07527435 -0.0069857356
0000f0 9d 01 72 3d 30 62 69 bd 28 89 04 bd 5e f6 9c 3c
       0.05908357 -0.056978405 -0.032357365 0.019160446
000100 1a e6 76 bc 0e 20 76 3b 3e 3c 0e 3d 29 19 c9 3d
       -0.015069509 0.0037555727 0.03472542 0.09819252
000110 b3 dd cf 3b b1 19 b5 3d d1 bd 97 3d 67 cc f9 bd
       0.0063435673 0.08842791 0.074092515 -0.1219719
000120 17 54 23 3c 35 e4 2b 3d 6b 64 32 bc 0f b3 a9 bc
       0.009968779 0.041965682 -0.010888199 -0.020715265
000130 f9 48 a3 3d a6 8c 81 3d b9 86 d9 3d 16 de 02 3e
       0.07972903 0.06325655 0.106213994 0.12780032
000140 30 73 80 3d cb 99 5a bd 1e e3 e5 3c b1 4f 64 3d
       0.0627197 -0.053369325 0.0280624 0.055740062
000150 6f d0 36 3d d1 b3 88 bd 88 52 96 3d f8 7f 05 3d
       0.04463237 -0.06674922 0.0733996 0.032592744
000160 47 9c 6d bd 42 68 71 bd 8e 62 a3 bd 92 1f a1 3d
       -0.058010366 -0.05893732 -0.07977782 0.0786735
000170 a8 78 cf 3d b3 df 96 3d 25 a4 8f bb 10 a2 0b 3b
       0.10130435 0.07366886 -0.004383581 0.0021306314
000180 96 01 c0 bd b0 be 1a be 92 5c 00 be 0c 2a c9 3d
       -0.093753025 -0.15111804 -0.12535313 0.09822473
000190 7f 3c 24 3b e5 29 22 bd 86 e0 e9 3d 92 18 92 bd
       0.0025060473 -0.039590735 0.114197776 -0.07133593
0001a0 74 b0 d2 3d ba 16 d5 3d b3 51 70 bd a5 c9 30 bd
       0.10287562 0.104047254 -0.058671664 -0.043161053
0001b0 ba c4 55 bc 4d 8e ef 3d 4a b4 09 3d ee d7 f3 bc
       -0.013047392 0.116970636 0.033619203 -0.02976605
0001c0 a9 8c e1 3d 94 cd 86 3d 1c cf 87 bd d6 34 40 3c
       0.11013157 0.0658218 -0.066313 0.011731347
0001d0 db 6c 7f bd 98 7d 33 3d 6a 60 89 bd d0 1e da bd
       -0.062359672 0.043820947 -0.06707843 -0.10650408
0001e0 20 d1 54 3d f7 db 23 bc 48 9b b2 3d 14 f7 bd bd
       0.05195725 -0.010001174 0.08721024 -0.09275642
0001f0 f2 48 e7 3b cf 0f c2 3d e1 5e 11 be 5b d7 80 bd
       0.0070582563 0.094756715 -0.1419635 -0.06291076
000200 66 07 6f 3d f8 5d 01 be 69 62 f2 bc 98 6c 3e bd
       0.058356665 -0.12633502 -0.029587941 -0.04649028
000210 77 62 64 3d 2d 28 cc bd 6a f3 81 bd 2b 5f ad bd
       0.055757966 -0.099686004 -0.06345256 -0.084654175
000220 f5 5f e8 3c b5 70 e7 bd 83 47 88 3d 89 d8 82 3d
       0.028366068 -0.11300794 0.06654265 0.06388957
000230 bf 1f 18 bd d7 09 92 bc 87 ef a7 3d 9f 1c ba bb
       -0.03713965 -0.017826958 0.08199983 -0.0056796814
000240 f1 d4 5a 3d 2a 67 53 bd 04 3e 10 3d de 60 87 3c
       0.053425733 -0.051612057 0.035215393 0.016525682
000250 a1 a3 30 bd ff a8 cf bd 09 22 5d 3d a8 33 b7 3d
       -0.0431248 -0.10139655 0.053987537 0.089453995
000260 d5 e8 5a bd e4 ee 26 3d b2 9c b3 bd 5c f6 7f bc
       -0.053444702 0.040755168 -0.08770122 -0.0156227015
000270 86 d2 7e bc 0c f9 96 3d db d2 39 bd 78 2e ac bd
       -0.015553122 0.07371721 -0.045367103 -0.08407301
000280 15 36 cf 3c 88 31 80 3d bf 38 c4 3d c3 03 4f 3a
       0.025294343 0.06259447 0.09581136 0.0007896984
000290 41 f8 81 3d c8 60 ba bd 1f 19 8c 3d b9 86 49 3b
       0.06346179 -0.09100491 0.06840729 0.0030750467
0002a0 61 6f bf 3d 1f 87 56 bc cb e2 a6 bc 0a 7c ad 3d
       0.09347416 -0.013093739 -0.020371815 0.08470924
0002b0 53 e1 38 bd f0 bb 3b 3d 7b 83 bf 3d c7 91 24 bd
       -0.04513676 0.045833528 0.0935125 -0.040178087
0002c0 da 5c 85 bd c1 46 e2 bc 82 86 8c 3d 15 4e 0e 3e
       -0.06511851 -0.027621629 0.06861593 0.13896973
0002d0 24 23 ab 3d 65 42 99 bc d7 89 2a bc ea 27 63 3c
       0.08356312 -0.018708417 -0.01040884 0.013864497
0002e0 71 77 36 3e 1a 4e 90 3b 13 3e a4 bb de 1b d5 3d
       0.17819001 0.0044038417 -0.0050122826 0.10405706
0002f0 11 3e 82 3d 14 7f ae 3d 73 6e 1d 3e d3 03 80 bd
       0.063594945 0.08520332 0.15374164 -0.062507294
000300 87 14 42 3d 32 76 01 bd ff af 23 3e 83 09 ef bd
       0.047382858 -0.03160686 0.15985106 -0.11671736
000310 2a a6 4d bd 4f 49 c4 3c 91 58 84 bb 11 47 ec 3d
       -0.050207295 0.023960738 -0.0040388783 0.11536992
000320 58 0e 58 3d ec 7a cc 3c a6 de 70 bd e8 8a 06 3d
       0.052748054 0.024960957 -0.058806084 0.032847315
000330 2f 7e 46 bd ff 62 aa 3c 80 6d f3 3d 35 bd 9b bc
       -0.04846018 0.020799158 0.1188612 -0.01901112
000340 03 b6 b0 bd 30 36 a5 3c 2f d7 17 3d 39 5b 7c bd
       -0.08628466 0.02016744 0.03707045 -0.061610434
000350 c5 0e 72 bd 87 f3 b1 3d e7 14 b4 bd 26 83 cc bd
       -0.059096117 0.08689027 -0.08793049 -0.09985952
000360 d4 ac d2 bd c9 c6 0b 3c c6 6f 80 3c 93 ab fd bc
       -0.102868706 0.008531281 0.015678298 -0.030965602
000370 67 37 85 3d ad fe a5 bd 1b 0f 27 bc 00 9e 09 3e
       0.06504708 -0.08105216 -0.0101964725 0.13439178
000380 8a 9f e8 bc 6b de 09 bc a7 08 b0 bd e9 f0 9e bb
       -0.028396387 -0.008414845 -0.085954 -0.004850496
000390 56 61 a7 bd b4 24 69 bd 0e 69 21 3c a8 4a 05 3e
       -0.08172862 -0.05691977 0.009851707 0.1301676
0003a0 e6 01 09 bd bf 67 51 bd 6b f2 9d bd c6 5d 02 3e
       -0.033449076 -0.05112433 -0.07712253 0.12731084
0003b0 86 b3 dc 3c d1 28 8b bd af 3c 81 3d 9b 43 cd bb
       0.026941072 -0.067948945 0.063104026 -0.0062641627
0003c0 a7 26 a9 bd 77 36 7c bd b2 31 85 bc 8d 78 ee 3d
       -0.082593255 -0.06157538 -0.016259048 0.11644087
0003d0 9f 9a b9 3d 4a 1c d4 3c ae 8e 84 bd 67 a0 15 be
       0.09062695 0.025892396 -0.064725265 -0.1461197
0003e0 81 75 60 bd 17 a8 fd 3c d6 bb 12 3d 1d 13 af 3c
       -0.05479956 0.03096394 0.035823666 0.021371419
0003f0 ce 51 c2 3c 34 c5 f2 bd b3 07 af bd 1c 58 c0 3c
       0.023720648 -0.1185402 -0.085463904 0.023479514

actor.4.bias f4 [4]
000000 28 59 37 bd f8 97 b2 3b f5 2a a3 3c 99 39 e8 bc
       -0.04476276 0.005450245 0.019917944 -0.028347777

critic.0.weight f4 [256, 24]
000000 25 5b bc bd 2f bc 39 3e ed da b3 3c 36 14 16 be
       -0.09197072 0.18138193 0.021954978 -0.14656147
000010 73 4f 29 be f5 7e fb 3d 59 2b e8 bd d9 aa ad 3c
       -0.16534214 0.122800745 -0.11336393 0.02119963
000020 1b 10 f2 3d a8 30 30 be 5d 59 1e 3e 39 e0 07 3c
       0.11819478 -0.17206061 0.15463777 0.008293205
000030 84 5a 03 bd f2 15 06 be 82 5c 01 3e a5 43 1e 3d
       -0.032068744 -0.13094309 0.12632945 0.03863873
000040 cc b0 1b be e3 7f a8 3d 46 e5 de bd de 53 1a 3e
       -0.15204161 0.082275175 -0.10883574 0.15071055
000050 ee 7f 15 3e f5 43 39 bd b9 99 4a 3e 4b 76 4c bd
       0.14599583 -0.045230825 0.19785203 -0.0499175
000060 d8 e5 88 bd be d7 bf bd 4f 4b 94 bd 6d 9a ac bd
       -0.06684464 -0.093673214 -0.072409265 -0.08427892
000070 c2 7b 4e be 1c 4a 14 be 59 c2 28 3e ad 01 b0 bd
       -0.20164397 -0.14481395 0.16480388 -0.0859407
000080 e4 0d c2 bd 13 c0 33 be 98 98 57 3d 02 72 1a bd
       -0.09475306 -0.17553739 0.05263576 -0.037706383
000090 ea a2 59 bc 2d 39 9b bd 3e 10 5a bd f9 77 22 3a
       -0.013283471 -0.07579265 -0.053238146 0.0006197687
0000a0 13 ad 8b 3d 13 45 b6 bc 62 0a 23 3e c7 94 50 3e
       0.06820121 -0.022249734 0.1592193 0.20369254
0000b0 dd f0 a9 3d 84 0f 8e bd 33 0c 18 3e 48 2a 50 3e
       0.08297894 -0.06936553 0.14848404 0.20328629
0000c0 a5 51 21 3e c9 1b 4e 3d 7f 39 0c 3e 4b 40 4a 3e
       0.15753801 0.050319467 0.13693808 0.19751088
0000d0 36 e5 40 3e 44 dd da 3d c4 10 5d 3d 0a fa ef 3c
       0.18837437 0.10686734 0.053971067 0.029294033
0000e0 38 b2 0e bd 24 e4 49 bd fe 67 c5 bd b8 51 1b be
       -0.03483793 -0.049289837 -0.096389756 -0.15167892
0000f0 4a ca 2d 3d 82 9d 43 3e 50 8e 63 3d 04 5e 33 3e
       0.042429246 0.19103053 0.05555564 0.17516333
000100 0c 2c 3e be f4 d0 cf 3c 4d 80 3a be d7 f4 5d bd
       -0.1857149 0.025368191 -0.18213005 -0.054188576
000110 4b 6f 8b bd ce 18 1f be 8c 51 27 3d fa 1b b6 3d
       -0.06808337 -0.15536806 0.040849254 0.08892055
000120 ae f9 15 be 67 47 32 be df 0e eb bd 8c 40 8a bd
       -0.14646026 -0.1741005 -0.11477446 -0.067505926
000130 b8 91 3c 3d 5b 10 11 3e 4a 0c 12 3e 3f 70 80 bd
       0.046037406 0.14166395 0.142625 -0.06271409
000140 0e ad f9 bc 67 17 96 39 e3 42 18 bd 1e 3a a7 3d
       -0.030478027 0.00028627666 -0.037173163 0.08165382
000150 89 76 4a be fc db 25 3d c7 64 1b 3e 08 d1 be bb
       -0.1977178 0.040492997 0.15175162 -0.0058232583
000160 be d6 c9 3d 60 77 31 be 05 e8 4c 3e d4 7d 2c 3e
       0.09855412 -0.17330694 0.20010383 0.16844875
000170 87 96 e9 ba 5a 2f 15 be 29 4c 42 3e 7d 15 33 3e
       -0.001782135 -0.14568844 0.18974365 0.17488666
000180 4b 48 23 3e b8 a3 ed bc b6 24 fa bd f5 fc 02 3e
       0.15945546 -0.029008731 -0.12214033 0.12791808
000190 ec e8 e9 bd c2 a4 f6 3c 60 61 26 3b 0e d5 e0 3d
       -0.114213794 0.03010786 0.002538763 0.10978137
0001a0 83 df 36 3e 2c a9 3a 3e 80 21 9b bd 00 2a 4a bc
       0.178587 0.18228596 -0.07574749 -0.012339115
0001b0 03 a9 7f 3d 43 a6 33 3d 50 22 01 be 14 67 1b be
       0.06241704 0.04385973 -0.12610745 -0.1517604
0001c0 08 30 bb bd 4e 2d 02 bd bd 9b 39 3d cb 44 17 3e
       -0.091400206 -0.031781487 0.04531454 0.14772336
0001d0 44 ad a1 3d a5 0c b7 bd fd a6 61 bc 6a 41 8b 3d
       0.07894376 -0.08937959 -0.013772723 0.06799586
0001e0 9e 13 9b bd 39 07 f1 3d 13 18 52 3d 53 59 be bc
       -0.07572101 0.11768956 0.05129249 -0.023235952
0001f0 f4 66 4a be 70 be 1a 3e c4 61 97 bc 27 98 87 3d
       -0.19765836 0.15111709 -0.018479235 0.06620818
000200 1c 03 1a 3e ad 94 02 3e 41 cb b6 bb 38 d5 09 3e
       0.15040249 0.12752028 -0.005578429 0.13460243
000210 78 bc 8d bb b0 b7 cf bd 9b 02 d1 bd 68 06 47 be
       -0.0043254457 -0.101424575 -0.10205575 -0.19436038
000220 da b2 b3 bd e4 87 2d 3e 05 2c 42 bd 92 20 bc bc
       -0.087743476 0.1694637 -0.04740526 -0.02296475
000230 11 3e 82 bd 0b 67 3b be bf 23 e3 bd 76 f0 86 bd
       -0.063594945 -0.18301027 -0.110908024 -0.06588833
000240 85 fe ee 3d 03 98 62 bd 43 d2 16 3e 05 e7 43 3e
       0.116696395 -0.05532075 0.14728646 0.19131096
000250 b4 9d b5 3b e3 a3 08 3e 3b d4 93 3d 8b 18 97 bc
       0.0055424813 0.13343768 0.07218214 -0.01844432
000260 a6 df 21 3d 6c 0f a1 bd b1 4b 2b be 21 69 38 3e
       0.03951993 -0.078642696 -0.16728093 0.18008853
000270 88 c1 86 3d d9 01 39 3e 8b 44 17 be a3 e7 1d 3d
       0.06579882 0.18067111 -0.14772241 0.038550984
000280 5d bf 1b be de c8 0b 3e 30 a7 35 3e 41 50 22 3e
       -0.15209718 0.13650844 0.17739558 0.15850927
000290 23 97 89 3d 37 6f aa 3c 96 12 bf 3c 57 21 11 be
       0.0671828 0.020804984 0.023324292 -0.14172874
0002a0 5a 95 8a 3c 74 9d 88 bc f5 29 5e bd 95 4e c6 bd
       0.01691692 -0.016676642 -0.054239232 -0.09682957
0002b0 b5 c3 b8 3d 52 a5 40 be 77 30 e3 3d 43 79 2f 3d
       0.09021703 -0.18813065 0.11093228 0.042840254
0002c0 fc ef fa bd ea 52 f7 3d a8 f5 e0 bd 8a b4 3f 3e
       -0.12252805 0.120763615 -0.10984355 0.18721214
0002d0 ff 0a ca 3d 7c 8d 19 be 21 eb 71 3d 89 1f 51 3e
       0.098653786 -0.14995378 0.059062127 0.20422186
0002e0 53 64 eb bd 67 f0 d6 bd 83 ed 6b 3a 0d c4 48 3c
       -0.11493745 -0.10495072 0.00089999306 0.012253773
0002f0 c9 80 35 be 4a a2 01 3e a1 ff 50 3e fd aa d4 bc
       -0.17724909 0.12659565 0.20410015 -0.02596044
000300 07 a3 2e 3c d1 0a 47 be a7 15 d1 bd 1c 31 be bd
       0.010658986 -0.1943772 -0.10209208 -0.092867106
000310 14 fc 05 be ba 9a 0f 3c 88 98 6b 3d 46 70 16 3d
       -0.13084441 0.008764917 0.057518512 0.036728166
000320 36 a2 3f 3e 84 56 2b be 61 db a5 bd f7 a2 33 3e
       0.18714222 -0.16732222 -0.08098484 0.17542635
000330 73 fc 9c 3d b8 3f 7a 3d d4 06 19 bd 8b b4 94 3d
       0.07665338 0.061095923 -0.037360027 0.07260998
000340 2c b5 57 3d c5 46 cb bb 20 62 ba bd e4 d2 fc 3b
       0.052663013 -0.0062035047 -0.09100747 0.00771557
000350 d1 88 29 be 7e d8 43 be f5 91 3f be 4a dc 90 bd
       -0.16556098 -0.19125554 -0.18708022 -0.07073267
000360 72 47 54 3d b7 8d 17 3e a5 ed 23 3e cf 72 0b be
       0.051825948 0.14800154 0.16008623 -0.13618015
000370 75 6e 20 3e 88 b0 06 be 44 18 c7 3d c4 d3 1b be
       0.15667136 -0.13153279 0.09721425 -0.15217501
000380 10 7f 2e be a3 ac 47 3e 4b da bf 3d 24 68 20 be
       -0.17040658 0.1949945 0.09367808 -0.15664726
000390 5b 91 c9 bd 5d 90 ab bd f6 ae 49 bd e8 b7 ff 3c
       -0.098421775 -0.083771445 -0.04923912 0.031215623
0003a0 1d e8 07 be 7e 82 ac 3d 2c 16 3a 3e 60 44 02 be
       -0.13272138 0.08423327 0.1817252 -0.12721395
0003b0 ba e5 09 3c ad 0b 99 3d 24 b8 14 3e 67 a1 ea bd
       0.0084165875 0.0747293 0.14523369 -0.11456566
0003c0 cd f8 86 bd 8b 09 01 bc 49 8f 3f be e7 a9 31 3e
       -0.06590424 -0.00787581 -0.18707003 0.17349969
0003d0 54 50 45 be c2 b1 81 bd 47 98 32 bd c9 2a 01 3d
       -0.19268924 -0.06332733 -0.043602254 0.031534944
0003e0 ee f8 48 be 95 c4 8b bd 06 ca 05 3e d8 6d a6 ba
       -0.19626209 -0.068246044 0.13065347 -0.0012697531
0003f0 c1 ac 44 bd cd 9d 99 bd a4 86 25 3e 72 b3 92 bd
       -0.048016313 -0.07500801 0.16164643 -0.07163133

critic.0.bias f4 [256]
000000 97 6f f6 3d f0 fe 8a 3d 0c 66 06 be 23 f6 97 bd
       0.12033003 0.06786907 -0.13124865 -0.07419994
000010 95 a8 35 be 99 df e0 bd 07 b2 89 3d a2 8d 1d 3d
       -0.1774009 -0.10980148 0.06723409 0.03846515
000020 1e f7 f0 3d b1 7e af bd 74 1f 04 3e e5 00 08 be
       0.11765884 -0.08569086 0.12902623 -0.13281591
000030 10 b0 8f bd b4 aa 93 bc fc 80 1e 3d 91 b0 2e bb
       -0.07016003 -0.018025734 0.038697228 -0.0026655535
000040 71 71 11 3e 74 95 d7 3b 25 3c 41 be 0f 19 97 bd
       0.1420343 0.0065790955 -0.188706 -0.073778264
000050 56 f1 3d be 4b 6e 39 be 3a 78 90 3d f8 db d6 3d
       -0.18549094 -0.1810848 0.070541814 0.104911745
000060 af 0f 50 be 54 61 f6 3d 13 8f 24 3d fd b7 45 3e
       -0.20318483 0.120302826 0.04017551 0.19308467
000070 d0 07 47 be 5b c4 16 3e f2 6e 2c 3e 0f a7 14 3e
       -0.19436574 0.14723341 0.16839197 0.14516853
000080 af d6 8e bd 6a 54 15 be 91 3c ee bd b6 0a 2e be
       -0.069745414 -0.14582983 -0.11632646 -0.16996273
000090 32 2e 22 3e f6 fa 87 bd f3 62 c1 bc 43 75 b7 3d
       0.15837935 -0.06639664 -0.023606753 0.08957913
0000a0 20 aa 47 be e9 91 fe bd a6 71 bf bd 33 74 21 3d
       -0.19498491 -0.12430174 -0.093478486 0.039417457
0000b0 21 bf bb bd 4e 6d bd 3c bb d3 ec bd 9a 11 42 be
       -0.09167314 0.02312341 -0.11563822 -0.18952027
0000c0 8a 2d 85 bc 1b 6f d5 bc ab 22 80 3d ff 2a ee bc
       -0.016257066 -0.026053956 0.062566124 -0.029073237
0000d0 ec 6a 83 3d 6d cf 38 be 2d 60 b4 bd 41 12 2e 3e
       0.06416878 -0.18047877 -0.088074066 0.16999151
0000e0 9f af 2d 3e 0f a7 55 be 7d e1 06 be bd 54 30 3e
       0.16961525 -0.20864509 -0.13171954 0.17219825
0000f0 17 32 3a be e2 ce 1e 3e 2d c0 d4 3d 2c 34 08 be
       -0.1818317 0.15508607 0.10388217 -0.13301152
000100 80 ed db bd a1 ba c4 3d a3 a3 ea 3d 28 b9 7d 3d
       -0.10738659 0.09605909 0.114569925 0.061944157
000110 0b 75 26 be 04 7a 09 3e 2d 3b 71 bd b9 c4 51 bc
       -0.16255586 0.13425452 -0.058894325 -0.01280325
000120 ae b3 32 3e dd 1f c9 3d db 8a 69 3d ab 82 d0 bd
       0.17451355 0.098205306 0.05701719 -0.10181173
000130 b1 93 c2 3d 09 8a 57 3d 48 0f a3 3d 4f 4b ad bd
       0.09500826 0.052621875 0.07961899 -0.084616296
000140 14 57 37 be 06 d6 88 bd 46 91 1a 3e e9 2d 08 3e
       -0.17904311 -0.06681447 0.1509448 0.13298763
000150 57 18 e1 3d c1 48 25 3e fc f2 94 bd 13 ee be bd
       0.109909706 0.16141035 -0.07272908 -0.09322753
000160 85 47 23 bd b7 68 05 bc fb b7 45 be 77 72 2d 3c
       -0.03986313 -0.008142642 -0.19308464 0.010586373
000170 4f cb 07 be d2 23 76 3d e6 a5 06 bd 12 17 77 bd
       -0.1326115 0.060092755 -0.032873057 -0.060324736
000180 92 ce c1 bd d2 27 3e 3e af 0e d2 bc f7 99 24 3e
       -0.09463228 0.18569878 -0.025641767 0.16074358
000190 9c 41 8c bd b7 b4 b5 bd 78 4f 07 3e c5 37 20 3e
       -0.068484515 -0.08872359 0.13213909 0.15646274
0001a0 42 10 32 3e 50 40 1a 3e 66 61 89 3d 00 be 27 bd
       0.17389014 0.15063596 0.067080304 -0.040952682
0001b0 d2 86 5f bd a2 5b 4d be 97 bb e4 3d 84 dd d2 bd
       -0.054571934 -0.20054486 0.111685924 -0.10296157
0001c0 d4 09 89 3d 83 dd 21 be dd bf 8a ba e0 1a 4f 3e
       0.06691328 -0.15807156 -0.0010585744 0.20225096
0001d0 5a 2e 18 be d3 e4 2d bd 28 8c 8e bd c6 ee 3b bb
       -0.14861432 -0.042454552 -0.069603264 -0.0028676256
0001e0 15 10 ae 3d ae 96 f5 bc f8 c0 81 bd 7d 77 1d 3e
       0.08499161 -0.029979076 -0.06335634 0.15377612
0001f0 32 98 b9 3d ef 55 8c 3d 45 fa 50 3c b4 94 04 be
       0.09062232 0.06852328 0.012754981 -0.1294735
000200 f7 52 8f bd ff 99 f8 3d 0e cc 09 bc 41 0a 50 be
       -0.06998246 0.121387474 -0.008410467 -0.20316412
000210 10 48 44 be 79 62 02 3e 24 86 34 bc 5c 3d 3f be
       -0.19168115 0.12732877 -0.01101831 -0.1867575
000220 4e ec 4a be 36 f0 d7 bd 94 84 4f 3e 9c 62 b0 bd
       -0.19816706 -0.105438635 0.20265418 -0.08612558
000230 3a d9 c9 3d 85 46 30 be 72 fd 4a 3c f8 d9 00 be
       0.09855886 -0.17214401 0.012389528 -0.12583148
000240 0d 21 3a 3e 6c bd 18 be 72 34 32 be 0f 94 58 bd
       0.1817667 -0.14916009 -0.17402819 -0.052875575
000250 25 7d 90 3d 62 2e 1e be 6f 8d e8 bd 1a 0b 4c 3e
       0.070551194 -0.15447381 -0.11355101 0.1992611
000260 3c 8b 87 3d c0 0b e4 3d 04 33 1e 3c f0 2d 0a bd
       0.06618354 0.11135054 0.009655718 -0.033735216
000270 7a da db 3d 59 d8 d3 3c 68 35 b3 3d 48 23 c0 bc
       0.107350305 0.025859999 0.08750421 -0.023454323
000280 99 fb 36 bd d3 38 13 3e 76 72 0f be f0 74 06 3e
       -0.044673536 0.14377145 -0.14008507 0.13130546
000290 66 4f 04 bd 2c 1c 6b 3d 7f be cc 3d f8 b5 01 3e
       -0.032302283 0.057399914 0.09997272 0.12667072
0002a0 6a db 13 be 4d 12 24 3e eb d6 1c 3e a0 a9 a3 bc
       -0.14439169 0.16022606 0.1531636 -0.019978344
0002b0 da 56 51 be 34 74 ab 3d 93 f0 1f be 3b b0 2b 3e
       -0.20443287 0.08371773 -0.15619116 0.16766445
0002c0 d2 bd 28 3e b7 2e 44 bd 3d 70 1d be f4 1f d1 3d
       0.1647866 -0.047896113 -0.15374847 0.10211173
0002d0 4e 91 b5 bd 2a 3d a2 3d 9a 7e ca bb a2 25 78 3d
       -0.08865605 0.07921822 -0.006179643 0.060582764
0002e0 b6 76 c8 3d b7 eb 2c 3e 72 71 ab bb af c4 b1 3d
       0.09788267 0.16886793 -0.0052320296 0.086800925
0002f0 88 04 b4 3d 43 e9 07 be 2d 30 1b 3e 00 29 1d 3e
       0.08789927 -0.13272576 0.15155096 0.15347672
000300 be b9 f5 bd 20 2d 14 be d2 5c bc 3d 32 1d fd 3c
       -0.11998318 -0.14470339 0.091973916 0.03089771
000310 a4 a8 ab 3d c4 54 ad 3d 34 fb 8f 3c 7c a9 43 be
       0.08381775 0.084634334 0.017575838 -0.19107622
000320 d8 49 0f 3e 2a ac 4a 3e c5 9e 9d 3c 07 eb d4 bd
       0.13993013 0.19792238 0.019240746 -0.103963904
000330 9b 05 8b 3d bd c3 f4 bd c9 47 de bd 86 c5 f6 3d
       0.067881785 -0.119513966 -0.10853536 0.12049393
000340 d6 a5 40 3e d9 2c 42 bd 55 41 39 be c9 0c 57 bd
       0.18813261 -0.04740605 -0.18091328 -0.052502427
000350 c3 6f c4 3d a1 9f f8 3c 36 17 c1 bd 41 a6 d1 3d
       0.09591629 0.030349554 -0.09428255 0.102367885
000360 16 b5 25 be 82 5c 22 3d d8 64 f8 bd 0f 1d 98 bc
       -0.1618236 0.039639004 -0.121286094 -0.018568544
000370 96 16 a8 3d 47 c6 84 3d 0c 19 ac 3d 40 88 1c 3d
       0.08207433 0.06483131 0.08403215 0.038215876
000380 07 21 51 3d dc c2 2d 3d f6 8b 86 bd a0 3b 21 be
       0.051056888 0.04242216 -0.06569664 -0.15745401
000390 f4 7f d3 bd 1c d3 69 3d f2 61 3e bd 70 1d 35 3e
       -0.103271395 0.057086095 -0.046480127 0.17687011
0003a0 ce 89 84 bb 2a 31 17 3e f4 7f 0a be cf 59 3c be
       -0.004044748 0.14764848 -0.13525373 -0.18393634
0003b0 f4 14 3f be 2c e5 13 be 8c e2 8d 3d d3 1a 07 be
       -0.18660337 -0.14442891 0.06927976 -0.13193826
0003c0 17 ea e6 3d c7 af 87 3d 89 19 c0 bc 51 43 d1 3c
       0.11275118 0.06625324 -0.023449676 0.025544794
0003d0 cb 70 b8 3c 77 37 c6 bd a1 43 98 bd 2c 26 92 3d
       0.022514721 -0.09678548 -0.07434774 0.07136187
0003e0 99 f3 f6 3c 75 3d eb bd 84 02 32 3d ea b2 23 be
       0.030145453 -0.114863314 0.04345943 -0.15986219
0003f0 cf 7f 38 be 56 e3 04 3e aa 15 08 be f7 bb b1 3d
       -0.18017505 0.12977347 -0.13289514 0.086784296
