Policy Gradient/walker_ppo_model_11900.pth (torch, 34323 bytes, 11 tensors)

actor.0.weight f4 [64, 24]
0	0xbdddcb49	-0.10829789
1	0x3ec3c9a6	0.38239783
2	0xbd7dde6f	-0.061979707
3	0x3f481b45	0.7816661
4	0xbe22435d	-0.1584601
5	0xbcf4ed22	-0.02989823
6	0x3f307618	0.68930197
7	0xbe4aea34	-0.19815904
8	0xbe5ab9b2	-0.213599
9	0xbe08f7f4	-0.13375837
10	0x3d317b47	0.043330457
11	0xbe516839	-0.20449914
12	0x3d706163	0.058686625
13	0x3d08a0d1	0.03335649
14	0x3e65f5e9	0.22457089
15	0x3e381a83	0.17978863
16	0x3d1e5fbd	0.038665522
17	0xbd0b23af	-0.033969577
18	0x3e3ff4e1	0.18745758
19	0xbe1147be	-0.14187524
20	0x3d703f7a	0.058654286
21	0x3e286878	0.16446102
22	0x3e10d7ce	0.14144823
23	0x3d09306a	0.033493437
24	0xbbc6fc4f	-0.006072558
25	0x3d9533ef	0.07285296
26	0x3e68b6f3	0.2272604
27	0x3ddbf982	0.10740949
28	0x3e7e3c77	0.24827753
29	0x3e661370	0.22468352
30	0x3f32c929	0.69838196
31	0xbe3af48d	-0.18257351
32	0xbe2e2451	-0.17006041
33	0xbd78020a	-0.06054882
34	0x3e19b41e	0.15010116
35	0x3de4df1f	0.111753695
36	0xbd27d611	-0.040975634
37	0x3d71622d	0.05893152
38	0x3e00dea4	0.1258493
39	0x3db09ed4	0.08624044
40	0xbd1b2338	-0.037875384
41	0x3de0d71f	0.10978531
42	0xbdd11e97	-0.10210913
43	0x3d4c99be	0.049951307
44	0x3d1ba93f	0.038003203
45	0xbd5079df	-0.050897475
46	0x3bf18b8a	0.0073713707
47	0x3e05a830	0.1305244
48	0xbdaa7349	-0.0832277
49	0xbef4dff9	-0.47827128
50	0x3cb0fa16	0.021603625
51	0xbf16c2d3	-0.5889103
52	0xbe0dd363	-0.13850169
53	0x3da565bb	0.08076044
54	0x3ef24feb	0.47326598
55	0x3d9b2d40	0.0757699
56	0xbe570978	-0.20999706
57	0x3e0bfbe7	0.13670312
58	0xbe4010bf	-0.18756388
59	0x3eb2aaea	0.34896022
60	0xbdf7b75c	-0.1209552
61	0x3e3967f3	0.1810606
62	0xbe7ccd46	-0.2468768
63	0xbe6fe3d0	-0.23426747
64	0xbe615f8e	-0.22009107
65	0x3cb39af6	0.021924477
66	0xbe725ac6	-0.2366744
67	0x3dd04dc4	0.101710826
68	0xbd5d1a98	-0.05398044
69	0xbe1c54a5	-0.15266664
70	0xbe4219ec	-0.18955201
71	0xbd32b7aa	-0.043632187
72	0xbe91cd90	-0.28477144
73	0xbe8d59d3	-0.27607593
74	0xbe19cc6e	-0.1501939
75	0xbe99de2b	-0.30052313
76	0xbeb88926	-0.36042136
77	0xbe3f6c51	-0.18693663
78	0x3c0c57c1	0.008565844
79	0xbde8ea1b	-0.11372777
80	0xbdbaeeb0	-0.09127557
81	0x3e0462d8	0.12928331
82	0x3d445c03	0.04793931
83	0xbd8a84c5	-0.06763605
84	0x3dd17a81	0.10228444
85	0x3a51b725	0.0008000008
86	0xbe2c422d	-0.16822119
87	0xbe81b898	-0.25336146
88	0xbe2e075e	-0.16994998
89	0x3d8b6b80	0.068076134
90	0xbd9194b9	-0.07108445
91	0x3d58aec9	0.052901063
92	0x3cb5c7d9	0.022190021
93	0xbe2d0a0a	-0.16898361
94	0x3e08e1c8	0.13367379
95	0x3d4806ab	0.048834484
96	0xbe264b7c	-0.16239733
97	0xbe89742f	-0.26846454
98	0xbe47bcdc	-0.19505638
99	0xbf034d3a	-0.51289713
100	0x3e02c40d	0.127701
101	0xbd2b2594	-0.041783884
102	0xbecbca57	-0.3980281
103	0xbcbffeb1	-0.023436876
104	0xbd7883af	-0.06067246
105	0xbc76b8b4	-0.015058685
106	0xbbd3de70	-0.0064657256
107	0x3edc4920	0.4302454
108	0x3e46028b	0.19336908
109	0x3e497e9e	0.19677207
110	0x3da13fed	0.07873521
111	0x3d96f41d	0.0737078
112	0xbe5d4970	-0.21610045
113	0xbcc79194	-0.02436141
114	0xbdc66a92	-0.096882954
115	0xbd5137ac	-0.051078483
116	0x3d098cd8	0.033581585
117	0xbe15103c	-0.14556974
118	0xbe2ba37b	-0.16761582
119	0x3d8f0689	0.06983668
120	0x3e02061b	0.12697642
121	0xbe4023e3	-0.1876369
122	0x3dbd8ea9	0.09255726
123	0xbe94f308	-0.29091668
124	0x3d8908d4	0.06691137
125	0x3cc35428	0.02384384
126	0x3ee81e4c	0.45335615
127	0xbd9a5de7	-0.07537442
128	0x3e200ace	0.15629122
129	0xbd8f2745	-0.06989912
130	0xbcd8eb59	-0.02647941
131	0x3df8c295	0.121464886
132	0xbe097a9d	-0.1342568
133	0x3e54aa50	0.20768094
134	0xbd343d2e	-0.044003658
135	0xbe149ca5	-0.1451288
136	0xbc34fcde	-0.011046616
137	0x3e14f0ed	0.14545031
138	0xbe029864	-0.12753445
139	0xbe1d5299	-0.1536354
140	0xbd3d3151	-0.04618961
141	0x3d5122a1	0.051058415
142	0xbde3d070	-0.11123741
143	0x3b664654	0.0035137134
144	0xbde49ca8	-0.11162692
145	0xbe9fea63	-0.3123351
146	0x3d95945e	0.073036894
147	0xbf10d6b4	-0.5657761
148	0xbe6f762f	-0.23384927
149	0x3e35e420	0.17762804
150	0x3e842b04	0.25814068
151	0x3d068fc5	0.032851953
152	0x3d5f30b7	0.054489817
153	0x3e1425f8	0.14467609
154	0x3dd6e89f	0.10493588
155	0x3e8e7e27	0.27830622
156	0x3e117244	0.14203745
157	0x3db68663	0.08912351
158	0xbcf1956a	-0.029490191
159	0x3c9f9dce	0.019484427
160	0x3d9d4263	0.07678678
161	0x3d715378	0.058917493
162	0xbe406060	-0.18786764
163	0x3d63e433	0.05563755
164	0xbdf19866	-0.11796646
165	0xbd84325c	-0.06454918
166	0xbe3cd3e4	-0.18440205
167	0xbd8174cd	-0.06321106
168	0xbd3d4938	-0.046212405
169	0x3e87dd69	0.2653611
170	0x3e22174c	0.158292
171	0x3f3179de	0.6932658
172	0x3e6823a1	0.22669841
173	0x3d237d65	0.039914507
174	0x3ee51aa2	0.44746882
175	0xbd481cc3	-0.048855554
176	0xbc1303bd	-0.008973059
177	0xbccc849d	-0.024965579
178	0xbdb43a4a	-0.0880018
179	0xbea0acaf	-0.31381747
180	0xbe103de4	-0.1408611
181	0x3cea4d6b	0.028601369
182	0x3e5b20bb	0.21399204
183	0x3dec64cf	0.11542665
184	0x3dfce724	0.12348774
185	0x3cfc20c4	0.030777343
186	0x3d73728b	0.05943541
187	0xbd478b62	-0.04871691
188	0x3e01b751	0.12667586
189	0x3e0f429d	0.13990255
190	0x3db49644	0.088177234
191	0xbe5b73f5	-0.21430953
192	0xbca2e437	-0.019884212
193	0xbe7edb08	-0.24888241
194	0xbe8a68ff	-0.2703323
195	0xbeb4e51e	-0.35331053
196	0x3e841f48	0.25805116
197	0xbd9fc906	-0.07802014
198	0xbf12f069	-0.57398087
199	0x3d67a557	0.056554165
200	0x3e84c9b4	0.25935137
201	0xbcbd13cb	-0.023080727
202	0xbc37c9bc	-0.011217531
203	0x3e324a67	0.17411195
204	0xbd9c3016	-0.07626359
205	0xbe1b3c99	-0.15159835
206	0x3e1a9c7f	0.15098761
207	0x3bec9602	0.0072200308
208	0xbd063dca	-0.03277377
209	0xbda9e374	-0.08295336
210	0x3c99b1aa	0.018761475
211	0x3e0f1d86	0.13976106
212	0x3e0826fa	0.13296118
213	0xbd837122	-0.06418063
214	0xbe064ef9	-0.13116063
215	0x3e2fd2f0	0.1717031
216	0xbe15ea83	-0.1464024
217	0xbdb4d6ee	-0.08830057
218	0xbe7dfa31	-0.24802472
219	0xbf139538	-0.57649565
220	0xbe3cecc2	-0.18449691
221	0xbdb7684d	-0.08955441
222	0xbf2f0a6c	-0.6837528
223	0xbca5ffd0	-0.020263582
224	0x3d930ef4	0.071805865
225	0x3e2bb784	0.16769224
226	0x3ddf6f9c	0.1090996
227	0xbe6d122d	-0.23151465
228	0x3dca6cee	0.09884058
229	0x3db99442	0.09061481
230	0xbd1d72e1	-0.038439635
231	0xbe229103	-0.1587563
232	0x3dc394cb	0.095498644
233	0xbe2b91f3	-0.16754894
234	0xbd1139b9	-0.03545544
235	0xbe8dd591	-0.27702
236	0xbd8ea9ba	-0.069659665
237	0xbe018243	-0.12647347
238	0x3d3aa9a6	0.045571946
239	0x3de0bfbf	0.10974073
240	0x3c7853dc	0.015156712
241	0x3ef4136e	0.47671074
242	0x3dba065f	0.090832464
243	0x3ee8bea2	0.4545794
244	0x3e30da4b	0.17270772
245	0xbcd911ee	-0.026497807
246	0x3e20bc9a	0.15696946
247	0xbc9dbebb	-0.019255986
248	0xbd14bbe3	-0.036311995
249	0xbd9ed163	-0.07754781
250	0x3e59790d	0.21237583
251	0xbec12ce0	-0.3772955
252	0x3dd7ce47	0.10537391
253	0xbd970ed1	-0.07375873
254	0xbd0efdf9	-0.034910176
255	0x3d93ceed	0.07217202

actor.0.bias f4 [64]
0	0xbe3345bf	-0.17507075
1	0xbe1ce1dd	-0.15320535
2	0x3e82405d	0.2543973
3	0xbb644ed4	-0.0034837024
4	0x3e884c41	0.26620677
5	0xbdcde53f	-0.10053491
6	0xbe0eb191	-0.13934924
7	0xbda50034	-0.08056679
8	0xbe38a80f	-0.1803286
9	0x3e1b72ee	0.15180561
10	0xbe19117f	-0.1494808
11	0x3c25076b	0.010072569
12	0xbdf1ef49	-0.11813218
13	0xbb6bb058	-0.0035963263
14	0xbd4dbe22	-0.050230153
15	0xbcc33ff2	-0.023834202
16	0xbd8b2a2c	-0.06795153
17	0xbdf4bc30	-0.119499564
18	0x3e204be4	0.1565395
19	0x3dfd2758	0.1236102
20	0xbd91923f	-0.07107972
21	0x3de6cde4	0.11269739
22	0x3e643a56	0.22287878
23	0xbdb461b4	-0.08807698
24	0xbe2c7858	-0.16842782
25	0x3e07749b	0.13228075
26	0xbd053f32	-0.03253097
27	0xbe4629e4	-0.19351918
28	0xbe158d90	-0.14604783
29	0xbe67f52c	-0.2265212
30	0x3e1ca418	0.15296972
31	0xbdf4f1a6	-0.11960153
32	0xbe285e39	-0.16442193
33	0x3e214ee7	0.15752755
34	0xbe40a143	-0.18811516
35	0xbe2c4c1f	-0.16825913
36	0xbda959c8	-0.082690775
37	0x3bbd0835	0.0057688006
38	0x3db1a886	0.086747214
39	0x3e2bfb65	0.16795118
40	0x3e34ab84	0.17643553
41	0x3e14d09f	0.14532708
42	0x3e039bfc	0.12852472
43	0x3ceef2b8	0.029168472
44	0x3e17a915	0.14810593
45	0xbc93e2ad	-0.018052423
46	0x3db16294	0.086613804
47	0xbd581c7d	-0.052761544
48	0x3d5a2d96	0.05326613
49	0xbd5d2bb9	-0.053996775
50	0xbe43bd6f	-0.19115232
51	0x3d88cc25	0.066795625
52	0x3d194de3	0.037427794
53	0x3d85c586	0.06531815
54	0xbe0854ab	-0.13313548
55	0x3e0f1d03	0.13975911
56	0x3e0671d2	0.13129357
57	0x3e2cd263	0.16877131
58	0xbdb185f8	-0.08668131
59	0xb9e7ed24	-0.00044236437
60	0x3dd9b14d	0.106295206
61	0x3aa372c9	0.0012470122
62	0xbd27f9d3	-0.041009735
63	0x3e3df960	0.1855216

actor.2.weight f4 [32, 64]
0	0x3ddc911c	0.10769865
1	0x3e08d9ba	0.13364306
2	0x3c04b980	0.008100867
3	0xbe864db3	-0.26231155
4	0xbcaeea5d	-0.021351987
5	0x3e28687f	0.16446112
6	0x3e2bb773	0.16769199
7	0x3d8c0e2e	0.06838642
8	0x3e2316fc	0.15926737
9	0xbe8167f4	-0.25274622
10	0x3e4b7c2c	0.19871587
11	0x3e4bf7cb	0.19918744
12	0x3cd47b2b	0.025937637
13	0x3d88729d	0.06662486
14	0x3e12e940	0.1434679
15	0xbda777f4	-0.08177176
16	0x3ce9a802	0.028522495
17	0x3e99bd69	0.3002732
18	0x3e3bb5bc	0.18331045
19	0xbddc100f	-0.107452504
20	0x3eae926b	0.34096083
21	0xbe9c3614	-0.30510008
22	0xbee33dc6	-0.44383067
23	0x3c914cde	0.017736848
24	0x3da56753	0.08076348
25	0x3da1fe70	0.07909858
26	0x3e265c7e	0.1624622
27	0x3d4ebb84	0.050471798
28	0x3de31961	0.11088825
29	0x3e2a2636	0.16616139
30	0x3a300780	0.0006714985
31	0x3d64bec4	0.05584599
32	0x3dd0c3d8	0.10193604
33	0x3d67155a	0.056416847
34	0x3d590d86	0.052991413
35	0x3e0a7409	0.13520826
36	0x3c485377	0.012226931
37	0xbdf95b84	-0.12175658
38	0xbd1a1027	-0.03761306
39	0xbe510d2d	-0.20415182
40	0xbe48f82d	-0.19625922
41	0xbe110b69	-0.14164509
42	0xbdc8936f	-0.09793746
43	0xbe33e346	-0.17567167
44	0x3d41cb33	0.047312927
45	0x3e70948b	0.23494165
46	0xbd55c463	-0.052189242
47	0xbe59dd02	-0.21275714
48	0x3d2c5f44	0.04208304
49	0x3ca46a5d	0.02007025
50	0x3e8b4055	0.2719752
51	0xbe87f89d	-0.26556864
52	0x3c447ca7	0.01199261
53	0xbdab6584	-0.08368972
54	0xbe123d85	-0.1428128
55	0xbd895501	-0.06705666
56	0xbd21e756	-0.03952726
57	0xbdfbf2ec	-0.12302193
58	0x3a1134ed	0.00055391976
59	0x3cbdde0c	0.02317717
60	0xbe638ccb	-0.22221677
61	0xbe0caa6c	-0.13736886
62	0xbd556583	-0.052098762
63	0xbe2b40e1	-0.16723968
64	0xbf0bf09f	-0.54664034
65	0xbe7d1b82	-0.24717525
66	0xbc2d7d04	-0.010588888
67	0xbd77920b	-0.06044201
68	0x3ea3a958	0.31965137
69	0xbc220377	-0.009888521
70	0xbd75a7d9	-0.059974525
71	0xbec49162	-0.38392168
72	0x3e90c253	0.28273258
73	0x3e44ec3e	0.19230744
74	0xbe00d10a	-0.12579742
75	0x3df93b33	0.121694945
76	0xbd87eb78	-0.06636709
77	0x3ed2cdfe	0.41172785
78	0xbeb19795	-0.3468596
79	0xbe146edb	-0.14495413
80	0xbe1ab759	-0.15109004
81	0x3da2512c	0.079256386
82	0xbe34a4ef	-0.17641042
83	0xbe997eea	-0.2997964
84	0xbe6b37ed	-0.22970553
85	0xbe925a1f	-0.28584382
86	0xbcbd4b14	-0.02310709
87	0xbe52945e	-0.2056441
88	0xbc92debd	-0.017928476
89	0x3bff8830	0.0077982172
90	0x3cf883b5	0.03033624
91	0xbcfe9b90	-0.031080037
92	0xbe83bb1f	-0.257287
93	0xbc1d6eac	-0.009608906
94	0xba66201e	-0.00087785895
95	0x3bb872bd	0.0056289122
96	0xbdf5a75c	-0.11994812
97	0x3db78fcf	0.08962976
98	0xbe5c4f36	-0.21514592
99	0xbc5e3a3e	-0.013563691
100	0xbddea6d9	-0.108716674
101	0xbd3d4a64	-0.046213523
102	0xbe318a9c	-0.17338032
103	0x3eb06ba4	0.34457123
104	0x3e12cf63	0.14336924
105	0x3d21b88b	0.039482635
106	0x3e2887eb	0.16458099
107	0x3d456b2a	0.048197903
108	0xbdfb267c	-0.122632
109	0xbe29b617	-0.16573368
110	0x3e5c80a4	0.21533448
111	0xbbc0d0d8	-0.005884271
112	0xbe312f45	-0.17303188
113	0x3d035e98	0.032072634
114	0xbe26063e	-0.16213319
115	0x3dc37736	0.09544222
116	0x3d9c0e22	0.07619883
117	0x3dfc0f54	0.12307611
118	0xbeee5e81	-0.46556476
119	0x3dd8abbe	0.10579632
120	0x3e3607b9	0.17776383
121	0x3d5b312e	0.0535137
122	0xbd9d4456	-0.0767905
123	0x3daaa873	0.083329104
124	0xbd477166	-0.04869213
125	0xbca5f8af	-0.020260183
126	0xbc962698	-0.01832895
127	0x3ebb3785	0.36565796
128	0xbe036a06	-0.12833413
129	0xbd9f2da8	-0.0777238
130	0x3e29abc9	0.16569437
131	0x3e79bbf8	0.2438811
132	0x3d794699	0.060858343
133	0xbd7e29e2	-0.06205166
134	0x3dc99513	0.09842887
135	0xbe8b1ea6	-0.2717182
136	0xbce5b66e	-0.02804109
137	0x3dde05dc	0.10840961
138	0xbdbb6726	-0.091505334
139	0xbe822ece	-0.25426334
140	0xbe36764e	-0.17818567
141	0xbd6df63b	-0.05809615
142	0xbdd5527f	-0.104161255
143	0xbdf9a849	-0.12190301
144	0xbe53705d	-0.20648332
145	0xbdcb9eda	-0.09942408
146	0xbd3c7a52	-0.04601509
147	0x3e66db98	0.22544706
148	0xbe5bef33	-0.21477966
149	0x3e729819	0.23690833
150	0x3e9bb72f	0.30413195
151	0x3d08c84d	0.033394147
152	0x3c12b8e2	0.008955212
153	0x3b804b86	0.003915253
154	0xbd5e37b9	-0.05425236
155	0xbe324142	-0.17407706
156	0xbd25af25	-0.040450234
157	0xbdd86acb	-0.10567244
158	0x3ca7a13d	0.020462627
159	0xbe6ee493	-0.23329382
160	0x3d0dda64	0.0346321
161	0x3dc77717	0.097395115
162	0x3dd6a7d3	0.10481229
163	0xbe40c595	-0.18825372
164	0x3ad6d674	0.0016390816
165	0x3da5e684	0.08100608
166	0xbd03274d	-0.032019902
167	0x3e5f8045	0.21826275
168	0x3e23a2d7	0.15980087
169	0x3eb2ef18	0.3494804
170	0x3d50d6a3	0.050985944
171	0xbdee38e5	-0.116319455
172	0x3dec97af	0.11552369
173	0xbee96531	-0.45585015
174	0xbcac2bb5	-0.021016935
175	0x3eaa3e5a	0.33250695
176	0x3c1c8406	0.009552961
177	0xbc824c87	-0.015905632
178	0xbe2e33ec	-0.17011994
179	0x3d280ceb	0.041027945
180	0xbe1d3c66	-0.15355071
181	0x3e3e3230	0.18573833
182	0x3e1ab5ab	0.15108363
183	0x3df69c83	0.12041571
184	0xbd3d1da1	-0.046170834
185	0x3d01876f	0.0316233
186	0x3d6cdb95	0.057826597
187	0x3d0ad75b	0.033896785
188	0x3e14d4ca	0.14534298
189	0xbc52737f	-0.012844919
190	0x3db43e83	0.08800986
191	0x3e67c266	0.22632751
192	0x3cfcf1eb	0.030877074
193	0x3e96146e	0.29312462
194	0x3ed292e0	0.41127682
195	0x3df1f673	0.118145846
196	0xbe192ba4	-0.14958054
197	0x3e01a9b8	0.12662399
198	0x3e4c2ac8	0.19938195
199	0xbd048841	-0.032356504
200	0xbe594f89	-0.21221747
201	0xbe5e3de4	-0.21703297
202	0xbe3b3e3f	-0.18285464
203	0xbe27044c	-0.16310233
204	0xbd578efe	-0.052626602
205	0xbe5bf926	-0.21481761
206	0x3e1263a1	0.14295818
207	0x3e16ff3c	0.14745802
208	0xbd288eec	-0.041151926
209	0xbe9cd1e4	-0.30628884
210	0x3d91421d	0.07092688
211	0x3ef62d6d	0.48081532
212	0xbca3142a	-0.019907076
213	0x3e13b83e	0.14425752
214	0x3dafc01c	0.08581564
215	0xbd0b6006	-0.034027122
216	0x3e14a6eb	0.14516799
217	0x3d320490	0.043461382
218	0x3d28c2f8	0.04120156
219	0xbd589a75	-0.052881677
220	0x3e4895a0	0.19588327
221	0x3d7a4c36	0.061107837
222	0xbe927391	-0.28603795
223	0xbf1dba7f	-0.61612695
224	0xbdbf6266	-0.0934494
225	0x3e99add4	0.30015433
226	0x3e23691d	0.15958066
227	0xbe09ce36	-0.1345757
228	0x3cd4551d	0.025919491
229	0xbd711fca	-0.058868207
230	0x3e528b52	0.20560959
231	0xbe59e1bf	-0.21277522
232	0x3e6f1a0a	0.23349777
233	0x3d688cdb	0.056774955
234	0xbd2b0c17	-0.041759577
235	0xbd8978a7	-0.06712466
236	0x3ea087a3	0.31353483
237	0xbceb2cda	-0.02870791
238	0x3e6c38ac	0.23068494
239	0x3e556121	0.20837833
240	0x3eac2977	0.33625385
241	0x3daecff6	0.08535759
242	0xbee07259	-0.4383724
243	0x3e06a204	0.13147742
244	0xbe78c98b	-0.24295633
245	0xbdb14912	-0.08656515
246	0xbd97eca4	-0.074181825
247	0xbe448dd9	-0.19194736
248	0xbc0661ff	-0.008202075
249	0x3e45552e	0.19270775
250	0x3e011856	0.1260694
251	0x3dd3c5a1	0.10340429
252	0x3e935413	0.2877508
253	0x3d8ae811	0.067825444
254	0xbde45215	-0.111484684
255	0x3e089bc2	0.13340667

actor.2.bias f4 [32]
0	0xbd3250c9	-0.043534074
1	0x3e0d4240	0.13794804
2	0x3d93afa6	0.07211237
3	0x3cf8b5ca	0.030360121
4	0xbd1faa04	-0.0389805
5	0xbdc0212f	-0.09381329
6	0xbdb42313	-0.087957524
7	0xbc374332	-0.011185454
8	0xbccba5be	-0.024859305
9	0x3daaaba4	0.08333519
10	0xbdb21553	-0.086954735
11	0xbd1523e7	-0.036411192
12	0xbdda4e4c	-0.10659465
13	0x3dd59272	0.10428323
14	0xbcf27158	-0.029595062
15	0x3ba747f4	0.005105013
16	0x3e0c842c	0.13722295
17	0xbd457e3c	-0.04821609
18	0x3d71926d	0.058977533
19	0x3c8e76cb	0.01739063
20	0x3cfba7f2	0.030719731
21	0x3c1195f4	0.008885849
22	0x3c225467	0.009907818
23	0x3e0bd68d	0.13656063
24	0xbe273d5b	-0.16331999
25	0x3dafcc73	0.085839175
26	0x3ccc75d2	0.024958525
27	0xbda38702	-0.07984735
28	0xbc8f1b11	-0.017468961
29	0xbd259684	-0.040426746
30	0x3de32eea	0.110929325
31	0xbdf1ce30	-0.11806905

actor.4.weight f4 [4, 32]
0	0xbeb024b7	-0.3440301
1	0xbd0cdd86	-0.03439095
2	0x3f09e31c	0.53862166
3	0x3e3a125c	0.18171066
4	0xbe7e6020	-0.24841356
5	0xbf04643a	-0.51715434
6	0xbdf2feea	-0.11865027
7	0x3d95967f	0.073040955
8	0x3e2c5ebe	0.16833016
9	0xbedfa9e4	-0.43684304
10	0xbe21cce2	-0.15800813
11	0x3d80001d	0.062500216
12	0xbf78e1ff	-0.9721984
13	0x3e01fe6e	0.12694713
14	0x3ef5bf27	0.479974
15	0x3e3387f0	0.17532325
16	0x3d5b6129	0.053559456
17	0x3deb223d	0.1148114
18	0x3e9794a0	0.2960558
19	0x3f395b79	0.724052
20	0x3dc0c324	0.0941222
21	0x3ed88372	0.42287785
22	0x3e2e8e64	0.17046505
23	0x3f423ca7	0.758738
24	0xbe66c5b1	-0.22536351
25	0xbe0cba7b	-0.13743012
26	0x3cdf532a	0.027261335
27	0x3e1b8ebf	0.15191172
28	0xbe0fd821	-0.1404729
29	0xbeb76df3	-0.35826072
30	0x3db89947	0.0901361
31	0xbe669c25	-0.22520502
32	0xbe418c00	-0.18901062
33	0x3f2d5dbf	0.6772117
34	0x3ebab88b	0.3646892
35	0xbea8c331	-0.3296142
36	0xbe84980c	-0.25897253
37	0x3d7d7ab5	0.0618846
38	0xbed52d28	-0.41636014
39	0xbec98e2a	-0.39366275
40	0xbee7c27a	-0.4526556
41	0x3b946a8b	0.0045293025
42	0x3f2ddaa4	0.67911744
43	0x3f7ef621	0.9959431
44	0x3d179ad0	0.037012875
45	0x3e9effd0	0.31054544
46	0x3e36742d	0.17817755
47	0xbf29b120	-0.66285896
48	0x3ecdb255	0.4017512
49	0xbd2d39b6	-0.042291366
50	0x3f245487	0.6419148
51	0x3dba8c50	0.09108794
52	0xbe852bd6	-0.26010007
53	0x3e96fa6d	0.29487935
54	0x3ef01ca5	0.46896854
55	0x3c415a4a	0.011801312
56	0xbe4cab65	-0.19987257
57	0x3df88095	0.121339
58	0x3ca0d337	0.019631965
59	0xbf092f8a	-0.53588164
60	0x3f04085f	0.51575273
61	0xbe8f1b36	-0.27950448
62	0xbeddd9d8	-0.43330264
63	0xbeebcdb8	-0.46055388
64	0x3c842c33	0.016134357
65	0xbd0a430b	-0.033755343
66	0xbe50da98	-0.20395887
67	0xbeb85d37	-0.36008617
68	0xbe1f94f2	-0.15584162
69	0x3e07bdf7	0.1325606
70	0xbe98546f	-0.29751918
71	0xbeac6517	-0.33670875
72	0xbe7caac9	-0.24674524
73	0x3db0290a	0.086015776
74	0xbe5b104f	-0.2139294
75	0x3e14c0d5	0.14526685
76	0x3e3d39ef	0.18479131
77	0x3e2fa111	0.17151286
78	0xbcbf434a	-0.023347516
79	0x3db09316	0.086218044
80	0x3e3a2a79	0.18180265
81	0xbec6bbdf	-0.3881521
82	0xbe116865	-0.1419998
83	0xbe755d54	-0.23961383
84	0x3ca10992	0.019657884
85	0x3ceb2956	0.028706234
86	0xbe9e8094	-0.30957472
87	0xbdb67cdf	-0.08910536
88	0xbcdf8cf3	-0.02728889
89	0x3d454315	0.048159678
90	0xb9f57119	-0.00046814306
91	0xbe7b2b70	-0.24528289
92	0xbd5a7672	-0.053335615
93	0x3deca768	0.11555368
94	0x3ec68a1f	0.38777253
95	0x3c59692a	0.013269702
96	0xbd793bf5	-0.060848195
97	0xbe4585ef	-0.19289373
98	0xbc6a4d15	-0.014300604
99	0xbe309bfd	-0.17247005
100	0xbef148bd	-0.47125807
101	0x3e7536ac	0.23946637
102	0xbe9a0d31	-0.3008819
103	0xbe0203b7	-0.1269673
104	0xbe0d905e	-0.13824603
105	0x3ecfa203	0.40553293
106	0xbba23dda	-0.004951221
107	0x3e3a4a8b	0.18192498
108	0xbd237741	-0.03990865
109	0xbe4988af	-0.19681047
110	0xbecc67ff	-0.39923093
111	0x3df9a0c8	0.1218887
112	0xbe95e399	-0.29275206
113	0xbf39f0d3	-0.72633094
114	0x3e21c7eb	0.15798919
115	0xbc15a559	-0.00913366
116	0xbec8aeac	-0.39195764
117	0xbec36b08	-0.38167596
118	0xbe8f975e	-0.28045171
119	0x3dc2ff73	0.09521379
120	0x3ebb77b0	0.36614752
121	0xbf0e0a0f	-0.554841
122	0xbf2be1c9	-0.67141396
123	0x3c54dfa7	0.012992776
124	0x3e89f171	0.26942018
125	0xbe977904	-0.29584515
126	0x3eb02b1e	0.34407896
127	0xbe4c8e4d	-0.19976158

actor.4.bias f4 [4]
0	0x3e1032fa	0.14081946
1	0xbda9e5e0	-0.08295798
2	0x3e5563e4	0.20838886
3	0xbe31c293	-0.1735938

critic.0.weight f4 [64, 24]
0	0x3e529cd8	0.20567644
1	0x3e0fd9ae	0.14047882
2	0x3e22e3a0	0.15907145
3	0xbdf369f1	-0.11885441
4	0xbd7e0e4e	-0.06202536
5	0xbdb3b85f	-0.087754
6	0x3dac3658	0.08408803
7	0x3dea7f76	0.114500925
8	0x3e32dc64	0.17466885
9	0xbdfcb479	-0.1233911
10	0x3da09377	0.07840627
11	0xbd36a5f0	-0.044591844
12	0xbb9075d5	-0.004408578
13	0x3e4b7f01	0.19872667
14	0xbe175bc8	-0.14781106
15	0xbdaaa6e1	-0.08332611
16	0x3d29bc32	0.041439243
17	0x3dc0da21	0.09416605
18	0xbd5782a9	-0.05261484
19	0xbd26f395	-0.04075964
20	0xbd8de642	-0.06928684
21	0xbc273433	-0.010205316
22	0xbe277e8e	-0.1635687
23	0xbd9b6cbd	-0.075890996
24	0x3cbc5431	0.022989364
25	0x3e117a4c	0.14206809
26	0x3e1d61dc	0.15369362
27	0x3d02e69c	0.031958207
28	0xbdabe16a	-0.08392604
29	0x3e1936a7	0.14962254
30	0xbe3e1270	-0.18561721
31	0x3d8c01af	0.068362586
32	0x3d46f7b4	0.04857607
33	0xbc9d3fa0	-0.019195378
34	0x3e3ba600	0.18325043
35	0x3dfe80f7	0.12426942
36	0x3e4644c7	0.19362174
37	0xbdef3ce0	-0.11681533
38	0xbd850ddf	-0.06496786
39	0xbe0b7db0	-0.13622165
40	0x3df3bb77	0.119009905
41	0xbe183c0f	-0.1486666
42	0x3d94c9c5	0.07265047
43	0x3e080f2e	0.1328704
44	0x3d6b4720	0.057440877
45	0x3d291ed9	0.041289184
46	0xbd81f490	-0.06345475
47	0xbd0b9825	-0.034080643
48	0xbdb23b61	-0.08702732
49	0x3d605860	0.05477178
50	0x3db9ab17	0.09065836
51	0xbd84c49e	-0.06482814
52	0xbe1713f9	-0.14753713
53	0xbdb2a522	-0.08722903
54	0xbdca4311	-0.09876073
55	0xbda42426	-0.08014707
56	0x3e21054f	0.15724681
57	0x3e0a21fc	0.13489527
58	0x3e1d1f28	0.15343916
59	0xbae0dbcc	-0.0017155348
60	0xbda7a953	-0.08186593
61	0x3e1ebb14	0.15501052
62	0xbe58d81a	-0.21176186
63	0x3b8533bf	0.0040650065
64	0xbe20086b	-0.15628211
65	0xbdf5b1ae	-0.1199678
66	0x3dc6db6b	0.097098194
67	0xbe3bb274	-0.18329793
68	0xbdf198ac	-0.11796698
69	0xbe272580	-0.16322899
70	0x3e416c27	0.18888913
71	0xbd8e1200	-0.06937027
72	0x3e25ed2c	0.16203755
73	0xbdc0b675	-0.09409801
74	0x3e0de51d	0.13856931
75	0xbd85a62c	-0.065258354
76	0x3d3575c9	0.04430178
77	0x3dcef2d5	0.1010491
78	0x3df09d95	0.117488064
79	0xbde9c976	-0.11415379
80	0x3e171982	0.14755824
81	0x3e0f50be	0.13995644
82	0x3d84fc5e	0.06493448
83	0x3d9cc15e	0.07654069
84	0xbd8ba457	-0.06818455
85	0x3daca752	0.08430351
86	0x3df12d58	0.11776227
87	0x3df8cc0c	0.12148294
88	0x3ccdebd1	0.02513686
89	0xbe2c274d	-0.16811867
90	0x3e350a4e	0.17679712
91	0xbe2fba53	-0.17160921
92	0xbe228f1e	-0.15874907
93	0x3c67b544	0.014142338
94	0x3d18f273	0.037340593
95	0x3e11d5ab	0.14241664
96	0xbe0ac078	-0.13549984
97	0xbbe5b9a9	-0.007010658
98	0xbde11fbc	-0.10992381
99	0xbe57745d	-0.21040483
100	0x3e0953a5	0.13410814
101	0xbc9cda2f	-0.019147007
102	0x3dfda60c	0.123851866
103	0xbd1a3e44	-0.037657037
104	0x3de6ce22	0.112697855
105	0xbe14d006	-0.1453248
106	0x3d3a2cb3	0.045452785
107	0xbdabe36b	-0.08392986
108	0x3b6d0c92	0.0036170823
109	0xbd5692db	-0.052386146
110	0xbe505a4f	-0.2034695
111	0xbdc63f72	-0.0968007
112	0x3e01a8d0	0.12662053
113	0xbe27ad17	-0.16374622
114	0x3e2bbc54	0.1677106
115	0x3da6c04f	0.08142149
116	0x3db0246f	0.08600699
117	0x3e049281	0.12946512
118	0xbe3f3fd1	-0.18676688
119	0xbc0ec52c	-0.008714002
120	0xbca7f941	-0.020504596
121	0x3d43aad0	0.04777032
122	0xbe2bc219	-0.16773261
123	0xbceeec26	-0.029165339
124	0x3d952017	0.07281511
125	0xbde30074	-0.11084071
126	0xbc494c23	-0.012286219
127	0xbdaa7609	-0.08323295
128	0x3da3e35a	0.08002348
129	0x3d7dc51a	0.06195555
130	0x3d9afeaf	0.07568108
131	0xbd3ad39c	-0.045611963
132	0xbb99d6a4	-0.0046947766
133	0x3e0a5277	0.1350802
134	0xbc377b4e	-0.011198832
135	0x3d81aa6d	0.06331334
136	0x3da8c61a	0.0824091
137	0x3da7b48b	0.08188733
138	0xbe4a75bb	-0.19771473
139	0xbdfa1464	-0.122109205
140	0xbcd3a948	-0.025837556
141	0xbcfb342e	-0.03066453
142	0x3e361744	0.17782313
143	0x3c667fd2	0.014068561
144	0xbd6dc998	-0.058053583
145	0xbe1420d6	-0.14465651
146	0xbdcf6a23	-0.10127666
147	0x3dda5645	0.10660986
148	0x3e06c22c	0.13160008
149	0x3dfcce04	0.12343982
150	0xbcf76ecf	-0.030204205
151	0x395dcbc8	0.00021152117
152	0x3e030399	0.12794341
153	0xbd13711a	-0.035996534
154	0x3dbd3ba0	0.09239888
155	0x3cb52014	0.022110023
156	0x3d84babf	0.064809315
157	0xbe354d6e	-0.17705318
158	0xbdb72d70	-0.089442134
159	0xbe382afa	-0.17985144
160	0x3e1ca1aa	0.15296045
161	0x3de301f6	0.110843584
162	0xbd9375a5	-0.07200173
163	0xbe190218	-0.14942205
164	0xbdfe533d	-0.1241822
165	0x3e14f381	0.14546014
166	0x3e0553e6	0.13020286
167	0x3d87270e	0.06599246
168	0xbe1860a9	-0.14880623
169	0x3dd58a8f	0.104268186
170	0x3cb5abd6	0.022176664
171	0x3b83649b	0.004009796
172	0x3e317b11	0.17332102
173	0x3d36188e	0.04445701
174	0xbdddab74	-0.10823718
175	0xbcc103ab	-0.02356132
176	0xbe1e02b5	-0.1543072
177	0x3e21326d	0.15741892
178	0x3db6d9bb	0.089282475
179	0x3db39df6	0.08770363
180	0x3da176a2	0.078839555
181	0x3dd7fa14	0.105457455
182	0xbdeedf7e	-0.116637215
183	0x3e228e8b	0.15874688
184	0xbe471c64	-0.19444424
185	0x3d8936ed	0.066999294
186	0xbd3a5bcf	-0.04549771
187	0x3c66cc5c	0.014086809
188	0x3d999429	0.074989624
189	0xbe54eaec	-0.2079274
190	0xbd3834f5	-0.04497238
191	0x3dcc23ea	0.099677876
192	0xbe164caf	-0.1467769
193	0x3da559e3	0.08073785
194	0xbe31de18	-0.17369878
195	0x3cfc5efd	0.030807013
196	0xbcec4541	-0.028841617
197	0x3d0c73b9	0.03429005
198	0xbdd52738	-0.10407871
199	0x3db9072c	0.09034571
200	0xbdf507bd	-0.119643666
201	0x3dd11348	0.10208756
202	0xbd208b3c	-0.039195284
203	0x3dcffec7	0.10156017
204	0xbe350ba6	-0.17680225
205	0xbbfb0837	-0.0076608914
206	0xbdbe0d3c	-0.09279868
207	0xbd782a28	-0.06058708
208	0x3c6e6992	0.014551537
209	0xbe20ec61	-0.15715171
210	0xbe1eb8a5	-0.15500124
211	0x3dfe8109	0.12426955
212	0x3d0fb3ee	0.035083704
213	0x3deb3986	0.11485581
214	0xbe3cef22	-0.18450597
215	0xbe0ca686	-0.13735399
216	0x3dc01cf0	0.093805194
217	0x3cef3434	0.029199697
218	0x3d56671f	0.052344438
219	0x3da33a0b	0.07970055
220	0x3db1d640	0.08683443
221	0x3d836f7d	0.06417749
222	0xbda39f5d	-0.079893805
223	0xbd5b883e	-0.053596728
224	0x3e31bc2b	0.17356937
225	0x3c2518b8	0.010076694
226	0x3d52319e	0.05131685
227	0x3d8f42f4	0.06995192
228	0xbdc0ecb8	-0.094201505
229	0xbe58eb3e	-0.21183488
230	0xbe527465	-0.20552213
231	0xbe04c046	-0.12963971
232	0x3d8dae9a	0.06918068
233	0xbd1913d2	-0.037372418
234	0xbd9f6dcc	-0.07784614
235	0xbe1ffedc	-0.15624565
236	0x3d300686	0.04297497
237	0xbcccc993	-0.024998462
238	0x3da50a5a	0.08058615
239	0x3d2efb9c	0.042720422
240	0xbe852d74	-0.2601124
241	0x3a14f80f	0.00056827156
242	0xbe46569c	-0.19368976
243	0x3e033fa1	0.12817241
244	0xbe124568	-0.14284289
245	0xbc19dafd	-0.00939059
246	0xbd7483ce	-0.05969601
247	0x3d903a00	0.070423126
248	0xbd194223	-0.03741659
249	0x3e004d55	0.125295
250	0x3e0cf944	0.13766962
251	0xbdf06eba	-0.117398694
252	0xbd7f9953	-0.06240208
253	0xbe29d8c7	-0.165866
254	0x3e21299e	0.15738532
255	0xbe00a3eb	-0.1256253

critic.0.bias f4 [64]
0	0x3e415f24	0.1888395
1	0x3dcb7a1c	0.099354
2	0xbdfb8319	-0.12280864
3	0xbe2639da	-0.16233006
4	0x3e39005f	0.18066548
5	0x3b816b13	0.003949532
6	0x3de28f09	0.11062438
7	0x3e3ad002	0.18243411
8	0xbcf04361	-0.029329004
9	0x3c926ae0	0.017873228
10	0x3e080c5e	0.13285968
11	0xbe365400	-0.17805481
12	0xbd24814d	-0.040162373
13	0x3e0a85b4	0.13527566
14	0xbcc55448	-0.02408804
15	0x3c52588b	0.012838493
16	0xbcdc796b	-0.026913365
17	0xbcc53fd8	-0.024078295
18	0xbe2a9110	-0.166569
19	0xbd6b83c2	-0.0574987
20	0x3c2acc4d	0.010424686
21	0xbdae656b	-0.08515438
22	0xbe2f1f13	-0.17101698
23	0xbcde56f3	-0.02714107
24	0x3e5e98a8	0.21737921
25	0xbd4858ef	-0.04891294
26	0x3dbb1723	0.09135272
27	0xbddea019	-0.1087038
28	0xb9f02039	-0.00045800375
29	0xbe0ded3e	-0.13860032
30	0xbd83e974	-0.06441012
31	0x3e2ab2f8	0.16669834
32	0xbd037c77	-0.03210112
33	0x3d0e60af	0.034760173
34	0x3d75fa69	0.060053263
35	0xbe4796be	-0.19491097
36	0xbe0be3da	-0.13661137
37	0xbd0b32bf	-0.033983942
38	0xbe1cd8bc	-0.15317053
39	0xbc1b6f60	-0.009487003
40	0x3dc3bf66	0.09557991
41	0x3c4f4fa6	0.012653267
42	0xbe3a8bea	-0.18217435
43	0xbe0d3647	-0.13790236
44	0xbe06e5ef	-0.1317365
45	0xbe4bcaf8	-0.19901645
46	0xbe1ca234	-0.1529625
47	0x3af50584	0.001869366
48	0x3df22e80	0.118252754
49	0x3da0bf96	0.07849042
50	0xbe1d4658	-0.15358865
51	0xbe290bf9	-0.16508473
52	0x3dc84c34	0.097801596
53	0x3de75017	0.11294573
54	0x3da9a169	0.0828274
55	0xbd5fd623	-0.054647576
56	0x3e1e5b83	0.15464596
57	0xbd201d49	-0.03909043
58	0xbe398595	-0.18117364
59	0x3d4acd26	0.04951205
60	0xbe11bfc4	-0.14233309
61	0x3d865900	0.06559944
62	0xbe1f6173	-0.15564518
63	0xbdbe57d7	-0.09294098

critic.2.weight f4 [32, 64]
0	0x3d951cea	0.072809055
1	0xbd9e8490	-0.07740128
2	0xbd8da98c	-0.06917104
3	0xbcc0cd31	-0.023535343
4	0x3d6b093e	0.05738186
5	0xbd93d661	-0.07218624
6	0xbdcf4d3b	-0.101221524
7	0xbd29d511	-0.04146296
8	0x3dbed34c	0.093176454
9	0x3dc1f689	0.09470851
10	0xbdf6f63a	-0.12058683
11	0x3cd21bae	0.025647964
12	0xbd933120	-0.07187104
13	0xbe04d4eb	-0.12971847
14	0xbd11170d	-0.035422374
15	0x3e01640e	0.12635824
16	0xbcd9c7a8	-0.026584461
17	0xbcbcdf8c	-0.023055814
18	0xbdd7acfa	-0.105310395
19	0x3db351f6	0.08755867
20	0x3dc07002	0.09396364
21	0x3daa7bf0	0.083244205
22	0xbdd29108	-0.10281569
23	0xbd2659b8	-0.040612906
24	0x3dbdc285	0.09265617
25	0x3dcb4647	0.09925514
26	0xbd966887	-0.07344156
27	0x3dbddd90	0.09270775
28	0x3d638e97	0.055555906
29	0xbdc42592	-0.095774785
30	0x3da8a6cd	0.0823494
31	0xbc34882f	-0.011018797
32	0x3c69d647	0.014272279
33	0xbd653141	-0.055955175
34	0x3cd2425f	0.025666414
35	0xbd92bf0a	-0.07165344
36	0xbc7526ac	-0.014962833
37	0xbc89f327	-0.016839577
38	0xbdd3fc90	-0.10350907
39	0x3dcac923	0.09901645
40	0xbdbb4f08	-0.091459334
41	0x3d8c5d9d	0.06853793
42	0x3bf339c2	0.0074226568
43	0x3b2dbe2b	0.0026511054
44	0x3d3090f9	0.043107007
45	0x3dbb103a	0.09133954
46	0xbdfe786d	-0.12425313
47	0x3d7a0e18	0.061048597
48	0xbd90b3ab	-0.07065519
49	0x3de1758f	0.11008751
50	0xbd9da2b4	-0.07697049
51	0x3da24766	0.079237744
52	0xbdf9443f	-0.1217122
53	0xbc0517d8	-0.008123361
54	0x3d532b34	0.051554874
55	0x3e039fe1	0.12853958
56	0x3ddd3834	0.108017355
57	0xbd821461	-0.06351543
58	0xbdcf32bd	-0.101170994
59	0x3cf9a026	0.030471873
60	0x3dcf85f0	0.101329684
61	0xbd5054fb	-0.050862294
62	0xbd3ab347	-0.04558113
63	0xbd875239	-0.066074796
64	0x3dad5490	0.08463395
65	0xbcb03099	-0.021507548
66	0x3dc58a1b	0.09645482
67	0xbcb2f210	-0.02184394
68	0x3dcd690c	0.10029802
69	0x3c879e50	0.016554981
70	0xbd802f3c	-0.06259009
71	0x3c59c546	0.013291663
72	0xbdb6a7d0	-0.089187264
73	0xbda4bed1	-0.08044208
74	0x3cbae294	0.022813119
75	0xbdbeeab5	-0.093221106
76	0x3de33cf1	0.11095608
77	0x3de44130	0.11145246
78	0x3db15a2c	0.08659777
79	0xbc2f5d15	-0.010703345
80	0x3d9ad362	0.07559849
81	0x3d87b0bd	0.06625507
82	0xbd02e01d	-0.031952012
83	0x3cd10a2a	0.025517542
84	0xbb4d41e3	-0.003131979
85	0xbd34b451	-0.044117276
86	0xbd824a69	-0.06361849
87	0x3dd9def0	0.10638225
88	0xbd86c8ae	-0.06581245
89	0xbd0e1053	-0.034683537
90	0xbda6dbb7	-0.08147376
91	0x3db1fb6f	0.08690535
92	0xbdc62d66	-0.09676628
93	0xbd3d3ac2	-0.046198614
94	0x3bed84b0	0.0072484836
95	0x3d48da95	0.04903658
96	0xbde0f836	-0.109848425
97	0xbdb96f44	-0.09054425
98	0xbdc7701b	-0.09738179
99	0x3dbac386	0.091193244
100	0x3d843145	0.0645471
101	0xbd199c36	-0.03750249
102	0x3cdeef62	0.027213756
103	0x3decc34d	0.11560688
104	0x3d5863b7	0.05282947
105	0x3d599cae	0.053127937
106	0x3d637551	0.055531804
107	0xbdf1e3a3	-0.118109964
108	0x3da7d594	0.08195034
109	0xbdedba6f	-0.11607825
110	0x3dc12478	0.09430784
111	0x3d1e19ea	0.038598932
112	0xbde3e103	-0.11126902
113	0xbcb67aff	-0.022275446
114	0xbd5de7bf	-0.05417609
115	0xbde66564	-0.112498075
116	0xbdee190c	-0.11625871
117	0x3d304df2	0.043043084
118	0xbd3c0c53	-0.04591019
119	0x3c263384	0.010144118
120	0x3dc4160e	0.09574519
121	0xbd715551	-0.058919255
122	0xbd857793	-0.065169476
123	0x3d8a6915	0.06758324
124	0xbcedd928	-0.029034212
125	0xbd455681	-0.0481782
126	0xbd965dd7	-0.07342117
127	0x3d3c597c	0.045983776
128	0x3d60e398	0.05490455
129	0xbd8a3ea9	-0.06750233
130	0x3e0379f6	0.12839493
131	0xbd303d7a	-0.04302738
132	0xbbee5ef1	-0.0072745015
133	0xbca9e45c	-0.020738773
134	0x3d1a37cf	0.03765088
135	0x3d475bd2	0.04867155
136	0xbd0aec1b	-0.033916574
137	0xbdddffb9	-0.10839791
138	0x3d9dd471	0.077065356
139	0xbdecf726	-0.11570577
140	0xbc446029	-0.011985817
141	0x3db11559	0.0864665
142	0x3d395e5a	0.045255996
143	0x3d83021a	0.06396885
144	0x3d175386	0.03694489
145	0xbd3ec1f5	-0.04657169
146	0xbd3c488c	-0.045967624
147	0xbd8e538b	-0.06949528
148	0x3c9e71a5	0.0193413
149	0xbced918c	-0.029000066
150	0xbd7b9909	-0.061425243
151	0x3c91a08b	0.017776748
152	0x3db58dfc	0.08864972
153	0xbd39b610	-0.045339644
154	0x3d0d1722	0.03444589
155	0x3cb28948	0.021793976
156	0x3ddd1462	0.10794903
157	0xbd3c81d0	-0.046022236
158	0x3d049bc6	0.03237512
159	0x3cdf8703	0.027286058
160	0x3dbdea64	0.09273222
161	0xbe11b881	-0.14230539
162	0x3d8f808b	0.070069395
163	0x3b960f87	0.0045794877
164	0xbd9eaed5	-0.0774819
165	0x3d66cbff	0.05634689
166	0xbd099dd6	-0.03359779
167	0xbd05f641	-0.03270555
168	0xbd00c314	-0.03143604
169	0xbdd9857a	-0.10621162
170	0x3d70e977	0.0588164
171	0xbdb2ebfc	-0.08736417
172	0xbcec635c	-0.028855972
173	0x3cb429d5	0.021992603
174	0xbd06d878	-0.032921284
175	0x3c691469	0.014226058
176	0x3ba20ef4	0.00494563
177	0x3d85ae7a	0.065274194
178	0x3d823167	0.06357079
179	0x3d8220a2	0.063538805
180	0x3ddbc652	0.10731186
181	0x3c91c693	0.017794883
182	0xbc0c07e2	-0.008546801
183	0xbdefb1b4	-0.11703816
184	0xbba53732	-0.00504198
185	0xbc1da3da	-0.009621585
186	0x3dc9f646	0.09861426
187	0x3dca00c9	0.09863431
188	0x3d3db3c9	0.046314035
189	0xbd1386fe	-0.03601741
190	0x3d8aeff4	0.06784049
191	0x3d8f12f8	0.0698604
192	0xbcae61ce	-0.021286871
193	0x3d973a9f	0.07384228
194	0x3c53234a	0.012886832
195	0xbdd161cf	-0.10223734
196	0x3d2ea848	0.042640954
197	0xbd773e9a	-0.060362436
198	0xbd271b25	-0.04079737
199	0x3d8a1a3a	0.067432836
200	0x3cb2b784	0.021816023
201	0xbdccfb18	-0.1000883
202	0x3d00a382	0.031405933
203	0xbc8cd69c	-0.017192177
204	0x3d2ea3aa	0.04263655
205	0xbd4b1b45	-0.049586553
206	0xbd0d4c22	-0.034496434
207	0xbdd0eea9	-0.10201771
208	0x3c3ea20d	0.011635316
209	0xbcefdd19	-0.029280232
210	0xbdb064f6	-0.08613007
211	0xbdfb7444	-0.12278035
212	0xbdbd9b68	-0.09258157
213	0x3dd8ae82	0.1058016
214	0xbe082cfa	-0.13298407
215	0xbdaade13	-0.083431385
216	0x3dc85b44	0.097830325
217	0x3d3f64bd	0.04672693
218	0x3c6d1320	0.014469892
219	0x3dfaf648	0.12254006
220	0x3deaf7bc	0.11473033
221	0x3dbb9d3a	0.09160848
222	0x3d7daab1	0.061930362
223	0xbd18056f	-0.037114557
224	0xbdbacc7a	-0.09121032
225	0x3da69112	0.08133139
226	0xbdef9ca5	-0.116997994
227	0xbdaa0f1e	-0.083036646
228	0xbdbece47	-0.09316688
229	0x3e0ecbdd	0.13944955
230	0xbd36efa5	-0.044662137
231	0x3dcd9e98	0.10040015
232	0xbdb9cc91	-0.09072221
233	0x3ca1f457	0.01976983
234	0x3db8fdf0	0.0903281
235	0x3d4655c5	0.04842164
236	0x3db529dc	0.08845875
237	0xbdcaf0d0	-0.099092126
238	0x3dad9e61	0.08477474
239	0x3dcb8546	0.09937529
240	0xbd73d7d1	-0.05953199
241	0x3d89f1c9	0.0673557
242	0x3de4fa1a	0.111805156
243	0x3ddf2864	0.10896376
244	0xbd90c986	-0.070696875
245	0x3ccdcae1	0.025121154
246	0xbd5e9739	-0.054343436
247	0xbd5b5202	-0.053545006
248	0xbd25b294	-0.04045351
249	0x3cca7089	0.024711864
250	0x3dff3d97	0.12462919
251	0xbd80c437	-0.06287425
252	0xbce9d64a	-0.028544564
253	0xbdb151ad	-0.086581565
254	0x3d86b164	0.06576803
255	0x3d50df05	0.050993938

critic.2.bias f4 [32]
0	0xbd20886a	-0.039192595
1	0x3c87bd54	0.01656977
2	0xbddc4188	-0.107546866
3	0x3c2242f3	0.009903657
4	0x3d9fc547	0.078012995
5	0xbda8b605	-0.082378425
6	0x3d08952e	0.033345394
7	0xbdd13289	-0.10214717
8	0xbc844ecd	-0.016150856
9	0x3d9c466b	0.07630619
10	0x3d8fe573	0.07026186
11	0x3d70be0e	0.058775
12	0x3dea01a6	0.11426096
13	0xbdb92091	-0.09039415
14	0x3dacf43b	0.08445021
15	0x3d204e31	0.03913707
16	0xbdb32355	-0.087469734
17	0xbd55916f	-0.05214065
18	0xbd1918db	-0.03737722
19	0x3d9cec41	0.07662249
20	0x3d8b0517	0.0678808
21	0x3d27f19e	0.04100191
22	0x39b4c38a	0.00034477963
23	0xbd6e06f3	-0.058112096
24	0x3e0d8e2a	0.13823763
25	0x3aa8c077	0.0012874742
26	0x3da2ff9f	0.07958912
27	0x3d826ede	0.063688025
28	0xbbcfa729	-0.0063370657
29	0x3dde827a	0.1086473
30	0xbcea9fc3	-0.028640633
31	0x3df3cb96	0.11904065

critic.4.weight f4 [1, 32]
0	0x3d45606a	0.04818765
1	0x3da85ce5	0.08220843
2	0xbe0b3fb9	-0.13598527
3	0xbd5ade47	-0.053434636
4	0x3da56c09	0.08077247
5	0xb8bbfc84	-8.9638896e-05
6	0x3df8a7dc	0.12141392
7	0x3e0310fe	0.12799451
8	0x38ec7d11	0.000112766524
9	0x3e19fe03	0.15038304
10	0x3da8d49f	0.08243679
11	0xbda2ae97	-0.079434566
12	0xbc200229	-0.00976614
13	0xbd2bb8ec	-0.041924402
14	0x3c9ae6eb	0.018908938
15	0xbdf5937c	-0.11991021
16	0x3e00b175	0.12567694
17	0xbdc7a4da	-0.0974824
18	0xbd2da4aa	-0.042393364
19	0x3d68e254	0.05685647
20	0xbc92d3d5	-0.017923275
21	0xbdb4cea0	-0.08828473
22	0xbcb4533a	-0.022012342
23	0xbd9420b9	-0.07232804
24	0xbd18f300	-0.037341118
25	0x3dd3f9fc	0.10350415
26	0xbc8a5c82	-0.016889814
27	0xbcad83aa	-0.021180946
28	0x3ddb4146	0.10705809
29	0xbdf3a42f	-0.1189655
30	0x3e104c0d	0.14091511
31	0xbdbac349	-0.09119279
