Policy Gradient/walker_ppo_model_13700.pth (torch, 34323 bytes, 11 tensors)

actor.0.weight f4 [64, 24]
0	0xbdf70b39	-0.120626874
1	0x3ec9f862	0.39447314
2	0xbd606427	-0.054783013
3	0x3f476cd6	0.77900445
4	0xbe21091c	-0.15726131
5	0xbd667ec0	-0.056273222
6	0x3f3db11d	0.7409838
7	0xbe2df688	-0.16988575
8	0xbe46ea4b	-0.19425313
9	0xbde944e9	-0.11390097
10	0xbc0277b3	-0.007963109
11	0xbe6ec0ea	-0.23315778
12	0x3db4a1e6	0.08819942
13	0x3d65b89f	0.05608427
14	0x3e82e7cc	0.25567472
15	0x3e580a8a	0.2109777
16	0x3d8ecf0b	0.06973084
17	0xbb4c4b3f	-0.003117278
18	0x3e5f1008	0.21783459
19	0xbde62fb5	-0.11239568
20	0x3db1c375	0.086798586
21	0x3e43ee2a	0.19133821
22	0x3e25c24e	0.16187403
23	0x3d51fcb0	0.051266372
24	0xbad749a4	-0.0016425145
25	0x3d1e8174	0.038697675
26	0x3e58837a	0.21143904
27	0x3df344da	0.11878367
28	0x3e8088c9	0.2510436
29	0x3e56797b	0.20944779
30	0x3f466cd5	0.77509815
31	0xbe1a4bb3	-0.1506794
32	0xbe2fb5fc	-0.17159265
33	0xbd8c0be0	-0.068382025
34	0x3dd85469	0.10562975
35	0x3d9882d2	0.07446827
36	0xbc8df366	-0.017327975
37	0x3d484f06	0.048903488
38	0x3e0c4add	0.13700433
39	0x3dc65dd5	0.09685866
40	0xbce4b8d3	-0.027920162
41	0x3df3a65a	0.118969634
42	0xbdc00cb7	-0.09377425
43	0x3d6a76e8	0.057242304
44	0x3d333d56	0.043759666
45	0xbd3b8da1	-0.045789365
46	0x3bad1f32	0.00528326
47	0x3dfb9242	0.12283756
48	0xbd730422	-0.059330113
49	0xbf0126d4	-0.5044987
50	0x3a853727	0.0010163531
51	0xbf0a913d	-0.54127866
52	0xbe204e29	-0.15654816
53	0x3dceb184	0.10092452
54	0x3f03333d	0.5125006
55	0x3d7338ec	0.059380457
56	0xbe5ae12b	-0.21374957
57	0x3e0e0ed4	0.13872844
58	0xbe366287	-0.17811023
59	0x3ead553e	0.33854097
60	0xbe01bf79	-0.12670697
61	0x3e3e28cc	0.1857025
62	0xbe7b0b61	-0.2451606
63	0xbe6eace7	-0.23308145
64	0xbe60bad2	-0.21946266
65	0x3cb272f9	0.021783339
66	0xbe734093	-0.23755102
67	0x3dccefb9	0.10006661
68	0xbd670aba	-0.056406714
69	0xbe1f346f	-0.15547346
70	0xbe44907a	-0.19195738
71	0xbd3a3205	-0.04545786
72	0xbe7e25d0	-0.24819112
73	0xbe5eed9d	-0.2177033
74	0xbe10a8b2	-0.14126852
75	0xbe866540	-0.26249123
76	0xbecf8e04	-0.40538037
77	0xbe2ed9be	-0.1707525
78	0x3c10eb01	0.008845092
79	0xbe1eb201	-0.1549759
80	0xbdaa9357	-0.08328884
81	0x3e17bd5f	0.14818333
82	0x3d846f24	0.06466511
83	0xbd737ea1	-0.059446935
84	0x3db49d42	0.08819057
85	0x3cbcd316	0.023049872
86	0xbe2c3110	-0.16815591
87	0xbe817e09	-0.2529147
88	0xbe2d28aa	-0.16910043
89	0x3d8d5c51	0.069023736
90	0xbd8fe264	-0.070256025
91	0x3d5a22c4	0.05325581
92	0x3cb51c38	0.022108182
93	0xbe2e36f1	-0.17013146
94	0x3e0e78dd	0.13913293
95	0x3d736ec6	0.059431814
96	0xbe1c5190	-0.15265489
97	0xbe9340e4	-0.28760445
98	0xbe674a77	-0.22587
99	0xbeebe5bf	-0.4607372
100	0x3df46818	0.11933917
101	0xbcb07ed3	-0.02154485
102	0xbed5ae44	-0.41734517
103	0xbd2e77a7	-0.042594578
104	0xbd976409	-0.07392127
105	0xbbd51a09	-0.006503348
106	0x3d1faa64	0.038980857
107	0x3ef5e18d	0.48023644
108	0x3e2379f9	0.15964498
109	0x3e53f72e	0.2069976
110	0x3dabdefe	0.08392142
111	0x3da137aa	0.07871945
112	0xbe583457	-0.21113716
113	0xbca10b49	-0.019658701
114	0xbdbcb432	-0.09214057
115	0xbd3c2837	-0.04593679
116	0x3d22c3b0	0.039737403
117	0xbe0db66a	-0.13839117
118	0xbe22e01b	-0.15905802
119	0x3da9c70f	0.082899205
120	0x3e082484	0.1329518
121	0xbe872cc7	-0.2640135
122	0x3d899cbb	0.06719347
123	0xbe97df4d	-0.29662552
124	0x3da9317a	0.0826139
125	0x3d14e7f1	0.03635401
126	0x3ef557fd	0.47918692
127	0xbd81faef	-0.0634669
128	0x3e09b523	0.13448004
129	0xbdca4e00	-0.098781586
130	0xbbbd56d5	-0.0057781735
131	0x3dcdcf5a	0.10049315
132	0xbe0364d8	-0.12831438
133	0x3e3fe450	0.18739438
134	0xbd69be69	-0.057066355
135	0xbe22cf55	-0.15899403
136	0xbcd2ba9d	-0.02572375
137	0x3e055286	0.13019761
138	0xbe12924f	-0.14313625
139	0xbe2d2c5d	-0.16911454
140	0xbd7c3a84	-0.061579242
141	0x3d177c27	0.036983635
142	0xbe042833	-0.1290596
143	0xbc9f5b9d	-0.019452864
144	0xbdad753b	-0.084696256
145	0xbea6a717	-0.32549354
146	0x3d82259e	0.06354831
147	0xbf0718f1	-0.5277243
148	0xbe822489	-0.254185
149	0x3e41106e	0.18853924
150	0x3e98eb46	0.29867
151	0x3ca19366	0.019723605
152	0x3d6b411c	0.05743514
153	0x3e17813a	0.1479539
154	0x3dc15cf9	0.09441561
155	0x3e8d8647	0.27641508
156	0x3e0c8d30	0.13725734
157	0x3dbab43e	0.0911641
158	0xbcd5225c	-0.02601736
159	0x3cb7b08a	0.022423048
160	0x3da238b6	0.07920973
161	0x3d785a5d	0.060633052
162	0xbe3f59ac	-0.18686551
163	0x3d64acfa	0.055829026
164	0xbdf3570e	-0.11881839
165	0xbd871957	-0.0659663
166	0xbe3d9c64	-0.1851669
167	0xbd81989b	-0.06327935
168	0xbd70d7ac	-0.05879943
169	0x3e877f92	0.26464516
170	0x3e377d60	0.1791892
171	0x3f270bd5	0.6525243
172	0x3e720786	0.23635682
173	0x3c6685dc	0.0140700005
174	0x3ef078fe	0.4696731
175	0xbc763940	-0.015028298
176	0x3beecbec	0.007287493
177	0xbce87052	-0.028373871
178	0xbe086aae	-0.13321945
179	0xbeb17031	-0.34655908
180	0xbdcd6514	-0.10029045
181	0x3ce9d07c	0.028541796
182	0x3e60aa9d	0.21940084
183	0x3df7a082	0.12091161
184	0x3e04112f	0.1289718
185	0x3d15434b	0.03644113
186	0x3d853db4	0.065059096
187	0xbd316b39	-0.043315146
188	0x3e069458	0.13142526
189	0x3e13a25d	0.14417405
190	0x3db45d92	0.088069096
191	0xbe5f1890	-0.21786714
192	0xbcf14122	-0.029450003
193	0xbe91bd7f	-0.28464887
194	0xbe8c17c2	-0.27361876
195	0xbebcb2ce	-0.36855167
196	0x3e908a61	0.28230575
197	0xbd7c7326	-0.06163325
198	0xbf206a19	-0.6266189
199	0x3d6a434e	0.057193093
200	0x3e75a8da	0.23990193
201	0xbd4d0316	-0.05005177
202	0x3d06eeb7	0.0329425
203	0x3e46a8a4	0.19400269
204	0xbdba41b1	-0.09094561
205	0xbe32b107	-0.17450343
206	0x3dfd466f	0.1236695
207	0xbca6808d	-0.02032497
208	0xbd76f1a1	-0.06028903
209	0xbde194b1	-0.11014689
210	0xbbffd69b	-0.0078075654
211	0x3dea17e6	0.114303395
212	0x3ddf09c6	0.10890536
213	0xbdb168a6	-0.08662538
214	0xbe1b05e5	-0.15138967
215	0x3e1bdb7e	0.15220448
216	0xbe087dd9	-0.13329257
217	0xbd123679	-0.03569648
218	0xbe6d8de9	-0.23198666
219	0xbf105745	-0.5638316
220	0xbe4d93b1	-0.20075871
221	0xbd93ce77	-0.072171144
222	0xbf3e4b0a	-0.7433325
223	0xbd8186c5	-0.063245334
224	0x3da2f25c	0.07956383
225	0x3e372bb2	0.17887762
226	0x3e0f6fd2	0.140075
227	0xbe4c9679	-0.19979276
228	0x3d997955	0.074938454
229	0x3dcdc445	0.10047201
230	0xbd493616	-0.049123846
231	0xbe2ceab9	-0.16886415
232	0x3db04160	0.08606219
233	0xbe34b7c3	-0.17648225
234	0xbd33dcaf	-0.043911632
235	0xbe91f7dc	-0.28509414
236	0xbd9da04a	-0.07696588
237	0xbe092feb	-0.13397186
238	0x3d3eed84	0.04661323
239	0x3df07ceb	0.11742576
240	0xbc2579cb	-0.0100998385
241	0x3efcc4cf	0.49368903
242	0x3df5d1c5	0.12002901
243	0x3ed8003a	0.42187673
244	0x3e3a1911	0.18173625
245	0xbd4f0e6b	-0.05055086
246	0x3e248b2f	0.1606872
247	0x3bf817e0	0.0075712055
248	0xbc8cf2d6	-0.017205637
249	0xbd91cc2e	-0.07119022
250	0x3e2a15f9	0.16609944
251	0xbec894fb	-0.39176163
252	0x3e0cc116	0.13745531
253	0xbd8839af	-0.06651627
254	0xbcc8c030	-0.024505705
255	0x3da9ce3c	0.08291289

actor.0.bias f4 [64]
0	0xbe1c38e2	-0.15256074
1	0xbe21bdd8	-0.15795076
2	0x3e817673	0.25285682
3	0x3bd95b25	0.0066331797
4	0x3e8e2d19	0.27768782
5	0xbdfe9f51	-0.12432731
6	0xbe0e9799	-0.13925017
7	0xbda6dfb0	-0.08148134
8	0xbe506144	-0.20349604
9	0x3e20f593	0.15718679
10	0xbe111957	-0.14169823
11	0xbb7785d9	-0.0037768988
12	0xbdcd7887	-0.100327544
13	0xbbd3a5b2	-0.0064589614
14	0xbd4ece56	-0.050489746
15	0xbc9a34e8	-0.018824056
16	0xbd68d24f	-0.05684119
17	0xbe075a3f	-0.1321802
18	0x3e281b19	0.16416587
19	0x3e00612c	0.12537068
20	0xbd8a82b6	-0.067632124
21	0x3dfbcc8d	0.12294874
22	0x3e735998	0.23764646
23	0xbd84378e	-0.06455909
24	0xbe4d6f33	-0.2006195
25	0x3debf0ed	0.11520562
26	0xbd6be308	-0.05758956
27	0xbe514b9f	-0.20439003
28	0xbe170ed0	-0.14751744
29	0xbe78244d	-0.24232598
30	0x3e20c7eb	0.15701263
31	0xbdf4bfe3	-0.11950662
32	0xbe210e47	-0.15728103
33	0x3e1e13ea	0.15437284
34	0xbe4a21dd	-0.1973948
35	0xbe363785	-0.17794617
36	0xbdc0c8ff	-0.09413337
37	0x3acebfab	0.0015773674
38	0x3dbf345e	0.0933616
39	0x3e2cd50d	0.16878147
40	0x3e3bc2e2	0.1833606
41	0x3e14c91a	0.14529839
42	0x3e0c7206	0.13715371
43	0x3d3c0198	0.045899957
44	0x3e1dc8bd	0.15408607
45	0xbca1e0d8	-0.019760534
46	0x3da640a4	0.08117798
47	0xbd1abc5f	-0.0377773
48	0x3d2dd510	0.04243952
49	0xbd5bb985	-0.053643722
50	0xbe497b13	-0.19675855
51	0x3dae0bd2	0.08498348
52	0x3d516f12	0.051131316
53	0x3d84e905	0.064897574
54	0xbdee9e48	-0.116512835
55	0x3e0f4281	0.13990213
56	0x3deb3dca	0.11486395
57	0x3e3aa1a2	0.1822572
58	0xbdbb98ba	-0.0915999
59	0x3bb5bab5	0.005545939
60	0x3ddaaeb4	0.10677853
61	0x3c849b82	0.016187433
62	0xbd0534ef	-0.032521185
63	0x3e303ee5	0.17211492

actor.2.weight f4 [32, 64]
0	0x3dab509b	0.08364984
1	0x3ddc5f80	0.10760403
2	0x3c9d67e5	0.01921458
3	0xbe84e599	-0.2595642
4	0x391ba345	0.00014842775
5	0x3e1c8212	0.15283993
6	0x3e43bbfd	0.1911468
7	0x3d60f480	0.054920673
8	0x3e455ce2	0.19273713
9	0xbe8a6a54	-0.27034247
10	0x3e5ebf7d	0.21752734
11	0x3e47f03c	0.19525236
12	0x3cada5bd	0.021197194
13	0x3d3b0bef	0.045665678
14	0x3ddb0fd0	0.10696375
15	0xbdd1c6a3	-0.10242965
16	0x3d05ef8f	0.032699164
17	0x3e9e7695	0.30949846
18	0x3e100a2e	0.14066383
19	0xbdd84949	-0.10560853
20	0x3e9c557f	0.30533978
21	0xbeb676ff	-0.35637662
22	0xbf01e1e3	-0.507353
23	0x3c8f1735	0.01746712
24	0x3dce68f5	0.10078613
25	0x3dc5cb00	0.0965786
26	0x3e47a3b1	0.19496037
27	0x3b8a0e12	0.004213103
28	0x3df34ce5	0.11879901
29	0x3e41ab62	0.18913034
30	0xbb2f3be4	-0.0026738578
31	0x3d0bf75e	0.034171455
32	0x3dcae263	0.09906461
33	0x3d420822	0.047371037
34	0x3d6aa243	0.05728365
35	0x3e032db6	0.12810406
36	0x3d0064a6	0.031345986
37	0xbdfa3a7f	-0.122181885
38	0xbd1e40ba	-0.038635947
39	0xbe6be09d	-0.23034902
40	0xbe286ad0	-0.16446996
41	0xbdd0820f	-0.10181057
42	0xbdd53314	-0.10410133
43	0xbe4617b5	-0.19344981
44	0x3d010c30	0.031505764
45	0x3e5ad75c	0.21371216
46	0xbd316ac3	-0.043314707
47	0xbe49be39	-0.1970147
48	0x3d64399b	0.055719
49	0x3d42ee0c	0.0475903
50	0x3e7f7eb0	0.24950671
51	0xbe9626f1	-0.29326585
52	0x3c87358e	0.016505029
53	0xbdadd17d	-0.08487222
54	0xbe34bb54	-0.17649585
55	0xbd61c6d1	-0.055121247
56	0xbcc49740	-0.023997903
57	0xbdca3ce0	-0.09874892
58	0xbb892157	-0.0041848826
59	0x3d2f751e	0.0428363
60	0xbe7af42d	-0.24507208
61	0xbe2c8b0f	-0.16849922
62	0xbcc34a7e	-0.023839232
63	0xbe336be6	-0.17521629
64	0xbf12ac4d	-0.5729416
65	0xbe52c29e	-0.20582053
66	0xbb6db7ee	-0.003627296
67	0xbd8d725f	-0.0690658
68	0x3ea1f16d	0.31629506
69	0x39dcba41	0.0004210044
70	0xbd828888	-0.063736975
71	0xbed9f3e8	-0.42568898
72	0x3e952269	0.29127815
73	0x3e57e93d	0.21085067
74	0xbe2341e7	-0.15943108
75	0x3df6ec11	0.12056745
76	0xbdd4e43d	-0.103950955
77	0x3ef10a3b	0.47078118
78	0xbeb7eee4	-0.35924447
79	0xbe118153	-0.1420949
80	0xbe1d8104	-0.15381247
81	0x3d547063	0.051864993
82	0xbe1a9c74	-0.15098745
83	0xbe9badc5	-0.30406013
84	0xbe7933fe	-0.2433624
85	0xbe8bb532	-0.2728668
86	0x3b713f4e	0.0036811414
87	0xbe67de1f	-0.22643326
88	0xbc522be8	-0.012827851
89	0xbb8e9afb	-0.004351971
90	0x3ce5beed	0.028045142
91	0xbb00e634	-0.0019668462
92	0xbe80385c	-0.25043
93	0xbc1b5551	-0.00948079
94	0xbce81402	-0.028329853
95	0xbc148b87	-0.009066469
96	0xbdf97ee1	-0.12182403
97	0x3dc6dfbf	0.09710645
98	0xbe567234	-0.20942003
99	0xbd57a673	-0.052648973
100	0xbdef3220	-0.116794825
101	0xbca061d8	-0.019577906
102	0xbe49fe43	-0.197259
103	0x3ebc5b74	0.36788523
104	0x3e217977	0.15768991
105	0x3d05f8b8	0.0327079
106	0x3e354c1d	0.17704816
107	0x3d15e847	0.03659847
108	0xbdc5d1f8	-0.09659189
109	0xbe4cb183	-0.1998959
110	0x3e4feada	0.20304433
111	0xbbc6d03e	-0.006067305
112	0xbe3aef86	-0.18255433
113	0x3c8e3ae8	0.017362073
114	0xbe22d8b5	-0.1590298
115	0x3db11802	0.08647157
116	0x3d4e5c26	0.05038085
117	0x3df69010	0.120391965
118	0xbef7a1be	-0.48365587
119	0x3de5cd16	0.11220758
120	0x3e2b1fc6	0.1671134
121	0x3d0a98dc	0.033837184
122	0xbd46dcd8	-0.048550457
123	0x3d9e3afe	0.077260956
124	0xbc97f6ea	-0.018550355
125	0x3ac85234	0.0015283288
126	0xbd556b0b	-0.052104037
127	0x3ed2dad9	0.41182593
128	0xbdac084b	-0.08400019
129	0xbd312c93	-0.0432554
130	0x3e1c5fdb	0.15270941
131	0x3e6ee426	0.23329219
132	0x3d32c60a	0.043645896
133	0xbd59e54d	-0.053197194
134	0x3dc26910	0.09492695
135	0xbe83d9b0	-0.2575202
136	0xbd80efa9	-0.062957115
137	0x3de7dd34	0.11321488
138	0xbd9f0049	-0.07763726
139	0xbe89d473	-0.26919898
140	0xbe2c1c16	-0.16807589
141	0xbd854eec	-0.06509194
142	0xbd7f7de2	-0.06237591
143	0xbde0765d	-0.10960076
144	0xbe3cdb17	-0.18442951
145	0xbdeaa270	-0.11456764
146	0x3989148f	0.00026145994
147	0x3e71cf3e	0.23614213
148	0xbe2b8ad9	-0.16752185
149	0x3e8bf7ef	0.27337596
150	0x3ea349cf	0.3189225
151	0x3d206e9f	0.039167996
152	0x3be47926	0.00697245
153	0xbcfd35b8	-0.030909404
154	0xbd885401	-0.066566475
155	0xbdf96d0a	-0.12179001
156	0xbd0584f3	-0.032597493
157	0xbde0bbd7	-0.109733276
158	0x3c7983fe	0.015229223
159	0xbe5f83c0	-0.21827602
160	0x3d4b51ed	0.049638677
161	0x3de2cc76	0.11074154
162	0x3de6c931	0.11268843
163	0xbe3a041f	-0.18165635
164	0xbb639b49	-0.0034730008
165	0x3d91ecb3	0.07125225
166	0xbc6cff29	-0.014465132
167	0x3e63b189	0.22235693
168	0x3e056c93	0.13029699
169	0x3e9f91e4	0.31165993
170	0x3d4c553c	0.049885973
171	0xbe067f63	-0.13134532
172	0x3e08c621	0.1335683
173	0xbeddd15d	-0.43323794
174	0xbd3f7688	-0.0467439
175	0x3ea14629	0.3149884
176	0x3ac6c00c	0.0015163436
177	0xbd075bb8	-0.033046454
178	0xbe1416be	-0.144618
179	0x3d1d3c96	0.038387857
180	0xbe219325	-0.15778787
181	0x3e32ad08	0.17448819
182	0x3e49f0fe	0.19720837
183	0x3dbab21f	0.09116005
184	0xbd7c92b1	-0.061663333
185	0xbc23ab2b	-0.00998954
186	0x3da6308d	0.08114729
187	0x3bf917f7	0.007601734
188	0x3e20003c	0.1562509
189	0x3c549085	0.012973909
190	0x3d6cea07	0.057840373
191	0x3e5e0775	0.21682532
192	0x3d97e3bc	0.07416484
193	0x3ea2ee96	0.31822652
194	0x3ed894a2	0.42300898
195	0x3dd21d22	0.10259463
196	0xbe5b43bb	-0.21412556
197	0x3e23a2b7	0.1598004
198	0x3e5fb24d	0.2184536
199	0x3c665f34	0.014060784
200	0xbe7867e7	-0.24258386
201	0xbe820424	-0.25393784
202	0xbe0c83e7	-0.13722192
203	0xbe226e8b	-0.15862481
204	0xbd003bd2	-0.03130705
205	0xbe880a22	-0.2657023
206	0x3e4f92f5	0.20270903
207	0x3e2eaac0	0.17057323
208	0xbc83d76f	-0.016093938
209	0xbea0d407	-0.31411764
210	0x3dbb7fcb	0.09155234
211	0x3f00130e	0.50029075
212	0x3ba8d8dc	0.005152805
213	0x3e2bf778	0.1679362
214	0x3d81c99d	0.06337283
215	0xbcf5ef0e	-0.030021217
216	0x3e294fba	0.1653432
217	0x3ce078f3	0.027401423
218	0x3d5372ea	0.051623262
219	0xbcbcaacb	-0.02303066
220	0x3e4e855f	0.20168065
221	0x3dae450d	0.08509264
222	0xbea04196	-0.31300038
223	0xbf1a7865	-0.6033996
224	0xbdcf5072	-0.101227656
225	0x3e9c3564	0.30509484
226	0x3e4fd507	0.20296107
227	0xbdd8ecd4	-0.105920464
228	0x3d6822bd	0.056673754
229	0xbdbd691d	-0.092485644
230	0x3e8ca9ea	0.27473384
231	0xbe7ba8b2	-0.24576071
232	0x3e334006	0.17504892
233	0x3d7e87d2	0.062141247
234	0xbda2d974	-0.07951632
235	0xbdbca262	-0.092106596
236	0x3e9a4042	0.3012715
237	0xbc405ae7	-0.011740423
238	0x3e30c914	0.17264205
239	0x3e4ab2bf	0.19794749
240	0x3ec35efc	0.38158405
241	0x3d91e533	0.071237944
242	0xbed552fc	-0.41664875
243	0x3e12f2ef	0.14350484
244	0xbe890393	-0.2676054
245	0xbda104f8	-0.07862276
246	0xbc8a2754	-0.016864456
247	0xbe676b78	-0.2259959
248	0xbce53e97	-0.027983947
249	0x3e291eab	0.16515605
250	0x3e133cb6	0.14378628
251	0x3d2f0752	0.04273159
252	0x3e859bf5	0.26095548
253	0x3d358929	0.04432026
254	0xbdf1c509	-0.118051596
255	0x3dc0bc4e	0.09410916

actor.2.bias f4 [32]
0	0xbd8845da	-0.06653948
1	0x3e08a47c	0.13343996
2	0x3da0a18a	0.07843311
3	0x3bd36cfb	0.0064522005
4	0xbcf65bee	-0.030073132
5	0xbdf21d57	-0.118220024
6	0xbdcc40da	-0.09973307
7	0xbcbe4642	-0.02322686
8	0xbcd0d25c	-0.025490932
9	0x3d844cb4	0.064599425
10	0xbdf019d2	-0.11723675
11	0xbd1a9c51	-0.03774673
12	0xbe0549cf	-0.13016437
13	0x3dd2049c	0.102547854
14	0xbc55729d	-0.013027814
15	0x3c953bc6	0.018216979
16	0x3e1165ef	0.14199041
17	0xbd7619dc	-0.060083255
18	0x3d687747	0.056754377
19	0x3d14890b	0.036263507
20	0x3d3fee33	0.046858024
21	0x3d21a6ea	0.039465822
22	0xbd412605	-0.0471554
23	0x3e234ecd	0.15948029
24	0xbe3c7dd7	-0.18407379
25	0x3dae11ed	0.08499513
26	0x3cc0f3be	0.023553725
27	0xbdb4c19f	-0.08825993
28	0xbd0abc4e	-0.033870988
29	0xbd21a5f9	-0.039464924
30	0x3e1f8a20	0.15580034
31	0xbe0218b2	-0.12704733

actor.4.weight f4 [4, 32]
0	0xbeb70e45	-0.35753074
1	0xbd5458f8	-0.05184266
2	0x3f007a73	0.5018684
3	0x3e26982d	0.16268988
4	0xbe7d8824	-0.24758965
5	0xbf016505	-0.5054477
6	0xbdef00ab	-0.11670049
7	0x3d6d8485	0.05798771
8	0x3e237e0c	0.15966052
9	0xbed9c2b3	-0.42531356
10	0xbe446409	-0.19178785
11	0x3d5683b5	0.0523717
12	0xbf813420	-1.0094032
13	0x3e0eefcc	0.13958663
14	0x3eef205b	0.46704373
15	0x3e4d9ac2	0.20078567
16	0x3d738b5a	0.059459068
17	0x3dbc542e	0.091957435
18	0x3e8dc877	0.27692005
19	0x3f35a783	0.7095873
20	0x3dd7a95b	0.10530349
21	0x3ed3617e	0.41285318
22	0x3e1300e6	0.14355811
23	0x3f4bbe6a	0.79587424
24	0xbe661099	-0.22467269
25	0xbe225ad6	-0.15854964
26	0x3c7821bc	0.015144762
27	0x3e17f25a	0.14838544
28	0xbe242972	-0.16031435
29	0xbeb951f3	-0.36195335
30	0x3df8816b	0.121340595
31	0xbe5d2ebf	-0.21599863
32	0xbe3fc5b0	-0.18727756
33	0x3f3b7c08	0.7323613
34	0x3ec5a4d3	0.38602313
35	0xbea53d7d	-0.32273474
36	0xbe7513b2	-0.23933294
37	0x3d852358	0.06500882
38	0xbed24904	-0.41071332
39	0xbec70bd2	-0.38876206
40	0xbee7a0cf	-0.45239875
41	0x3b0dfddb	0.0021666202
42	0x3f362d7d	0.7116316
43	0x3f8e2763	1.110577
44	0x3d2b7d7a	0.04186771
45	0x3ea2f4c5	0.3182737
46	0x3e35e4b7	0.17763029
47	0xbf3454fc	-0.70442176
48	0x3ed3ab94	0.4134184
49	0xbc7b9f85	-0.015357857
50	0x3f30e8fe	0.6910552
51	0x3dc0b519	0.09409542
52	0xbe860546	-0.26175898
53	0x3e95b9e0	0.29243374
54	0x3f007a52	0.50186646
55	0x3c2eb5e1	0.0106634805
56	0xbe4ea19c	-0.20178837
57	0x3e18acf9	0.14909734
58	0x3d241ccf	0.040066537
59	0xbf0dba8b	-0.55362767
60	0x3f0c0a19	0.5470291
61	0xbe94fce6	-0.29099196
62	0xbeec7b47	-0.46187803
63	0xbefc1ed9	-0.49242285
64	0x3a75764a	0.0009363635
65	0x3d07a7b5	0.033118922
66	0xbe3d82d3	-0.18506937
67	0xbecb0187	-0.39649603
68	0xbdea918d	-0.11453543
69	0x3de2b95f	0.11070513
70	0xbe9afe45	-0.30272117
71	0xbec4a661	-0.38408187
72	0xbe931a0f	-0.2873082
73	0x3d859508	0.06522566
74	0xbe48e9f0	-0.1962049
75	0x3e429fec	0.19006318
76	0x3e2c2460	0.16810751
77	0x3e618389	0.22022833
78	0x3b9dfe4d	0.004821575
79	0x3d395ec7	0.045256402
80	0x3e6fe44b	0.2342693
81	0xbeb86dce	-0.36021274
82	0xbde17c94	-0.110100895
83	0xbe6b07bb	-0.22952168
84	0x3d25a11c	0.04043685
85	0x3d7af17b	0.06126545
86	0xbe9b40f3	-0.3032299
87	0xbd9baf63	-0.07601812
88	0xbd93b8c8	-0.072129786
89	0x3dd42086	0.10357766
90	0x3d68d435	0.056843
91	0xbe9ce804	-0.30645764
92	0xbd32621c	-0.043550596
93	0x3df0eff9	0.11764521
94	0x3ec6848e	0.38773006
95	0xbc4d882a	-0.012544671
96	0xbd873b8c	-0.066031545
97	0xbe301ef7	-0.17199312
98	0xba2e1c54	-0.00066417945
99	0xbe363b27	-0.17796002
100	0xbf00c37a	-0.50298274
101	0x3e74b107	0.23895656
102	0xbea4e939	-0.32209185
103	0xbe069744	-0.13143641
104	0xbe1a3535	-0.1505936
105	0x3ed0f1f5	0.408096
106	0x3c85cbf7	0.01633261
107	0x3e58d463	0.21174769
108	0xbd207192	-0.03917081
109	0xbe44ffd9	-0.19238223
110	0xbecc28d4	-0.398749
111	0x3dce8df0	0.10085666
112	0xbe922f88	-0.28551888
113	0xbf425c6b	-0.7592227
114	0x3e3f5249	0.18683733
115	0x3a7be948	0.0009609652
116	0xbed7327e	-0.4203071
117	0xbec29a9a	-0.38008577
118	0xbe916798	-0.28399348
119	0x3dc3d638	0.09562343
120	0x3ebaa36e	0.36452812
121	0xbf10745c	-0.5642755
122	0xbf2d5eee	-0.67722976
123	0x3a9c9882	0.0011947306
124	0x3e979fbf	0.29614064
125	0xbea0da37	-0.31416485
126	0x3eb84882	0.3599282
127	0xbe6690c6	-0.22516164

actor.4.bias f4 [4]
0	0x3e2a27be	0.16616723
1	0xbdc17f4b	-0.09448107
2	0x3e6d9416	0.23201022
3	0xbe334517	-0.17506824

critic.0.weight f4 [64, 24]
0	0x3e5365ae	0.20644256
1	0x3e0e3089	0.13885702
2	0x3e259482	0.16169932
3	0xbdf7c446	-0.12097983
4	0xbd850135	-0.06494371
5	0xbdad476d	-0.08460889
6	0x3da38d9f	0.079859965
7	0x3de20625	0.11036328
8	0x3e3383f9	0.17530812
9	0xbdf8e8fa	-0.12153812
10	0x3d8ca51a	0.06867428
11	0xbd27cedc	-0.04096876
12	0xbb093ad5	-0.0020939608
13	0x3e4e93d2	0.20173576
14	0xbe149a93	-0.1451209
15	0xbda67a9e	-0.08128856
16	0x3d301645	0.042989988
17	0x3dc43b99	0.0958168
18	0xbd4ef46b	-0.050526064
19	0xbd1e561b	-0.038656335
20	0xbd89a9fe	-0.067218766
21	0xbc0597af	-0.00815384
22	0xbe255abb	-0.16147892
23	0xbd9687b2	-0.073501006
24	0x3ca307f0	0.019901246
25	0x3e17579f	0.14779519
26	0x3e17c5ef	0.148216
27	0x3d133596	0.035939775
28	0xbda2f5f5	-0.07957069
29	0x3e1b517e	0.15167806
30	0xbe38a660	-0.18032217
31	0x3d88a05d	0.06671212
32	0x3d33416d	0.043763567
33	0xbcc2053f	-0.023684142
34	0x3e3b98c9	0.18320002
35	0x3dee376e	0.11631666
36	0x3e445a4c	0.1917507
37	0xbdf7045c	-0.12061378
38	0xbd90c48e	-0.0706874
39	0xbe10b115	-0.14130051
40	0x3dea4f88	0.11440951
41	0xbe1d08be	-0.15335366
42	0x3d8a590c	0.067552656
43	0x3e02d77a	0.1277751
44	0x3d56ad2e	0.05241125
45	0x3d14c8f8	0.03632447
46	0xbd8bda96	-0.06828801
47	0xbd218be1	-0.03944004
48	0xbdb1ad42	-0.086756244
49	0x3d7764c8	0.060398847
50	0x3db8de30	0.09026754
51	0xbd820755	-0.06349055
52	0xbe16f8a1	-0.14743282
53	0xbdb4ade4	-0.088222295
54	0xbdcece3d	-0.100979306
55	0xbd9a63d1	-0.0753857
56	0x3e1fd896	0.15609965
57	0x3e0ac24e	0.13550684
58	0x3e1954bc	0.1497373
59	0xba8d374b	-0.0010773925
60	0xbd900934	-0.07033005
61	0x3e205da0	0.15660715
62	0xbe58a94b	-0.2115833
63	0x3b9d6b1a	0.0048040273
64	0xbe1ed79b	-0.15511934
65	0xbdf37496	-0.118874714
66	0x3dc8619d	0.09784243
67	0xbe3ae4f2	-0.18251398
68	0xbdefc056	-0.11706607
69	0xbe260d76	-0.16216072
70	0x3e42a8e7	0.19009744
71	0xbd8caddf	-0.06869101
72	0x3e23a81d	0.15982099
73	0xbdcbfd3a	-0.099604085
74	0x3e0d2b89	0.13786139
75	0xbd92d4bf	-0.07169484
76	0x3d38af37	0.045088973
77	0x3dca7cdf	0.098870985
78	0x3defc431	0.117073424
79	0xbde2e66b	-0.11079105
80	0x3e15f79c	0.14645237
81	0x3e0e2c2a	0.13884035
82	0x3d793260	0.060839057
83	0x3d9a8d66	0.07546501
84	0xbd87a9b7	-0.066241674
85	0x3dabdc17	0.08391588
86	0x3dedc555	0.11609904
87	0x3df6d8eb	0.120530926
88	0x3cca9155	0.024727503
89	0xbe2c9fa7	-0.16857778
90	0x3e342d51	0.17595412
91	0xbe308e49	-0.17241777
92	0xbe2358f0	-0.15951896
93	0x3c59b78f	0.013288393
94	0x3d149290	0.036272585
95	0x3e10a0e9	0.14123882
96	0xbe0b373b	-0.13595288
97	0xbc06aba9	-0.008219638
98	0xbddcc412	-0.10779585
99	0xbe5c57d1	-0.21517874
100	0x3e072d52	0.13200882
101	0xbc9f9114	-0.019478358
102	0x3df8721a	0.12131138
103	0xbd15aa8b	-0.036539596
104	0x3dea9746	0.11454634
105	0xbe125d08	-0.14293301
106	0x3d3cef9d	0.04612695
107	0xbda7c6dd	-0.08192227
108	0x3b6f4146	0.0036507412
109	0xbd4d4f55	-0.050124485
110	0xbe4ebab7	-0.20188414
111	0xbdc1a6ca	-0.094556406
112	0x3e0478fa	0.12936774
113	0xbe24ec24	-0.16105705
114	0x3e2e1c34	0.17002946
115	0x3dab9a42	0.08379032
116	0x3db52c53	0.08846345
117	0x3e072378	0.13197124
118	0xbe3c96ed	-0.18416949
119	0xbbd3e289	-0.006466214
120	0xbccddb46	-0.025128972
121	0x3d2bfa3a	0.04198668
122	0xbe2fa018	-0.17150915
123	0xbcf31ae5	-0.02967591
124	0x3d9d0c92	0.07668413
125	0xbde2ce4f	-0.110745065
126	0xbc34f4fe	-0.011044739
127	0xbda5f161	-0.0810268
128	0x3d9c5622	0.07633616
129	0x3d6ee4a0	0.058323503
130	0x3d99c928	0.07509071
131	0xbd49a367	-0.0492281
132	0xbbcf3dba	-0.006324497
133	0x3e066815	0.13125642
134	0xbc7d007b	-0.015442009
135	0x3d74b8cd	0.059746552
136	0x3da284c0	0.07935476
137	0x3da1519f	0.07876896
138	0xbe4e0e6d	-0.2012269
139	0xbe00a05a	-0.1256117
140	0xbcf03dc4	-0.029326327
141	0xbd0c4843	-0.0342486
142	0x3e324d84	0.17412382
143	0x3c26cf42	0.01018125
144	0xbd6697fb	-0.056297284
145	0xbe0e29bb	-0.13883106
146	0xbdd15546	-0.10221343
147	0x3dda0c8a	0.10646923
148	0x3e070e34	0.13189012
149	0x3dfa881e	0.122329935
150	0xbcee1f3b	-0.029067626
151	0xbab612ca	-0.0013891098
152	0x3e023d21	0.12718631
153	0xbd18a253	-0.03726418
154	0x3db91d5f	0.09038805
155	0x3cbdd93f	0.02317488
156	0x3d823fe1	0.0635984
157	0xbe36a9f7	-0.17838274
158	0xbdb84633	-0.089977644
159	0xbe396cbe	-0.18107888
160	0x3e1ad4c8	0.15120232
161	0x3ddf817c	0.10913369
162	0xbd96340f	-0.07334148
163	0xbe1a716c	-0.1508233
164	0xbe00b4ab	-0.1256892
165	0x3e135ae6	0.14390144
166	0x3e03cd65	0.1287132
167	0x3d85080a	0.06495674
168	0xbe158bf3	-0.14604168
169	0x3ddc252b	0.10749277
170	0x3ca33c84	0.019926317
171	0x3c006cdb	0.007838453
172	0x3e31f3b7	0.17378126
173	0x3d2d2ffe	0.042282097
174	0xbdd5f340	-0.10446787
175	0xbcb88692	-0.022525106
176	0xbe20588b	-0.15658776
177	0x3e1f498f	0.15555404
178	0x3db1852d	0.086679794
179	0x3daefed4	0.08544698
180	0x3d9f8267	0.07788544
181	0x3dd6dc5c	0.10491249
182	0xbdf0de14	-0.11761108
183	0x3e20d893	0.15707617
184	0xbe495de4	-0.19664723
185	0x3d84cec2	0.064847484
186	0xbd41a561	-0.04727686
187	0x3c488d13	0.012240666
188	0x3d958e87	0.073025756
189	0xbe57057c	-0.20998186
190	0xbd410565	-0.047124285
191	0x3dc8df81	0.09808255
192	0xbe140b2d	-0.14457388
193	0x3da8cc5e	0.08242105
194	0xbe315bfc	-0.17320246
195	0x3d111db2	0.03542871
196	0xbcf5cad8	-0.03000395
197	0x3d072d79	0.03300235
198	0xbdd419d1	-0.103564866
199	0x3db2fcf7	0.087396555
200	0xbdf4845f	-0.1193931
201	0x3dd31dfa	0.10308452
202	0xbd1db50c	-0.038502738
203	0x3dd0da5d	0.101978995
204	0xbe370bd6	-0.17875609
205	0xbbd92d98	-0.0066277497
206	0xbdb9a0d2	-0.09063877
207	0xbd722c5d	-0.05912434
208	0x3c7d9a8c	0.015478741
209	0xbe1feeae	-0.15618393
210	0xbe1d5c5c	-0.15367264
211	0x3e0089df	0.12552594
212	0x3d145553	0.036214184
213	0x3ded5fe3	0.115905546
214	0xbe3bd4b0	-0.18342853
215	0xbe0b10ad	-0.1358058
216	0x3d985cde	0.07439588
217	0x3ce1d051	0.027565153
218	0x3d1e5787	0.03865769
219	0x3da6f653	0.08152451
220	0x3dac0d9e	0.08401035
221	0x3d6efe70	0.05834812
222	0xbd9deef4	-0.07711592
223	0xbd0c5339	-0.034259055
224	0x3e287b88	0.16453373
225	0x3c09468b	0.008378635
226	0x3d1b306e	0.037887983
227	0x3d8e71d9	0.069553085
228	0xbdaf1086	-0.085480735
229	0xbe5d048a	-0.21583763
230	0xbe57b57d	-0.21065326
231	0xbe0a54cf	-0.13508914
232	0x3d820bbc	0.063498944
233	0xbd30ca62	-0.043161757
234	0xbdab1515	-0.083536305
235	0xbe255b6a	-0.16148153
236	0x3d1f3dda	0.038877346
237	0xbcd8133a	-0.026376355
238	0x3dab79f5	0.08372871
239	0x3d389cff	0.0450716
240	0xbe88a754	-0.2669016
241	0xbaf6a1f8	-0.0018816581
242	0xbe4ce5b4	-0.200095
243	0x3df84ec6	0.121244
244	0xbe0ad3d2	-0.13557366
245	0xbc3c43cc	-0.011490773
246	0xbd68edac	-0.056867287
247	0x3d98a472	0.074532405
248	0xbd364c14	-0.044506148
249	0x3df39ba5	0.11894921
250	0x3e059994	0.13046867
251	0xbdfe76c8	-0.124249995
252	0xbd77d1cc	-0.060502812
253	0xbe2f0c86	-0.17094621
254	0x3e1a49c4	0.15067202
255	0xbe06e235	-0.13172229

critic.0.bias f4 [64]
0	0x3e44177a	0.1914958
1	0x3dbfcc81	0.09365178
2	0xbdfaa143	-0.122377895
3	0xbe27a45a	-0.16371289
4	0x3e3b26db	0.18276541
5	0xb90ed613	-0.00013621924
6	0x3de0ee0c	0.10982904
7	0x3e3964dd	0.18104883
8	0xbce1b2fc	-0.027551167
9	0x3cb19f99	0.021682547
10	0x3e00fc03	0.12596135
11	0xbe330ca2	-0.17485288
12	0xbd282636	-0.041052066
13	0x3e07af79	0.13250531
14	0xbcca726e	-0.024712767
15	0x3c139d58	0.009009682
16	0xbcd0d4b1	-0.025492044
17	0xbcd6ed1c	-0.02623611
18	0xbe291c33	-0.16514663
19	0xbd6f512b	-0.058427017
20	0x3c080e39	0.008304172
21	0xbdb1882a	-0.08668549
22	0xbe2a6025	-0.16638239
23	0xbcc22e9d	-0.023703868
24	0x3e5f132d	0.21784659
25	0xbd34d69b	-0.044149976
26	0x3db7d426	0.08976011
27	0xbdd9d2d7	-0.10635918
28	0x39f823ae	0.0004732883
29	0xbe0d346a	-0.13789526
30	0xbd76a1d0	-0.06021291
31	0x3e29e2a3	0.16590361
32	0xbd055c15	-0.03255852
33	0x3d077e33	0.033079337
34	0x3d78e50a	0.060765304
35	0xbe473a41	-0.19455816
36	0xbe0add3a	-0.13560954
37	0xbcfa012e	-0.03051814
38	0xbe1cff10	-0.15331674
39	0xbc026965	-0.007959698
40	0x3dc03afe	0.09386252
41	0x3c9c7d13	0.019102609
42	0xbe3932c4	-0.18085772
43	0xbe0f3e0b	-0.13988511
44	0xbe06e8c4	-0.1317473
45	0xbe4a2656	-0.19741186
46	0xbe177c46	-0.147935
47	0x3b35f9a4	0.0027767206
48	0x3def90e8	0.116975605
49	0x3da90179	0.08252234
50	0xbe133330	-0.14374995
51	0xbe2a0f91	-0.166075
52	0x3dca77e4	0.098861486
53	0x3de309c7	0.11085849
54	0x3dac57d1	0.08415187
55	0xbd650d0e	-0.055920653
56	0x3e20fda8	0.15721762
57	0xbd20a406	-0.039218925
58	0xbe38f7d9	-0.18063296
59	0x3d42dbb9	0.047572825
60	0xbe13f8e2	-0.1445041
61	0x3d710b24	0.058848515
62	0xbe1d1eb1	-0.15343739
63	0xbdba4b96	-0.09096448

critic.2.weight f4 [32, 64]
0	0x3d95b079	0.0730905
1	0xbd9ed5c3	-0.077556156
2	0xbd8d21c2	-0.068912044
3	0xbcc3f267	-0.023919297
4	0x3d678b9f	0.056529637
5	0xbd93e2cc	-0.072209924
6	0xbdca232f	-0.09869992
7	0xbd270112	-0.040772505
8	0x3dbef166	0.09323387
9	0x3dc277a4	0.09495476
10	0xbdf69a4b	-0.12041148
11	0x3cd1b351	0.0255982
12	0xbd921800	-0.07133484
13	0xbe0558ed	-0.13022204
14	0xbd16ef6b	-0.03684942
15	0x3e026c47	0.12736617
16	0xbcdc8cc3	-0.02692259
17	0xbcaff56e	-0.021479335
18	0xbdd9cbd1	-0.10634578
19	0x3db50a39	0.088398404
20	0x3dbf016c	0.09326443
21	0x3da9ee9c	0.08297464
22	0xbdd15de7	-0.102229886
23	0xbd263a74	-0.04058309
24	0x3dbe922e	0.09305225
25	0x3dcbdd69	0.0995434
26	0xbd979c44	-0.07402852
27	0x3dbc4fc9	0.09194905
28	0x3d5e9eb3	0.054350566
29	0xbdc7699c	-0.0973694
30	0x3da77b09	0.08177764
31	0xbc2be26f	-0.010490998
32	0x3c7a7d01	0.015288592
33	0xbd5e65a1	-0.05429614
34	0x3cc6c7f7	0.024265273
35	0xbd9435b9	-0.07236809
36	0xbc825121	-0.015907826
37	0xbc93f3f9	-0.018060671
38	0xbdd119bd	-0.10209987
39	0x3dcb6974	0.09932223
40	0xbdb96a5c	-0.090534896
41	0x3d884cee	0.06655298
42	0x3bc3b72a	0.0059727626
43	0x3ae5fefa	0.0017547302
44	0x3d29f957	0.041497555
45	0x3dba1510	0.090860486
46	0xbdffd395	-0.12491528
47	0x3d77951a	0.06044493
48	0xbd8f33dd	-0.06992314
49	0x3ddeb3b5	0.1087412
50	0xbd9dc7fc	-0.077041596
51	0x3da289c3	0.07936432
52	0xbdf8524c	-0.12125072
53	0xbc03911a	-0.0080302
54	0x3d50d382	0.05098296
55	0x3e049884	0.12948805
56	0x3dddd0d5	0.10830847
57	0xbd845c6b	-0.0646294
58	0xbdd22891	-0.10261644
59	0x3cf48206	0.029847156
60	0x3dcfd260	0.10147548
61	0xbd5033cf	-0.05083066
62	0xbd3e009f	-0.04638731
63	0xbd880d56	-0.06643169
64	0x3dac8e98	0.08425635
65	0xbcb5a8c8	-0.022175208
66	0x3dc52fda	0.096282676
67	0xbcb9ccea	-0.022680718
68	0x3dcbc4e2	0.09949662
69	0x3c832c89	0.016012447
70	0xbd799ae9	-0.06093875
71	0x3c5edb44	0.013602082
72	0xbdb59ec4	-0.08868173
73	0xbda571eb	-0.08078369
74	0x3cb9dfab	0.022689661
75	0xbdbd194e	-0.09233342
76	0x3de18eb1	0.11013544
77	0x3de27bf3	0.11058798
78	0x3daf0b45	0.08547071
79	0xbc23ae9b	-0.00999036
80	0x3d99e157	0.07513683
81	0x3d8ad773	0.06779375
82	0xbd057008	-0.032577544
83	0x3cd27d80	0.025694609
84	0xbb9eecf2	-0.0048500234
85	0xbd3adce8	-0.04562083
86	0xbd80cef5	-0.06289474
87	0x3dd90223	0.10596111
88	0xbd86c794	-0.06581035
89	0xbd0ff4b6	-0.035145484
90	0xbda7cde3	-0.08193567
91	0x3db12279	0.08649153
92	0xbdc732f4	-0.097265154
93	0xbd43e071	-0.047821466
94	0x3be905a8	0.00711127
95	0x3d472b93	0.04862554
96	0xbde069bc	-0.10957667
97	0xbdb787bf	-0.089614384
98	0xbdc7f24f	-0.097630136
99	0x3dba34f8	0.09092134
100	0x3d8303c1	0.063972004
101	0xbd17a8a9	-0.03702608
102	0x3cdc9fcb	0.026931664
103	0x3dedbdb3	0.11608448
104	0x3d5a71a1	0.05333102
105	0x3d57a446	0.052646898
106	0x3d5f4527	0.05450931
107	0xbdf39b28	-0.11894828
108	0x3da55e13	0.08074584
109	0xbdede2bd	-0.116155125
110	0x3dc0c5c6	0.09412722
111	0x3d1c24aa	0.038120903
112	0xbde16161	-0.11004902
113	0xbcb6d918	-0.022320315
114	0xbd5c9a5a	-0.05385814
115	0xbde6b891	-0.11265672
116	0xbdeb0361	-0.11475254
117	0x3d2eec1c	0.04270564
118	0xbd3c214b	-0.04593019
119	0x3c321bf9	0.010870927
120	0x3dc57051	0.09640563
121	0xbd74fe8b	-0.059813064
122	0xbd875bca	-0.06609304
123	0x3d8ba96e	0.068194255
124	0xbce9d857	-0.028545542
125	0xbd44d7ca	-0.048057355
126	0xbd974686	-0.07386498
127	0x3d3bcaa9	0.04584757
128	0x3d62f2b4	0.05540724
129	0xbd887a8e	-0.066640005
130	0x3e03b454	0.12861758
131	0xbd2cf26b	-0.042223375
132	0xbbd9baf3	-0.0066446005
133	0xbca60d8c	-0.020270132
134	0x3d12d0a7	0.035843518
135	0x3d46636b	0.048434656
136	0xbd0d35fa	-0.034475304
137	0xbddebf1d	-0.10876296
138	0x3d9e3116	0.07724206
139	0xbdecf4a8	-0.11570102
140	0xbc387aaa	-0.011259714
141	0x3db2e447	0.08734947
142	0x3d3cdb22	0.04610742
143	0x3d819e70	0.06329048
144	0x3d16b6e7	0.036795523
145	0xbd41b13e	-0.047288172
146	0xbd392dd1	-0.04520971
147	0xbd8e0690	-0.069348454
148	0x3cae5090	0.02127865
149	0xbcec9b90	-0.028882772
150	0xbd7ea428	-0.06216827
151	0x3c96f792	0.018428598
152	0x3db59b51	0.08867515
153	0xbd39d878	-0.045372456
154	0x3d11f30e	0.035632186
155	0x3cb57aaf	0.022153227
156	0x3dde33ff	0.10849761
157	0xbd3637d3	-0.044486832
158	0x3d04c669	0.03241578
159	0x3ce1005f	0.027465997
160	0x3dbccf8b	0.09219273
161	0xbe12b24d	-0.14325829
162	0x3d90872a	0.070570305
163	0x3b9beed9	0.0047586975
164	0xbd9d62dc	-0.076848716
165	0x3d693f65	0.056945223
166	0xbd0a4eec	-0.033766672
167	0xbd093692	-0.033499308
168	0xbd032081	-0.03201342
169	0xbdd842ad	-0.105595924
170	0x3d745dc8	0.05965975
171	0xbdb233ee	-0.08701311
172	0xbce4762d	-0.027888382
173	0x3cb4ebd1	0.022085102
174	0xbd03bd1c	-0.03216277
175	0x3c68015e	0.014160482
176	0x3b817e3f	0.0039518173
177	0x3d86955e	0.06571458
178	0x3d818f05	0.06326107
179	0x3d82552e	0.06363903
180	0x3ddc4753	0.107557915
181	0x3c910a30	0.017705053
182	0xbc15ac4a	-0.009135315
183	0xbdf0d55a	-0.117594436
184	0xbbc18607	-0.00590587
185	0xbc1cf1ef	-0.009579166
186	0x3dcc0bb8	0.09963173
187	0x3dcad9e8	0.099048436
188	0x3d3d7258	0.046251625
189	0xbd131c5e	-0.035915725
190	0x3d8c1908	0.06840712
191	0x3d8f0efb	0.06985279
192	0xbcab8617	-0.020937962
193	0x3d984eae	0.07436882
194	0x3c5fb534	0.013654042
195	0xbdcfcca4	-0.10146454
196	0x3d31dffc	0.0434265
197	0xbd74c798	-0.05976066
198	0xbd2f3a03	-0.042779934
199	0x3d8988f0	0.06715572
200	0x3cadfb36	0.02123795
201	0xbdce7fe6	-0.100829884
202	0x3d01b126	0.031663083
203	0xbc90cfde	-0.017677244
204	0x3d301158	0.04298529
205	0xbd47b76e	-0.048758917
206	0xbd096fb6	-0.0335538
207	0xbdd2627e	-0.10272692
208	0x3c3ce71e	0.011529712
209	0xbcf41507	-0.029795183
210	0xbdae778c	-0.085188955
211	0xbdfa7c3f	-0.12230729
212	0xbdb96003	-0.09051516
213	0x3dd96798	0.10615462
214	0xbe08cec1	-0.1336012
215	0xbdaa914e	-0.08328496
216	0x3dc85c73	0.09783258
217	0x3d3bd0ea	0.045853533
218	0x3c813327	0.015771462
219	0x3dfb621e	0.12274574
220	0x3debbb08	0.11510283
221	0x3dbed3c5	0.093177356
222	0x3d7dd398	0.06196937
223	0xbd18c6f8	-0.037299126
224	0xbdbb7c0d	-0.0915452
225	0x3da4fda7	0.08056193
226	0xbded44b4	-0.1158537
227	0xbda9c938	-0.082903326
228	0xbdbd8798	-0.09254378
229	0x3e0eed11	0.13957621
230	0xbd386005	-0.045013446
231	0x3dcb4c2f	0.0992664
232	0xbdbad76f	-0.09123122
233	0x3cace2ad	0.021104181
234	0x3dba7853	0.09104981
235	0x3d4723cf	0.048618134
236	0x3db64ed0	0.08901751
237	0xbdcab3b7	-0.09897559
238	0x3dac4ae8	0.08412725
239	0x3dcb2e1e	0.099209055
240	0xbd7774da	-0.060414173
241	0x3d8a639f	0.067572825
242	0x3de45f3d	0.11150978
243	0x3de182d8	0.110112846
244	0xbd9124e1	-0.07087112
245	0x3cc7a98f	0.024372844
246	0xbd5e2adb	-0.05424009
247	0xbd5c7ea5	-0.053831715
248	0xbd294839	-0.041328643
249	0x3cc964ff	0.024584292
250	0x3e00b988	0.12570775
251	0xbd7fcf37	-0.062453475
252	0xbce0fc98	-0.027464196
253	0xbdb0261a	-0.08601017
254	0x3d87b457	0.06626194
255	0x3d5205b0	0.051274955

critic.2.bias f4 [32]
0	0xbd21a34c	-0.039462373
1	0x3c825cd8	0.015913412
2	0xbddae029	-0.106872864
3	0x3c2cdb24	0.010550294
4	0x3d9e13f0	0.077186465
5	0xbda78829	-0.08180267
6	0x3d05aefd	0.032637585
7	0xbdd25eee	-0.10272013
8	0xbc64fae1	-0.01397583
9	0x3d9aca86	0.075581595
10	0x3d8e57bb	0.06950327
11	0x3d731ef5	0.059355695
12	0x3de93c32	0.113884345
13	0xbdb74d55	-0.08950297
14	0x3daae104	0.083436996
15	0x3d2356f5	0.03987785
16	0xbdb46b70	-0.088095546
17	0xbd5202c9	-0.051272187
18	0xbd1754e8	-0.036946207
19	0x3d9c19eb	0.07622131
20	0x3d8ad9c3	0.06779816
21	0x3d2afff8	0.041748017
22	0x3a1c2c70	0.00059575494
23	0xbd6b0675	-0.057379205
24	0x3e0def65	0.13860853
25	0x3a3adb04	0.0007127973
26	0x3da2fd8d	0.07958517
27	0x3d82dfda	0.063903525
28	0xbbe97d57	-0.0071255374
29	0x3ddfebe0	0.109336615
30	0xbcf048f3	-0.02933166
31	0x3df4f029	0.119598694

critic.4.weight f4 [1, 32]
0	0x3d43290a	0.04764656
1	0x3da10999	0.07863159
2	0xbe093caa	-0.13402048
3	0xbd4ec4aa	-0.050480522
4	0x3da17084	0.07882789
5	0xb894c536	-7.093923e-05
6	0x3de70d81	0.112818725
7	0x3e027353	0.12739305
8	0x398eac5b	0.00027212765
9	0x3e17447a	0.14772215
10	0x3da6cedb	0.08144923
11	0xbda1973e	-0.07890175
12	0xbc3390b4	-0.010959793
13	0xbd2914bf	-0.04127955
14	0x3c94bec9	0.01815738
15	0xbdf47f26	-0.11938314
16	0x3dffffce	0.12499963
17	0xbdc44b8b	-0.09584721
18	0xbd277c97	-0.040890303
19	0x3d566026	0.052337788
20	0xbc882c3a	-0.016622651
21	0xbdb0c1f5	-0.08630744
22	0xbcb0ffe6	-0.021606397
23	0xbd8f459d	-0.069956996
24	0xbd190b41	-0.03736425
25	0x3dc7973b	0.09745642
26	0xbc7d96f9	-0.015477889
27	0xbca94947	-0.020664824
28	0x3dda12b9	0.10648102
29	0xbdf2cf96	-0.11856
30	0x3e0f6952	0.1400502
31	0xbdb93448	-0.09043175
