Policy Gradient/walker_ppo_model_1300.pth (torch_old, 584582 bytes, 11 tensors)

actor.0.weight f4 [256, 24]
0.069206744 -0.16267812 0.3355686 0.02739161 0.0860562 -0.061223745 -0.20505723 0.12590966
0.01878936 -0.20559318 0.3463146 0.031082274 0.21612392 0.072567455 -0.07370138 -0.04779688
0.15036345 0.0456352 0.00067348196 -0.12318955 0.12435549 -0.1384328 -0.051633205 0.19976684
0.04632031 0.3999037 -0.23657626 -0.2093408 0.009105762 -0.20018144 0.32119307 0.08142977
-0.0016809609 0.18683648 -0.06706742 -0.03646584 -0.20847102 -0.11601587 -0.03510086 -0.11195416
-0.07950093 -0.015208461 0.1975848 0.11458788 -0.06873359 0.054439005 0.18939714 -0.082732685
0.0154119115 0.0097008115 -0.40764812 0.30129826 -0.1133268 -0.30710378 0.16259408 0.121459164
0.0188246 0.17487645 0.08919536 -0.1420278 -0.17424683 0.14338604 -0.13186136 -0.0019988075
0.23600914 0.17007154 0.18280195 -0.06555543 0.055518273 0.14624137 -0.002645297 -0.0027964169
-0.2401387 0.19206657 -0.03444593 -0.027272776 -0.18791975 -0.20413719 0.09768562 0.028888624
-0.21663436 0.22210066 -0.07808933 0.2159549 -0.30921862 -0.15993984 0.030905142 0.06646465
0.03780519 -0.015125944 -0.089602634 -0.0015237238 -0.011010529 0.03599837 -0.047935944 -0.1048261
0.1493956 -0.12655808 -0.20779926 0.39693508 0.0050873063 -0.22642554 -0.15665095 0.09225171
-0.07066612 0.20829777 0.24926119 -0.00030515328 -0.13761276 -0.07849771 0.019648751 0.24679658
0.21018238 0.2476435 0.03852301 0.17515723 -0.071754 0.1371177 -0.018227985 0.045529515
-0.08162642 -0.20309126 0.08593178 0.28862804 0.31816232 0.22126704 0.07899868 -0.1966474
-0.078953 -0.047473777 -0.11954202 0.0941115 -0.20164794 0.16946223 0.047243662 0.052312274
0.20044379 0.18201046 0.009674672 0.14897648 -0.06245922 -0.16322525 -0.105654374 -0.09817616
-0.03728595 0.32544538 -0.3922744 0.02951832 -0.16716394 -0.19039725 0.011469057 0.0335757
-0.27919093 0.15157212 0.16387212 -0.024434801 -0.21958297 0.03210791 0.12597322 0.15202428
-0.14032695 0.029587338 -0.13771811 0.10241574 -0.07484504 0.23137075 0.21921962 -0.07794164
0.107919574 -0.31826746 0.2811264 0.11343696 0.18094672 0.12252782 0.045846507 0.12715474
0.028727207 -0.23448746 0.13265684 -0.22139719 0.2895922 0.1827598 -0.13242298 0.038426615
-0.11061044 -0.032750964 0.0071356515 -0.21666154 -0.12797476 -0.1518596 0.041921943 0.12124003
-0.11186528 -0.045001224 0.028424691 -0.15664864 -0.2044349 0.110859126 0.28923944 0.1974582
0.13307065 0.11735303 -0.15430067 -0.13883367 0.17069358 0.04535554 0.1583533 -0.15896958
-0.066086665 0.089241505 -0.106249504 0.15014885 0.20053267 0.044805806 0.001854666 -0.011908767
-0.06299396 -0.103569 0.063431315 -0.06713041 0.18827479 -0.2762226 0.20130512 0.2574206
-0.093431 0.22238389 0.2682469 -0.055913564 -0.40394694 -0.041087754 -0.10808376 -0.10847502
-0.12751912 0.11446261 0.08795308 0.22764656 0.19001421 0.04085479 0.18934646 -0.18159924
-0.034772128 -0.21319772 0.14253779 -0.30650517 -0.13893701 0.05231574 -0.13134341 -0.009935025
0.08054316 -0.24774578 -0.019699004 -0.09249118 0.3166164 -0.10241844 0.018270833 0.106037214
00000000: 44bc 8d3d 1895 26be a6cf ab3e 5f64 e03c
00000010: 3c3e b03d c0c5 7abd 86fa 51be 76ee 003e
00000020: 25ec 993c 0587 52be 2650 b13e 41a0 fe3c
00000030: 974f 5d3e 3f9e 943d c0f0 96bd a9c6 43bd
00000040: e0f8 193e faeb 3a3d 9c8c 303a ce4a fcbd
00000050: 17ae fe3d 54c1 0dbe 577d 53bd ae8f 4c3e
00000060: 5eba 3d3d 2ec0 cc3e 0c41 72be 6f5d 56be
00000070: 5530 153c 5dfc 4cbe 6b73 a43e a7c4 a63d
00000080: b053 dcba 1052 3f3e a55a 89bd 345d 15bd
00000090: 6d79 55be ba99 edbd ebc5 0fbd 3948 e5bd
000000a0: 62d1 a2bd e92c 79bc ab53 4a3e 0dad ea3d
000000b0: 32c4 8cbd 6ffb 5e3d 53f1 413e c16f a9bd
000000c0: 3e82 7c3c 27f0 1e3c 41b7 d0be c443 9a3e
000000d0: e217 e8bd b53c 9dbe 107f 263e 95bf f83d
000000e0: 0c36 9a3c d012 333e 0fac b63d bc6f 11be
000000f0: c36d 32be cad3 123e aa06 07be 6dfe 02bb
00000100: 61ac 713e 3c27 2e3e 6f30 3b3e ed41 86bd
00000110: 2167 633d 4cc0 153e b85c 2dbb 1744 37bb
00000120: ebe6 75be 19ad 443e 2d17 0dbd 286b dfbc
00000130: 096e 40be 5709 51be 660f c83d d6a7 ec3c
00000140: 66d5 5dbe 5b6e 633e 4ced 9fbd 4823 5d3e
00000150: e751 9ebe 45c7 23be c82c fd3c 9e1e 883d
00000160: 9dd9 1a3d cfd2 77bc 9681 b7bd b0b7 c7ba
00000170: 8165 34bc 0773 133d 7b58 44bd 11af d6bd
00000180: 29fb 183e 7198 01be 54c9 54be 133b cb3e
00000190: 6bb3 a63b 19dc 67be 1b69 20be 77ee bc3d
000001a0: 66b9 90bd 034c 553e 533e 7f3e fbfc 9fb9
000001b0: 5cea 0cbe 68c3 a0bd 6bf6 a03c 3eb8 7c3e
000001c0: 0d3a 573e 4296 7d3e 4eca 1d3d 6b5c 333e
000001d0: c3f3 92bd 9568 0c3e db52 95bc 287d 3a3d
000001e0: c12b a7bd 28f7 4fbe 00fd af3d 0ec7 933e
000001f0: 2ce6 a23e d493 623e 0fca a13d f05d 49be
00000200: 1cb2 a1bd dd73 42bd 72d2 f4bd 88bd c03d
00000210: cc7c 4ebe 8287 2d3e 9282 413d 6545 563d
00000220: 2341 4d3e f360 3a3e 8482 1e3c 4a8d 183e
00000230: 3dd5 7fbd 8524 27be 5261 d8bd 9510 c9bd
00000240: 27b9 18bd c7a0 a63e 31d8 c8be 67d0 f13c
00000250: 062d 2bbe 7ff7 42be b6e8 3b3c ac86 093d
00000260: 1df2 8ebe b935 1b3e 18ce 273e 7e2b c8bc
00000270: 5cda 60be 9583 033d 20ff 003e 41ac 1b3e
00000280: deb1 0fbe 2561 f23c fa05 0dbe 58bf d13d
00000290: 5b48 99bd 74ec 6c3e 1c7b 603e de9f 9fbd
000002a0: f004 dd3d f4f3 a2be cdef 8f3e a351 e83d
000002b0: 194a 393e deef fa3d 8cc9 3b3d da34 023e
000002c0: 5255 eb3c 7b1d 70be 32d7 073e f2b5 62be
000002d0: 6e45 943e 6325 3b3e e499 07be 3a65 1d3d
000002e0: ba87 e2bd e025 06bd 2fd2 e93b 86dc 5dbe
000002f0: d10b 03be 1581 1bbe 58b6 2b3d b14c f83d
00000300: a019 e5bd 3453 38bd e6da e83c 8068 20be
00000310: 6257 51be 1c0a e33d 3117 943e 7b32 4a3e
00000320: ac43 083e c956 f03d ff00 1ebe 6a2a 0ebe
00000330: 4cca 2e3e bbc6 393d 5e27 223e ecc8 22be
00000340: 7258 87bd 40c4 b63d 5799 d9bd 9fc0 193e
00000350: 7058 4d3e 4b86 373d 4418 f33a fd1c 43bc
00000360: fa02 81bd fc1b d4bd 47e8 813d ab7b 89bd
00000370: 1bcb 403e 0c6d 8dbe ee22 4e3e a2cc 833e
00000380: c158 bfbd 9ab8 633e a857 893e 9f05 65bd
00000390: 22d2 cebe a24b 28bd 055b ddbd 2728 debd
000003a0: 5f94 02be 5f6b ea3d bf20 b43d 2e1c 693e
000003b0: 1693 423e 5a57 273d 0ae4 413e 27f5 39be
000003c0: 386d 0ebd 8150 5abe 6df5 113e 3fee 9cbe
000003d0: 8145 0ebe 0849 563d e37e 06be 84c6 22bc
000003e0: d0f3 a43d 12b1 7dbe ce5f a1bc 046c bdbd
000003f0: 8b1b a23e c2c0 d1bd b7ac 953c 0a2a d93d

actor.0.bias f4 [256]
-0.13604167 -0.0702537 -0.13590822 -0.013525797 -0.09532142 -0.16323031 -0.04387428 0.047446568
-0.035595752 0.19479199 0.08074706 -0.07953893 0.15812646 -0.031669755 0.1514438 -0.103253365
0.14684673 0.16869704 -0.04090457 -0.15541737 -0.042957235 -0.10441273 0.07533372 0.095178835
-0.11510639 -0.19165714 -0.16981205 -0.03274313 0.018253207 -0.09343637 0.056282546 -0.1932893
-0.16522057 -0.13321975 -0.06776648 -0.13672492 0.051479403 -0.124208644 -0.03933121 0.22999276
0.15962225 0.14387983 -0.05832543 -0.03266483 -0.12563416 -0.17386962 -0.16017197 -0.12700601
0.018453384 -0.09821623 -0.06593272 0.022756122 -0.01395221 0.09228492 -0.019590862 0.16743518
0.1593021 -0.037848398 0.030541912 0.032658927 0.08126357 -0.03720002 -0.11865529 0.11024594
-0.0030782484 0.018409321 0.044860728 0.037507933 0.06752704 0.14959958 -0.2002457 -0.09622196
-0.16601631 -0.15783747 -0.019595206 0.03743873 0.1540452 -0.106433675 0.034648273 0.049899522
0.02554485 0.21698889 0.04299674 0.091435224 0.07697657 -0.041504618 -0.12514977 0.0032483805
0.0036885818 0.032715548 0.0318847 0.08598516 0.12148653 -0.10181036 -0.17913327 0.12913531
0.21276338 -0.1461534 0.057208683 -0.09493561 -0.044804845 -0.03392903 -0.07900352 -0.23267053
0.2081899 0.16907088 0.11597604 0.10112524 0.18171136 -0.13721748 0.18644537 -0.10201897
0.014404633 0.036882732 -0.09936548 0.023365673 0.19246417 -0.16467287 -0.120585024 -0.13343929
0.071984984 -0.025100457 0.052348614 -0.03244011 -0.19605543 -0.074383356 0.109142184 0.074922234
-0.11435973 0.014144286 -0.04668635 -0.1384849 -0.037863087 0.12054844 0.063330546 0.08187716
0.0052667945 -0.0062084906 0.05339229 -0.01624323 0.1425044 0.06518437 -0.09137198 -0.0007275587
-0.11392199 0.15184186 0.15538119 0.0683939 -0.04211996 0.10503628 0.061635267 -0.018265577
-0.018396188 -0.15423222 0.03059799 0.19522087 -0.14664643 -0.16118674 -0.06318319 0.10384465
-0.030423742 -0.11793731 -0.019832596 -0.0518922 0.18096529 0.14948732 -0.103723146 -0.17851324
0.27186865 -0.12631695 0.032185417 0.06960769 -0.018493978 0.10339879 0.17037003 0.13590637
-0.16234364 -0.13275011 0.02996164 0.058676265 -0.12704964 0.14470197 -0.21038789 0.054174267
0.15965918 0.12078798 0.16048731 -0.09323584 0.17266469 -0.097782575 -0.09822638 0.079777345
-0.16132516 -0.014551969 0.096784845 -0.16639929 -0.078760006 0.18989302 -0.1160272 -0.0005550408
0.06637431 -0.03285087 0.2031125 -0.07167393 0.20058842 0.20862202 -0.05475142 -0.11010314
-0.18473148 -0.11028351 0.1634839 0.035033237 -0.23098151 -0.025784802 -0.030031633 0.14972146
-0.09114369 0.15492736 0.15731776 -0.06401862 0.06753046 -0.032420985 -0.10443768 -0.1347293
-0.14271396 0.0019569779 -0.21103531 0.03400911 -0.121411756 0.020179283 0.02592898 -0.045487244
0.042376503 0.07624148 0.13187838 -0.014282027 0.116695635 0.056550663 -0.026498895 -0.043877196
0.16546473 0.1834748 0.1529188 0.03942259 -0.014194916 0.14392859 0.09863349 0.13880071
0.07765038 -0.10352328 -0.18197453 0.03168343 -0.09226694 -0.103066675 0.06543345 -0.18757926
00000000: 824e 0bbe 2ce1 8fbd 862b 0bbe 4e9b 5dbc
00000010: e037 c3bd d925 27be 84b5 33bd 5557 423d
00000020: dacc 11bd 8d77 473e b75e a53d 4ee5 a2bd
00000030: e7eb 213e 25b8 01bd 1514 1b3e 8076 d3bd
00000040: fd5e 163e ebbe 2c3e 8d8b 27bd bb25 1fbe
00000050: edf3 2fbd 57d6 d5bd 9148 9a3d 1fed c23d
00000060: e6bc ebbd c541 44be 36e3 2dbe a91d 06bd
00000070: c087 953c 915b bfbd 8788 663d a1ed 45be
00000080: 952f 29be c26a 08be 27c9 8abd 9e01 0cbe
00000090: 11dc 523d 1a61 febd c319 21bd 3983 6b3e
000000a0: 0474 233e 3c55 133e a5e6 6ebd 8fcb 05bd
000000b0: 3ea6 00be e10a 32be 1f04 24be dd0d 02be
000000c0: 8d2b 973c 9725 c9bd bc07 87bd 0c6b ba3c
000000d0: cf97 64bc e0ff bc3d 047d a0bc 2174 2b3e
000000e0: 1720 233e ec06 1bbd 0833 fa3c 5ec5 053d
000000f0: 846d a63d 0c5f 18bd 8b01 f3bd a0c8 e13d
00000100: 70bc 49bb 25cf 963c e2bf 373d eba1 193d
00000110: 9e4b 8a3d a230 193e 350d 4dbe 0510 c5bd
00000120: 2e00 2abe 25a0 21be 2086 a0bc 5b59 193d
00000130: 06be 1d3e e6f9 d9bd 59eb 0d3d 7163 4c3d
00000140: 6f43 d13c 5632 5e3e 5a1d 303d 6442 bb3d
00000150: e4a5 9d3d bf00 2abd 4327 00be c8e2 543b
00000160: 22bc 713b bd00 063d 8899 023d fd18 b03d
00000170: eecd f83d f381 d0bd b66e 37be 0c3c 043e
00000180: a5de 593e 3da9 15be a753 6a3d 9a6d c2bd
00000190: 4985 37bd 2bf9 0abd 99cc a1bd 2f41 6ebe
000001a0: bc2f 553e eb20 2d3e d984 ed3d c01a cf3d
000001b0: 8b12 3a3e bd82 0cbe 89eb 3e3e 52ef d0bd
000001c0: 6901 6c3c 5912 173d 2180 cbbd 5e69 bf3c
000001d0: 5415 453e 01a0 28be 48f5 f6bd 4fa4 08be
000001e0: dd6c 933d 799f cdbc 806b 563d ecdf 04bd
000001f0: c1c2 48be 4d56 98bd f085 df3d d470 993d
00000200: 6f35 eabd 6fbd 673c 303a 3fbd fcce 0dbe
00000210: 5316 1bbd 1ae2 f63d 72b3 813d 36af a73d
00000220: 1395 ac3b 9870 cbbb e0b1 5a3d 8610 85bc
00000230: acec 113e 627f 853d 3c21 bbbd a3b9 3eba
00000240: ef4f e9bd 6f7c 1b3e 3f1c 1f3e 1a12 8c3d
00000250: fb85 2cbd 431d d73d 4375 7c3d b1a1 95bc
00000260: 9ab3 96bc 0def 1dbe a3a8 fa3c fbe7 473e
00000270: 7b2a 16be 230e 25be 3066 81bd 81ac d43d
00000280: 363b f9bc 1e89 f1bd f877 a2bc ea8c 54bd
00000290: f74e 393e 3413 193e cd6c d4bd 2dcc 36be
000002a0: 5e32 8b3e 3b59 01be dbd4 033d 7a8e 8e3d
000002b0: af80 97bc bfc2 d33d 7b75 2e3e 0a2b 0b3e
000002c0: 693d 26be a5ef 07be 1d72 f53c 8656 703d
000002d0: 4d19 02be c12c 143e ec6f 57be d6e5 5d3d
000002e0: b27d 233e b05f f73d c956 243e 6ff2 bebd
000002f0: 03cf 303e 3b42 c8bd ea2a c9bd 4e62 a33d
00000300: 6c32 25be 626b 6ebc 2237 c63d 9364 2abe
00000310: ed4c a1bd 5173 423e ab9f edbd 2880 11ba
00000320: 41ef 873d a28e 06bd b9fc 4f3e c8c9 92bd
00000330: 0d67 4d3e 03a1 553e 0643 60bd c17d e1bd
00000340: 402a 3dbe 52dc e1bd 5368 273e 037f 0f3d
00000350: 6b86 6cbe a63a d3bc e604 f6bc 9550 193e
00000360: 8ba9 babd 47a5 1e3e e817 213e 321c 83bd
00000370: 694d 8a3d decb 04bd 6ce3 d5bd 7af6 09be
00000380: 9c23 12be a440 003b a419 58be 234d 0b3d
00000390: baa6 f8bd 064f a53c 0369 d43c d550 3abd
000003a0: fc92 2d3d 7e24 9c3d 200b 073e 2aff 69bc
000003b0: 1ffe ee3d aba1 673d 3614 d9bc 93b8 33bd
000003c0: 966f 293e d1e0 3b3e bf96 1c3e 9579 213d
000003d0: cb91 68bc 0462 133e 5b00 ca3d c621 0e3e
000003e0: 2a07 9f3d 0304 d4bd 8857 3abe 7cc6 013d
000003f0: 73f6 bcbd 9f14 d3bd f901 863d c714 40be

actor.2.weight f4 [256, 256]
-0.055367462 0.10284663 0.09178198 -0.045047786 0.038529813 0.045875784 0.039427005 0.014786048
0.025686497 0.24678256 -0.049825832 -0.14864111 0.06286391 0.05277756 -0.10576781 0.048108567
0.031065466 0.062653355 0.05661071 0.15249291 -0.018436596 -0.09833813 -0.09564921 0.053093206
-0.1429188 -0.08341021 0.042113326 0.06603303 0.122091495 -0.017377827 0.12057672 -0.054022618
0.09940678 0.07346497 -0.18098733 0.10886663 0.051274482 0.079299554 -0.06411003 -0.004499042
0.060346566 0.005650082 0.033606485 0.02822364 -0.022274956 0.083018325 -0.101902656 0.004406637
-0.010743691 0.115653865 0.05365015 0.024582502 -0.03068255 -0.022631781 0.13482195 0.0061755055
-0.051951785 0.14689 -0.21829773 -0.11166555 0.06898031 -0.08528302 -0.11412079 -0.018339394
0.052584834 -0.010118823 -0.0602516 -0.04615784 0.039319053 0.120379455 -0.0067678723 0.06605204
-0.03447306 0.046633653 0.023434695 -0.002043902 -0.052047197 0.07901471 -0.0650473 -0.01137289
-0.07148117 0.057436246 0.072868824 -0.03832391 0.08118004 -0.049077973 0.07899747 0.1308228
-0.10880696 0.059932556 0.043519694 0.06850064 0.0019609332 0.022270551 -0.06569209 -0.10438021
0.014203624 -0.19129667 -0.022639535 -0.027558187 0.05198299 0.07681832 0.0005290885 0.0076498236
-0.04317457 0.0013434779 0.012340579 -0.04506196 -0.0050037135 -0.14566907 -0.02817008 0.04408099
0.053182613 -0.01761157 0.04924514 -0.089522846 0.09370681 -0.17173639 0.20116615 -0.09326256
0.0015112561 -0.12736373 0.020002536 0.025606858 0.03377011 -0.0078759985 -0.047454543 -0.025382569
0.0558602 0.023475654 -0.06229738 -0.1720402 -0.036528103 0.00041935698 0.108643174 -0.007095535
0.0012783062 0.031344377 -0.039660394 0.07939908 -0.019531498 -0.028193403 0.024877785 -0.02807802
-0.19097121 0.032808308 0.06807537 0.018844845 -0.06612992 -0.19015756 -0.08276361 0.09287076
-0.13734908 0.036885384 0.044158876 -0.00911338 -0.019991225 -0.07275522 0.031910367 0.10623713
-0.0072629144 0.07545327 0.04648477 0.008297578 0.09124883 0.04377475 0.1082797 0.048920292
0.0067270454 -0.0567108 0.17042509 0.23632416 -0.0709219 -0.042427164 -0.023485947 -0.077049196
-0.2140366 0.019596707 0.119102724 -0.025714872 -0.036453407 -0.14955553 0.031605255 4.0069237e-05
-0.06003237 0.023692636 -0.028134735 -0.053217974 -0.03437466 0.0795048 -0.070425175 0.02118095
-0.03715438 -0.16462158 -0.062142838 -0.11575737 -0.037868842 0.046778116 0.10201726 -0.019208323
-0.061849467 0.10203314 0.07691299 0.14590524 0.035496198 0.037436217 0.03908445 0.059793666
-0.026904035 0.04183252 0.006343689 0.0018516219 0.03525508 0.030781135 -0.16052167 -0.07254085
0.26820582 0.009877655 0.022664057 -0.00046578175 0.060658664 -0.031852752 -0.020461341 -0.08353641
0.000584031 -0.024853112 -0.08156094 -0.0006873067 -0.061227027 0.096567184 0.062506475 0.12445369
-0.0075267563 0.014442188 -0.006423241 0.0872773 -0.00982404 -0.0016063347 -0.09337197 -0.016680665
0.041974213 -0.016837347 -0.010361081 -0.044117816 0.062431805 -0.042479407 -0.0663893 -0.22253604
0.0634136 -0.2307757 -0.0668521 -0.09908943 0.16179433 0.066979274 0.03385163 0.032905493
00000000: fec8 62bd 41a1 d23d 31f8 bb3d 0784 38bd
00000010: 70d1 1d3d 3fe8 3b3d 367e 213d 2e41 723c
00000020: 7d6c d23c 91b4 7c3e 2c16 4cbd 6035 18be
00000030: cbbe 803d 482d 583d cb9c d8bd 7d0d 453d
00000040: 017d fe3c 6750 803d a2e0 673d 1a27 1c3e
00000050: 5808 97bc 8065 c9bd bce3 c3bd 4378 593d
00000060: 4e59 12be f9d2 aabd 067f 2c3d 533c 873d
00000070: 1b0b fa3d f25b 8ebc edf0 f63d d246 5dbd
00000080: c895 cb3d cd74 963d be54 39be 78f5 de3d
00000090: 3105 523d ce67 a23d 1f4c 83bd b36c 93bb
000000a0: f62d 773d 5324 b93b f4a6 093d 4335 e73c
000000b0: f879 b6bc 8305 aa3d 57b2 d0bd 8d65 903b
000000c0: 4e06 30bc efdb ec3d 42c0 5b3d 3e61 c93c
000000d0: f959 fbbc 4966 b9bc c40e 0a3e e55b ca3b
000000e0: 65cb 54bd 556a 163e 7189 5fbe e8b0 e4bd
000000f0: 8c45 8d3d dda8 aebd 29b8 e9bd 7f3c 96bc
00000100: 3263 573d 6bc9 25bc 62ca 76bd 0110 3dbd
00000110: 040d 213d 8189 f63d 07c5 ddbb 4b46 873d
00000120: a033 0dbd ee02 3f3d 1efa bf3c fcf2 05bb
00000130: 712f 55bd 77d2 a13d 8537 85bd 5c55 3abc
00000140: b864 92bd 4542 6b3d 403c 953d 88f9 1cbd
00000150: b941 a63d fc05 49bd 6dc9 a13d 69f6 053e
00000160: 2fd6 debd d77b 753d b541 323d 104a 8c3d
00000170: 0083 003b bb70 b63c 9389 86bd 4bc5 d5bd
00000180: 51b6 683c 46e3 43be 8c76 b9bc b5c1 e1bc
00000190: 1eec 543d ec52 9d3d 87b2 0a3a 5fab fa3b
000001a0: d1d7 30bd a317 b03a 2430 4a3c e492 38bd
000001b0: 31f6 a3bb 462a 15be f1c4 e6bc 458e 343d
000001c0: 03d6 593d 2446 90bc 46b5 493d c157 b7bd
000001d0: 5be9 bf3d aadb 2fbe 80fe 4d3e 7100 bfbd
000001e0: 5715 c63a a36b 02be 5cdc a33c 79c5 d13c
000001f0: 8752 0a3d 550a 01bc b25f 42bd 1bef cfbc
00000200: aacd 643d 0450 c03c 8a2b 7fbd 4e2b 30be
00000210: 7e9e 15bd 24dd db39 5080 de3d a981 e8bb
00000220: d78c a73a f662 003d f072 22bd fc9b a23d
00000230: 8500 a0bc daf5 e6bc 7fcc cb3c e003 e6bc
00000240: f58d 43be 0162 063d 196b 8b3d 8160 9a3c
00000250: 206f 87bd aab8 42be f87f a9bd 0633 be3d
00000260: 3da5 0cbe 2115 173d f0df 343d 4950 15bc
00000270: a3c4 a3bc b000 95bd 72b4 023d da92 d93d
00000280: befd edbb 3e87 9a3d d066 3e3d 91f2 073c
00000290: abe0 ba3d 274d 333d bfc1 dd3d a560 483d
000002a0: 8c6e dc3b 9549 68bd ea83 2e3e f6fe 713e
000002b0: 803f 91bd 1bc8 2dbd 9a65 c0bc f8cb 9dbd
000002c0: 692c 5bbe 4689 a03c 21ec f33d ffa7 d2bc
000002d0: 2b50 15bd 1625 19be 8374 013d 0410 2838
000002e0: 81e4 75bd 0f17 c23c d17a e6bc 17fb 59bd
000002f0: 72cc 0cbd 6ad3 a23d 133b 90bd ac83 ad3c
00000300: 312f 18bd 8f92 28be 7d89 7ebd 3312 edbd
00000310: 5c1c 1bbd 699a 3f3d 6dee d03d c65a 9dbc
00000320: de55 7dbd c0f6 d03d 8f84 9d3d 2f68 153e
00000330: 7664 113d b856 193d 0417 203d 34ea 743d
00000340: da65 dcbc 9458 2b3d b8de cf3b 1fb2 f23a
00000350: a167 103d b828 fc3c cb5f 24be 4c90 94bd
00000360: 4652 893e e3d5 213c f9a9 b93c 2b34 f4b9
00000370: 3875 783d 0878 02bd 8b9e a7bc 2315 abbd
00000380: a819 193a c198 cbbc 6c09 a7bd 5f2c 34ba
00000390: 31c9 7abd 04c5 c53d 6503 803d 94e1 fe3d
000003a0: 02a3 f6bb ed9e 6c3c 0d7a d2bb 71be b23d
000003b0: 03f5 20bc a68b d2ba ce39 bfbd e4a5 88bc
000003c0: 27ed 2b3d 7aee 89bc 86c1 29bc e2b4 34bd
000003d0: 7eb8 7f3d e3fe 2dbd 1df7 87bd 7de0 63be
000003e0: fdde 813d 7750 6cbe c1e9 88bd 66ef cabd
000003f0: 6aad 253e 6e2c 893d 02a8 0a3d e9c7 063d

actor.2.bias f4 [256]
-0.042620175 -0.050068166 0.03423263 0.010415124 -0.009904491 0.0033325134 -0.032948036 -0.01301071
0.017308954 0.059011 0.014179985 -0.019547848 -0.021652143 0.0148458965 0.03362717 0.06502231
0.021151818 -0.01162724 0.04580941 0.06798633 0.01580643 -0.036498297 0.03880545 -0.05629297
-0.006453149 -0.040588405 -0.05768712 -0.090315536 -0.028925411 -0.088486366 0.09157061 0.0838151
-0.0539481 0.020535115 0.087954745 0.0738582 -0.043153275 0.0224941 0.009711455 0.018941693
0.119362935 0.037713997 0.05863784 0.028552227 -0.04471593 -0.040512115 -0.13669412 0.050836127
0.041239824 -0.011576907 0.014837957 -0.014276569 -0.03071883 0.13649945 0.041002743 -0.011557984
-0.05017821 -0.057630602 -0.0046065613 0.090180635 -0.031074533 0.012728018 -0.029714495 -0.018342255
0.058392316 -0.07743933 0.06527524 -0.043994177 0.040501125 0.0358247 0.012473999 0.041477866
-0.017791962 0.0505705 -0.0040975087 -0.01984683 -0.04625167 -0.032250345 0.10895266 0.014843793
-0.0776113 0.054932468 -0.0054900893 0.091369085 -0.020246455 0.03362316 0.045786325 -0.062440526
-0.08247455 0.013156624 0.078638785 -0.007690861 0.059866883 0.025445238 0.038731005 -0.004454854
-0.028708732 -0.060434632 0.015390098 0.031788856 -0.04051824 -0.010904895 0.044951964 0.030455539
-0.028594606 -0.07923036 -0.0389492 0.036197737 -0.040160343 -0.08543644 0.014326525 -0.02377493
-0.00810135 0.029377237 -0.01740405 -0.015685324 -0.0130808335 0.11588156 0.055948325 0.01999338
0.029210374 -0.028200144 0.08275175 -0.08105274 0.034805387 0.05706418 -0.039321948 0.004579571
0.0526474 0.03433076 -0.022622006 -0.025148451 0.03484479 -0.021641782 0.050859828 0.052020874
0.04542964 -0.018353108 -0.077409305 -0.047323484 0.14457864 -0.043277696 0.055240277 -0.030552989
-0.022380294 -0.02846148 -0.033298835 0.08606971 0.075098135 -0.099249564 0.012454938 0.061800577
0.073120005 -0.04612606 -0.053875405 0.024245813 0.050576914 -0.000245257 0.027495518 -0.037731398
-0.0719595 0.013101601 0.048318375 -0.03357967 0.08075282 0.05653941 -0.035581805 0.11190695
0.0004915252 0.04759975 -0.014284045 -0.024750382 0.05304676 -0.04717062 -0.0013492666 0.039428
0.013608969 0.006577084 -0.06896253 0.017634837 -0.083336666 0.06950548 -0.020974588 -0.15032417
0.014351857 0.017821858 -0.0033097335 -0.06491903 -0.045154765 -0.027766079 -0.048839953 -0.029037626
0.037255697 -0.019105412 0.054861307 -0.054404788 0.007865741 -0.067533806 -0.0083053205 0.032033607
0.030514535 0.1354952 -0.034801874 0.0767832 0.0069352714 0.12571873 -0.018795157 -0.03597296
-0.08738669 0.13316207 -0.0040884153 0.04203028 -0.04149057 -0.034792986 0.02749799 -0.033460908
-0.078472115 -0.011314939 -0.067151465 -0.018883634 0.0022021872 -0.008663648 -0.022471223 0.011555466
-0.013701226 0.0060873046 0.009931049 -0.14212137 -0.07436492 0.10781676 0.059421536 -0.050363738
-0.0883607 0.0665745 -0.011216936 -0.025074415 0.104788415 -0.026624504 -0.055826236 -0.027285999
-0.0115809 -0.023924613 -0.037901487 -0.046329893 0.10057728 0.100227274 -0.020529963 -0.06422312
0.053097762 0.06177444 -0.052157424 -0.12636566 -0.0037996445 0.006249497 -0.018620953 0.057278
00000000: 7e92 2ebd 4714 4dbd 8437 0c3d 32a4 2a3c
00000010: 7246 22bc 4c66 5a3b 85f4 06bd df2a 55bc
00000020: 82cb 8d3c 85b5 713d 2b53 683c cf22 a0bc
00000030: d65f b1bc 343c 733c a5bc 093d 6b2a 853d
00000040: 9446 ad3c 2e80 3ebc a6a2 3b3d 6b3c 8b3d
00000050: 7c7c 813c 3d7f 15bd 77f2 1e3d 7593 66bd
00000060: f074 d3bb 0740 26bd 5449 6cbd 5af7 b8bd
00000070: fcf4 ecbc 5738 b5bd 5f89 bb3d 40a7 ab3d
00000080: aff8 5cbd 4239 a83c 9e21 b43d f842 973d
00000090: 7dc1 30bd 8c45 b83c cb1c 1f3c 9c2b 9b3c
000000a0: 8e74 f43d fe79 1a3d 3b2e 703d 5ce6 e93c
000000b0: 0d28 37bd 08f0 25bd 8bf9 0bbe 8b39 503d
000000c0: 17eb 283d 11ad 3dbc e71a 733c 45e8 69bc
000000d0: 0ea6 fbbc 83c6 0b3e 7ef2 273d b35d 3dbc
000000e0: ab87 4dbd 110e 6cbd a3f2 96bb a0b0 b83d
000000f0: 0590 febc 2d89 503c d06b f3bc 7f42 96bc
00000100: c82c 6f3d 8398 9ebd 06af 853d 3d33 34bd
00000110: 82e4 253d ecbc 123d be5f 4c3c b2e4 293d
00000120: 73c0 91bc 0323 4f3d 6544 86bb d295 a2bc
00000130: 6472 3dbd f018 04bd 9222 df3d 6133 733c
00000140: acf2 9ebd de00 613d 35e6 b3bb b71f bb3d
00000150: e5db a5bc 70b8 093d 718a 3b3d a3c1 7fbd
00000160: 6be8 a8bd e18e 573c 5f0d a13d 9e03 fcbb
00000170: fa36 753d 8872 d03c 67a4 1e3d 06fa 91bb
00000180: 932e ebbc 4e8a 77bd c026 7c3c 0835 023d
00000190: 74f6 25bd 72aa 32bc 8d1f 383d e57d f93c
000001a0: 3c3f eabc 8743 a2bd 3289 1fbd 1444 143d
000001b0: 2c7f 24bd 4df9 aebd cdb9 6a3c a4c3 c2bc
000001c0: 86bb 04bc 88a8 f03c f092 8ebc 827e 80bc
000001d0: fe50 56bc 5053 ed3d 122a 653d 28c9 a33c
000001e0: 984a ef3c fd03 e7bc c079 a93d fbfe a5bd
000001f0: 1890 0e3d 21bc 693d 0d10 21bd 3a10 963b
00000200: cda4 573d 699e 0c3d c951 b9bc 2004 cebc
00000210: 69b9 0e3d 1b4a b1bc 6552 503d d713 553d
00000220: 6e14 3a3d 4259 96bc c588 9ebd 45d6 41bd
00000230: 6c0c 143e f443 31bd a143 623d 434a fabc
00000240: e156 b7bc 0d28 e9bc 5c64 08bd 5145 b03d
00000250: 0dcd 993d 5b43 cbbd cc0f 4c3c 9a22 7d3d
00000260: f1bf 953d aeee 3cbd 75ac 5cbd 289f c63c
00000270: bd29 4f3d d695 80b9 483e e13c 3d8c 1abd
00000280: 815f 93bd 19a8 563c 7de9 453d d68a 09bd
00000290: bc61 a53d de95 673d 3abe 11bd 792f e53d
000002a0: b3d9 003a f5f7 423d a107 6abc 50c1 cabc
000002b0: 8f47 593d fb35 41bd e0d9 b0ba 417f 213d
000002c0: 27f8 5e3c 9484 d73b 3a3c 8dbd ef76 903c
000002d0: 6aac aabd e458 8e3d e6d2 abbc 94ee 19be
000002e0: 0d24 6b3c 25ff 913c 1de8 58bb 45f4 84bd
000002f0: 34f4 38bd b075 e3bc 670c 48bd 51e0 edbc
00000300: 6e99 183d f482 9cbc 40b6 603d 8ed7 5ebd
00000310: 4fdf 003c 2a4f 8abd 0a13 08bc ac35 033d
00000320: 9ef9 f93c 41bf 0a3e 698c 0ebd 8340 9d3d
00000330: 4641 e33b 69bc 003e 4df8 99bc 6258 13bd
00000340: cbf7 b2bd a35b 083e 1df8 85bb f127 2c3d
00000350: 04f2 29bd 1783 0ebd 7743 e13c 4e0e 09bd
00000360: fdb5 a0bd 4b62 39bc b586 89bd dab1 9abc
00000370: 9252 103b f9f1 0dbc 9215 b8bc 2353 3d3c
00000380: 1b7b 60bc 0378 c73b d7b5 223c 4488 11be
00000390: a34c 98bd 09cf dc3d ff63 733d 354a 4ebd
000003a0: 74f6 b4bd 3658 883d 3dc7 37bc dc68 cdbc
000003b0: 4f9b d63d a21b dabc 0daa 64bd e386 dfbc
000003c0: d1bd 3dbc 8dfd c3bc 973e 1bbd 6ac4 3dbd
000003d0: 76fb cd3d f543 cd3d 742e a8bc 6987 83bd
000003e0: 0a7d 593d 3207 7d3d 06a3 55bd 0066 01be
000003f0: 7503 79bb 95c8 cc3b f88a 98bc 569c 6a3d

actor.4.weight f4 [4, 256]
-0.024667636 0.09877945 -0.05244963 -0.028708667 0.12963194 0.09277766 0.05196435 0.006978318
-0.050939377 -0.05605015 0.15024388 0.10785664 0.14121893 0.1034368 0.062002502 0.1826473
0.15130526 0.12078358 0.053049847 0.16187023 0.10766285 0.012082216 0.2872126 -0.08256499
0.09966337 0.1656075 0.2101319 -0.10891965 0.07569311 -0.12338075 0.0056574875 0.13341238
0.11582585 0.08628676 0.13857262 -0.1272784 0.09531996 0.08635063 0.15361273 -0.14318362
0.17915018 0.121030994 0.24994627 -0.08714555 -0.01278786 -0.11571112 0.003653826 0.29299706
0.11761501 0.040167063 0.11813379 -0.13767967 0.05785385 -0.027598761 -0.2528773 -0.124297194
-0.1222471 -0.03383775 -0.14071724 -0.016576529 0.09436928 -0.0810346 -0.048152994 -0.08570633
-0.016738618 0.011372467 -0.041839194 0.17164476 -0.038744114 0.18320805 0.20972997 -0.22881445
-0.007054883 0.04141091 0.010584848 -0.02990097 0.017778108 0.12482523 0.15405048 0.23669773
0.092508264 -0.04666999 0.08474985 0.061998554 0.05623639 -0.055065434 0.101354375 0.011279057
-0.06441568 -0.010160807 -0.102460265 0.13757996 0.11077895 0.07167638 0.0033390536 0.009300949
-0.17941341 -0.21328732 -0.1972654 0.15662871 0.02087906 0.034904562 0.37178022 -0.16440795
0.18097515 0.16500372 0.009188654 -0.060926348 -0.08860871 0.22040366 0.046225518 -0.045043986
0.15505925 0.045473073 -0.024321755 0.015575703 -0.06938805 0.054662824 -0.12617517 -0.09459834
0.09364191 -0.053361237 0.11959384 -0.15923159 0.081589 0.07905206 -0.23095265 -0.12809014
0.20513733 -0.3092853 -0.021370996 -0.077275 0.058460295 -0.13148382 -0.072759524 -0.17482178
0.13984525 -0.14283562 0.10070381 0.12050989 -0.037644666 -0.016909236 0.079356395 -0.024262048
0.09678808 0.035626203 0.07152368 0.009647256 -0.06712927 -0.25569624 0.011800855 0.11042554
-0.07317003 0.0318822 -0.059580687 -0.07796042 0.026260111 0.11638648 -0.059857883 0.012856084
-0.016874658 0.06218882 0.097808145 0.008348465 0.06745569 -0.18433687 0.14750989 0.014660316
0.26139513 -0.06053032 -0.045953 0.088496655 -0.052221697 0.08499292 -0.034412332 -0.03740086
-0.07950093 -0.01883858 0.106955595 0.20409432 0.088117264 -0.045571018 -0.047658052 0.017870367
0.3512158 -0.021148361 -0.013103895 0.13778986 0.114272006 0.2954476 0.22401056 0.051733207
0.19399716 -0.09605862 0.20699935 -0.18035533 -0.08596806 -0.129118 0.010576249 0.32335147
0.04706218 0.012646897 -0.068357654 0.040648203 -0.03669925 0.00053548004 0.25761765 -0.057286248
-0.1349473 0.026137838 0.042920057 -0.11801939 -0.09998581 0.10995144 -0.18029498 -0.17606717
-0.1298317 0.0005499213 0.038029425 -0.04104586 0.0918583 -0.14792718 0.0055936314 0.19005454
-0.07223832 -0.023691703 -0.09434531 -0.028896118 -0.18831503 -0.050046295 -0.0676351 0.32244554
-0.02071016 -0.097264476 0.013260129 0.1460414 0.051574785 -0.11640491 0.06452426 -0.04178493
-0.111767836 -0.093561284 -0.047120683 0.09218767 0.1446241 0.05736139 -0.16161856 -0.23760448
-0.102115065 0.021084169 0.03166154 0.0444304 0.060858425 -0.35617554 -0.111967266 0.011297266
00000000: c813 cabc e14c ca3d 6cd5 56bd 702e ebbc
00000010: 3cbe 043e 3702 be3d 92d8 543d 60aa e43b
00000020: cfa5 50bd d894 65bd 88d9 193e f1e3 dc3d
00000030: b29b 103e acd6 d33d 56f6 7d3d e507 3b3e
00000040: c4ef 1a3e 625d f73d cc4a 593d 4fc1 253e
00000050: 577e dc3d 7df4 453c 880d 933e d517 a9bd
00000060: 4f1c cc3d 0395 293e d12c 573e 4411 dfbd
00000070: fd04 9b3d 0caf fcbd 7262 b93b 419d 083e
00000080: 1a36 ed3d 1db7 b03d fbe5 0d3e 4555 02be
00000090: 1c37 c33d 99d8 b03d a84c 1d3e ba9e 12be
000000a0: 2573 373e 19df f73d eaf1 7f3e 5e79 b2bd
000000b0: 2c84 51bc f4f9 ecbd 0775 6f3b b603 963e
000000c0: 23e0 f03d 3886 243d 21f0 f13d e6fb 0cbe
000000d0: 29f8 6c3d cc16 e2bc 2279 81be 878f febd
000000e0: b05c fabd 7499 0abd 2e18 10be 80cb 87bc
000000f0: ae44 c13d 78f5 a5bd 133c 45bd cd86 afbd
00000100: 6d1f 89bc 9553 3a3c 935f 2bbd a5c3 2f3e
00000110: 26b2 1ebd e49a 3b3e 74c3 563e 564e 6abe
00000120: a62c e7bb 7d9e 293d 126c 2d3c e1f2 f4bc
00000130: 65a3 913c 5fa4 ff3d 69bf 1d3e e460 723e
00000140: f974 bd3d 0829 3fbd 5491 ad3d 32f2 7d3d
00000150: 2158 663d 4b8c 61bd e292 cf3d cbcb 383c
00000160: 5eec 83bd 8379 26bc b0d6 d1bd c3e1 0c3e
00000170: 13e0 e23d 11cb 923d 06d4 5a3b 0263 183c
00000180: 26b8 37be fe67 5abe f1ff 49be 4763 203e
00000190: 900a ab3c 16f8 0e3d fa59 be3e 8f5a 28be
000001a0: 8d51 393e bcf6 283e 028c 163c e88d 79bd
000001b0: 7c78 b5bd 7fb1 613e f856 3d3d 0b80 38bd
000001c0: dac7 1e3e f941 3a3d 6b3e c7bc 3c31 7f3c
000001d0: 521b 8ebd 20e6 5f3d 1034 01be c6bc c1bd
000001e0: 54c7 bf3d 5091 5abd 9ded f43d 9b0d 23be
000001f0: 2218 a73d 0ce6 a13d da7e 6cbe 102a 03be
00000200: 850f 523e a55a 9ebe 3a12 afbc 5b42 9ebd
00000210: 1074 6f3d b2a3 06be f202 95bd 7b04 33be
00000220: 9833 0f3e 8043 12be cd3d ce3d e4cd f63d
00000230: 4b31 1abd 3d85 8abc 9b85 a23d 34c1 c6bc
00000240: d438 c63d c8ec 113d 027b 923d 860f 1e3c
00000250: 127b 89bd 9eea 82be 6058 413c c926 e23d
00000260: 2bda 95bd e996 023d e10a 74bd b6a9 9fbd
00000270: 721f d73c 095c ee3d 8a2d 75bd 53a2 523c
00000280: b93c 8abc b4b9 7e3d a34f c83d 00c8 083c
00000290: 3526 8a3d cec2 3cbe d50c 173e d231 703c
000002a0: 95d5 853e a4ee 77bd 3739 3cbd bc3d b53d
000002b0: 6be6 55bd c510 ae3d f2f3 0cbd a531 19bd
000002c0: 62d1 a2bd 5e53 9abc 890b db3d 1afe 503e
000002d0: d376 b43d ada8 3abd 1735 43bd e064 923c
000002e0: 8fd2 b33e 543f adbc b8b1 56bc c918 0d3e
000002f0: 7107 ea3d e844 973e 0663 653e 33e6 533d
00000300: 31a7 463e 62ba c4bd a3f7 533e 11af 38be
00000310: 0610 b0bd 8237 04be 0148 2d3c 538e a53e
00000320: 46c4 403d ee34 4f3c 19ff 8bbd bb7e 263d
00000330: f451 16bd 755f 0c3a 76e6 833e fca4 6abd
00000340: a02f 0abe 051f d63c f1cc 2f3d 26b4 f1bd
00000350: 5cc5 ccbd 382e e13d 3f9f 38be f44a 34be
00000360: 9af2 04be 9828 103a bec4 1b3d b41f 28bd
00000370: 3420 bc3d 397a 17be c84a b73b a89d 423e
00000380: aff1 93bd 1a15 c2bc 1d38 c1bd 8db7 ecbc
00000390: a8d5 40be 58fd 4cbd 4584 8abd 9517 a53e
000003a0: 5aa8 a9bc 9932 c7bd 0341 593c e08b 153e
000003b0: 1540 533d b365 eebd 4c25 843d ad26 2bbd
000003c0: 89e6 e4bd 0f9d bfbd 9e01 41bd e4cc bc3d
000003d0: 5718 143e c7f3 6a3d 567f 25be 974e 73be
000003e0: b421 d1bd b5b8 ac3c 88af 013d a7fc 353d
000003f0: af46 793d a45c b6be 184f e5bd 2b18 393c

actor.4.bias f4 [4]
-0.03424569 -0.038440134 -0.0038829271 0.07486438
00000000: 3545 0cbd 6773 1dbd b578 7ebb 7f52 993d

critic.0.weight f4 [256, 24]
-0.10130136 0.17936032 0.012539797 -0.13661544 -0.17666659 0.13130936 -0.113768876 0.0066041034
0.10528238 -0.15878126 0.15761936 0.0068680476 -0.02909971 -0.14286608 0.11407549 0.026384283
-0.16429648 0.070019744 -0.1210923 0.13845167 0.13373362 -0.0574714 0.18546276 -0.062012274
-0.06967447 -0.088976786 -0.0776667 -0.08323303 -0.2065747 -0.13636264 0.16147932 -0.08705783
-0.099802546 -0.16932586 0.050808 -0.040739257 -0.01123149 -0.08170998 -0.05901543 -0.0051576816
0.062423863 -0.02802755 0.15344052 0.19791232 0.07719676 -0.07512348 0.14258379 0.19769041
0.15046994 0.040245105 0.13101359 0.20237973 0.18037845 0.10579087 0.054256983 0.027625041
-0.041923508 -0.041495 -0.08806635 -0.15104084 0.054012794 0.18448897 0.04843719 0.16804512
-0.1928332 0.01824944 -0.18924879 -0.061307658 -0.07520243 -0.16250019 0.033864427 0.08182442
-0.15555866 -0.1755321 -0.12997724 -0.060844682 0.021839645 0.13783988 0.12864023 -0.06552908
-0.049492054 0.021605102 -0.009108898 0.071676664 -0.19811696 0.01882015 0.13099179 -0.026583817
0.077791974 -0.19407064 0.17933686 0.14767478 -0.022568015 -0.1664516 0.16894883 0.15485387
0.1886168 -0.007011884 -0.10356201 0.10688628 -0.07566801 0.03179406 0.0003977008 0.09731036
0.21417412 0.14642507 -0.083614305 -0.011492223 0.035402652 0.072809815 -0.09564659 -0.121298105
-0.060932536 -0.0013056899 0.07580135 0.17822422 0.10945899 -0.058814697 0.017110841 0.09950387
-0.0684339 0.11421478 0.060737967 -0.029452268 -0.18760593 0.15966004 -0.016515976 0.09217529
0.1594191 0.117543995 -0.022419382 0.13621919 -0.006269057 -0.091217496 -0.09265024 -0.18495452
-0.07833761 0.17887029 -0.037998177 -0.013557992 -0.054189797 -0.17358123 -0.10165169 -0.056581516
0.11251989 -0.047381252 0.14129706 0.19759361 -0.0021937008 0.108648434 0.06879082 -0.02436963
0.033164933 -0.070763126 -0.14463003 0.17733356 0.0751586 0.1728656 -0.15598935 0.03028428
-0.1603644 0.12824106 0.16912776 0.15023948 0.058909934 0.012559921 0.0151736615 -0.14952257
0.017865142 -0.024542363 -0.05647126 -0.0963373 0.08865056 -0.18813437 0.10517441 0.04403739
-0.124325626 0.12139924 -0.11146918 0.18201232 0.10155584 -0.15173571 0.058345057 0.20350483
-0.11565445 -0.10566766 0.00018307734 0.011537705 -0.17796357 0.12585793 0.20331664 -0.02697134
0.024777573 -0.18708871 -0.10196834 -0.091031834 -0.12783818 0.010303454 0.030767467 0.012194552
0.19091102 -0.17333366 -0.090971515 0.14975224 0.08281732 0.06455135 -0.033758312 0.07621131
0.056263328 -0.0026049716 -0.087411575 0.011310346 -0.1619667 -0.18765058 -0.18347509 -0.06682493
0.072601885 0.13773681 0.18650906 -0.16168031 0.17771524 -0.10770252 0.09481578 -0.16726673
-0.14315349 0.16694698 0.06295986 -0.1496189 -0.11113385 -0.060839497 -0.023535933 0.056920197
-0.10701222 0.10994949 0.20745091 -0.101476245 0.0341671 0.10049361 0.17062892 -0.08983119
-0.032848276 0.0023737492 -0.15884224 0.15659401 -0.15530108 -0.05553409 -0.04614267 0.02675908
-0.15382612 -0.11080651 0.10424124 0.0004771756 -0.06732707 -0.04009637 0.19764914 -0.035626993
00000000: 1677 cfbd 3baa 373e b973 4d3c ebe4 0bbe
00000010: 16e8 34be f675 063e a8ff e8bd 3c67 d83b
00000020: 4a9e d73d 8e97 22be f866 213e 5c0d e13b
00000030: 8462 eebc 7c4b 12be 69a0 e93d da23 d83c
00000040: 563d 28be 8366 8f3d 3dff f7bd 46c6 0d3e
00000050: 77f1 083e 2167 6bbd f3e9 3d3e 9500 7ebd
00000060: 7db1 8ebd 7639 b6bd b80f 9fbd 1476 aabd
00000070: 5188 53be a6a2 0bbe d65a 253e 604b b2bd
00000080: 4765 ccbd c263 2dbe 0d1c 503d 35de 26bd
00000090: 4904 38bc 9057 a7bd 2aba 71bd c501 a9bb
000000a0: 2ab0 7f3d 089a e5bc 831f 1d3e 87a9 4a3e
000000b0: 5619 9e3d 57da 99bd 7c01 123e 5b6f 4a3e
000000c0: cb14 1a3e 0dd8 243d 6d28 063e a23c 4f3e
000000d0: 21b5 383e e2a8 d83d 923c 5e3d e94d e23c
000000e0: fcb7 2bbd a9f6 29bd 215c b4bd 73aa 1abe
000000f0: 853c 5d3d adea 3c3e 1366 463d 0514 2c3e
00000100: 1176 45be d97f 953c 6fca 41be bd1d 7bbd
00000110: bb03 9abd 7366 26be 6db5 0a3d 9093 a73d
00000120: c54a 1fbe b0be 33be c118 05be 4638 79bd
00000130: 0ee9 b23c e625 0d3e 44ba 033e 1c34 86bd
00000140: 2eb8 4abd 2ffd b03c 7d3d 15bc 37cb 923d
00000150: 2cdf 4abe b72c 9a3c b622 063e 4ec6 d9bc
00000160: 6651 9f3d 74ba 46be 15a4 373e 0f38 173e
00000170: 8fe0 b8bc 4a72 2abe ec00 2d3e 0392 1e3e
00000180: c324 413e f2c3 e5bb 5218 d4bd 32e7 da3d
00000190: d4f7 9abd 7d3a 023d 7f82 d039 a74a c73d
000001a0: 7650 5b3e 74f0 153e fa3d abbd e049 3cbc
000001b0: 5f02 113d 501d 953d 5ce2 c3bd 246b f8bd
000001c0: 6594 79bd af23 abba bd3d 9b3d 6980 363e
000001d0: 092c e03d aee7 70bd 092c 8c3c afc8 cb3d
000001e0: 1327 8cbd 70e9 e93d 60c8 783d e245 f1bc
000001f0: c51b 40be ec7d 233e 834c 87bc 66c6 bc3d
00000200: c33e 233e e8ba f03d daa8 b7bc 0b7d 0b3e
00000210: a96c cdbb 3dd0 babd 69bf bdbd b864 3dbe
00000220: 786f a0bd c629 373e faa3 1bbd 5722 5ebc
00000230: 1ff6 5dbd 47bf 31be c32e d0bd 05c2 67bd
00000240: d470 e63d d812 42bd 2db0 103e fb55 4a3e
00000250: 31c4 0fbb 1283 de3d 34e2 8c3d d1a2 c7bc
00000260: f4d7 073d 42ec 90bd e519 14be ee96 353e
00000270: c1ec 993d ae03 313e acbb 1fbe bd16 f83c
00000280: 9136 24be a051 033e d42f 2d3e 61d8 193e
00000290: 8b4b 713d 20c8 4d3c f39a 783c 721c 19be
000002a0: eb59 923c 110d c9bc 684e 67bd 7e4c c5bd
000002b0: 6d8e b53d 4ca6 40be ae65 d73d 8d60 343d
000002c0: 6f9e febd 2aa0 f83d f449 e4bd 7061 3a3e
000002d0: 82fc cf3d 9b60 1bbe 3afb 6e3d 9263 503e
000002e0: 3edc ecbd 4968 d8bd 73f8 3f39 a408 3d3c
000002f0: 153c 36be e7e0 003e 3d32 503e 00f3 dcbc
00000300: 56fa ca3c 2f94 3fbe c7d4 d0bd e66e babd
00000310: 03e8 02be d1cf 283c 0e0c fc3c a9cb 473c
00000320: 2e7e 433e 617e 31be 464f babd a758 193e
00000330: 219c a93d 8033 843d 2846 0abd ad14 9c3d
00000340: 6074 663d 2cb8 2abb d704 b3bd 084f 393c
00000350: 99da 25be 7927 40be e5e0 3bbe 82db 88bd
00000360: 4cb0 943d e10a 0d3e 3bfc 3e3e 868f 25be
00000370: fcfa 353e 2493 dcbd c72e c23d f847 2bbe
00000380: d496 12be 26f4 2a3e 19f1 803d b235 19be
00000390: 259a e3bd d632 79bd 6ece c0bc 2725 693d
000003a0: 3929 dbbd 332d e13d 036e 543e c7d2 cfbd
000003b0: cdf2 0b3d 98cf cd3d 59b9 2e3e 6af9 b7bd
000003c0: ea8b 06bd e790 1b3b 8aa7 22be 2e5a 203e
000003d0: 3f07 1fbe b777 63bd 1900 3dbd dc35 db3c
000003e0: 9884 1dbe 86ee e2bd 6e7c d53d 6d2d fa39
000003f0: c6e2 89bd 173c 24bd 8964 4a3e 9ced 11bd

critic.0.bias f4 [256]
0.108352065 0.062415045 -0.1384441 -0.09409123 -0.14587218 -0.100324996 0.059608117 0.037308782
0.12150309 -0.060883056 0.16502504 -0.13002542 -0.045102403 0.012258125 0.026616104 -0.029212864
0.13509779 0.013911726 -0.17706196 -0.07735365 -0.18400021 -0.16856846 0.05958117 0.12709717
-0.20443043 0.114672475 0.030299531 0.23770213 -0.1699731 0.15776679 0.14232989 0.14826429
-0.076436155 -0.14982234 -0.11211504 -0.16490068 0.16172187 -0.057938445 -0.027595267 0.06826851
-0.19813283 -0.11785146 -0.10317856 0.03582142 -0.075064264 0.017930964 -0.114955 -0.18552415
-0.015553078 -0.030476402 0.070205435 -0.033498395 0.06231399 -0.1760035 -0.089884624 0.1645471
0.1640555 -0.19838932 -0.14498076 0.1690115 -0.16985416 0.15100077 0.08476461 -0.12535387
-0.10209899 0.09533984 0.114895865 0.070569254 -0.14375776 0.118740864 -0.05971479 -0.011917916
0.13784295 0.08700174 0.04273016 -0.065837145 0.09064895 0.0670001 0.084454685 -0.07132304
-0.17277059 -0.059126135 0.14712684 0.13767287 0.100844525 0.15698145 -0.071774006 -0.09816156
-0.036132965 -0.013553585 -0.1894613 -0.01641333 -0.12651275 0.054463267 -0.04558468 -0.070661
-0.087882996 0.20456159 -0.019125685 0.17218941 -0.060606405 -0.078734346 0.12797333 0.14527056
0.19719324 0.14486751 0.072227344 -0.03627962 -0.051887944 -0.19748935 0.083541416 -0.09974907
0.08462916 -0.15231453 0.01110949 0.21102954 -0.1234754 -0.04291726 -0.059884977 -0.008913718
0.0954038 -0.018835139 -0.06124683 0.14101796 0.08130946 0.07777957 0.028674392 -0.13513155
-0.065749 0.11442578 -0.012561845 -0.19933437 -0.18654612 0.114843614 -0.016361838 -0.16111085
-0.19033623 -0.124178134 0.20023969 -0.0792976 0.101809375 -0.15970325 0.0105169965 -0.13113205
0.18172139 -0.15205368 -0.18799053 -0.050653923 0.059027944 -0.18281104 -0.09594051 0.1904129
0.059508815 0.12669452 0.015875297 -0.0442401 0.084078185 0.03125132 0.05679332 -0.060183913
-0.0405176 0.14116725 -0.12873745 0.108483665 -0.020487834 0.046796713 0.083341144 0.12806654
-0.13923518 0.15584253 0.15639922 -0.019020343 -0.20354551 0.06605047 -0.15280055 0.1704414
0.15711293 -0.043982558 -0.14760108 0.10802192 -0.090059 0.03105965 -0.0101683205 0.044277973
0.10088961 0.157021 0.03693679 0.082976736 0.08508953 -0.10690175 0.15225422 0.19208181
-0.1046357 -0.14615709 0.0857835 0.0535613 0.07522604 0.08868504 0.012335293 -0.15842475
0.14438324 0.19599251 0.006542444 -0.09674093 0.07261638 -0.085744604 -0.10657518 0.13614489
0.17044862 -0.04559726 -0.17886353 -0.036114495 0.09262663 0.039344646 -0.09006626 0.097495034
-0.16814856 0.03029992 -0.10596933 -0.0177924 0.07151868 0.07237804 0.08501348 0.04563902
0.077802874 0.03908449 -0.051553775 -0.15346368 -0.09697963 0.029202107 -0.049771577 0.1725054
-0.009568522 0.13892093 -0.13878575 -0.21512063 -0.19754872 -0.15170342 0.067310326 -0.12597616
0.09823782 0.05007226 -0.008793868 0.016860325 0.002053012 -0.075456 -0.073344514 0.07160211
-0.007233284 -0.12069656 0.037216328 -0.1641339 -0.17169444 0.12209562 -0.13185054 0.08757826
00000000: b0e7 dd3d eba6 7f3d 4ac4 0dbe e7b2 c0bd
00000010: 845f 15be 3177 cdbd a427 743d 18d1 183d
00000020: 9dd6 f83d 8360 79bd 53fc 283e 6225 05be
00000030: 4cbd 38bd 4dd6 483c 040a da3c d14f efbc
00000040: 1357 0a3e 02ee 633c bb4f 35be 976b 9ebd
00000050: 8d6a 3cbe 369d 2cbe 630b 743d c325 023e
00000060: 3656 51be 67d9 ea3d b936 f83c 3068 733e
00000070: 6e0d 2ebe 9e8d 213e edbe 113e 98d2 173e
00000080: 8f8a 9cbd 076b 19be 929c e5bd b9db 28be
00000090: 6b9a 253e dd50 6dbd 780f e2bc 5cd0 8b3d
000000a0: 55e3 4abe 1b5c f1bd 484f d3bd 7bb9 123d
000000b0: 4bbb 99bd f5e3 923c 876d ebbd 0bfa 3dbe
000000c0: 56d2 7ebc a6a9 f9bc dec7 8f3d 9d35 09bd
000000d0: f43c 7f3d 433a 34be 6e15 b8bd 097f 283e
000000e0: 2afe 273e 9226 4bbe d675 14be 5a11 2d3e
000000f0: 40ee 2dbe f29f 1a3e 1199 ad3d c45c 00be
00000100: 4619 d1bd 8941 c33d 864e eb3d 9d86 903d
00000110: 3c35 13be 692e f33d 7f97 74bd 5d43 43bc
00000120: b426 0d3e f82d b23d d205 2f3d a0d5 86bd
00000130: 28a6 b93d 5937 893d 94f6 ac3d d011 92bd
00000140: c6ea 30be 3f2e 72bd 6ba8 163e 1efa 0c3e
00000150: 9387 ce3d bfbf 203e 40fe 92bd ee08 c9bd
00000160: 2900 14bd db0f 5ebc 2502 42be 3f75 86bc
00000170: 8f8c 01be e014 5f3d 00b7 3abd b7b6 90bd
00000180: 00fc b3bd 9878 513e 78ad 9cbc 6c52 303e
00000190: 6c3e 78bd 793f a1bd 710b 033e cec1 143e
000001a0: 06ed 493e 2658 143e eeeb 933d f099 14bd
000001b0: 7488 54bd a63a 4abe c317 ab3d 3e49 ccbd
000001c0: 0e52 ad3d 57f8 1bbe 9404 363c 2118 583e
000001d0: ace0 fcbd 02ca 2fbd f349 75bd d80a 12bc
000001e0: 1163 c33d 264c 9abc f5dd 7abd 0367 103e
000001f0: 9385 a63d e54a 9f3d 8fe6 ea3c ed5f 0abe
00000200: 69a7 86bd 1058 ea3d 32d0 4dbc 4f1e 4cbe
00000210: f205 3fbe 2133 eb3d 4309 86bc 3efa 24be
00000220: 80e7 42be 1b51 febd a20b 4d3e c866 a2bd
00000230: 6f81 d03d 4089 23be 7b4f 2c3c 7b47 06be
00000240: 2c15 3a3e f6b3 1bbe 9780 40be 7d7a 4fbd
00000250: 49c7 713d d132 3bbe 757c c4bd 99fb 423e
00000260: 84bf 733d 35bc 013e e90c 823c 1b35 35bd
00000270: 2f31 ac3d 6201 003d 1da0 683d 6883 76bd
00000280: c8f5 25bd 268e 103e c0d3 03be af2c de3d
00000290: 1ad6 a7bc e9ad 3f3d c3ae aa3d e023 033e
000002a0: ab93 0ebe 2f95 1f3e 1e27 203e 8dd0 9bbc
000002b0: 3c6e 50be 7845 873d bf77 1cbe 3188 2e3e
000002c0: 36e2 203e 0e27 34bd bd24 17be 993a dd3d
000002d0: da70 b8bd cf70 fe3c 0799 26bc d25c 353d
000002e0: 369f ce3d 1dca 203e 084b 173d b5ef a93d
000002f0: 6b43 ae3d 4eef dabd 88e8 1b3e 18b1 443e
00000300: 3e4b d6bd 34aa 15be 42af af3d 1863 5b3d
00000310: 1c10 9a3d 81a0 b53d f819 4a3c 193a 22be
00000320: 33d9 133e 43b2 483e 0062 d63b 1c20 c6bd
00000330: e6b7 943d de9a afbd 1744 dabd 9169 0b3e
00000340: 158a 2e3e 31c4 3abd 0028 37be cbec 13bd
00000350: 08b3 bd3d da27 213d a974 b8bd 7aab c73d
00000360: 232f 2cbe 8a37 f83c 7306 d9bd 5ec1 91bc
00000370: 6378 923d f03a 943d 8c1b ae3d fbef 3a3d
00000380: 1d57 9f3d 0f17 203d 0d2a 53bd 9525 1dbe
00000390: 429d c6bd 4239 ef3c 48dd 4bbd 41a5 303e
000003a0: 4ac5 1cbc 4a41 0e3e da1d 0ebe 9548 5cbe
000003b0: 364a 4abe 2458 1bbe ffd9 893d e5ff 00be
000003c0: e930 c93d 9218 4d3d 2814 10bc aa1e 8a3c
000003d0: d38b 063b ad88 9abd a635 96bd 21a4 923d
000003e0: 2f05 edbb c22f f7bd 2670 183d b812 28be
000003f0: abd0 2fbe 450d fa3d d403 07be 3b5c b33d
