Policy Gradient/walker_ppo_model_16400.pth (torch, 34323 bytes, 11 tensors)

actor.0.weight f4 [64, 24]
000000 3b fa ad bd a6 df dc 3e 3c a7 0b bd 03 06 45 3f
       -0.08494993 0.4313938 -0.034095034 0.769623
000010 4f 1f 18 be 40 5a b2 bd cb f1 53 3f a7 80 1a be
       -0.14855693 -0.0870862 0.8279082 -0.1508814
000020 22 29 6c be 51 57 fa bd c2 51 62 3c 59 61 8e be
       -0.23062566 -0.122236855 0.013813438 -0.27808645
000030 b2 f6 88 3d 25 cf 4d 3d a2 40 7b 3e c6 bd 4d 3e
       0.066876784 0.050246377 0.24536374 0.20091924
000040 3d c2 74 3d 7b 4b 57 bc 4d 14 55 3e a4 c0 fa bd
       0.059755553 -0.013140555 0.20808525 -0.122437745
000050 7f 44 9c 3d b2 49 38 3e bb 08 13 3e f2 be 1b 3d
       0.07630252 0.17996863 0.14358799 0.038023897
000060 b9 80 0d 3d 1c 50 1f ba 58 66 78 3e 5a 02 97 3d
       0.034546588 -0.0006077306 0.24257791 0.073734954
000070 75 29 82 3e 55 c2 46 3e 4e cc 57 3f b8 59 e7 bd
       0.25422254 0.1941007 0.8429612 -0.11296409
000080 6c b7 3d be 23 2f 51 bd d4 8e aa 3d 51 cf ea 3c
       -0.18527001 -0.051070344 0.083280236 0.02866331
000090 85 5b 8a bc 86 34 bf 3d 56 e6 15 3e f5 9b d9 3d
       -0.016889343 0.0933619 0.14638647 0.106254496
0000a0 a9 55 98 bc c9 02 03 3e 2d 57 ae bd 76 34 84 3d
       -0.018595533 0.12794031 -0.08512721 0.06455319
0000b0 ac 8c 4a 3d 08 71 2e bd e3 a2 99 3b b6 43 0e 3e
       0.04945056 -0.042588264 0.004688607 0.13893017
0000c0 59 9a 00 3b 2a 8f f2 be 10 ed ac bc 73 2a 16 bf
       0.0019623248 -0.4737485 -0.021109134 -0.5865852
0000d0 84 df 4e be 3f f9 95 3d 56 d7 06 3f 10 3b 9f 3d
       -0.20202452 0.073229305 0.52672327 0.07774937
0000e0 6c 69 5a be 52 48 1b 3e 16 bc 53 be 0d 78 a7 3e
       -0.21329278 0.15164307 -0.20677218 0.3270878
0000f0 a1 bd b2 bd 21 be 80 3e 7a 85 7f be 14 08 73 be
       -0.08727575 0.25145057 -0.24953261 -0.2373355
000100 59 c4 64 be f9 44 93 3c 1a 66 77 be 1e 26 c3 3d
       -0.22340526 0.017977225 -0.24160042 0.09528755
000110 56 68 7f bd 07 af 27 be b5 e1 4a be e3 b2 17 bd
       -0.062355362 -0.16375361 -0.19812663 -0.037035834
000120 bb 59 7d be e3 44 22 be 07 cd 16 be 99 62 87 be
       -0.2474126 -0.1584659 -0.14726649 -0.26442412
000130 d0 8d df be db 25 32 be 52 2c ca 3c f4 ef 45 be
       -0.43662882 -0.17397253 0.024679337 -0.19329816
000140 6e 8c b9 bd 93 73 25 3e b8 55 d4 3d 02 74 20 bd
       -0.09059988 0.1615737 0.10367912 -0.039173134
000150 a0 c1 ac 3d fa c5 94 3c 29 51 2f be c0 e5 82 be
       0.084353685 0.018160809 -0.17120804 -0.2556591
000160 89 67 2f be 8b a7 89 3d 98 3e 93 bd ff aa 55 3d
       -0.1712934 0.067214094 -0.07189673 0.052165028
000170 8d e4 af 3c a0 9a 2e be e3 f1 11 3e 64 de 56 3d
       0.021471286 -0.17051172 0.14252429 0.052458182
000180 36 60 be bd 6e 43 45 be 5a d3 9d be 9d 3b df be
       -0.092956945 -0.19264004 -0.3082531 -0.4360017
000190 14 c7 8e 3d 75 56 76 bd 07 f0 e9 be ae 81 2c bd
       0.06971565 -0.060141046 -0.4569094 -0.04211586
0001a0 f2 a0 81 bd 3d 17 16 bd 8f a5 ad 3c 06 80 03 3f
       -0.06329526 -0.036643256 0.021197109 0.51367223
0001b0 df 76 47 3e c4 3e 63 3e 24 4c 8f 3d 0d 80 84 3d
       0.1947894 0.22191912 0.069969445 0.06469736
0001c0 9d 77 66 be 55 8f 08 bd 99 b9 d8 bd f7 79 71 bd
       -0.22506566 -0.033339817 -0.10582275 -0.058954205
0001d0 36 7c df 3c 3e 35 1a be 7e 5e 2e be 5b 8b 94 3d
       0.027280908 -0.15059373 -0.17028233 0.072531424
0001e0 b9 ab 1c 3e 51 0d b0 be 9a 1c ae 3d 35 0d b4 be
       0.15299882 -0.3438516 0.08501549 -0.35166326
0001f0 77 af 9d 3d e7 b6 0a 3d 71 39 dd 3e 3c 28 dc bc
       0.07699483 0.033865836 0.43207887 -0.026874654
000200 9a de 1c 3e 4d 7a 8b bd 87 f3 a0 bd d1 cd ad 3d
       0.15319291 -0.068104364 -0.07858949 0.08486522
000210 c8 62 cb bd b2 e9 83 3e 59 1d e3 bc 08 d5 04 be
       -0.099309504 0.25764233 -0.027723955 -0.1297189
000220 f1 e3 60 3b 4c 07 23 3e 17 66 ea bd cb 02 11 be
       0.0034315551 0.15920752 -0.11445253 -0.14161222
000230 49 3f 13 bd 7a 11 78 3d 67 15 d8 bd f3 8c b4 3c
       -0.035949025 0.060563542 -0.10550957 0.022039866
000240 76 33 84 bd c9 8d ba be 89 60 9d 3d b7 37 1c bf
       -0.06455128 -0.36436298 0.07684428 -0.61022514
000250 8d 5a 8f be 13 f9 33 3e 03 45 91 3e 07 a4 2f 3d
       -0.27998772 0.17575483 0.28372964 0.042881038
000260 a3 93 81 3d de b4 3d 3e 90 d0 8b 3d bf eb 88 3e
       0.063269876 0.18526027 0.068268895 0.2674236
000270 b8 4a 22 3e 58 b2 21 3e 23 33 96 bc 1f fa f7 3c
       0.15848815 0.15790689 -0.01833493 0.030270634
000280 82 25 b3 3d 34 2f 8d 3d 76 24 37 be a7 be 80 3d
       0.087473884 0.06893769 -0.17885002 0.06286364
000290 a6 aa e8 bd 34 69 82 bd 18 4b 37 be 93 cf 2a bd
       -0.113606736 -0.06367722 -0.1789974 -0.041701864
0002a0 f6 73 9d bd a5 f6 3d 3e 1e 0a 71 3e e6 60 24 3f
       -0.076881334 0.18551119 0.23539016 0.64210355
0002b0 ea d8 91 3e bf c8 ed 3c c5 78 02 3f 53 66 3c 3c
       0.28485805 0.029026387 0.5096553 0.011499005
0002c0 a3 24 17 bc 4b 3f a2 bc f5 1a eb bd 55 36 c8 be
       -0.0092250435 -0.019805571 -0.11479751 -0.39103952
0002d0 61 f1 01 be 3e 99 55 3c 11 44 64 3e f1 f4 fe 3d
       -0.12689735 0.013037024 0.2229159 0.124490626
0002e0 76 7f 07 3e 2f 89 21 3d 18 73 8b 3d ae 54 27 bd
       0.13232216 0.03943747 0.06809062 -0.04085224
0002f0 35 ae 08 3e 89 70 15 3e 9f 89 b0 3d dd e5 5d be
       0.13347705 0.1459371 0.08619999 -0.21669717
000300 4f ef 63 bd 37 73 ab be c2 da 91 be 27 9a af be
       -0.055648144 -0.3348634 -0.2848721 -0.34297296
000310 c5 42 93 3e b9 3f e5 bc 79 ad 35 bf 92 03 44 3d
       0.2876188 -0.027984487 -0.70967823 0.047854967
000320 fd 39 89 3e 45 da 54 bd 4d 08 2e 3c f9 b6 62 3e
       0.26802054 -0.05196597 0.010622096 0.22140111
000330 58 60 9c bd a6 10 37 be 04 e4 0b 3e 92 7a fc bb
       -0.076355636 -0.17877445 0.136612 -0.007705041
000340 5c f7 44 bd d4 c3 c8 bd 84 d9 85 3b 41 6e 01 3e
       -0.048087463 -0.09802976 0.004084768 0.12639715
000350 0d c3 f8 3d 0a 36 95 bd 8a 3b 09 be 0c 90 2a 3e
       0.12146578 -0.07285698 -0.13401619 0.16656512
000360 e8 7f 1c be a9 2f c3 3c 39 2c 83 be fb 1c 08 bf
       -0.15283167 0.023826437 -0.25619677 -0.5316922
000370 ff 9d 6c be 42 b3 87 bd 4b 3e 46 bf 28 97 d9 bd
       -0.23107146 -0.066259876 -0.774388 -0.10624534
000380 62 ba bc 3d 32 8d 33 3e 3d 3e 39 3e 63 5e 21 be
       0.09215237 0.1753433 0.18090148 -0.15758662
000390 7b 4d 91 3d a6 02 83 3d b4 b4 5d bd 53 fe 31 be
       0.07094856 0.063969895 -0.05412741 -0.17382173
0003a0 7f a2 a6 3d 44 23 39 be 85 b4 44 bd 79 8a 93 be
       0.081364624 -0.18079859 -0.04802372 -0.28816584
0003b0 ff 3f a1 bd 73 35 09 be 80 87 53 3d 15 9b da 3d
       -0.078735344 -0.13399296 0.051642895 0.10674111
0003c0 0f 6a eb bc 02 63 eb 3e ef f6 2e 3e 82 fe dd 3e
       -0.028737096 0.45973974 0.17086385 0.43358237
0003d0 d2 d1 61 3e 33 cd 23 bd 86 08 66 3e 33 e0 94 3c
       0.22052696 -0.039990615 0.22464189 0.018173313
0003e0 5c a2 01 bd b2 34 95 bd 58 3f 52 3e 05 54 d1 be
       -0.03164898 -0.072854415 0.20531976 -0.40884414
0003f0 4b 3d bf 3d df 62 db bd 01 16 e4 bc 22 56 a3 3d
       0.093378626 -0.107122175 -0.027842524 0.07975413

actor.0.bias f4 [64]
000000 70 78 29 be d0 d0 0f be 51 b2 85 3e d6 97 5b bb
       -0.1654985 -0.140445 0.26112607 -0.003350725
000010 d2 bb 88 3e a9 6d a5 bd 97 0f ef bd a1 a8 a1 bd
       0.26705796 -0.08077557 -0.116728954 -0.078934915
000020 3a d0 3f be 3d 84 13 3e c2 a1 1b be 98 f2 e3 3b
       -0.18731776 0.14405914 -0.15198424 0.0069564097
000030 86 cf fc bd 16 e3 43 bc 01 9f 1c bd 85 ee 73 bb
       -0.123442695 -0.011955997 -0.038237575 -0.0037221026
000040 21 f4 7b bd 81 a7 fb bd 45 90 2d 3e e1 5e 06 3e
       -0.061512116 -0.12287808 0.16949566 0.13122131
000050 f8 d9 91 bd 8d 03 e6 3d 69 e4 68 3e 38 01 bd bd
       -0.07121652 0.11231146 0.22743382 -0.09228748
000060 46 2d 2c be 5a dd 11 3e d3 34 a4 bc e1 3b 44 be
       -0.16814145 0.14244595 -0.02004472 -0.19163467
000070 6c 87 0e be d2 62 41 be 59 15 11 3e c0 c0 fd bd
       -0.13918847 -0.18885353 0.141683 -0.1239028
000080 5d 85 3c be 28 8e 2f 3e 82 70 36 be 88 fe 33 be
       -0.18410249 0.17144072 -0.17816356 -0.17577565
000090 e4 ba a4 bd 99 32 88 bc da cf d0 3d 45 c9 24 3e
       -0.08043459 -0.01662569 0.101958945 0.16092403
0000a0 af 35 3c 3e 62 d1 09 3e 65 46 05 3e b5 dc 1b 3d
       0.18379854 0.1345878 0.13015135 0.03805228
0000b0 7a c5 21 3e d9 97 49 bc bf 3c d3 3d 71 5d 4d bd
       0.15797988 -0.01230427 0.10314321 -0.05013794
0000c0 59 b9 98 3d 9a d5 69 bd 67 0d 49 be 6f 6f 9b 3d
       0.07457227 -0.057088472 -0.19634019 0.07589614
0000d0 f3 58 f2 3c ed 6b 87 3d 11 d0 06 be 59 c0 f2 3d
       0.02958343 0.06612382 -0.13165309 0.11853094
0000e0 8c af 07 3e 90 d3 36 3e 97 62 9e bd df 21 11 bc
       0.1325056 0.17854142 -0.07733648 -0.008858173
0000f0 30 3a e6 3d c4 dd f1 bb 9e c1 30 bd a9 73 36 3e
       0.11241567 -0.007381173 -0.043153398 0.17817558

actor.2.weight f4 [32, 64]
000000 dc bb 8d 3c d7 d4 8b 3d 41 3e e4 3c 83 73 8f be
       0.017301492 0.06827705 0.027861716 -0.28017816
000010 a4 01 21 3d 3f 86 ea 3d d2 5f 3c 3e 9b 38 39 3d
       0.039308205 0.11451387 0.18395928 0.04522
000020 b8 88 6a 3e 32 3a 83 be 28 5a 4b 3e f7 4d 67 3e
       0.22903717 -0.25630337 0.1985861 0.22588335
000030 6a a3 04 3d b9 6b dd 3c 3f 14 70 3d ae f6 f7 bd
       0.032382406 0.027028905 0.05861306 -0.12107597
000040 bf 2b 8e 3a e8 40 9a 3e 63 24 bf 3d 12 4d fc bd
       0.0010846778 0.30127645 0.09333112 -0.123193875
000050 e2 8c 84 3e 1b e9 cb be c2 7b 0a bf 91 96 0a 3d
       0.25888735 -0.39826283 -0.5409509 0.033834998
000060 45 08 9e 3d 32 e6 0c 3e 4d 8f 6e 3e 3e 22 9c bd
       0.07716421 0.13759688 0.23296852 -0.07623719
000070 43 3c d6 3d db 02 3a 3e b3 0c af 3c 00 05 18 3d
       0.10460713 0.18165152 0.02136836 0.037114143
000080 06 29 81 3d cc c7 24 3d bf e0 cd 3c b0 fd 01 3e
       0.06306653 0.040229604 0.025131581 0.1269443
000090 9b 42 aa 3c fa ad 04 be 6a 06 8c bd e1 64 7e be
       0.020783713 -0.12956992 -0.06837161 -0.2484317
0000a0 7a 03 1f be 0c 49 c6 bd af e2 f8 bd f0 95 3a be
       -0.1552867 -0.09681901 -0.121526115 -0.18221259
0000b0 13 d8 fc 3b b8 6e 50 3e 74 22 45 bc 14 7f 4a be
       0.0077161877 0.20354736 -0.01203214 -0.19775039
0000c0 3c e3 5c 3d 67 52 5e 3d 76 fd 7a 3e 84 ce 99 be
       0.053927645 0.054277804 0.2451075 -0.3004037
0000d0 d0 8b 49 3d f6 7c 9e bd dd fe 70 be 11 89 4b bc
       0.0492056 -0.07738678 -0.23534723 -0.012422816
0000e0 2d 2f 05 bc 66 ea 73 bd db 8b 2d bd 08 ad 67 3d
       -0.008128923 -0.05954971 -0.042369705 0.0565615
0000f0 b8 5c 84 be bf 60 52 be 70 aa f8 3b 93 47 3c be
       -0.2585199 -0.20544718 0.007588677 -0.18386678
000100 a8 d1 0c bf c8 6f 67 be e2 f3 89 bd db 26 38 bd
       -0.5500741 -0.22601235 -0.0673597 -0.04495893
000110 a0 5f b5 3e 2e 87 f9 bc b3 c8 73 bd aa dd ee be
       0.3542452 -0.030459967 -0.059517574 -0.4665349
000120 ff ba 9a 3e 40 09 7a 3e 2b 11 2b be bf b3 e3 3d
       0.30220792 0.24417591 -0.16705768 0.11118268
000130 8c c2 da bd ca f4 00 3f 30 1c b3 be ee 0b 46 be
       -0.10681638 0.5037352 -0.34982443 -0.19340488
000140 cd 96 19 be 19 fd b5 3d 5b 3b 13 be c3 6a 9a be
       -0.14998932 0.08886165 -0.14378111 -0.30159578
000150 97 07 2e be 1d df 96 be 7d 0e 1e bc 5d 17 6c be
       -0.16995083 -0.29467097 -0.009647009 -0.23055787
000160 10 b3 b2 bc 36 ec cb 3c 79 d5 02 3d 44 80 75 3c
       -0.0218139 0.024892908 0.031941865 0.014984194
000170 e6 a7 5f be 5a 29 89 bc e7 11 5e 3c ca 13 4a 3c
       -0.21841392 -0.01674335 0.013554073 0.01233382
000180 82 70 12 be e1 a9 d9 3d 22 a0 72 be 90 57 93 bd
       -0.14300731 0.10628105 -0.23693898 -0.071944356
000190 68 69 fe bd e1 e8 52 bb 0e 59 58 be 11 c0 d4 3e
       -0.124224484 -0.0032182264 -0.21127722 0.41552785
0001a0 04 85 53 3e 48 a3 b3 3b 1c cc 4a 3e 27 d1 3f 3b
       0.2065621 0.005482111 0.19804424 0.0029268952
0001b0 91 07 89 bd 0f b7 3a be 20 a3 62 3e 67 e8 1d bd
       -0.06690896 -0.18233894 0.2213254 -0.038551714
0001c0 c2 57 72 be f8 17 86 bc 32 d7 06 be 8d e9 58 3d
       -0.2366629 -0.016368851 -0.13168028 0.052957106
0001d0 ed 4e 85 3d 5f 2e d0 3d 81 78 fe be 68 93 8c 3d
       0.065091945 0.101650946 -0.49701312 0.06864053
0001e0 09 50 26 3e f4 9e ab 3c ed d8 6e bc 88 d0 f5 3d
       0.16241468 0.020949818 -0.014578086 0.12002665
0001f0 39 72 9d bc 98 d1 21 3d ed 41 94 bd 55 fc cd 3e
       -0.019219505 0.039506525 -0.07239137 0.40231577
000200 d6 99 26 bd 31 7d d4 bc 09 3f 0a 3e 63 b9 8c 3e
       -0.040674053 -0.025938602 0.13500609 0.2748519
000210 e8 1b 37 3d 87 ef 30 bd 80 c9 e9 3d d3 44 8d be
       0.044704348 -0.04319718 0.11415386 -0.2759157
000220 26 37 a7 bd 26 96 e9 3d f3 07 60 bd 8c a9 9f be
       -0.081648156 0.11405592 -0.05469508 -0.31184042
000230 f6 99 30 be 92 9b 40 bd 04 aa 7f bd 99 ac 00 be
       -0.17246231 -0.047023363 -0.062418 -0.12565841
000240 27 df 30 be d3 93 d3 bd 0c e0 a8 3c 68 d9 77 3e
       -0.17272626 -0.103309296 0.020614646 0.24204028
000250 94 17 26 be d1 1d 93 3e e4 d9 ad 3e 03 94 c4 3c
       -0.16219932 0.28733686 0.339553 0.023996359
000260 b8 cb 9d 3c e3 61 89 bd ce 78 c8 bd 26 ad b5 bd
       0.01926218 -0.067081235 -0.09788667 -0.08870916
000270 6d 30 ef bc cb 5b e6 bd bb a5 06 3c 72 dd 58 be
       -0.029197896 -0.11247977 0.008218224 -0.21178225
000280 73 6f af 3d e8 d3 06 3e 16 c9 fb 3d a8 ad 33 be
       0.08566179 0.13166773 0.122942135 -0.17546713
000290 98 36 09 ba 73 ca d0 3d 64 cb f8 bb 1a 17 7c 3e
       -0.00052342704 0.10194864 -0.0075926054 0.24618188
0002a0 82 62 1e 3e 77 08 a4 3e 3b 9d a1 3d 44 a5 12 be
       0.15467265 0.32037708 0.078913175 -0.14320856
0002b0 cb 04 1a 3e 72 60 e1 be 1f 34 81 bd 54 d5 ae 3e
       0.15040891 -0.44018894 -0.063087694 0.3414713
0002c0 d6 d3 b2 bc 34 29 e7 bc bb 4a 17 be 29 a9 30 3d
       -0.021829527 -0.02821789 -0.14774601 0.043130074
0002d0 02 25 2d be 06 6c 1f 3e 02 fb 67 3e f4 7a 8f 3d
       -0.16908649 0.15568551 0.22654346 0.07005873
0002e0 83 4d 51 bd 7f 20 23 bd d8 d4 e2 3d 31 a1 ce 3c
       -0.05109931 -0.039825913 0.11075753 0.025223346
0002f0 58 91 26 3e ec 40 58 3d 0b 24 83 3d 65 8e 66 3e
       0.16266382 0.05279629 0.06403359 0.22515257
000300 c7 2f a0 3d 26 20 ab 3e 66 52 ef 3e 6f cf 1a 3e
       0.07821613 0.33422965 0.46742553 0.15118192
000310 b5 4d 22 be 1d 91 0e 3e d1 0c 7f 3e ec 3d aa 3c
       -0.15849955 0.13922544 0.24907233 0.02078148
000320 20 04 9a be 52 0b 41 be 80 8f 32 be c7 97 2f be
       -0.30081272 -0.18851975 -0.17437553 -0.17147742
000330 e1 b9 85 3c 03 a8 97 be 3b 0b 3f 3e 4c 53 40 3e
       0.016323986 -0.2962037 0.18656628 0.18781775
000340 ec 9d 4b bd db a1 bc be 46 87 fc 3d 6f 14 0e 3f
       -0.049711153 -0.36842236 0.12330489 0.5549993
000350 db f6 15 bc 78 4c 43 3e 87 df e0 3d 1d 22 1c 3b
       -0.009153093 0.1907214 0.109801345 0.0023824044
000360 0a 7f eb 3d eb 1a 81 3b 83 64 b6 3c 1c 8a b8 bd
       0.1149884 0.0039399765 0.022264725 -0.09010717
000370 04 05 41 3e dd da 51 3d 08 51 a3 be 40 56 15 bf
       0.1884957 0.051234115 -0.3189776 -0.5833473
000380 a7 ea 01 be d0 18 be 3e 2d f7 21 3e 45 a2 e3 bd
       -0.12687169 0.37128305 0.15816946 -0.11114935
000390 fc 4d ab bc 30 4a ce bd 93 47 99 3e c8 de 69 be
       -0.02091121 -0.10072744 0.2993742 -0.2283889
0003a0 3a de 49 3e 61 d2 ae 3c ef aa 90 bd a2 c7 ff bc
       0.19713679 0.02134055 -0.07063853 -0.031223122
0003b0 c7 25 a5 3e 7d 32 c2 3c 58 5c 6c 3e 1b 92 7a 3e
       0.32255384 0.023705715 0.23082101 0.24469797
0003c0 a5 36 b2 3e 99 c7 bf 3d a4 81 db be d7 55 49 3e
       0.34807315 0.09364242 -0.42872345 0.19661652
0003d0 9f b7 80 be 2d ad d9 bd 14 85 7e 3c 2b c6 6c be
       -0.25140092 -0.10628734 0.015534658 -0.2312247
0003e0 f4 89 8e bc d1 11 33 3e 93 46 02 3e b3 15 25 3d
       -0.017399766 0.17487265 0.12722234 0.040303897
0003f0 5f 5f 92 3e 07 51 63 3d a8 1d 81 bd 02 ef c1 3d
       0.28588387 0.055497196 -0.063044846 0.09469415

actor.2.bias f4 [32]
000000 1a ee 2f bd 7e 3e 0b 3e 1b 27 89 3d 91 46 5d 3d
       -0.04295168 0.13598058 0.06696912 0.054022375
000010 80 59 ab bc 85 52 cc bd 1a 3b 3d bd 8b 81 e5 3c
       -0.0209167 -0.09976677 -0.04619894 0.028015872
000020 6b 89 b9 3b 8d 0a 82 3d a1 3e 9d bd ec 97 0e bd
       0.0056621335 0.06349669 -0.07677961 -0.034812853
000030 22 1e e2 bd 7e d9 9d 3d 30 2f c2 bc 25 c5 f3 bb
       -0.11040904 0.07707499 -0.023704141 -0.007439273
000040 6b e8 ff 3d 45 3a 7d bd 11 ab 83 3d 8b 9e bd 3c
       0.12495502 -0.06182315 0.06429113 0.023146888
000050 2c 6f 6b 3d 1b be 53 3c 0e 5a 35 bd c7 87 0d 3e
       0.05747907 0.012923743 -0.044275336 0.13821326
000060 d2 41 22 be 73 97 b8 3d f8 ec e9 3c 26 f6 a4 bd
       -0.15845421 0.09013262 0.028555378 -0.080547616
000070 52 8e 30 ba 7d 65 7e bd c1 36 03 3e 58 8d 1d be
       -0.00067350746 -0.062108506 0.12813856 -0.1538595

actor.4.weight f4 [4, 32]
000000 5f 2a b3 be ae 26 b1 bd 8d ff 00 3f 7b 12 46 3e
       -0.34993264 -0.08649956 0.5038994 0.19342987
000010 8d e9 7c be cb 52 05 bf 63 f1 c0 bd 2b 8e ca 3d
       -0.24698468 -0.5207946 -0.09421041 0.09890398
000020 f0 56 4f 3e 89 75 de be 1d ca 4c be 6b 73 bc 3c
       0.20248008 -0.43449047 -0.19998975 0.023004254
000030 15 da 89 bf f6 18 fb 3d 09 24 f2 3e 40 79 5f 3e
       -1.0769678 0.1226062 0.47293118 0.21823597
000040 65 7b 0e 3d 16 08 e8 3d ee 9f 87 3e 39 6d 3b 3f
       0.034785647 0.11329667 0.26489204 0.73213536
000050 d5 67 eb 3d e6 d3 d3 3e 09 55 18 3e 3c db 55 3f
       0.11494414 0.41372603 0.14876188 0.8353765
000060 b5 fd 66 be f8 5b 25 be 26 de a3 3b 90 7d 4f 3e
       -0.22557719 -0.16148365 0.0050008474 0.20262742
000070 31 da 35 be 44 10 b7 be 6e db 03 3e 1f 6d 4d be
       -0.17759015 -0.35754597 0.12876675 -0.20061158
000080 31 6e 3f be e3 8c 45 3f 42 27 c4 3e 66 5d af be
       -0.18694378 0.771681 0.383112 -0.34250945
000090 43 9a 5d be c1 63 af 3d 25 ee ce be fd 86 d1 be
       -0.21640877 0.085639484 -0.40416065 -0.409233
0000a0 c1 b0 f1 be a8 e2 a9 bb 15 ae 35 3f e6 b4 92 3f
       -0.47205165 -0.0051844902 0.70968753 1.1461456
0000b0 e6 aa 8a 3d 5f 33 be 3e 3b aa 37 3e 0b a0 35 bf
       0.067708775 0.37148568 0.17936032 -0.7094733
0000c0 5a 98 ef 3e 8b e3 a7 bc 6f 02 30 3f 27 7c 92 3d
       0.46795923 -0.020494243 0.68753713 0.071525864
0000d0 05 51 78 be 9d 4a 9d 3e 74 3e 00 3f 5b ad df bb
       -0.24249656 0.30720988 0.50095296 -0.0068260855
0000e0 af 50 6d be 65 d8 35 3e a7 2b 7e 3d 50 01 14 bf
       -0.2317531 0.17758329 0.06205335 -0.578145
0000f0 2e 65 0b 3f cc 0a 94 be 93 26 e9 be 44 d7 fa be
       0.5445126 -0.28914487 -0.45537242 -0.4899236
000100 41 90 17 3d 64 9d 61 3c db f6 67 be c0 37 d0 be
       0.037002806 0.013770435 -0.22652762 -0.40667534
000110 92 19 ef bd 2e b0 0f 3e 67 67 99 be 01 b6 c1 be
       -0.11674799 0.14032051 -0.29961702 -0.3783417
000120 7e a6 92 be ad 65 a6 3d 41 3e 53 be 1c 9d 33 3e
       -0.28642648 0.08124862 -0.20629217 0.17540401
000130 7b 8f 4a 3e 39 2d 60 3e 2b 06 30 bc 8f 4d 74 3d
       0.19781296 0.21892251 -0.010743658 0.05964428
000140 fb d0 64 3e 0e 24 cf be b7 e2 14 be 6d 94 88 be
       0.22345345 -0.40457195 -0.1453961 -0.2667574
000150 bb ee 1c 3c ef 42 21 3d a7 56 a3 be 85 29 d5 bd
       0.009578402 0.039370473 -0.31902048 -0.1040831
000160 2f e0 75 bd 9a 8f db 3d 49 cb 22 3d c7 01 96 be
       -0.06002825 0.10720749 0.03974465 -0.2929823
000170 ab 9b 3d bd 8b 1b 1e 3e f0 5a da 3e 46 19 06 3d
       -0.046291035 0.15440194 0.42647505 0.032738946
000180 a7 68 73 bd 18 21 4e be 1d ea 9d 3c 68 db ef bd
       -0.059425976 -0.20129812 0.019276673 -0.1171177
000190 e4 de e1 be 55 e8 55 3e 01 7d 87 be 37 93 9d bd
       -0.44115365 0.20889409 -0.26462558 -0.07694095
0001a0 f7 1b ca bd e3 a7 c5 3e 3d 8c f9 bc e4 c2 39 3e
       -0.09868615 0.3860465 -0.030462379 0.18140751
0001b0 c6 3f 83 bd 5a d1 6e be de dd cc be 07 39 16 3e
       -0.06408648 -0.23322049 -0.4001302 0.14670192
0001c0 c7 4b ac be 21 65 48 bf 7d 0a 24 3e 44 88 c4 3c
       -0.33651564 -0.7827931 0.16019626 0.023990758
0001d0 f3 04 b8 be 78 ea d4 be 20 41 a9 be 15 f4 ee 3d
       -0.35941276 -0.41585135 -0.330575 0.11667649
0001e0 66 8d cf 3e 88 21 1e bf 70 ea 2e bf 98 47 4f 3d
       0.40537566 -0.61769915 -0.68326473 0.050605386
0001f0 65 3a 83 3e 39 89 a4 be d0 3b d0 3e 81 c4 41 be
       0.2563049 -0.32135943 0.40670633 -0.18922617

actor.4.bias f4 [4]
000000 79 8a 13 3e 6b f3 b8 bd 68 9b 54 3e 82 87 3b be
       0.14408292 -0.09030803 0.20762408 -0.18313411

critic.0.weight f4 [64, 24]
000000 90 61 4e 3e 99 85 0c 3e 4c 11 27 3e f7 d2 ff bd
       0.20154405 0.13722838 0.16315192 -0.1249141
000010 78 16 85 bd b7 a5 9e bd d7 0a 9e 3d 1f d7 d8 3d
       -0.06498426 -0.07746451 0.07716911 0.10587906
000020 95 ad 31 3e be cd f9 bd b3 ce 5c 3d 2a c7 1c bd
       0.17351373 -0.12197445 0.05390806 -0.038275875
000030 3e cd 3f 39 95 5a 51 3e a6 c3 12 be bb c6 a4 bd
       0.00018291638 0.2044471 -0.14332446 -0.08045717
000040 2c a6 30 3d 94 c6 c4 3d 0e 97 4b bd 46 98 1a bd
       0.043127224 0.09608188 -0.049704604 -0.037742876
000050 22 c3 87 bd 5d ba eb bb 0c 53 24 be 19 7e 94 bd
       -0.066290155 -0.007193847 -0.16047305 -0.07250614
000060 36 88 7d 3c 13 29 1d 3e 32 15 0e 3e 50 a2 27 3d
       0.01547437 0.153477 0.13875273 0.040926278
000070 02 f9 92 bd a0 83 1c 3e 22 44 31 be 70 a4 85 3d
       -0.07176401 0.15284586 -0.17311147 0.065255046
000080 ef c3 0b 3d f3 e8 f8 bc 7a e8 3a 3e 2f ae d8 3d
       0.034122404 -0.030384516 0.18252745 0.10580098
000090 5d 76 3e 3e 3d cb 03 be e7 73 a3 bd 48 1f 19 be
       0.1859984 -0.12870498 -0.07981091 -0.14953339
0000a0 f3 b7 da 3d 91 ff 24 be d5 75 72 3d 74 38 f4 3d
       0.10679617 -0.16113116 0.059194405 0.1192483
0000b0 da 51 33 3d 6a ee e1 3c db ba 9d bd 6f da 45 bd
       0.04377923 0.027579505 -0.077016555 -0.048304018
0000c0 36 e7 af bd 0a 83 88 3d b2 2a be 3d 5e a9 83 bd
       -0.08589022 0.06665619 0.09285487 -0.064287886
0000d0 7e 48 17 be 99 ee b5 bd 75 19 d7 bd 3d 12 88 bd
       -0.14773747 -0.088833995 -0.105029024 -0.06644104
0000e0 16 07 1d 3e dd 9c 0d 3e df 5a 10 3e ab 68 a2 3a
       0.15334734 0.1382937 0.14097165 0.0012390813
0000f0 d5 66 50 bd ce bf 21 3e 99 2a 56 be cc da 00 3c
       -0.05087932 0.15795824 -0.20914687 0.007864665
000100 6f 3c 1b be 8e 59 ec bd ea dc ce 3d 8a 97 37 be
       -0.15159772 -0.11540519 0.1010073 -0.17928901
000110 8c c8 e8 bd c0 40 22 be 81 0a 46 3e 27 f7 86 bd
       -0.11366376 -0.15845013 0.19339944 -0.06590109
000120 01 c5 1f 3e a9 ad d3 bd d4 4d 0c 3e 12 a7 ad bd
       0.15602495 -0.103358574 0.13701564 -0.08479132
000130 7e 39 3e 3d e4 88 c2 3d 1b f3 eb 3d ec 58 d5 bd
       0.046441548 0.09498766 0.11520978 -0.10417351
000140 10 86 14 3e 5f a4 0c 3e 98 aa 63 3d 1c eb 97 3d
       0.14504266 0.13734578 0.055582613 0.074178904
000150 2f a0 7f bd 37 eb a9 3d 44 2e e9 3d 62 6f f4 3d
       -0.062408622 0.08296817 0.113857776 0.11935307
000160 9c 6c c7 3c b2 10 2d be ae 42 33 3e 74 72 31 be
       0.024343781 -0.169009 0.17505905 -0.17328817
000170 dc 2c 24 be a2 2f 4b 3c f2 b3 0f 3d d8 37 0f 3e
       -0.16032737 0.012401493 0.03508372 0.13986146
000180 52 ea 0a be bd c6 ed bb 25 c6 d6 bd 38 00 65 be
       -0.13565949 -0.0072563575 -0.10487012 -0.22363365
000190 8b f9 03 3e 71 06 a3 bc 71 f1 f3 3d b8 f2 0d bd
       0.12888162 -0.019900532 0.11911286 -0.034655303
0001a0 f4 2e f0 3d 6a fa 0e be 0c 5d 35 3d 36 99 a1 bd
       0.117277056 -0.13962713 0.04427819 -0.07890551
0001b0 2e ee 86 3b ae 58 40 bd ea 6b 4c be 57 10 bb bd
       0.0041177487 -0.04695957 -0.19963041 -0.09133976
0001c0 b0 7e 08 3e f2 f9 20 be 54 94 31 3e 3f 8f b2 3d
       0.13329577 -0.15720347 0.17341739 0.08718728
0001d0 ca 47 bc 3d b2 ba 0a 3e 61 e3 38 be d3 3c 49 bb
       0.0919338 0.13547781 -0.18055488 -0.003070642
0001e0 d8 02 01 bd 02 f8 15 3d a0 c1 35 be 19 9f 04 bd
       -0.031496853 0.03661347 -0.17749643 -0.03237829
0001f0 03 b3 a9 3d f0 a3 dd bd d9 ce 20 bc 52 b5 a2 bd
       0.08286097 -0.10822284 -0.009814941 -0.0794474
000200 53 09 90 3d 57 05 59 3d 4c f0 93 3d b5 2d 5d bd
       0.070330285 0.052983608 0.07223567 -0.053998668
000210 6d a4 d3 bb 51 f5 00 3e 9c 65 b0 bc 77 d0 5f 3d
       -0.00645881 0.12593581 -0.021532826 0.054642167
000220 95 8b 99 3d 1b 2d 98 3d 50 22 53 be 3e c0 05 be
       0.07497326 0.07430478 -0.20618558 -0.13061616
000230 35 b4 0c bd c0 78 21 bd e2 c3 2c 3e 4c 02 9a 3b
       -0.034351546 -0.039421797 0.16871598 0.004699981
000240 11 f5 60 bd 85 d7 07 be ca 4d d4 bd c7 81 da 3d
       -0.054921214 -0.13265808 -0.103663996 0.10669284
000250 2c d6 07 3e d2 87 f6 3d 25 10 db bc 9a 5b 2a bb
       0.13265294 0.120376244 -0.026741097 -0.002599454
000260 04 dc 00 3e 87 fe 20 bd 5c 8d b1 3d ad 72 c7 3c
       0.1258393 -0.039305236 0.0866954 0.024346674
000270 49 76 7a 3d bd 96 38 be 52 d1 b9 bd d5 41 3b be
       0.06114796 -0.18026252 -0.09073128 -0.18286832
000280 71 35 18 3e 05 5f da 3d 6f 64 9a bd f2 93 1c be
       0.14864136 0.10662655 -0.075386874 -0.15290812
000290 e9 f5 02 be 95 09 11 3e 56 a7 01 3e 7e 9b 81 3d
       -0.1278912 0.14163812 0.1266149 0.06328486
0002a0 d9 4a 12 be 3b 7c de 3d 13 da 8e 3c 37 aa 49 3c
       -0.14286365 0.10863539 0.01743797 0.012308649
0002b0 28 74 32 3e da 82 21 3d 3f ce d0 bd e6 ad b3 bc
       0.17427123 0.03943143 -0.10195588 -0.021933507
0002c0 26 db 22 be 35 86 1c 3e 87 0c a7 3d cc 77 a8 3d
       -0.15903911 0.15285571 0.08156686 0.082259744
0002d0 f2 0c 9c 3d 71 8e d6 3d d1 50 f3 bd 36 90 1e 3e
       0.076196566 0.10476387 -0.11880649 0.154847
0002e0 eb 6e 4c be 9f a2 7d 3d 5c a7 4b bd 43 23 20 3c
       -0.19964187 0.061922666 -0.049720153 0.009774032
0002f0 6e 4a 90 3d 76 ba 59 be e9 fe 4b bd 18 75 c4 3d
       0.07045446 -0.21262535 -0.04980365 0.09592646
000300 41 5a 0f be 9f a9 ab 3d a5 1a 30 be 5a ae 28 3d
       -0.13999273 0.08381962 -0.17197664 0.0411819
000310 8a a0 03 bd 0d eb 00 3d 5f f5 d5 bd 59 eb a9 3d
       -0.032135524 0.031474162 -0.104471914 0.08296842
000320 85 b2 f2 bd 4e a5 d5 3d 0b 4e 20 bd 3a 0f d3 3d
       -0.11850456 0.1043192 -0.039136928 0.103056386
000330 25 32 3a be 99 ac 8f bb 76 1e b3 bd 48 6d 69 bd
       -0.18183191 -0.004384589 -0.08746044 -0.056988984
000340 70 ec 89 3c 73 7f 1e be 72 77 1b be 6f 62 02 3e
       0.016836375 -0.15478306 -0.15182284 0.12732862
000350 9e 30 1b 3d 43 ad f0 3d 0a e7 39 be ea b0 08 be
       0.03788816 0.11751797 -0.1815454 -0.13348737
000360 e2 2c 6f 3d 13 54 d6 3c 46 d6 d3 3c a0 17 ae 3d
       0.058392413 0.026163137 0.02585901 0.085006
000370 1d e2 87 3d 4f 67 73 3d 90 e6 9f bd 44 23 ad bc
       0.066349246 0.059424695 -0.07807648 -0.02113498
000380 34 33 21 3e b7 97 3a 3b 56 a6 fd 3c 8a 86 89 3d
       0.15742189 0.0028471777 0.030963104 0.067151144
000390 34 81 a4 bd 7f 53 59 be 00 1e 5b be 9a 48 0e be
       -0.08032456 -0.21223257 -0.21398163 -0.13894883
0003a0 d1 dd 72 3d 43 4e 42 bd d2 64 b3 bd 0e ce 28 be
       0.05929357 -0.047437917 -0.08759464 -0.16484854
0003b0 c6 3d 18 3d 46 fc c5 bc 6c ca bf 3d a6 4e 63 3d
       0.037168287 -0.024168145 0.09364781 0.055494927
0003c0 77 04 8b be 8d 81 93 bb 31 75 56 be 9f 70 e1 3d
       -0.27151844 -0.0045015276 -0.20943142 0.11007809
0003d0 c8 5d fe bd 94 cb 62 bc 0b e3 62 bd 9b 93 9d 3d
       -0.12420231 -0.013842482 -0.055392306 0.07694169
0003e0 76 30 5e bd e2 3c e1 3d f9 2f f5 3d 2e 3f 07 be
       -0.054245435 0.109979406 0.11972041 -0.13207695
0003f0 dd 05 62 bd 64 9f 35 be 7a f0 10 3e 82 55 0f be
       -0.055181373 -0.17736584 0.14154235 -0.13997462

critic.0.bias f4 [64]
000000 d3 9d 45 3e d7 3e ac 3d 47 08 f6 bd d7 7e 29 be
       0.19298486 0.08410423 -0.120132975 -0.16552292
000010 b7 4f 3e 3e 3b 49 c5 bb c2 80 de 3d 8b a0 37 3e
       0.18585096 -0.0060206926 0.10864402 0.17932336
000020 25 ca ca bc 6d dc 0e 3d e3 74 ed 3d 6c d9 32 be
       -0.024754593 0.034878183 0.1159456 -0.17465752
000030 27 a7 32 bd 70 5f 03 3e 5c 99 d1 bc f4 78 38 3b
       -0.04361644 0.12829375 -0.025585823 0.0028148266
000040 fe da db bc cc fb 8f bc dd 08 27 be 66 b5 64 bd
       -0.026837822 -0.01757612 -0.16311975 -0.055837058
000050 a9 15 97 3b f4 b2 b3 bd d3 84 22 be 83 23 c0 bc
       0.0046107364 -0.08774367 -0.15870981 -0.023454433
000060 c4 b9 5f 3e cf 51 46 bd cb e6 b5 3d bb 32 d2 bd
       0.21848208 -0.048417863 0.08881911 -0.10263582
000070 82 61 d3 3a aa b2 0c be 88 03 5d bd 0f e5 28 3e
       0.0016127082 -0.1374003 -0.053958446 0.16493629
000080 cf b5 f2 bc ea 4b f1 3c 1a bf 7c 3d b1 9c 46 be
       -0.029627709 0.029455144 0.061705686 -0.1939571
000090 d0 6f 09 be f4 7c 18 bd c3 b9 1d be f9 7b dd bb
       -0.1342156 -0.03722854 -0.15402894 -0.0067591635
0000a0 58 6a bb 3d 0d 27 84 3c d6 f5 37 be dd 69 14 be
       0.09151143 0.016131902 -0.17964873 -0.14493509
0000b0 25 07 09 be 35 9d 47 be 1d d0 1b be 60 0a d1 3b
       -0.13381632 -0.19493563 -0.15216108 0.0063794106
0000c0 0a d0 ec 3d d8 43 b3 3d 5c 9a f8 bd 12 51 2b be
       0.11563118 0.087531745 -0.12138817 -0.16730145
0000d0 68 52 d0 3d c8 a2 e0 3d c0 4b b5 3d f4 7b 76 bd
       0.10171968 0.10968548 0.08852339 -0.060176805
0000e0 61 f7 24 3e a4 8c 29 bd d4 db 37 be 5f 69 52 3d
       0.16109993 -0.04139389 -0.17954952 0.05137002
0000f0 2c b0 10 be 30 81 71 3d 93 10 1a be a1 09 b8 bd
       -0.14129704 0.058961093 -0.15045385 -0.089862116

critic.2.weight f4 [32, 64]
000000 ea d1 95 3d 18 b2 9f bd 29 d6 8d bd 55 94 c9 bc
       0.073154286 -0.077976406 -0.069256134 -0.024606863
000010 e8 e1 63 3d 48 6a 94 bd aa bc c3 bd f2 83 22 bd
       0.055635363 -0.07246834 -0.09557469 -0.039676614
000020 99 45 bf 3d d9 e0 c2 3d 00 80 f6 bd 68 30 cd 3c
       0.093394466 0.095155425 -0.12036133 0.025047496
000030 b8 0a 90 bd 83 02 06 be 60 71 1c bd f8 db 03 3e
       -0.070332944 -0.13086896 -0.03819406 0.1287688
000040 65 34 e2 bc 8f a1 9b bc 4e f5 dc bd 78 28 b8 3d
       -0.027612874 -0.018997936 -0.10788976 0.08992094
000050 01 d3 be 3d c1 77 a9 3d 45 c7 cf bd e6 a2 23 bd
       0.093175896 0.08274794 -0.101454295 -0.039950274
000060 bc a4 bf 3d ae 5d ce 3d cb 0b 99 bd 39 19 bb 3d
       0.093575925 0.10076462 -0.074729525 0.0913567
000070 93 b5 54 3d 87 43 cc bd d1 cc a5 3d 64 b3 22 bc
       0.051930975 -0.09973817 0.08095706 -0.009930465
000080 46 a1 7e 3c 18 59 56 bd cd 49 b9 3c ca cf 95 bd
       0.01554138 -0.05233106 0.022618199 -0.07315023
000090 b2 12 8c bc 24 93 9b bc 8d 58 ce bd 57 25 cd 3d
       -0.017098758 -0.01899106 -0.100754835 0.10016888
0000a0 75 33 b7 bd c6 43 84 3d 47 13 95 3b a7 50 a2 3a
       -0.089453615 0.06458239 0.004549417 0.0012383655
0000b0 78 48 24 3d fd c0 b8 3d 63 8a 00 be 9f 8f 74 3d
       0.040108174 0.090211846 -0.1255279 0.05970728
0000c0 42 cd 8d bd 2a f7 d9 3d 19 fb 9d bd 81 34 a3 3d
       -0.069239154 0.10642846 -0.07713909 0.07968999
0000d0 f8 0e f6 bd 40 c3 02 bc 99 f3 4d 3d 0f 8d 05 3e
       -0.12014574 -0.007981122 0.05028114 0.13042091
0000e0 bb 5f df 3d 7f cc 86 bd 31 a7 d5 bd d0 92 ee 3c
       0.10906931 -0.06581973 -0.1043228 0.02912274
0000f0 dc 8e cf 3d 62 fd 4f bd 96 6b 41 bd d9 b6 89 bd
       0.1013467 -0.050778754 -0.047221743 -0.067243285
000100 c7 d4 aa 3d 7d 6d bc bc 00 4d c4 3d 75 73 c3 bc
       0.08341365 -0.023001427 0.09584999 -0.023858765
000110 0a 64 c9 3d b8 54 78 3c c3 27 70 bd cf 0c 6d 3c
       0.09833534 0.015156917 -0.05863167 0.014468386
000120 c1 2d b4 bd 02 fc a5 bd 6a d8 b9 3c 7a a4 ba bd
       -0.08797789 -0.08104707 0.022686202 -0.09113403
000130 61 bc e0 3d 3b 5d e0 3d 42 38 ac 3d 3d 6b 11 bc
       0.109734304 0.10955282 0.08409168 -0.008875665
000140 06 77 97 3d af 39 91 3d 36 1d 09 bd 79 20 d3 3c
       0.07395749 0.070910804 -0.033475123 0.02577232
000150 13 5a cc bb 60 c9 3f bd fb e3 7d bd f2 a1 d7 3d
       -0.0062363236 -0.046822906 -0.061984997 0.105289355
000160 e8 a3 86 bd 38 96 16 bd 05 db a7 bd 00 91 b0 3d
       -0.065742314 -0.036764354 -0.081960715 0.086214066
000170 1d c3 c8 bd 06 62 4f bd 9e f8 dc 3b 9a 13 46 3d
       -0.0980284 -0.05063059 0.0067435047 0.048358537
000180 3a fa e0 bd f7 ad b5 bd ec 51 c7 bd eb a1 b9 3d
       -0.10985227 -0.08871072 -0.09732422 0.090640865
000190 23 44 81 3d 3b 4c 15 bd 63 35 d9 3c 8e 6e ee 3d
       0.06311824 -0.036449652 0.026514715 0.116421804
0001a0 af 15 5d 3d e9 c7 51 3d d5 20 5a 3d 94 00 f5 bd
       0.053975757 0.05121604 0.053253967 -0.11963001
0001b0 a7 10 a2 3d 56 67 ee bd 8c 4e bf 3d 13 bd 1a 3d
       0.079133324 -0.116408035 0.093411535 0.03777797
0001c0 f3 18 df bd 27 43 a9 bc 7e 32 5b bd ed 75 e5 bd
       -0.108934306 -0.020661904 -0.05351495 -0.11204133
0001d0 c9 dd e6 bd 97 96 2c 3d f9 70 3b bd 20 9b 3a 3c
       -0.11272771 0.0421358 -0.045762036 0.011389524
0001e0 91 56 c7 3d 3d 6a 79 bd f4 38 89 bd 2e 2a 8f 3d
       0.09733308 -0.060892332 -0.06700316 0.06990467
0001f0 cf 6e e2 bc 97 ef 43 bd 4c e5 97 bd b9 b2 39 3d
       -0.027640728 -0.047835913 -0.07416782 0.04533646
000200 06 df 65 3d 00 d3 85 bd c8 84 03 3e ca 4a 28 bd
       0.056120895 -0.06534386 0.12843621 -0.04108695
000210 77 65 bc bb eb ed 9f bc e2 5d 09 3d ad e0 43 3d
       -0.0057494002 -0.019522628 0.0335368 0.04782169
000220 43 a8 10 bd 01 04 e0 bd cb 6d 9e 3d 28 47 ed bd
       -0.035316717 -0.10938264 0.07735785 -0.115858376
000230 18 14 2e bc 0b 0a b5 3d d4 4a 40 3d 7e 42 7f 3d
       -0.010624908 0.08839806 0.04694636 0.06231927
000240 24 84 16 3d 14 37 48 bd 92 4a 35 bd f6 b4 8c bd
       0.036747113 -0.04888065 -0.04426057 -0.06870453
000250 39 cc be 3c 90 c5 ef bc e9 5b 81 bd 18 f8 9c 3c
       0.02329074 -0.02926901 -0.063163586 0.01916127
000260 c0 a0 b5 3d 6e 75 34 bd a5 e4 16 3d d6 69 b7 3c
       0.08868551 -0.044057302 0.036839146 0.022389334
000270 57 70 e0 3d 57 e4 2a bd 2d 93 05 3d fd 8f e2 3c
       0.10958927 -0.041721668 0.03261106 0.02765655
000280 61 2c bd 3d b9 79 13 be 01 6d 8f 3d e0 50 9f 3b
       0.0923698 -0.14401902 0.07003213 0.004861936
000290 29 a2 9b bd 72 d1 6c 3d 67 19 0c bd d9 96 0c bd
       -0.07599289 0.05781693 -0.034203913 -0.034323547
0002a0 0f 12 06 bd d9 90 d5 bd 53 01 78 3d 3d d6 b1 bd
       -0.032732066 -0.10428018 0.060548138 -0.08683441
0002b0 a2 c4 d7 bc a6 8d b6 3c 92 a6 fc bc 9e d1 63 3c
       -0.026338879 0.02228434 -0.030841146 0.013904957
0002c0 96 be 3f 3b d2 cd 83 3d 85 c6 80 3d cf 65 81 3d
       0.0029257885 0.064357415 0.062878646 0.063182466
0002d0 a0 02 dc 3d bb 47 97 3c db 4c 1f bc ec 6e f1 bd
       0.10742688 0.018466821 -0.009722914 -0.11788735
0002e0 19 7f ea bb 95 2a 1c bc a4 52 ce 3d b2 88 ca 3d
       -0.0071562645 -0.009531637 0.10074356 0.09889354
0002f0 bf 60 3d 3d 92 86 11 bd 52 01 8d 3d 2f 71 8f 3d
       0.046234842 -0.035528727 0.068850175 0.0700401
000300 ea 67 a9 bc e4 50 99 3d 58 c1 76 3c 98 f8 cd bd
       -0.020679433 0.07486132 0.015060745 -0.10057181
000310 15 78 36 3d 65 c2 71 bd 56 6a 3a bd 83 ff 87 3d
       0.044548113 -0.05902328 -0.045511566 0.06640532
000320 f4 ff a9 3c 82 16 cf bd 2b 6e 03 3d 24 b4 91 bc
       0.02075193 -0.10111715 0.032087486 -0.017786093
000330 33 e7 2e 3d 19 7c 44 bd df aa 05 bd f1 ec d4 bd
       0.042700958 -0.04796991 -0.03263366 -0.103967555
000340 28 84 39 3c 74 11 fb bc 64 79 ab bd b4 bd fb bd
       0.011323012 -0.03064797 -0.08372763 -0.122920424
000350 ca d3 b5 bd 15 c5 d9 3d 65 77 09 be 23 b3 ab bd
       -0.08878286 0.106332935 -0.13424452 -0.08383777
000360 36 c2 c7 3d 84 62 37 3d 35 d8 8a 3c 13 a1 fb 3d
       0.0975384 0.044771686 0.016948799 0.12286582
000370 23 0c ee 3d 97 d9 c3 3d 8d a2 7f 3d 55 5c 1b bd
       0.11623409 0.09562986 0.06241088 -0.03792985
000380 f3 51 bb bd 4f 88 a2 3d c4 c6 ea bd 8a fc a8 bd
       -0.0914649 0.07936155 -0.11463693 -0.08251293
000390 66 65 bb bd e3 5b 0e 3e 24 64 38 bd 92 3c c8 3d
       -0.091501996 0.1390224 -0.045017377 0.09777178
0003a0 b4 5b bc bd c1 e7 b9 3c a1 a6 bb 3d 5f 3b 47 3d
       -0.091971785 0.022693517 0.09162641 0.048640605
0003b0 83 d6 b6 3d d6 bb c9 bd f5 c5 a9 3d cf d0 ca 3d
       0.089276336 -0.0985028 0.082897104 0.09903108
0003c0 f0 40 7b bd 9c a9 8a 3d 2d 2a e4 3d dc 7c e4 3d
       -0.061341226 0.06770632 0.11140857 0.111566275
0003d0 1f 41 92 bd 11 1b c0 3c 52 f7 5e bd 24 1e 5e bd
       -0.07141327 0.023450406 -0.05443508 -0.054227963
0003e0 50 a2 2d bd 8a 86 ca 3c ce 5c 02 3e 18 78 7e bd
       -0.04239112 0.024722356 0.12730715 -0.06212625
0003f0 e8 e2 d6 bc ed 76 ad bd 20 10 89 3d 8d 2c 54 3d
       -0.026231244 -0.08469949 0.06692529 0.0518003

critic.2.bias f4 [32]
000000 e9 61 23 bd 21 3c 76 3c e9 eb d8 bd 2b 72 37 3c
       -0.039888296 0.015028984 -0.10591871 0.011196653
000010 bf ee 9b 3d 15 5c 95 bd ed 04 02 3d 0e ee d3 bd
       0.076138966 -0.07292954 0.03174298 -0.1034814
000020 70 95 9d bc 21 d6 98 3d 89 3d 8c 3d f2 1e 76 3d
       -0.019236296 0.07462717 0.068476744 0.060088105
000030 92 60 e8 3d a2 e1 b4 bd 70 40 a8 3d 57 4a 27 3d
       0.11346544 -0.088320985 0.082154155 0.04084238
000040 09 12 b6 bd 01 78 4d bd 91 f6 14 bd 5f fb 9a 3d
       -0.08890159 -0.050163273 -0.036367957 0.075674765
000050 a5 7d 8a 3d cc 03 2f 3d ce d8 6c 3a d8 10 67 bd
       0.06762246 0.04272823 0.0009034992 -0.056412548
000060 8f 75 0e 3e 49 c6 90 38 39 d6 a2 3d 1b 6f 83 3d
       0.13912033 6.9033886e-05 0.07951016 0.06417676
000070 3d e8 05 bc e2 c6 e1 3d 3d 9a f7 bc 5d 71 f6 3d
       -0.008173046 0.11024262 -0.030224914 0.12033341

critic.4.weight f4 [1, 32]
000000 e2 2a 42 3d 59 fa 98 3d ea 5d 06 be da dc 3d bd
       0.047404177 0.07469625 -0.13121763 -0.0463532
000010 ac 27 9c 3d d9 fa 84 b9 2d 88 d3 3d 8b d7 01 3e
       0.07624754 -0.00025363898 0.10328708 0.1267988
000020 22 f3 e1 39 7a 41 14 3e e8 9d a4 3d 0c 17 a0 bd
       0.00043096492 0.14478102 0.08037931 -0.07816896
000030 19 c3 4b bc 98 e5 25 bd 65 3c 8c 3c 78 16 f3 bd
       -0.012436652 -0.04050216 0.017118642 -0.1186952
000040 b1 af fe 3d fb 65 c1 bd db f9 1e bd 63 9e 3f 3d
       0.12435854 -0.09443279 -0.0388125 0.04678191
000050 8a 25 7c bc 52 a0 ac bd 25 52 ac bc dd 1e 89 bd
       -0.015389809 -0.08429016 -0.021035263 -0.0669534
000060 c0 3d 1a bd fb 51 bb 3d b0 79 66 bc cb f8 a7 bc
       -0.037656546 0.09146496 -0.0140670985 -0.020504376
000070 45 dd d8 3d 2e b4 f1 bd 8b 40 0e 3e fb a4 b7 bd
       0.10589079 -0.11801945 0.13891809 -0.089670144
