Policy Gradient/walker_ppo_model_19000.pth (torch, 34323 bytes, 11 tensors)

actor.0.weight f4 [64, 24]
00000000: fb55 11be 96b7 063f 145e 5dba 7d6a 453f
00000010: 76a4 05be e471 eabd bb8e 523f 5dee 39be
00000020: 144b 83be 3025 07be 608a 48bc 0da6 75be
00000030: 7a6a 423d 82a0 863d 63d2 833e e480 5a3e
00000040: b23b 953d 5661 9b38 e5ab 623e 4d1f dfbd
00000050: 8215 b93d cdc4 483e acfc 1f3e 7b43 2b3d
00000060: 099f 1f3c db57 1c3d 1b2b 7c3e a3cb 923d
00000070: ae71 8a3e 3659 653e 99b7 593f 52eb 45be
00000080: bed3 3ebe 8fca 68bd 678b 963d 2762 073d
00000090: 9f83 29bd a94a cc3d 3361 153e b254 d93d
000000a0: 6d4f 97bc 89ea 023e 2f7f afbd 931b 813d
000000b0: 72b1 423d ec10 30bd 620a c33a 0089 0c3e
000000c0: 4891 9b3c 52e8 01bf 6da6 1cbd 8a14 11bf
000000d0: 4b77 5cbe ff08 063e 3e55 043f aa4f 733c
000000e0: 6540 62be 6c34 293e c462 4cbe 7a2e 9e3e
000000f0: bd7a c6bd 4fe5 863e c6b6 81be 6222 77be
00000100: ba66 69be d2e1 543c 0877 7dbe 8e8f b43d
00000110: ecdc 8fbd ac96 2fbe 7471 53be 7c1c f4bc
00000120: 3064 97be 8b1f 46be 3ed4 dcbd c129 7cbe
00000130: f5d7 d2be da6a 38be 2095 ccbc c3d2 22be
00000140: 586e 1cbe 8e3b 2f3e 2f72 c73d 6348 fdbc
00000150: 1332 c63d 6bc1 bb3c 8289 2fbe 60ef 82be
00000160: aa49 2fbe 3890 8a3d e948 92bd 78e2 5a3d
00000170: d344 c53c 5af0 2bbe 17a0 143e 0a9e 4b3d
00000180: 1d71 b9bc 9f0c 7ebe fc60 b2be 3ba1 d0be
00000190: d009 d53c b642 44bd d9b2 e7be 37c9 adbc
000001a0: 9b32 73bd 4fb4 9cbc f163 3e3d fa66 fb3e
000001b0: dd21 563e 8007 663e 153f 9f3d ce22 933d
000001c0: 7de9 5fbe ca90 ddbc 1c5e ccbd 7985 59bd
000001d0: 522d 053d f544 16be d7ac 2bbe 4b48 b63d
000001e0: 442a 4f3e 531c bbbe c1dd 153d d81d bebe
000001f0: 668d 8d3d c1eb a93d 5cb4 e43e 77b5 d3bd
00000200: 2565 4b3e 45e4 72bd f8f3 74bd 4fef 8d3d
00000210: e6b9 e7bd 3d14 843e 8577 99bc eb98 f7bd
00000220: 55b4 3f3c 0cf1 2a3e fb34 dcbd 7ea1 0bbe
00000230: d1fe 04bd f7a1 833d 4c8d d4bd 29db 213d
00000240: 2f03 50bd a4aa e2be 353d 8a3d 8c35 1ebf
00000250: ca5c 91be 8bde 723e 5992 8b3e 132e a9bc
00000260: 2074 9f3d f7bc 4d3e d670 ad3d 719d 7c3e
00000270: 4864 0c3e 765e 1f3e 9465 e1bc 0d74 ab3c
00000280: ea95 9e3d cd27 6f3d d4fb 42be 5c6e 4c3d
00000290: d739 02be 8cdf 9dbd 4a11 44be 8e30 1cbd
000002a0: 683f 01be 9990 813e 97f4 873e 9876 1d3f
000002b0: 5f7c a03e 3376 7a3c a4d5 043f c5ee 68bc
000002c0: bd8e 793a 6cb3 00bd c104 10be af11 b9be
000002d0: 49de 0ebe ea4a 483c b0c0 673e 8e95 033e
000002e0: 8460 0c3e 79b6 353d 9c55 963d 94ee 10bd
000002f0: 8893 0e3e bcdc 1c3e caef bd3d 4add 62be
00000300: 41cb ad3b d573 c0be d9f1 a1be cd53 b3be
00000310: 4701 863e 0633 92bc c8cd 31bf d0c4 903d
00000320: 4009 a03e 9b84 4ebd acf6 c53c 81e3 3f3e
00000330: 0cd0 8dbd 09a6 45be 4fb6 033e 76b4 82bc
00000340: 2f85 68bd c7b9 dabd 9063 93bb c600 f13d
00000350: d53c e53d eb56 acbd 309c 11be 54fe 263e
00000360: c6db 17be a8b0 19bd 5a71 76be 8776 02bf
00000370: f1e5 80be 4a19 91bd 0db1 50bf b15a 4fbd
00000380: 47b7 803d 8023 433e 4722 463e a874 30be
00000390: 09e3 ba3d 4b6d 873d 670c 5bbd e772 31be
000003a0: b773 a73d 7663 38be 4a3b 40bd 2f7b 92be
000003b0: f54a 9bbd 0198 07be 4950 623d f6fa e03d
000003c0: b632 c4bd e428 083f 6c09 593e 9ed1 d23e
000003d0: fe48 823e 53a3 b5bd ba39 6f3e 843a 2f3d
000003e0: 856e 23bd 808c aebd b7db 293e 9bb7 b6be
000003f0: aa2b c33d 9fb4 e4bd 205c 94bc ac02 b83d
-0.14192955 0.5262388 -0.00084444997 0.77115613 -0.13051018 -0.11447504 0.8224904 -0.18157335
-0.25643218 -0.1319778 -0.012240022 -0.23989125 0.047464825 0.06573583 0.2574645 0.2133823
0.072867766 7.409106e-05 0.22135885 -0.10894642 0.090373054 0.19606324 0.1562373 0.0418124
0.009742507 0.038169723 0.24625818 0.07167747 0.27039856 0.22397313 0.8504577 -0.19328049
-0.1863546 -0.0568338 0.07350808 0.03305259 -0.04138529 0.09975178 0.1458786 0.106118575
-0.01847049 0.1278478 -0.0856918 0.063040875 0.047532506 -0.042984888 0.0014880414 0.13724136
0.018990174 -0.5074512 -0.038244653 -0.56671965 -0.21529882 0.13089369 0.5169257 0.014850536
-0.22094877 0.16523904 -0.19959551 0.30894834 -0.09691379 0.26346824 -0.25334758 -0.2413421
-0.22793093 0.012993293 -0.24752438 0.088164434 -0.070245594 -0.1714732 -0.20648748 -0.029798739
-0.29568624 -0.1934797 -0.107826695 -0.24625303 -0.41180387 -0.1800951 -0.024973452 -0.15900712
-0.15276468 0.17112562 0.09738576 -0.030918306 0.0967752 0.022919377 -0.17142299 -0.25573254
-0.17117944 0.06765789 -0.07142813 0.053438634 0.02408067 -0.16790906 0.14514194 0.049711265
-0.022636944 -0.24809502 -0.34839618 -0.4074801 0.026005656 -0.047915183 -0.45253637 -0.02121411
-0.059374433 -0.019128947 0.04648203 0.49102002 0.20911355 0.22463799 0.07775704 0.07184373
-0.21866412 -0.02704658 -0.099788874 -0.053105805 0.032513924 -0.14674743 -0.16765152 0.089005075
0.20230967 -0.36545047 0.036588434 -0.37132144 0.06911735 0.082969196 0.44668853 -0.10337346
0.19862802 -0.059299726 -0.05980298 0.0693041 -0.11314754 0.2579669 -0.01873375 -0.12089714
0.011700709 0.16693515 -0.10752293 -0.13635823 -0.032469574 0.06427377 -0.10378513 0.039515648
-0.050784286 -0.44270813 0.067499556 -0.61800456 -0.28391105 0.23717706 0.27260092 -0.020651853
0.07785821 0.20091616 0.08468787 0.24669434 0.1371013 0.15563378 -0.027514257 0.02092936
0.077434376 0.058387566 -0.19041377 0.049909934 -0.12717377 -0.07708654 -0.1914722 -0.038132243
-0.12621844 0.25305632 0.26553795 0.61509085 0.31344888 0.01528697 0.5188849 -0.014217083
0.0009519866 -0.03142111 -0.14064313 -0.36146304 -0.13951983 0.012224892 0.22632098 0.1285002
0.13708693 0.044363473 0.073405474 -0.035383776 0.13923466 0.15318578 0.09274252 -0.22154728
0.005303771 -0.37588373 -0.31629828 -0.35024872 0.2617285 -0.017846595 -0.6945462 0.07068789
0.31257057 -0.05041943 0.024165474 0.1873913 -0.069244474 -0.19301619 0.12862514 -0.015955191
-0.05676764 -0.106799655 -0.0044979528 0.11767726 0.111932434 -0.08415016 -0.14219737 0.16307956
-0.1482993 -0.03752199 -0.24066678 -0.5096211 -0.2517543 -0.07084902 -0.8152016 -0.0506236
0.062849574 0.19056511 0.19349013 -0.17232001 0.09125335 0.06612643 -0.053478625 -0.17328988
0.08176368 -0.18006691 -0.046931542 -0.28609607 -0.07582656 -0.13241579 0.055252347 0.10985367
-0.09579985 0.53187394 0.21195 0.4117555 0.25446314 -0.08869042 0.23361865 0.042780414
-0.03990032 -0.08522892 0.16587721 -0.35686955 0.09529813 -0.11167263 -0.018110335 0.089848846

actor.0.bias f4 [64]
00000000: 4d94 21be 7990 0ebe 1f76 893e 6a70 b9bb
00000010: 0ad7 8f3e d547 82bd 9690 e7bd 3ced a5bd
00000020: c35d 46be 622c 143e fe2b 1cbe 3bd0 28bb
00000030: 825a febd 6b02 55bc 7a63 2cbd 98d5 153b
00000040: 7beb 56bd 54c1 02be a418 3b3e beb9 083e
00000050: 794f 86bd 5c12 f33d b631 6f3e 0c11 a9bd
00000060: 1a07 23be e463 093e c19c d9bc 56f5 43be
00000070: 0128 04be bb68 45be 22c8 033e d756 0bbe
00000080: 2afa 32be 394f 2e3e 48f8 40be dc55 3dbe
00000090: e178 7cbd 4d28 cdbb 5460 d23d 6a8f 233e
000000a0: d4fa 493e d63f 0a3e b908 093e 8c13 873d
000000b0: 70b4 2a3e 01a2 b6bb 9fe9 e63d 400b 26bd
000000c0: dfc6 8f3d f13b 0ebd b4a8 54be d393 b63d
000000d0: 7406 323d 66a6 473d 9523 01be 9748 ea3d
000000e0: 2b53 123e 2643 4c3e 8fa8 97bd 33de 9b3a
000000f0: e0cd e33d 5371 3c3c 5413 26bd c622 373e
-0.15779229 -0.139223 0.26847932 -0.0056591528 0.2809375 -0.06361357 -0.113068745 -0.081018895
-0.19371705 0.14470056 -0.15251157 -0.002575888 -0.12419607 -0.013001065 -0.042087056 0.0022862907
-0.052470665 -0.12769061 0.18271118 0.13352105 -0.06558127 0.11868736 0.23358807 -0.082552046
-0.15920678 0.13417011 -0.026564004 -0.19136557 -0.12905885 -0.19278233 0.12869313 -0.13607346
-0.17478243 0.17022409 -0.18844712 -0.18489784 -0.061638717 -0.0062609077 0.102722794 0.15972677
0.1972459 0.13500914 0.13382234 0.06595525 0.16670394 -0.0055735116 0.112750284 -0.040538073
0.070203535 -0.034725133 -0.2076748 0.08914914 0.043463185 0.048742674 -0.1261123 0.11439627
0.14289539 0.1994749 -0.07405197 0.0011891782 0.11123252 0.011501628 -0.040545776 0.17884359

actor.2.weight f4 [32, 64]
00000000: fc33 303d 6eba d13d 47a5 cc3c 11a9 94be
00000010: 1c26 183b d76c 0c3e e5b5 4e3e f42c 4a3d
00000020: ec3d 733e dc48 9abe 1ef0 6c3e 3516 353e
00000030: 3cd6 22bb 18b5 46bc b243 bd3d 05ba c6bd
00000040: a558 a03c 177b a03e 3618 093e ed70 e0bd
00000050: 3bbd 893e 7aa9 c3be fa60 1ebf 75e1 853c
00000060: 6f58 fc3d 894e 903d a3cf 843e 6dce 60bb
00000070: 90d7 033e d945 593e efb7 083c 0e87 ba3c
00000080: d57d e03d e519 223d a38f 823d fcb1 0a3e
00000090: b5f3 943d 0736 bbbd 2a7d 22bd ca73 8fbe
000000a0: a8c5 23be ff8b aabd 4af6 01be fdd8 71be
000000b0: f24b ba3c afea 5a3e 7d97 15bd cf17 6abe
000000c0: c41d aa3d 4d0c 273d a428 743e fdcc b0be
000000d0: 8efb ea3c 978b a6bd 1202 65be adc5 0fbd
000000e0: 5b79 593b a60c a5bd 84bd 66bc eb82 1e3d
000000f0: c295 63be 6ffc 51be d9d7 e2bc 7f8b 48be
00000100: bb84 0ebf a747 78be 95b2 85bd afc5 a8bd
00000110: a0f1 b43e d78c d0bc 1085 ecbc 164c ffbe
00000120: 1710 953e e679 743e 544a 0dbe dfa8 153e
00000130: 2f3e 7cbd e2b6 fa3e 16ef cabe 8c6a 78be
00000140: f4d5 e7bd af70 423d 61c6 05be 943b abbe
00000150: 0eab 20be ba8d 94be 9acd 3abd 7a93 80be
00000160: d5f0 35bc eb7d 4fbc 145d 053d fab1 9fbb
00000170: 89ce 82be 0e53 a2bb 360f 00bc 3ae2 2e3d
00000180: 7a9d d8bd 093c ca3d 7cc2 8dbe 8650 34bd
00000190: 233f d3bd 26c4 743c 0a48 68be 7ed5 d93e
000001a0: 48b1 2f3e 4880 023d 3905 3c3e ca3d acbb
000001b0: b8a1 a5bd ff3c 63be ec0e 3f3e 3ad7 90bd
000001c0: 4120 80be 32d4 323d 36b5 f3bd 88ff 4c3d
000001d0: 21a4 ed3d 0260 633d f7b1 fdbe 9f1e 903d
000001e0: 66db 563e f848 313c 984e c2bc e547 d73d
000001f0: a667 83bd e03c 3d3d 4a47 26bd 29d6 c73e
00000200: 7c83 59bd 5919 e1bb 3178 f53d 4894 853e
00000210: 89d5 a03d c21b d4bd 3511 c03d a89e 86be
00000220: d307 79bd 7c19 0c3e 4bc1 febc 5171 9abe
00000230: 283f 1cbe 5c06 7bbd 32e8 9fbd e10f 32be
00000240: ede1 1ebe f5a1 edbd c9bb 84bc 7d4f 7e3e
00000250: 4f2a 50be 6e09 883e 27f6 b03e c1a9 6f3d
00000260: 6bc1 eb3b f064 fcbc cfbd 98bd d781 12be
00000270: 3e8d 88bc d78c e4bd 01c6 8d3c da5d 4ebe
00000280: d0bc 603d 3955 0a3e f462 043e 5f1d 3dbe
00000290: 7d6d 1dbd ceae 723d 709c f4bc 826a 613e
000002a0: f98b 1f3e 905a a03e 00ec ce3c af08 33be
000002b0: 3e74 0b3e 2442 eabe e325 47bd 9126 bf3e
000002c0: 5b44 3bbd ec27 27bd 1de4 d8bd e283 a4ba
000002d0: 1904 2abe d03c 243e 930a 5b3e b664 813d
000002e0: 6e61 c8bd a507 a5bd 308c 003e 92c0 d33c
000002f0: 133f 0d3e 41c6 243d 804a 483d a6c8 443e
00000300: 2b09 ae3d 5866 d93e 8baa ee3e 8a67 3a3e
00000310: 2248 1dbe 2c58 003e dc29 763e 2d11 4f3d
00000320: 67dc 8fbe ca5c 1abe 8b60 36be ae68 3ebe
00000330: 3de7 2dbd 60ad b6be c226 763e cadc 333e
00000340: a44d 5cbd 9c57 c0be acd6 033e 4003 2c3f
00000350: 52ca e3bc 0018 4a3e 24fc 063e 86af 863c
00000360: 352d 003e 3ae3 063a 59e0 783d f891 80bd
00000370: 4f42 7b3e 1436 983d 5375 a2be 418c 20bf
00000380: 82dc 33be 5ec1 d33e 2809 813e af49 01be
00000390: 6eee b2bd c490 04be 2a8b a73e 25ad 80be
000003a0: 2ae0 4e3e 64aa b5bb ba71 00be 1da1 c3bd
000003b0: 6a11 b63e 6d3e cd3c 2bf6 7f3e aadd 7a3e
000003c0: 495f b83e 0899 1d3d 96ee c7be 4150 1a3e
000003d0: 526b adbe 3a34 85bd c804 003d 1ec0 93be
000003e0: c102 9dbd 7ed9 b73d 496a 333e 46f8 d2bc
000003f0: 6b24 b13e 8a46 243d 53cb febd 6b90 cb3d
0.043018326 0.10240637 0.024981154 -0.29035237 0.0023216074 0.13713394 0.20186575 0.049359277
0.2375409 -0.30133712 0.23138472 0.17684253 -0.0024846932 -0.012128137 0.092414275 -0.09703449
0.019573519 0.3134391 0.13388142 -0.10959039 0.26902184 -0.38215238 -0.61866724 0.016342858
0.12321555 0.070462294 0.25939664 -0.0034302727 0.128752 0.21218051 0.008344634 0.022769477
0.109615006 0.039575476 0.06375053 0.13544458 0.07273046 -0.09141164 -0.039670147 -0.28018028
-0.15993369 -0.083274834 -0.12691608 -0.2361793 0.022741292 0.21378587 -0.036521424 -0.22860645
0.083064586 0.040783215 0.23843628 -0.34531394 0.028684404 -0.081320934 -0.22364071 -0.035100628
0.0033183906 -0.08059053 -0.01408327 0.03869907 -0.22225097 -0.20506452 -0.027690815 -0.19584464
-0.5567128 -0.24246083 -0.065282024 -0.0824083 0.35340595 -0.025457783 -0.028872043 -0.49862736
0.29113838 0.23874626 -0.13797885 0.146152 -0.06158274 0.48967654 -0.39635533 -0.24259394
-0.11320105 0.047470745 -0.13063957 -0.33443892 -0.15690252 -0.2901438 -0.045606233 -0.25112516
-0.011104782 -0.0126642985 0.03255947 -0.0048735114 -0.255482 -0.0049537485 -0.007816127 0.042696215
-0.10576911 0.09874732 -0.27687442 -0.044022106 -0.10314777 0.014939344 -0.2268373 0.42545694
0.17157471 0.03186062 0.18361367 -0.0052563893 -0.08087486 -0.22191237 0.18658036 -0.07072301
-0.25024608 0.043659396 -0.118997976 0.05004838 0.11603571 0.055511482 -0.4954984 0.070370905
0.20982131 0.01082062 -0.023719117 0.1051176 -0.06416254 0.046200633 -0.04059533 0.3903058
-0.05310391 -0.0068694768 0.11985815 0.26089692 0.078532286 -0.10356857 0.09378282 -0.2629292
-0.060798477 0.13681597 -0.031098029 -0.3016458 -0.15258467 -0.06128536 -0.078079596 -0.1738887
-0.15515871 -0.116031565 -0.016202824 0.2483501 -0.2032864 0.26569694 0.345628 0.0585115
0.007194688 -0.03080985 -0.07458078 -0.14307342 -0.016668912 -0.111596756 0.01730633 -0.20152989
0.054867566 0.13509072 0.12928373 -0.18468235 -0.038434494 0.059248738 -0.029859751 0.22013286
0.15580739 0.31319094 0.025259018 -0.17483781 0.13618562 -0.45753586 -0.048620116 0.3733411
-0.045719486 -0.040809557 -0.10590384 -0.0012551511 -0.16603126 0.16038823 0.21390752 0.06318037
-0.09784208 -0.08058099 0.12553477 0.02584866 0.13793592 0.040228132 0.048899174 0.19217166
0.084978424 0.42460895 0.4661449 0.1820356 -0.15359548 0.12533635 0.24039406 0.05055349
-0.2809784 -0.15074459 -0.17810266 -0.1859462 -0.042456854 -0.3567915 0.24038222 0.17564693
-0.05378498 -0.3756684 0.1287486 0.6719246 -0.027806435 0.19735718 0.13182122 0.016441118
0.12517245 0.0005145554 0.06076083 -0.06277841 0.24537013 0.074321896 -0.31730136 -0.6271401
-0.17564586 0.41358465 0.25202298 -0.12625764 -0.08736883 -0.12945849 0.3272336 -0.251321
0.202027 -0.005543994 -0.12543383 -0.09552214 0.3556016 0.025054181 0.2499625 0.2449862
0.36010197 0.03847602 -0.39049214 0.15069677 -0.3387094 -0.06504102 0.03125456 -0.2885751
-0.07666541 0.0897703 0.17521013 -0.025753152 0.34598097 0.040106334 -0.12441125 0.09939655

actor.2.bias f4 [32]
00000000: db20 8bbd 004f 003e d113 993d 7be0 1e3d
00000010: ad41 34bc 4b07 b7bd 021d febc 0b07 b43c
00000020: 7e29 003c d294 5c3d f29e 9abd 067d 6fbd
00000030: 7e4a f0bd 12b2 bc3d e98f 88bc 7ed1 503c
00000040: c4fa 123e f6b3 4cbd 44f3 813d b8e8 1b3d
00000050: 1e4b 4d3d 1c80 003d de81 76bd 10c4 103e
00000060: 66c1 3cbe f179 c33d 1d8e 4f3d 388f 85bd
00000070: 2c7c 4fbc 0f8f 98bd 53f9 f63d 21c0 1bbe
-0.06793376 0.12530136 0.07474483 0.0387883 -0.011001986 -0.08936938 -0.031019691 0.021976015
0.0078223925 0.053852864 -0.07549848 -0.05846884 -0.11732958 0.09213652 -0.016670184 0.012745259
0.14353472 -0.04997631 0.06345227 0.038063735 0.050120465 0.031372175 -0.060182445 0.14137292
-0.1843315 0.09544743 0.05067264 -0.065214574 -0.012663882 -0.07449161 0.120592736 -0.1521001

actor.4.weight f4 [4, 32]
00000000: a8a9 b7be adf0 b2bd 4853 013f 04ab 523e
00000010: 9307 87be 5a5c 06bf 588d c6bd b15b cd3d
00000020: e730 4f3e 2df2 e9be fab2 46be a5d2 bc3c
00000030: 3758 8cbf c9b9 f03d c69d 003f 7843 5c3e
00000040: 1762 f13c 91b9 063e df81 893e 6994 3c3f
00000050: c670 d93d 14d5 d93e eece 0e3e 2aad 5c3f
00000060: b5fc 6bbe 40e6 24be 4b2a 8e3c fce9 483e
00000070: 5206 35be 6eca b9be aef3 063e cde3 5abe
00000080: c4f7 1cbe 9244 4b3f d601 a73e 5062 c7be
00000090: 2652 45be 94e5 003e dff8 d4be 6d15 ecbe
000000a0: 389b 05bf 7b68 8f3c a507 383f 9f10 923f
000000b0: ed55 f53d 5aca c43e d4c1 253e 72bd 3dbf
000000c0: a256 fb3e 3476 bbbc 1108 243f ff6c 773c
000000d0: 52cd 6ebe 12b2 9d3e 740c 043f e457 5abd
000000e0: 31f7 73be f816 523e 12af b03d 1963 21bf
000000f0: 29b2 053f 23f5 86be a2c1 f4be e3a7 f1be
00000100: b74b 693d cc20 ae3c 14ed 81be 03bc e3be
00000110: 683c eebd 45d0 f03d b931 a9be 60e2 d2be
00000120: e554 a1be 544c 013d 53db 4fbe d4b8 4c3e
00000130: 5619 4d3e ecb0 803e 356a 493d e647 693d
00000140: a85d 7d3e dd07 c8be be54 1ebe 664d 91be
00000150: 9015 183d 4114 9b3d 6aed a3be 8ba8 e7bd
00000160: 3849 d6bd 54df 033e 7f34 973d 8089 a3be
00000170: adbe 1dbd 1b10 413e 0ccb db3e 6861 023d
00000180: 9627 4abd d341 1ebe 3325 233c ff82 1abe
00000190: 9697 d9be 399f 583e 348a 98be 934d e7bd
000001a0: f876 0cbe 7b58 ba3e 170b 4e3c f369 5f3e
000001b0: e483 92bd 57f4 68be 9256 c0be 1f7f cd3d
000001c0: b691 a5be e3e1 56bf 261d 333e fa36 cb3c
000001d0: 6f4c b8be 5fdc d4be b258 c3be 398b 003e
000001e0: 265c cc3e b44d 16bf a530 1fbf b30b 513c
000001f0: 9631 993e bff4 9dbe e473 ec3e 1e82 48be
-0.35871625 -0.087373115 0.505177 0.2057305 -0.26372966 -0.5248467 -0.09694928 0.100272544
0.20233499 -0.45692578 -0.19404212 0.023049662 -1.0964421 0.11754186 0.50240743 0.21510112
0.029465718 0.13156725 0.26856896 0.73663956 0.10617213 0.42545378 0.13946125 0.8620173
-0.23045619 -0.16103458 0.017354151 0.19620508 -0.17678192 -0.36287254 0.13178894 -0.21375962
-0.1532889 0.79401505 0.32618588 -0.38942194 -0.19269618 0.12587577 -0.41596124 -0.46110097
-0.5218997 0.017505875 0.71886665 1.1411322 0.1197928 0.38435632 0.16187221 -0.74117196
0.49089533 -0.022883512 0.6407481 0.01510167 -0.23320511 0.3079992 0.515815 -0.053306475
-0.23824765 0.20516574 0.08627142 -0.63041836 0.52224976 -0.263589 -0.4780398 -0.471984
0.056956973 0.021255873 -0.2537619 -0.4447938 -0.11632615 0.11758474 -0.33045748 -0.41188335
-0.31510082 0.031566933 -0.2029851 0.19992381 0.20029196 0.2513498 0.049173553 0.056953333
0.24742758 -0.390685 -0.15462014 -0.28379363 0.03712994 0.075722225 -0.3201707 -0.11311444
-0.10463184 0.12878162 0.0738306 -0.31940842 -0.03851192 0.188538 0.4292835 0.031831175
-0.04935416 -0.15454797 0.009957599 -0.15089034 -0.42498463 0.21154489 -0.2979294 -0.11294093
-0.13717258 0.3639563 0.012575886 0.2181776 -0.071540624 -0.22749458 -0.37566048 0.10034012
-0.3233773 -0.83938426 0.17491588 0.024806488 -0.35995814 -0.4157438 -0.38153607 0.12553109
0.39914054 -0.58712316 -0.621836 0.012759137 0.29920644 -0.3085079 0.46182168 -0.19580886

actor.4.bias f4 [4]
00000000: ff66 193e 0535 e4bd 423e 523e d38b 49be
0.14980696 -0.11142925 0.20531562 -0.19682245

critic.0.weight f4 [64, 24]
00000000: 0e23 453e 4b51 0f3e 83a6 263e 7bf2 ffbd
00000010: 3daf 76bd 5d13 88bd 1258 9b3d 3d1c c93d
00000020: 1937 2d3e 163e febd 8fe2 183d d828 f9bc
00000030: 6947 cbb9 a77b 513e a633 12be 5955 a5bd
00000040: 1f28 2d3d 0455 c33d 9b8c 4cbd 5b17 1bbd
00000050: 16dd 87bd 8456 ebbb c27f 24be b911 96bd
00000060: a103 683c 100f 203e 9164 063e c86f 4c3d
00000070: 478e 85bd 76ef 1c3e e4a1 2bbe 9592 803d
00000080: 6b8b b13c 5403 08bd 790e 3c3e f270 b53d
00000090: 69b9 333e d97a 03be 6340 b0bd 10ee 1ebe
000000a0: 37d8 cf3d 58ab 2abe 0f99 593d b021 e73d
000000b0: f1e3 173d fb3d a93c 25fa aabd 7737 60bd
000000c0: cb62 dcbd 0aac 933d 3376 bf3d 4166 8bbd
000000d0: bd04 05be cec9 a6bd d47b f3bd 02aa 5bbd
000000e0: 348d 093e 03d9 0e3e 12eb f53d b180 d739
000000f0: e26f dfbc a634 253e 3256 56be 8f45 033c
00000100: ebda 1abe e4a1 ebbd b75d cf3d 253a 37be
00000110: 9a75 e7bd 3200 21be a98d 463e 98d4 88bd
00000120: f06c 1b3e d6ac debd 63d1 0a3e 7ed4 c9bd
00000130: 7d2e 453d 82a1 bb3d ff48 eb3d 99b6 cbbd
00000140: e0a1 123e 4584 0a3e f8f4 4d3d 9080 953d
00000150: e0ec 73bd 2c7b a83d 6d3d e43d ad70 f13d
00000160: 2c1b c13c 36f0 2dbe c2f9 313e e7bd 32be
00000170: 047b 25be 57ee 333c 4698 083d 5877 0d3e
00000180: acb6 09be 6b14 00bc f2a1 cdbd 3ec3 6bbe
00000190: fb50 fe3d cc1c a8bc a9a0 e93d abf6 0cbd
000001a0: b6f3 f73d c336 0abe 079a 1c3d 908a 99bd
000001b0: 124c ae3b 85c8 2cbd 958b 48be 049c b1bd
000001c0: 59d6 0d3e 64bb 1bbe f26d 363e 503d bc3d
000001d0: b604 c63d 709e 0f3e 1dd2 33be c793 f33a
000001e0: 5b85 1bbd e098 ed3c c98a 3cbe 0b66 0cbd
000001f0: 78dd b53d 295d d5bd d708 63bb 2547 9abd
00000200: d482 803d 456c 3c3d d770 7a3d d5c4 69bd
00000210: 4150 95bb bc8e f53d 0448 eabc 5128 463d
00000220: e6e2 8d3d fa4c 8c3d 5a7c 59be a730 0cbe
00000230: 5aea 26bd c6ae 3cbd 09a6 253e 63e9 07bb
00000240: cb22 5bbd 68b2 fcbd 2ee2 d6bd aa42 dd3d
00000250: dfea 073e 4dff f33d 3818 c2bc b24f 90bb
00000260: 1dac fe3d 4728 29bd d78d aa3d 7218 d03c
00000270: 5ebf 6c3d 7e89 3abe a0dc bbbd be3a 3dbe
00000280: b98b 153e 9f39 d53d 50b7 9ebd fcbd 1ebe
00000290: 5329 05be 8adb 0e3e 744c ff3d 921e 7c3d
000002a0: 9a94 0fbe b256 e03d 5053 743c e88a 743c
000002b0: b15f 323e fd16 1c3d e011 c7bd 95b7 c0bc
000002c0: 89da 25be 6d48 193e bb1f 9b3d 1648 a03d
000002d0: 7f47 963d 1333 d43d 2e62 f7bd 0995 1b3e
000002e0: 7619 50be 7161 6f3d d731 58bd 9554 dc3b
000002f0: 9afc 893d 23e1 5cbe 30ba 58bd a1cc be3d
00000300: 5013 0abe 356b b13d 4143 2dbe 905f 3c3d
00000310: 2193 12bd b8b3 ea3c 1670 d7bd 6dd6 a23d
00000320: a8f5 eebd 66a6 da3d 0cf8 27bd 86a3 d93d
00000330: f4c1 3dbe 7b25 1fbb 3ff2 aabd c5d8 5cbd
00000340: 369e 9d3c faf3 1bbe 0085 18be 5956 053e
00000350: 06ed 263d b3b2 f63d 8d96 36be 0758 05be
00000360: a87e 053d c7c1 da3c 3123 7d3c 59a1 b33d
00000370: 1cb6 693d 45fb 813d 086e 97bd 533d 0cbb
00000380: 84c8 083e dc90 213b 99ae 423c 3bbe b23d
00000390: f0f5 90bd deaa 56be d3e8 5bbe ea8b 0fbe
000003a0: e3ad 6c3d 2b42 48bd 67a3 b5bd 5440 29be
000003b0: 8a4c 1c3d c59c a2bc 3bc9 d53d 1340 833d
000003c0: 9d87 85be 3f86 1abc 2c1c 59be 533c cc3d
000003d0: 3cc9 efbd 6239 37bb a173 67bd 6119 833d
000003e0: 5651 72bd fd33 d03d e84b cd3d 715e 02be
000003f0: b613 3ebd c16a 31be 74a8 0c3e f63d 13be
0.19251654 0.13995855 0.16274457 -0.12497421 -0.060225714 -0.06644318 0.075851575 0.09819839
0.1691555 -0.12414186 0.037325438 -0.030414984 -0.00038772382 0.20457326 -0.14277515 -0.080729194
0.04227459 0.095377 -0.04993878 -0.03786407 -0.06633966 -0.0071819443 -0.1606436 -0.07327599
0.014161021 0.15630746 0.131243 0.04991129 -0.06521278 0.15325722 -0.16760975 0.06277958
0.021672925 -0.0332063 0.18364896 0.08859433 0.17551197 -0.12839831 -0.08606031 -0.15520501
0.101486616 -0.16666925 0.053124484 0.11285722 0.037082616 0.020659437 -0.083484925 -0.054740395
-0.10761031 0.07210548 0.093487166 -0.06806613 -0.12990089 -0.0814396 -0.11888853 -0.05362893
0.13432771 0.13949971 0.12007727 0.00041103878 -0.02727503 0.16133365 -0.20931318 0.0080121895
-0.15122573 -0.115054876 0.101252966 -0.17893274 -0.113017276 -0.15722731 0.19389977 -0.06681174
0.15178275 -0.108728096 0.13556437 -0.09854983 0.048140038 0.091616645 0.11488532 -0.09946937
0.14319563 0.1352702 0.05028245 0.07299912 -0.059552073 0.08226618 0.111445285 0.11789069
0.023572527 -0.16986164 0.17380431 -0.17455254 -0.16160208 0.010982118 0.033348344 0.13815057
-0.1344859 -0.007817368 -0.10040654 -0.23023698 0.124177895 -0.020521544 0.114075966 -0.03441493
0.12107031 -0.13497452 0.03823283 -0.07497132 0.005319127 -0.042183418 -0.19584496 -0.08672336
0.13851298 -0.15208203 0.17815378 0.09191382 0.09668867 0.14025283 -0.1756062 0.001858347
-0.037968975 0.02900356 -0.18412317 -0.034277003 0.088801324 -0.104181595 -0.003464272 -0.07533101
0.062749535 0.04600169 0.06114277 -0.05707248 -0.004556686 0.11990115 -0.028598793 0.048378292
0.06928043 0.068506196 -0.21238843 -0.13690434 -0.04075084 -0.046065114 0.16176619 -0.0020738475
-0.053499978 -0.12338716 -0.10492359 0.10803731 0.1327319 0.11913929 -0.023693189 -0.0044040317
0.12435172 -0.041298177 0.08327835 0.025402281 0.05779969 -0.18216512 -0.0917294 -0.1847944
0.14604081 0.10411381 -0.07749808 -0.15502161 -0.13004045 0.13950935 0.12465754 0.06155259
-0.14021531 0.10954036 0.014912441 0.014925696 0.17419316 0.03810786 -0.09720206 -0.023525039
-0.16196646 0.14969034 0.075744115 0.07826249 0.073378555 0.10361304 -0.12079273 0.15193571
-0.20322213 0.058442537 -0.052781906 0.00672395 0.06737633 -0.21570258 -0.052911937 0.093163736
-0.1348393 0.08663026 -0.16920187 0.045989573 -0.035784844 0.02865015 -0.105194256 0.07951055
-0.11667949 0.10676269 -0.04100804 0.10626893 -0.18531018 -0.0024283815 -0.08346986 -0.053917665
0.01924048 -0.15229788 -0.14894485 0.1302122 0.040753387 0.12045803 -0.17830868 -0.13021861
0.032591492 0.026703728 0.015450285 0.08771009 0.05705844 0.06346754 -0.07394034 -0.0021398857
0.1335774 0.0024652993 0.011882448 0.0872769 -0.07078159 -0.20963618 -0.21475534 -0.14018217
0.05778302 -0.048891228 -0.08869057 -0.16528445 0.03815893 -0.019850144 0.10438772 0.064087056
-0.26080027 -0.009431421 -0.21202153 0.099724434 -0.11708304 -0.0027957787 -0.056506757 0.06401325
-0.0591596 0.10166166 0.100242436 -0.12731339 -0.046405517 -0.1732588 0.13736135 -0.14379105

critic.0.bias f4 [64]
00000000: b661 453e bcd9 9c3d feca f7bd 0ec6 2bbe
00000010: ccfe 423e 6bef 58bc fc34 dc3d 6060 353e
00000020: 1b40 abbc 5348 423d 33bf de3d c52a 37be
00000030: 989f 3abd 49f0 f83d d596 d5bc f5b4 22bc
00000040: d61c b7bc a04b 5ebc 5fa9 24be 3037 5cbd
00000050: df08 073b e674 b1bd 3995 16be 5cd6 bdbc
00000060: a47d 603e 88f7 49bd 2fc7 b03d 2ea7 c9bd
00000070: 20e5 523b adaf 0bbe ac94 3fbd d20c 2a3e
00000080: 2566 bcbc b901 cf3c ad23 803d df9e 45be
00000090: 89b6 07be de1a 1fbd fbc5 1ebe bcba b3bb
000000a0: 33b5 b63d 5158 833c 20ca 36be 08f9 16be
000000b0: 0614 0abe 52c9 44be 6b5e 1cbe b457 d73b
000000c0: 4064 eb3d 53b8 bb3d 5059 a8bd bcf4 2cbe
000000d0: d3f4 cb3d e09b ea3d 0b03 bf3d df8c 81bd
000000e0: 769d 2b3e 26e7 27bd 8fca 36be 90a3 493d
000000f0: 728b 11be af73 493d fb3c 17be 459c adbd
0.19275555 0.07658717 -0.120992646 -0.1677477 0.1904251 -0.013240675 0.107522935 0.17712545
-0.020904591 0.047432255 0.10876312 -0.17887409 -0.045562357 0.12155206 -0.026072899 -0.009930839
-0.022352617 -0.013567835 -0.16080235 -0.05376357 0.0020604653 -0.08664875 -0.14705361 -0.023173504
0.21922928 -0.04930833 0.08631741 -0.0984634 0.0032180026 -0.13641234 -0.046772644 0.16606453
-0.022997925 0.025269376 0.062568046 -0.19298886 -0.13253225 -0.038843982 -0.15505211 -0.005484907
0.0892128 0.016033323 -0.17850542 -0.14743435 -0.13484201 -0.19217423 -0.15270393 0.0065717343
0.114937305 0.091660164 -0.0822016 -0.16890234 0.09958806 0.11455512 0.09326752 -0.06325697
0.16759285 -0.040991925 -0.17850707 0.04922825 -0.1421335 0.04918259 -0.14769356 -0.08477072

critic.2.weight f4 [32, 64]
00000000: 6bbb 953d 1960 9fbd 3c87 8cbd bdca cdbc
00000010: f199 5f3d d0b1 95bd 8252 bdbd 5e89 1cbd
00000020: 3d28 bf3d 5dc9 c33d 43e7 f6bd a590 ce3c
00000030: 0f66 8ebd e48b 06be 20d7 20bd ce3c 053e
00000040: 194d e4bc 00ba 8cbc 4939 e0bd 523b ba3d
00000050: 4b09 be3d 5a3a a83d 932b cfbd 4429 20bd
00000060: e8ec c03d 855b d13d 7a96 9abd 1a32 ba3d
00000070: 4791 4c3d 16ee d1bd 59f5 a33d c55f 1dbc
00000080: c7a8 803c a300 4ebd a19b ac3c 9b16 98bd
00000090: 8a2c 98bc c2e6 a4bc 4a08 ccbd 01f1 cd3d
000000a0: 1600 b4bd a611 823d 9c73 4b3b da47 b73a
000000b0: 80bf 1e3d 84bb b63d d049 01be 3e6c 703d
000000c0: 0f5a 8dbd 39ad d53d 7bbc 9ebd 92f2 a23d
000000d0: b880 f3bd 43e2 04bc 11d4 493d 6b1c 063e
000000e0: e77f e03d fcd2 89bd 2f61 d9bd 3825 e93c
000000f0: b5a0 cf3d b372 50bd ff41 46bd fecb 8bbd
00000100: 6e07 a93d 9dd9 c1bc 86c3 c33d 63a5 cdbc
00000110: c39e c73d 3b8b 633c a2b8 66bd fc0f 7d3c
00000120: 24d7 b2bd 5d3f a6bd 8e82 b93c 0fdf b9bd
00000130: 8b47 e03d 7a24 de3d e49f aa3d abe0 00bc
00000140: 02aa 963d b23d 953d 14a6 0cbd 2506 d33c
00000150: 5cd9 eebb 9b59 42bd df78 7bbd b49a d63d
00000160: 82af 86bd b23e 1abd 4e1b a8bd 6298 b03d
00000170: de47 c9bd 0a0e 5abd 7ea7 d53b 992d 463d
00000180: e9ff e1bd 3156 b3bd 9b58 c8bd c3a8 b83d
00000190: 1256 7e3d 45a9 15bd 8216 d73c 2703 ef3d
000001a0: 05a8 603d fadf 4e3d 237a 533d c692 f4bd
000001b0: 313c a03d 444b efbd 1a50 be3d 06fb 193d
000001c0: 1414 debd ce05 a4bc a8af 5abd 8859 e5bd
000001d0: fb2b e4bd 5843 2d3d 9603 39bd 0f63 423c
000001e0: 0e7c c93d 5a7b 7bbd 1e4a 8bbd 2eb7 903d
000001f0: 745f dabc d56b 43bd 9b37 99bd 3c51 393d
00000200: d661 663d 61f3 83bd 3c11 033e 0468 23bd
00000210: e446 a5bb cb62 97bc 7075 003d 4bcd 403d
00000220: a28e 13bd 22f9 dfbd 6fe6 9f3d 5787 edbd
00000230: 5d87 2cbc 5a41 b73d a9dd 423d 734d 7c3d
00000240: 8753 163d 3bf3 4cbd 52e4 31bd c89b 8cbd
00000250: 680d cd3c 45e5 edbc 50ea 82bd 6b9b 9c3c
00000260: 1cc5 b53d d4ed 31bd b10d 1b3d a2bb b63c
00000270: 5f52 e23d b550 20bd b2eb 053d 2e89 e03c
00000280: 6ac8 bd3d b79e 14be 643f 903d cc06 ac3b
00000290: f5b8 99bd 3b99 6f3d b8a2 0dbd 5980 0fbd
000002a0: 73dc 09bd 2f64 d4bd eb3e 7d3d 2af2 b2bd
000002b0: 83c2 d1bc 73ca b93c e8f4 f1bc d66a 633c
000002c0: 63b5 183b b2a5 813d 4c64 803d 524f 823d
000002d0: 91cb db3d 1f57 983c e239 26bc a627 f2bd
000002e0: 296a 08bc e09a 16bc 53d9 d03d 2f62 cb3d
000002f0: 1840 3c3d 8200 0fbd 5a71 8e3d 0cc7 8f3d
00000300: 182d a7bc 1d57 9a3d 544f 843c 0250 ccbd
00000310: c692 3b3d edc8 6cbd 432e 45bd 4fa0 853d
00000320: 769b a73c bcec cebd 339a 0a3d 62a3 94bc
00000330: b500 2e3d aaf3 41bd 47db 03bd ba7d d7bd
00000340: f928 363c 82c5 00bd 4d69 a8bd 9038 fcbd
00000350: 1692 b2bd 6061 da3d 8290 09be c6c3 abbd
00000360: 41f2 c63d 7aa2 373d fcc7 8d3c cf88 fb3d
00000370: 0a50 ee3d a281 c83d 35c0 803d 9b90 1fbd
00000380: 419a b9bd 1817 a03d 7347 e8bd 274b a7bd
00000390: 1a72 b8bd 22df 0d3e 0c57 38bd 43e5 c53d
000003a0: e88f bebd 0a6d c13c d784 be3d fd96 453d
000003b0: fba9 b53d 9de9 c7bd 3b5a a83d 8404 ca3d
000003c0: c41f 7ebd ab9f 883d ca9a e43d a9a8 e73d
000003d0: 44aa 93bd 5c0c b93c 7be2 63bd 4806 60bd
000003e0: 0e74 31bd 1cb1 c73c f22c 043e 08c2 7dbd
000003f0: 5bce d0bc b266 aabd fe31 8b3d d4fa 513d
0.07311138 -0.07782001 -0.068617314 -0.025121087 0.05459017 -0.07309306 -0.09244253 -0.03821694
0.09333847 0.095598914 -0.120558284 0.025215456 -0.0695306 -0.13139302 -0.03926766 0.13011476
-0.027868794 -0.017178535 -0.10948426 0.09093346 0.09279116 0.08214255 -0.10115733 -0.039101854
0.09420186 0.10222534 -0.075482324 0.09091587 0.049943235 -0.102504894 0.08005781 -0.009605353
0.01570548 -0.050293576 0.021070303 -0.07426187 -0.018575925 -0.020129565 -0.099625185 0.100557335
-0.08789079 0.063510224 0.003104425 0.0013983205 0.038756847 0.089224845 -0.12625813 0.058696978
-0.06901943 0.1043343 -0.077507935 0.07956423 -0.118897855 -0.008110586 0.049274508 0.13096778
0.109618954 -0.06729695 -0.106142394 0.02846013 0.10138074 -0.050890636 -0.048402783 -0.06826018
0.0825337 -0.023663336 0.095587775 -0.025103277 0.09747078 0.013888176 -0.056328423 0.0154457055
-0.08732441 -0.08117554 0.022645261 -0.09075748 0.10951146 0.10846801 0.08331278 -0.007866065
0.07356645 0.07287158 -0.034338072 0.025759766 -0.007289095 -0.047448736 -0.06139457 0.10478726
-0.06576444 -0.037657447 -0.08208333 0.08622815 -0.09828161 -0.053236045 0.0065202108 0.04838333
-0.11035139 -0.08756674 -0.09782525 0.09016564 0.0620938 -0.03653838 0.02625585 0.11670523
0.054847736 0.05050657 0.05163015 -0.11942057 0.078239806 -0.11684278 0.09292622 0.03759291
-0.10843673 -0.0200223 -0.053390175 -0.11198717 -0.11141201 0.042300552 -0.045169435 0.011864438
0.09838115 -0.061396934 -0.06801246 0.07066189 -0.026656844 -0.04771026 -0.07481309 0.045243487
0.056245647 -0.06442905 0.12799543 -0.03989412 -0.005043851 -0.018479725 0.031361997 0.047070783
-0.036024697 -0.1093619 0.078076236 -0.1159808 -0.01053032 0.08948012 0.047574673 0.0615973
0.03670075 -0.05003665 -0.043430634 -0.068656504 0.025030807 -0.029039988 -0.06392348 0.019117078
0.08875486 -0.0434397 0.037854854 0.022306267 0.11050867 -0.03913947 0.03269548 0.027409162
0.092667416 -0.1451367 0.07043341 0.0052498337 -0.07505981 0.05849574 -0.03457901 -0.03503451
-0.033657502 -0.10370671 0.06182758 -0.087375954 -0.025605446 0.022679543 -0.029535726 0.013880452
0.0023301474 0.06330432 0.0626913 0.063627854 0.107321866 0.01859623 -0.010145636 -0.118239686
-0.008326092 -0.0091921985 0.10197701 0.099308364 0.045959562 -0.034912594 0.06955214 0.07020387
-0.020407245 0.07536147 0.016151108 -0.09976198 0.04579427 -0.057808805 -0.04813982 0.06524717
0.020459872 -0.10103747 0.033838462 -0.018144313 0.042481143 -0.047351517 -0.03219154 -0.10522027
0.011118167 -0.031438358 -0.082232095 -0.12315476 -0.0871927 0.10663104 -0.13434032 -0.0838695
0.09714175 0.044832684 0.017307274 0.122819535 0.1163636 0.097903505 0.062866606 -0.038956266
-0.09062625 0.07816905 -0.11341753 -0.08168631 -0.09006138 0.1385465 -0.04500489 0.09662869
-0.09304792 0.023611564 0.09302681 0.048239697 0.08870312 -0.09761355 0.08220335 0.098641425
-0.062042013 0.06671079 0.11162336 0.11311466 -0.0721021 0.022588901 -0.05563591 -0.05469349
-0.04332357 0.024376445 0.1290777 -0.06195262 -0.025489023 -0.08320369 0.06796645 0.0512646

critic.2.bias f4 [32]
00000000: d4f7 24bd ee85 653c bfbb d6bd 8c20 413c
00000010: 7a86 993d 4dd6 81bd f9d0 fa3c a61e d6bd
00000020: 0d84 babc 30a4 963d ddbc 893d 0747 7a3d
00000030: 3334 e83d 0317 b2bd 7fa4 a53d 220a 2c3d
00000040: 2522 b8bd 9dac 47bd dd61 11bd 3379 993d
00000050: 5907 8a3d 8786 333d 268e c03a 9076 61bd
00000060: e333 0f3e af2b 28ba a4c9 a23d 4080 843d
00000070: 2a71 19bc 3118 e43d aa51 00bd fe64 f83d
-0.04027541 0.014008982 -0.104850285 0.011787545 0.074963525 -0.06339703 0.030617224 -0.104550645
-0.022768045 0.07355535 0.06725476 0.061102893 0.11338081 -0.086957954 0.08088016 0.04200185
-0.089908876 -0.0487486 -0.03549372 0.0749382 0.06739683 0.043829467 0.0014690801 -0.05504471
0.13984637 -0.0006415201 0.07948616 0.06469774 -0.009365359 0.11137427 -0.03132788 0.12128638

critic.4.weight f4 [1, 32]
00000000: 227b 403d aad0 903d 03c0 02be a890 31bd
00000010: 3434 953d d4cc 6639 88bf c23d 8d76 013e
00000020: 69e1 443a 425a 113e 814b a23d bf9c 9ebd
00000030: fb6e 5dbc 6bde 21bd a831 823c 48d7 f1bd
00000040: 9ac4 fd3d 27b0 bebd 5cf2 0ebd 76cd 2a3d
00000050: 53b1 67bc f4b4 a7bd 8ad8 a7bc 847f 83bd
00000060: 18d0 1cbd 6287 b33d afff 56bc 7cd3 a1bc
00000070: 6c64 d73d ba05 f1bd 652a 0d3e d4a2 b5bd
0.04699243 0.070710495 -0.12768559 -0.043350846 0.072853476 0.00022010814 0.09509188 0.1264288
0.00075103954 0.14194587 0.079245575 -0.07744741 -0.013515229 -0.039518755 0.015892819 -0.1180864
0.123910144 -0.09310942 -0.0348991 0.04169985 -0.0141413985 -0.08188811 -0.020488996 -0.06420806
-0.03828439 0.087660566 -0.013122483 -0.019754164 0.10517201 -0.117686704 0.13785703 -0.088689476
