Policy Gradient/walker_ppo_model_old_15800.pth (torch, 34325 bytes, 11 tensors)

actor.0.weight f4 [64, 24]
00000000: 5c84 babd dc02 ca3e f872 05bd 59b8 443f
00000010: f387 07be 0ea4 8bbd 7997 4f3f 6d50 12be
00000020: a209 57be c3c3 04be 8988 b03c 1cb4 78be
00000030: 9997 b83d 8a5d 0a3d 5b65 713e 09e8 433e
00000040: 0ec8 4d3d 5778 b9bc e75a 4b3e efe0 06be
00000050: dbc1 893d 61e6 2e3e fb73 0d3e 1967 e73c
00000060: 5723 a43c 2b09 cdbb ca80 723e 41e4 b03d
00000070: e1dc 893e 668e 5d3e 22c5 503f 87b8 0abe
00000080: 25be 2ebe b126 88bd 25c0 c13d 84d6 643d
00000090: 82a1 1b3b b89d 9b3d 7efb 023e 8ec2 b33d
000000a0: 8a34 18bd 9ef3 df3d 005d d4bd 50eb 3d3d
000000b0: ad44 023d 110d 76bd 73c8 15bc 4e16 f63d
000000c0: 82c4 8abb 9000 f9be 61d8 d8bc a110 0cbf
000000d0: 4a79 4fbe 8cd1 ce3d 6a97 013f 0178 4f3d
000000e0: 1947 6bbe 8c6b 153e baa1 44be 191c a53e
000000f0: eda9 ccbd 5439 843e 9740 82be 0d69 78be
00000100: ced8 6abe 1660 393c 53c4 7ebe 908b b33d
00000110: 67a5 8fbd 8185 2fbe 15e1 4fbe 94eb 38bd
00000120: 7849 79be d72b 39be b03e 23be e3a5 6ebe
00000130: 01a1 e4be 787c 37be 490a 863c cfed 2dbe
00000140: 8138 d1bd 1156 253e c9c2 de3d 1ef5 67bd
00000150: bff9 9a3d 7f40 1b3d cc60 2bbe 8201 81be
00000160: fbe1 2bbe eeeb 8f3d ed98 8dbd ea2e 5e3d
00000170: e288 bb3c 0f4f 2dbe a71b 133e 9634 633d
00000180: 66ea bbbd 3fe1 4cbe d9a4 98be cd83 dbbe
00000190: a82e 5e3d 2bde 60bd 631e e2be e939 47bd
000001a0: e828 b3bd bb35 d6bc f711 a33c f7b1 f93e
000001b0: 3a57 2a3e 4fae 723e e002 a73d 7371 9b3d
000001c0: 8e8d 5bbe f57d bebc 1c16 c5bd 12bb 4cbd
000001d0: 3811 123d 5cd1 11be a554 26be 0ddc a73d
000001e0: 7e5e 0b3e 2d4c a4be c599 a43d 6a15 a9be
000001f0: e17d aa3d e3f6 6c3d ed55 d73e a5c0 a5bd
00000200: 6ae5 143e 35cc a1bd b98c 94bd 3bc8 af3d
00000210: ac95 debd 238d 823e d4e4 1fbd 11ad 10be
00000220: 92ab 0cbc dd6d 163e 1102 02be 2694 1dbe
00000230: 8765 43bd 76cf 493d 18e9 ebbd 9264 073c
00000240: c0cd 8abd 582d b6be 37ef 843d ea4e 10bf
00000250: 5724 90be e9e5 4c3e b2ea 853e 4d43 c13b
00000260: 1600 4e3d 0828 363e 997b a43d 6d75 863e
00000270: 96be 1c3e 835a 2e3e 4b4f bdbc 0636 ce3c
00000280: 667c a73d 0862 803d 1af9 3dbe 32d8 643d
00000290: aee0 f6bd cd04 90bd 713b 3cbe f205 48bd
000002a0: 0d41 adbd 5e38 443e 0102 703e 7b83 1f3f
000002b0: dd89 9a3e bf80 de3c 99df ff3e ab74 363c
000002c0: e657 933c eff1 e6bc 7ef6 ecbd 524a b8be
000002d0: 3daa cfbd b52a f5bb bc6f 593e 64e9 e93d
000002e0: baef fa3d 8369 f73c 61f0 723d b750 48bd
000002f0: fc29 013e 1d27 0e3e 862f a43d fbe9 66be
00000300: 88a2 6cbd 6f50 97be 8319 90be cd4e bbbe
00000310: 5385 903e 844f 4abd af16 30bf 270b 273d
00000320: e11e 863e 1b1c 3abd 7cdd 75bb ac1d 4f3e
00000330: aa74 b9bd 016f 32be 4201 143e 14fb ca39
00000340: ddcd 22bd 2700 b7bd 60ad 553c 53db 0a3e
00000350: 33f1 053e c1b6 81bd 2275 03be f692 333e
00000360: 0ee4 12be 5b5c ae3c 0263 83be f89a 06bf
00000370: 7a85 7bbe 1ee1 b2bd 952b 42bf 5db4 a7bd
00000380: 68b9 9a3d b3ff 3e3e 81c3 2e3e ae58 3cbe
00000390: 2f9b 553d 7fdd b53d 1ccd 1bbd 178a 21be
000003a0: d97c c73d cfd4 28be 6fd1 03bd 3fb1 8bbe
000003b0: 1d1b 83bd 2593 f4bd dfaa 813d ddda fb3d
000003c0: d2c2 e7bc b326 e73e b5bb 2e3e a6d8 d13e
000003d0: 03a5 6d3e 98d1 36bd 42ae 5e3e bfe8 123d
000003e0: 982f dcbb 3593 9fbd 3fc3 4f3e 6583 c4be
000003f0: 1113 f93d 1d54 02be 61b3 13bd 9c36 933d
-0.09107277 0.39455307 -0.032580346 0.7684379 -0.13235454 -0.068184 0.81090504 -0.14288493
-0.20999768 -0.12965302 0.02154948 -0.24287456 0.0901329 0.033780612 0.2357382 0.19131483
0.050239615 -0.02264039 0.19858895 -0.13171743 0.06726428 0.1708007 0.13813774 0.028247403
0.020036383 -0.0062571964 0.23681942 0.08637286 0.2692633 0.21636352 0.815508 -0.13546954
-0.17064722 -0.06648005 0.09460477 0.05586864 0.002374739 0.07598442 0.12791249 0.08777343
-0.03715948 0.10935138 -0.10369301 0.04636699 0.031803776 -0.060071055 -0.009142029 0.12015973
-0.0042348513 -0.48633242 -0.026470365 -0.54712874 -0.20261112 0.10098562 0.50621665 0.050651554
-0.2297634 0.14591807 -0.19202319 0.32248 -0.09993348 0.25824988 -0.25439903 -0.24258824
-0.22934267 0.011314413 -0.24879579 0.08766854 -0.0701397 -0.17140771 -0.20300706 -0.04514654
-0.24344432 -0.1808313 -0.15941882 -0.23305468 -0.44654086 -0.17918575 0.016362326 -0.16985248
-0.102158554 0.16146113 0.10876996 -0.056630246 0.075671665 0.037903305 -0.16736144 -0.25196463
-0.16785423 0.07027422 -0.06913934 0.05424396 0.02289242 -0.1692469 0.14366017 0.05547007
-0.09175567 -0.200078 -0.2981327 -0.42873994 0.054243714 -0.054899376 -0.44163808 -0.04863921
-0.087480366 -0.026148668 0.019906027 0.4876859 0.16634837 0.23699306 0.08154845 0.07589998
-0.21440718 -0.02325342 -0.09623358 -0.04998309 0.035660952 -0.1424002 -0.16243227 0.08196268
0.13610265 -0.32089368 0.08037142 -0.3302415 0.08324791 0.057852637 0.42057744 -0.08093385
0.1454064 -0.079002775 -0.07253403 0.08583113 -0.108683914 0.25498304 -0.039036587 -0.1412852
-0.008585827 0.14690347 -0.12696101 -0.15388545 -0.047704246 0.049270116 -0.115190685 0.008263724
-0.06777525 -0.3558147 0.06490939 -0.56370413 -0.28152725 0.20009579 0.2615562 0.0058979155
0.05029305 0.17788708 0.08031387 0.26261464 0.15307078 0.17026715 -0.023109099 0.025172245
0.08178024 0.06268698 -0.18552056 0.055870242 -0.12054573 -0.07032166 -0.1838205 -0.048833795
-0.08459673 0.19162127 0.23438264 0.6231 0.30183306 0.027161 0.4997528 0.011136214
0.01798625 -0.028191535 -0.11570452 -0.35994202 -0.10139892 -0.0074818977 0.2123403 0.11421469
0.122527555 0.03020168 0.059311274 -0.0489051 0.12613672 0.13882108 0.08016877 -0.22550194
-0.05777219 -0.29553553 -0.28144464 -0.36583558 0.28226718 -0.04939224 -0.6878461 0.04078212
0.26195434 -0.04543696 -0.0037516048 0.20226163 -0.09055455 -0.17425157 0.14453605 0.0003871551
-0.039747108 -0.08935576 0.013041824 0.13560228 0.13080291 -0.06333686 -0.12837651 0.1753653
-0.14344808 0.021284273 -0.25661474 -0.52580214 -0.24562636 -0.08734344 -0.7584775 -0.081886984
0.07554895 0.18652229 0.17066766 -0.18393204 0.052149948 0.08880138 -0.038037404 -0.15775333
0.0974061 -0.1648743 -0.032182153 -0.27283666 -0.06401656 -0.11942128 0.06331419 0.12297604
-0.02829114 0.45146713 0.17063792 0.40985602 0.23207478 -0.044633478 0.21746162 0.035866495
-0.006719541 -0.077917494 0.20289324 -0.38381496 0.1216184 -0.12727399 -0.03605974 0.0718815

actor.0.bias f4 [64]
00000000: 62e2 33be fa88 23be 93bf 813e e404 1e3a
00000010: 98d4 8d3e 5b8f c2bd dd66 fdbd 228a b5bd
00000020: c316 37be c403 253e cab5 21be 1162 6a3c
00000030: 3517 05be ee7b 413b 455b 52bd 352f b5bc
00000040: c2a4 99bd ab11 f3bd df0d 1c3e 1eef f33d
00000050: 64a5 9dbd fe02 e43d 134a 6c3e 13cd cebd
00000060: 3611 30be 02c0 1a3e 280f 91bc dd27 49be
00000070: 7e1c 1fbe 5338 49be fdfe 1e3e e8ac eebd
00000080: e613 4bbe 99cd 263e 5b01 3ebe 87d6 2dbe
00000090: 668c c1bd dae8 48bc cb85 b63d 2900 363e
000000a0: 8853 3b3e 485e 133e 07f4 0a3e ee40 103d
000000b0: a0af 183e ab86 d4bc 32b4 d73d 2b3d 60bd
000000c0: 9b0e 603d 8a57 85bd 7536 45be 9ff7 8f3d
000000d0: ba13 023d 7af0 973d 81f5 0dbe 49d0 0a3e
000000e0: 3f67 083e aae0 343e 5261 bbbd c812 89bb
000000f0: 323e d83d bd25 25bc 5832 20bd 92c1 3f3e
-0.17566827 -0.15970221 0.25341472 0.00060279504 0.2770126 -0.09499999 -0.12373135 -0.08864237
-0.17879777 0.16114718 -0.15792003 0.014305607 -0.12997134 0.002952333 -0.051356573 -0.022117237
-0.07502128 -0.11868604 0.15239666 0.11910842 -0.076975614 0.11133383 0.23075132 -0.100977086
-0.17194065 0.15112308 -0.017707422 -0.19644113 -0.15538213 -0.19650392 0.15526958 -0.11654073
-0.1983181 0.16289367 -0.18555205 -0.16976367 -0.09450607 -0.012262547 0.08912238 0.17773499
0.18293583 0.14391434 0.13569652 0.03521817 0.14910746 -0.025943121 0.105324164 -0.054745834
0.05470143 -0.065108374 -0.19259055 0.07029652 0.031757094 0.07418914 -0.13863184 0.13556017
0.13320635 0.17663828 -0.09149422 -0.004183147 0.10558738 -0.010079798 -0.03911051 0.18726185

actor.2.weight f4 [32, 64]
00000000: b6bc d83c 916b ac3d 174a ba3c a9d8 88be
00000010: 40e9 1c3d ea40 013e 64f7 413e 71b0 563d
00000020: 0495 713e 1dd3 83be f461 493e 478a 513e
00000030: f495 493c 6d39 6d3c ee1f a23d a357 e6bd
00000040: 9b64 0bbc 7bbe a83e c5aa c33d cde7 cdbd
00000050: 691c 873e 60f3 ccbe 08ad 09bf d32b fc3c
00000060: c568 ae3d fa36 103e 83c0 7a3e 2d01 52bd
00000070: fe41 f83d 7fa4 433e 76e7 ca3c 4560 e63c
00000080: 926d 6a3d 416d 783d b5ba 403d 1c1e 073e
00000090: 09b5 ed3c 300d 05be f654 58bd 68d5 7dbe
000000a0: 18e1 11be 3e49 d9bd df8b eebd 2107 44be
000000b0: 591c aa3c 9375 5b3e 177c 053b f934 52be
000000c0: f357 633d 84c3 323d 1ecd 783e 28b4 a2be
000000d0: cc5d db3c ecac 8bbd 35f9 6fbe 66f5 11bd
000000e0: 50b6 99bb 4450 98bd e539 c7bc d815 6c3d
000000f0: 8001 73be 3f67 4dbe a127 0fbc c6ce 39be
00000100: 2017 01bf 06df 68be bb51 44bd 5e59 2ebc
00000110: b57d b03e 2e49 1fbd 98e4 b2bd 26cb e0be
00000120: 0ec8 873e ae4f 863e 7b37 34be e1ad c93d
00000130: 821d a2bd 2f86 ff3e 4c8c aabe f5d5 2bbe
00000140: ff58 2abe 77e3 783d dd59 0bbe e1fd 9abe
00000150: 00de 4abe be96 82be d0da 153d fb47 4cbe
00000160: f539 5cbd 852d b23b 9c96 2cbc 604a 74bc
00000170: 18b2 6bbe cdb4 43bd a395 cc3c 3b03 a73c
00000180: d2f7 16be 8899 f83d 4046 59be 4205 c5bd
00000190: a1cf 20be 9aa0 d8ba 017c 39be ebf3 d93e
000001a0: 9548 543e 18f8 823c fc08 483e c237 0c3d
000001b0: 3192 70bd 1768 34be a472 603e f24f 79bb
000001c0: 322c 72be a7ac 16bd f2e3 21be e511 c23d
000001d0: fae3 5a3d 8c85 083e 0190 ecbe 90ac a93d
000001e0: 0348 0b3e b454 2b3d e6d1 30bd 2e43 dc3d
000001f0: cc21 cfbb 8568 4d3d bd07 8bbd aaa7 c33e
00000200: 967d b5bc 91b1 dcbc 1835 173e 776d 8c3e
00000210: 0cbb 1f3d 0709 27bd 5ebb d83d 3679 86be
00000220: 8f5b d0bd 5d1f e23d 7644 6ebd a60a 99be
00000230: 5b9c 19be 7b66 41bd 9c27 60bd 6c15 e0bd
00000240: 7a97 1ebe 6b48 febd 0993 0e3d 60c1 763e
00000250: f076 12be 43e1 963e 778c b33e 1569 203d
00000260: 8a5e 353c fd3b 97bd 392f ecbd 63e5 c7bd
00000270: 49c5 d4bc db12 eebd 3bf7 49ba 51cf 5bbe
00000280: cc6e be3d f3ef f53d 365d f23d 33c6 45be
00000290: b62a edbb 9c41 b53d bdf9 5b3a 59c3 733e
000002a0: 7806 173e ff7d a23e c503 963d 6df4 00be
000002b0: 311c 1d3e 9f12 ddbe 9f69 95bd dcdb b13e
000002c0: 8fca 58bc 9b32 a8bc 6f80 1dbe d8aa 753d
000002d0: 7f3f 20be 3d9f 1a3e 82d4 783e e468 8e3d
000002e0: b737 87bd 468b c5bc c03a d03d cec1 a13c
000002f0: 5d1d 1f3e 67a4 4d3d 4599 6f3d f93f 5d3e
00000300: 94a5 a03d 239f a83e 83b3 e83e 860f 353e
00000310: 482e 07be 0f72 0a3e 2a85 7e3e 4c0a 613b
00000320: 3c1a 95be d007 29be 247d 3fbe d453 30be
00000330: d80c 3c3a e3f0 8abe 748c 3b3e 87dd 303e
00000340: f4df 3dbd c493 b7be 6f36 f33d d009 113f
00000350: 73c5 8ebb 0afc 373e 83ee 023e c73d 50b9
00000360: 49e8 e63d e762 793c 95be 923c e4a1 cebd
00000370: cc34 473e c1b3 453d d524 9fbe e642 17bf
00000380: bc43 0fbe 86a1 c43e 5864 233e b9d0 0abe
00000390: ba0a 35bd e996 c2bd e35e 953e f553 50be
000003a0: bb5a 643e 5dbe ad3c d24e 44bd 1e8e 04bd
000003b0: 9527 aa3e 9290 103c 373b 6d3e 81f3 793e
000003c0: 9cb0 a53e 3d86 ac3d 0ee0 d8be 37e7 403e
000003d0: e946 82be 4dce cdbd 53fc a33c 25e5 73be
000003e0: 20a1 acbc e9f1 253e 36f1 0a3e 6094 573d
000003f0: 165c 903e 1c29 803d 1c0d 7cbd 38ea f33d
0.026457172 0.08418954 0.022740407 -0.267278 0.038308382 0.12622419 0.18942028 0.05241436
0.23592001 -0.25747004 0.19666272 0.20462905 0.012303818 0.014479023 0.07916246 -0.11247184
-0.008507873 0.32957825 0.09554056 -0.10053978 0.26388863 -0.4002943 -0.5377965 0.030782616
0.08516077 0.14083472 0.244875 -0.051270653 0.12121962 0.19105719 0.024768572 0.028122077
0.0572334 0.060651068 0.047053058 0.1319508 0.029016988 -0.12993312 -0.0528154 -0.2478844
-0.14246023 -0.10609673 -0.11647772 -0.19143344 0.02076547 0.2143157 0.0020368153 -0.2052802
0.055503797 0.04364349 0.24296996 -0.31778073 0.026778124 -0.068200916 -0.23434909 -0.03563442
-0.004690923 -0.074371845 -0.024319598 0.05763802 -0.23731041 -0.20058917 -0.008737476 -0.18145284
-0.5042591 -0.22741327 -0.047929507 -0.010641424 0.34470907 -0.03888815 -0.08735007 -0.4390499
0.26519817 0.26232666 -0.17599289 0.09847618 -0.079157844 0.4990706 -0.33310163 -0.16780837
-0.16635512 0.060763802 -0.13608499 -0.3027182 -0.19811249 -0.25505632 0.03658563 -0.19949333
-0.05376621 0.0054375553 -0.010533955 -0.0149103105 -0.23017156 -0.047779847 0.024973696 0.020387283
-0.14742973 0.12138659 -0.21218204 -0.096201435 -0.15704204 -0.0016527355 -0.1811371 0.42568907
0.20730813 0.015987441 0.19534677 0.034232862 -0.05873317 -0.17617832 0.21918732 -0.0038042036
-0.23649672 -0.036785748 -0.1580961 0.09476069 0.05344007 0.13332194 -0.46203616 0.08284867
0.13601689 0.041828826 -0.043168925 0.10755001 -0.0063211676 0.050148506 -0.06788585 0.38213855
-0.02215461 -0.026940139 0.14766347 0.27427265 0.03899674 -0.040780094 0.105826125 -0.26264352
-0.101737134 0.11041138 -0.05817076 -0.29890937 -0.15001051 -0.047216874 -0.054725274 -0.10941586
-0.15487471 -0.124161564 0.034808192 0.24097204 -0.14303184 0.29468736 0.35068104 0.039162714
0.011069903 -0.07384489 -0.115324445 -0.09760549 -0.02597298 -0.1162469 -0.0007704382 -0.21465804
0.092984766 0.12008657 0.11834185 -0.19313888 -0.0072377576 0.088504046 0.0008391401 0.23804988
0.14748561 0.31736752 0.07324938 -0.12593241 0.15342785 -0.4317827 -0.07295536 0.34738052
-0.0132318875 -0.020531943 -0.15381025 0.059977382 -0.15649222 0.15099807 0.24299815 0.069536
-0.06602424 -0.024114262 0.10167456 0.019745734 0.15538545 0.050205614 0.05849578 0.21606435
0.078440815 0.32933912 0.45449457 0.17681703 -0.13201249 0.13520072 0.24855486 0.0034338413
-0.29121578 -0.16506886 -0.18700081 -0.17219478 0.0007173545 -0.27136907 0.18315297 0.17272006
-0.046356156 -0.35854924 0.11875617 0.566556 -0.004357034 0.17967239 0.12786298 -0.0001985944
0.11274774 0.015221334 0.017913142 -0.10089472 0.19453734 0.04826713 -0.31082788 -0.59086454
-0.13990682 0.38404483 0.15956247 -0.13556184 -0.044199683 -0.0950144 0.29173955 -0.20344527
0.22300236 0.021208936 -0.04792673 -0.032362096 0.33233324 0.008823531 0.2316712 0.24409296
0.32361305 0.084240414 -0.4235844 0.18838201 -0.25444725 -0.100491144 0.020017779 -0.2381788
-0.021072924 0.16205563 0.13568577 0.052631736 0.28195256 0.06257841 -0.06153594 0.11909908

actor.2.bias f4 [32]
00000000: a1af 42bd ba73 233e e2eb 893d b70e 373d
00000010: b1d6 f9bc a990 bfbd 0237 a0bd 4f0a 633c
00000020: 87fd 44bb 49f6 953d 09d6 95bd b869 88bc
00000030: 1352 debd c8f2 c53d 3272 eebc 847f 83bc
00000040: 6f6a 113e aceb 7bbd 5954 9b3d 7529 a23c
00000050: 50f6 323d 5c38 8e3c f736 2dbd 641a 0c3e
00000060: 6e78 2bbe ee4b b63d 7e85 b43c 7134 b5bd
00000070: 14e7 263c 7589 86bd 1512 073e 2dea 21be
-0.047530774 0.15962115 0.06734444 0.044691768 -0.03049788 -0.093537636 -0.07822992 0.013857438
-0.003005834 0.07322366 -0.073162146 -0.016651973 -0.10855498 0.096654475 -0.029107187 -0.016052015
0.14200757 -0.06150405 0.075844474 0.019795159 0.043691933 0.017360859 -0.042288747 0.13681942
-0.16745159 0.08901201 0.02203631 -0.08847893 0.010186929 -0.065691866 0.13190491 -0.15811987

actor.4.weight f4 [4, 32]
00000000: 180f b3be 34d1 a7bd acac fd3e 6ad5 3d3e
00000010: ab85 69be c290 07bf 986c afbd 1ff5 b53d
00000020: e69b 483e b7c0 e1be 365b 53be 1c53 893c
00000030: 7cd5 89bf 2aca fe3d fc6c f53e 30cc 613e
00000040: 3731 233d 8cf4 f73d a461 803e 2acd 393f
00000050: 47eb 093e f70c d43e c46b 243e 0d67 543f
00000060: 1d81 67be 7810 1ebe 31b4 653c 0822 433e
00000070: 0126 44be 25c8 aebe f345 e73d d11f 3fbe
00000080: fb3a 65be 84e3 393f 9037 d13e d3de acbe
00000090: c1ac 82be a1eb 843d 108a d3be d916 cdbe
000000a0: a2fc eabe 1d77 86bc bad5 2b3f 534c 953f
000000b0: 04aa f33c 86d3 b43e 437c 443e 9239 28bf
000000c0: ca8a e13e e78f e5bc c8cc 383f 929e db3d
000000d0: 5982 79be acad a23e c2db f93e 3cab 023d
000000e0: 12aa 6dbe ab67 0f3e d64e 233d 1625 0fbf
000000f0: 8b8d 093f 5a92 a9be c8b3 dbbe 88a6 08bf
00000100: df95 363d 31c1 0e3c 184f 76be 0ca7 d1be
00000110: 9d08 c9bd 31ed 1b3e 4371 96be 68ee c1be
00000120: b649 91be 2234 c03d 22f6 5ebe 9bfb 2b3e
00000130: 13a7 573e 6a56 5f3e f7b5 a8bc c9b6 8b3d
00000140: cb13 623e 9b27 cabe 0387 1abe 9b1c 90be
00000150: 0ab3 da3c 9a2b 033d 392d a3be 7685 f0bd
00000160: 1c4b 74bd 1268 f63d 6679 663d 8094 92be
00000170: 6f21 65bd 64aa 283e 05a1 d33e 1101 123d
00000180: b407 66bd 3686 3cbe 1e57 ac3a 6068 18be
00000190: 3b8e e7be 61bb 6f3e bfa6 94be c6a2 d9bd
000001a0: 1699 01be 044b cf3e 4201 7bbc 3c2f 4a3e
000001b0: 3371 3ebd c5df 58be 85d1 d2be da9a 033e
000001c0: 13a3 9fbe b94c 4bbf 0adb 293e 3c9f b63b
000001d0: fe8e c1be c214 d1be 02ed a8be b9eb d13d
000001e0: d3ee c73e d629 18bf 9917 2bbf c7be cb3c
000001f0: 81bb 8a3e a26d a2be e2c3 cd3e 9336 4bbe
-0.34972453 -0.08194199 0.495458 0.18538442 -0.22804897 -0.5295526 -0.085656345 0.08884644
0.1959072 -0.44092342 -0.20640263 0.016763262 -1.0768275 0.124409035 0.4793471 0.22050548
0.039841857 0.121071905 0.25074494 0.7257868 0.13468657 0.4141614 0.16056734 0.82969743
-0.22607847 -0.1543597 0.014020012 0.1905595 -0.19155122 -0.34137073 0.11292639 -0.18664481
-0.2238578 0.72612786 0.40862703 -0.3376375 -0.25522426 0.06490255 -0.4131627 -0.40056494
-0.4589587 -0.01641422 0.67122996 1.1663917 0.029744156 0.3531763 0.19188027 -0.65712845
0.440512 -0.02802272 0.7218747 0.10723604 -0.2436613 0.31773126 0.48800474 0.031901583
-0.23209408 0.1400439 0.039870106 -0.55915964 0.537316 -0.3311947 -0.429106 -0.53379107
0.044576522 0.008713053 -0.2405361 -0.4094776 -0.09816096 0.152272 -0.29383287 -0.37877202
-0.2837655 0.093849435 -0.2177358 0.16795199 0.21059828 0.21810308 -0.02059458 0.06821973
0.22077863 -0.39483342 -0.15090565 -0.28146824 0.0266967 0.032024004 -0.3187044 -0.11744206
-0.059641942 0.120315686 0.05626812 -0.28628922 -0.055940088 0.16471249 0.41333786 0.03564555
-0.05615969 -0.18410572 0.0013148522 -0.14883566 -0.452257 0.23411323 -0.29033467 -0.1062675
-0.12656054 0.4048692 -0.015320124 0.19744581 -0.046494674 -0.21179111 -0.41175476 0.1285204
-0.31179103 -0.79413944 0.16587463 0.0055731814 -0.37804407 -0.4083615 -0.32993323 0.10250039
0.39049396 -0.59438837 -0.6683288 0.024871243 0.2709618 -0.31724268 0.4018851 -0.19845037

actor.4.bias f4 [4]
00000000: 7121 123e 7d82 92bd 862c 5f3e de5d 31be
0.1427057 -0.07153795 0.21794328 -0.17320964

critic.0.weight f4 [64, 24]
00000000: 2095 4f3e 7460 0c3e f5dd 273e 2eea febd
00000010: 32ea 86bd 3447 a2bd 32a5 9f3d b546 db3d
00000020: aa00 333e 3b5d f7bd f619 693d 9d11 1dbd
00000030: 1a77 9f38 01d0 513e a826 12be e21d a3bd
00000040: 1196 343d 38ab c63d da51 48bd cd6e 17bd
00000050: 3837 86bd b867 d3bb 7891 23be 56d3 92bd
00000060: d122 963c c2e9 1c3e 2df4 103e 8422 233d
00000070: 9d06 99bd 4cf9 1b3e db9f 34be 298d 843d
00000080: 2b5c 1a3d ae66 e6bc 1312 3b3e 6408 e13d
00000090: 64f0 3f3e 4691 01be b4c7 9dbd a67a 16be
000000a0: f0bf df3d 756c 22be dd5e 7d3d ced0 f93d
000000b0: 6bc7 3e3d e15f f93c a4ce 97bd 7031 3abd
000000c0: da84 a7bd a993 863d 84dc c13d dd90 83bd
000000d0: ed3a 1bbe eb13 bcbd 801a d7bd 51d6 8dbd
000000e0: 0ab9 213e 7411 103e a478 143e 3645 7d3b
000000f0: fa1f 64bd eb0f 243e 7696 53be 095c 283c
00000100: 08d6 18be 6078 e7bd 5eee d33d 5005 35be
00000110: 1399 e3bd 16aa 1fbe 2ce5 483e a42c 81bd
00000120: f0b5 203e e81b d6bd c491 0c3e 760f a9bd
00000130: 116f 3c3d 7d25 c43d 0c9d ed3d 8143 d7bd
00000140: 6de0 143e 021b 0d3e 0fce 663d 6d92 983d
00000150: 8961 81bd 69ae aa3d 816d ea3d f82d f53d
00000160: 8ced c83c e3da 2cbe 7995 333e 7520 31be
00000170: 8add 23be 7f4b 503c 0437 113d 61a7 0f3e
00000180: 85c3 0bbe 1407 0bbc 55ed d8bd ad6c 64be
00000190: ae43 053e 7b23 a3bc 8c23 f63d c1b2 0dbd
000001a0: f1f1 ed3d 7823 10be 7577 3b3d c496 a3bd
000001b0: 0ad7 863b 7af0 44bd d05b 4dbe 9b63 bdbd
000001c0: 012b 073e 2846 22be 8265 303e 1d33 b03d
000001d0: 1de7 b93d ed86 093e 6423 3abe 5a4c 8bbb
000001e0: f5c3 f2bc 6495 183d 8e23 34be 3dcb 03bd
000001f0: fefa a53d d031 dfbd 79c5 2cbc 16a1 a3bd
00000200: eb46 933d 7a1d 5f3d 2af8 963d 73d8 57bd
00000210: 7b3f d7bb 686c 023e cd7e a3bc 9c5a 653d
00000220: 04fd 9b3d ebae 9a3d 17c2 51be f95a 04be
00000230: 8b0b 07bd f8a7 1bbd 4147 2e3e cb5b cb3b
00000240: 1b55 61bd d05e 07be c29c d3bd b95a db3d
00000250: e580 073e 241e f73d 55fd e0bc d1a3 1ebb
00000260: 912d 013e 222c 1fbd b40c b33d 0458 c53c
00000270: cef7 7c3d d22c 38be 5a8c b9bd b6e0 3abe
00000280: 72c4 183e 8d70 db3d a58d 99bd 9327 1cbe
00000290: e084 02be d77e 113e 7e15 023e 6254 823d
000002a0: e191 12be ecb2 e03d 14ea 923c 931c 4a3c
000002b0: 1331 323e d46c 223d 5751 d2bd 2ca7 b0bc
000002c0: c34e 22be 1b1a 1d3e 5625 a93d 04d8 a93d
000002d0: ac45 9d3d f029 d63d 3ee2 f2bd 2006 1f3e
000002e0: 86cb 4bbe 4509 803d 11b3 49bd 63ec 273c
000002f0: d049 913d d536 59be 95e1 49bd a952 c53d
00000300: 08d1 10be ad5b ac3d 9a6d 30be 8e16 243d
00000310: b1ec 00bd 416c 033d 3e68 d5bd 7fab ab3d
00000320: 0b54 f3bd 05dc d43d bfca 1ebd 6ac7 d13d
00000330: 7e58 39be 349a a3bb b2e1 b4bd 33f8 6bbd
00000340: 4548 863c 1bf9 1ebe 3b0d 1cbe 3ace 013e
00000350: 30f4 183d 0495 ef3d 6886 3abe af60 09be
00000360: f844 713d 9d0f d63c 0cd8 e63c 5f7a ab3d
00000370: 4b92 8c3d ddad 6f3d 1885 96bd 2993 cfbc
00000380: eba6 223e 6f1a ce3a be61 043d ad67 823d
00000390: ada7 a7bd 96ef 59be a263 5cbe 7b6a 0fbe
000003a0: 7699 6e3d 81bd 46bd bee4 b5bd 5456 2abe
000003b0: 77e2 0f3d 6215 e0bc 78f5 b43d 7424 503d
000003c0: 2c6d 8abe 4a3a 73bb 8da4 54be 78fa e43d
000003d0: 2fa9 01be b6eb 70bc f89d 6abd 74c6 9e3d
000003e0: 483c 55bd 2e65 e53d dacf ff3d e070 05be
000003f0: e008 69bd fb96 34be b8f0 123e 6287 0dbe
0.2027173 0.13708669 0.16393264 -0.1244701 -0.06587638 -0.07923737 0.077951804 0.10706846
0.17480722 -0.12078329 0.056909524 -0.038346875 7.603895e-05 0.20489503 -0.14272559 -0.07964684
0.044088427 0.09700626 -0.048906185 -0.036970902 -0.06553501 -0.006451573 -0.1597346 -0.071692154
0.018327149 0.15323547 0.14155646 0.03982784 -0.074719645 0.15231818 -0.17639105 0.06472237
0.037685554 -0.028125133 0.18268614 0.109879285 0.18744045 -0.12653074 -0.07704106 -0.14695224
0.10925281 -0.15861686 0.061858047 0.121980295 0.0465769 0.030441226 -0.074124604 -0.045457304
-0.08179636 0.06571133 0.09465888 -0.06424115 -0.15159197 -0.091834866 -0.10503101 -0.06925643
0.15793243 0.14069158 0.14499146 0.003864599 -0.055694558 0.16021697 -0.20662865 0.010275849
-0.14925396 -0.113022566 0.10348199 -0.17677808 -0.11113181 -0.15592226 0.19618672 -0.06307343
0.15694404 -0.104545414 0.1372748 -0.08254902 0.04600436 0.09577463 0.1160222 -0.10510922
0.14538737 0.13779834 0.056348857 0.074498035 -0.063174315 0.08334047 0.114466675 0.119716585
0.024527334 -0.16880374 0.17537488 -0.17297538 -0.16002479 0.012713312 0.035452858 0.14028694
-0.13648804 -0.008485574 -0.105921425 -0.22307082 0.13014099 -0.01991438 0.12018499 -0.0345943
0.11618412 -0.1407603 0.04576822 -0.07987741 0.00411499 -0.0480809 -0.20054555 -0.09247514
0.13199998 -0.15847075 0.17226222 0.08603499 0.090772845 0.13430376 -0.18177563 -0.004251045
-0.029634455 0.037251845 -0.17591688 -0.032176245 0.081045136 -0.10898173 -0.010545128 -0.07989709
0.07191261 0.05447147 0.07371552 -0.052696656 -0.0065688468 0.12736666 -0.019957924 0.055994615
0.07616618 0.07552894 -0.20484196 -0.12925328 -0.032969993 -0.038001984 0.17019369 0.006206011
-0.055012804 -0.13219762 -0.103326336 0.10710663 0.13232763 0.12066296 -0.027464548 -0.002420653
0.12615038 -0.038860448 0.08742657 0.02408982 0.061759762 -0.17985848 -0.09059973 -0.18249783
0.14918688 0.10714827 -0.0749772 -0.15249471 -0.12746 0.14208542 0.12703511 0.06363751
-0.14313461 0.10971627 0.017933883 0.012335914 0.17401533 0.039654568 -0.102694206 -0.021564089
-0.15850358 0.1534199 0.082590744 0.08293155 0.076793045 0.10457218 -0.118595585 0.1552968
-0.19901857 0.06251768 -0.049243037 0.01024923 0.07094157 -0.21212323 -0.049287397 0.09634907
-0.14142239 0.08415923 -0.1722931 0.040060572 -0.031475727 0.03208566 -0.10420273 0.0838232
-0.11881264 0.10393528 -0.038767572 0.10243113 -0.18100163 -0.0049927477 -0.088321105 -0.057609748
0.016391883 -0.15524714 -0.15239422 0.12676325 0.03734225 0.11698344 -0.18215334 -0.13415788
0.058903664 0.026130492 0.028179191 0.0837295 0.06863841 0.05851542 -0.07349604 -0.025338726
0.15883987 0.001572443 0.032319777 0.06367431 -0.081862785 -0.21282801 -0.21522382 -0.14005463
0.05825182 -0.04852057 -0.0888152 -0.16634494 0.035128083 -0.027353946 0.08835882 0.050816014
-0.27036417 -0.00371136 -0.20765896 0.111805856 -0.12662195 -0.014704635 -0.057279557 0.07752696
-0.05205944 0.11200939 0.124908164 -0.1303134 -0.05689323 -0.1763572 0.1434964 -0.13821176

critic.0.bias f4 [64]
00000000: e364 463e 3842 b23d fafe efbd 1301 29be
00000010: f024 3d3e f567 92bb a419 df3d 0501 383e
00000020: d4c9 d0bc 4daf f33c 561f f23d 3a90 27be
00000030: 4feb 30bd 74e1 043e 9d16 d1bc e179 9d3b
00000040: c298 e3bc b9f2 a8bc 498d 27be 8f05 6cbd
00000050: 68aa a83b 63a7 b3bd e7dd 24be 07cd b6bc
00000060: 11a9 5f3e bc58 34bd eac8 b43d 2742 d4bd
00000070: 43a0 933a 63fc 0cbe ba96 63bd e3d7 283e
00000080: ff1b f1bc 15fb f73c c2a4 843d b3da 46be
00000090: fdd7 09be 7768 01bd 7a31 1ebe 2fe7 e3bb
000000a0: 44b2 bc3d 2bd2 803c 032f 38be 74b8 17be
000000b0: 93d6 08be 333f 48be 7b59 19be ff02 aeba
000000c0: b796 ed3d 27c8 af3d 6722 03be 3c7b 2bbe
000000d0: 7d76 cf3d f7da dc3d b42a b03d a4e4 71bd
000000e0: 0cae 233e 44f6 2abd 293b 38be 39a0 5a3d
000000f0: cf17 12be 1224 6d3d 9ec3 1abe 85ca b9bd
0.19374423 0.087040365 -0.11718555 -0.16504316 0.18471122 -0.004467959 0.108935624 0.17969139
-0.025486864 0.029746676 0.11822383 -0.16363612 -0.043193158 0.12976629 -0.025523478 0.004805789
-0.027782802 -0.020623552 -0.1636249 -0.05762249 0.005147267 -0.08772161 -0.16100274 -0.022314562
0.21841837 -0.044029936 0.08827384 -0.1036418 0.0011262972 -0.13768153 -0.055563666 0.16488604
-0.029432295 0.030271092 0.064767376 -0.19419365 -0.13461299 -0.031593766 -0.15448561 -0.0069550495
0.09213689 0.015725216 -0.17986684 -0.14816457 -0.13363104 -0.19555359 -0.1497554 -0.0013276039
0.11601012 0.08583098 -0.12806092 -0.16746229 0.10130022 0.10783952 0.08601895 -0.05905594
0.15984362 -0.041738763 -0.17991318 0.053375456 -0.14266895 0.057895727 -0.15113685 -0.09071831

critic.2.weight f4 [32, 64]
00000000: a06a 953d 3cc6 9fbd d4f1 8dbd 863a c8bc
00000010: b3c6 643d 4a4a 94bd 4440 c5bd 0a86 23bd
00000020: 2933 bf3d 8357 c23d b749 f6bd 9dbd cd3c
00000030: 889b 90bd 68e5 05be 2dcd 1abd fc86 033e
00000040: 484a e0bc 18b8 a0bc 93fb dbbd 5ab2 b73d
00000050: bbc5 be3d b6b0 aa3d 6a18 d0bd 2063 25bd
00000060: f75c bf3d 89e8 cd3d 3292 98bd 9db2 bb3d
00000070: 3356 573d 7ba0 cabd 7a20 a63d 9915 27bc
00000080: 1e33 7b3c 7313 58bd e298 bb3c b945 95bd
00000090: b847 89bc bbe2 99bc 84c1 cebd 88d1 cc3d
000000a0: b5d8 b7bd cdf8 843d 986f a83b ea68 8f3a
000000b0: 304a 273d 9217 b93d b4e9 ffbd 0267 753d
000000c0: 2150 8ebd 63ef da3d 3dfc 9dbd 4f68 a33d
000000d0: 6fc0 f6bd dd4d 04bc 1b39 4f3d 6951 053e
000000e0: 5ee9 de3d 2be6 85bd 5aa9 d4bd 957c f13c
000000f0: 721d d03d 16dc 4ebd b254 40bd 80fe 88bd
00000100: a504 ab3d c917 bbbc b05c c43d dff6 c0bc
00000110: 97d7 c93d cd65 7b3c 056a 72bd 4bed 693c
00000120: d48d b4bd a039 a6bd 7241 ba3c e1c0 babd
00000130: bbed e03d 37db e03d bfd8 ac3d cd66 15bc
00000140: c40b 983d 84c0 8f3d 96d4 07bd 3fdb d23c
00000150: 3ae0 c4bb df20 3dbd deb3 7ebd 3f86 d73d
00000160: dbaa 86bd 9ff8 14bd becb a7bd a4ed b03d
00000170: 8c55 c8bd 52ea 4bbd ae70 de3b eebf 453d
00000180: a21a e1bd a71e b6bd 437d c7bd dbe8 b93d
00000190: 8bca 813d 9591 15bd 6582 da3c 634c ee3d
000001a0: 7350 5c3d c087 523d 887c 5c3d 003d f5bd
000001b0: a2b2 a33d a34a eebd 5ea6 c03d 1cae 1a3d
000001c0: 16d1 dfbd c558 abbc 1aac 5bbd 6659 e5bd
000001d0: 9df2 e7bd 2669 2c3d f26a 3bbd e81e 383c
000001e0: edab c63d 8d30 78bd 768e 88bd fbd2 8e3d
000001f0: c08e e2bc 0b18 43bd 4a99 97bd 6aa7 3a3d
00000200: c003 663d 165d 86bd 9fa9 033e 1793 29bd
00000210: 73f7 c0bb c158 a1bc ec8e 0b3d b259 443d
00000220: 65c3 0fbd d46d dfbd b933 9e3d 4e71 edbd
00000230: 1dce 2fbc f58a b43d d736 3f3d 2a0a 803d
00000240: d63b 163d 3d7e 46bd 3d7f 36bd 16f8 8cbd
00000250: 61a7 bb3c 867b f2bc 16d9 80bd e27a 9d3c
00000260: 7298 b53d 6006 36bd 03be 153d 3801 b63c
00000270: b4e0 df3d 493a 2ebd 489d 053d 9bef e33c
00000280: c56e bd3d 2049 13be dbb6 8f3d ef50 9c3b
00000290: 921e 9cbd 65c9 6b3d 7e1c 0cbd 6d00 0cbd
000002a0: e645 05bd c3f2 d5bd 47e7 753d 3c7a b1bd
000002b0: 400b debc d842 b63c 01c5 01bd 6e2e 653c
000002c0: 550a 553b a459 843d 4d0e 813d c72d 813d
000002d0: d742 dc3d ab4d 973c 8e69 1fbc d83c f1bd
000002e0: a527 debb ad16 1fbc a9a0 cd3d 612a ca3d
000002f0: 65b6 3c3d b2ca 12bd d3ac 8c3d a714 8f3d
00000300: 6731 a9bc cf50 993d cff5 713c 5a76 cebd
00000310: 6185 353d f68a 72bd d8a5 37bd 206a 883d
00000320: cf14 ab3c 8d9a cebd d09c 023d 9504 92bc
00000330: bd5e 2f3d 1f2e 45bd d1af 06bd 184f d4bd
00000340: 26fb 373c 7b49 f7bc 755e acbd 1bb3 fbbd
00000350: ce5f b6bd 4904 d93d 5554 09be 1658 abbd
00000360: 46e8 c73d 6807 373d d38f 893c 2e56 fb3d
00000370: b2d4 ed3d 7951 c23d d04c 7f3d 07b9 19bd
00000380: f14c bbbd 740f a33d 6e44 ebbd 4656 a9bd
00000390: 1e0c bcbd 2165 0e3e d583 38bd 0cc3 c83d
000003a0: 30ea bbbd ff74 b63c 2093 ba3d 97cd 473d
000003b0: 9edb b53d fafb c9bd 2f56 a93d ec0c cb3d
000003c0: f310 7abd 54e6 8a3d c347 e43d 4d6f e33d
000003d0: 199d 91bd 91dd c23c f2e8 5ebd 24c4 5dbd
000003e0: 7459 2cbd add8 c93c 1ae7 013e 430c 7fbd
000003f0: 7438 dbbc 115e aebd 53a4 883d 408d 533d
0.07295728 -0.07801482 -0.06930891 -0.024441969 0.055853557 -0.07240732 -0.09631398 -0.03992275
0.0933593 0.09489348 -0.12025779 0.025114829 -0.07060915 -0.13075793 -0.037793327 0.12844461
-0.02737917 -0.019619033 -0.10741343 0.08969565 0.09315058 0.08334486 -0.101609066 -0.040377736
0.093439035 0.10054118 -0.074497595 0.09164927 0.05257244 -0.098938905 0.08111663 -0.01019802
0.0153320115 -0.052752923 0.022900049 -0.07288689 -0.016757831 -0.018784871 -0.10095504 0.100009024
-0.089768805 0.064927675 0.005140256 0.0010941301 0.040842235 0.09037699 -0.12495747 0.05991269
-0.06948877 0.10690191 -0.07714126 0.0797888 -0.120484225 -0.008075205 0.05059157 0.13019337
0.10884355 -0.06538042 -0.10383864 0.02947835 0.10161866 -0.05050286 -0.04695577 -0.06689167
0.08350495 -0.02283849 0.09587991 -0.023555217 0.098555736 0.015344095 -0.05918314 0.014277766
-0.08816114 -0.0811646 0.022736285 -0.0911882 0.109828435 0.10979312 0.084397785 -0.009118748
0.07424119 0.07019141 -0.033161722 0.02573931 -0.006008175 -0.046173926 -0.062183253 0.10523652
-0.06575557 -0.036369916 -0.081931576 0.08639076 -0.09781942 -0.049784012 0.006788335 0.04827874
-0.10991408 -0.08892565 -0.09740689 0.09077617 0.0633746 -0.03651579 0.026673505 0.11635663
0.05378766 0.051398993 0.0538297 -0.119745255 0.07993056 -0.116353296 0.09406732 0.0377637
-0.10928552 -0.020916352 -0.053630926 -0.11198692 -0.11325572 0.042092465 -0.045756288 0.011237837
0.09700761 -0.060593177 -0.06667797 0.06973835 -0.02765596 -0.04763035 -0.074022844 0.045569815
0.05615592 -0.065607235 0.12857674 -0.04140004 -0.0058888732 -0.019695641 0.034071848 0.047937103
-0.035098452 -0.1090962 0.07724709 -0.11593877 -0.010730294 0.088155665 0.04668316 0.06251939
0.036678158 -0.048460234 -0.044554938 -0.06883256 0.02290696 -0.029599916 -0.06291406 0.019223634
0.08866967 -0.044439673 0.036558162 0.022217378 0.109315306 -0.042536054 0.0326207 0.027824214
0.09249643 -0.14383364 0.07017299 0.00477039 -0.07623018 0.05756511 -0.03420686 -0.034180094
-0.032537363 -0.10446694 0.060035016 -0.086658925 -0.027104974 0.02224867 -0.03168202 0.0139881205
0.003250738 0.0646241 0.06301556 0.063075595 0.10754936 0.018469652 -0.009729756 -0.11779183
-0.0067796283 -0.009709996 0.10040409 0.098713644 0.046072382 -0.035837837 0.06868901 0.06986361
-0.02065344 0.07486116 0.014768078 -0.100811675 0.044316653 -0.059214555 -0.044835895 0.06660867
0.020883946 -0.10088072 0.03188783 -0.01782445 0.04281496 -0.048139688 -0.032882515 -0.103666484
0.011229312 -0.030186405 -0.08416454 -0.12290021 -0.08904992 0.105965205 -0.13411076 -0.083664104
0.097610995 0.044684798 0.016792214 0.12272297 0.11612834 0.09488196 0.062329113 -0.03752997
-0.09145535 0.07961932 -0.11487661 -0.082684085 -0.09181999 0.13905765 -0.0450476 0.09802827
-0.09175527 0.022272585 0.09110093 0.04878005 0.08879779 -0.09862514 0.08268391 0.09914574
-0.06105132 0.06782213 0.111465 0.11105213 -0.07110042 0.023787292 -0.054421373 -0.054142132
-0.042077497 0.024639452 0.12685814 -0.062267553 -0.026760317 -0.085140355 0.06671967 0.05164838

critic.2.bias f4 [32]
00000000: 5334 23bd adeb 783c d350 d9bd a5c5 353c
00000010: 4a5e 9c3d 9187 97bd 3abc 023d 5e99 d3bd
00000020: 7e2a c9bc f334 993d b6a9 8c3d 6678 753d
00000030: 6b9a e83d 1b66 b5bd 60db a83d 4183 263d
00000040: 43c0 b5bd c26a 4ebd c748 15bd f331 9b3d
00000050: 84ac 8a3d 0b3b 2e3d fd70 623a 7211 68bd
00000060: 2e60 0e3e 4f03 4239 21f5 a23d e35b 833d
00000070: b16c 02bc 7968 e13d c429 f6bc b429 f63d
-0.039844822 0.015192908 -0.10611119 0.011094485 0.07635172 -0.07398904 0.031917788 -0.10331987
-0.024556395 0.074808024 0.06868307 0.059929274 0.11357578 -0.08857366 0.082449675 0.040652517
-0.08874562 -0.05039478 -0.03644636 0.075778864 0.06771186 0.042536777 0.00086380524 -0.056657262
0.13903877 0.00018502514 0.07956911 0.064140104 -0.007960484 0.11006255 -0.030049212 0.12019673

critic.4.weight f4 [1, 32]
00000000: a421 423d d2e4 9a3d d6f6 06be d21f 41bd
00000010: b131 9d3d 2482 8039 c48c d83d e0fc 013e
00000020: 1f30 9e38 35db 143e 3106 a53d 7475 a0bd
00000030: f5d0 44bc 279a 26bd 6c41 8e3c 6a6e f3bd
00000040: 520f ff3d 3dbe c1bd eb80 20bd d786 443d
00000050: 97ad 80bc bcec adbd 327f adbc 3956 8abd
00000060: 2e68 1abd e900 be3d 0a84 6cbc 71b5 a8bc
00000070: 021f d93d 62f1 f1bd f089 0e3e a434 b8bd
0.047395363 0.07563175 -0.13180098 -0.047149487 0.076754935 0.00024511025 0.10573724 0.1269412
7.54299e-05 0.14536746 0.080578215 -0.078349024 -0.01201271 -0.040674355 0.01736518 -0.11886294
0.12454094 -0.09460113 -0.039185446 0.047980156 -0.015707774 -0.08492419 -0.021178816 -0.06754727
-0.03769701 0.09277517 -0.014435777 -0.02059433 0.106016174 -0.11813618 0.13919806 -0.089944154
