Policy Gradient/walker_ppo_model_old_800.pth (torch_old, 584582 bytes, 11 tensors)

actor.0.weight f4 [256, 24]
0.039929174 -0.18095963 0.25021872 -0.15664637 0.061275028 0.07628206 -0.10556305 0.06987903
0.0058244886 -0.18394932 0.27345347 0.08951782 0.16682039 0.032214887 -0.021384338 0.0045214943
0.20268425 0.097955495 0.05296955 -0.07100639 0.17651519 -0.08745854 -0.008847476 0.21850987
0.07446991 0.39329797 -0.19559793 0.01296652 0.04849715 -0.23308332 0.22237681 0.04883318
0.001136519 0.16591439 -0.030790476 -0.08801654 -0.11026152 -0.098218404 -0.06940746 -0.14626239
-0.11381378 -0.049523782 0.16329992 0.08044524 -0.10298949 0.021513999 0.15578601 -0.1023258
0.044409804 -0.024920912 -0.33456528 0.41012135 -0.07677378 -0.32306212 0.088444 0.06054176
0.0025333948 0.15737095 0.07694701 -0.19840702 -0.04909809 0.13911882 -0.17638923 -0.046528377
0.19147117 0.12552094 0.138271 -0.10994636 0.010904381 0.10243012 -0.038641967 -0.024716979
-0.1965108 0.18680437 0.02373414 0.08250699 -0.14785713 -0.33376044 -0.004618485 0.017978115
-0.16111842 0.17011337 -0.04953154 0.19341357 -0.2826845 -0.17227541 0.010880055 0.046437427
0.017770361 -0.035175327 -0.10962903 -0.02140952 -0.03102973 0.0168274 -0.05756415 -0.097110555
0.16428645 -0.12058939 -0.13682657 0.41153303 0.010062349 -0.21982569 -0.19070664 0.06651039
-0.061653707 0.19926094 0.24976157 -0.044628844 0.023350956 -0.072057426 -0.027601492 0.19954489
0.16291623 0.20034717 -0.008758799 0.12802336 -0.11947191 0.089141704 -0.053629655 0.023199588
-0.12149894 -0.20288232 0.19079913 0.07404235 0.22350344 0.1805979 0.13691467 -0.15071133
-0.037960794 -0.027510343 -0.11535413 0.1388272 -0.13305898 0.18865663 0.05048893 0.05555695
0.20368372 0.18524168 0.012914413 0.15229422 -0.059403926 -0.16042702 -0.09936673 -0.085408136
-0.025006928 0.31490806 -0.32101995 0.08032168 -0.13485178 -0.29222098 -0.07816308 0.06289043
-0.23975867 0.11071926 0.1622896 -0.084241845 -0.1094981 0.009992842 0.08378331 0.10983155
-0.18254025 -0.012663562 -0.17994182 0.060400818 -0.11748718 0.18908074 0.1933333 -0.087511554
0.057770867 -0.31690884 0.20746744 -0.022493718 0.1567498 0.2525272 0.13804653 0.099203825
-0.019387234 -0.18370596 0.09898687 -0.1796893 0.21036702 0.14662167 -0.09024468 0.08060755
-0.0684102 0.009484294 0.049346127 -0.174597 -0.08559699 -0.109770805 0.06776552 0.1272604
-0.041187137 0.047196306 -0.080176584 0.045761462 -0.19968437 0.06730496 0.18630348 0.15291326
0.11835315 0.14324932 -0.09131118 -0.16076829 0.052474402 0.017122332 0.1194091 -0.19791453
-0.10502095 0.050336048 -0.14515808 0.111210145 0.16233554 0.007571496 -0.038544882 -0.05177926
-0.0689617 -0.08616537 0.124677636 -0.01665659 0.24034567 -0.3086044 0.16591427 0.26517546
-0.058175083 0.18848836 0.21252379 -0.080635644 -0.13851094 -0.014077477 -0.129039 -0.1294334
-0.14849998 0.0934436 0.06695831 0.2068133 0.16872682 0.020147942 0.17832543 -0.18726414
-0.04150884 -0.1933836 -0.017885832 -0.39988625 -0.13973354 0.10280092 -0.07577243 -0.00966489
0.064484805 -0.22850065 -0.013037174 -0.04457937 0.10052857 -0.10625775 0.07083191 0.15860109
00000000: c68c 233d 7b4d 39be ab1c 803e e867 20be
00000010: 86fb 7a3d c539 9c3d 7131 d8bd bd1c 8f3d
00000020: 5adb be3b 365d 3cbe 1802 8c3e 1e55 b73d
00000030: f7d2 2a3e c2f3 033d 352e afbc 0b29 943b
00000040: 768c 4f3e e49c c83d 99f6 583d cc6b 91bd
00000050: 66c0 343e 771d b3bd 01f5 10bc 0dc1 5f3e
00000060: ae83 983d 5a5e c93e d34a 48be 8771 543c
00000070: f3a4 463d 65ad 6ebe bfb6 633e 4d05 483d
00000080: 40f7 943a 76e5 293e 4f3c fcbc 0442 b4bd
00000090: cbd0 e1bd bb26 c9bd 8025 8ebd cfc5 15be
000000a0: 3317 e9bd 73d9 4abd 1838 273e 79c0 a43d
000000b0: 27ec d2bd 203e b03c 5e86 1f3e 3090 d1bd
000000c0: 0ee7 353d f126 ccbc 244c abbe 6dfb d13e
000000d0: 923b 9dbd 6668 a5be 2122 b53d a3fa 773d
000000e0: 5007 263b da25 213e 6596 9d3d 362b 4bbe
000000f0: 141b 49bd 2a75 0e3e 619f 34be 8a94 3ebd
00000100: 0511 443e 9088 003e ea96 0d3e 8f2b e1bd
00000110: 4aa8 323c e2c6 d13d 0a47 1ebd 437b cabc
00000120: 213a 49be a549 3f3e 196e c23c 6df9 a83d
00000130: dc67 17be a6e2 aabe a956 97bb d746 933c
00000140: 3afc 24be 3332 2e3e 96e1 4abd 350e 463e
00000150: 06bc 90be f768 30be 4242 323c 2c35 3e3d
00000160: 2693 913c 0114 10bd 2f85 e0bd 0563 afbc
00000170: 0f32 febc 9ed9 893c 63c8 6bbd e6e1 c6bd
00000180: b53a 283e 92f7 f6bd 441c 0cbe 75b4 d23e
00000190: 8ddc 243c fc19 61be 9a48 43be 9936 883d
000001a0: 9988 7cbd 0f0b 4c3e 7fc1 7f3e bccc 36bd
000001b0: 814a bf3c d892 93bd 861c e2bc 7f55 4c3e
000001c0: 83d3 263e cf27 4d3e 1181 0fbc 8e18 033e
000001d0: b0ad f4bd ed8f b63d c5aa 5bbd 100d be3c
000001e0: 70d4 f8bd 62c0 4fbe d960 433e 84a3 973d
000001f0: 16de 643e a8ee 383e 5c33 0c3e 1254 1abe
00000200: c77c 1bbd 5f5d e1bc c93e ecbd b828 0e3e
00000210: 9d40 08be 342f 413e 7bcd 4e3d af8f 633d
00000220: 7792 503e ffaf 3d3e f996 533c 04f3 1b3e
00000230: 8851 73bd fb46 24be c980 cbbd 76ea aebd
00000240: 54db ccbc a13b a13e ba5c a4be b17f a43d
00000250: 9616 0abe fd9d 95be f713 a0bd b3cc 803d
00000260: 4c83 75be c8c0 e23d 3f2f 263e fd86 acbd
00000270: 8a40 e0bd 04b9 233c 9696 ab3d 5def e03d
00000280: d5eb 3abe d47a 4fbc ab42 38be d966 773d
00000290: 1e9d f0bd 629e 413e 2af9 453e 4239 b3bd
000002a0: 25a1 6c3d e041 a2be 5872 543e bf44 b8bc
000002b0: 0583 203e 3f4b 813e 125c 0d3e 602b cb3d
000002c0: fad1 9ebc 6a1d 3cbe a1b9 ca3d 7900 38be
000002d0: 746a 573e fe23 163e 34d2 b8bd 9215 a53d
000002e0: a61a 8cbd 0364 1b3c 2a1f 4a3d 8ec9 32be
000002f0: 7a4d afbd 84cf e0bd a6c8 8a3d 8d50 023e
00000300: d8b3 28bd ea50 413d 9f33 a4bd 5f70 3b3d
00000310: 0f7a 4cbe 2fd7 893d 57c6 3e3e 4b95 1c3e
00000320: 2363 f23d f3af 123e 5b01 bbbd 71a0 24be
00000330: 66ef 563d 2244 8c3c c28c f43d 1baa 4abe
00000340: 3915 d7bd 2c2d 4e3d 52a4 14be 25c2 e33d
00000350: 4a3b 263e 501a f83b 3de1 1dbd 7d16 54bd
00000360: cb3b 8dbd 7877 b0bd fd56 ff3d 6773 88bc
00000370: 2d1d 763e 6501 9ebe 6ee5 293e 14c5 873e
00000380: ff48 6ebd 1803 413e d69f 593e 4d24 a5bd
00000390: d0d5 0dbe 38a5 66bc cd22 04be 308a 04be
000003a0: 6110 18be 5c5f bf3d 7021 893d dec6 533e
000003b0: b9c6 2c3e 4c0d a53c f19a 363e 2cc2 3fbe
000003c0: 2c05 2abd 5a06 46be 4f85 92bc e4bd ccbe
000003d0: 4f16 0fbe 4a89 d23d 932e 9bbd 7d59 1ebc
000003e0: 9c10 843d 13fc 69be df99 55bc dc98 36bd
000003f0: ece1 cd3d aa9d d9bd 5210 913d 5368 223e

actor.0.bias f4 [256]
-0.114104874 -0.09420215 -0.16054729 -0.0073311995 -0.119488895 -0.1464142 -0.056193896 0.056547344
-0.07814092 0.18665037 0.102973625 -0.048849892 0.17233953 -0.07522719 0.15995641 -0.07903324
0.15379581 0.15460457 -0.09188641 -0.1742136 -1.1922486e-05 -0.092478335 0.07911323 0.10603993
-0.09976134 -0.18817326 -0.19191574 -0.052955035 -0.02575039 -0.16551252 0.054446988 -0.23071823
-0.20046218 -0.103903435 -0.03253399 -0.17364545 0.021178897 -0.15753888 -0.045836233 0.18577671
0.15816171 0.14523071 -0.06396111 -0.10123955 -0.13147275 -0.19761445 -0.14910379 -0.16496897
-0.013431585 -0.11857903 -0.11413509 0.030913401 0.001565952 0.09165176 -0.052087296 0.17997773
0.1811994 -0.03231578 0.052836314 0.050883755 0.07455076 -0.049717758 -0.091591045 0.06840346
-0.045702744 0.030447468 0.08395418 0.04709051 0.011124902 0.13049325 -0.20323347 -0.108440414
-0.11184051 -0.18809368 0.006570415 0.03867744 0.1665734 -0.12656187 0.041946758 0.034483798
0.0290804 0.21232995 0.04256652 0.07047288 0.0572549 0.0017148863 -0.14064638 0.007861948
0.014116306 0.0033539247 -0.004901764 0.086562045 0.14258419 -0.08694041 -0.19735211 0.14767544
0.20499301 -0.1430374 0.057927217 -0.09600054 -0.077678494 -0.043378353 -0.087204315 -0.16832815
0.20925537 0.16957985 0.09117913 0.12492185 0.16711484 -0.12514006 0.20157659 -0.13031985
0.007420148 0.06514954 -0.08484468 0.04700194 0.16786906 -0.16651547 -0.12514976 -0.12771304
0.12025278 0.021506181 0.029958194 -0.039594896 -0.21069649 -0.09656718 0.021519782 0.10288744
-0.100192204 -0.0371315 -0.028025404 -0.110021465 -0.033773966 0.12434128 -0.06184016 0.13879992
0.023557065 -0.025124535 0.1166669 -0.04951336 0.10031735 0.07922892 -0.06403837 0.0035138489
-0.115387104 0.13445443 0.13647854 0.096507266 -0.035092346 0.11585841 0.090167366 -0.02409111
-0.014543781 -0.17528613 0.015890656 0.20010674 -0.13437644 -0.14762992 -0.1176373 0.076232016
-0.07862699 -0.08183767 -0.08897958 -0.03553 0.17375593 0.15347442 -0.123761214 -0.20277786
0.16375126 -0.09173242 0.043100845 0.04640019 -0.046584565 0.14821266 0.1615628 0.14405742
-0.13828832 -0.13369782 0.009613869 0.05246093 -0.12358901 0.14444068 -0.2156076 0.04681426
0.18120326 0.09163566 0.18324755 -0.04573936 0.16877683 -0.10201733 -0.09543827 0.1491448
-0.19568633 0.00095566304 0.105553634 -0.14414686 -0.05736715 0.18398419 -0.17183265 0.0014968748
0.08397897 -0.07420779 0.16733836 -0.08460249 0.19273111 0.20422494 -0.096121326 -0.14289422
-0.1321864 -0.13873766 0.15103231 0.052966144 -0.19861355 -0.043763928 -0.021867128 0.16996917
-0.0975506 0.17455469 0.17789187 -0.08355212 0.07451493 -0.035332453 -0.09353597 -0.16498815
-0.14145096 -0.01947131 -0.13389435 0.018199576 -0.08578751 0.037357282 0.026102478 -0.071280785
0.052566707 0.09252441 0.12576294 -0.101711005 0.10578441 0.045480095 -0.008663017 -0.020744972
0.17278206 0.18585321 0.0952752 0.061913446 -0.03785376 0.19623284 0.092386566 0.17371558
0.05265137 -0.10109679 -0.1832861 0.051989842 -0.09018341 -0.10612133 0.02418141 -0.19937408
00000000: d1af e9bd 0fed c0bd 8266 24be 8f3a f0bb
00000010: 98b6 f4bd 9bed 15be 922b 66bd 309e 673d
00000020: 5908 a0bd 4621 3f3e d6e3 d23d d316 48bd
00000030: c679 303e b710 9abd 9dcb 233e 2edc a1bd
00000040: a67c 1d3e a950 1e3e f12e bcbd 0d65 32be
00000050: b006 48b7 4865 bdbd 1e06 a23d 762b d93d
00000060: ac4f ccbd 7eb0 40be 8f85 44be 61e7 58bd
00000070: 7bf2 d2bc 1d7c 29be ce03 5f3d 6641 6cbe
00000080: f545 4dbe 53cb d4bd 5c42 05bd 1dd0 31be
00000090: 5e7f ad3c df51 21be c6be 3bbd 403c 3e3e
000000a0: 25f5 213e 5cb7 143e 0bfe 82bd ae56 cfbd
000000b0: cba0 06be 715b 4abe aaae 18be a0ed 28be
000000c0: 2710 5cbc 90d9 f2bd a8bf e9bd 1a3e fd3c
000000d0: a140 cd3a ebb3 bb3d 7d59 55bd 154c 383e
000000e0: 568c 393e 8d5d 04bd e46a 583d 7c6b 503d
000000f0: 12ae 983d d9a4 4bbd 1694 bbbd 1d17 8c3d
00000100: cd32 3bbd f86c f93c 2bf0 ab3d fbe1 403d
00000110: 3945 363c 06a0 053e 6f1c 50be 0216 debd
00000120: a30c e5bd a19b 40be a34c d73b 3c6c 1e3d
00000130: 3892 2a3e 6f99 01be 5dd0 2b3d e23e 0d3d
00000140: 053a ee3c 066d 593e 3b5a 2e3d 1654 903d
00000150: 1d84 6a3d 09c6 e03a 9b05 10be 66cf 003c
00000160: 1448 673c 85cd 5b3b fa9e a0bb 7147 b13d
00000170: 9701 123e d00d b2bd ac16 4abe 3b38 173e
00000180: b0e9 513e 6578 12be 1745 6d3d ee9b c4bd
00000190: e715 9fbd 80ad 31bd 2d98 b2bd 375e 2cbe
000001a0: 0a47 563e 57a6 2d3e 20bc ba3d 07d7 ff3d
000001b0: 2720 2b3e b724 00be 186a 4e3e 9172 05be
000001c0: b624 f33b 1f6d 853d 0cc3 adbd 1b85 403d
000001d0: dee5 2b3e 0883 2abe 4227 00be 35c7 02be
000001e0: 1747 f63d bb2d b03c e36a f53c 422e 22bd
000001f0: d2c0 57be 03c5 c5bd 414a b03c a6b6 d23d
00000200: 9231 cdbd 3317 18bd 8895 e5bc ef52 e1bd
00000210: 9256 0abd a4a6 fe3d 1c4c 7dbd 9121 0e3e
00000220: bffa c03c f8d1 cdbc 0eef ee3d 85ce 4abd
00000230: 2f73 cd3d c642 a23d 8d26 83bd 9a48 663b
00000240: 1350 ecbd 6cae 093e 08c1 0b3e 9aa5 c53d
00000250: febc 0fbd 2d47 ed3d aba9 b83d b85a c5bc
00000260: 0a49 6ebc 357e 33be 1f2d 823c c8e8 4c3e
00000270: fa99 09be 4c2c 17be d3eb f0bd 881f 9c3d
00000280: 3007 a1bd 829a a7bd ed3a b6bd e887 11bd
00000290: 13ed 313e 6628 1d3e 8576 fdbd 00a5 4fbe
000002a0: 69ae 273e 35de bbbd 838a 303d 200e 3e3d
000002b0: 75cf 3ebd 0fc5 173e b870 253e ca83 133e
000002c0: 749b 0dbe 15e8 08be 7d83 1d3c 46e1 563d
000002d0: 3c1c fdbd 42e8 133e 3dc8 5cbe 4fc0 3f3d
000002e0: 598d 393e 7aab bb3d 3fa5 3b3e 3259 3bbd
000002f0: d5d3 2c3e 76ee d0bd 2475 c3bd 6ab9 183e
00000300: ff61 48be 7685 7a3a 812c d83d 3c9b 13be
00000310: d1f9 6abd 5a66 3c3e e6f4 2fbe c932 c43a
00000320: 2bfd ab3d 41fa 97bd bf5a 2b3e 1244 adbd
00000330: 4e5b 453e 5820 513e 42db c4bd dd52 12be
00000340: df5b 07be 3f11 0ebe 37a8 1a3e 07f3 583d
00000350: 5a61 4bbe ce41 33bd b122 b3bc 660c 2e3e
00000360: 9cc8 c7bd 77be 323e 4929 363e 601d abbd
00000370: 499b 983d c3b8 10bd c98f bfbd a7f2 28be
00000380: 85d8 10be 4c82 9fbc 9a1b 09be 4717 953c
00000390: 5db1 afbd f303 193d ddd4 d53c a9fb 91bd
000003a0: 3050 573d 707d bd3d 00c8 003e dc4d d0bd
000003b0: 7fa5 d83d 5649 3a3d 54ef 0dbc 5cf1 a9bc
000003c0: c8ed 303e 4e50 3e3e a51f c33d f498 7d3d
000003d0: 8b0c 1bbd 43f1 483e 2b35 bd3d 7fe2 313e
000003e0: f7a8 573d d50b cfbd 5aaf 3bbe 4df3 543d
000003f0: 14b2 b8bd 2456 d9bd 1818 c63c b828 4cbe

actor.2.weight f4 [256, 256]
-0.04377019 0.07641284 0.024375735 -0.027922396 0.043633122 -0.024388233 0.0013234753 -0.026294451
0.010408985 0.098415144 0.033279203 -0.08211378 0.021431016 0.016106356 -0.08681826 0.035791915
-0.042173345 0.029788645 0.032946646 0.09366173 0.022166628 -0.06109371 -0.07857873 0.019679882
-0.07817675 -0.054616995 0.06493905 0.013133397 0.0843653 -0.0067314114 0.055736583 -0.030755166
0.069287464 0.06521168 -0.046593044 0.09744023 0.074937984 0.07048455 0.04526414 -0.013686214
0.057757568 0.00053907454 0.019723091 -0.03605821 0.005884982 0.06809397 -0.046215117 0.057038713
-0.019677775 0.082696974 0.053186703 0.009534348 -0.0010558077 -0.01324733 0.065437384 -0.013505493
-0.022618782 -0.036641568 -0.12635204 -0.030084621 0.056206215 -0.02908578 -0.054892797 -0.041094474
0.03717781 -0.02295741 -0.03235601 -0.014091656 0.011153624 0.055243406 0.00048455218 0.047912717
-0.0058084363 0.111891314 0.008608637 -0.05423526 -0.103542976 0.06783015 -0.028981345 -0.0070868917
-0.01847055 0.03718122 0.019056315 0.0030286345 0.03887657 -0.020853672 0.06661784 0.0024592378
-0.07840571 0.045671467 0.06847419 0.0036970607 -0.0060076024 0.010665465 0.0026318298 -0.06371067
-0.02852552 -0.12445593 0.012037023 -0.022358876 0.013620379 0.0060738483 -0.0009703728 0.023452703
0.0023423324 0.031411175 -0.021969832 -0.05909186 0.01149691 -0.04177936 -0.016251532 0.07662477
0.023792574 -0.06438128 0.048732307 -0.030392325 0.046312522 -0.030865861 0.13878165 -0.057001032
0.002050969 -0.06518889 0.03034972 0.046925448 0.059456117 -0.0061181546 -0.027032806 -0.07557095
0.02427386 0.012733901 0.002345059 -0.1019457 -0.032798156 0.029079022 0.06309507 -0.037324622
0.015240388 0.04992856 -0.008006534 0.045244407 -0.0065290667 -0.048696887 0.022939423 0.0023401268
-0.13991459 0.031296868 0.044129364 0.026317535 -0.03317826 -0.095980264 -0.053452946 0.067992255
-0.10768861 0.017760577 0.02355786 -0.04325556 0.012050056 -0.04554744 -0.00958076 0.06811685
-0.03031281 0.057436712 0.04289915 0.0138287 0.07342378 0.010401281 0.08906324 0.034929
-0.0051844493 0.029382078 0.073476024 0.08951417 0.005696493 -0.00089850207 -0.03587546 -0.0227773
-0.10577928 0.01715581 0.038084168 -0.006507843 -0.009372857 -0.07417887 0.03826784 -0.043064486
-0.025449924 0.014368691 -0.052882303 -0.12133131 -0.018404087 0.021659035 -0.028190639 0.019948367
0.004005588 -0.12430108 -0.036836825 -0.08651777 -0.05543556 0.009662696 0.066334315 -0.012629965
0.021984136 0.083129816 0.077075 0.10685786 -0.046544854 0.028923744 0.0045409896 0.050251212
-0.013689608 0.027903175 -0.026065081 0.0047840294 0.05755324 0.030768145 -0.10489045 -0.04144996
0.10664289 -0.030219223 0.018874852 -0.022951657 0.00016933876 -0.020703787 0.024209237 -0.04460525
-0.018495938 -0.010929702 -0.0437263 0.04481782 -0.013844411 0.03114339 0.0010987847 0.06817572
-0.018380612 -0.04919876 0.011983843 0.07172544 -0.045618095 0.027291035 -0.030755334 -0.018682674
-0.017045977 -0.022791395 -0.005827808 -0.020943003 0.030502222 -0.002022432 -0.014467291 -0.15017998
0.029708859 -0.10052952 0.002131094 -0.0076030735 0.14866239 0.05938225 0.01991195 0.023782676
00000000: 5f48 33bd 567e 9c3d 9faf c73c 82bd e4bc
00000010: a5b8 323d d5c9 c7bc 7678 ad3a 7667 d7bc
00000020: 738a 2a3c e18d c93d c64f 083d 452b a8bd
00000030: 1990 af3c 7af1 833c c6cd b1bd 8b9a 123d
00000040: f5bd 2cbd 5107 f43c 10f3 063d b9d1 bf3d
00000050: ca96 b53c 663d 7abd e3ed a0bd b437 a13c
00000060: 221b a0bd 12b6 5fbd c4fe 843d 762d 573c
00000070: b7c7 ac3d 2c93 dcbb 0b4c 643d 42f2 fbbc
00000080: 96e6 8d3d b48d 853d 59d8 3ebd be8e c73d
00000090: 1679 993d 345a 903d e466 393d 243c 60bc
000000a0: 3393 6c3d ae50 0d3a 5292 a13c c6b1 13bd
000000b0: cfd6 c03b da74 8b3d 104c 3dbd 6da1 693d
000000c0: 4933 a1bc 085d a93d 4dda 593d f435 1c3c
000000d0: 0763 8aba 540b 59bc 0904 863d 2546 5dbc
000000e0: 064b b9bc 7815 16bd 6e62 01be 0674 f6bc
000000f0: 7d38 663d 4d45 eebc 45d7 60bd ae52 28bd
00000100: c247 183d 2e11 bcbc bc87 04bd b0e0 66bc
00000110: b1bd 363c e946 623d 7e0b fe39 2040 443d
00000120: b254 bebb 4627 e53d 3e0b 0d3c cb25 5ebd
00000130: 570e d4bd 89ea 8a3d 496a edbc 2839 e8bb
00000140: 8d4f 97bc 564b 183d fd1b 9c3c 0e7c 463b
00000150: 0a3d 1f3d 52d5 aabc ef6e 883d 2a2b 213b
00000160: 2c93 a0bd 0112 3b3d 323c 8c3d 634a 723b
00000170: 6cdb c4bb 34be 2e3c c77a 2c3b bd7a 82bd
00000180: 5aae e9bc c0e2 febd ef36 453c f629 b7bc
00000190: 0328 5f3c 2207 c73b 9e60 7eba e21f c03c
000001a0: d181 193b 01a9 003d 14fa b3bc 4e0a 72bd
000001b0: 895d 3c3c d620 2bbd ef21 85bc 73ed 9c3d
000001c0: a5e8 c23c 55da 83bd 879b 473d 53f9 f8bc
000001d0: 33b2 3d3d 67da fcbc c71c 0e3e ea79 69bd
000001e0: 8d69 063b c181 85bd fa9f f83c e634 403d
000001f0: 4288 733d cd7a c8bb e773 ddbc f1c4 9abd
00000200: f9d9 c63c daa1 503c 90af 193b e8c8 d0bd
00000210: 5c57 06bd 2137 ee3c fd37 813d b4e1 18bd
00000220: d2b2 793c e481 4c3d d62d 03bc 3352 393d
00000230: c8f1 d5bb 6376 47bd 75eb bb3c d05c 193b
00000240: c545 0fbe 2531 003d fec0 343d df97 d73c
00000250: ede5 07bd 4d91 c4bd 7af1 5abd 863f 8b3d
00000260: d98b dcbd a17e 913c 6afc c03c be2c 31bd
00000270: 996d 453c f48f 3abd 9ff8 1cbc d980 8b3d
00000280: 9252 f8bc c242 6b3d 05b7 2f3d c691 623c
00000290: 355f 963d 226a 2a3c ca66 b63d b611 0f3d
000002a0: 50e2 a9bb afb2 f03c 997a 963d 3553 b73d
000002b0: a6a9 ba3b 7489 6bba 25f2 12bd 7697 babc
000002c0: cfa2 d8bd 578a 8c3c 25fe 1b3d be3f d5bb
000002d0: 9d90 19bc 17eb 97bd bdbe 1c3d 6364 30bd
000002e0: 5c7c d0bc a86a 6b3c 1d9b 58bd 8d7c f8bd
000002f0: 2bc4 96bc 4a6e b13c 0ef0 e6bc c26a a33c
00000300: 4f41 833b 9191 febd 36e2 16bd 3b30 b1bd
00000310: 6610 63bd 4950 1e3c 49da 873d eaed 4ebc
00000320: 1318 b43c f73f aa3d 7fd9 9d3d 4bd8 da3d
00000330: d1a5 3ebd 7df1 ec3c 95cc 943b 37d4 4d3d
00000340: 614a 60bc 3395 e43c 7086 d5bc 59c3 9c3b
00000350: f2bc 6b3d 7a0d fc3c ced0 d6bd 6fc7 29bd
00000360: 9667 da3d 4e8e f7bc 6f9f 9a3c 1d05 bcbc
00000370: 8790 3139 fd9a a9bc 7352 c63c ffb3 36bd
00000380: cb84 97bc 7e12 33bc 591a 33bd e492 373d
00000390: abd3 62bc 6c20 ff3c 1905 903a b69f 8b3d
000003a0: f092 96bc a484 49bd e157 443c cae4 923d
000003b0: 0ada 3abd 7391 df3c 9cf2 fbbc 680c 99bc
000003c0: 01a4 8bbc 05b5 babc 32f7 bebb a990 abbc
000003d0: ccdf f93c c78a 04bb 3708 6dbc c8c8 19be
000003e0: fe5f f33c 6ce2 cdbd d3a9 0b3b 3423 f9bb
000003f0: f43a 183e cd3a 733d 631e a33c e3d3 c23c

actor.2.bias f4 [256]
-0.07297559 -0.022150917 -0.025218446 0.053060774 0.015851995 -0.05133373 -0.036077008 0.038537573
0.012809177 -0.0066042687 -0.027164731 0.021221504 -0.023070829 0.034238603 -0.00810193 0.054152124
-0.024181772 0.006571515 0.062112 0.076035775 0.03464622 -0.05672448 0.029725583 -0.030084848
0.0519468 0.0018380898 -0.031818334 -0.04995893 -0.020501293 0.011256561 0.02611668 0.027615013
-0.03321681 0.028687319 0.050889432 0.061263498 -0.10202517 0.004998439 -0.026781026 0.02182834
0.05712858 0.0067347214 0.05576168 0.025647571 -0.0027120337 -0.003773516 0.0034886964 0.042210374
0.019040424 -0.026426267 0.04807323 0.030988583 -0.026756592 0.017406909 0.050488986 -0.021600269
-0.044005178 -0.07261858 -0.035883926 -0.06815882 0.043816123 -0.07638621 0.0030037372 -0.02470321
-0.09554869 -0.03859751 0.029990623 -0.01617126 0.031955168 0.030507905 0.014405164 0.037105594
-0.0010181033 -0.050327417 -0.058839336 -0.04589307 -0.03943377 -0.01867252 0.05858737 0.011052387
-0.05094921 -0.034186956 -0.057424955 0.028629757 -0.015495602 0.020177739 0.023608282 -0.026748605
0.047415845 0.0017450207 0.04881592 -0.04164141 0.059304446 0.024579598 0.017620057 -0.016712327
-0.028316157 -0.041093096 0.029877594 -0.0004242292 -0.016900597 -0.0064165937 0.03932593 0.0019562596
-0.021642596 -0.044968624 -0.031407878 0.017936537 -0.044310328 -0.06619814 0.02249772 -0.030237686
0.019919373 0.03374596 -0.013153595 -0.033582762 -0.068725325 0.025889417 0.060448952 0.017452525
0.04569285 -0.024339063 0.054740775 -0.017379545 0.046076246 0.06781583 -0.004132403 0.0019957146
0.024761876 0.049011476 -0.021379177 -0.04177605 -0.061430197 -0.009365708 0.009787274 0.061160695
0.049756534 -0.022304546 -0.04543607 -0.03601598 0.03979881 -0.0382558 0.05753415 -0.0021282563
-0.003376864 -0.009124261 -0.061137754 -0.013298037 0.06502225 -0.05455023 0.025022916 0.008296633
0.024823284 -0.025867617 -0.054993823 0.001552754 0.061550986 -0.061048355 0.012974698 -0.02733953
-0.062051293 0.026324868 0.05343264 -0.032589998 0.033941317 0.028532546 -0.045218837 -0.0036223792
0.0061556175 0.00026694546 0.031080253 -0.02975824 0.039848123 -0.040839653 -0.014548809 0.037483785
0.027717723 0.04054098 -0.03748711 -0.039177287 -0.029966967 0.044164456 -0.061866708 -0.023549367
-0.0025906893 0.015573405 -0.015049638 -0.079473175 -0.07980775 -0.04298584 -0.020402407 -0.025745235
0.031039083 0.040217485 0.03999384 -0.049742803 -0.003389398 -0.060361624 -0.021599356 0.025222166
0.06474238 0.025416961 -0.05787387 0.035015702 0.015187212 -0.018814072 -0.009729885 -0.06563956
-0.009694248 0.022404572 0.007191613 0.038759556 0.041457247 -0.008748055 0.040606786 -0.042971987
-0.040848024 -0.04969628 -0.040613785 -0.0049480787 0.03977191 0.009879592 -0.003389919 0.035741497
0.013696798 -0.03958568 0.011859805 -0.06525629 -0.056438025 0.029241676 0.03981662 -0.06496826
-0.06382999 -0.004699257 0.0060738246 -0.053532664 0.02056814 0.034342628 -0.04956912 -0.038826726
0.0341844 0.041035224 0.0505925 0.005372327 0.03700244 0.03885141 -0.01772964 -0.049216285
0.06187728 -0.033632815 0.025494082 -0.046305187 -0.022000689 0.026232846 -0.06690911 0.06920177
00000000: 3a74 95bd d775 b5bc ea96 cebc 4156 593d
00000010: 0bdc 813c 5143 52bd 7cc5 13bd 93d9 1d3d
00000020: 95dd 513c 9f68 d8bb 9288 debc b8d8 ad3c
00000030: 09ff bcbc c73d 0c3d f5bd 04bc 9ece 5d3d
00000040: da18 c6bc dd55 d73b 2769 7e3d a5b8 9b3d
00000050: 32e9 0d3d ee57 68bd 1183 f33c 8074 f6bc
00000060: 2bc6 543d 0fec f03a f153 02bd bca1 4cbd
00000070: 54f2 a7bc 706d 383c a6f2 d53c e138 e23c
00000080: 5a0e 08bd ab01 eb3c 7071 503d 6fef 7a3d
00000090: 93f2 d0bd f2c9 a33b e263 dbbc 59d1 b23c
000000a0: a8ff 693d f0ae dc3b 5c66 643d db1a d23c
000000b0: 60bc 31bb 184d 77bb 9da2 643b c9e4 2c3d
000000c0: aafa 9b3c e67b d8bc 6fe8 443d c5db fd3c
000000d0: a430 dbbc ef98 8e3c 8acd 4e3d 0cf3 b0bc
000000e0: c63e 34bd 0db9 94bd 06fb 12bd da96 8bbd
000000f0: 8978 333d 6070 9cbd 59da 443b 635e cabc
00000100: 08af c3bd 6c18 1ebd e5ae f53c 9779 84bc
00000110: 6ce3 023d b7eb f93c a303 6c3c 09fc 173d
00000120: e171 85ba 1f24 4ebd 8401 71bd 5ffa 3bbd
00000130: 4e85 21bd 1df7 98bc 4ff9 6f3d 1215 353c
00000140: 1eb0 50bd 9f07 0cbd 6e36 6bbd f488 ea3c
00000150: 44e1 7dbc c94b a53c 2866 c13c e41f dbbc
00000160: 1e37 423d 2eb9 e43a 34f3 473d 2f90 2abd
00000170: 38e9 723d 275b c93c f057 903c 4ae8 88bc
00000180: 49f7 e7bc 3c51 28bd dbc1 f43c 146b deb9
00000190: 1f73 8abc 4a42 d2bb 3a14 213d 9734 003b
000001a0: d04b b1bc 0531 38bd 8ca5 00bd a5ef 923c
000001b0: bf7e 35bd e492 87bd 234d b83c 06b5 f7bc
000001c0: f42d a33c 3439 0a3d 2d82 57bc 148e 09bd
000001d0: ddbf 8cbd 0b16 d43c 5299 773d 99f8 8e3c
000001e0: 6d28 3b3d b762 c7bc dd37 603d 8c5f 8ebc
000001f0: 72ba 3c3d 07e3 8a3d 1c69 87bb 89ca 023b
00000200: 6bd9 ca3c 42c0 483d 6223 afbc 5d1d 2bbd
00000210: 3b9e 7bbd a072 19bc cd5a 203c a383 7a3d
00000220: 82cd 4b3d 06b8 b6bc 2c1b 3abd 7e85 13bd
00000230: 1404 233d 1db2 1cbd eea8 6b3d 377a 0bbb
00000240: 604e 5dbb ed7d 15bc 956b 7abd 03e0 59bc
00000250: 632a 853d 1070 5fbd dcfc cc3c 9aee 073c
00000260: 335a cb3c 53e8 d3bc 3441 61bd c785 cb3a
00000270: e31c 7c3d d70d 7abd d493 543c 26f7 dfbc
00000280: 7f29 7ebd 40a7 d73c 2fdc 5a3d 177d 05bd
00000290: 0d06 0b3d 16bd e93c 6337 39bd 7065 6dbb
000002a0: 10b5 c93b d0f4 8b39 049c fe3c 8dc7 f3bc
000002b0: c937 233d 7b47 27bd 215e 6ebc 9988 193d
000002c0: 4710 e33c 4c0e 263d 158c 19bd 5d78 20bd
000002d0: 497d f5bc cae5 343d f267 7dbd 9aea c0bc
000002e0: 8ec8 29bb 9827 7f3c c292 76bc d5c2 a2bd
000002f0: 3f72 a3bd ec11 30bd f322 a7bc ace7 d2bc
00000300: ad45 fe3c 17bb 243d 95d0 233d 1cbf 4bbd
00000310: aa20 5ebb c03d 77bd 22f1 b0bc b79e ce3c
00000320: a797 843d 3b37 d03c 270d 6dbd a06c 0f3d
00000330: c9d3 783c f81f 9abc 186a 1fbc 096e 86bd
00000340: a0d4 1ebc cb89 b73c 9fa7 eb3b 57c2 1e3d
00000350: 13cf 293d 0154 0fbc 4d53 263d 6503 30bd
00000360: 4250 27bd 548e 4bbd a45a 26bd 7e23 a2bb
00000370: dfe7 223d 03de 213c 6729 5ebb ad65 123d
00000380: 8968 603c 9824 22bd a14f 423c 17a5 85bd
00000390: 8f2b 67bd 3d8c ef3c c116 233d 140e 85bd
000003a0: 4cb9 82bd 3afc 99bb ef06 c73b 1145 5bbd
000003b0: 847e a83c dbaa 0c3d fd08 4bbd c608 1fbd
000003c0: f104 0c3d 8d14 283d 153a 4f3d 580a b03b
000003d0: df8f 173d a822 1f3d c03d 91bc 0497 49bd
000003e0: 0873 7d3d 90c2 09bd f7d8 d03c 82aa 3dbd
000003f0: ca3a b4bc 44e6 d63c a507 89bd a8b9 8d3d

actor.4.weight f4 [4, 256]
0.0014739034 0.06502562 -0.05552064 -0.026196634 0.08344681 0.07731702 0.033801958 0.015748557
-0.07850606 -0.018243516 0.101262406 0.06795944 0.11066851 0.07742092 0.043478504 0.0702621
0.12099925 0.040941585 -0.0014214771 0.08433301 0.08991951 -0.006775794 0.06562035 -0.049661286
0.033836577 -0.003893125 0.13915077 -0.04340079 0.05410707 -0.08821651 0.0121546285 0.086782135
0.10075092 0.05411977 0.085085236 -0.12237252 0.062919766 0.048675552 0.06520827 -0.083277345
0.15252723 0.078854665 0.09718731 -0.031666335 0.014828658 -0.07151828 -0.007509193 0.18041489
0.090873346 0.007315584 0.068953335 -0.09753152 0.039045718 -0.017363844 -0.14126846 -0.065021515
-0.10240233 -0.018284768 -0.065186165 -0.005025706 0.05465662 -0.05540423 -0.032414507 0.013562981
-0.014555135 0.0076641645 0.04101364 0.10279932 -0.002459188 0.08765198 0.059188712 -0.11742229
0.012847198 0.042783163 0.007671758 -0.022575906 0.07595988 0.067350894 0.11782428 0.106013015
0.06343699 -0.04510871 0.03650678 0.058254573 0.04134092 -0.06965709 0.07273417 0.034424104
-0.059282497 -0.0623165 -0.06527142 0.07746333 0.09291812 0.080776356 -0.00032678424 0.01304312
-0.09490141 -0.14800698 -0.13037685 0.10360708 0.005148513 -0.06808755 0.13504303 -0.0740068
0.10574294 0.09674248 -0.06682624 -0.038651116 -0.0036023087 0.12399963 0.032705203 -0.010346706
0.110347554 0.05653853 -0.06261026 0.014632639 -0.05692035 0.04686331 -0.066874556 -0.115979105
0.054580666 -0.008908508 0.09553438 -0.1026475 -0.020550897 0.091484405 -0.14285198 -0.062095705
0.06175443 -0.1301026 -0.027843531 -0.054748975 0.05630136 -0.09633274 -0.061951198 -0.08229778
0.028309288 -0.14090623 0.058457073 0.06398894 -0.035604805 -0.020476418 0.09375113 -0.006207383
0.046649437 -0.06484386 0.039329864 0.014644715 -0.047072466 -0.09080007 0.049699944 0.08988248
-0.043996584 0.039797504 -0.0834323 -0.011031952 -0.019007921 0.0739133 -0.038707677 -0.093271285
0.020323316 0.07041625 0.104237214 -0.018591205 0.06712001 -0.111073956 0.06528826 0.0034513522
0.09802919 -0.008046377 -0.020925198 0.08742046 -0.04642085 0.029319616 0.10127739 -0.047420807
-0.055045377 -0.020669991 0.06447186 0.14862151 0.08001204 -0.018362505 -0.005275216 0.007977435
0.18689422 0.038628757 -0.0071296743 0.103538096 0.070105806 0.074132994 0.15390518 -0.06406744
0.035048716 -0.031751383 0.16367495 -0.1179627 -0.044593528 0.026547525 -0.003252477 0.103094034
0.048642684 0.026213212 -0.046943687 0.03339789 -0.05396663 0.019819412 0.1220054 -0.020920731
-0.09440881 0.020717107 0.022969946 -0.06253701 -0.05769016 0.08766569 -0.08601946 -0.09605569
-0.100735374 0.015593942 0.02024845 -0.02957825 0.05572919 -0.08127608 -0.013331185 0.14095499
-0.033005796 -0.0022090029 -0.0953093 -0.022823738 -0.05970492 -0.043966036 0.0061495258 0.13779384
-0.028222224 -0.04611935 -0.076913685 0.12771371 0.017104462 -0.08150229 0.068378955 -0.011397378
-0.083628476 -0.0617383 -0.020026166 0.12516905 0.09028043 0.02551945 -0.068557054 -0.13110392
-0.05422715 0.03756117 0.027213389 0.022905303 0.026069926 -0.10929776 -0.0838822 0.021582926
00000000: fe2f c13a 272c 853d 9c69 63bd 539a d6bc
00000010: 29e6 aa3d 6358 9e3d ec73 0a3d 1e03 813c
00000020: c9c7 a0bd 6d73 95bc aa62 cf3d 522e 8b3d
00000030: 2ca6 e23d dc8e 9e3d 8416 323d 93e5 8f3d
00000040: 74ce f73d 5db2 273d db50 baba c9b6 ac3d
00000050: b827 b83d 7b07 debb f663 863d a269 4bbd
00000060: 3998 0a3d cd23 7fbb 8a7d 0e3e 07c5 31bd
00000070: 609f 5d3d dcaa b4bd 3524 473c d5ba b13d
00000080: 8056 ce3d b1ac 5d3d 2b41 ae3d 729e fabd
00000090: 14dc 803d 0460 473d ea8b 853d 508d aabd
000000a0: 1930 1c3e 8e7e a13d 240a c73d 8fb4 01bd
000000b0: e6f3 723c 2d78 92bd ad0f f6bb aebe 383e
000000c0: ce1b ba3d 91b7 ef3b 6837 8d3d 9bbe c7bd
000000d0: 67ee 1f3d 9f3e 8ebc aea8 10be 002a 85bd
000000e0: 50b8 d1bd f0c9 95bc 5380 85bd adae a4bb
000000f0: 9fdf 5f3d 8cef 62bd 13c5 04bd 4437 5e3c
00000100: a978 6ebc ac23 fb3b ebfd 273d 7388 d23d
00000110: 542a 21bb e282 b33d dd6f 723d 197b f0bd
00000120: 0e7d 523c 663d 2f3d 5f63 fb3b 1bf1 b8bc
00000130: db90 9b3d 44ef 893d db4d f13d 5a1d d93d
00000140: 41eb 813d e9c3 38bd 2288 153d 599c 6e3d
00000150: 1955 293d 60a8 8ebd a7f5 943d 4a00 0d3d
00000160: 34d2 72bd 963f 7fbd 06ad 85bd 18a5 9e3d
00000170: db4b be3d 136e a53d 3d54 abb9 cfb2 553c
00000180: ac5b c2bd 248f 17be 8281 05be f32f d43d
00000190: dbb4 a83b 7c71 8bbd b848 0a3e e190 97bd
000001a0: c18f d83d ec20 c63d 32dc 88bd a250 1ebd
000001b0: b614 6cbb 85f3 fd3d e4f5 053d 3b85 29bc
000001c0: e6fd e13d f294 673d cf39 80bd bcbd 6f3c
000001d0: 5025 69bd bef3 3f3d 87f5 88bd 7486 edbd
000001e0: fa8f 5f3d fef4 11bc 87a7 c33d da38 d2bd
000001f0: 5b5a a8bc 2d5c bb3d ca47 12be 1158 7ebd
00000200: 37f2 7c3d 9e39 05be 1e18 e4bc 7640 60bd
00000210: 419c 663d 194a c5bd 8ac0 7dbd bd8b a8bd
00000220: e1e8 e73c b949 10be af70 6f3d a20c 833d
00000230: 58d6 11bd 29be a7bc 9800 c03d 4d67 cbbb
00000240: 7b13 3f3d dccc 84bd 5a18 213d 63f0 6f3c
00000250: 0fcf 40bd 63f5 b9bd 2b92 4b3d 4e14 b83d
00000260: c335 34bd b502 233d 8ede aabd 5cbf 34bc
00000270: 80b6 9bbc db5f 973d f18b 1ebd 0405 bfbd
00000280: 157d a63c 6536 903d 527a d53d 954c 98bc
00000290: 3776 893d be7a e3bd dab5 853d 1530 623b
000002a0: 87c3 c83d f4d4 03bc 526b abbc 8009 b33d
000002b0: ca23 3ebd b12f f03c 856a cf3d 523c 42bd
000002c0: 4377 61bd 1d54 a9bc d309 843d 3d30 183e
000002d0: 5add a33d f76c 96bc b8db acbb cab3 023c
000002e0: 3361 3f3e 3039 1e3d 0ba0 e9bb c80b d43d
000002f0: a293 8f3d 0ad3 973d 5299 1d3e ca35 83bd
00000300: 3e8f 0f3d bd0d 02bd 689a 273e 6e96 f1bd
00000310: b4a7 36bd 327a d93c 8227 55bb f722 d33d
00000320: 8d3d 473d 17bd d63c 0648 40bd 3acc 083d
00000330: 1d0c 5dbd 525c a23c f8dd f93d f461 abbc
00000340: 6859 c1bd ecb6 a93c 782b bc3c 6713 80bd
00000350: 844c 6cbd 128a b33d f82a b0bd d8b8 c4bd
00000360: 594e cebd bc7d 7f3c 14e0 a53c 164e f2bc
00000370: 4b44 643d 1374 a6bd 0b6b 5abc 8156 103e
00000380: 1631 07bd ebc4 10bb 8631 c3bd d9f8 babc
00000390: 258d 74bd bb15 34bd f681 c93b d419 0d3e
000003a0: 4b32 e7bc a5e7 3cbd ec84 9dbd 62c7 023e
000003b0: a81e 8c3c acea a6bd 440a 8c3d 11bc 3abc
000003c0: 6845 abbd 4de1 7cbd ea0d a4bc 512c 003e
000003d0: f2e4 b83d 2a0e d13c a467 8cbd 1b40 06be
000003e0: 4a1d 5ebd bed9 193d 9dee de3c e7a3 bb3c
000003f0: 9990 d53c 81d7 dfbd 6eca abbd adce b03c

actor.4.bias f4 [4]
-0.04768853 -0.013390041 0.020020904 -0.026165377
00000000: 0c55 43bd e761 5bbc e102 a43c c658 d6bc

critic.0.weight f4 [256, 24]
-0.09406811 0.18530132 0.019193465 -0.14416201 -0.1656998 0.12472261 -0.109752916 0.020720864
0.11615706 -0.16992034 0.15398616 0.011009467 -0.03005574 -0.13290517 0.124474816 0.036783934
-0.15389642 0.08042037 -0.11069066 0.14885542 0.14414039 -0.047086578 0.19596687 -0.05170896
-0.06791349 -0.093524374 -0.072921894 -0.084933676 -0.20148776 -0.14186388 0.16579534 -0.08049599
-0.095293924 -0.17446543 0.049701113 -0.036778368 -0.013948663 -0.07672614 -0.053959217 -0.000101346326
0.06748015 -0.022970892 0.15849805 0.20297125 0.08225774 -0.07008685 0.14771381 0.20257188
0.1563599 0.047608428 0.13624154 0.19826166 0.18775044 0.10987632 0.05505043 0.028258672
-0.035899192 -0.04825099 -0.09481772 -0.15076312 0.04408163 0.19018835 0.054707535 0.17431533
-0.18656293 0.024520058 -0.18297817 -0.055036787 -0.0689317 -0.15621638 0.040047172 0.08813983
-0.1471318 -0.1739917 -0.11555369 -0.06690474 0.045650136 0.14239253 0.1435767 -0.061829846
-0.03108447 0.000871506 -0.034915026 0.08257106 -0.19696712 0.039883114 0.15098345 -0.0065914607
0.09778586 -0.17407516 0.19933555 0.16768043 -0.0025505803 -0.14645696 0.18897542 0.17418292
0.16306561 -0.037412263 -0.11722266 0.12294824 -0.11281105 0.030536365 -0.0025230495 0.1050171
0.18281944 0.17823738 -0.07361549 -0.016676849 0.060940485 0.046661586 -0.122382976 -0.14803584
-0.087675 -0.028055442 0.04904173 0.15145183 0.08267388 -0.08564741 -0.01001638 0.07168224
-0.07460781 0.11289132 0.053036254 -0.02593656 -0.19703984 0.15647148 -0.020464461 0.06605494
0.1518953 0.12600623 -0.0031375042 0.13286799 -0.0044585387 -0.099653564 -0.10075212 -0.19305651
-0.086439796 0.17076766 -0.046101395 -0.021660747 -0.062290892 -0.18170573 -0.10964944 -0.064649284
0.11598089 -0.05184685 0.14604796 0.19210787 0.0052917483 0.13158162 0.07322489 -0.017241705
0.038495082 -0.0777697 -0.16742823 0.18116336 0.067354806 0.17969362 -0.14861532 0.037658148
-0.15299009 0.13561547 0.17650267 0.1576162 0.06628984 0.019911941 0.022408439 -0.14261273
0.018129062 -0.015369743 -0.053025287 -0.09734225 0.0905392 -0.19008587 0.109550945 0.04542545
-0.12138332 0.11958991 -0.112300925 0.18602878 0.09789299 -0.1488951 0.060066093 0.20522581
-0.11393352 -0.103946745 0.0019040086 0.013257817 -0.1762451 0.12759973 0.2051248 -0.025008155
0.014589773 -0.19834425 -0.096950665 -0.095301375 -0.13000205 0.008416428 0.051959302 0.03212878
0.19083549 -0.17158125 -0.08673193 0.17088687 0.07218383 0.06446409 -0.03396489 0.076005146
0.05605852 -0.002807594 -0.087611064 0.011112777 -0.1621629 -0.18785627 -0.18366627 -0.06744577
0.06140339 0.141235 0.17104767 -0.14271659 0.15845416 -0.13714024 0.080822915 -0.1612538
-0.16269784 0.18585126 0.09515625 -0.16664134 -0.103365146 -0.077453725 -0.0421458 0.03830932
-0.12562688 0.09132925 0.18882352 -0.12011296 0.015520753 0.08183697 0.1523104 -0.10778944
-0.061474644 -0.011632116 -0.17935213 0.16822524 -0.19167069 -0.06991986 -0.052173465 0.03106699
-0.19138302 -0.07301743 0.12627399 -0.0070572956 -0.0505633 -0.07224778 0.16532235 -0.06795498
00000000: c8a6 c0bd a1bf 3d3e 9d3b 9d3c 359f 13be
00000010: 35ad 29be 916e ff3d 23c6 e0bd cdbe a93c
00000020: c1e3 ed3d 99ff 2dbe 8cae 1d3e 0d61 343c
00000030: 7537 f6bc 4b18 08be a7ec fe3d c0aa 163d
00000040: 0697 1dbe 6fb3 a43d c9b1 e2bd 8e6d 183e
00000050: 8a99 133e dbdd 40bd 8aab 483e c6cc 53bd
00000060: 3a16 8bbd b589 bfbd 1358 95bd b5f1 adbd
00000070: cf52 4ebe c444 11be 41c6 293e 15db a4bd
00000080: 7629 c3bd 11a7 32be 6593 4b3d eaa4 16bd
00000090: ef88 64bc 9822 9dbd 5704 5dbd e589 d4b8
000000a0: 0833 8a3d 742d bcbc 504d 223e b2d7 4f3e
000000b0: bf76 a83d b289 8fbd 4a42 173e 016f 4f3e
000000c0: cf1c 203e 0e01 433d e782 0b3e 1b05 4b3e
000000d0: a741 403e d606 e13d 8f7c 613d bb7e e73c
000000e0: 080b 13bd d5a2 45bd cb2f c2bd a661 1abe
000000f0: f08e 343d bcc0 423e 0215 603d b87f 323e
00000100: 5a0a 3fbe 4ade c83c a15e 3bbe 416e 61bd
00000110: 102c 8dbd 30f7 1fbe 8108 243d a882 b43d
00000120: b8a9 16be e12a 32be 6aa7 ecbd 5a05 89bd
00000130: a3fb 3a3d 59cf 113e c505 133e 4b41 7dbd
00000140: dca4 febc c775 643a 0f03 0fbd 041b a93d
00000150: c0b1 49be 7a5c 233d 689b 1a3e 2efd d7bb
00000160: f443 c83d c240 32be 9e1e 4c3e 6bb4 2b3e
00000170: a327 27bb d0f8 15be c682 413e 025d 323e
00000180: acfa 263e 9a3d 19bd 6f12 f0bd 49cc fb3d
00000190: 7b09 e7bd 6627 fa3c bf59 25bb 3513 d73d
000001a0: 0535 3b3e dc83 363e b8c3 96bd e39d 88bc
000001b0: bb9c 793d 3820 3f3d eda3 fabd b596 17be
000001c0: f38e b3bd 87d4 e5bc fbdf 483d 3016 1b3e
000001d0: ec50 a93d e967 afbd be1b 24bc 23ce 923d
000001e0: fbcb 98bd 9033 e73d 8b3c 593d e978 d4bc
000001f0: d0c4 49be 0f3a 203e 16a5 a7bc d047 873d
00000200: 718a 1b3e c707 013e 969e 4dbb 8c0e 083e
00000210: ef18 92bb 2b17 ccbd 2157 cebd 9bb0 45be
00000220: 5907 b1bd b8dd 2e3e d1d4 3cbd e171 b1bc
00000230: bc24 7fbd 1111 3abe e38f e0bd d866 84bd
00000240: 6487 ed3d 5d5d 54bd 998d 153e edb7 443e
00000250: 6766 ad3b 55bd 063e eef6 953d 7a3e 8dbc
00000260: 05ad 1d3d b845 9fbd 4e72 2bbe e382 393e
00000270: 51f1 893d 9b01 383e 9d2e 18be 6e3f 1a3d
00000280: 6fa9 1cbe c8de 0a3e 1ebd 343e 2466 213e
00000290: f8c2 873d 5e1e a33c e791 b73c 1209 12be
000002a0: 6683 943c 60d1 7bbc 0b31 59bd 605b c7bd
000002b0: 9e6c b93d dfa5 42be 3f5c e03d 0910 3a3d
000002c0: d197 f8bd 8eeb f43d 07fe e5bd 547e 3e3e
000002d0: 1f7c c83d f577 18be dd07 763d b726 523e
000002e0: fa55 e9bd 08e2 d4bd ed8f f93a 5137 593c
000002f0: 9879 34be 81a9 023e 3c0c 523e e7dd ccbc
00000300: f109 6f3c c11a 4bbe 128e c6bd 5e2d c3bd
00000310: 421f 05be 0fe5 093c 47d3 543d 7899 033d
00000320: 616a 433e ffb2 2fbe 83a0 b1bd f8fc 2e3e
00000330: 1ed5 933d c005 843d c51e 0bbd 96a8 9b3d
00000340: 9e9d 653d 9cff 37bb 6e6d b3bd 5d12 363c
00000350: 080e 26be 655d 40be 0313 3cbe 0221 8abd
00000360: 1f82 7b3d e89f 103e 1f27 2f3e 4c24 12be
00000370: cf41 223e 7e6e 0cbe 7c86 a53d b71f 25be
00000380: 439a 26be cb4f 3e3e 48e1 c23d 07a4 2abe
00000390: 1bb1 d3bd 0fa0 9ebd 13a1 2cbd 3cea 1c3d
000003a0: 55a4 00be d40a bb3d f45a 413e c9fd f5bd
000003b0: c24a 7e3c 249a a73d 42f7 1b3e b6c0 dcbd
000003c0: d6cc 7bbd a194 3ebc 16a8 37be 3d43 2c3e
000003d0: 5245 44be 2532 8fbd d8b3 55bd 3380 fe3c
000003e0: e9f9 43be 2a8a 95bd f84d 013e e340 e7bb
000003f0: 761b 4fbd a5f6 93bd 434a 293e fb2b 8bbd

critic.0.bias f4 [256]
0.118585244 0.06722079 -0.13208343 -0.07484856 -0.17374055 -0.10847082 0.06642347 0.039349936
0.1208938 -0.07887888 0.13254356 -0.1324791 -0.06867767 -0.014514337 0.04921027 -0.0020151988
0.14101897 0.0076800454 -0.1868045 -0.07175546 -0.18665719 -0.17965241 0.06932021 0.10719351
-0.20274362 0.119895115 0.039185047 0.20065917 -0.1930683 0.14819746 0.16576809 0.1453878
-0.07038609 -0.14478883 -0.11549166 -0.1687906 0.15878685 -0.06810553 -0.02388235 0.081928164
-0.19405979 -0.12348332 -0.095169246 0.039122865 -0.083481975 0.022211961 -0.114535876 -0.18891665
-0.017451452 -0.027758865 0.059642572 -0.029664492 0.06324175 -0.17992382 -0.088526644 0.17020872
0.16840842 -0.21248642 -0.13329948 0.17138211 -0.18075907 0.15486528 0.101638205 -0.13176572
-0.106854014 0.105357096 0.11451672 0.063181505 -0.16191873 0.13681372 -0.060399946 -0.014086118
0.17077288 0.096957736 0.055408653 -0.098158136 0.09449225 0.056754347 0.07625949 -0.082731865
-0.17756937 -0.068128414 0.15052871 0.13368823 0.108319186 0.16069266 -0.069821715 -0.0935585
-0.039476793 -0.007948225 -0.19240333 0.007784056 -0.131832 0.060274944 -0.029922368 -0.06143734
-0.08978051 0.18662377 -0.026091201 0.16208257 -0.068839855 -0.088522375 0.13141958 0.15377955
0.17585756 0.14994614 0.0682482 -0.04229258 -0.056253105 -0.19917244 0.10735228 -0.102271535
0.07144389 -0.15745695 0.00034131715 0.20438468 -0.1365295 -0.04435006 -0.06776957 -0.0026625025
0.085834205 -0.029662598 -0.06296574 0.15219125 0.08937101 0.06924308 0.013489789 -0.13002904
-0.06902712 0.12033934 -0.0033332887 -0.20250323 -0.19104819 0.12692869 -0.0032461623 -0.18077712
-0.19703096 -0.110311925 0.2016568 -0.08514753 0.097931944 -0.17275664 0.013299554 -0.124674916
0.18122347 -0.14814734 -0.17623769 -0.05263326 0.06929654 -0.15651196 -0.11254243 0.1947165
0.06525044 0.11003495 0.010708288 -0.034583546 0.109125234 0.027596533 0.08087615 -0.025361814
-0.04386935 0.14310205 -0.14106543 0.12720415 -0.028132664 0.051449683 0.09905751 0.1192996
-0.14453666 0.16161948 0.15235357 -0.01997328 -0.20498317 0.0819433 -0.15576275 0.16870625
0.1638344 -0.049009953 -0.15339623 0.102853306 -0.088074334 0.07473539 -0.006624897 0.05980201
0.10105298 0.16918173 0.004712869 0.08651113 0.08492173 -0.13075858 0.14810799 0.15583493
-0.11829341 -0.14608324 0.0915546 0.033503484 0.08292945 0.08402359 0.016694006 -0.18391915
0.14044021 0.19955935 0.019233583 -0.10269152 0.06926027 -0.1156747 -0.10298583 0.11902455
0.18034604 -0.047651466 -0.18520622 -0.05786868 0.097223274 0.03280307 -0.09416829 0.10169886
-0.16235566 0.03872495 -0.11976721 -0.019080834 0.08069889 0.06537111 0.081266515 0.039847586
0.0535762 0.041988894 -0.059961163 -0.15699887 -0.10272456 0.054652926 -0.04368472 0.17590526
-0.0044487184 0.14586286 -0.1382317 -0.1864634 -0.19025394 -0.14644945 0.06875514 -0.13141818
0.11079509 0.06847107 -0.025012799 0.024616972 0.01709293 -0.09516255 -0.073181294 0.07240998
0.027378714 -0.11491241 0.042921644 -0.16159949 -0.17917126 0.12876926 -0.13340122 0.08628367
00000000: d2dc f23d 0eab 893d e140 07be 344a 99bd
00000010: 0be9 31be f325 debd 0709 883d 662d 213d
00000020: 2b97 f73d 408b a1bd 80b9 073e 9aa8 07be
00000030: e1a6 8cbd 8bcd 6dbc b590 493d 6d11 04bb
00000040: 4767 103e e4a8 fb3b ae49 3fbe 87f4 92bd
00000050: 1023 3fbe cdf6 37be c1f7 8d3d 4588 db3d
00000060: 069c 4fbe 928b f53d 8080 203d 9979 4d3e
00000070: b2b3 45be 13c1 173e 1cbf 293e 8ae0 143e
00000080: 9526 90bd 8643 14be e486 ecbd 71d7 2cbe
00000090: 0599 223e ea7a 8bbd eba4 c3bc f4c9 a73d
000000a0: 9cb7 46be d3e4 fcbd 18e8 c2bd 4c3f 203d
000000b0: 99f8 aabd dcf5 b53c c991 eabd 5e73 41be
000000c0: 59f6 8ebc 8f66 e3bc c54b 743d f302 f3bc
000000d0: e484 813d f33d 38be 754d b5bd 324b 2e3e
000000e0: 4273 2c3e 0a96 59be a97f 08be cb7e 2f3e
000000f0: e818 39be 0195 1e3e b127 d03d 98ed 06be
00000100: 47d6 dabd 76c5 d73d be87 ea3d 4e65 813d
00000110: 06ce 25be e518 0c3e ef65 77bd 76c9 66bc
00000120: 16df 2e3e c791 c63d 2ff4 623d 2207 c9bd
00000130: 2785 c13d 3f77 683d ef2d 9c3d 536f a9bd
00000140: bfd4 35be e986 8bbd 3324 1a3e 91e5 083e
00000150: 73d6 dd3d 9e8c 243e b0fe 8ebd 999b bfbd
00000160: 6bb2 21bd 4639 02bc 6105 45be 6511 ff3b
00000170: f8fe 06be dce2 763d c11f f5bc b8a5 7bbd
00000180: d8de b7bd 4d1a 3f3e 37bd d5bc f9f8 253e
00000190: e9fb 8cbd 384b b5bd db92 063e 6378 1d3e
000001a0: 0114 343e 7b8b 193e b6c5 8b3d fc3a 2dbd
000001b0: a869 66bd dcf3 4bbe 83db db3d bd73 d1bd
000001c0: 2d51 923d 653c 21be d0f2 b239 384a 513e
000001d0: 64ce 0bbe 69a8 35bd c6ca 8abd 617d 2ebb
000001e0: d8c9 af3d fafe f2bc 2ff4 80bd 06d8 1b3e
000001f0: 2608 b73d 51cf 8d3d 4704 5d3c 5526 05be
00000200: 175e 8dbd 7974 f63d 4e73 5abb 025d 4fbe
00000210: 23a2 43be 98f9 013e 91bd 54bb a31d 39be
00000220: 7cc2 49be 38eb e1bd 1f7f 4e3e d461 aebd
00000230: 8b90 c83d 1ee7 30be 5fe6 593c 9055 ffbd
00000240: a592 393e f0b3 17be a777 34be f995 57bd
00000250: 58eb 8d3d ac44 20be a57c e6bd c363 473e
00000260: 06a2 853d 015a e13d d171 2f3c 7aa7 0dbd
00000270: 0d7d df3d 2012 e23c 65a2 a53d 94c3 cfbc
00000280: 59b0 33bd 5889 123e 7573 10be ce41 023e
00000290: 7976 e6bc e7bc 523d aade ca3d 5953 f43d
000002a0: 6b01 14be 947f 253e 9302 1c3e 019f a3bc
000002b0: 1ce7 51be e4d1 a73d 4580 1fbe 55c1 2c3e
000002c0: 34c4 273e a9be 48bd e713 1dbe c1a4 d23d
000002d0: 5160 b4bd de0e 993d aa15 d9bb f4f2 743d
000002e0: ddf4 ce3d fa3d 2d3e 696e 9a3b bf2c b13d
000002f0: 72eb ad3d 94e5 05be 9fa9 173e 3193 1f3e
00000300: d143 f2bd d896 15be fa80 bb3d f33a 093d
00000310: ead6 a93d 8f14 ac3d dec1 883c 4d55 3cbe
00000320: 8fcf 0f3e 4959 4c3e bf8f 9d3c ee4f d2bd
00000330: 54d8 8d3d dbe6 ecbd 3cea d2bd 25c3 f33d
00000340: a2ac 383e 2f2e 43bd b3a6 3dbe b607 6dbd
00000350: ff1c c73d 835c 063d 4edb c0bd 7e47 d03d
00000360: 9040 26be 0e9e 1e3d 8348 f5bd 694f 9cbc
00000370: 7645 a53d 4ae1 853d 0f6f a63d 3937 233d
00000380: b872 5b3d 8cfc 2b3d d699 75bd 50c4 20be
00000390: 4161 d2bd bfdb 5f3d c0ee 32bd 8220 343e
000003a0: 8ec6 91bb 135d 153e 9c8c 0dbe 43f0 3ebe
000003b0: eed1 42be d8f6 15be 7fcf 8c3d 7d92 06be
000003c0: 89e8 e23d 8f3a 8c3d a4e7 ccbc 88a9 c93c
000003d0: 7906 8c3c 95e4 c2bd 13e0 95bd af4b 943d
000003e0: 5349 e03c 3357 ebbd 9bce 2f3d 567a 25be
000003f0: ac78 37be 17dc 033e 549a 08be 7eb5 b03d
