Policy Gradient/walker_ppo_model_old_2200.pth (torch, 34325 bytes, 11 tensors)

actor.0.weight f4 [64, 24]
00000000: cb18 e8bd b363 b03e 0a12 b6bd 1c45 d83e
00000010: 083c 09be cbc9 08be b039 123f cee8 24be
00000020: 3928 3bbe 38d8 04be a142 31bd 9bab 83be
00000030: 2805 503c e327 863d c08f 463e 0ea9 163e
00000040: b5da 8e3b 688c 8ebd 97ed 1a3e 1fe9 34be
00000050: 1773 d93c a593 0a3e 9665 043e 87d7 dd3c
00000060: c50f f4bd 5e8b 643e 663f 323e 0662 6f3d
00000070: f0d4 843e 9e0b ff3d 0077 e83e e7ea 2cbe
00000080: 991a 20be b67d 38bd 431c 1f3e 3169 06bc
00000090: 5adc 3abd 3704 bb3d b692 c63d ec95 623d
000000a0: 6519 90bd 4bbd 9b3d ea5a 0cbe 957f 6a3c
000000b0: 0c8e 503b c2e5 aabd db5d eabb be52 dc3d
000000c0: a3c2 d3bd 9f01 aebe 78b6 cabc 6035 64be
000000d0: 19d0 90bd 6d08 e43a 8be3 a13e a523 d73d
000000e0: e580 33be 93cc 0e3e 0ee9 00be 24e1 853e
000000f0: 82ca 1fbe eae8 7b3e 830b 5cbe b528 4dbe
00000100: 6f79 3cbe 494c 723d 4b51 4cbe ed6d 0b3e
00000110: 50f7 c0bc 8767 00be c7ce 2fbe fbbd 7bbd
00000120: 2be6 3dbe d300 b4be b7e6 29be fa70 60bd
00000130: 0b43 9fbe 4ea1 33be c0aa adb9 234d eabd
00000140: 68e8 ebbc 74c6 8f3d 0f13 233d 506f 22bd
00000150: 488c a73d 2708 543d 17cc 1ebe 03ac 73be
00000160: 669c 1bbe 4e5c b43d 52d0 48bd db00 9c3d
00000170: f1a1 393d 4359 15be 71d4 0e3e dbfc 153d
00000180: f772 37be 2b2a 3fbe 6b8a 27be 0c26 3cbe
00000190: a54a 123e 1e2d 243d a6e5 bebe 4d27 9cbd
000001a0: 2a3a d5bd 9ab9 13bc d2e6 aa3d 2964 b83e
000001b0: e2eb 633e baa4 103e 8b59 ad3d 1e7a a93d
000001c0: 0534 51be a366 33bc d2b0 abbd 4354 2abd
000001d0: 44a8 1a3d 3b2a 15be e101 32be 0f7c 0f3d
000001e0: 97de 90bd 5cc0 8b3d 5d5f 983c 9274 b5bc
000001f0: ba79 713d b097 92bd e901 7b3e dc83 77bd
00000200: 7118 193e 1b2c 70bd 6c1f ac3c f3ff 563b
00000210: 8eba 06be f00f 733e a950 5bbd 1c31 20be
00000220: ae06 c4bc a59b 063e da0c 13be dd5f 30be
00000230: 9819 86bd 7b76 043d bcca ffbd d9f7 b6bc
00000240: d220 16be f6ff 25be 7bc1 01bc de5f 02be
00000250: 082d 40be 85a2 d13d f436 b63d 8d2d 3a3d
00000260: 284f da3d ea05 ea3d 3388 493e 68de 523e
00000270: c4fb 293e e6cd 1b3e 22f2 9ebc 6d52 fd3c
00000280: 2b12 b83d 816b 953d ecfa 31be 5b30 8a3d
00000290: c520 e0bd ac7c 6cbd 8a98 40be 9b23 cbbd
000002a0: bb49 d6bd 8366 723e 0330 313e 3e30 793e
000002b0: 14df 4a3e 2fbd b8bc 868d c83e c98c 14bd
000002c0: df57 03bc b78f 873c 5ac9 30be 8682 afbe
000002d0: 99af 16be 9f87 383d e0a5 4d3e c94e ca3d
000002e0: 4c2b d43d df69 0e3c 23c9 143d fb94 8fbd
000002f0: 0a6b e03d 1e0b 023e 1e37 c73d 174f 38be
00000300: 2325 74bd 3fd0 44be 1ed0 60be a7e8 60be
00000310: f19e 4a3e 6766 463a 8d0f e9be 8551 ac3c
00000320: c2cd 373e 7212 c63b 3575 703d 5724 363e
00000330: 4c96 1fbc fcd8 74be daab 263e e7a5 a13c
00000340: bc1b a4bc f936 8fbd 342e 003d d004 1a3e
00000350: ac30 113e affd 68bd b781 01be 65da 353e
00000360: c62d dcbc c081 43be 0c97 63be ce0d c6be
00000370: df5c 2cbe 558c 0b3d 8320 07bf 077c 98bd
00000380: 9668 903d 0842 fa3d 3b63 173e c45b 0abe
00000390: f9f6 ae3d 5ea2 cc3d e421 6abc 0f47 07be
000003a0: 25f0 fe3d 1d21 0cbe ac0b 44bb 5c79 79be
000003b0: 5dd9 18bd 368c c5bd 4994 5d3d 9258 ef3d
000003c0: 4dde e53b aedd c33e d8d3 c33d cd65 05bd
000003d0: 6984 203e a8a2 5bbd d464 313e 4fd3 94bc
000003e0: 695c 32bd bb5d a4bd 9cf8 d33d 0db9 b0be
000003f0: 004a c93d 6412 75bd d579 80bd 2b78 283d
-0.11332854 0.34451064 -0.088901594 0.42240226 -0.13401806 -0.13358228 0.57119274 -0.16104433
-0.18277062 -0.12973106 -0.043276433 -0.25716862 0.012696542 0.065505765 0.19390774 0.14712927
0.004359568 -0.06960374 0.15129696 -0.17667054 0.026544137 0.13532884 0.12929377 0.02708031
-0.1191707 0.2231879 0.17406997 0.05844309 0.25943708 0.12453388 0.4540329 -0.16886483
-0.15635146 -0.045041762 0.15538125 -0.0082037905 -0.0456203 0.09131663 0.09695952 0.055318758
-0.070360936 0.07604464 -0.13706556 0.0143126445 0.0031822948 -0.08344604 -0.0071523017 0.10757969
-0.103398584 -0.33985612 -0.024745211 -0.22285986 -0.070709415 0.0017397531 0.31618914 0.105048455
-0.17529638 0.13945226 -0.12588903 0.2614833 -0.15604594 0.24600568 -0.21488766 -0.2003506
-0.18405698 0.059154782 -0.19952886 0.13616152 -0.023555428 -0.12539493 -0.17168723 -0.061460476
-0.18544833 -0.3515688 -0.16591917 -0.054795243 -0.31105837 -0.17542002 -0.0003312435 -0.11440494
-0.028797343 0.07020274 0.039813098 -0.039656937 0.081810534 0.051765587 -0.15507542 -0.23796086
-0.1519638 0.08806668 -0.049026795 0.07617351 0.045320455 -0.14584832 0.13948227 0.036618095
-0.1791495 -0.1866843 -0.16361396 -0.18373889 0.14286287 0.04008209 -0.37284583 -0.076246835
-0.104114845 -0.009016419 0.08344807 0.36013916 0.22257951 0.14125338 0.084643446 0.08275245
-0.2043 -0.0109497635 -0.08383335 -0.041584264 0.037758127 -0.14566891 -0.17383529 0.03503042
-0.07073706 0.06823799 0.01860016 -0.022150312 0.058953978 -0.07157838 0.24512447 -0.060428485
0.1495073 -0.058635812 0.021011077 0.0032806366 -0.13157102 0.23736548 -0.05354372 -0.15643734
-0.023928966 0.13145311 -0.14360371 -0.17224069 -0.0654785 0.032339554 -0.124898404 -0.02233498
-0.14660957 -0.16210923 -0.0079196645 -0.12731883 -0.18767178 0.10236076 0.088972 0.045453597
0.10659629 0.11426909 0.19680862 0.20592654 0.16599947 0.15215263 -0.019402567 0.030923093
0.0898784 0.07295895 -0.17380875 0.06747504 -0.1094375 -0.057736084 -0.18808189 -0.099189006
-0.10463282 0.23671918 0.17303471 0.24334809 0.1981166 -0.022551147 0.39170474 -0.036267076
-0.008016556 0.01654802 -0.1726431 -0.3427927 -0.14715423 0.045051213 0.20082808 0.09878308
0.10359821 0.008692234 0.03632463 -0.07010838 0.10957916 0.12699553 0.0972731 -0.1799892
-0.05960573 -0.19220065 -0.2195439 -0.2196375 0.19787194 0.000756836 -0.45519677 0.021034965
0.17949584 0.0060446793 0.058705527 0.177873 -0.009740423 -0.23910898 0.16276494 0.019732429
-0.020032756 -0.06992907 0.031294063 0.15040898 0.14178723 -0.056882557 -0.12647139 0.17759092
-0.026877295 -0.19092464 -0.22225589 -0.38682407 -0.16832303 0.034069378 -0.52783984 -0.07445531
0.07051198 0.12219626 0.14783947 -0.13511568 0.085432 0.099919066 -0.014290307 -0.132107
0.12448148 -0.13684507 -0.0029914184 -0.24362701 -0.03731667 -0.09645884 0.054096494 0.11686815
0.0070150257 0.38255066 0.0956189 -0.032567788 0.1567551 -0.053621918 0.17323619 -0.018167166
-0.04354516 -0.0802569 0.10350153 -0.34516183 0.098285675 -0.05983199 -0.062732376 0.041130226

actor.0.bias f4 [64]
00000000: 75b6 35be 16c0 32be 6d55 703e 9ebd 89bc
00000010: bc7a 6a3e c518 04be cfa5 35be 4103 30bd
00000020: 2bf9 35be 60ad 213e ca25 fabd d7cb 303d
00000030: 353d cbbd 73ae e2bc dece e4bc dc65 0abd
00000040: 5fa8 96bd 6592 d0bd 0d31 063e d4eb dd3d
00000050: 5153 8fbd dcc7 f53d 8aef 533e 80d2 b1bd
00000060: 91b8 32be f437 083e f867 cf3c a421 35be
00000070: 315c 35be c036 44be 2ec8 393e b43b cfbd
00000080: 350f 3fbe 298d d43d c26b 1abe 9712 0dbe
00000090: 4d97 0cbe cb7b 3fbd d298 9d3d 90c3 2b3e
000000a0: b5a3 023e 4cd4 0d3e d42e 943d 47a9 bf3b
000000b0: d7a7 cc3d 9b91 8dbc be59 5b3d bfe7 aebd
000000c0: 3492 8e3d b3e8 cbbd efb2 1bbe b71d 6c3d
000000d0: a011 1a3d ab58 c93d 77b3 eabd f95c 173e
000000e0: 3e57 c83d 8abe fd3d d8f4 0dbe 9448 14bd
000000f0: 5c49 b93d 6097 87bd 0877 9abd 10a1 1f3e
-0.17745383 -0.17456087 0.23470087 -0.01681405 0.22898382 -0.12900074 -0.17739032 -0.042971853
-0.17770831 0.15788794 -0.12214239 0.043163147 -0.09923784 -0.027671074 -0.027930673 -0.033788547
-0.07356333 -0.101841725 0.13104649 0.10835996 -0.06998313 0.12001011 0.20696846 -0.08682728
-0.17453219 0.13302594 0.02531813 -0.17688614 -0.1771095 -0.1916151 0.18142769 -0.10118809
-0.18658145 0.10378487 -0.15080169 -0.13776623 -0.13729592 -0.046748918 0.07695164 0.1677382
0.12757762 0.13850516 0.07235494 0.005849037 0.099929504 -0.017281344 0.05355238 -0.08540296
0.0696148 -0.09956493 -0.15204976 0.057645526 0.037614465 0.09831365 -0.114600115 0.1478156
0.09782265 0.12389858 -0.13862932 -0.03620203 0.09047195 -0.06620669 -0.07542235 0.15588784

actor.2.weight f4 [32, 64]
00000000: 18b8 c03d eeba fb3d b0f6 95bc c818 0cbe
00000010: 4d0a 013d 2498 1d3e 8cf7 133e 1159 ca3d
00000020: ac8b 3f3e 10c1 0cbe 9279 393e 468d 943d
00000030: 2604 21bd 78d1 6f3c 9ac9 0a3e 91be 21bd
00000040: 45b1 1abd cd0d a03e 0f4b 1d3e 573e 1abd
00000050: c74e 533e 4a15 6cbe 1473 4fbe bf1e c23d
00000060: 78ae e43a 2af6 3f3d 3b86 313e a625 303d
00000070: 61f5 943d f551 043e 7c42 953d 4b03 fdbc
00000080: 63c6 bf3d 2f0e 7e3d aeaa 9f3d 2da0 7c3d
00000090: 5ad7 04bd dab5 19be 10da cebc ed5a 2fbe
000000a0: 7325 a2bd dd11 8dbd 71a6 cdbd 314f 0fbe
000000b0: 425e 273c b8f4 0c3e eef0 c4ba f4e5 94bd
000000c0: 3588 873d b60c 9bbb 27c1 683e 9855 6ebe
000000d0: f7b2 d9bc 9b6f 383d e0b0 d6bd 5454 26bd
000000e0: 2a2f d2bd 2d2a babd baa5 cc39 4066 6f3d
000000f0: af5a 25be f738 13be 0d72 cdbd d20a 39be
00000100: 3a5f e3be 629f 0abe be95 aebd 5440 aabd
00000110: 8221 a63e 955d 94bd bdc6 9b3c 643e d4be
00000120: 9c95 8a3e d23a f33d d62c abbd 5d32 17bc
00000130: 9527 b1bd 0a99 873e 0fe4 8bbe 7d0d 3dbe
00000140: 2779 f2bc 0658 3e3d 123c 12be b76d 40be
00000150: bc3a 2cbe eae2 78be fbe2 76bd f7c0 2dbe
00000160: c8b1 f93b 2198 183c 0fdb 8d3d 5355 f63b
00000170: ed7d 36be 40af 613c 8734 fabc 2c99 42bd
00000180: 3863 06be ca2b ce3d e094 57be 6336 8bbd
00000190: 4ad5 35bd ca32 f7bc 68e6 b8bd 5c1d 393e
000001a0: 1eae 2a3e 24ed e13b 6776 063e 1dd0 6bbc
000001b0: 0132 8cbd 8a4c 0bbe 4376 413e 63ad bc3c
000001c0: 4b06 26be fd47 a93c c5b5 09be a42d d03c
000001d0: 267e a03d 5b9e 163d a43f c8be 95df 253d
000001e0: c633 ec3d ec3c 3a3a 2f5a 833d 2d6f b43d
000001f0: 4642 a0bc 01f4 8e3c 2332 eabc 5dce 963e
00000200: 05c0 13be 2355 e5bd 7bcc 223e f402 0c3e
00000210: ba61 12bc 0682 15bd 35de fb3d 9a7b 97be
00000220: 5dfd 10bd 3f74 793c 7085 1dbe 95c8 01be
00000230: 147d 18be d2d2 973c 9dca 79bd 3096 e6bd
00000240: 032e 27be d9cf c3bd 8709 32bd 5279 223e
00000250: 55e3 b1bc f537 293e 514b 303e a865 2abd
00000260: fd40 533d 3c69 9a3d 24e5 3abd b705 00be
00000270: 699a 24bd 4e47 b6bd 7894 d7bc a74c 3bbe
00000280: 2c68 9bbc e2a9 4f3d c1e2 6a3d 4d54 29be
00000290: 0fa2 cd3c 35ee b13d 4958 f6bc e299 663e
000002a0: 7990 523d 10eb 823e 8f22 b73d b61f e5bd
000002b0: 89af 0e3e 7b51 b8be e18a 68bd 5ede 463e
000002c0: b119 e03c fafa f7bb 3f0b f3bd 2b34 333d
000002d0: 8f1f f6bd d61e d73d 1b19 043e c1c7 f13d
000002e0: cb43 f4bc 0cf4 813d f329 743d ade0 7b3c
000002f0: e145 cc3d ce1f 42bc ab40 ff3d ba71 8d3e
00000300: 78b2 1b3e 0cf8 513e 951b 013e 4867 233e
00000310: 630f 20be e2db 103e 63f0 0a3e c7de 543d
00000320: b992 43be 86a0 19be b4dd 81bc 6307 cbbd
00000330: 2211 943d cde1 06be 9074 143e 5076 173e
00000340: 3370 d53d 6ab3 debd d437 ba3d 6d87 8d3e
00000350: 2042 e43d 7410 953d ff27 123d cfa2 463d
00000360: 6abe c53d 39ab bf3b 07b2 fc3c fb43 b73c
00000370: 20ed 963d 606e 3f3d 518f 19be c214 9abe
00000380: 2c74 923c 5345 123e a3cb cd3d 033c b53c
00000390: 1d3d 87bd d854 b7bd 6558 9b3d f544 b4bd
000003a0: 953d 093e 901a 2d3d 13dd 0dbc 0f5c aabd
000003b0: f520 d63d 3869 38bd 296d e63d 9a7c 113e
000003c0: 78a2 6b3e b962 c53d 5947 6ebe bfa8 bf3d
000003d0: 6135 43bd a2b5 3bbd 014a a93d e544 34be
000003e0: aab5 68bd ade7 2b3e faba 483d 423f 0e3e
000003f0: caff 903d 4af5 1a3d b714 05be 435e 07bc
0.09410113 0.122915134 -0.018306106 -0.13681328 0.031503964 0.15390068 0.144499 0.09880269
0.18705624 -0.13745522 0.18112782 0.07253508 -0.039310597 0.014637344 0.13553467 -0.03948838
-0.037766714 0.3126053 0.15360664 -0.03765711 0.2063552 -0.23054996 -0.20258743 0.094785206
0.0017447015 0.04686562 0.17336361 0.043004654 0.07273365 0.12921889 0.072880715 -0.03088536
0.09364011 0.062025245 0.077962264 0.061676193 -0.032431938 -0.15010777 -0.025250465 -0.17124529
-0.07917299 -0.06888173 -0.10041512 -0.13995053 0.010215344 0.13765228 -0.0015025416 -0.072704226
0.06617776 -0.00473174 0.22729932 -0.23274839 -0.026574595 0.04502831 -0.10482955 -0.040607765
-0.10262902 -0.09090076 0.00039033388 0.058447123 -0.16147874 -0.14377199 -0.10031519 -0.18070534
-0.4440859 -0.13537362 -0.08524655 -0.08313051 0.3244744 -0.07244412 0.019015664 -0.4145385
0.27067268 0.118764535 -0.08358161 -0.009228316 -0.08650128 0.26483947 -0.27322432 -0.18462177
-0.029598786 0.046470664 -0.14280728 -0.18791853 -0.1681928 -0.24305311 -0.06027506 -0.16968141
0.00762007 0.009313614 0.06926548 0.0075174957 -0.17821474 0.013774693 -0.030542625 -0.047509357
-0.13123786 0.10066946 -0.21052885 -0.06797483 -0.04439286 -0.030175585 -0.090283215 0.18077606
0.16667983 0.0068947244 0.13131104 -0.01439288 -0.06845475 -0.13603416 0.1889277 0.023031896
-0.16213338 0.02066421 -0.13448246 0.025412388 0.07836561 0.036772113 -0.39111054 0.040496428
0.115333125 0.0007104415 0.064136855 0.088102676 -0.019562852 0.017450335 -0.02858836 0.29454318
-0.14428718 -0.11197879 0.15898316 0.13673002 -0.008934433 -0.036500953 0.12298242 -0.29586488
-0.035397876 0.015225469 -0.15382934 -0.12674172 -0.14891464 0.018533144 -0.060984243 -0.11259115
-0.16326146 -0.09561128 -0.043466117 0.15866593 -0.021714846 0.16525252 0.17216231 -0.041600853
0.05157565 0.07539603 -0.04562868 -0.1250218 -0.04018632 -0.08900319 -0.026315913 -0.1829096
-0.018970571 0.050699122 0.057345156 -0.16536064 0.02510169 0.086880125 -0.030071395 0.22519639
0.05140731 0.25569963 0.089421384 -0.11187689 0.13934149 -0.35999665 -0.05677307 0.19420764
0.027356 -0.0075677605 -0.118673794 0.043750923 -0.12017738 0.10503928 0.12900202 0.11805678
-0.029817482 0.06345376 0.05961032 0.015373391 0.09974266 -0.011848403 0.12463506 0.2762583
0.15204799 0.20504779 0.12608178 0.15957367 -0.1563087 0.14146379 0.13568263 0.05197027
-0.19098939 -0.15002641 -0.015852787 -0.09913518 0.0722983 -0.13172074 0.1449759 0.14791226
0.10421791 -0.10874064 0.090926796 0.27642384 0.11145425 0.07278529 0.035682674 0.04849511
0.09655459 0.0058492688 0.030846609 0.022371283 0.07369447 0.04673612 -0.14996077 -0.30093962
0.01787766 0.14284258 0.10048606 0.022123342 -0.06603453 -0.089517295 0.07585219 -0.08802215
0.13402398 0.04226166 -0.008658665 -0.0831834 0.10455505 -0.04502222 0.112512894 0.14207688
0.23011196 0.096379705 -0.23269404 0.09358358 -0.047658328 -0.045827515 0.08266068 -0.17604406
-0.056813873 0.16787596 0.04900644 0.13891318 0.07080038 0.037831582 -0.12996183 -0.00826222

actor.2.bias f4 [32]
00000000: 484e ae3b 4715 e63d 7dc4 0d3d 8a2c 1a3d
00000010: 63be ecbd b91e a3bd 958d 35be 07f3 a3bc
00000020: ef15 13bc d2db db3d 22e7 41bd f400 c6bc
00000030: f1f7 9ebd e2fc 4b3b 9b51 91bd a914 61bc
00000040: b84d 2d3d ee98 16bd eab6 6b3d 204e aabc
00000050: 099d b2bc 52fa 89bd 0831 b53c 60e8 d83d
00000060: 3fb9 8dbd 7199 613d 8803 b7bc ec2c 38bd
00000070: 2d2e 973c 24db 3cba 47b5 833d 4b34 0fbe
0.0053193904 0.11234527 0.034611214 0.037640132 -0.11559751 -0.07964844 -0.1772979 -0.020013345
-0.008977397 0.10735287 -0.047339566 -0.024170376 -0.07762135 0.0031126072 -0.07095643 -0.013737836
0.042310447 -0.03676694 0.057547487 -0.020789206 -0.021803396 -0.06737198 0.022118106 0.10591197
-0.069200985 0.055077974 -0.022340551 -0.044964716 0.018454636 -0.00072042854 0.0643106 -0.13984792

actor.4.weight f4 [4, 32]
00000000: 2f6b 7ebe dad9 93bd 16fe b43e 2e73 0e3e
00000010: 6125 40be d9bd ccbe b44e debd ca67 2d3d
00000020: fac4 113e 3b24 bfbe 94bd 32be 6678 463d
00000030: 6587 20bf b72e 843d 01fd d43e 2cda 483e
00000040: 3fac ff39 ff62 c73d ba4a 6a3e 8f27 cc3e
00000050: 53f7 e33d 9268 a73e 76ea 203e 853c eb3e
00000060: bd91 1fbe 11e7 b2bd 62a4 3e3d e57d 133e
00000070: 1f92 28be 0b07 72be 1b4b db3c 516f 23be
00000080: a532 19be 22cc 053f c108 a23e a47c 82be
00000090: bfc7 32be 13e3 ad3d b76c 9ebe 238f 97be
000000a0: 2e77 adbe 6f42 be3c c39f 033f e8b8 103f
000000b0: 367f fc3b dede 8b3e 813b 193e 8e8d 02bf
000000c0: fea6 bd3e bc3d 9fbc b8b6 e93e f50b ab3d
000000d0: 6964 5bbe 3d7d 803e 36b4 bf3e 40d0 843c
000000e0: 88c9 29be 807b 223e 405f 103d f81c c3be
000000f0: 40a0 c33e 8989 4cbe 8623 bcbe a6d9 8dbe
00000100: 9018 0dbd 4b9f debc c57d e3bd 6abb 44be
00000110: 3fde 2bbe bb72 72bc 8f38 6ebe 63ce 5fbe
00000120: 1e2b f5bd 2712 46bc 8a47 3ebe 02f8 c83d
00000130: 33f8 c93d 278a ed3d 8de9 8b3d 2359 9d3d
00000140: 040e f63d 2c35 3dbe e24b 04be b266 08be
00000150: 3427 a33d 2025 a83d 56ef 1ebe 6833 56bc
00000160: a3cd 16bd 7680 3f3c 7a3c c93c 04f7 35be
00000170: 6854 ccbd 3226 813d d8e8 5b3e 5b8e 383c
00000180: 23d4 6bbc e54a 10be 02e3 36bc f24d 01be
00000190: 5159 b4be 8792 763e 53a8 80be 3ca3 dabd
000001a0: 1c3f 01be 73cd bb3e 95ac 7c3c 7b5a 173e
000001b0: 6f6c 7e3c 5306 f7bd 9fa9 acbe 62bc 833d
000001c0: d50a 66be f134 c5be 5a82 f63d 8ea5 02bd
000001d0: 617d 83be 19c0 a3be 7f5f 23be 127d 063c
000001e0: 2803 803e ec78 93be 9525 b2be 66a9 16bc
000001f0: 5126 633e ee77 46be f0fa 453e f1e1 06be
-0.24845575 -0.07219286 0.35350102 0.13911125 -0.18764259 -0.39988592 -0.10854855 0.04233531
0.14235297 -0.3733233 -0.17455131 0.048454665 -0.62706596 0.06454223 0.41599277 0.19614476
0.00048765723 0.09735679 0.22880068 0.3987393 0.11131158 0.32696968 0.1571444 0.4594461
-0.15582938 -0.08735479 0.046543486 0.14403494 -0.16461991 -0.23635499 0.026769212 -0.15960433
-0.14960726 0.52264607 0.31647304 -0.25485718 -0.1745901 0.084905766 -0.30942318 -0.29601392
-0.3387999 0.023225037 0.5141565 0.56532145 0.0077055944 0.27318472 0.14964105 -0.50997245
0.37041467 -0.019438617 0.45647216 0.0835189 -0.21425022 0.2509555 0.37442178 0.016212583
-0.16580784 0.15867424 0.035247087 -0.3810804 0.382082 -0.1997434 -0.36745852 -0.27705115
-0.034447253 -0.027175566 -0.11107973 -0.19212118 -0.16783999 -0.014797862 -0.23263763 -0.21856074
-0.119711146 -0.012089289 -0.18581977 0.09812929 0.09861793 0.11598616 0.06831656 0.07683017
0.12014392 -0.18477315 -0.12919572 -0.13320425 0.07966462 0.08210206 -0.15520987 -0.01307378
-0.036817204 0.011688342 0.02456497 -0.1777001 -0.09977037 0.06306113 0.21475542 0.011264409
-0.014393839 -0.1409107 -0.011162521 -0.1262739 -0.35224393 0.24079333 -0.2512842 -0.10675666
-0.1262173 0.36680183 0.015422006 0.1478061 0.015528782 -0.12061753 -0.3372316 0.064324155
-0.2246507 -0.38516954 0.12036581 -0.031896167 -0.25681594 -0.31982496 -0.15954398 0.00820853
0.25002408 -0.28803194 -0.34794298 -0.009195661 0.22182585 -0.19381687 0.19334006 -0.13172127

actor.4.bias f4 [4]
00000000: 3787 9b3d bb62 a9bd 4fcb 083e 3abd d5bd
0.075941496 -0.082707845 0.13358806 -0.10436483

critic.0.weight f4 [64, 24]
00000000: d5fc 393e c19b 2a3e 1af7 f23d 57c3 acbd
00000010: 6b8d adbc b3e9 a6bd 9cb3 c93d 9fcb 213e
00000020: 5238 1c3e 3abf 13be b823 1b3e 6b32 b4bd
00000030: 2db5 11bd 454b 323e 8292 33be 5b3b debd
00000040: f081 943c 9bf9 8e3d 5027 a4bd c6d8 8cbd
00000050: b94b c7bd 0aa5 11bd 0729 40be ace1 d2bd
00000060: 6d7c c23c d15b 6d3d 1589 2b3e 3773 febb
00000070: e6e0 bfbd d4ec 0e3e 173c 56be a444 993d
00000080: 4427 563d 6bb4 32bc 5f0d 583e 8a2f 1c3e
00000090: 0a16 3d3e 807d e2bd 0ab2 40bd 8893 f8bd
000000a0: 2a5c 063e 4a5a 0bbe ac44 b43d 6f06 183e
000000b0: 1a21 953d 6301 5b3d ef45 58bd bb70 a0bc
000000c0: 98e4 a0bd 5a62 1e3d 0dfd cf3d 7d17 c5bd
000000d0: c037 1fbe e93f e4bd 7290 d2bd 0909 c3bd
000000e0: aa60 2f3e 44d3 113e ed33 043e a017 223c
000000f0: 89f0 bcbd 3b8c 263e a8ec 4fbe 1b1d 1f3c
00000100: c8f6 1cbe 7823 efbd ac91 d23d c98f 35be
00000110: 59de e4bd 26c5 22be a06a 463e 51c8 7ebd
00000120: 69d3 1e3e d27e f6bd ee11 093e 3741 dbbc
00000130: c6b6 493d 983b 123e a152 ff3d 6392 1dbe
00000140: 6406 1e3e affe 143e f149 df3d a3f6 a23d
00000150: ace0 babd ee13 bf3d 3341 003e 5e19 003e
00000160: 918f cf3c 8c34 2cbe 1b5f 373e 1a70 2dbe
00000170: 49f8 1fbe ab1d 803c ebae 2c3d 0d4a 173e
00000180: f5c3 08be 1ab0 833c 71b0 f5bd ee62 3fbe
00000190: 8ad6 133e 1c63 9dbc a1be 033e 1fa2 50bd
000001a0: 478d d63d e36c 1dbe a889 803d 9b89 c4bd
000001b0: 35d3 cbbc 719e 6dbd 2230 53be ba14 d3bd
000001c0: 062e f03d ba3f 31be 20b0 243e 4b9d 983d
000001d0: 49d2 a13d 5cff f53d 59cf 48be 7a40 79bc
000001e0: 09a5 f4b9 d896 f33d 8f0f 27be eb10 a0bb
000001f0: 7196 6c3d b559 bdbd 8d08 aabb e522 cdbd
00000200: 9208 c03d 963b 9a3d 1d5c be3d 8536 0bbd
00000210: 4e46 b8ba c902 233e 1b26 8c3b f70c 9a3d
00000220: 1ccf ba3d 75c9 b93d dec2 3ebe f305 e2bd
00000230: 6fd2 5bbc b0bc 9bbc c771 443e df2a f03c
00000240: 4111 a0bd a4c0 1cbe aaad c3bd 16e1 013e
00000250: 3b30 063e 6c53 023e f87b efbc b8e6 203c
00000260: 2cd3 043e e422 ffbc 6c3e c23d 2a5c 5a3c
00000270: 497d 943d 40fa 31be 95ce b6bd 724e 34be
00000280: 01ba 233e 3e4b f13d a03b 8abd 6d5b 14be
00000290: 2eda f4bd fcfd 1b3e cd22 0b3e 6362 8c3d
000002a0: c5c9 2fbe 7cf9 623d be82 273d 53a1 73bc
000002b0: b0ad 2e3e ba87 653d 92c0 13be 1279 0bbd
000002c0: 356d 12be 50a2 293e a77f a03d 3b1a b53d
000002d0: c734 c43d 80ac df3d b88d e6bd c990 2a3e
000002e0: cbb2 3bbe 5b47 a03d c950 16bd 65b3 bc3c
000002f0: 1d79 ac3d 88a4 48be 6a6a 08bd d135 da3d
00000300: 7684 1dbe 534f 143e 2c07 2bbe bd91 d73c
00000310: 4709 ddbc 9dbb ed3c 16fe efbd b3c8 e83d
00000320: f6c0 f8bd 0b5c c93d b57e 31bd 9f92 ce3d
00000330: 1682 2cbe 06e0 36bc 0974 cebd 9f1c 85bd
00000340: 7c4b 5a3c 941c 22be e960 22be d39c f73d
00000350: 74cf 033d 0879 eb3d 046d 3dbe e0bd 11be
00000360: cb3f 433e f0ae d33c 835e 1c3e 2155 a83d
00000370: 1343 b23d 3a2e 9b3d 11a9 88bd 384b debd
00000380: 003c 313e 487a b9bb bd39 143e 057e 9c3d
00000390: e44b ffbd 8ab3 45be 7aa4 3dbe 2717 e0bd
000003a0: cea0 b53d b9a0 96bc dfea 73bd db9b 10be
000003b0: 1bb3 4e3d e149 0dbd a5a3 3e3d 1afc d13c
000003c0: 8451 6bbe fa51 393c ff2f 33be b71a 203e
000003d0: e4ae 28be ad18 313a b89a 90bd 27f8 4c3d
000003e0: f85b a3bc a97a 0f3e 83df 2b3e 417e e4bd
000003f0: 6f5f 21bd 92e0 16be 2e51 333e 36ec e3bd
0.18162854 0.16660978 0.11863537 -0.084356956 -0.021185597 -0.08150043 0.09848711 0.15800332
0.1525586 -0.14428416 0.15150344 -0.08798679 -0.035573173 0.17411526 -0.17536357 -0.10851165
0.018128365 0.06981202 -0.08015311 -0.06877284 -0.0973124 -0.035557784 -0.1876565 -0.1029695
0.023740971 0.05794889 0.16751511 -0.0077651995 -0.09369068 0.1395753 -0.2092136 0.07483795
0.05228354 -0.010907273 0.2109885 0.1525251 0.18465438 -0.110590935 -0.04704479 -0.12137514
0.13121095 -0.13608661 0.088021606 0.14846204 0.07281704 0.05346812 -0.05280107 -0.019585004
-0.07856101 0.038668014 0.101556875 -0.09623621 -0.1554861 -0.111450024 -0.10281457 -0.09523208
0.17126718 0.14240748 0.12910433 0.009893328 -0.09225566 0.16264431 -0.20305121 0.009711529
-0.15328515 -0.11676687 0.10281691 -0.17730631 -0.11175222 -0.15895519 0.19376612 -0.062202755
0.15510334 -0.12035908 0.13385746 -0.026764495 0.049246572 0.14280546 0.12466932 -0.15387873
0.15432125 0.14550279 0.10902775 0.079571985 -0.09124884 0.09329973 0.12524872 0.12509677
0.025337012 -0.1681692 0.17907374 -0.16937295 -0.15622057 0.015639147 0.042159002 0.14774342
-0.13356002 0.016075183 -0.11996544 -0.18690082 0.14437309 -0.019212298 0.12865688 -0.05093586
0.10476165 -0.15373568 0.06276256 -0.09596559 -0.024880985 -0.05801243 -0.2062383 -0.10306688
0.11727528 -0.17309466 0.16082811 0.07451876 0.07901437 0.120115966 -0.19610347 -0.015213126
-0.00046662267 0.118940055 -0.16314529 -0.0048848293 0.05776066 -0.09245626 -0.0051890076 -0.10016421
0.09376635 0.07530896 0.09294913 -0.03398754 -0.0014059038 0.15919031 0.0042770035 0.07522004
0.09121534 0.09071628 -0.18629023 -0.11036291 -0.0134168705 -0.019010872 0.19184028 0.029317318
-0.07815791 -0.15307862 -0.09554608 0.1268352 0.13104336 0.12727135 -0.029233918 0.009820633
0.1297118 -0.031144567 0.09484562 0.013327638 0.07250459 -0.17380619 -0.08926121 -0.1760805
0.15988924 0.117819294 -0.06749654 -0.14488001 -0.11955677 0.15233606 0.13587494 0.06854703
-0.17166813 0.055413708 0.04089617 -0.014870006 0.17058444 0.056037642 -0.14428928 -0.03405101
-0.14299472 0.16565824 0.07836848 0.08842894 0.09580379 0.10921574 -0.112574995 0.16656794
-0.18329923 0.0782611 -0.036698136 0.02303476 0.08421538 -0.19594014 -0.03330461 0.10654796
-0.15382561 0.14483385 -0.16701955 0.02631461 -0.026981963 0.029020125 -0.11718385 0.11366405
-0.121461794 0.09832009 -0.043333728 0.100865595 -0.16846499 -0.01116181 -0.10080726 -0.064996
0.013323661 -0.15831214 -0.15857281 0.12090459 0.032180265 0.11497694 -0.18498617 -0.14232588
0.19067304 0.025840253 0.15270428 0.08219362 0.087042 0.075771764 -0.06672872 -0.108541906
0.17308044 -0.005660329 0.1447515 0.07641224 -0.12465647 -0.1930677 -0.18519774 -0.10941916
0.08868562 -0.018387185 -0.059550162 -0.14121954 0.050463777 -0.034494285 0.046542782 0.025632907
-0.22980314 0.011311049 -0.17498778 0.15635191 -0.16472965 0.0006755691 -0.0706076 0.050041344
-0.019941315 0.14011635 0.16784482 -0.111568935 -0.039397653 -0.14734104 0.17511436 -0.11129038

critic.0.bias f4 [64]
00000000: df0b 253e c9ce ea3d 28aa ebbd e25a 20be
00000010: 73d5 323e 2f29 a13c f6aa e63d a741 413e
00000020: b40c 0fbd 00f7 83ba dc59 1a3e e04c 33be
00000030: afb6 35bd dec8 133e 78bc 9abc ffb0 c73c
00000040: 4d02 14bd c45a f2bc 2b56 2fbe 3155 8bbd
00000050: 9897 873c bb6d a0bd 88ad 3dbe 5634 06bd
00000060: 3f6a 5b3e 952e 59bd 15eb c13d 4370 eebd
00000070: dbba dcbb fa2a 10be 2230 a2bd b159 263e
00000080: c101 22bd c747 203d d2c8 b43d 59dd 48be
00000090: ee7c 0fbe bc0f 01bd 5a75 25be 232a 86bc
000000a0: bf56 d13d e89f 553d 1933 40be 7ed1 2cbe
000000b0: 5b7a 05be bf66 51be e0ba 18be 6fe9 fa3c
000000c0: afea 003e 80b1 8f3d ac13 36be 4856 37be
000000d0: f1eb d43d 582e e63d 82fb 733d b8d9 54bd
000000e0: 57af 153e 1c48 1fbd 1426 3bbe 74c3 713d
000000f0: 7a05 21be 93f6 c83d 1746 2abe 4fdc 8bbd
0.1611781 0.114652224 -0.11507064 -0.15659669 0.17464237 0.019672958 0.11263077 0.188727
-0.034924224 -0.0010068119 0.15073341 -0.17509794 -0.044363674 0.14432094 -0.018888697 0.02437639
-0.036135007 -0.029584296 -0.17122714 -0.06803358 0.016551778 -0.078334294 -0.18523228 -0.032764755
0.21427248 -0.05302294 0.094686665 -0.11642506 -0.006736142 -0.14078894 -0.07919337 0.16245152
-0.039552454 0.039130952 0.08827366 -0.19615687 -0.140125 -0.031509146 -0.16158047 -0.016377514
0.10221624 0.05215445 -0.18769492 -0.1687679 -0.13034956 -0.20449351 -0.14915037 0.030628888
0.12589525 0.07016277 -0.17780942 -0.17904007 0.10396565 0.11239308 0.05956603 -0.051965445
0.14617668 -0.03888713 -0.18276244 0.05902429 -0.15724745 0.09812655 -0.166283 -0.0682913

critic.2.weight f4 [32, 64]
00000000: e099 8c3d 8b19 9abd 3b93 8bbd 2e67 a8bc
00000010: 3e41 7e3d 6ba9 90bd e3e8 edbd 1665 32bd
00000020: 88d6 bd3d 1cb5 c13d e4c5 f6bd a5fd a23c
00000030: 1eb1 97bd 0c36 02be bbe2 f7bc eaa1 f83d
00000040: 042a 9fbc da33 01bd 4a98 c9bd c6eb 913d
00000050: 9421 cb3d 336c aa3d f613 dabd 5d63 1fbd
00000060: 878e ba3d 6e04 b43d 0803 91bd edfd cd3d
00000070: 2016 813d 91f8 b5bd 22b8 aa3d 5680 93bc
00000080: d569 643c 29ed 8dbd cb7b 013d f36e 86bd
00000090: 82a5 0ebc 2932 9c3b 8a54 cebd d227 bd3d
000000a0: c0e4 c5bd 53f1 9f3d 9b69 5b3c b2a0 083c
000000b0: 572b 713d 8a17 c23d b256 e6bd dbff 763d
000000c0: 2aed 96bd cb26 d83d 69d9 9ebd 33ef 983d
000000d0: 3de2 e3bd 3bbb b63b 02c3 663d 8c72 fb3d
000000e0: 4628 dc3d ec5d 80bd e6b8 c1bd de67 263d
000000f0: aa37 de3d e118 53bd 7e42 2fbd b888 95bd
00000100: fd9e ad3d 2e96 9cbc c7b5 d63d 94ef 8cbc
00000110: 40db d83d a9e3 ad3c 2b74 94bd ea62 4f3c
00000120: 540d babd 1b6d 9dbd 7373 c73c b2b4 dfbd
00000130: 2ad0 f03d d59f ed3d 5ef9 c63d a2c7 6fbc
00000140: 2e74 a43d d9b4 683d 2262 e2bc 76a9 233c
00000150: 4ab6 f93b 0a67 f7bc 531d 89bd e8d6 dd3d
00000160: 6f9e 87bd 8174 0cbd 0aaf a4bd d51e be3d
00000170: e640 c0bd 976b 0dbd c7ea ea3b b462 653d
00000180: 1cb1 ebbd 8a8a cdbd 1fe3 bfbd 07ab c23d
00000190: 2e99 8d3d 844f 06bd b657 133d acbd e43d
000001a0: 7a89 493d a9c4 5b3d 5b13 6b3d a2ed e9bd
000001b0: 82c6 d33d 17bb eabd c267 c53d ff06 253d
000001c0: 915b ebbd a684 1bbd e2b8 66bd 5b13 e6bd
000001d0: 28be f8bd 66e3 693d 3106 2cbd 61cd d23b
000001e0: 6fe2 c23d 53b1 35bd 4b6b 7dbd bef4 793d
000001f0: f728 cdbc 5512 3abd c145 94bd 5e4c 2b3d
00000200: 9015 5a3d 4eca 92bd 2860 f73d c440 43bd
00000210: 02f4 4abc 1c9e cbbc c45e 423d 0878 473d
00000220: 9f8f 02bd 3839 dfbd e3ff 9a3d 9f8c d5bd
00000230: d3f4 b1bc 5537 a93d d9f5 283d 00a5 8b3d
00000240: 1b50 0d3d efdb 3ebd cc65 55bd 9d31 6ebd
00000250: 0ab5 d03b abfa 0bbd 8128 70bd 8a3e 6b3c
00000260: ee3f b63d d8ad 06bd 5c9b e73c fbe7 7c3c
00000270: 065a d43d f98a 63bd 9464 073d d2f6 b13c
00000280: ba47 bb3d c9a7 07be 96fc 873d bfb3 693a
00000290: 1422 a9bd 6873 3b3d 1d96 2cbd 7cc3 b8bc
000002a0: 3fde e0bc 356d d8bd f34b 683d 20ac b6bd
000002b0: 023a 2bbd 4e4c a53c fea1 18bd adb5 7d3c
000002c0: 8dad 273c 810a 993d b6e2 853d fb98 7f3d
000002d0: a5a4 d33d d86f 843b 5756 03bc acec e6bd
000002e0: 0804 2cbb 4495 1fbc 8ffd c03d 3c62 c33d
000002f0: 4ce4 223d f09d 1dbd b45c 863d 008d 9a3d
00000300: bb6a babc 648f 903d e805 dfba 759e ddbd
00000310: c229 1e3d 3c2e 89bd fe98 ebbc 0693 883d
00000320: c34e d63c e113 bbbd e6d4 f03c a8fe 4dbb
00000330: d23d 123d 12f9 5cbd 9ebd 29bd 2b6f c9bd
00000340: 128e 403c 4704 0dbd 0906 bfbd 6e4b f7bd
00000350: 7529 ddbd 736c d53d 8f6a 05be 28cf b3bd
00000360: b391 c63d 13c6 8c3d 3447 623a 3d8c f23d
00000370: 0a55 ee3d ed30 a63d fef9 823d feb0 22bd
00000380: c9c9 bdbd 479c b33d 8624 fdbd 8d33 acbd
00000390: d4cb c7bd 7b00 023e ae4f 56bd 5823 e43d
000003a0: d601 b5bd 41c5 553c a866 b53d 5768 413d
000003b0: 496b 9c3d 84f7 ccbd 0bfd d63d 05a3 cc3d
000003c0: 2954 6cbd 17b3 a03d bbee ea3d 119d d53d
000003d0: a2ff 93bd fac6 b93c 3ee3 6dbd a7b0 5bbd
000003e0: a6b6 13bd d985 0b3d 42f3 f83d 9268 72bd
000003f0: d9f8 21bd 7656 b7bd 62e2 833d 5e36 603d
0.06865287 -0.07524403 -0.06815191 -0.020557012 0.06207394 -0.07063564 -0.11616685 -0.043553434
0.09269434 0.09458372 -0.120494634 0.019896338 -0.07406829 -0.1271593 -0.03025948 0.12140258
-0.019429214 -0.03154359 -0.098435 0.07125048 0.09918514 0.083214186 -0.106483385 -0.03891312
0.09109216 0.087899074 -0.07080656 0.10058198 0.06303048 -0.08885301 0.08335902 -0.018005531
0.013941248 -0.0693 0.0316122 -0.06564131 -0.008706452 0.0047667217 -0.10074718 0.09236111
-0.09662771 0.07809701 0.0133918775 0.008339094 0.058879223 0.09477146 -0.112470046 0.060302597
-0.07369454 0.10554274 -0.077563114 0.07467499 -0.11127136 0.005576519 0.056338318 0.122777075
0.10749869 -0.06267914 -0.09459095 0.0406264 0.10850461 -0.0515374 -0.04278802 -0.07301468
0.0847759 -0.01911458 0.1048389 -0.017204084 0.105886936 0.02122672 -0.0724872 0.01265786
-0.090845734 -0.07686826 0.024347043 -0.10923137 0.11758454 0.11602751 0.09715532 -0.0146349985
0.08029972 0.056813095 -0.027634684 0.009989133 0.0076206075 -0.0302005 -0.06695046 0.10832006
-0.06622016 -0.034290794 -0.080411986 0.092832245 -0.093873784 -0.034526434 0.007169101 0.056002334
-0.1150839 -0.1003619 -0.09369492 0.09505277 0.06913982 -0.032790676 0.03597232 0.111689895
0.049203373 0.053654347 0.057391506 -0.11422278 0.10340597 -0.11461466 0.09638931 0.040289875
-0.11492074 -0.0379683 -0.05632866 -0.112341605 -0.121456444 0.05710163 -0.041998092 0.0064331745
0.09515845 -0.044358563 -0.0618699 0.06102442 -0.025043948 -0.04542764 -0.07239867 0.041820876
0.05324322 -0.07167493 0.12078887 -0.047669187 -0.012387278 -0.024855666 0.047453657 0.048698455
-0.03187525 -0.108995855 0.07568338 -0.10427212 -0.021723187 0.08262507 0.041250084 0.068185806
0.034500223 -0.046596464 -0.052099034 -0.058152784 0.006369238 -0.034174602 -0.058632378 0.014358172
0.08898912 -0.032880634 0.028272323 0.015436168 0.10368733 -0.055552457 0.033054903 0.021724138
0.0914454 -0.13247599 0.06639974 0.0008915029 -0.08258453 0.045764357 -0.042135347 -0.022554152
-0.027449725 -0.105677046 0.056713056 -0.08919549 -0.041803367 0.020177986 -0.037263863 0.015485209
0.010234249 0.074727066 0.06537382 0.062401753 0.10334138 0.004041653 -0.0080161905 -0.1127561
-0.002624752 -0.009740178 0.094233625 0.09540221 0.039768502 -0.0384807 0.065606505 0.07546425
-0.022755971 0.070585996 -0.001701531 -0.10821239 0.038614042 -0.06698272 -0.028759476 0.066686675
0.026160603 -0.09134651 0.029398393 -0.0031432305 0.035703488 -0.05394847 -0.0414406 -0.09835657
0.011752622 -0.034427907 -0.09327323 -0.12074934 -0.10798923 0.10421076 -0.1302893 -0.08779746
0.09695759 0.06873717 0.0008631826 0.118431546 0.11637314 0.081148006 0.063953385 -0.039719574
-0.09267003 0.08770042 -0.12360482 -0.0840827 -0.09755674 0.12695496 -0.052322082 0.11139554
-0.08838241 0.013047517 0.08857471 0.047218647 0.076376505 -0.10008147 0.10497483 0.09992031
-0.05769745 0.07846659 0.114713155 0.10430349 -0.072264925 0.022677887 -0.058078043 -0.053635266
-0.03606286 0.034063194 0.12155773 -0.059181757 -0.03954396 -0.08952038 0.064396635 0.05473935

critic.2.bias f4 [32]
00000000: a807 19bd 906e a23c ed74 e2bd f12e c03b
00000010: f10d a93d 201b a3bd 3862 173d 0bc3 cabd
00000020: 9292 95bc 18b5 a43d 439c 983d 3cf0 613d
00000030: c5e5 da3d f4d9 c2bd cf09 b73d 79e3 0d3d
00000040: 52d9 abbd 7b0d 68bd 4122 24bd 5684 a13d
00000050: 053b 883d 5a1f 183d 530c deba d537 7fbd
00000060: 4e67 0b3e 18ae a73b 7d3c a03d 28c7 783d
00000070: 549f b0ba 573d d63d 922a cabc 78f2 ec3d
-0.037360817 0.019828111 -0.11057458 0.005864971 0.08254612 -0.07964158 0.036958903 -0.09900483
-0.018258367 0.080423534 0.074516796 0.055160746 0.10688356 -0.095142275 0.08937418 0.034640763
-0.0839106 -0.05665348 -0.04007173 0.07886569 0.06651882 0.037139274 -0.0016940929 -0.062309105
0.13613626 0.005117189 0.07824037 0.060736805 -0.0013475218 0.104609184 -0.024678502 0.11569685

critic.4.weight f4 [1, 32]
00000000: 5574 4e3d f896 d13d 260f 16be 0696 8fbd
00000010: 2499 c23d 2e0c 0a3d dc93 213e 4bf7 093e
00000020: 9a2a 403a 54ef 233e 9617 b53d 0f7a aabd
00000030: c26b 80bb 2d35 38bd 328f c43c 6e9f febd
00000040: be48 053e cd71 e4bd 2cc3 39bd 6dfc 9a3d
00000050: 277b e1bc a9dc c5bd 9146 c3bc d5db b0bd
00000060: 514b 17bd a62f f43d 63a7 e7bc d210 e7bc
00000070: fddb e03d c133 fabd 104b 153e 07c8 c3bd
0.05040391 0.10233873 -0.14654216 -0.070110366 0.095018655 0.03370302 0.1577906 0.13473241
0.0007330567 0.16009265 0.08842389 -0.08324062 -0.0039190957 -0.044972587 0.023994062 -0.124327525
0.1301603 -0.11154518 -0.045352146 0.07567678 -0.027524544 -0.09661228 -0.02383736 -0.0863568
-0.03693706 0.11923151 -0.028278058 -0.028206263 0.109794594 -0.122169025 0.14579415 -0.095596366
