Policy Gradient/walker_ppo_model_old_9800.pth (torch, 34325 bytes, 11 tensors)

actor.0.weight f4 [64, 24]
00000000: 1072 01be 9392 bd3e a66c 8bbd ebdd 3b3f
00000010: d888 1cbe 7358 bdbd a41b 363f 44f4 08be
00000020: e29f 64be 85e8 09be 670b 163d 0bac 45be
00000030: 8162 4f3d 762f a53c 2db4 5d3e 2092 2f3e
00000040: f8ba f63c 9b6b 30bd 4863 363e 444f 1abe
00000050: 3448 4c3d 24a0 203e 84f9 0d3e 05df 063d
00000060: 50d9 e0bc 225d b23d bea4 483e 6d7a ea3d
00000070: 32dd 843e a8f0 2c3e 4093 303f c6c2 e4bd
00000080: a002 42be 0006 72bd 69fb 373e 9bb8 fe3d
00000090: 9afe 51bd d820 663d c1b4 f83d 8a56 a63d
000000a0: fbce 32bd f1fa d23d 5e3c e0bd 4ee9 2c3d
000000b0: f4bd f13c aa65 6fbd d9e7 573a 87af f73d
000000c0: 37f2 8fbd 5385 e3be ca70 2e3c 47f6 f5be
000000d0: 6780 0dbe 3f91 9a3d 251c e23e f653 df3d
000000e0: 3354 56be 9353 073e 5620 24be 655c c13e
000000f0: 0d18 0abe e5b0 443e 9a2d 7bbe edf0 6dbe
00000100: ccf6 5ebe 5d5c c93c 323f 6fbe 63e3 d53d
00000110: 42af 55bd 57c0 1abe da46 42be f249 60bd
00000120: 7e60 7cbe 135b 98be 0e6b eebd 9745 70be
00000130: 2a32 c3be 13fa 1cbe 80c8 a63b 66b0 0ebe
00000140: 872b 14bd 9ac7 e83d 713a 363d 128f 3fbd
00000150: bd78 c33d 173b b13c e5f4 33be 9815 85be
00000160: e045 33be 7bc7 833d 1903 97bd 1183 513d
00000170: 7f1f ac3c 0637 2ebe 7a5d 0b3e a85a 443d
00000180: 0c8d 1fbe 9aca 71be d91e 38be 2a9c e3be
00000190: 59e8 0e3e 9ff7 1d3d e597 e7be 2922 aabd
000001a0: a5b0 98bd f7dc e6bb 5e45 0ebd 08e6 d43e
000001b0: 317d 3d3e 4378 423e 9fce af3d c919 a73d
000001c0: 2c66 54be 4422 74bc b506 b2bd 649e 2bbd
000001d0: 6b53 293d 875c 0fbe a455 28be 060c 843d
000001e0: 0678 d13d 460d 18be f2db 243d e105 78be
000001f0: 7971 983d 98ea b0bb f8eb e43e 876e 35bd
00000200: 24c2 ed3d e6a0 9ebd f239 ce3c 20ae f63d
00000210: 5eba 0cbe 5ca7 543e 6ae3 4abd 580c 1bbe
00000220: 5b32 98bc 830f 0c3e 2850 0cbe c93e 28be
00000230: e14a 6cbd 35f9 213d c5ae 03be 50a1 96bc
00000240: 727f d4bd bdec 94be 2fa5 5f3d 3e07 e2be
00000250: c158 6fbe 77ab 283e 728b 6e3e c011 903d
00000260: a7f8 833d fbfa 053e eb42 073e dfdc 9c3e
00000270: e5dd 173e 8bd2 bb3d 78f3 1abd 9019 3b3c
00000280: f563 8d3d 336e 523d 85b4 47be 2a25 463d
00000290: 0be1 00be 4fa3 94bd 7290 46be 5f9a a6bd
000002a0: 3c36 98bd ff1d 803e cbf7 183e 5b6b 173f
000002b0: 33f5 693e 2c11 7abc 47fe f53e e59a 89bb
000002c0: e61d d1bc d802 50bc bcbe b1bd 1c09 a4be
000002d0: f172 0dbe 9928 cf3c a2bb 623e 1408 fa3d
000002e0: 064b 043e 2041 113d 22d4 813d a29f 36bd
000002f0: ed66 063e 8cfe 143e 6f41 c33d 80f6 4bbe
00000300: c53a babc c021 67be 984b 8bbe 0d9a c2be
00000310: 6a15 863e b2ef 0ebd 06bb 14bf 5c86 0ebc
00000320: 1657 733e e197 27bc 17a1 afbc 2d9b 153e
00000330: e542 85bd 9c19 1fbe ed60 293e 16fe af3c
00000340: 1377 9bbc 58e2 8dbd 2b9f 033d 1bdd 1b3e
00000350: bf9d 143e a165 5abd c312 01be bf3c 363e
00000360: 69d5 e4bd 77ab cdbd 23d4 5fbe db6f 0cbf
00000370: cee0 48be 448e e7bc d9d7 30bf 10f4 afbd
00000380: d040 e83d ca9a 1e3e b204 c23d 4891 70be
00000390: 925e c63d 0ee8 d03d 86d7 3abd 222b 29be
000003a0: 208e b83d efda 2fbe 5435 1fbd 5959 8fbe
000003b0: 7699 93bd e9c2 04be 0556 333d d85d de3d
000003c0: af6c 80bb 061b e03e c1d9 b33d 7163 af3e
000003d0: d89f 383e fa6d 8bbd 3498 4b3e 1187 143c
000003e0: 699f 34bd c833 a1bd d03e 543e bcb4 c7be
000003f0: abc5 eb3d 5292 afbd 6a89 22bd 7d05 893d
-0.12641168 0.3702589 -0.068078324 0.73385495 -0.15286577 -0.09245386 0.71135926 -0.1337443
-0.22326615 -0.13467605 0.036631968 -0.1930391 0.05063105 0.020164233 0.21650763 0.17145586
0.03011845 -0.04307137 0.1781131 -0.150693 0.049873546 0.15686089 0.13864714 0.03292753
-0.027447373 0.0870917 0.19594094 0.11449132 0.2595001 0.16888678 0.68974686 -0.111699626
-0.18946314 -0.059087753 0.17966999 0.124375544 -0.051268198 0.056183666 0.12143851 0.08121975
-0.043654423 0.103017695 -0.10949014 0.042214684 0.029509522 -0.058446564 0.0008236147 0.12094026
-0.07028621 -0.44437656 0.010647008 -0.48039457 -0.13818513 0.07547235 0.44162098 0.10904686
-0.20930557 0.13215475 -0.1602796 0.37765804 -0.13485737 0.19208105 -0.24529114 -0.23236437
-0.21773833 0.024580175 -0.23363951 0.10443761 -0.052169092 -0.15112434 -0.1897234 -0.05475802
-0.24646184 -0.29756984 -0.11641513 -0.23464046 -0.3812421 -0.1532977 0.0050898194 -0.13934478
-0.036174323 0.11366196 0.044489328 -0.0467673 0.095445134 0.021634622 -0.17573889 -0.25993037
-0.17507124 0.06434532 -0.07373638 0.051150385 0.021011112 -0.17013177 0.13609877 0.04793802
-0.15581149 -0.23612443 -0.17980517 -0.4445508 0.13955821 0.038566228 -0.45233074 -0.08307297
-0.07455567 -0.007045384 -0.034734122 0.4158175 0.18504788 0.18991189 0.08584332 0.08159215
-0.207421 -0.014900748 -0.086926855 -0.0418991 0.04133932 -0.1400014 -0.1643892 0.06447606
0.10227971 -0.14848813 0.04024882 -0.24220993 0.07443518 -0.0053990595 0.4471128 -0.04429486
0.11609295 -0.07745533 0.025174115 0.120449305 -0.13742968 0.20766968 -0.049533285 -0.15141428
-0.018578699 0.13677792 -0.13702452 -0.164302 -0.057688598 0.039544303 -0.12859638 -0.018387467
-0.10375871 -0.29086867 0.05460089 -0.4414615 -0.233737 0.16471659 0.23295382 0.070346355
0.06443911 0.13084023 0.13209121 0.3063726 0.1483074 0.09171017 -0.037829846 0.011419669
0.06903831 0.051374625 -0.19502456 0.048375286 -0.12585847 -0.07257711 -0.19391039 -0.08134913
-0.074322194 0.25022885 0.14938276 0.59148186 0.22847442 -0.015262883 0.4804556 -0.004199373
-0.025526952 -0.0126959905 -0.08678958 -0.320382 -0.13813378 0.025287913 0.22141889 0.12208572
0.12919244 0.0354625 0.06339289 -0.04458583 0.131252 0.14550227 0.09533965 -0.19918251
-0.022733102 -0.22571468 -0.2720611 -0.38008156 0.26188213 -0.03489656 -0.58097875 -0.008699026
0.2376369 -0.010229082 -0.021439118 0.14609976 -0.065069 -0.15537113 0.1654088 0.021483462
-0.018977677 -0.06927937 0.032134216 0.15221064 0.145133 -0.053319577 -0.12604813 0.1779661
-0.11173517 -0.1004247 -0.21858267 -0.5485818 -0.19617006 -0.02826608 -0.6907936 -0.08591473
0.11340487 0.15488735 0.09473552 -0.2349292 0.096860066 0.10200511 -0.045615695 -0.1652036
0.09011483 -0.1717336 -0.038869217 -0.27997854 -0.07207005 -0.12964977 0.043783206 0.10857743
-0.003919206 0.43770617 0.08781768 0.34255555 0.18029726 -0.06808086 0.1988228 0.0090654055
-0.044097338 -0.078712046 0.20727086 -0.39005077 0.115123115 -0.0857283 -0.03968183 0.066905

actor.0.bias f4 [64]
00000000: 5171 30be dd2d 24be 68a9 783e 5ae5 b9bb
00000010: efb0 843e 2323 fbbd 34ea 21be 4b75 80bd
00000020: 3dad 34be 2f11 183e 7105 0ebe 4d08 a93c
00000030: 61ee dabd 36e8 29bc 72a0 23bd c15e e6bc
00000040: dcca 81bd 72b3 ddbd f743 113e e168 e73d
00000050: 0ace 80bd 95b5 e43d 120b 5d3e e026 a9bd
00000060: 1d83 38be 2054 1a3e 3d46 adbc 8996 45be
00000070: f80a 1dbe 1cf6 5ebe e40f 2b3e 98f8 d9bd
00000080: f3f7 2bbe e5c2 0d3e 33f4 3abe 8f64 20be
00000090: b625 c8bd 5e0c 79bc 516c ae3d 0c91 293e
000000a0: fa8e 273e f2bd 0a3e 5273 e23d 9662 d63c
000000b0: 2116 0b3e 6df1 4cbc 730c a63d 79cd 84bd
000000c0: c729 643d 6926 8cbd b830 33be 8e71 683d
000000d0: 6c8c 493d 547f 9d3d 6939 02be 35dd 143e
000000e0: d4f7 eb3d bc92 213e 85e1 cbbd 9f7c c7bb
000000f0: f9cf bb3d da8d 42bc 3e22 5cbd ba6a 333e
-0.17230727 -0.1603312 0.24283373 -0.005673093 0.2591624 -0.12262561 -0.15811998 -0.06272372
-0.1764421 0.14850305 -0.13869263 0.020633841 -0.106899984 -0.010370305 -0.039947934 -0.028121354
-0.063375205 -0.10825242 0.14186083 0.11299301 -0.06289299 0.111674465 0.21586254 -0.08259368
-0.18018766 0.15071154 -0.021151656 -0.19295706 -0.15336215 -0.21773571 0.1670528 -0.106431186
-0.16793804 0.13843878 -0.18257217 -0.1566336 -0.09772818 -0.0152007025 0.085167535 0.16559237
0.16363135 0.13549021 0.11057152 0.026170056 0.1358266 -0.012508732 0.08107843 -0.06484503
0.055703904 -0.06843264 -0.17499053 0.05674892 0.049206182 0.076903015 -0.12717213 0.14537509
0.11521879 0.15778631 -0.09955124 -0.006087854 0.09170527 -0.01187464 -0.053743593 0.17521182

actor.2.weight f4 [32, 64]
00000000: 8503 093e 54e0 183e 590d 323c 916b 80be
00000010: 38fe d3bb ba09 1c3e ed02 1b3e 9dd8 ad3d
00000020: f777 2b3e 204e 82be c8ef 773e 9cba 2d3e
00000030: 6873 273d de16 4c3d 068b e13d 649a b9bd
00000040: 2a3c 523d 05b7 8c3e 523a 343e 15b0 dcbd
00000050: 22a3 913e a109 95be 9afb d4be 5a35 2b3d
00000060: 446e 903d 6819 e43c 64cb 083e e72e 363d
00000070: f018 d73d c17d 1e3e 0e72 6eba 8992 553d
00000080: 3e7b 2b3e 785e f73c 8817 873d 8348 0f3e
00000090: b11b 6a3b 4b3c e4bd 11de 50bd 6a06 6ebe
000000a0: a9a4 47be a4b0 d4bd 4bcd 00be 5d26 3ebe
000000b0: 1cae d13c 16de 553e aeb1 74bd a71f 0abe
000000c0: 1f44 123d 18e9 1a3d d744 7e3e d765 88be
000000d0: e6d9 bd3c 2143 7dbd 4c98 02be 9e79 62bd
000000e0: 4e26 7ebd 8e3c 00be 3a66 5abc c08d 853c
000000f0: e737 5dbe 94f0 16be 5cfb 7fbd 0be9 4dbe
00000100: 4bb1 0cbf 6427 2abe 7c82 56bd 6ec4 9bbd
00000110: 05c5 af3e caca 953b 15d1 1abd fcc2 c6be
00000120: 675d 963e 437f 5d3e 7f66 04be bebb f03d
00000130: 9a30 ddbd 5e66 cc3e 2ca2 8bbe 1dcd 34be
00000140: bc61 0cbe 4ab8 c53d a2c3 00be 8e4f 79be
00000150: 0223 24be dd2d 94be 505d 3dbd b11f 68be
00000160: 2c31 82ba 7f0e b13c 7582 673d 6d7d eabb
00000170: fa87 3fbe 1713 6d3b 3d07 22bc 6c4f 7c3c
00000180: eee4 40be 2030 103e a35d 57be cae6 fabc
00000190: aa85 f2bd f9e3 60bd d3cd 33be e2b4 a83e
000001a0: 11db 213e 4937 f0bc a699 183e c082 eb3c
000001b0: 4caf a5bd 539f edbd 7ad1 723e 1d06 4cbd
000001c0: 3ad2 55be 26cd 5abc 9a96 debd f372 543d
000001d0: 6bbc 183d b623 bb3d 676f f0be b196 0b3d
000001e0: 7c75 313e f468 9ebc 8ca3 6bbb f669 873d
000001f0: f449 21bd f5ee ddba 870a 74bd 727e b83e
00000200: d6b6 27be a2cd b1bd 2f0f 213e 485a 573e
00000210: 34c7 f53c 1fcf 12bd 8ec5 023e 1dd2 94be
00000220: c93b f2bc ec18 dd3d b156 03be 0335 65be
00000230: 91f0 50be ea64 21bd d621 88bd 1e8b d4bd
00000240: 3333 5ebe e661 a2bd 0955 fdbc 3ffa 623e
00000250: d8c2 14be 24a7 683e a967 8b3e d2b8 3ebb
00000260: 9fc9 ce3c 9c68 3d3d e1b5 72bc 6f3e 14be
00000270: 778d 33bd 6c53 b9bd e056 2f3c f3c3 6fbe
00000280: 963b 09bd dfe6 d93d 8a64 be3d dec3 40be
00000290: 7d0f a03c fda1 7f3d d9f8 c0bc ea09 793e
000002a0: 6faf 0f3e 7da4 9c3e 09bc aa3d b72b e8bd
000002b0: 0bae fc3d cb64 e0be 2038 eebc 1556 823e
000002c0: 0b4a d13c f28a 00bd 7527 06be 34b6 263d
000002d0: be53 29be 9581 273e 31cd 173e 31a8 e43d
000002e0: d46a edbc c6f5 c53c 44e7 983d 7455 d63c
000002f0: 1e1d 053e c518 3ebc 7f74 c03d 67a9 893e
00000300: 95e8 fe3c 7775 963e 973c d43e fbbf 8a3d
00000310: 5604 30be 3a8d 2c3e 9c1f 6b3e 6ed3 22bd
00000320: 9d3f 55be a668 82be d941 18be a88e 15be
00000330: 31c1 debc d000 2dbe 2e28 cc3d 78fc 2a3e
00000340: 7f0b 193d a829 a0be 1479 e93d b603 db3e
00000350: 70ae 023c d2fa eb3d eb9d 363d caa3 44bd
00000360: 867c 223e 33fc 20bc 2ce3 ea3c ef45 09bc
00000370: ae57 2d3e 5bed 8d3d 8a1f c0be 3860 1bbf
00000380: 68ee 39bc 69ee 5c3e 13b0 f13d 06aa ccbd
00000390: 55be 553d 627b 97bd be4b 113e f99b 5fbe
000003a0: 08f4 4c3e 9aaf 913d 9bf7 afbc 6d47 6abd
000003b0: c3b7 8a3e 4957 3ebd 5335 333e d59c 5a3e
000003c0: fb1c ae3e cd2c 263e 3a15 d9be 27e8 0f3e
000003d0: b2b2 2ebe 9174 0cbe 211d 46bd 763b 3abe
000003e0: 5437 10bc b407 523e 51fb dc3d f778 d33d
000003f0: f9e8 713e 07c4 793d fa93 e1bd 1017 023e
0.13380249 0.14929324 0.01086744 -0.25082067 -0.006469514 0.15238085 0.15137835 0.08488581
0.16744982 -0.2545023 0.24212563 0.16965717 0.040881544 0.049826495 0.11012845 -0.09062651
0.05132691 0.27483383 0.17600372 -0.107757725 0.28444773 -0.2910891 -0.41598207 0.041798927
0.070522815 0.027844146 0.13358837 0.044478323 0.10502803 0.15477659 -0.0009095975 0.0521417
0.16746232 0.030196413 0.06596285 0.13992505 0.0035722072 -0.111443125 -0.05099303 -0.23244634
-0.19496407 -0.10385254 -0.12578313 -0.18569322 0.025595717 0.208855 -0.05973976 -0.13488637
0.035709497 0.03781995 0.24830948 -0.26640198 0.023175191 -0.061831597 -0.12753409 -0.055291764
-0.06204825 -0.125231 -0.013330037 0.016302943 -0.21603356 -0.14740211 -0.062495574 -0.2010843
-0.5495803 -0.16616589 -0.052370533 -0.07605825 0.3433 0.0045712935 -0.037797052 -0.38820636
0.29368135 0.21630578 -0.12929724 0.11754559 -0.10800286 0.3992185 -0.27272165 -0.1765637
-0.13709158 0.09654291 -0.12574628 -0.24346754 -0.1602898 -0.2894124 -0.046231568 -0.2266834
-0.0009932867 0.021613358 0.056520898 -0.007156065 -0.18704215 0.0036174709 -0.009889421 0.015399795
-0.1883733 0.14080858 -0.21031813 -0.030627627 -0.11841901 -0.05490491 -0.17558984 0.32950503
0.15806223 -0.029323237 0.14902362 0.02874887 -0.08090076 -0.11602654 0.23712721 -0.049810518
-0.20880976 -0.013354575 -0.10868569 0.051867437 0.037289064 0.09137671 -0.46959993 0.034079257
0.17329973 -0.019337155 -0.0035955636 0.06612007 -0.039377168 -0.0016932177 -0.059580352 0.3603397
-0.1637834 -0.086817995 0.15728448 0.21030533 0.030002214 -0.035842057 0.12770674 -0.29066554
-0.029569523 0.10795769 -0.12826039 -0.22383504 -0.20404269 -0.03940288 -0.06647079 -0.10378097
-0.21699218 -0.07928829 -0.030924337 0.22165774 -0.14527452 0.22720009 0.27227524 -0.002910186
0.025242625 0.04624234 -0.014813871 -0.14476942 -0.043836083 -0.090491146 0.010701865 -0.23414592
-0.03350409 0.10639738 0.0929652 -0.18824717 0.019538635 0.062410343 -0.02355616 0.24320188
0.14031766 0.30594245 0.08336646 -0.11336463 0.123378836 -0.438269 -0.029079497 0.254563
0.025548002 -0.03138251 -0.13100989 0.040701106 -0.16535851 0.16358025 0.14824368 0.111648925
-0.028981604 0.024165045 0.074659854 0.026163794 0.12999389 -0.011602585 0.0939722 0.26887056
0.031116763 0.29386494 0.41452476 0.067748986 -0.17189154 0.16850749 0.22961277 -0.039752416
-0.20825048 -0.25470465 -0.14868869 -0.146052 -0.02719173 -0.16894841 0.09968601 0.16697872
0.03736448 -0.3128178 0.11400047 0.4277627 0.007976159 0.115224496 0.044584196 -0.048007764
0.15867814 -0.009825754 0.028672777 -0.00837849 0.16927978 0.069300376 -0.37524062 -0.60693693
-0.011348344 0.21575321 0.118011616 -0.09993367 0.052183468 -0.0739658 0.1418905 -0.21836843
0.20014966 0.071135715 -0.021480372 -0.057197023 0.27093324 -0.04646996 0.1750081 0.21348889
0.34006485 0.16228028 -0.42399007 0.14053403 -0.17060354 -0.13716342 -0.048367623 -0.18186745
-0.008802254 0.20510751 0.10790122 0.103258066 0.23624028 0.060977962 -0.110145524 0.1270411

actor.2.bias f4 [32]
00000000: dcbe f6bc 4262 f83d fe59 5c3d 1a23 833c
00000010: 1045 5fbd 8d86 a8bd 1dd9 edbd 690f 98bc
00000020: f2e7 ecbc 2d6d b83d 8429 abbd 2fe8 00bd
00000030: 5d48 c8bd f891 bf3d 68e3 1abd 37de b13b
00000040: 926a ec3d 1b38 37bd 1daa 733d 959b 5e3b
00000050: 5e3b bc3c 1efc 2abc a10e bcbb d401 ff3d
00000060: 2f0c 0cbe 08e4 a93d 38d2 5c3c 265e a5bd
00000070: 4de9 efbb 055e 13bd 7365 ef3d 3f1f fcbd
-0.030120306 0.12128116 0.05379676 0.016007949 -0.054509223 -0.082287885 -0.11613677 -0.018562036
-0.028919194 0.09005199 -0.08357528 -0.031471428 -0.09779427 0.09354013 -0.037814528 0.0054281014
0.11543764 -0.04473124 0.059488405 0.0033967246 0.022977527 -0.010436086 -0.0057390486 0.124515206
-0.13676523 0.08295447 0.013477854 -0.08074598 -0.007321513 -0.035978336 0.11689272 -0.12310647

actor.4.weight f4 [4, 32]
00000000: cb2b acbe 5d5b 0fbd b25f 063f 62cf 363e
00000010: afbd 65be 2509 03bf b5a7 e9bd 131a 8e3d
00000020: cb75 283e 56a4 e7be 5ad7 17be 8021 923d
00000030: 6ed5 69bf c35c f93d 5d5f 003f 2a2b 2d3e
00000040: 7e3e 3e3d 870c 0a3e 5a7d 953e 22fc 2e3f
00000050: 65ed e13d 7852 d63e e769 453e 26b1 343f
00000060: 17cb 65be c0f5 cbbd d04f 5c3d dcf9 143e
00000070: 83f7 0ebe b7dc abbe 6e99 393d 180d 5cbe
00000080: 72ee 37be 8093 283f 89c8 b33e 7b82 aabe
00000090: 6778 6cbe 4b3c ba3d 1650 c5be 2613 c3be
000000a0: 7f68 e0be 6b68 093d 5869 293f 0a18 683f
000000b0: 38dc 2c3d cd7b 9e3e fe4e 173e a461 27bf
000000c0: 8492 cf3e 524c 85bd 0908 1c3f fc69 b03d
000000d0: 7237 83be fe57 8c3e a9c9 e03e 83e4 ef3b
000000e0: c2c9 40be d0a3 0f3e c46f 883c fd8a 05bf
000000f0: 7a02 013f c910 84be d922 d4be fdec d5be
00000100: 9b08 7bbc 82d4 2bbd bd01 2dbe cc34 acbe
00000110: f2e2 34be e2fd ca3d 6ffd 9bbe c622 a4be
00000120: 1137 6cbe b04e 863d 5f7d 5cbe 425c 103e
00000130: 5cc6 173e 62ab 363e 2c5c beb9 be6b c23d
00000140: fd34 3d3e 491d b6be 3b3c 09be 5ea4 47be
00000150: 067f a33c 6e10 393d 8b2d 9ebe ae5b 55bd
00000160: fa66 07bd a2ae 3d3d 0960 42bb edbb 6ebe
00000170: 08db 3fbd d9d1 ad3d c201 c93e 07ff b33b
00000180: d6ed 56bd 7106 44be 5145 21bc b8dc 1ebe
00000190: 0194 ebbe eb79 723e 4ede 9abe 9425 05be
000001a0: e01e 12be e1d5 cd3e 1e65 85bc 52b4 3f3e
000001b0: f428 d3bc aa8d 38be 594a c8be 35a5 033e
000001c0: 8748 8fbe f9fa 29bf 0be8 233e a5a9 30bc
000001d0: a460 bebe 79cf c0be daf4 83be 2438 9c3d
000001e0: e640 b33e 2fb5 06bf 2e8a 23bf 80d1 1d3c
000001f0: 4169 843e 29d0 90be adab 9e3e 34c6 4cbe
-0.3362716 -0.03499924 0.5248977 0.17852548 -0.2243564 -0.5118583 -0.11408941 0.06938567
0.16451184 -0.45242566 -0.14828244 0.07135296 -0.9134129 0.12175896 0.5014551 0.16910997
0.046446316 0.13481341 0.29197198 0.68353474 0.110316075 0.41859794 0.1927868 0.7058281
-0.22440754 -0.099589825 0.053787053 0.14548439 -0.13961606 -0.3356683 0.045312338 -0.2148937
-0.17962053 0.6585007 0.35113934 -0.33302674 -0.23092805 0.09093531 -0.38537663 -0.38100547
-0.43829724 0.033546846 0.66176367 0.9066168 0.042202204 0.30953828 0.14776227 -0.6538336
0.4054147 -0.065086976 0.6094976 0.08613965 -0.2562824 0.27410883 0.43903854 0.007320942
-0.18826964 0.14027333 0.016654857 -0.52165204 0.50394404 -0.25794056 -0.41432837 -0.4178237
-0.015321876 -0.04195071 -0.16895194 -0.3363403 -0.17664698 0.099117056 -0.30466792 -0.3205778
-0.23067881 0.06557977 -0.215322 0.14097694 0.14821762 0.17838815 -0.00036308297 0.094932064
0.18477245 -0.35569218 -0.13401882 -0.19496295 0.01995803 0.045181684 -0.30894122 -0.052089386
-0.03305719 0.04630912 -0.0029659292 -0.23313875 -0.046839744 0.08487291 0.39259154 0.005493048
-0.05247291 -0.19143082 -0.0098431865 -0.15513885 -0.46011356 0.2367932 -0.3024773 -0.13002616
-0.1426959 0.4020224 -0.016283568 0.1872113 -0.025776364 -0.1802279 -0.39119223 0.1285599
-0.2798502 -0.6639858 0.16006486 -0.010782634 -0.37183106 -0.3765829 -0.25772744 0.076278955
0.3501045 -0.52620214 -0.6388272 0.009632468 0.25861552 -0.28283814 0.30990353 -0.19997483

actor.4.bias f4 [4]
00000000: e16e 003e 7425 adbd 2983 5a3e 9f59 25be
0.12542297 -0.08454409 0.21339096 -0.16147469

critic.0.weight f4 [64, 24]
00000000: b26e 533e 0e29 153e 1291 213e ffed efbd
00000010: 6798 76bd 3c5f b9bd dfca b23d ccea ed3d
00000020: b587 343e fffc fbbd 9315 c13d 549e 41bd
00000030: 56f9 15bc fb10 4a3e 874b 18be 0038 abbd
00000040: 4f77 2a3d f5d5 c03d 6cc0 59bd a1f1 28bd
00000050: afbb 8ebd ea63 2dbc 03e0 27be f8ed 9cbd
00000060: 1a97 c13c a4e8 013e 1616 223e 6691 c83c
00000070: f3dd b0bd 3be4 163e 5ac2 44be a0f1 923d
00000080: 33c1 4f3d 3de2 84bc 323c 3b3e 7f92 053e
00000090: 7278 463e abb7 e9bd d7a9 75bd 5102 07be
000000a0: 36ca fb3d d20b 14be 4c23 9e3d cba0 0c3e
000000b0: f5f6 7c3d 324d 3a3d f3b6 73bd 3ba1 f2bc
000000c0: feb8 b4bd 2eff 353d bb20 bb3d 9010 8abd
000000d0: 013e 16be 98d2 aabd dfdc cbbd d1ee aebd
000000e0: be7a 213e 9587 093e fd20 1d3e 71a9 7aba
000000f0: 980b b9bd 0fdd 1c3e 9617 59be 1e18 553b
00000100: a349 21be 2de9 f7bd 6688 c53d fa79 3cbe
00000110: cf76 f3bd db3b 28be 2528 403e a55b 8fbd
00000120: 6124 263e 7a81 b7bd a0e9 0d3e aa81 75bd
00000130: af9a 353d ae52 d73d f806 f53d 075c efbd
00000140: cfe6 173e 984b 103e fbfe 8d3d a410 9f3d
00000150: a5ab 91bd 1544 ad3d 9c2e f43d d060 fa3d
00000160: 1702 d03c 33c9 2bbe 8cdc 353e d908 2fbe
00000170: a7f0 21be 11da 733c 90ee 1c3d a6ed 123e
00000180: bf38 0abe 941f 95ba 6c64 e6bd c9f8 4fbe
00000190: d796 0b3e 2e0e 9ebc bd34 013e 9581 1ebd
000001a0: 76e0 e23d 6957 17be a854 303d fb20 afbd
000001b0: 8342 3c3b 09e2 60bd 1c09 52be 6bef cabd
000001c0: 34a6 fd3d 9265 2abe b972 293e 94de a13d
000001d0: bef4 aa3d b2eb 013e 9c0f 42be e115 33bc
000001e0: e588 84bc 8305 6d3d 43aa 28be 49dd e6bc
000001f0: bdca 8d3d 1188 e2bd d275 54bc 19f0 aebd
00000200: a851 ab3d f70f 863d 2f11 9c3d d1f3 2ebd
00000210: 0c05 71bb 44e0 0e3e 9891 e4bb f1f6 883d
00000220: 9e13 af3d b83f ae3d c6ba 46be 97d3 f2bd
00000230: 5c1b b7bc 0098 ddbc 74e1 393e 9584 933c
00000240: 3005 79bd 6798 1fbe 043c cdbd 3e72 d33d
00000250: 79af 063e 2b94 003e 7659 00bd 7cea d63a
00000260: a664 033e 4423 0ebd 702d c43d 43c7 a23c
00000270: e34c 873d 7711 34be 662b b6bd b3fa 36be
00000280: 0954 1e3e 562e e63d a12a 91bd 17b4 17be
00000290: 9666 fbbd 5175 163e a0cd 063e 2706 893d
000002a0: 8bc0 1bbe 581a c43d 9ee4 cb3c 87a1 d2bb
000002b0: ae16 313e 70b9 493d 663f e9bd eb7f dabc
000002c0: 77fe 1bbe 6c25 233e aece be3d d559 b53d
000002d0: 7f14 a33d 383e d93d 2529 edbd 6d19 243e
000002e0: b60e 45be ba19 8d3d 6454 34bd 97ce 803c
000002f0: cf48 9d3d e7f8 52be 88b8 2fbd 0d23 cf3d
00000300: 8541 17be 9850 b03d 18fb 31be f4a8 083d
00000310: c767 e9bc 1b0a 103d ecac d2bd f141 c03d
00000320: 9dfd f3bd 9bab cf3d d0bf 2bbd 0982 d03d
00000330: 68fd 32be 07f2 0cbc 5a57 c2bd c700 7ebd
00000340: 9938 5f3c e5fa 21be c635 20be d2de fb3d
00000350: 2336 0b3d 7234 e93d 0eeb 3dbe ea2d 0ebe
00000360: 2a2f 083e 32d0 133d 199b 903d 072d a53d
00000370: 292f a43d 2f40 8f3d 1572 bcbd feff a2bd
00000380: 16ca 363e 53d7 373c 7c47 9c3d a543 973d
00000390: f940 ccbd 383d 55be 16fa 4ebe b6fb 00be
000003a0: ae7d 953d 32a3 09bd e165 98bd b27a 1dbe
000003b0: 9c77 313d d9dd edbc 357f 8d3d bf9e 173d
000003c0: a815 82be abf0 833b aee9 40be 0c43 0b3e
000003d0: e63e 18be e556 12bc 1c33 82bd 204c 883d
000003e0: 81b2 03bd fb38 053e af2c 0d3e d6c0 e6bd
000003f0: e423 81bd 8dd5 24be fbb6 263e 966f f7bd
0.20647696 0.14566442 0.15777996 -0.11715316 -0.060203936 -0.09051368 0.08730101 0.116170496
0.17629893 -0.123041146 0.09427943 -0.047270134 -0.009153685 0.1973304 -0.14872561 -0.083602905
0.041617688 0.09415809 -0.053162023 -0.04124606 -0.069693916 -0.010582903 -0.16394047 -0.076625764
0.023631621 0.12686402 0.15828738 0.024483394 -0.086360835 0.147355 -0.19214764 0.071749926
0.05072136 -0.01622116 0.18284681 0.13044165 0.19381884 -0.11411985 -0.059976425 -0.13184477
0.12294428 -0.14457634 0.07721576 0.13733213 0.061758954 0.045483775 -0.059500646 -0.029617896
-0.08824347 0.04443281 0.09137102 -0.0674144 -0.1467209 -0.08340949 -0.09954237 -0.08541644
0.15769479 0.13430627 0.15344615 -0.0009561992 -0.090354145 0.15318702 -0.21200404 0.0032515596
-0.15750746 -0.121050216 0.096451566 -0.18405905 -0.11887895 -0.16429083 0.18765314 -0.06999902
0.16224815 -0.089602426 0.13858652 -0.05993811 0.04433697 0.10513817 0.1196422 -0.11687475
0.1483414 0.14091337 0.06933399 0.07766846 -0.07112817 0.08460251 0.119229525 0.12225497
0.025391622 -0.1677597 0.17759913 -0.17093219 -0.15814458 0.014883534 0.03831345 0.14348468
-0.1349821 -0.0011377209 -0.11249623 -0.20309748 0.1363176 -0.01929387 0.12617774 -0.038697798
0.11077969 -0.14779438 0.043049484 -0.085512124 0.0028726168 -0.054903064 -0.20511287 -0.099089466
0.12385216 -0.16640308 0.1654767 0.079037815 0.08347462 0.12687567 -0.18951267 -0.010930509
-0.016178558 0.057866585 -0.164712 -0.028181689 0.06923435 -0.11061109 -0.012967544 -0.08541889
0.08365184 0.06546014 0.07620465 -0.04271299 -0.003677669 0.13952738 -0.006975364 0.06687725
0.085486636 0.08508247 -0.19407186 -0.11856764 -0.022351913 -0.027050018 0.1815241 0.018007556
-0.060795963 -0.1558548 -0.10021213 0.10324524 0.13152875 0.12556522 -0.031335317 0.0016396786
0.12831363 -0.0347016 0.09578979 0.019870406 0.06606462 -0.17584787 -0.08894996 -0.17869072
0.15461744 0.11239307 -0.07088209 -0.14814793 -0.12275426 0.1469319 0.13164377 0.066906266
-0.15210168 0.09575337 0.024889287 -0.006427947 0.17293808 0.049249113 -0.113890454 -0.026672324
-0.1523379 0.15932244 0.09316765 0.08855025 0.07962894 0.106075704 -0.11580113 0.16025324
-0.19243893 0.068896726 -0.044025794 0.01572351 0.07679903 -0.20602761 -0.042900592 0.10114107
-0.14771087 0.08609122 -0.17380941 0.03336425 -0.028491868 0.035165887 -0.102868885 0.09387577
-0.11913607 0.10140153 -0.041930974 0.10181052 -0.1747948 -0.008602626 -0.09489317 -0.06201246
0.013624334 -0.15818365 -0.15645513 0.12298359 0.033987176 0.11386956 -0.18546697 -0.13884702
0.13299242 0.036087222 0.070608325 0.08065229 0.080168076 0.06994664 -0.09201447 -0.07958983
0.17850527 0.011220771 0.07630822 0.07385949 -0.0997333 -0.20824134 -0.20212588 -0.1259602
0.07299362 -0.0336029 -0.07441307 -0.15378836 0.04332696 -0.02903645 0.069090284 0.037016626
-0.25407147 0.0040264926 -0.18839142 0.13599795 -0.14867744 -0.00893185 -0.063574046 0.06655145
-0.032152656 0.13010018 0.13786577 -0.11267249 -0.06305674 -0.16097088 0.16280739 -0.1208183

critic.0.bias f4 [64]
00000000: fb75 403e f20c d53d 6c7e fcbd 4d10 25be
00000010: 1ecc 363e b8a4 023c bc36 e43d c137 3c3e
00000020: fa7f fdbc ee76 353c 3797 0d3e 6700 33be
00000030: f348 23bd 752c 0d3e 27b1 bfbc d62a 863c
00000040: 72e7 fcbc 0369 dbbc 2835 2cbe 8ebf 7abd
00000050: 360f 483c 592a b2bd 5274 33be c081 e6bc
00000060: 3afc 5d3e 9455 3bbd ec6e bd3d df1a e3bd
00000070: fb77 0abb fa89 0ebe d97d 8bbd a596 293e
00000080: d06c 0dbd 1f5f 133d 1359 883d 07f1 47be
00000090: 08d4 0cbe 4a43 00bd 7b0d 1fbe 049d 2fbc
000000a0: 5c63 c73d 240a 3b3c 29eb 3bbe 3ee8 0cbe
000000b0: f57c 06be 3361 4dbe 8a4e 1cbe 35a0 513a
000000c0: 0524 f63d dd37 993d 3907 25be 7c7e 27be
000000d0: 8e48 ce3d 7c05 e83d f108 993d 634e 5bbd
000000e0: e745 1c3e ba76 25bd 28ec 39be 87ef 4d3d
000000f0: 6c0c 18be bf0f 933d 02d0 21be 9304 b6bd
0.18795006 0.1040286 -0.123288006 -0.161195 0.17851302 0.007973842 0.11143252 0.18380643
-0.030944813 0.011075718 0.13827215 -0.17480622 -0.03986449 0.1378649 -0.023399903 0.016377848
-0.03087208 -0.026783472 -0.16817153 -0.061217837 0.012210658 -0.086994834 -0.17524841 -0.028138041
0.21678248 -0.04573591 0.09249672 -0.1108911 -0.0021128643 -0.13919821 -0.06811113 0.16561373
-0.0345276 0.035979386 0.066576146 -0.19525538 -0.13752759 -0.03131417 -0.15532486 -0.010718588
0.09735748 0.011415992 -0.18351425 -0.13760468 -0.13133605 -0.2005661 -0.15264335 0.000799659
0.12018589 0.07481358 -0.16116036 -0.16356844 0.100724325 0.11329171 0.074724086 -0.053541552
0.1526104 -0.04039643 -0.18156493 0.05027726 -0.14848489 0.07180738 -0.15802005 -0.08887591

critic.2.weight f4 [32, 64]
00000000: 67ae 943d d533 9ebd 9bec 8dbd a0f4 bdbc
00000010: ac6d 6e3d c59d 93bd 72bd d5bd 48ac 2ebd
00000020: 4db6 be3d 34c9 c13d aba1 f7bd 63ab d23c
00000030: 1bca 94bd 4c34 04be 2484 09bd da6b 003e
00000040: 40bb d0bc 71e2 d4bc 213d d5bd aff6 af3d
00000050: b35e c03d 32cc aa3d c00f d4bd dd51 25bd
00000060: 61a7 bc3d 28bf ca3d 0fd9 95bd 7a3d c03d
00000070: 228e 693d 2a76 c0bd 380f aa3d dcea 40bc
00000080: ec2a 673c 0506 6dbd b200 e63c 43d4 90bd
00000090: 2489 62bc a53a 7fbc dc87 d5bd f1c3 c93d
000000a0: ecb1 bdbd 8747 933d 704d 1c3c 1714 7b3b
000000b0: 3a17 3a3d 033d bc3d aa5d fdbd f890 7d3d
000000c0: 32e0 92bd 80f3 e33d ef7b 9dbd 756b a03d
000000d0: 54bd fabd 7dce 07bc a583 553d d375 023e
000000e0: 48f1 dc3d a19e 80bd 3f6a ccbd 2966 003d
000000f0: d1c3 cf3d 810d 52bd 36dd 37bd 6c4c 88bd
00000100: 7ddc ae3d 2efb abbc e690 c53d 9546 acbc
00000110: 343f cf3d e971 8d3c e653 84bd 3dea 4d3c
00000120: ffbc b7bd 2c1a a4bd fe4c bb3c 8731 c2bd
00000130: a5f7 e43d 4044 e63d 7c55 b53d d7c1 39bc
00000140: 8d6e 9c3d ccde 823d 3060 00bd 6504 ce3c
00000150: 77f0 b5ba fcc8 2cbd 8914 84bd fd3a db3d
00000160: 6f00 87bd 8da4 0abd 803d a6bd 458f b33d
00000170: e2f0 c4bd 73a3 34bd 6e48 f43b e244 4a3d
00000180: 486e e1bd c77b bbbd 8c49 c4bd 6993 bb3d
00000190: fda5 853d c737 1cbd 8a9d e33c f8f2 eb3d
000001a0: 5a62 553d 2d34 5e3d c6c4 683d 91d2 efbd
000001b0: c5df ab3d d777 edbd 0443 c13d a36c 223d
000001c0: c181 e6bd 1a9b bfbc fc63 5fbd b7f5 e6bd
000001d0: 7c6a f1bd 1f69 323d 5632 3abd ac43 1b3c
000001e0: 6153 c33d 8fdc 6cbd 3214 84bd cfb5 883d
000001f0: 5268 f2bc febc 45bd f6da 95bd aba4 3b3d
00000200: aa1a 5c3d e021 8cbd cf57 033e 4f54 33bd
00000210: a2e8 02bc f931 afbc ce88 223d f5db 493d
00000220: fc4e 08bd 28bd dcbd ad89 9d3d 7823 ecbd
00000230: fbe2 59bc 24ea ae3d a7c4 343d 5719 843d
00000240: 41da 163d 4d02 3bbd 3bcb 3fbd 4efa 8ebd
00000250: 2cd8 8c3c b4fc eebc ac34 78bd ccc4 8b3c
00000260: aca7 b53d a38a 38bd db3c 073d 373c ad3c
00000270: da3d db3d c005 45bd 2c6b 043d c0c8 da3c
00000280: b008 be3d 9bca 10be 3b7e 8c3d 597b 8e3b
00000290: 4e43 a0bd a667 653d bdc4 0abd 0e7d 00bd
000002a0: ceb1 fabc 9167 dabd d5a9 6c3d 2121 b3bd
000002b0: c2ff f9bc 8d54 b33c 8e80 0bbd 8a89 673c
000002c0: 6b78 cb3b ed79 863d 74f5 823d f74b 823d
000002d0: 6198 da3d be49 913c 4ed0 e9bb 979c eebd
000002e0: ed38 8bbb 9c27 16bc 0153 c83d bcbf c83d
000002f0: af4b 3d3d 5320 15bd 1123 8a3d aca4 8f3d
00000300: ef69 b0bc e5e4 953d 232f 443c 0d1c d3bd
00000310: 398e 2b3d 17bf 7abd ce4d 1ebd 0ff8 8a3d
00000320: 3650 b83c 02bc cbbd b761 ff3c 9743 85bc
00000330: f92c 2b3d 04cd 4ebd 57d0 12bd 40c8 cfbd
00000340: 6b65 3d3c d12d f4bc 5255 b2bd 35da fcbd
00000350: ae86 c2bd 247e d93d f65f 07be 0355 abbd
00000360: d370 c83d 5204 463d 5b24 503c 34bd f93d
00000370: a316 ea3d 6fd7 b73d 68a5 7d3d dfba 16bd
00000380: b8b3 bbbd 002d a83d a0d4 f3bd 2873 aabd
00000390: b935 c0bd 0cf3 0e3e 9675 39bd cccc d03d
000003a0: f67f b8bd d2b5 963c 61d2 b63d 7ae0 433d
000003b0: 0ef4 b33d 3e2d cbbd 8b6b b33d 71c8 ca3d
000003c0: 08b9 6ebd 1b4a 8b3d 07c3 e53d 1163 dc3d
000003d0: e208 91bd 4abe d53c 217f 5ebd be68 59bd
000003e0: 0bb7 22bd f7b1 cf3c 7765 fd3d b5b5 81bd
000003f0: ef45 f4bc f9d4 b2bd efd7 853d 0ca0 523d
0.07259827 -0.0772473 -0.069298945 -0.023187935 0.05821006 -0.072078265 -0.104365245 -0.04264477
0.09312115 0.094622046 -0.120913826 0.02571649 -0.07265111 -0.12910575 -0.033573285 0.12541142
-0.025479913 -0.025986882 -0.1041205 0.08591973 0.093930624 0.083397284 -0.103545666 -0.040361274
0.092116125 0.098997414 -0.07316791 0.09386726 0.057020314 -0.09397538 0.08303684 -0.011774745
0.0141093545 -0.05786707 0.028076503 -0.07071736 -0.013826642 -0.015577947 -0.10426304 0.09851826
-0.092624515 0.07191377 0.009539947 0.0038311535 0.045432307 0.091913246 -0.123713806 0.06190583
-0.07171668 0.11130428 -0.07689654 0.07832996 -0.12243143 -0.008288977 0.0521275 0.12740259
0.10788208 -0.06280256 -0.09981202 0.031347428 0.10144771 -0.05128241 -0.044888698 -0.06655201
0.085381486 -0.020993795 0.09646778 -0.02102975 0.10119477 0.01726623 -0.06461315 0.012568054
-0.08971595 -0.080128044 0.022863861 -0.09482103 0.11180047 0.112434864 0.088541955 -0.011337719
0.076382734 0.063901514 -0.03134173 0.02514858 -0.0013880868 -0.04218386 -0.06449229 0.107046105
-0.065918796 -0.033848334 -0.08117199 0.08767561 -0.09616257 -0.04410119 0.0074549234 0.049382098
-0.110073626 -0.09154468 -0.095843405 0.09158976 0.065258004 -0.03813913 0.027785081 0.11520952
0.05209575 0.054248977 0.056828283 -0.11710084 0.0839229 -0.11595123 0.0943661 0.039654385
-0.11255217 -0.023389388 -0.054538712 -0.11277335 -0.117878884 0.043557283 -0.04545816 0.009476583
0.09537388 -0.05782753 -0.064491645 0.06675302 -0.02959076 -0.04827594 -0.07317154 0.045811336
0.053736366 -0.06842399 0.12826465 -0.043781575 -0.007990034 -0.021386134 0.03968125 0.049282033
-0.03327845 -0.10778266 0.07692275 -0.115302026 -0.013298745 0.085407525 0.044132855 0.06450146
0.036829237 -0.04565649 -0.046824675 -0.069813356 0.017192923 -0.029173233 -0.060597107 0.017061614
0.088698715 -0.04505409 0.03301702 0.021146877 0.107051566 -0.048101187 0.03232877 0.026707053
0.09279001 -0.14139788 0.06860014 0.0043482003 -0.07825337 0.05600705 -0.03387903 -0.03136926
-0.030602362 -0.10664285 0.057779152 -0.08746553 -0.030517463 0.021890903 -0.034058146 0.014131913
0.0062094233 0.06566224 0.06394473 0.063621454 0.10673595 0.017735358 -0.0071354276 -0.11650961
-0.0042487294 -0.009164717 0.09781457 0.098021954 0.046214756 -0.03640778 0.0674497 0.070138305
-0.021534888 0.07319049 0.011974129 -0.10308085 0.04188368 -0.061217394 -0.03864842 0.06785595
0.022499185 -0.09947969 0.031174524 -0.01626758 0.041790936 -0.050488487 -0.03584322 -0.101456165
0.011559824 -0.029807003 -0.0870768 -0.12346307 -0.09498344 0.106197625 -0.132202 -0.08365824
0.097871445 0.048343964 0.01270398 0.12194291 0.11430099 0.089766376 0.06192532 -0.036799308
-0.09165138 0.08211708 -0.119057894 -0.083227456 -0.09385247 0.13959903 -0.045278154 0.10195312
-0.090087816 0.018397246 0.08926845 0.0478215 0.08786784 -0.09920739 0.087607466 0.099015124
-0.05828193 0.06801244 0.11218839 0.10761083 -0.070817724 0.026091713 -0.05432046 -0.053078406
-0.039725345 0.025353415 0.123728685 -0.06333486 -0.029818503 -0.087320276 0.06535327 0.051422164

critic.2.bias f4 [32]
00000000: 4d98 1fbd 6357 8d3c 09b6 ddbd 9964 163c
00000010: b88a a13d f7b2 aabd c794 0b3d d9fb cfbd
00000020: 49e6 8cbc fdba 9d3d 978b 913d 722a 6e3d
00000030: 9f21 ea3d c83d bbbd cc29 af3d 01f4 1c3d
00000040: 41ac b1bd af58 59bd 2fef 1abd f4d6 9d3d
00000050: c948 8b3d 55ea 243d d7db 2038 e405 71bd
00000060: 1923 0d3e 915d 013b e8d0 a23d 33ef 813d
00000070: 4fb0 b4bb f8fa dc3d 3057 e4bc 5494 f23d
-0.038963605 0.017253583 -0.10825736 0.009179258 0.078877866 -0.08334916 0.034077432 -0.10155458
-0.017199652 0.07701681 0.07106703 0.058145948 0.11432194 -0.09142643 0.08552894 0.038318638
-0.08675433 -0.05306309 -0.03782576 0.07707015 0.06800992 0.04026254 3.8351714e-05 -0.05884351
0.1378292 0.0019739608 0.07950002 0.06344452 -0.0055141817 0.10790056 -0.027873605 0.118446976

critic.4.weight f4 [1, 32]
00000000: 682f 493d 2dc4 b13d 015b 0dbe a7da 65bd
00000010: ad2c aa3d c96c b3b9 249f 0a3e 1bc1 033e
00000020: b898 1b39 4c90 1c3e a050 ab3d 7835 a4bd
00000030: a927 08bc b16b 2ebd 5c42 a13c 68d3 f6bd
00000040: 5494 013e 2524 ccbd ff32 33bd 81cc 7b3d
00000050: 02df a2bc 0127 b9bd de67 b8bc 3bd5 99bd
00000060: 9a06 19bd e49f df3d ff20 9abc 1aaf afbc
00000070: 9589 dc3d b0a6 f4bd 2444 113e 4f15 bcbd
0.049117476 0.08679996 -0.13804246 -0.056116726 0.083093025 -0.00034222592 0.1353727 0.12866633
0.00014838844 0.1528942 0.083649874 -0.08018011 -0.008310237 -0.04258317 0.019684963 -0.12052041
0.12654239 -0.099678315 -0.043749806 0.061474327 -0.019881729 -0.090406425 -0.022510465 -0.075113736
-0.03735981 0.109191686 -0.018814562 -0.0214458 0.10768429 -0.119458556 0.1418615 -0.09183752
