Policy Gradient/walker_ppo_model_18200.pth (torch, 34323 bytes, 11 tensors)

actor.0.weight f4 [64, 24]
0	0xbde24e0c	-0.110500425
1	0x3ee9cfcb	0.45666346
2	0xbcbdba21	-0.023160042
3	0x3f4b3289	0.79373986
4	0xbe16fa58	-0.14743936
5	0xbdcdf02a	-0.10055573
6	0x3f56b392	0.8386775
7	0xbe300056	-0.17187628
8	0xbe6f0ab7	-0.23343931
9	0xbe06026c	-0.13086861
10	0x3b9682e2	0.004593239
11	0xbe77b490	-0.24189973
12	0x3d6c5156	0.057694755
13	0x3d5aa122	0.053376324
14	0x3e81641a	0.25271684
15	0x3e552632	0.20815352
16	0x3d893598	0.06699675
17	0xbbcc1c09	-0.006228928
18	0x3e5ba4ae	0.21449539
19	0xbdee579a	-0.116378024
20	0x3da874fd	0.08225439
21	0x3e3f951d	0.18709226
22	0x3e15e438	0.1463784
23	0x3d1d533b	0.038409453
24	0x3c9b6c80	0.018972635
25	0xbc6558f8	-0.013998263
26	0x3e6b8d5e	0.23003146
27	0x3da668d8	0.08125466
28	0x3e85d40e	0.26138347
29	0x3e5bbdfe	0.21459195
30	0x3f5e0337	0.86723655
31	0xbe1f6527	-0.1556593
32	0xbe274567	-0.16335069
33	0xbd451a90	-0.048121035
34	0x3dc1393a	0.09434743
35	0x3d7a574c	0.06111841
36	0xbd1287b1	-0.035773937
37	0x3ddea329	0.10870964
38	0x3e1f07a1	0.15530254
39	0x3deb8ef4	0.115018755
40	0xbc24b598	-0.010053061
41	0x3e0b3296	0.13593516
42	0xbd9fedad	-0.07809005
43	0x3d903787	0.07041841
44	0x3d605818	0.054771513
45	0xbd160246	-0.036623262
46	0x3bedefb3	0.0072612404
47	0x3e147999	0.14499511
48	0x3a4a6603	0.00077208894
49	0xbf02f745	-0.51158553
50	0xbd0702cc	-0.03296165
51	0xbf1549b2	-0.58315575
52	0xbe5538c2	-0.20822433
53	0x3de3c79a	0.11122055
54	0x3f07b317	0.53007644
55	0x3d4b6b33	0.04966278
56	0xbe4e27ae	-0.20132324
57	0x3e2a2fd4	0.16619807
58	0xbe33b6e0	-0.1755023
59	0x3ea869ca	0.3289321
60	0xbdd5fd87	-0.10448747
61	0x3e942141	0.2893162
62	0xbe7cd585	-0.24690826
63	0xbe70a101	-0.23498918
64	0xbe62beb6	-0.22143063
65	0x3ca0b034	0.01961527
66	0xbe76acb1	-0.24089314
67	0x3dc20561	0.09473682
68	0xbd816ef2	-0.06319989
69	0xbe28ce86	-0.16485032
70	0xbe4c1ac5	-0.19932087
71	0xbccf2a6e	-0.025288787
72	0xbe93a31f	-0.2883539
73	0xbe2401b9	-0.16016282
74	0xbde5643a	-0.11200757
75	0xbe84bb79	-0.2592428
76	0xbed3525c	-0.41273773
77	0xbe3f9198	-0.18707883
78	0xbcc37c6d	-0.023863042
79	0xbe329c50	-0.17442441
80	0xbe03e11d	-0.12878843
81	0x3e239f4d	0.15978737
82	0x3de00b08	0.10939604
83	0xbd07b119	-0.033127878
84	0x3d8fcb2e	0.07021175
85	0x3cd0c241	0.025483252
86	0xbe353a01	-0.17697908
87	0xbe85d4cc	-0.26138914
88	0xbe353304	-0.17695242
89	0x3d7d21c8	0.061799794
90	0xbd9e4b14	-0.07729164
91	0x3d409de6	0.047025584
92	0x3c8a0b7c	0.01685118
93	0xbe339309	-0.17536558
94	0x3e0caa3c	0.13736814
95	0x3d34d84a	0.04415158
96	0xbd47fbb5	-0.04882403
97	0xbe507b99	-0.20359649
98	0xbea39203	-0.31947336
99	0xbee1ae5b	-0.44078335
100	0x3d25ab19	0.040446375
101	0xbd4d5cf6	-0.050137483
102	0xbee8bba9	-0.45455673
103	0xbcd1632c	-0.025559984
104	0xbd831941	-0.06401301
105	0xbcc9d57f	-0.024637936
106	0x3d38bd11	0.045102183
107	0x3ef3e9de	0.47639364
108	0x3e45afe9	0.19305386
109	0x3e71d052	0.23614624
110	0x3d8c56dd	0.06852505
111	0x3d8127ec	0.063064426
112	0xbe684664	-0.22683102
113	0xbd0ed0ee	-0.03486722
114	0xbddb9b5d	-0.107229926
115	0xbd771816	-0.060325705
116	0x3cd5538e	0.026040819
117	0xbe1c735d	-0.15278383
118	0xbe2ed506	-0.1707345
119	0x3da84079	0.08215422
120	0x3e384220	0.17993975
121	0xbec3713b	-0.38172325
122	0x3d4418ec	0.04787533
123	0xbebd0cef	-0.3692393
124	0x3d8b9d81	0.06817151
125	0x3d8c7b54	0.068594605
126	0x3eeeb782	0.4662438
127	0xbd7efdfb	-0.062253933
128	0x3e42e593	0.19032888
129	0xbd51999c	-0.051171884
130	0xbd832c9a	-0.064049914
131	0x3db06020	0.086120844
132	0xbdc967e4	-0.09834269
133	0x3e9101da	0.28321725
134	0xbc41b69f	-0.011823325
135	0xbde95cd7	-0.11394661
136	0x3c9b2646	0.018939149
137	0x3e328d88	0.17436802
138	0xbdccef64	-0.10006598
139	0xbe03859d	-0.12843938
140	0xbcbf6462	-0.023363296
141	0x3d962873	0.07331934
142	0xbdbf92ac	-0.09354147
143	0x3d3752bc	0.044756636
144	0xbda1add1	-0.07894481
145	0xbed64463	-0.4184905
146	0x3d95b48c	0.07309827
147	0xbf2130fb	-0.62965363
148	0xbe8ce0cd	-0.2751526
149	0x3e598056	0.21240363
150	0x3e8dae24	0.2767192
151	0x3bec8148	0.00721756
152	0x3dadcfc9	0.084868975
153	0x3e4ea947	0.20181762
154	0x3dc389c4	0.09547761
155	0x3e90bfc1	0.28271297
156	0x3e0e8492	0.13917759
157	0x3e45c76c	0.19314355
158	0xbc4cb2db	-0.012493814
159	0x3d135c09	0.035976443
160	0x3dbe0d54	0.09279886
161	0x3d978c63	0.073998235
162	0xbe32c77b	-0.17458908
163	0x3d86ddc3	0.065852664
164	0xbde2bb3d	-0.11070869
165	0xbd79234e	-0.060824685
166	0xbe345f8f	-0.17614578
167	0xbcf067a2	-0.029346291
168	0xbdc7d47c	-0.09757325
169	0x3e4bbb3f	0.19895647
170	0x3e72fa74	0.23728353
171	0x3f25fcd1	0.6483889
172	0x3e991ae8	0.2990334
173	0x3cb73c8c	0.022367738
174	0x3f073a7f	0.5282363
175	0xbbe1eaba	-0.0068944367
176	0x3913b06b	0.00014084733
177	0xbce39b04	-0.027783878
178	0xbe0de283	-0.13855939
179	0xbeb65907	-0.35614797
180	0xbdf72ad2	-0.12068714
181	0xbb81409d	-0.00394447
182	0x3e6a13fc	0.22859186
183	0x3e056eb2	0.13030508
184	0x3e0d92f1	0.13825585
185	0x3d38c43e	0.045109026
186	0x3d96c8a1	0.07362486
187	0xbd11066d	-0.03540652
188	0x3e0dfc49	0.1386577
189	0x3e1bbeac	0.15209454
190	0x3db832d0	0.08994067
191	0xbe61a845	-0.22036846
192	0xbc9a777d	-0.018855805
193	0xbeaddb4a	-0.33956367
194	0xbe99ec66	-0.3006317
195	0xbeb52bec	-0.35385072
196	0x3e8d35f6	0.2758023
197	0xbcba1f4c	-0.022720002
198	0xbf351441	-0.7073403
199	0x3d7f2a7a	0.06229637
200	0x3e8f2eae	0.279653
201	0xbd4204e1	-0.047367934
202	0x3afa4a2c	0.0019095591
203	0x3e3e5835	0.18588336
204	0xbd8281e9	-0.06372435
205	0xbe4312fc	-0.1905021
206	0x3e09a0e1	0.13440277
207	0xbc1fb5c4	-0.009747926
208	0xbd4d0701	-0.050055508
209	0xbdcc479c	-0.09974596
210	0x3b41568b	0.0029501047
211	0x3e00c1d5	0.12573941
212	0x3df73c81	0.12072087
213	0xbd9886ae	-0.07447563
214	0xbe075ae6	-0.13218269
215	0x3e2b984a	0.16757312
216	0xbe205d55	-0.15660603
217	0x3cc57bda	0.024106909
218	0xbe6d9374	-0.2320078
219	0xbf071bb9	-0.52776676
220	0xbe738a0c	-0.2378313
221	0xbda6d124	-0.08145359
222	0xbf5225ed	-0.8208912
223	0xbd93202e	-0.07183872
224	0x3d7015f8	0.0586147
225	0x3e336709	0.17519774
226	0x3e3fa520	0.18715334
227	0xbe3cf4c7	-0.1845275
228	0x3d8fdeaf	0.070248954
229	0x3d789c4a	0.060695924
230	0xbd846d88	-0.06466204
231	0xbe3c98ec	-0.1841771
232	0x3d91c9af	0.07118546
233	0xbe43031d	-0.19044156
234	0xbd693db1	-0.0569436
235	0xbe97a20b	-0.29615816
236	0xbdb05d3f	-0.08611535
237	0xbe119038	-0.14215171
238	0x3d3cda36	0.04610654
239	0x3dca451b	0.09876462
240	0xbd807301	-0.06271935
241	0x3efd15ef	0.49430797
242	0x3e4043ac	0.18775815
243	0x3edfeb89	0.43734387
244	0x3e78a32d	0.24280997
245	0xbd8ca5df	-0.06867575
246	0x3e6d9021	0.23199512
247	0x3caa55fd	0.020792956
248	0xbd23e9a4	-0.04001774
249	0xbdae2db7	-0.08504813
250	0x3e27d90d	0.16391392
251	0xbebb5075	-0.3658482
252	0x3dd64c0a	0.10463722
253	0xbe0ed97b	-0.1395015
254	0xbcb1b4fc	-0.021692745
255	0x3db0200b	0.08599862

actor.0.bias f4 [64]
0	0xbe2646b9	-0.16237916
1	0xbe07cbe5	-0.13261373
2	0x3e8bb3dd	0.27285662
3	0xbc39a47e	-0.011330722
4	0x3e8ceef6	0.27526063
5	0xbd6eea81	-0.05832911
6	0xbdd5af32	-0.104338065
7	0xbda54b75	-0.08071033
8	0xbe411128	-0.18854201
9	0x3e09bdc1	0.13451292
10	0xbe1fb9cb	-0.15598218
11	0x3a06f9d9	0.00051489245
12	0xbe03903b	-0.12847988
13	0xbc588997	-0.013216398
14	0xbd2acfff	-0.041702267
15	0x3b8920a9	0.0041848016
16	0xbd4e2225	-0.05032553
17	0xbe00d830	-0.12582469
18	0x3e3f84cb	0.18703
19	0x3e0a0d68	0.13481677
20	0xbd6e7b09	-0.058222804
21	0x3de88771	0.113539584
22	0x3e651d20	0.22374392
23	0xbdb7d0fc	-0.089754075
24	0xbe19d14d	-0.15021248
25	0x3e0a22e1	0.13489868
26	0xbcaed245	-0.021340499
27	0xbe3c7a2d	-0.18405981
28	0xbdf9c1b8	-0.12195152
29	0xbe3dbb02	-0.18528369
30	0x3df8feb0	0.12157953
31	0xbe0be3d6	-0.13661131
32	0xbe2f78ff	-0.17136
33	0x3e342f38	0.17596138
34	0xbe43ad38	-0.19109046
35	0xbe3af97e	-0.18259236
36	0xbd4dc94b	-0.050240796
37	0xbb456ed0	-0.0030125864
38	0x3dd0849d	0.10181544
39	0x3e1ba0fd	0.15198131
40	0x3e45f48b	0.19331567
41	0x3e01ab43	0.12662987
42	0x3e070fbe	0.13189599
43	0x3d7114cd	0.058857728
44	0x3e31189b	0.17294542
45	0xb9932928	-0.0002806869
46	0x3def451c	0.116831034
47	0xbd46c47b	-0.048527222
48	0x3d94d492	0.07267107
49	0xbcee5a95	-0.029095927
50	0xbe53e925	-0.20694406
51	0x3da8d29b	0.08243295
52	0x3d1e75be	0.038686506
53	0x3d2b6f44	0.041854158
54	0xbe09fb0c	-0.13474673
55	0x3de14cbe	0.110009655
56	0x3e18f6ea	0.1493794
57	0x3e4a671c	0.19765896
58	0xbd8de0a2	-0.06927611
59	0xba01b119	-0.0004947349
60	0x3dee41ae	0.11633621
61	0x3c121fcf	0.008918717
62	0xbd355db9	-0.044278834
63	0x3e37f06a	0.17962804

actor.2.weight f4 [32, 64]
0	0x3d84769b	0.06467935
1	0x3de39769	0.111128636
2	0x3ce3f8c5	0.027828583
3	0xbe96c4bf	-0.2944698
4	0x3cc8df88	0.02452065
5	0x3e03d00d	0.12872334
6	0x3e56284b	0.20913808
7	0x3d2c0e30	0.042005718
8	0x3e51fc17	0.20506321
9	0xbe98d0f8	-0.2984693
10	0x3e66fb54	0.22556812
11	0x3e291792	0.16512898
12	0x3ce775ee	0.028254475
13	0xbca93d88	-0.020659223
14	0x3da58bf0	0.080833316
15	0xbde5901e	-0.11209129
16	0x3cdca61e	0.02693468
17	0x3e91ee0d	0.2850193
18	0x3e1ac4f4	0.15114194
19	0xbde1a0aa	-0.11016972
20	0x3e9153eb	0.28384337
21	0xbebf84af	-0.37405917
22	0xbf1d67c5	-0.61486465
23	0x3d120836	0.03565236
24	0x3ddd8a39	0.108173795
25	0x3d8b5eec	0.06805214
26	0x3e677b66	0.22605667
27	0xbceb5f8f	-0.02873209
28	0x3e0f0080	0.13965034
29	0x3e4896b7	0.19588743
30	0x3b7b8e68	0.0038384441
31	0x3d10e82b	0.035377663
32	0x3de1700f	0.110077016
33	0x3d7e8669	0.062139902
34	0x3d26fb7e	0.040767185
35	0x3df07c39	0.117424436
36	0x3da0e771	0.07856644
37	0xbd9fc97f	-0.07802104
38	0xbd184f27	-0.03718486
39	0xbe92565f	-0.2858152
40	0xbe109d71	-0.14122559
41	0xbdcc0b51	-0.09963096
42	0xbe0ec6d9	-0.13943042
43	0xbe583097	-0.21112286
44	0x3d3d8a47	0.04627445
45	0x3e705466	0.23469695
46	0xbc8cbb49	-0.017179148
47	0xbe54af44	-0.20769984
48	0x3d82ba89	0.06383235
49	0x3d84a07f	0.06475925
50	0x3e68d366	0.22736892
51	0xbea88ee5	-0.3292152
52	0x3d32b441	0.043628935
53	0xbdf0ac32	-0.11751594
54	0xbe6b2257	-0.22962318
55	0xbd664c5d	-0.05622517
56	0x3c0b85bb	0.008515771
57	0xbd838f1e	-0.06423782
58	0x3b09f232	0.00210489
59	0x3d683849	0.056694303
60	0xbe5f70e4	-0.21820408
61	0xbe2cab34	-0.16862184
62	0xbc832b8a	-0.016011972
63	0xbe597731	-0.21236874
64	0xbf1167f5	-0.5679925
65	0xbe74c254	-0.23902255
66	0xbd8a3c75	-0.067498125
67	0xbd9508eb	-0.072770916
68	0x3ea870ca	0.3289855
69	0xbd063418	-0.032764524
70	0xbd8ef4b2	-0.06980266
71	0xbee7db7a	-0.45284635
72	0x3e9a6f73	0.30163154
73	0x3e78ac70	0.2428453
74	0xbe0b2115	-0.13586839
75	0x3e173289	0.14765371
76	0xbda3ea69	-0.080036946
77	0x3eff1b35	0.49825445
78	0xbebd0598	-0.3691833
79	0xbe5ccc76	-0.2156237
80	0xbe0cfc8d	-0.13768215
81	0x3d914f01	0.07095147
82	0xbe24ec3b	-0.1610574
83	0xbea6b20b	-0.3255771
84	0xbe41f63d	-0.18941589
85	0xbe922930	-0.2854705
86	0xbcc20d16	-0.02368788
87	0xbe75ac40	-0.2399149
88	0xbc6ac883	-0.014330032
89	0x3ca711cc	0.020394228
90	0x3d1663a9	0.036716137
91	0xb9a2e3bd	-0.00031068726
92	0xbe81b526	-0.25333518
93	0xbbc4b609	-0.0060031456
94	0x3c650852	0.0139790345
95	0x3d14efac	0.03636138
96	0xbe0530c4	-0.13006884
97	0x3db80101	0.089845665
98	0xbe6c2669	-0.23061527
99	0xbd227ffc	-0.039672837
100	0xbe01a11d	-0.12659116
101	0xbc8a86ee	-0.016910043
102	0xbe690f8e	-0.2275984
103	0x3ed4f681	0.41594318
104	0x3e26b4e2	0.16279939
105	0x3ce01a68	0.027356341
106	0x3e26c703	0.16286854
107	0xbbe65898	-0.007029604
108	0xbdd4305a	-0.10360785
109	0xbe59a7cb	-0.21255414
110	0x3e3f09e0	0.18656111
111	0xbd681df2	-0.056669183
112	0xbe67e091	-0.22644259
113	0xbbed585b	-0.007243199
114	0xbde29503	-0.11063578
115	0x3d639f31	0.05557174
116	0x3d9b32cd	0.07578049
117	0x3de314b3	0.110879324
118	0xbefcc5dc	-0.49369705
119	0x3dc1db0b	0.09465607
120	0x3e249be0	0.16075087
121	0x3bfdc24b	0.007744109
122	0xbd1448d6	-0.036202274
123	0x3da4ddb7	0.08050101
124	0xbd5673fb	-0.0523567
125	0x3c7b7fbb	0.015350278
126	0xbd8e90b6	-0.06961195
127	0x3ec627aa	0.38702136
128	0xbdacd545	-0.084391154
129	0xbcfda6e9	-0.030963378
130	0x3df2f18e	0.11862479
131	0x3e8a0187	0.2695429
132	0x3da220f2	0.0791644
133	0xbdad29f2	-0.08455266
134	0x3dae3b52	0.08507408
135	0xbe8c0a4f	-0.27351615
136	0xbd0f1360	-0.034930587
137	0x3e14e10b	0.14538972
138	0xbd59ca4c	-0.05317144
139	0xbe8faf01	-0.28063205
140	0xbe350c23	-0.17680411
141	0xbcaa7fbf	-0.020812867
142	0xbdbadca7	-0.09124117
143	0xbe25e2e0	-0.16199827
144	0xbe334449	-0.17506517
145	0xbdb3eeea	-0.087858036
146	0xbce6f219	-0.028191613
147	0x3e7102b0	0.23536181
148	0xbe5633cb	-0.20918195
149	0x3e7fc930	0.2497909
150	0x3eb8d3bf	0.3609905
151	0x3cee396b	0.029080113
152	0x3b655895	0.0034995426
153	0xbc9eb008	-0.019371048
154	0xbd9c02e8	-0.07617742
155	0xbe0a80b3	-0.13525657
156	0xbd123c4d	-0.03570204
157	0xbdf7c743	-0.12098553
158	0x3cb09390	0.021554738
159	0xbe51d97f	-0.20493124
160	0x3d4f52b3	0.050615977
161	0x3dedb897	0.11607473
162	0x3dec4be5	0.11537913
163	0xbe339bff	-0.17539977
164	0xbd5552de	-0.05208098
165	0x3d752d2d	0.059857536
166	0xbd51127f	-0.05104303
167	0x3e7ba016	0.24572787
168	0x3e20e296	0.15711436
169	0x3ea1e86e	0.31622642
170	0x3d7f3e08	0.062315017
171	0xbe1c1bb4	-0.15244943
172	0x3df928a3	0.12165954
173	0xbeef4684	-0.46733487
174	0xbd446888	-0.04795125
175	0x3eb9a12d	0.3625578
176	0xbd40d770	-0.047080457
177	0xbd38beaf	-0.045103725
178	0xbde3c605	-0.111217536
179	0x3c77b7a8	0.015119471
180	0xbe27e7e9	-0.1639706
181	0x3e37e770	0.1795938
182	0x3e4d47c3	0.20046906
183	0x3dbaa647	0.09113746
184	0xbda2e45b	-0.079537116
185	0xbd81d829	-0.063400574
186	0x3dc630e2	0.096772924
187	0x3d10917d	0.035295
188	0x3e0a5b2b	0.1351134
189	0x3ce0de02	0.027449612
190	0x3d6d8dab	0.057996433
191	0x3e684010	0.22680688
192	0x3d8cc89f	0.06874203
193	0x3ec95503	0.3932267
194	0x3f00be03	0.50289935
195	0x3e266046	0.16247663
196	0xbe118a89	-0.14213003
197	0x3e1ddb96	0.15415797
198	0x3e80ab31	0.2513061
199	0x3d333b11	0.043757502
200	0xbe8a7021	-0.27038673
201	0xbe319922	-0.17343572
202	0xbe41c7cc	-0.18923873
203	0xbe306712	-0.17226818
204	0xbccf9a9f	-0.025342284
205	0xbe9ce42d	-0.30642834
206	0x3e4bb639	0.19893731
207	0x3e53b25a	0.20673504
208	0xbcc5c289	-0.024140613
209	0xbebe4ce7	-0.37168047
210	0x3e151821	0.14559986
211	0x3f22b78d	0.63561326
212	0xbbe5d6e8	-0.007014144
213	0x3e2ae063	0.16687159
214	0x3df22ea1	0.118253
215	0x3bfe416a	0.007759263
216	0x3df0fc22	0.117668405
217	0xbbf6ca09	-0.0075314087
218	0x3d2034db	0.039112907
219	0xbd73dfe1	-0.05953968
220	0x3e74a1a7	0.2388979
221	0x3d897ea2	0.067136064
222	0xbebcba2d	-0.3686079
223	0xbf261541	-0.6487618
224	0xbe0a0494	-0.13478309
225	0x3eb9ef4d	0.36315385
226	0x3e3c68ff	0.18399428
227	0xbe03be06	-0.12865457
228	0xbd8b6e5f	-0.06808161
229	0xbe09960a	-0.13436142
230	0x3e8e6cbf	0.27817342
231	0xbe83b495	-0.2572371
232	0x3e5b2841	0.21402074
233	0xbb743e33	-0.003726852
234	0xbdaf8720	-0.08570695
235	0xbd62b07f	-0.0553441
236	0x3eb04aa5	0.3443195
237	0x3d1106fb	0.035407048
238	0x3e80b154	0.2513529
239	0x3e806377	0.25075886
240	0x3ebb65b9	0.36601046
241	0x3dc90b91	0.09816659
242	0xbed604a5	-0.41800418
243	0x3e2925d1	0.16518332
244	0xbe8ba62b	-0.27275214
245	0xbdce6c8c	-0.100792974
246	0x3c8e6c04	0.01738549
247	0xbe865b9b	-0.26241764
248	0xbd4d884a	-0.050178804
249	0x3e120039	0.14257897
250	0x3e0c2903	0.1368752
251	0x3cc6ec17	0.024282498
252	0x3ea506ef	0.32231852
253	0x3d1eade5	0.038740057
254	0xbde3ab55	-0.11116663
255	0x3de5a801	0.11213685

actor.2.bias f4 [32]
0	0xbd3e348f	-0.046436843
1	0x3e006661	0.12539054
2	0x3d91f1d1	0.07126201
3	0x3d18743a	0.037220217
4	0xbbbf0f06	-0.0058306484
5	0xbdc195a7	-0.09452372
6	0xbcdf8b26	-0.02728803
7	0x3cd58ee4	0.026069112
8	0x3be2fd36	0.0069271578
9	0x3d84385c	0.06456062
10	0xbd9f2d36	-0.07772295
11	0xbd7c02f0	-0.06152624
12	0xbde364f9	-0.111032434
13	0x3dc86e79	0.09786696
14	0xbcc3f961	-0.023922624
15	0x3be31082	0.006929458
16	0x3e19ddfa	0.15026084
17	0xbd34b49c	-0.044117555
18	0x3d50bcc2	0.050961263
19	0x3d05d4d6	0.03267368
20	0x3d826064	0.06366041
21	0x3c9c5e04	0.019087799
22	0xbd2cb25b	-0.04216228
23	0x3e1038fb	0.14084236
24	0xbe32bc30	-0.174546
25	0x3dcfe5c4	0.10151246
26	0x3d2a7c98	0.041622728
27	0xbd87f4dd	-0.06638501
28	0xbc8225ab	-0.015887102
29	0xbd5c8539	-0.05383799
30	0x3de257bc	0.1105189
31	0xbe0b6b09	-0.1361505

actor.4.weight f4 [4, 32]
0	0xbeb6f780	-0.35735703
1	0xbda9ae8e	-0.08285247
2	0x3f031a6b	0.51212186
3	0x3e467131	0.19379117
4	0xbe8d9e0d	-0.27659646
5	0xbf0388c2	-0.5138055
6	0xbdf2134c	-0.11820087
7	0x3dbad719	0.09123058
8	0x3e455599	0.19270934
9	0xbee13646	-0.4398672
10	0xbe355bec	-0.17710847
11	0x3d175e04	0.036954895
12	0xbf86ced9	-1.0531875
13	0x3deefbd5	0.11669127
14	0x3ef8f5e0	0.48625088
15	0x3e4fa387	0.20277224
16	0x3cece1e7	0.028916312
17	0x3dffee13	0.12496581
18	0x3e932ccb	0.28745112
19	0x3f3957b1	0.7239943
20	0x3db02287	0.086003356
21	0x3ed5a856	0.41729993
22	0x3e150a39	0.14554681
23	0x3f536d0d	0.82588273
24	0xbe674507	-0.22584926
25	0xbe21db8b	-0.15806405
26	0x3beebdda	0.0072858157
27	0x3e45ccb8	0.19316375
28	0xbe237010	-0.15960717
29	0xbec1a0fa	-0.37818128
30	0x3e02eb9e	0.12785193
31	0xbe6c07d6	-0.23049864
32	0xbe2ce421	-0.168839
33	0x3f42adf3	0.76046675
34	0x3eaf4d28	0.34238553
35	0xbec2e2fe	-0.38063806
36	0xbe725494	-0.23665076
37	0x3df66327	0.120306306
38	0xbee17a3e	-0.44038576
39	0xbee8629a	-0.45387727
40	0xbf044136	-0.51662004
41	0x3cc59088	0.02411677
42	0x3f36b08e	0.7136315
43	0x3f964c92	1.1742117
44	0x3dcb47f6	0.09925835
45	0x3eb39463	0.35074148
46	0x3e199da0	0.15001535
47	0xbf38fd72	-0.72261727
48	0x3ee51cc9	0.44748524
49	0xbd10ce50	-0.035353005
50	0x3f2a7e83	0.6659929
51	0x3d17561e	0.036947362
52	0xbe8a147c	-0.26968753
53	0x3e931924	0.28730118
54	0x3f008921	0.5020924
55	0xbceb867a	-0.028750647
56	0xbe5523ce	-0.2081444
57	0x3e2400e4	0.16015965
58	0x3d1cc3c4	0.038272634
59	0xbf1eaf18	-0.6198592
60	0x3f0e50cc	0.55592036
61	0xbe91bd55	-0.2846476
62	0xbeecec8e	-0.46274227
63	0xbefd4f41	-0.49474528
64	0x3d45a3d2	0.048251934
65	0xbc1d26e6	-0.009591794
66	0xbe7857fc	-0.24252313
67	0xbed2c660	-0.41166973
68	0xbe0a5fb1	-0.13513066
69	0x3e04345c	0.12910599
70	0xbea7409c	-0.3266648
71	0xbec67042	-0.3875752
72	0xbe9599ec	-0.29218996
73	0x3d90f4fc	0.07077977
74	0xbe66d15c	-0.22540802
75	0x3e42ac75	0.190111
76	0x3e3ce745	0.18447597
77	0x3e509c4e	0.20372126
78	0x3a41a240	0.0007386543
79	0x3da6ca63	0.08144071
80	0x3e4befe8	0.19915736
81	0xbed08990	-0.40729952
82	0xbe176b56	-0.14787039
83	0xbe894852	-0.2681299
84	0x3c3db29a	0.011578226
85	0x3d09977f	0.033591744
86	0xbea7e346	-0.32790583
87	0xbdbf0366	-0.0932682
88	0xbd6259dd	-0.05526148
89	0x3dbc7378	0.092017114
90	0x3d026f74	0.03184457
91	0xbe91ec7f	-0.28500745
92	0xbd330a96	-0.043711267
93	0x3e20c1fe	0.15699002
94	0x3ee36ada	0.4441746
95	0x3cc7cbfd	0.024389261
96	0xbd31ba59	-0.043390606
97	0xbe2b924d	-0.16755028
98	0x3c10cc55	0.008837779
99	0xbe1e2240	-0.15442753
100	0xbedfad34	-0.4368683
101	0x3e7053ea	0.2346951
102	0xbe942550	-0.28934717
103	0xbde4c644	-0.11170629
104	0xbe08d9a0	-0.13364267
105	0x3eca3f62	0.39501482
106	0xbbdb3249	-0.006689344
107	0x3e5025c9	0.20326914
108	0xbd17bf00	-0.037047386
109	0xbe63634c	-0.22205848
110	0xbed0ffde	-0.4082021
111	0x3df078d2	0.11741795
112	0xbea33a81	-0.31880572
113	0xbf53b979	-0.82704884
114	0x3e292afa	0.165203
115	0x3ba6e055	0.0050926604
116	0xbebcc98d	-0.3687252
117	0xbed978d5	-0.42475
118	0xbeb8c375	-0.36086622
119	0x3dbddaa9	0.09270222
120	0x3ecdcd7c	0.40195835
121	0xbf184e13	-0.5949413
122	0xbf26945a	-0.65070117
123	0x3c7fd4a2	0.01561466
124	0x3e90301e	0.2816171
125	0xbe9ed20e	-0.31019634
126	0x3ee0e13a	0.43921834
127	0xbe421aaf	-0.18955491

actor.4.bias f4 [4]
0	0x3e16d81c	0.14730877
1	0xbde29db8	-0.11065239
2	0x3e55fd2c	0.20897359
3	0xbe466573	-0.19374637

critic.0.weight f4 [64, 24]
0	0x3e4a826b	0.19776313
1	0x3e0db6bf	0.13839243
2	0x3e284566	0.16432723
3	0xbe01f5b2	-0.12691382
4	0xbd8318ee	-0.06401239
5	0xbd935293	-0.07193484
6	0x3d9a79cf	0.075427644
7	0x3dcebd8e	0.100947484
8	0x3e30f052	0.17279175
9	0xbdfa3310	-0.12216771
10	0x3d352f4e	0.044234566
11	0xbd0af7da	-0.033927776
12	0x39ed7ce1	0.00045297205
13	0x3e51f892	0.20504978
14	0xbe1141bb	-0.1418523
15	0xbda2f9e0	-0.07957816
16	0x3d328000	0.0435791
17	0x3dc5de41	0.09661532
18	0xbd481b68	-0.04885426
19	0xbd16cb28	-0.03681484
20	0xbd85be67	-0.06530457
21	0xbbc9e911	-0.006161817
22	0xbe235113	-0.15948896
23	0xbd92e68f	-0.07172882
24	0x3c85e01f	0.01634222
25	0x3e1e7099	0.1547264
26	0x3e083846	0.13302717
27	0x3d400337	0.046878066
28	0xbd8b46ec	-0.06800637
29	0x3e1d2248	0.15345109
30	0xbe2bfacf	-0.16794895
31	0x3d852fe9	0.06503279
32	0x3cce9d60	0.025221527
33	0xbd097c9f	-0.033566114
34	0x3e3b0e00	0.1826706
35	0x3dc3fcfd	0.09569738
36	0x3e39ba77	0.18137537
37	0xbe04dab3	-0.12974052
38	0xbdae2b41	-0.08504344
39	0xbe1e055e	-0.15431735
40	0x3dd1860f	0.10230648
41	0xbe29bc6b	-0.16575782
42	0x3d5e0b39	0.05420992
43	0x3de99d24	0.11406925
44	0x3d1d5266	0.03840866
45	0x3cb49ddd	0.022047931
46	0xbda8a540	-0.08234644
47	0xbd5b7b4b	-0.05358438
48	0xbdcc7d9b	-0.09984895
49	0x3d8ef47b	0.06980225
50	0x3dbd121f	0.09231972
51	0xbd898d8f	-0.06716453
52	0xbe0ca87a	-0.13736144
53	0xbdab48a0	-0.083634615
54	0xbddf16e2	-0.108930364
55	0xbd72e871	-0.059303705
56	0x3e12192c	0.14267415
57	0x3e0a82da	0.13526478
58	0x3e068e49	0.13140215
59	0xbbad433f	-0.0052875574
60	0xbd1866ea	-0.03720752
61	0x3e2107f8	0.15725696
62	0xbe590628	-0.21193755
63	0x3bad70c3	0.0052929833
64	0xbe1dbdc7	-0.15404426
65	0xbdf18cec	-0.11794457
66	0x3dc940a3	0.098267816
67	0xbe3a7e82	-0.18212321
68	0xbdeeafc4	-0.116546184
69	0xbe252d48	-0.16130555
70	0x3e421601	0.18953706
71	0xbd8f64ef	-0.070016734
72	0x3e1cc714	0.15310317
73	0xbddab6c9	-0.10679395
74	0x3e0bb37b	0.13642685
75	0xbdc1355f	-0.09434008
76	0x3d4166ec	0.047217295
77	0x3dbceae7	0.092244916
78	0x3deb6f79	0.11495871
79	0xbdce5b9d	-0.100760676
80	0x3e138f2e	0.14410087
81	0x3e0b5a81	0.13608743
82	0x3d562066	0.05227699
83	0x3d963525	0.07334355
84	0xbd7816c2	-0.06056858
85	0x3da8ba74	0.08238688
86	0x3de5f6da	0.11228724
87	0x3df29431	0.118446715
88	0x3cc40b78	0.02393125
89	0xbe2d852b	-0.16945331
90	0x3e328a06	0.17435464
91	0xbe322b31	-0.17399289
92	0xbe24e665	-0.16103514
93	0x3c3e498e	0.0116142165
94	0x3d0b9a00	0.034082413
95	0x3e0e363e	0.13887879
96	0xbe0ab6e6	-0.13546333
97	0xbbd17866	-0.0063925264
98	0xbdd13271	-0.10214699
99	0xbe693d96	-0.227774
100	0x3e01224f	0.12610744
101	0xbca81acc	-0.02052059
102	0x3deda715	0.11604134
103	0xbd0c54e1	-0.034260634
104	0x3df4df33	0.11956634
105	0xbe0c1663	-0.13680415
106	0x3d25f539	0.040517066
107	0xbd9cd461	-0.076576956
108	0x3b93180c	0.0044889506
109	0xbd338717	-0.043830004
110	0xbe4a2d49	-0.19743837
111	0xbdb55da2	-0.0885575
112	0x3e0bca30	0.13651347
113	0xbe1db9d4	-0.15402919
114	0x3e349225	0.17633875
115	0x3db88866	0.09010391
116	0x3dc248b9	0.09486527
117	0x3e0dbeed	0.13842364
118	0xbe35c3c0	-0.17750454
119	0xb7a2a35e	-1.9387979e-05
120	0xbd15f791	-0.03661305
121	0x3d038ffe	0.032119744
122	0xbe3a1b5c	-0.181745
123	0xbd091876	-0.033470593
124	0x3db2e43c	0.087349385
125	0xbdd9d7bd	-0.10636852
126	0xbbbd3fb4	-0.0057754163
127	0xbd9d4b15	-0.076803364
128	0x3d86cd24	0.06582096
129	0x3d470f4d	0.048598576
130	0x3d8aaff7	0.06771844
131	0xbd6724d2	-0.0564316
132	0xbbd30bd6	-0.00644062
133	0x3df9f475	0.122048296
134	0xbcd4e8c3	-0.025989896
135	0x3d4ff2f5	0.05076881
136	0x3d927c5f	0.07152628
137	0x3d91037e	0.07080744
138	0xbe56fd03	-0.20994954
139	0xbe09a6d9	-0.13442554
140	0xbd1c8f02	-0.03822232
141	0xbd31e0ae	-0.043427162
142	0x3e287097	0.164492
143	0x39edbbc4	0.0004534406
144	0xbd5d1d25	-0.053982873
145	0xbe021c7e	-0.12706181
146	0xbdd663c8	-0.104682505
147	0x3dda9cb3	0.10674419
148	0x3e07f32c	0.13276356
149	0x3df3c09d	0.119019724
150	0xbcc9dca4	-0.024641342
151	0xbb706c21	-0.0036685544
152	0x3dffdb10	0.12492955
153	0xbd269b06	-0.040675186
154	0x3dad3c40	0.084587574
155	0x3ccab1f3	0.024743056
156	0x3d70e2b6	0.05880996
157	0xbe39f96f	-0.18161558
158	0xbdbb0797	-0.09132307
159	0xbe3c87a8	-0.18411124
160	0x3e1670a6	0.1469141
161	0x3dd6e7e2	0.10493447
162	0xbd9d5402	-0.07682039
163	0xbe1e0e37	-0.1543511
164	0xbe0477ac	-0.12936276
165	0x3e0f874d	0.14016457
166	0x3e00496c	0.12528008
167	0x3d7e5059	0.062088344
168	0xbe109839	-0.14120568
169	0x3dde0f46	0.10842757
170	0x3c7fea10	0.01561977
171	0x3c516bae	0.0127820205
172	0x3e324e90	0.17412782
173	0x3d1bb41d	0.038013566
174	0xbdc9c33f	-0.09851693
175	0xbcbbbcfa	-0.02291726
176	0xbe24ed06	-0.16106042
177	0x3e1a5780	0.15072441
178	0x3d9fe2f6	0.07806961
179	0x3da38561	0.079844244
180	0x3d981523	0.074259065
181	0x3dd51d9d	0.10406039
182	0xbdf5eb53	-0.12007775
183	0x3e1c9a4e	0.15293238
184	0xbe4ee187	-0.2020322
185	0x3d740870	0.05957836
186	0xbd5424df	-0.051792976
187	0x3bfc7cfb	0.0077053285
188	0x3d8c0479	0.068367906
189	0xbe5be01b	-0.21472208
190	0xbd54968c	-0.051901385
191	0x3dc0a1b5	0.09405843
192	0xbe0c0982	-0.13675502
193	0x3dafbf78	0.08581442
194	0xbe2ec35a	-0.17066708
195	0x3d336a92	0.043802805
196	0xbd0bfe54	-0.034178093
197	0x3cef6b66	0.029226016
198	0xbdd608f3	-0.10450926
199	0x3da50f04	0.08059505
200	0xbdf0b85d	-0.117539145
201	0x3dd82f4f	0.105558984
202	0xbd26f73f	-0.040763136
203	0x3dd747b4	0.10511723
204	0xbe3c23be	-0.1837301
205	0xbb54a034	-0.0032444121
206	0xbdae3827	-0.08506804
207	0xbd624681	-0.05524302
208	0x3c944a7f	0.018101929
209	0xbe1d2ba4	-0.15348679
210	0xbe19e1be	-0.1502752
211	0x3e03f63e	0.12886903
212	0x3d21694a	0.039407052
213	0x3df3d82c	0.11906466
214	0xbe3818d7	-0.17978226
215	0xbe06d37b	-0.13166611
216	0x3d3488f0	0.044075906
217	0x3ce675f7	0.028132422
218	0x3c9d3cb9	0.019193994
219	0x3db35bfd	0.0875778
220	0x3d617cc0	0.05505061
221	0x3d7fd6cb	0.062460702
222	0xbda2b5d2	-0.07944836
223	0xbc227e6d	-0.009917838
224	0x3e17429c	0.14771503
225	0x3bad282e	0.005284331
226	0x3cab608d	0.020920062
227	0x3da1c9d1	0.078998215
228	0xbd9c6baa	-0.07637723
229	0xbe528994	-0.20560294
230	0xbe59542a	-0.21223512
231	0xbe0cd5ed	-0.13753481
232	0x3d77ecd5	0.060528595
233	0xbd3cde02	-0.04611016
234	0xbdaff796	-0.08592145
235	0xbe267d09	-0.16258635
236	0x3d265554	0.04060872
237	0xbc94a821	-0.018146576
238	0x3dd6305e	0.10458444
239	0x3d868b0d	0.065694906
240	0xbe8b6c40	-0.27231026
241	0xbc0da17a	-0.008644456
242	0xbe5a984f	-0.21347164
243	0x3dd4fafe	0.103994355
244	0xbde9a2e8	-0.11408025
245	0xbc238716	-0.0099809375
246	0xbd5389e1	-0.051645163
247	0x3d90e5e6	0.070751
248	0xbd7aeb3c	-0.061259493
249	0x3dd169fe	0.102252945
250	0x3de00205	0.10937885
251	0xbe0771e2	-0.13227037
252	0xbd54286d	-0.051796366
253	0xbe382bd9	-0.17985477
254	0x3e0b7c54	0.13621646
255	0xbe146ab0	-0.14493823

critic.0.bias f4 [64]
0	0x3e46d2f5	0.19416411
1	0x3d9ff2b9	0.078099675
2	0xbdfe132a	-0.12405999
3	0xbe2adbc4	-0.16685396
4	0x3e412fcd	0.18865891
5	0xbc2d9ae5	-0.010596012
6	0x3ddceb98	0.107871234
7	0x3e361e4c	0.17784995
8	0xbcb8974f	-0.022533087
9	0x3d4423a7	0.047885563
10	0x3dddbcc9	0.108270235
11	0xbe3a364e	-0.18184778
12	0xbd36edbb	-0.04466031
13	0x3dfec8cf	0.12440645
14	0xbcd3c4b6	-0.025850635
15	0xbb9c07a3	-0.0047616526
16	0xbca122d6	-0.019669931
17	0xbc7333e6	-0.0148439165
18	0xbe259bd9	-0.16172732
19	0xbd5dccad	-0.054150272
20	0x3b4ae438	0.0030958783
21	0xbdb4230d	-0.08795748
22	0xbe1b6ed7	-0.15179001
23	0xbcb8def6	-0.022567254
24	0x3e6040c5	0.21899708
25	0xbd513df9	-0.051084492
26	0x3db27735	0.08714143
27	0xbdcd231c	-0.10016462
28	0x3b1a3f43	0.0023536242
29	0xbe0c272b	-0.13686816
30	0xbd4bd4cd	-0.04976349
31	0x3e28e0bd	0.16491981
32	0xbcc14ed1	-0.023597153
33	0x3cddda0e	0.027081516
34	0x3d739d13	0.05947597
35	0xbe460b96	-0.19340357
36	0xbe08763c	-0.13326353
37	0xbd291a63	-0.04128493
38	0xbe1f4754	-0.15554553
39	0xbbbe21c1	-0.0058023636
40	0x3db86e80	0.09005451
41	0x3c8705d1	0.016482266
42	0xbe376c79	-0.17912473
43	0xbe13b55a	-0.14424649
44	0xbe091e68	-0.13390505
45	0xbe45dcca	-0.19322506
46	0xbe1c673d	-0.15273757
47	0x3c159171	0.009128914
48	0x3dece564	0.1156719
49	0x3dbadd04	0.09124187
50	0xbdc4fbd1	-0.09618343
51	0xbe2c28ef	-0.1681249
52	0x3dcef33f	0.10104989
53	0x3de6509a	0.11245842
54	0x3dc0b423	0.09409358
55	0xbd7be8ab	-0.061501186
56	0x3e28e2b9	0.16492738
57	0xbd293691	-0.041311804
58	0xbe37442e	-0.17897102
59	0x3d47d3bc	0.04878591
60	0xbe127c9d	-0.14305349
61	0x3d4e4aa4	0.05036415
62	0xbe185ade	-0.14878413
63	0xbdae876a	-0.08521922

critic.2.weight f4 [32, 64]
0	0x3d9598a1	0.07304502
1	0xbd9f5df9	-0.07781596
2	0xbd8d7665	-0.069073476
3	0xbccbde84	-0.024886377
4	0x3d616ca8	0.055035263
5	0xbd950324	-0.0727599
6	0xbdc02c7f	-0.09383487
7	0xbd1f290d	-0.03885751
8	0x3dbf40ee	0.09338556
9	0x3dc33861	0.09532238
10	0xbdf6eae0	-0.120565176
11	0x3ccda1ce	0.025101569
12	0xbd8f2770	-0.06989944
13	0xbe064230	-0.13111186
14	0xbd1f25d7	-0.038854446
15	0x3e04ede4	0.12981373
16	0xbce4958c	-0.02790334
17	0xbc945d38	-0.018110856
18	0xbddf098b	-0.10890492
19	0x3db9997c	0.09062478
20	0x3dbe77e0	0.09300208
21	0x3da926bb	0.082593404
22	0xbdcf7311	-0.10129369
23	0xbd21d32c	-0.03950803
24	0x3dc08a36	0.09401362
25	0x3dd0a216	0.101871654
26	0xbd99dc40	-0.075127125
27	0x3dba77f5	0.09104911
28	0x3d4ee642	0.05051256
29	0xbdcfd795	-0.10148541
30	0x3da4676e	0.0802754
31	0xbc20e459	-0.009820067
32	0x3c7cf220	0.0154385865
33	0xbd51859a	-0.051152803
34	0x3cb25bb1	0.021772237
35	0xbd973fb6	-0.07385199
36	0xbc9375f0	-0.018000573
37	0xbca08a74	-0.01959727
38	0xbdccebdb	-0.10005923
39	0x3dcdf71b	0.10056897
40	0xbdb55b0e	-0.08855258
41	0x3d82b2ac	0.06381735
42	0x3b7de016	0.0038738302
43	0x3aa2ba89	0.0012415211
44	0x3d21fdc4	0.03954865
45	0x3db78344	0.08960584
46	0xbe00d940	-0.12582874
47	0x3d723c5c	0.059139594
48	0xbd8d6054	-0.06903139
49	0x3dd74c77	0.105126314
50	0xbd9e59ea	-0.077319935
51	0x3da35525	0.079752244
52	0xbdf4944f	-0.1194235
53	0xbc0514d6	-0.008122643
54	0x3d4bec7b	0.049786072
55	0x3e05d5b5	0.13069804
56	0x3de028a9	0.10945255
57	0xbd889a39	-0.06670041
58	0xbdd7d2df	-0.10538267
59	0x3cebbb09	0.028775709
60	0x3dcf10dd	0.10110638
61	0xbd50628e	-0.05087524
62	0xbd44aa84	-0.04801418
63	0xbd8af9fd	-0.06785963
64	0x3da993c8	0.0828014
65	0xbcbed68c	-0.023295663
66	0x3dc3e78d	0.09565649
67	0xbcc9581f	-0.024578152
68	0x3dc842be	0.09778355
69	0x3c6c364b	0.014417241
70	0xbd6b0092	-0.05737359
71	0x3c750694	0.014955182
72	0xbdb349d7	-0.08754318
73	0xbda6280b	-0.08113106
74	0x3cb9e30a	0.022691268
75	0xbdba1c70	-0.09087455
76	0x3de05e09	0.10955436
77	0x3ddf22d0	0.10895312
78	0x3dab15ec	0.08353791
79	0xbc046fca	-0.008083293
80	0x3d96dedb	0.07366725
81	0x3d9374e3	0.07200029
82	0xbd0b5532	-0.034016795
83	0x3cd29532	0.025705907
84	0xbbe0577c	-0.0068463665
85	0xbd414079	-0.047180627
86	0xbd7c677f	-0.06162214
87	0x3dd6d774	0.10490313
88	0xbd869316	-0.06571023
89	0xbd18644b	-0.03720502
90	0xbda7f91b	-0.0820181
91	0x3db07291	0.08615602
92	0xbdc92970	-0.09822357
93	0xbd56b809	-0.052421603
94	0x3bd3be16	0.006461869
95	0x3d454992	0.048165865
96	0xbde1dbb5	-0.11028234
97	0xbdb46c6c	-0.08809742
98	0xbdc7a458	-0.09748143
99	0x3db90893	0.090348385
100	0x3d800119	0.06250209
101	0xbd15639c	-0.036471948
102	0x3cd7e218	0.026352927
103	0x3deee3bb	0.1166453
104	0x3d5f0b09	0.054453883
105	0x3d4f6084	0.050629154
106	0x3d56d9dc	0.05245386
107	0xbdf4e2b8	-0.11957306
108	0x3da1537e	0.07877253
109	0xbdeeedee	-0.11666475
110	0x3dbef8b4	0.0932478
111	0x3d1a7572	0.03770966
112	0xbdde4094	-0.10852161
113	0xbca3fbdd	-0.020017559
114	0xbd5a8bc1	-0.053355936
115	0xbde4c3ce	-0.11170159
116	0xbde527df	-0.111892454
117	0x3d2c8d92	0.0421272
118	0xbd3a6528	-0.045506626
119	0x3c3e06c2	0.011598291
120	0x3dc8af2a	0.09799035
121	0xbd7ab2f4	-0.06120582
122	0xbd8a4b76	-0.06752674
123	0x3d907ba4	0.070548326
124	0xbcdf753d	-0.027277583
125	0xbd43bd39	-0.04778788
126	0xbd98d22f	-0.07461964
127	0x3d391245	0.04518344
128	0x3d66b7a4	0.056327477
129	0xbd84dd54	-0.064875275
130	0x3e0338a9	0.12814583
131	0xbd2555a0	-0.04036486
132	0xbbaec945	-0.005334052
133	0xbc9b0065	-0.018921087
134	0x3d048722	0.032355435
135	0x3d4259c7	0.0474489
136	0xbd12b4f7	-0.035817113
137	0xbde0061d	-0.10938666
138	0x3d9efaa8	0.07762653
139	0xbded5980	-0.115893364
140	0xbc2b89f6	-0.010469904
141	0x3db64ec7	0.08901744
142	0x3d41eb72	0.04734368
143	0x3d7c9096	0.061661325
144	0x3d165b9c	0.03670846
145	0xbd4a72b8	-0.04942581
146	0xbd335d6b	-0.043790262
147	0xbd8c8b8d	-0.06862555
148	0x3cc7f19e	0.024407204
149	0xbcf0a02b	-0.029373249
150	0xbd8266dc	-0.06367275
151	0x3c9e8f5f	0.019355474
152	0x3db5abf4	0.08870688
153	0xbd32bf8f	-0.043639716
154	0x3d1911ae	0.037370376
155	0x3cb74ff9	0.022377001
156	0x3de19aaa	0.11015828
157	0xbd23f98b	-0.040032905
158	0x3d0648e6	0.032784365
159	0x3ce229c4	0.027607806
160	0x3dbdd89d	0.09269831
161	0xbe1410b8	-0.14459503
162	0x3d8f9153	0.0701014
163	0x3ba66729	0.0050782156
164	0xbd9a7e0d	-0.075435735
165	0x3d6f1cac	0.058376953
166	0xbd0d58e9	-0.03450862
167	0xbd0e5e70	-0.03475803
168	0xbd081c1c	-0.033229932
169	0xbdd47197	-0.10373228
170	0x3d7a4037	0.061096396
171	0xbdb22340	-0.0869813
172	0xbcd55e1d	-0.026045853
173	0x3cb85378	0.022500739
174	0xbcf623fc	-0.030046456
175	0x3c61ce5a	0.013782108
176	0x3b21c3a2	0.0024683257
177	0x3d820388	0.0634833
178	0x3d805bd2	0.06267513
179	0x3d8179c3	0.06322052
180	0x3ddc0f8e	0.10745154
181	0x3c9932d3	0.018700993
182	0xbc23381c	-0.009962108
183	0xbdf184ef	-0.11792933
184	0xbc016db6	-0.007899692
185	0xbc18ea01	-0.009333135
186	0x3dcfa6a5	0.10139207
187	0x3dca932d	0.09891353
188	0x3d3d5c74	0.04623075
189	0xbd102433	-0.035190772
190	0x3d8df116	0.06930749
191	0x3d8fb2c6	0.0701652
192	0xbca6f4ee	-0.020380463
193	0x3d994ba9	0.07485134
194	0x3c81aa04	0.01582814
195	0xbdccf9a3	-0.10008552
196	0x3d3935c8	0.045217305
197	0xbd6f44ee	-0.058415346
198	0xbd40cfb0	-0.047073066
199	0x3d86a0eb	0.065736614
200	0x3ca81de8	0.020522073
201	0xbdcee78e	-0.10102759
202	0x3d0744cf	0.033024605
203	0xbc930b0c	-0.017949603
204	0x3d2db355	0.042407352
205	0xbd42fe17	-0.0476056
206	0xbd0445d7	-0.032293167
207	0xbdd6d90f	-0.104906194
208	0x3c3b6f79	0.011440151
209	0xbcfef553	-0.03112284
210	0xbda9971b	-0.08280774
211	0xbdfca568	-0.12336236
212	0xbdb42f86	-0.08798127
213	0x3dd9c06a	0.10632403
214	0xbe099907	-0.13437282
215	0xbdaba1ec	-0.083804935
216	0x3dc73511	0.097269185
217	0x3d365687	0.044516113
218	0x3c8bb49f	0.0170539
219	0x3dfb75db	0.122783385
220	0x3dee3cbc	0.11632678
221	0x3dc6c865	0.09706191
222	0x3d80b727	0.062849335
223	0xbd1e55b2	-0.038655944
224	0xbdb9fbce	-0.09081231
225	0x3da10a8f	0.07863342
226	0xbde8e956	-0.1137263
227	0xbda7f820	-0.08201623
228	0xbdb9aac5	-0.09065775
229	0x3e0e0430	0.13868785
230	0xbd39d451	-0.045368496
231	0x3dc6c5e7	0.097057156
232	0xbdbd8a87	-0.092549376
233	0x3cc1f474	0.023676135
234	0x3dbcfdac	0.092280716
235	0x3d473411	0.04863364
236	0x3db5de78	0.08880323
237	0xbdc8ae36	-0.09798853
238	0x3da8b1a1	0.08237005
239	0x3dca2605	0.09870533
240	0xbd7cb77a	-0.061698414
241	0x3d892758	0.06696957
242	0x3de446ea	0.11146338
243	0x3de64261	0.112431295
244	0xbd932d1e	-0.0718634
245	0x3cbb86c0	0.022891402
246	0xbd61416d	-0.054994036
247	0xbd5e640b	-0.054294627
248	0xbd3018dc	-0.042992458
249	0x3cc8dc07	0.02451898
250	0x3e036d43	0.12834649
251	0xbd7e5b25	-0.06209864
252	0xbcd07226	-0.025445055
253	0xbdab9b53	-0.08379235
254	0x3d8a5861	0.06755138
255	0x3d53909a	0.051651575

critic.2.bias f4 [32]
0	0xbd246400	-0.04013443
1	0x3c6ba138	0.014381699
2	0xbdd77ca1	-0.10521818
3	0x3c3e00e6	0.011596894
4	0x3d9a5cf9	0.075372644
5	0xbd7ec4e5	-0.062199492
6	0x3cfe46b8	0.03103958
7	0xbdd54ad7	-0.10414665
8	0xbc9d2aa2	-0.019185368
9	0x3d976ace	0.07393418
10	0x3d8aaa40	0.06770754
11	0x3d78c4df	0.060734626
12	0x3de858a6	0.11345033
13	0xbdb32ee6	-0.087491795
14	0x3da6a08a	0.08136089
15	0x3d2a598f	0.041589316
16	0xbdb76259	-0.08954305
17	0xbd49d9e5	-0.049280066
18	0xbd12b44b	-0.035816472
19	0x3d9a023a	0.07519956
20	0x3d8a48e9	0.06752188
21	0x3d32042b	0.043461006
22	0x3aa6e684	0.0012733494
23	0xbd639a5e	-0.055567138
24	0x3e0eebf9	0.13957204
25	0xb9c8ce20	-0.00038300548
26	0x3da2dc16	0.07952134
27	0x3d84110d	0.06448565
28	0xbc12959b	-0.008946802
29	0x3de34164	0.11096457
30	0xbcfd6454	-0.03093163
31	0x3df7afed	0.12094102

critic.4.weight f4 [1, 32]
0	0x3d41f25b	0.04735027
1	0x3d9413cd	0.07230339
2	0xbe0421c7	-0.1290351
3	0xbd3570c3	-0.04429699
4	0x3d983845	0.074326076
5	0x37ec9ba6	2.8205872e-05
6	0x3dc98238	0.098392904
7	0x3e019f5b	0.12658446
8	0x3a2244b3	0.00061900466
9	0x3e127c0b	0.14305131
10	0x3da33d29	0.0797065
11	0xbd9f53aa	-0.077796295
12	0xbc5a9ad3	-0.013342577
13	0xbd239d60	-0.039945006
14	0x3c861fcc	0.016372584
15	0xbdf24ea7	-0.11831408
16	0x3dfe297e	0.12410258
17	0xbdbfe71b	-0.09370252
18	0xbd160955	-0.036629993
19	0x3d335b65	0.043788332
20	0xbc705751	-0.014669255
21	0xbdaa3773	-0.08311357
22	0xbca9e327	-0.020738197
23	0xbd85b243	-0.06528141
24	0xbd1bbe26	-0.038023137
25	0x3db64567	0.08899956
26	0xbc5d82df	-0.013519972
27	0xbca891d8	-0.020577356
28	0x3dd818f3	0.10551634
29	0xbdf159b6	-0.11784689
30	0x3e0d95cb	0.13826673
31	0xbdb703f3	-0.089363
