Policy Gradient/walker_ppo_model_old_10200.pth (torch, 34325 bytes, 11 tensors)

actor.0.weight f4 [64, 24]
-0.11925159 0.36767936 -0.06488357 0.7521949 -0.16157123 -0.07595196 0.7043159 -0.16274488
-0.22470751 -0.13046695 0.04337029 -0.21727188 0.058230612 0.024562325 0.2201708 0.17477655
0.03314887 -0.040220436 0.18063304 -0.14841083 0.052283634 0.15889868 0.14001974 0.033490654
-0.019778438 0.08709066 0.2002386 0.1236722 0.24210595 0.17714927 0.69899845 -0.1434
-0.1792451 -0.05274046 0.17342159 0.09805121 -0.04122865 0.07424335 0.12789372 0.08758787
-0.03733233 0.10919413 -0.10359738 0.048005003 0.035752386 -0.05231311 0.006653473 0.12613937
-0.045733064 -0.4382306 0.00096695067 -0.509913 -0.15148106 0.078608245 0.4526327 0.10125688
-0.2025581 0.13127288 -0.16163997 0.37167555 -0.13418664 0.20243943 -0.24654353 -0.23348963
-0.21881847 0.02341026 -0.23510535 0.102636576 -0.054044053 -0.15287231 -0.19086348 -0.051663425
-0.21858448 -0.2737965 -0.1347082 -0.26190567 -0.3782458 -0.14196257 -0.010092452 -0.12427879
-0.05717364 0.10815914 0.055262968 -0.031766865 0.085383825 0.0045872754 -0.1825998 -0.2668313
-0.18210077 0.05733419 -0.0808851 0.043501794 0.012545917 -0.17883967 0.12740996 0.045019984
-0.16904837 -0.24822329 -0.18046884 -0.47763783 0.145801 0.01713518 -0.4410639 -0.060090825
-0.058445957 -0.008271354 -0.029698301 0.43624628 0.17865035 0.19519095 0.08739503 0.083382994
-0.2054867 -0.012946485 -0.084918864 -0.039744955 0.04341534 -0.13740115 -0.16135557 0.06990782
0.1012806 -0.14551105 0.04726694 -0.24855988 0.061365973 -0.01805468 0.46856713 -0.0564319
0.13145106 -0.07082575 0.0015660574 0.11376746 -0.1279149 0.2257482 -0.041188765 -0.14281851
-0.009699176 0.14570671 -0.12799254 -0.1550365 -0.047824696 0.04973873 -0.11849923 -0.010302496
-0.073316544 -0.27592894 0.04574851 -0.47458544 -0.24485649 0.170323 0.24264792 0.064165734
0.064411 0.13042198 0.12550054 0.2997525 0.14400265 0.099866785 -0.039057974 0.010314838
0.067990646 0.05024663 -0.19641212 0.04662372 -0.12775216 -0.07430255 -0.19487767 -0.078421496
-0.087910876 0.24247195 0.15853615 0.62868613 0.22688827 -0.007859892 0.47571632 -0.027756482
-0.024497226 -0.01108849 -0.08943466 -0.33965862 -0.12761405 0.027897472 0.2225051 0.12292827
0.12989086 0.03608101 0.06397582 -0.04392952 0.13225459 0.14615782 0.095388845 -0.20323864
-0.057001323 -0.24144325 -0.26325372 -0.3752644 0.2755484 -0.056286775 -0.57170033 0.014628015
0.2481609 -0.012786311 -0.02841912 0.16559587 -0.06661173 -0.15574431 0.16418284 0.020526357
-0.01965008 -0.06976699 0.032111164 0.15277147 0.14600925 -0.051973995 -0.12430682 0.17664337
-0.103546076 -0.09155196 -0.22456484 -0.5653523 -0.18629473 -0.030590806 -0.70310336 -0.05736893
0.097846106 0.15215607 0.101427905 -0.20763177 0.08614935 0.08765432 -0.048398137 -0.16786943
0.08749202 -0.17421035 -0.041169796 -0.2823312 -0.075016096 -0.13251281 0.041017175 0.10841756
-0.017428866 0.4370733 0.09789813 0.38270113 0.17986052 -0.058117073 0.18580237 -0.0077052517
-0.05080891 -0.07307012 0.20524189 -0.40661988 0.1185976 -0.08587536 -0.035638154 0.07068534
00000000: 2d3a f4bd 7840 bc3e ade1 84bd d88f 403f
00000010: ee72 25be b48c 9bbd 0c4e 343f 98a6 26be
00000020: ba19 66be 2199 05be 0ca5 313d 857c 5ebe
00000030: 3983 6e3d ee36 c93c 7474 613e a0f8 323e
00000040: 1cc7 073d 2fbe 24bd def7 383e 02f9 17be
00000050: 5d27 563d 56b6 223e 5661 0f3e 7f2d 093d
00000060: 6406 a2bc 975c b23d 590b 4d3e da47 fd3d
00000070: 9fea 773e 9e66 353e 90f1 323f 73d7 12be
00000080: 078c 37be 6106 58bd 6e95 313e 13cf c83d
00000090: 5fdf 28bd e60c 983d 92f6 023e 4561 b33d
000000a0: c9e9 18bd 2ca1 df3d dd2a d4bd e5a0 443d
000000b0: 1871 123d 4646 56bd 6005 da3b ae2a 013e
000000c0: 9852 3bbd c35f e0be f67a 7d3a a989 02bf
000000d0: da1d 1bbe 5cfd a03d 79bf e73e c45f cf3d
000000e0: 646b 4fbe 666c 063e f384 25be 424c be3e
000000f0: 3968 09be 484c 4f3e e875 7cbe e817 6fbe
00000100: f311 60be e0c6 bf3c 75bf 70be 2033 d23d
00000110: 4c5d 5dbd 8f8a 1cbe b771 43be 079d 53bd
00000120: 9cd4 5fbe 0e2f 8cbe f2f0 09be 8018 86be
00000130: 6fa9 c1be a35e 11be d05a 25bc e185 febd
00000140: e82e 6abd 8a82 dd3d 6c5b 623d f91d 02bd
00000150: b7dd ae3d db50 963b 71fb 3abe 1d9e 88be
00000160: a078 3abe 41d7 6a3d 16a7 a5bd f02e 323d
00000170: 648d 4d3c bf21 37be c277 023e e066 383d
00000180: 041b 2dbe 3f2e 7ebe d3cc 38be f28c f4be
00000190: db4c 153e 145f 8c3c 21d3 e1be cc21 76bd
000001a0: 0765 6fbd 9384 07bc da49 f3bc ac5b df3e
000001b0: 1ef0 363e 23e0 473e 2afc b23d b4c4 aa3d
000001c0: 1b6b 52be 7e1d 54bc f1e9 adbd 9bcb 22bd
000001d0: 49d4 313d e3b2 0cbe 653a 25be d52b 8f3d
000001e0: 346c cf3d d900 15be fb9a 413d 7b86 7ebe
000001f0: e35a 7b3d 69e7 93bc 08e8 ef3e 2325 67bd
00000200: 1b9b 063e 170d 91bd 2b44 cd3a eafe e83d
00000210: 20fc 02be 892a 673e 8db5 28bd 043f 12be
00000220: 4be9 1ebc 2434 153e 7a10 03be e3c1 1ebe
00000230: d4e3 43bd d7ba 4b3d b9af f2bd cdcb 28bc
00000240: fc26 96bd 8f46 8dbe ca62 3b3d ddfc f2be
00000250: a9bb 7abe 2769 2e3e b278 783e 5369 833d
00000260: eae9 833d 578d 053e 3783 003e 2979 993e
00000270: 6e75 133e f586 cc3d 41fb 1fbd 91ff 283c
00000280: ae3e 8b3d 69cf 4d3d 4220 49be 84f8 3e3d
00000290: 76d1 02be ef2b 98bd 038e 47be 739b a0bd
000002a0: 9e0a b4bd 914a 783e 4d57 223e 93f1 203f
000002b0: 6655 683e c7c6 00bc 1791 f33e 9061 e3bc
000002c0: 68ae c8bc 7fac 35bc 8529 b7bd bce7 adbe
000002d0: 42ad 02be 3d89 e43c 60d8 633e d1c1 fb3d
000002e0: 1c02 053e aec9 133d c105 833d 71ef 33bd
000002f0: bf6d 073e 65aa 153e 3a5b c33d ca1d 50be
00000300: 387a 69bd e63c 77be 31c9 86be a822 c0be
00000310: ae14 8d3e f68c 66bd f45a 12bf 58aa 6f3c
00000320: e41d 7e3e ad7d 51bc 37cf e8bc f791 293e
00000330: bb6b 88bd 707b 1fbe 8c1f 283e e426 a83c
00000340: 34f9 a0bc ffe1 8ebd ff86 033d 2070 1c3e
00000350: 7383 153e afe2 54bd 9394 febd 00e2 343e
00000360: f70f d4bd 987f bbbd 53f4 65be eeba 10bf
00000370: 0cc4 3ebe 9299 fabc 95fe 33bf affb 6abd
00000380: 8a63 c83d cdce 1b3e 6fb9 cf3d 6c9d 54be
00000390: 126f b03d 1c84 b33d 203d 46bd f7e5 2bbe
000003a0: 042f b33d 3364 32be a9a1 28bd b78d 90be
000003b0: 0aa2 99bd 70b1 07be a001 283d 070a de3d
000003c0: fbc6 8ebc 12c8 df3e d17e c83d 67f1 c33e
000003d0: 5b2d 383e 2b0c 6ebd fa42 3e3e 567c fcbb
000003e0: 011d 50bd c9a5 95bd ee2a 523e 7b30 d0be
000003f0: 4ce3 f23d 6cdf afbd 50f9 11bd 7ac3 903d

actor.0.bias f4 [64]
-0.17234682 -0.15569597 0.24597332 -0.00813918 0.2648893 -0.1146732 -0.15506022 -0.067387335
-0.17754206 0.14890632 -0.1401649 0.0184019 -0.10665881 -0.009980914 -0.041407943 -0.023684144
-0.06081044 -0.107974485 0.14865963 0.11852134 -0.06302238 0.10596627 0.21640447 -0.08081479
-0.18890421 0.14386317 -0.028530618 -0.19324307 -0.14902458 -0.22131048 0.1619549 -0.110395215
-0.1608536 0.14768137 -0.18478703 -0.16173801 -0.096300334 -0.008507579 0.08702226 0.1625737
0.16814376 0.13586551 0.11383867 0.02883774 0.14286004 -0.011892842 0.08508053 -0.062353764
0.05349701 -0.063399374 -0.17874612 0.059186477 0.04844705 0.07061145 -0.1308719 0.14093348
0.11825477 0.16131751 -0.09597473 -0.0020295877 0.09616494 -0.006006533 -0.051964305 0.17661498
00000000: af7b 30be c46e 1fbe 6ee0 7b3e 325a 05bc
00000010: 929f 873e c8d9 eabd 1bc8 1ebe 5f02 8abd
00000020: 96cd 35be e67a 183e 6387 0fbe 95bf 963c
00000030: ef6f dabd fd86 23bc 609b 29bd 4005 c2bc
00000040: 5e14 79bd ba21 ddbd 3b3a 183e 51bb f23d
00000050: e111 81bd d804 d93d 2299 5d3e 3a82 a5bd
00000060: 1b70 41be de50 133e 0bb9 e9bc 83e1 45be
00000070: e699 18be 379f 62be 81d7 253e e316 e2bd
00000080: ceb6 24be c939 173e d038 3dbe a69e 25be
00000090: 1c39 c5bd 5f63 0bbc ba38 b23d b879 263e
000000a0: e12d 2c3e 5420 0b3e 4024 e93d 203d ec3c
000000b0: e749 123e 32da 42bc b33e ae3d a966 7fbd
000000c0: ae1f 5b3d 88d7 81bd 3909 37be 856d 723d
000000d0: 6a70 463d bc9c 903d 4903 06be de50 103e
000000e0: 8f2f f23d 6b30 253e 668e c4bd d502 05bb
000000f0: 20f2 c43d 73d2 c4bb 86d8 54bd 8fda 343e

actor.2.weight f4 [32, 64]
0.17110945 0.13999084 -0.017612072 -0.19881018 -0.0017067273 0.1360888 0.14241275 0.11757426
0.1602636 -0.2404215 0.2619638 0.1461453 0.063545175 0.025605865 0.13814257 -0.070099324
0.063942 0.329487 0.17547078 -0.0957654 0.30877152 -0.29851142 -0.3970993 0.07902792
0.05257959 0.045554742 0.12632257 0.0491712 0.1114372 0.14584859 0.023074277 0.0565886
0.17851536 0.030561375 0.06357453 0.14514995 -0.016021011 -0.1251093 -0.03795838 -0.23276007
-0.1745514 -0.12155982 -0.1158415 -0.17622855 0.014504567 0.23257941 -0.047493234 -0.12383261
0.026948385 0.024113264 0.2731706 -0.2660087 0.052284278 -0.04867367 -0.0930443 -0.0653353
-0.07872836 -0.11352192 -0.01708637 0.048316088 -0.24258444 -0.14521225 -0.06579297 -0.2237028
-0.5769305 -0.18850166 -0.025454883 -0.09133214 0.34403726 0.008723911 -0.040324327 -0.3912428
0.30896214 0.19251195 -0.1396545 0.12514254 -0.10450091 0.41831097 -0.30978578 -0.15963247
-0.13735911 0.09509957 -0.13984017 -0.26055294 -0.1773306 -0.31019074 -0.05178233 -0.23107159
-0.0036951771 0.023661124 0.052612565 -0.011341261 -0.19423778 0.0023770006 -0.026942747 -0.0051411823
-0.16318998 0.114040256 -0.22387601 -0.029721415 -0.10347311 -0.06065332 -0.1941413 0.314887
0.16177887 -0.01599843 0.15556887 0.04581262 -0.08747642 -0.12008442 0.24878436 -0.038455874
-0.1921451 0.019718967 -0.132535 0.06063683 0.052238014 0.0876174 -0.50043243 0.058712307
0.18518227 0.017142313 -0.027904155 0.08401213 -0.03412665 -0.0070552924 -0.05390473 0.37359047
-0.1919125 -0.082800254 0.18376453 0.17156498 0.03510441 -0.030267095 0.13058332 -0.32380608
-0.026541514 0.09899979 -0.15156515 -0.207561 -0.21857864 -0.016588332 -0.09620427 -0.12828945
-0.22834489 -0.13189368 -0.032609276 0.21276768 -0.16485563 0.23307921 0.2616185 -0.033918235
0.034846704 0.034710426 -0.018429793 -0.158945 -0.04524641 -0.08983316 -0.0058396244 -0.2361863
-0.040223338 0.10902342 0.08923253 -0.20325433 0.033087287 0.07892455 -0.036920268 0.244602
0.13523065 0.32193545 0.072277784 -0.11450541 0.14090212 -0.45579147 -0.03239004 0.2494943
0.025277762 -0.018526234 -0.16218172 0.04012163 -0.1855416 0.15036279 0.112037666 0.11950819
-0.014733443 0.019868212 0.075522564 0.008040183 0.15977943 -0.0028903147 0.096741185 0.28780973
0.052990854 0.28877625 0.42011714 0.080376945 -0.18133385 0.17656183 0.2298542 -0.052291144
-0.23582204 -0.25023246 -0.15854637 -0.1473345 -0.023738798 -0.16034062 0.115388 0.16071953
0.01891923 -0.3260595 0.12093964 0.42676598 0.016466111 0.13718247 0.055227067 -0.06046116
0.16124208 -0.01268844 0.01907972 -0.01147374 0.16395484 0.06580966 -0.36652428 -0.58172846
-0.025629848 0.24439298 0.12884274 -0.106718116 0.05154073 -0.057481144 0.17362897 -0.18694636
0.19828235 0.074668065 -0.00914522 -0.05718126 0.29389277 -0.045730956 0.1642099 0.20861472
0.33176732 0.14257888 -0.43739006 0.1545218 -0.19206816 -0.13968764 -0.0330888 -0.18780357
0.0045668217 0.1961075 0.113884784 0.09345017 0.24677981 0.072068386 -0.09763056 0.13907334
00000000: 5137 2f3e c259 0f3e 3147 90bc e594 4bbe
00000010: 44b4 dfba dd5a 0b3e a6d4 113e c6ca f03d
00000020: 241c 243e 0e31 76be 1f20 863e 1da7 153e
00000030: f923 823d 64c3 d13c 3f75 0d3e 3c90 8fbd
00000040: 06f4 823d 85b2 a83e 9dae 333e a620 c4bd
00000050: 4d17 9e3e 7dd6 98be 9950 cbbe 64d9 a13d
00000060: b25d 573d 9c97 3a3d b45a 013e bd67 493d
00000070: 3039 e43d 5559 153e 4406 bd3c 73c9 673d
00000080: bbcc 363e d95b fa3c 5d33 823d 30a2 143e
00000090: 7f3e 83bc a71c 00be 3f7a 1bbd a858 6ebe
000000a0: 9abd 32be 5bf4 f8bd 4f3e edbd 4275 34be
000000b0: 90a4 6d3c 4c29 6e3e 4488 42bd f49b fdbd
000000c0: dcc2 dc3c 2e89 c53c 04dd 8b3e 4b32 88be
000000d0: 0a28 563d 0b5e 47bd 038e bebd 84ce 85bd
000000e0: 563c a1bd 2e7e e8bd b7f8 8bbc 17e7 453d
000000f0: 0e68 78be 85b2 14be 77be 86bd 5912 65be
00000100: b8b1 13bf 9406 41be c286 d0bc 580c bbbd
00000110: a725 b03e bcee 0e3c 1f2b 25bd fa50 c8be
00000120: 4930 9e3e da21 453e 9701 0fbe 5e25 003e
00000130: 9304 d6bd db2c d63e 3e9c 9ebe b276 23be
00000140: dea7 0cbe 90c3 c23d 4332 0fbe 3267 85be
00000150: 2796 35be 52d1 9ebe b519 54bd 089e 6cbe
00000160: c92a 72bb f9d4 c13c 4680 573d b2d0 39bc
00000170: 45e6 46be 74c7 1b3b 09b7 dcbc 5d77 a8bb
00000180: 461b 27be f08d e93d c13f 65be 537a f3bc
00000190: b6e9 d3bd 9e6f 78bd facc 46be de38 a13e
000001a0: 5ca9 253e 240f 83bc 724d 1f3e 04a6 3b3d
000001b0: d626 b3bd d2ee f5bd 54c1 7e3e e883 1dbd
000001c0: afc1 44be ac89 a13c 41b7 07be 535e 783d
000001d0: 87f7 553d c070 b33d 571c 00bf 517c 703d
000001e0: 6ca0 3d3e 096e 8c3c 4197 e4bc 8d0e ac3d
000001f0: 63c8 0bbd 1530 e7bb 35cb 5cbd 4047 bf3e
00000200: b684 44be 2e93 a9bd c52c 3c3e bbae 2f3e
00000210: a4c9 0f3d b3f2 f7bc a2b7 053e e9c9 a5be
00000220: 976d d9bc 67c0 ca3d e533 1bbe df8a 54be
00000230: 14d3 5fbe 41e4 87bc bf06 c5bd 4f5e 03be
00000240: 3ed3 69be 230f 07be 4e91 05bd c5df 593e
00000250: eacf 28be 51ac 6e3e dcf2 853e d9ed 0abd
00000260: 6bbb 0e3d 852c 0e3d 14fa 96bc 7ac2 22be
00000270: 4d54 39bd 73fa b7bd 525a bfbb d2da 71be
00000280: 3ac1 24bd ac47 df3d 8bbf b63d e721 50be
00000290: 8986 073d 32a3 a13d b539 17bd f278 7a3e
000002a0: e779 0a3e b9d4 a43e 6006 943d d081 eabd
000002b0: a548 103e 805d e9be 6bab 04bd 6f7b 7f3e
000002c0: 4f13 cf3c 54c4 97bc f712 26be 9456 243d
000002d0: 9efe 3dbe b4f8 193e 0174 e53d b6c0 f43d
000002e0: 8a64 71bc a9c2 a23c 93ab 9a3d f9ba 033c
000002f0: 389d 233e 6f6b 3dbb 3e20 c63d cc5b 933e
00000300: f00c 593d 7bda 933e 9819 d73e ab9c a43d
00000310: 95af 39be a0cc 343e e65e 6b3e 3d2f 56bd
00000320: 557b 71be 781e 80be fb59 22be dbde 16be
00000330: de77 c2bc 5530 24be 8b50 ec3d a993 243e
00000340: 80fc 9a3c 45f1 a6be 34af f73d 1281 da3e
00000350: f0e3 863c 9079 0c3e c735 623d 1fa6 77bd
00000360: a51c 253e 2de3 4fbc 134d 9c3c 5bfc 3bbc
00000370: c7e3 273e 37c7 863d 12a9 bbbe 28ec 14bf
00000380: b0f5 d1bc 2742 7a3e 5aef 033e 078f dabd
00000390: 5f1c 533d 5971 6bbd cbcb 313e de6e 3fbe
000003a0: 870a 4b3e 92eb 983d d5d5 15bc e636 6abd
000003b0: 1d79 963e 6250 3bbd a426 283e 199f 553e
000003c0: 68dd a93e 3300 123e 97f1 dfbe f63a 1e3e
000003d0: 84ad 44be 470a 0fbe 1f88 07bd 944f 40be
000003e0: 47a5 953b 68d0 483e 6d3c e93d cd62 bf3d
000003f0: d9b3 7c3e 9798 933d 88f2 c7bd 3e69 0e3e

actor.2.bias f4 [32]
-0.025479665 0.12483318 0.055922892 0.017120961 -0.04410244 -0.08437912 -0.10316518 -0.014679642
-0.028908694 0.08381246 -0.08142969 -0.036602505 -0.098591745 0.08911756 -0.032386966 0.0012695249
0.11556396 -0.043556944 0.055351112 0.0038446756 0.03280878 -0.0025059264 0.003796708 0.12835646
-0.14383012 0.08191258 0.019910542 -0.08288574 -0.014168923 -0.03270074 0.12317098 -0.1171148
00000000: bbba d0bc 8aa8 ff3d 670f 653d 4241 8c3c
00000010: c3a4 34bd f6ce acbd 4448 d3bd e282 70bc
00000020: edd1 ecbc dea5 ab3d 9cc4 a6bd 82ec 15bd
00000030: 78ea c9bd 4483 b63d 32a8 04bd 3066 a63a
00000040: ccac ec3d c468 32bd d9b7 623d f4f6 7b3b
00000050: 8062 063d 783a 24bb 31d2 783b e06f 033e
00000060: 3448 13be c8c1 a73d 6f1b a33c 00c0 a9bd
00000070: c524 68bc 36f1 05bd 1141 fc3d e2d9 efbd

actor.4.weight f4 [4, 32]
-0.34438673 -0.011114483 0.5547798 0.18389039 -0.22913295 -0.5163745 -0.11754241 0.07214371
0.1662787 -0.44671097 -0.11952483 0.08573384 -0.93320185 0.1291052 0.49802178 0.13966048
0.054228593 0.13586172 0.31612778 0.7171885 0.09630676 0.4283485 0.21035546 0.7151646
-0.23020503 -0.09863455 0.050060343 0.14636742 -0.12064403 -0.3432158 0.041720558 -0.22850254
-0.17430995 0.70241845 0.35746893 -0.31228638 -0.20715462 0.07196724 -0.3659964 -0.3633265
-0.42247683 0.012172101 0.6906203 0.9147285 0.04489603 0.3198951 0.16905904 -0.6890801
0.42287374 -0.037671383 0.60854083 0.087081075 -0.23601963 0.29331556 0.46401152 -0.0011831985
-0.21132775 0.16484575 0.04839117 -0.5158016 0.4958683 -0.24232207 -0.4401547 -0.39952782
-0.011932336 -0.029992798 -0.17585504 -0.35493794 -0.17769067 0.10405946 -0.30881917 -0.33144075
-0.24344276 0.07032753 -0.2061214 0.1410284 0.15374778 0.18064782 -0.003999857 0.084409066
0.18889704 -0.36968327 -0.13390622 -0.20278491 0.012572463 0.041606072 -0.3049156 -0.055691242
-0.031740423 0.041612558 -0.0058314744 -0.24527851 -0.03668165 0.08777079 0.38524392 0.0033991649
-0.057433266 -0.19258212 0.001497026 -0.15116444 -0.47050697 0.23170595 -0.30332726 -0.12571207
-0.13665204 0.4009901 -0.0093646245 0.18832327 -0.041170478 -0.18764566 -0.3921058 0.12737893
-0.28696558 -0.66299385 0.16609097 -0.00032210263 -0.39418536 -0.3792832 -0.24897952 0.089985006
0.36106685 -0.5419997 -0.6661109 0.013727151 0.2638648 -0.29019588 0.30788794 -0.20265257
00000000: 7553 b0be 8519 36bc 0d06 0e3f c34d 3c3e
00000010: d4a1 6abe 1f31 04bf 13ba f0bd 15c0 933d
00000020: f744 2a3e 4db7 e4be 6fc9 f4bd 3995 af3d
00000030: 51e6 6ebf 2734 043e b6fc fe3e 2803 0f3e
00000040: cd1e 5e3d 561f 0b3e 80db a13e aa99 373f
00000050: 7b3c c53d 7f50 db3e 6c67 573e 0715 373f
00000060: deba 6bbe e900 cabd 130c 4d3d 57e1 153e
00000070: 3814 f7bd fbb9 afbe 2de3 2a3d 92fc 69be
00000080: 4f7e 32be b2d1 333f 2b06 b73e 00e4 9fbe
00000090: 5720 54be 8f63 933d e163 bbbe ee05 babe
000000a0: e24e d8be 7e6d 473c 7ecc 303f a62b 6a3f
000000b0: e6e4 373d 4ac9 a33e d01d 2d3e 8e67 30bf
000000c0: e882 d83e 4f4d 1abd 55c9 1b3f 9057 b23d
000000d0: 21af 71be 752d 963e eb92 ed3e 8e15 9bba
000000e0: 4d66 58be 53cd 283e d235 463d 930b 04bf
000000f0: 73e2 fd3e 4723 78be f55b e1be e98e ccbe
00000100: d87f 43bc 75b3 f5bc 5813 34be 6dba b5be
00000110: 8bf4 35be 201d d53d 8c1d 9ebe 9ab2 a9be
00000120: 0f49 79be e107 903d 7d11 53be c069 103e
00000130: 0f70 1d3e befb 383e 3c11 83bb a9de ac3d
00000140: 3a6e 413e 2047 bdbe b61e 09be d9a6 4fbe
00000150: bbfc 4d3c 216b 2a3d e61d 9cbe 801c 64bd
00000160: 3f02 02bd ee71 2a3d f415 bfbb 4a2a 7bbe
00000170: 7f3f 16bd 2cc1 b33d b13e c53e 86c4 5e3b
00000180: 253f 6bbd 3f34 45be db37 c43a daca 1abe
00000190: 4ae6 f0be 5344 6d3e b64d 9bbe aaba 00be
000001a0: 83ee 0bbe 934e cd3e 156e 19bc d1d7 403e
000001b0: 60a2 28bd 2f26 40be 17c2 c8be 9f6f 023e
000001c0: 27ed 92be f7b9 29bf c013 2a3e e2df a8b9
000001d0: aad2 c9be 6831 c2be 7df4 7ebe 0f4a b83d
000001e0: c1dd b83e 7ec0 0abf 3e86 2abf d8e7 603c
000001f0: 4919 873e 8e94 94be 7da3 9d3e 2884 4fbe

actor.4.bias f4 [4]
0.12659901 -0.08691486 0.21417308 -0.17287938
00000000: 2ca3 013e 6b00 b2bd 3050 5b3e 4b07 31be

critic.0.weight f4 [64, 24]
0.20589699 0.14478971 0.15746644 -0.11750742 -0.06019225 -0.08953556 0.08627678 0.11530707
0.17554845 -0.12351687 0.09126806 -0.047313083 -0.008685307 0.19732726 -0.14906427 -0.08404755
0.041099254 0.09369057 -0.053514473 -0.041625712 -0.07010172 -0.011000967 -0.16436325 -0.07694613
0.023470953 0.12914254 0.1575593 0.025882818 -0.08577418 0.14787379 -0.19176784 0.071390465
0.050227214 -0.016810324 0.1827798 0.12942497 0.19416268 -0.1146726 -0.06085244 -0.13261466
0.12224982 -0.14531532 0.07637257 0.13652427 0.060992487 0.04474709 -0.060178593 -0.03042903
-0.08833979 0.046462487 0.09103794 -0.06645673 -0.14657806 -0.084101945 -0.099327914 -0.08453027
0.15732725 0.13421272 0.15291898 -0.0013236462 -0.08814905 0.1532825 -0.21218877 0.0031681717
-0.15751864 -0.12110086 0.09630593 -0.18416703 -0.11894413 -0.16432174 0.18766782 -0.070133574
0.16201912 -0.09064633 0.1386206 -0.06056344 0.044426873 0.10434486 0.11879538 -0.116198875
0.14808325 0.14067845 0.06924594 0.07746359 -0.07066782 0.0844637 0.118888214 0.12203758
0.025266632 -0.16791457 0.17735147 -0.17113858 -0.15832527 0.014672286 0.038039938 0.14319628
-0.13506478 -0.0017020986 -0.1119464 -0.20453317 0.13589327 -0.019303372 0.12612285 -0.038818885
0.11121327 -0.14730872 0.04332375 -0.085238546 0.003005619 -0.054492805 -0.20478831 -0.09865026
0.124376446 -0.16591102 0.16587882 0.07948663 0.08396714 0.12738398 -0.18897693 -0.01052614
-0.01718091 0.05542431 -0.16525193 -0.028752953 0.06999993 -0.110728726 -0.013810478 -0.084920235
0.082940936 0.06475305 0.07629254 -0.04321068 -0.004078487 0.13855124 -0.007807328 0.06616083
0.08485526 0.08441698 -0.1948329 -0.11929428 -0.023058457 -0.02778672 0.1807607 0.017196318
-0.060339116 -0.15480778 -0.10045756 0.103530526 0.13156025 0.12539189 -0.03113384 0.0014931007
0.12821804 -0.034936342 0.09509632 0.02006549 0.06591283 -0.17603792 -0.089047365 -0.17890592
0.15431494 0.11212236 -0.07106147 -0.14837408 -0.123023316 0.14665313 0.13137633 0.0667571
-0.15158728 0.09667889 0.024303766 -0.0045264685 0.17306001 0.048480142 -0.11273762 -0.025918374
-0.15271267 0.15900874 0.093227565 0.08836868 0.079526596 0.106010556 -0.11594166 0.15999316
-0.19278815 0.06857926 -0.044252004 0.015447194 0.07647451 -0.20637274 -0.043273956 0.10091644
-0.14751314 0.08497808 -0.17392197 0.033469964 -0.028642876 0.034946255 -0.102548555 0.09321814
-0.119138226 0.10158478 -0.04042853 0.10166716 -0.1754991 -0.008332317 -0.09449389 -0.061729692
0.013820443 -0.15795617 -0.15613833 0.12325034 0.03420168 0.11405644 -0.18528777 -0.13854009
0.12975118 0.03562635 0.0671378 0.081561744 0.07933993 0.06522877 -0.09111706 -0.07347887
0.17888911 0.013884855 0.07077804 0.07401003 -0.09461361 -0.20915341 -0.20196813 -0.12584269
0.073117234 -0.033425745 -0.07410154 -0.1531596 0.044561557 -0.026613204 0.073470086 0.039643217
-0.2552771 0.0031356167 -0.18941167 0.13438676 -0.14758404 -0.008852853 -0.063903406 0.06698831
-0.033097137 0.12916207 0.13744193 -0.11319406 -0.06316224 -0.16199195 0.16178012 -0.12174147
00000000: a9d6 523e c143 143e e23e 213e bba7 f0bd
00000010: 268c 76bd 6b5e b7bd e1b1 b03d 1d26 ec3d
00000020: f9c2 333e 6af6 fcbd c0ea ba3d 5dcb 41bd
00000030: d14c 0ebc 2810 4a3e 4ea4 18be 1f21 acbd
00000040: b157 283d d7e0 bf3d fe31 5bbd b97f 2abd
00000050: 7e91 8fbd 663d 34bc d74e 28be ef95 9dbd
00000060: 2846 c03c f13d 043e 3a57 213e 3408 d43c
00000070: 60aa afbd 3a6c 173e ca5e 44be 2a35 923d
00000080: 0dbb 4d3d ceb5 89bc a12a 3b3e fb87 043e
00000090: 95d2 463e 78d9 eabd 6840 79bd 23cc 07be
000000a0: 1d5e fa3d 8acd 14be 3969 9c3d 05cd 0b3e
000000b0: 42d3 793d ba48 373d d47d 76bd 4d46 f9bc
000000c0: 7eeb b4bd 734f 3e3d 1972 ba3d 771a 88bd
000000d0: 8f18 16be a43d acbd 6f6c cbbd 351e adbd
000000e0: 651a 213e 0f6f 093e cb96 1c3e 327e adba
000000f0: 7d87 b4bd 16f6 1c3e 0348 59be 1aa1 4f3b
00000100: 914c 21be ba03 f8bd 0b3c c53d 4896 3cbe
00000110: fb98 f3bd f543 28be fe2b 403e 31a2 8fbd
00000120: 57e8 253e c8a4 b9bd 8ff2 0d3e 5f11 78bd
00000130: f4f8 353d c2b2 d53d fe4a f33d adf9 edbd
00000140: 23a3 173e 030e 103e d1d0 8d3d 3ba5 9e3d
00000150: 4aba 90bd 4efb ac3d aa7b f33d d7ee f93d
00000160: f8fb ce3c ccf1 2bbe a09b 353e f43e 2fbe
00000170: 0520 22be 0764 703c c4cf 1b3d 0ca2 123e
00000180: 6c4e 0abe f418 dfba 2744 e5bd 2571 51be
00000190: 9b27 0b3e 1b22 9ebc 5926 013e 8d00 1fbd
000001a0: c8c3 e33d 19d8 16be 3f74 313d 8c91 aebd
000001b0: ebf9 443b d933 5fbd 07b4 51be 2609 cabd
000001c0: 14b9 fe3d 94e4 29be 23dc 293e e3c9 a23d
000001d0: f7f6 ab3d f270 023e 2b83 41be d575 2cbc
000001e0: fbbe 8cbc 9a04 633d cd37 29be 508b ebbc
000001f0: 205c 8f3d bec5 e2bd 5845 62bc a9ea adbd
00000200: f0dc a93d 3f9d 843d 433f 9c3d affd 30bd
00000210: d4a4 85bb 60e0 0d3e 9dd4 ffbb 547f 873d
00000220: 98c8 ad3d cfe2 ac3d 4782 47be 8f50 f4bd
00000230: 17e5 bcbc faa0 e3bc 5519 393e 4bdf 8c3c
00000240: 2626 77bd ee85 1ebe b1bc cdbd d007 d43d
00000250: bbb7 063e bb66 003e 650c ffbc 25b4 c33a
00000260: 974b 033e 6919 0fbd dcc1 c23d 6260 a43c
00000270: 4efd 863d 4943 34be 775e b6bd 1d33 37be
00000280: bc04 1e3e 68a0 e53d ad88 91bd 60ef 17be
00000290: a6f3 fbbd 3d2c 163e 8487 063e f2b7 883d
000002a0: b239 1bbe 95ff c53d b118 c73c c552 94bb
000002b0: a536 313e 1d93 463d fbe2 e6bd c552 d4bc
000002c0: b660 1cbe 30d3 223e 18ee be3d a3fa b43d
000002d0: d7de a23d 101c d93d d272 edbd 3fd5 233e
000002e0: 426a 45be 4873 8c3d 9741 35bd 3a16 7d3c
000002f0: ab9e 9c3d 6053 53be 0840 31bd 47ad ce3d
00000300: af0d 17be fd08 ae3d 9a18 32be cd17 093d
00000310: 77a4 eabc ce23 0f3d fa04 d2bd 27e9 be3d
00000320: befe f3bd ae0b d03d 6398 25bd df36 d03d
00000330: 09b6 33be 4584 08bc 0386 c1bd 46d8 7cbd
00000340: 246f 623c 43bf 21be bae2 1fbe ad6a fc3d
00000350: 1017 0c3d 6c96 e93d 14bc 3dbe 74dd 0dbe
00000360: 7edd 043e f0ec 113d 8b7f 893d d809 a73d
00000370: f97c a23d a996 853d 959b babd 177c 96bd
00000380: b52e 373e 4e7d 633c 14f4 903d 9292 973d
00000390: c8c4 c1bd 502c 56be bcd0 4ebe e8dc 00be
000003a0: 7dbe 953d 6fe9 08bd 8cc2 97bd dfd5 1cbe
000003b0: 2e86 363d ef03 dabc 7c77 963d ed60 223d
000003c0: aeb3 82be eb7e 4d3b 22f5 41be af9c 093e
000003d0: 4520 17be 8f0b 11bc cadf 82bd 2b31 893d
000003e0: dd90 07bd 1043 043e 94bd 0c3e 4ad2 e7bd
000003f0: 345b 81bd 38e1 25be b0a9 253e 9853 f9bd

critic.0.bias f4 [64]
0.1876431 0.103202194 -0.12343833 -0.16148727 0.17890881 0.0071559846 0.111291155 0.1835899
-0.030627176 0.013734059 0.13723078 -0.17561486 -0.039740097 0.13734512 -0.023606531 0.015606611
-0.030397706 -0.026843645 -0.16785692 -0.060443517 0.011866859 -0.086661465 -0.17439726 -0.02828635
0.21688624 -0.047626656 0.09235259 -0.11049156 -0.0018341563 -0.13907121 -0.067344904 0.1659637
-0.033951562 0.03572472 0.06502127 -0.19516486 -0.13734882 -0.032734558 -0.15465347 -0.010475314
0.09703585 0.007965861 -0.18321046 -0.13730545 -0.13139144 -0.20028125 -0.15399687 0.0010156407
0.119691625 0.07631668 -0.15970573 -0.16374597 0.10033585 0.11550191 0.07797782 -0.053872727
0.15300858 -0.040245548 -0.18141785 0.050875504 -0.14725873 0.07103475 -0.15748842 -0.09116752
00000000: 8325 403e ac5b d33d 3ccd fcbd eb5c 25be
00000010: df33 373e c07c ea3b 9eec e33d fefe 3b3e
00000020: d8e5 fabc d204 613c 3a86 0c3e 62d4 33be
00000030: 83c6 22bd 33a4 0c3e 7c62 c1bc dfb2 7f3c
00000040: 9c04 f9bc 34e7 dbbc afe2 2bbe 9f93 77bd
00000050: 376d 423c 917b b1bd 3295 32be c7b8 e7bc
00000060: 6d17 5e3e 2b14 43bd 5b23 bd3d 6649 e2bd
00000070: 1368 f0ba af68 0ebe 20ec 89bd 63f2 293e
00000080: cb10 0bbd 1654 123d df29 853d 4cd9 47be
00000090: 2ba5 0cbe ac14 06bd 7b5d 1ebe a7a0 2bbc
000000a0: bbba c63d 3e83 023c 869b 3bbe cd99 0cbe
000000b0: 7a8b 06be 8716 4dbe 5bb1 1dbe 3f1f 853a
000000c0: e220 f53d eb4b 9c3d e689 23be 06ad 27be
000000d0: e27c cd3d 448c ec3d d6b2 9f3d a6a9 5cbd
000000e0: 48ae 1c3e 84d8 24bd 9ac5 39be d562 503d
000000f0: feca 16be ab7a 913d a544 21be 09b6 babd

critic.2.weight f4 [32, 64]
0.07284235 -0.07725642 -0.06912754 -0.023276543 0.05800934 -0.07213836 -0.1037625 -0.042498827
0.09314599 0.09468104 -0.12091084 0.025837755 -0.07246892 -0.12924618 -0.033920053 0.12558457
-0.025707172 -0.025583662 -0.10434616 0.086268075 0.09382451 0.083341084 -0.10335218 -0.040403426
0.09218919 0.099074155 -0.07325597 0.09358062 0.056724153 -0.09428812 0.08295951 -0.011669792
0.014170208 -0.057485726 0.02768692 -0.0709149 -0.014039362 -0.015896073 -0.10417686 0.09861265
-0.092399515 0.071275525 0.009112913 0.0037313856 0.04494403 0.091810875 -0.12370906 0.061724152
-0.071498044 0.11126346 -0.07687865 0.07862837 -0.12248505 -0.008353853 0.051839836 0.12764737
0.10790577 -0.06297133 -0.100056455 0.031082045 0.1013093 -0.051284216 -0.04499878 -0.066355765
0.085298225 -0.021045888 0.09655644 -0.021188408 0.10098791 0.01711727 -0.06416823 0.012666004
-0.0896256 -0.080099285 0.022823034 -0.09439684 0.11163264 0.11223237 0.08815134 -0.0111985495
0.0762392 0.064229384 -0.03148516 0.025419882 -0.0018130097 -0.042637177 -0.06429346 0.10692608
-0.06590313 -0.0340423 -0.08125747 0.08745522 -0.09633162 -0.044478226 0.007442644 0.049259406
-0.109871104 -0.0913021 -0.0961531 0.09147514 0.0651014 -0.03817256 0.027677331 0.11525239
0.05227259 0.054034412 0.05656247 -0.11714807 0.08337261 -0.11598786 0.094395 0.039420974
-0.11231254 -0.023174025 -0.054462623 -0.11259142 -0.117585264 0.043394394 -0.045719475 0.009630844
0.09543431 -0.05817313 -0.064633206 0.06681197 -0.02956932 -0.048295856 -0.07322685 0.045882475
0.053934433 -0.068291485 0.12831105 -0.043608267 -0.00783903 -0.021227136 0.039233558 0.04921294
-0.033403724 -0.10794285 0.07698842 -0.11532983 -0.013103467 0.085644424 0.04436891 0.064385615
0.036854662 -0.04576886 -0.046629872 -0.069934234 0.017727254 -0.029079225 -0.0608 0.0172037
0.08870914 -0.045226227 0.033313062 0.0213179 0.107245035 -0.04775683 0.032298405 0.02683497
0.09264401 -0.14162862 0.0689638 0.0044163535 -0.07809856 0.05618822 -0.033798844 -0.031600673
-0.03077097 -0.1065798 0.05799065 -0.08757805 -0.030113727 0.021909768 -0.033850927 0.014168008
0.005986448 0.06570099 0.06385304 0.063524455 0.10692902 0.017620465 -0.0072895293 -0.11661712
-0.0044075837 -0.009186381 0.09796204 0.09821537 0.046337098 -0.036334377 0.06751524 0.07006166
-0.021452125 0.07330041 0.012146825 -0.1028758 0.0420347 -0.060997047 -0.03909706 0.06782929
0.022330511 -0.09966491 0.03126911 -0.016521005 0.04197159 -0.050262745 -0.03560191 -0.10155894
0.011575662 -0.029655382 -0.08688408 -0.12331331 -0.09432644 0.10599773 -0.13240726 -0.08351102
0.09790503 0.048038073 0.013089089 0.122079715 0.114329375 0.09008313 0.06186748 -0.036809474
-0.09157647 0.08197403 -0.11865861 -0.083197854 -0.09372212 0.13973835 -0.04517991 0.10166953
-0.09020827 0.018749386 0.089490175 0.047804378 0.08813223 -0.09920375 0.086882904 0.09905149
-0.058493763 0.06778778 0.1120729 0.1078384 -0.0707096 0.02579135 -0.054244325 -0.053138692
-0.039896958 0.025173211 0.12386592 -0.063231856 -0.029477296 -0.08719766 0.065399475 0.051307775
00000000: 5f2e 953d 9d38 9ebd bd92 8dbd 73ae bebc
00000010: 349b 6d3d 47bd 93bd 6f81 d4bd 4013 2ebd
00000020: 53c3 be3d 22e8 c13d 1aa0 f7bd b3a9 d33c
00000030: 966a 94bd 1c59 04be c1ef 0abd 3e99 003e
00000040: d997 d2bc d494 d1bc 71b3 d5bd 51ad b03d
00000050: 1127 c03d bbae aa3d 4faa d3bd 107e 25bd
00000060: b0cd bc3d 64e7 ca3d 3a07 96bd 32a7 bf3d
00000070: 9657 683d 211a c1bd ade6 a93d a832 3fbc
00000080: 292a 683c 2776 6bbd aecf e23c d53b 91bd
00000090: 5a05 66bc 7b38 82bc ad5a d5bd 6ef5 c93d
000000a0: f53b bdbd e7f8 913d 544e 153c 438a 743b
000000b0: 3b17 383d 5707 bc3d 2d5b fdbd 77d2 7c3d
000000c0: 916d 92bd 19de e33d 8e72 9dbd e907 a13d
000000d0: 71d9 fabd 99de 08bc 0256 543d feb5 023e
000000e0: b3fd dc3d 1df7 80bd 66ea ccbd c69f fe3c
000000f0: 407b cf3d 660f 52bd a450 38bd 88e5 87bd
00000100: d6b0 ae3d 6d68 acbc 62bf c53d 5093 adbc
00000110: c0d2 ce3d 8439 8c3c a26a 83bd 1285 4f3c
00000120: a08d b7bd 180b a4bd 5ff7 ba3c 2153 c1bd
00000130: a79f e43d 16da e53d b188 b43d 1f7a 37bc
00000140: 4c23 9c3d b28a 833d 95f6 00bd 5b3d d03c
00000150: 83a2 edba 52a4 2ebd 4aac 83bd 10fc da3d
00000160: 38f8 86bd f06f 0bbd 516a a6bd b91b b33d
00000170: 8349 c5bd cd2e 36bd 6ce1 f33b 3bc4 493d
00000180: 1a04 e1bd 98fc babd ebeb c4bd 5157 bb3d
00000190: e253 853d d55a 1cbd 92bb e23c 7209 ec3d
000001a0: c91b 563d 3053 5d3d 0cae 673d 54eb efbd
000001b0: 42bf aa3d 0b8b edbd 2a52 c13d e377 213d
000001c0: 1e04 e6bd 74d7 bdbc 3314 5fbd 5596 e6bd
000001d0: 8bd0 f0bd 52be 313d 5844 3bbd b0ca 1d3c
000001e0: 1073 c33d f346 6ebd 6a5e 84bd b7d4 883d
000001f0: 5c3b f2bc e0d1 45bd f5f7 95bd 43ef 3b3d
00000200: 5aea 5c3d 68dc 8bbd f963 033e 959e 32bd
00000210: 466f 00bc 88e4 adbc 5eb3 203d 8293 493d
00000220: 58d2 08bd 2411 ddbd 1bac 9d3d 0c32 ecbd
00000230: edaf 56bc 5866 af3d 2dbc 353d 9bdc 833d
00000240: eaf4 163d 2178 3bbd f7fe 3ebd ae39 8fbd
00000250: bf38 913c 8e37 eebc 6c09 79bd c6ee 8c3c
00000260: 23ad b53d 233f 39bd 4773 083d e0a2 ae3c
00000270: 49a3 db3d aa9c 43bd 554b 043d 03d5 db3c
00000280: 25bc bd3d 1807 11be e53c 8d3d 0fb7 903b
00000290: 23f2 9fbd 9e25 663d a870 0abd b56f 01bd
000002a0: 6713 fcbc 8346 dabd 9b87 6d3d 1f5c b3bd
000002b0: 10b1 f6bc 1d7c b33c 45a7 0abd ef20 683c
000002c0: f729 c43b 3e8e 863d 62c5 823d 1c19 823d
000002d0: 9afd da3d cb58 903c 01dd eebb f5d4 eebd
000002e0: 7e6d 90bb 7982 16bc 52a0 c83d 2425 c93d
000002f0: f8cb 3d3d 5bd3 14bd 6e45 8a3d 7d7c 8f3d
00000300: 5ebc afbc 861e 963d 7a03 473c 8cb0 d2bd
00000310: 942c 2c3d 0ad8 79bd 3d24 20bd 15ea 8a3d
00000320: 7aee b63c 1e1d ccbd 0a14 003d 0f57 87bc
00000330: 67ea 2b3d 4fe0 4dbd 4fd3 11bd 22fe cfbd
00000340: d8a7 3d3c d8ef f2bc 48f0 b1bd b08b fcbd
00000350: 382e c1bd 5615 d93d c595 07be d307 abbd
00000360: 6f82 c83d 92c3 443d 9e73 563c ee04 fa3d
00000370: 8525 ea3d 817d b83d c168 7d3d 88c5 16bd
00000380: 728c bbbd 00e2 a73d 4903 f3bd a363 aabd
00000390: 62f1 bfbd 9217 0f3e 920e 39bd 1d38 d03d
000003a0: 1dbf b8bd 5098 993c a046 b73d 86ce 433d
000003b0: ac7e b43d 562b cbbd aaef b13d 82db ca3d
000003c0: 2897 6fbd 52d4 8a3d 7a86 e53d 61da dc3d
000003d0: 32d0 90bd 6248 d33c 4c2f 5ebd f5a7 59bd
000003e0: fe6a 23bd 0d38 ce3c 6aad fd3d b47f 81bd
000003f0: 5f7a f1bc b094 b2bd 29f0 853d 1a28 523d

critic.2.bias f4 [32]
-0.03902261 0.017135913 -0.108121395 0.009338707 0.07871554 -0.081742704 0.03394083 -0.101666465
-0.018290132 0.07688685 0.07091639 0.05826179 0.114304006 -0.09122506 0.08530559 0.03847278
-0.0868844 -0.052890833 -0.037752464 0.0769869 0.06799563 0.040403146 9.271222e-05 -0.058697
0.13789187 0.0018324305 0.07951522 0.063496515 -0.0056718267 0.10804192 -0.028016854 0.11856084
00000000: 2cd6 1fbd 9d60 8c3c c06e ddbd 6001 193c
00000010: 9d35 a13d b868 a7bd 8a05 0b3d 8236 d0bd
00000020: 30d5 95bc da76 9d3d 9d3c 913d eaa3 6e3d
00000030: 3818 ea3d 34d4 babd b2b4 ae3d a295 1d3d
00000040: 73f0 b1bd 0fa4 58bd 54a2 1abd 4fab 9d3d
00000050: 4b41 8b3d c57d 253d 7e6e c238 446c 70bd
00000060: 8733 0d3e 2a2e f03a e0d8 a23d 760a 823d
00000070: bbda b9bb 1545 dd3d 9a83 e5bc 07d0 f23d

critic.4.weight f4 [1, 32]
0.048868444 0.085849226 -0.13765372 -0.055554904 0.082609124 -0.00021009351 0.13171087 0.1284739
0.00022183103 0.1524372 0.08338406 -0.08002065 -0.008522326 -0.042466316 0.01951118 -0.12038821
0.12634936 -0.09925842 -0.0435351 0.06065153 -0.01948846 -0.08994162 -0.022399686 -0.07460376
-0.037357055 0.1082078 -0.018355943 -0.02121938 0.107563876 -0.11935096 0.14166228 -0.09165934
00000000: 472a 483d b8d1 af3d 19f5 0cbe 8a8d 63bd
00000010: f92e a93d 8c4c 5cb9 37df 063e a98e 033e
00000020: 509b 6839 7f18 1c3e 43c5 aa3d dee1 a3bd
00000030: 3aa1 0bbc 29f1 2dbd e9d5 9f3c 188e f6bd
00000040: ba61 013e 0048 cbbd dc51 32bd bd6d 783d
00000050: 43a6 9fbc 5033 b8bd 8c7f b7bc dbc9 98bd
00000060: b603 19bd 0d9c dd3d 345f 96bc 44d4 adbc
00000070: 734a dc3d 476e f4bd eb0f 113e e4b7 bbbd
