Policy Gradient/walker_ppo_model_old_18900.pth (torch, 34325 bytes, 11 tensors)

actor.0.weight f4 [64, 24]
0	0xbe0a9af6	-0.13535675
1	0x3f051eef	0.52000326
2	0xbb038067	-0.0020065547
3	0x3f446804	0.76721215
4	0xbe0a3640	-0.13497257
5	0xbe002827	-0.12515317
6	0x3f552adb	0.8326852
7	0xbe3252ae	-0.17414352
8	0xbe84f5b6	-0.25968713
9	0xbe0d51e7	-0.13800775
10	0xbc1e1970	-0.009649619
11	0xbe77c49c	-0.24196094
12	0x3d5862d1	0.052828614
13	0x3d803983	0.062609695
14	0x3e7eba53	0.24875765
15	0x3e51a5d9	0.20473422
16	0x3d83a130	0.064272285
17	0xbc0979b6	-0.008390835
18	0x3e5a1c9e	0.21299979
19	0xbdeffae5	-0.11717776
20	0x3da8bdb1	0.08239306
21	0x3e40c69d	0.18825765
22	0x3e17ca34	0.14823228
23	0x3d09fed1	0.033690277
24	0x3c1ad231	0.009449528
25	0x3d2262f9	0.03964517
26	0x3e7e7be9	0.24851955
27	0x3d912282	0.0708666
28	0x3e89250d	0.2678608
29	0x3e50fa83	0.20408063
30	0x3f5c321d	0.86013967
31	0xbe3a1f14	-0.18175918
32	0xbe445e77	-0.1917666
33	0xbd7a2681	-0.061071876
34	0x3d92bdb9	0.07165093
35	0x3d3a3634	0.04546185
36	0xbd28c17b	-0.041200142
37	0x3dcdf04f	0.10055601
38	0x3e108b11	0.1411555
39	0x3dcf9b70	0.10137069
40	0xbcbe4e17	-0.023230596
41	0x3dfc2ca8	0.12313205
42	0xbdb926be	-0.090405926
43	0x3d6ec09d	0.05828916
44	0x3d3011eb	0.042985838
45	0xbd42592b	-0.04744832
46	0xbb45a424	-0.003015765
47	0x3e06f657	0.13179909
48	0x3c8df6c6	0.017329585
49	0xbf00d9a6	-0.50332105
50	0xbd0f6fc7	-0.03501871
51	0xbf1173b0	-0.5681715
52	0xbe5a489e	-0.21316764
53	0x3df54925	0.11976842
54	0x3f046a23	0.5172445
55	0x3cc2f914	0.02380041
56	0xbe6735c4	-0.22579104
57	0x3e291f6a	0.1651589
58	0xbe549ce0	-0.20762968
59	0x3ea2cab7	0.31795284
60	0xbdc2ca65	-0.0951126
61	0x3e8b7bb4	0.27242815
62	0xbe817518	-0.25284648
63	0xbe76a5be	-0.24086663
64	0xbe68d454	-0.22737247
65	0x3c5f4ce2	0.01362917
66	0xbe7ce56f	-0.24696897
67	0x3db566ca	0.08857496
68	0xbd8f2b7a	-0.06990714
69	0xbe2f51cb	-0.17121045
70	0xbe53663c	-0.20644468
71	0xbcf8852b	-0.030336937
72	0xbe92e6ae	-0.2869162
73	0xbe3d57ee	-0.18490574
74	0xbddfa74c	-0.10920581
75	0xbe8193b6	-0.25308007
76	0xbed5066c	-0.41606462
77	0xbe3839fa	-0.17990866
78	0xbcbe7901	-0.023251059
79	0xbe1c06f9	-0.15237035
80	0xbe1dd5cf	-0.15413593
81	0x3e2bb528	0.16768324
82	0x3dc0ec0f	0.094200246
83	0xbd0eaea5	-0.034834523
84	0x3dc5d3f0	0.096595645
85	0x3cd66e38	0.026175603
86	0xbe34b6c2	-0.17647842
87	0xbe858287	-0.26076147
88	0xbe346100	-0.17615128
89	0x3d808571	0.06275452
90	0xbd9c52c6	-0.07632975
91	0x3d47566f	0.048666414
92	0x3c9e7d37	0.019346816
93	0xbe30aa35	-0.17252429
94	0x3e1004ab	0.1406428
95	0x3d3c46ef	0.045966085
96	0xbce143c4	-0.027498133
97	0xbe802278	-0.25026298
98	0xbeb1b79f	-0.34710404
99	0xbecf4b71	-0.40487245
100	0x3d071659	0.032980297
101	0xbd076931	-0.033059303
102	0xbeecce6d	-0.4625124
103	0xbcdedb50	-0.027204186
104	0xbd71b2f1	-0.059008542
105	0xbc681410	-0.0141649395
106	0x3d3a48c4	0.04547955
107	0x3ef9a84f	0.48761222
108	0x3e590e0b	0.21196763
109	0x3e6e8386	0.2329236
110	0x3daa9a14	0.08330169
111	0x3d9e82d9	0.07739801
112	0xbe5a2104	-0.21301657
113	0xbcaf2b9f	-0.021383105
114	0xbdc0e87f	-0.09419345
115	0xbd4305a4	-0.0476128
116	0x3d1a9b5a	0.03774581
117	0xbe1113f6	-0.1416777
118	0xbe26a764	-0.16274792
119	0x3dc04c88	0.09389597
120	0x3e439c7c	0.19102663
121	0xbebc6f96	-0.36803883
122	0x3d29dcdf	0.041470405
123	0xbebaa707	-0.36455557
124	0x3d99054b	0.07471713
125	0x3d963b93	0.07335582
126	0x3ee432d8	0.4457004
127	0xbdd07281	-0.1017809
128	0x3e4a386e	0.19748089
129	0xbd61dca8	-0.055142075
130	0xbd8515e7	-0.06498318
131	0x3dacca48	0.084370196
132	0xbdec65b1	-0.115428336
133	0x3e8722dd	0.26393786
134	0xbc420a34	-0.011843253
135	0xbde99c86	-0.114068076
136	0x3c97c180	0.018524885
137	0x3e31e671	0.17373063
138	0xbdce6c6f	-0.10079276
139	0xbe04fd6c	-0.12987298
140	0xbcd598d2	-0.026073847
141	0x3d905584	0.07047561
142	0xbdc8c490	-0.09803116
143	0x3d33fd9e	0.04394304
144	0xbd604fbc	-0.05476354
145	0xbedb21ff	-0.42799374
146	0x3d8e6aae	0.06953941
147	0xbf1e4da3	-0.61837214
148	0xbe900989	-0.28132275
149	0x3e63b16e	0.22235653
150	0x3e8c13b5	0.27358785
151	0xbc4f4396	-0.012650391
152	0x3d974d51	0.07387794
153	0x3e4c15c1	0.19930173
154	0x3d955818	0.07292193
155	0x3e859cef	0.26096293
156	0x3e060082	0.13086131
157	0x3e2797e5	0.16366537
158	0xbcd7308f	-0.026268272
159	0x3cb4fedf	0.022094188
160	0x3da0f8b6	0.07859938
161	0x3d73d1aa	0.059526123
162	0xbe41f8db	-0.18942587
163	0x3d4fa0a6	0.050690316
164	0xbe018aa0	-0.12650537
165	0xbd9cc6ea	-0.07655127
166	0xbe43b09a	-0.19110337
167	0xbd1cfce2	-0.038327105
168	0xbdfabd3b	-0.12243124
169	0x3e80295d	0.25031558
170	0x3e86e14d	0.26343766
171	0x3f1e174d	0.61754304
172	0x3e9d52ea	0.3072732
173	0x3ad272e3	0.0016055967
174	0x3f078d04	0.5294955
175	0xbc166a8d	-0.009180677
176	0xba1eb751	-0.0006054538
177	0xbd1960fd	-0.03744601
178	0xbe0b4403	-0.13600163
179	0xbeb8e22e	-0.3611006
180	0xbe0f83a0	-0.14015055
181	0x3b51f122	0.0032034595
182	0x3e600444	0.21876627
183	0x3df7b1dc	0.12094471
184	0x3e04900b	0.12945573
185	0x3d167163	0.036729228
186	0x3d86d79f	0.06584095
187	0xbd2fa28c	-0.042879626
188	0x3e0724ee	0.13197681
189	0x3e158d4f	0.14604686
190	0x3dafdc2a	0.08586915
191	0xbe6a02c5	-0.22852619
192	0xbb823478	-0.00397354
193	0xbec1c1e1	-0.3784323
194	0xbea10202	-0.31446844
195	0xbeb0694c	-0.34455335
196	0x3e8863c8	0.26638627
197	0xbbfd9a9c	-0.007739378
198	0xbf33e60f	-0.70272917
199	0x3d75f7c4	0.06005074
200	0x3ea27048	0.3172629
201	0xbd2afcdb	-0.041745048
202	0x3ccd0b22	0.025029723
203	0x3e40baad	0.18821211
204	0xbd970ec5	-0.07375864
205	0xbe44d76c	-0.19222802
206	0x3e0ee41a	0.13954201
207	0xbba6f87f	-0.005095541
208	0xbd3c6982	-0.045999058
209	0xbdc4f96e	-0.096178874
210	0x3bc6413a	0.006050256
211	0x3e032973	0.1280878
212	0x3dfa207f	0.122132294
213	0xbd97cb9e	-0.07411884
214	0xbe071eb9	-0.13195314
215	0x3e31b476	0.17353997
216	0xbe133bda	-0.143783
217	0xbcfbafde	-0.030723508
218	0xbe793595	-0.24336846
219	0xbf042a04	-0.5162661
220	0xbe7fecb8	-0.24992645
221	0xbd63a780	-0.055579662
222	0xbf5249c5	-0.82143813
223	0xbd657626	-0.05602088
224	0x3d857186	0.065157935
225	0x3e4561bd	0.19275565
226	0x3e43f280	0.19135475
227	0xbe37b3e8	-0.17939723
228	0x3db40cc1	0.08791495
229	0x3d8d8187	0.06909471
230	0xbd50d807	-0.05098727
231	0xbe2ee2f1	-0.17078759
232	0x3dac9fcb	0.084289156
233	0xbe35d35a	-0.17756405
234	0xbd361d32	-0.044461437
235	0xbe912f0d	-0.2835621
236	0xbd965dce	-0.073421106
237	0xbe051b94	-0.12998801
238	0x3d6cec47	0.05784252
239	0x3de82426	0.1133502
240	0xbdb32b35	-0.087484755
241	0x3f0789a8	0.5294442
242	0x3e560863	0.20901637
243	0x3ed249b8	0.41071868
244	0x3e7d0237	0.24707876
245	0xbdb780c8	-0.0896011
246	0x3e76297d	0.24039264
247	0x3d2a8bdd	0.04163729
248	0xbd1c010a	-0.03808693
249	0xbdb75f2b	-0.08953699
250	0x3e31b476	0.17353997
251	0xbebb957c	-0.36637485
252	0x3dc676eb	0.096906506
253	0xbdfa5b66	-0.12224464
254	0xbccdc83c	-0.025119893
255	0x3da9bacb	0.08287581

actor.0.bias f4 [64]
0	0xbe29e1a6	-0.16589984
1	0xbe141438	-0.14460838
2	0x3e893f97	0.26806328
3	0xbc1b22e7	-0.009468771
4	0x3e926410	0.28591967
5	0xbd719d91	-0.058988158
6	0xbde7b0b8	-0.11313003
7	0xbdb43fa7	-0.08801203
8	0xbe3ba911	-0.18326212
9	0x3e17a2d3	0.14808206
10	0xbe219610	-0.157799
11	0x3b94f29f	0.0045455243
12	0xbe04851d	-0.12941404
13	0xbb992a5c	-0.004674239
14	0xbd43eef6	-0.047835313
15	0xbbb6b52a	-0.0055757957
16	0xbd6438fc	-0.055718407
17	0xbdfdcff2	-0.12393178
18	0x3e3acb8d	0.18241711
19	0x3e02ecc3	0.1278563
20	0xbd7f9c91	-0.062405173
21	0x3dddd44f	0.1083151
22	0x3e6ba3ca	0.230117
23	0xbdbaf5b4	-0.091288954
24	0xbe225da0	-0.15856028
25	0x3e0b18c7	0.1358367
26	0xbcd661c0	-0.026169658
27	0xbe42ed74	-0.19035894
28	0xbe06f57f	-0.13179587
29	0xbe49410a	-0.19653717
30	0x3e037c05	0.12840278
31	0xbe08f52a	-0.13374773
32	0xbe37a0bf	-0.17932414
33	0x3e2ddc94	0.16978675
34	0xbe4a940a	-0.19783035
35	0xbe3c5564	-0.18391949
36	0xbd81f4fc	-0.06345555
37	0x3a043d98	0.00050445786
38	0x3dbfb370	0.09360397
39	0x3e2947f2	0.16531351
40	0x3e4b21f0	0.19837165
41	0x3e086ceb	0.13322799
42	0x3e0d2956	0.137853
43	0x3d90abac	0.07063994
44	0x3e2c86bc	0.16848272
45	0xbbfbd195	-0.0076848962
46	0x3df45ac8	0.11931378
47	0xbd4425f0	-0.047887743
48	0x3d792027	0.06082168
49	0xbcffc9e9	-0.031224208
50	0xbe530214	-0.20606261
51	0x3da8658c	0.082224935
52	0x3d4f76f6	0.05065056
53	0x3d3bd019	0.045852754
54	0xbe0aecc8	-0.13566887
55	0x3df05c80	0.11736393
56	0x3e18cfdf	0.14923047
57	0x3e4d16eb	0.20028274
58	0xbda59b7a	-0.080862954
59	0x3c030d11	0.007998721
60	0x3ddd63fb	0.108100854
61	0x3c75470f	0.014970555
62	0xbd24d8f0	-0.04024595
63	0x3e3c8dec	0.18413514

actor.2.weight f4 [32, 64]
0	0x3d53ce41	0.05171037
1	0x3dd21f5a	0.10259886
2	0x3c6b2bd3	0.01435371
3	0xbe8e1c1c	-0.2775582
4	0x3bb6db24	0.005580323
5	0x3e041066	0.1289688
6	0x3e47f4a7	0.19526921
7	0x3d6b7c9d	0.057491887
8	0x3e792f58	0.24334466
9	0xbe9898cb	-0.29804072
10	0x3e7675ed	0.24068423
11	0x3e299ed5	0.16564496
12	0xb9ad41ff	-0.00033046302
13	0xbca003a7	-0.019532992
14	0x3dc9bfba	0.09851022
15	0xbdbc2842	-0.09187366
16	0x3cc5a137	0.024124725
17	0x3ea81a78	0.32832694
18	0x3e05fbdd	0.1308436
19	0xbdde22d9	-0.108464904
20	0x3e896649	0.2683585
21	0xbec47da0	-0.38377094
22	0xbf1c0a5b	-0.609533
23	0x3ce2173f	0.027598975
24	0x3def6a8a	0.116902426
25	0x3d90a783	0.070632
26	0x3e863b14	0.26216948
27	0x3b9ba024	0.004749315
28	0x3e058f41	0.13042928
29	0x3e566c84	0.20939833
30	0x3c89705d	0.016777212
31	0x3cc63a09	0.024197595
32	0x3de3137e	0.11087702
33	0x3d0b9dff	0.034086224
34	0x3d8cae4e	0.068691835
35	0x3e0c03d6	0.13673338
36	0x3d89f485	0.067360915
37	0xbdc929e5	-0.09822444
38	0xbd1e950d	-0.038716365
39	0xbe90cf42	-0.28283125
40	0xbe1edee4	-0.15514714
41	0xbdb14220	-0.086551905
42	0xbe018b5e	-0.1265082
43	0xbe76ede5	-0.24114187
44	0x3c8cd393	0.01719073
45	0x3e5c0191	0.21484973
46	0xbd083c57	-0.03326067
47	0xbe620d12	-0.22075298
48	0x3da46f0e	0.080289945
49	0x3d009b3b	0.03139804
50	0x3e7b0232	0.24512556
51	0xbeb4b34f	-0.35293052
52	0x3d05b232	0.032640643
53	0xbd931635	-0.0718197
54	0xbe5b5057	-0.21417366
55	0xbd1b0476	-0.03784605
56	0xbbdf2e44	-0.006810935
57	0xbda57c32	-0.08080329
58	0xbc4b76d1	-0.012418465
59	0x3d351d50	0.044217408
60	0xbe65baab	-0.2243449
61	0xbe535d92	-0.20641163
62	0xbd1220d5	-0.035675842
63	0xbe5154ca	-0.204425
64	0xbf0fceb2	-0.56174767
65	0xbe6fc718	-0.23415792
66	0xbda35e78	-0.07977003
67	0xbdbe0a35	-0.092792906
68	0x3eb7b7fe	0.35882562
69	0xbd00cf96	-0.03144797
70	0xbd095d9e	-0.033536546
71	0xbefc78bf	-0.49310872
72	0x3e980232	0.29689175
73	0x3e7ddac0	0.24790478
74	0xbe0acebc	-0.13555425
75	0x3e17abab	0.1481158
76	0xbd84d3db	-0.06485721
77	0x3ef7cdb3	0.48399124
78	0xbec714c7	-0.3888304
79	0xbe802883	-0.25030908
80	0xbde85c7a	-0.113457635
81	0x3d55b510	0.052174628
82	0xbe023a35	-0.12717517
83	0xbeacae13	-0.33726558
84	0xbe1778d2	-0.14792183
85	0xbe94edab	-0.29087576
86	0xbd4e0c04	-0.050304428
87	0xbe7e24ea	-0.24818769
88	0xbc83aea8	-0.016074494
89	0xbb9dbfb3	-0.004814112
90	0x3d24f99e	0.040277116
91	0x3b0185ec	0.0019763662
92	0xbe81bd1f	-0.253396
93	0xbc076961	-0.00826487
94	0x38e5a0dd	0.00010949534
95	0x3d59ed42	0.053204782
96	0xbdf431f8	-0.11923593
97	0x3dc1022d	0.09424243
98	0xbe8ffc5e	-0.28122228
99	0xbd2d7cd0	-0.04235536
100	0xbddfec04	-0.10933688
101	0x3bc1e8b7	0.0059176343
102	0xbe757eb6	-0.23974118
103	0x3ed59e3c	0.41722286
104	0x3e2d484c	0.1692211
105	0x3c7ad024	0.015308414
106	0x3e288468	0.16456759
107	0xbb8a0bd8	-0.0042128377
108	0xbdb03939	-0.08604664
109	0xbe554c03	-0.20829777
110	0x3e49093a	0.19632426
111	0xbd9ac413	-0.075569294
112	0xbe849cd7	-0.2590091
113	0x3d052990	0.03251034
114	0xbdcfeb94	-0.10152355
115	0x3d2de250	0.042452157
116	0x3dee9b82	0.116507545
117	0x3d6be8ed	0.057595182
118	0xbf001921	-0.50038344
119	0x3d7c720f	0.061632212
120	0x3e4b1b1b	0.19834559
121	0x3b65a000	0.0035037994
122	0xbcbeec76	-0.023306113
123	0x3dc927e4	0.09822062
124	0xbd883319	-0.06650371
125	0x3d45c2b8	0.0482814
126	0xbd695277	-0.05696341
127	0x3ec124f9	0.3772352
128	0xbd68a2de	-0.056795947
129	0xbc019b5d	-0.007910577
130	0x3e04965f	0.12947987
131	0x3e81315f	0.2523298
132	0x3da4b30d	0.08041964
133	0xbdc54b25	-0.09633473
134	0x3dcb54c6	0.099282786
135	0xbe88d75f	-0.26726815
136	0xbd8d62bd	-0.069035985
137	0x3e095de4	0.13414723
138	0xbd1e334c	-0.03862314
139	0xbe973d9a	-0.29539186
140	0xbe174267	-0.14771424
141	0xbd5dc11c	-0.05413924
142	0xbdaee10a	-0.085390165
143	0xbe310aa8	-0.17289221
144	0xbe1de846	-0.15420637
145	0xbe025aea	-0.12729993
146	0xbc2f7c18	-0.010710739
147	0x3e7d8152	0.24756363
148	0xbe4bf7f6	-0.19918808
149	0x3e86da4b	0.2633842
150	0x3eb04de6	0.34434432
151	0x3d5decab	0.054180782
152	0x3bf8f6ba	0.0075977715
153	0xbd036ca8	-0.032086045
154	0xbdabf9fb	-0.08397289
155	0xbe1bfa83	-0.15232281
156	0xbc8e79ba	-0.017392028
157	0xbde76c53	-0.11299958
158	0x3c1183f1	0.008881555
159	0xbe50cabe	-0.2038984
160	0x3d6ae6f2	0.057349153
161	0x3e0b1de4	0.13585621
162	0x3df2e63f	0.11860322
163	0xbe40c54e	-0.18825266
164	0xbd13e324	-0.03610529
165	0x3d79183b	0.060814124
166	0xbd0180a7	-0.031616833
167	0x3e62e59c	0.22157902
168	0x3e202890	0.15640473
169	0x3ea024e3	0.31278142
170	0x3ceff939	0.029293643
171	0xbe27010c	-0.16308993
172	0x3e1036cf	0.14083408
173	0xbee854f4	-0.45377314
174	0xbd4aa74e	-0.04947596
175	0x3ebfb599	0.37443236
176	0xbd39e998	-0.045388788
177	0xbce8341c	-0.02834516
178	0xbde9abb6	-0.114097044
179	0x3c155283	0.009113911
180	0xbe261194	-0.16217643
181	0x3e1898c7	0.1490203
182	0x3e574de5	0.21025808
183	0x3d84c412	0.0648271
184	0xbdb95ddd	-0.09051106
185	0xbd938eb7	-0.07204955
186	0x3dfc20af	0.123109214
187	0x3ce4800f	0.027893094
188	0x3e0e01b4	0.13867837
189	0x3d305f35	0.043059547
190	0x3d68a3c9	0.056796823
191	0x3e4a56ee	0.19759724
192	0x3db1201a	0.08648701
193	0x3ed2abde	0.4114675
194	0x3ef72c94	0.48276198
195	0x3e3af78a	0.18258491
196	0xbe1bbbbc	-0.15208334
197	0x3dffe82c	0.12495455
198	0x3e73dc31	0.23814465
199	0x3d448d22	0.047986157
200	0xbe913d5f	-0.28367135
201	0xbe256f36	-0.16155705
202	0xbe38cd7c	-0.18047136
203	0xbe3e41c7	-0.1857978
204	0xbcfbf70c	-0.03075745
205	0xbeaf8028	-0.34277463
206	0x3e64d30e	0.22346136
207	0x3e3ab13e	0.18231675
208	0xbd4b8183	-0.04968406
209	0xbec2a6fe	-0.3801803
210	0x3dfa947c	0.122353524
211	0x3f297890	0.6619959
212	0xbd0deb02	-0.03464795
213	0x3e44ddd3	0.19225244
214	0x3e09fc0a	0.13475052
215	0x3c9945f6	0.018710118
216	0x3e0074c6	0.12544546
217	0xbb8e7654	-0.004347602
218	0x3d443c4d	0.04790907
219	0xbd9304d6	-0.07178657
220	0x3e77cddc	0.24199623
221	0x3d91290f	0.070879094
222	0xbea8dde4	-0.3298179
223	0xbf230eef	-0.6369466
224	0xbe23a7a4	-0.15981919
225	0x3ecdbe1b	0.401841
226	0x3e75b5e1	0.23995163
227	0xbe01dce7	-0.12681924
228	0xbda96806	-0.08271794
229	0xbe03e3ec	-0.12879914
230	0x3ea538ed	0.32269993
231	0xbe804c83	-0.25058374
232	0x3e517686	0.2045537
233	0x3b9ea7b8	0.004841771
234	0xbde28d33	-0.11062088
235	0xbdb35ddd	-0.087581374
236	0x3eb56f43	0.35436448
237	0x3cab425b	0.020905664
238	0x3e79efa9	0.2440783
239	0x3e831a4b	0.25605997
240	0x3eba2c4f	0.3636193
241	0x3d625f27	0.055266526
242	0xbed1b903	-0.40961465
243	0x3e23ebf5	0.16007979
244	0xbea71039	-0.32629564
245	0xbd92d06b	-0.07168659
246	0x3cfc86d7	0.030826015
247	0xbe8d109b	-0.2755173
248	0xbd939068	-0.07205278
249	0x3dd97f0c	0.106199354
250	0x3e2865fa	0.16445151
251	0xbc4cde01	-0.012504102
252	0x3eb0bb8e	0.34518093
253	0x3d1c6a0c	0.03818707
254	0xbde6fad7	-0.11278313
255	0x3dd7adcf	0.10531198

actor.2.bias f4 [32]
0	0xbd84c2f5	-0.064824976
1	0x3e098968	0.13431323
2	0x3d98d4ec	0.074624866
3	0x3d131496	0.035908304
4	0xbbc192b8	-0.005907383
5	0xbdb06a5b	-0.08614036
6	0xbcf03953	-0.02932421
7	0x3cbdf73b	0.023189178
8	0x3bde4ee2	0.006784306
9	0x3d6315c5	0.055440683
10	0xbd8aa046	-0.06768851
11	0xbd55af10	-0.052168906
12	0xbde578e9	-0.112047024
13	0x3dce407f	0.100708954
14	0xbc6e3223	-0.014538321
15	0x3b2d0d34	0.0026405575
16	0x3e1b7863	0.15182643
17	0xbd4bebec	-0.04978554
18	0x3d92409e	0.07141231
19	0x3d051138	0.032487124
20	0x3d59175f	0.053000804
21	0x3d136c01	0.035991672
22	0xbd64fdc3	-0.05590607
23	0x3e0b7ad2	0.13621071
24	0xbe417bd3	-0.18894891
25	0x3dd3fb22	0.10350634
26	0x3d547d20	0.05187714
27	0xbd9079ed	-0.070545055
28	0xbbe7cfb5	-0.007074321
29	0xbd8c702b	-0.06857332
30	0x3df57c7f	0.11986636
31	0xbe2144cd	-0.15748902

actor.4.weight f4 [4, 32]
0	0xbeb8b130	-0.36072683
1	0xbdaa9548	-0.083292544
2	0x3f01fed9	0.5077949
3	0x3e53fdeb	0.20702331
4	0xbe84c820	-0.25933933
5	0xbf08f0f3	-0.5349266
6	0xbdc8ae97	-0.09798925
7	0x3dcce126	0.10003881
8	0x3e4eda58	0.20200479
9	0xbeed8fa8	-0.46398664
10	0xbe437299	-0.19086684
11	0x3cc0bd41	0.023527743
12	0xbf8d19c2	-1.1023486
13	0x3df8343f	0.1211934
14	0x3f0233ff	0.5086059
15	0x3e57b2d4	0.21064311
16	0x3d0170ef	0.031601842
17	0x3e11f04c	0.14251822
18	0x3e897ce0	0.26853085
19	0x3f3eeff9	0.7458492
20	0x3de168d4	0.110063225
21	0x3edc1ec9	0.42992237
22	0x3e17ace0	0.1481204
23	0x3f5d1cb0	0.863719
24	0xbe6eec0d	-0.23332234
25	0xbe1f53f3	-0.15559368
26	0x3cb0733e	0.021539327
27	0x3e48f171	0.19623353
28	0xbe35f2b3	-0.17768364
29	0xbeb7cbcb	-0.3589767
30	0x3dfaecef	0.12252223
31	0xbe58d162	-0.21173623
32	0xbe227ccb	-0.15867917
33	0x3f4d11a0	0.8010502
34	0x3ea4e8ec	0.32208955
35	0xbec7a9e0	-0.38996792
36	0xbe42b69d	-0.19014974
37	0x3e068987	0.131384
38	0xbed5c8ca	-0.41754752
39	0xbeed30bb	-0.4632624
40	0xbf066424	-0.5249655
41	0x3cc43a21	0.0239535
42	0x3f383bdc	0.7196634
43	0x3f91c9c5	1.13897
44	0x3ded268f	0.1157962
45	0x3ec58d7c	0.38584507
46	0x3e1d8a64	0.15384823
47	0xbf3ef37e	-0.7459029
48	0x3efc9198	0.4932983
49	0xbcca737c	-0.02471327
50	0x3f240811	0.6407481
51	0x3c8a3991	0.016873153
52	0xbe73d4e7	-0.23811685
53	0x3e9c61a3	0.3054324
54	0x3f0322b6	0.5122484
55	0xbd42c9a9	-0.0475556
56	0xbe716d62	-0.23576882
57	0x3e54bc7c	0.20775026
58	0x3daa36f9	0.083112665
59	0xbf22ab0d	-0.6354225
60	0x3f06b00d	0.5261238
61	0xbe885d97	-0.26633903
62	0xbef598fd	-0.47968283
63	0xbef2671c	-0.4734429
64	0x3d608b07	0.054820087
65	0x3ca3c02e	0.0199891
66	0xbe81e107	-0.25366995
67	0xbee4ad39	-0.44663408
68	0xbdf5cb43	-0.1200166
69	0x3dfea9c6	0.124347255
70	0xbea9efa5	-0.33190647
71	0xbed25db5	-0.41087118
72	0xbea19681	-0.31560138
73	0x3d20f391	0.039294783
74	0xbe4d4307	-0.200451
75	0x3e4a1a6d	0.19736643
76	0x3e4bab88	0.19889653
77	0x3e7d2a2a	0.24723116
78	0x3d2106e2	0.039313205
79	0x3d5f2014	0.05447395
80	0x3e7aa734	0.24477845
81	0xbecbb363	-0.397853
82	0xbe1d3043	-0.15350442
83	0xbe90e78c	-0.28301656
84	0x3ceba5c4	0.028765567
85	0x3d8f7c70	0.070061564
86	0xbea483f3	-0.3213192
87	0xbde06d7c	-0.109583825
88	0xbdc95207	-0.098300986
89	0x3dfe23df	0.124091856
90	0x3d8a1277	0.06741803
91	0xbea270c4	-0.31726658
92	0xbd0ea994	-0.03482969
93	0x3e3b6a6d	0.18302317
94	0x3edc24f5	0.42996946
95	0x3d012c0a	0.03153614
96	0xbd4f20ca	-0.05056838
97	0xbe216aa7	-0.15763341
98	0x3c58ab29	0.0132244015
99	0xbe159dd6	-0.14610991
100	0xbede66ff	-0.43437955
101	0x3e551304	0.20808035
102	0xbe9b0830	-0.30279684
103	0xbde2e94c	-0.11079654
104	0xbe0a3d7e	-0.1350002
105	0x3ebde86c	0.37091386
106	0x3c58319e	0.013195423
107	0x3e634073	0.22192554
108	0xbd945189	-0.07242114
109	0xbe6b2312	-0.22962597
110	0xbec3f278	-0.38270926
111	0x3dccd3bc	0.100013226
112	0xbea851e5	-0.3287498
113	0xbf53ca24	-0.8273032
114	0x3e3459e4	0.17612416
115	0x3cdb888e	0.026798513
116	0xbebdd001	-0.37072757
117	0xbed85d40	-0.42258644
118	0xbebb01c4	-0.36524785
119	0x3e006a28	0.12540495
120	0x3ecf5682	0.40495688
121	0xbf18ab15	-0.5963605
122	0xbf235931	-0.6380797
123	0x3c8183ba	0.015809882
124	0x3e9a38c1	0.30121425
125	0xbe9f1598	-0.31071162
126	0x3ee49647	0.44645903
127	0xbe49e40c	-0.19715899

actor.4.bias f4 [4]
0	0x3e16e8e5	0.1473728
1	0xbdce9636	-0.10087244
2	0x3e59165f	0.2119994
3	0xbe4c8e4f	-0.19976161

critic.0.weight f4 [64, 24]
0	0x3e453ce7	0.19261514
1	0x3e0f5686	0.1399785
2	0x3e269712	0.16268566
3	0xbe000495	-0.12501748
4	0xbd76d325	-0.060259957
5	0xbd88c4d5	-0.06678168
6	0x3d9b5778	0.07585043
7	0x3dc969f2	0.098346606
8	0x3e2d40c2	0.16919234
9	0xbdfe2592	-0.1240951
10	0x3d1a1f36	0.03762742
11	0xbcf951a9	-0.030434446
12	0xb9a0dc05	-0.00030681505
13	0x3e5174b1	0.2045467
14	0xbe1245c8	-0.14284432
15	0xbda56899	-0.08076591
16	0x3d2d1a69	0.042261515
17	0x3dc34d2f	0.09536206
18	0xbd4ca9c7	-0.0499666
19	0xbd1b3520	-0.03789246
20	0xbd87ea11	-0.066364415
21	0xbbec166b	-0.007204821
22	0xbe24877f	-0.16067313
23	0xbd961074	-0.07327357
24	0x3c60af5c	0.013713684
25	0x3e1fedcc	0.15618056
26	0x3e069e64	0.13146359
27	0x3d4c428e	0.04986816
28	0xbd857267	-0.06515961
29	0x3e1d45e1	0.15358688
30	0xbe2b9984	-0.1675778
31	0x3d809fb3	0.0628046
32	0x3cb4afa0	0.0220564
33	0xbd0869a7	-0.033303883
34	0x3e3be673	0.18349628
35	0x3db49cca	0.08818968
36	0x3e334a97	0.17508923
37	0xbe037c5d	-0.1284041
38	0xbdaff3e9	-0.08591444
39	0xbe1ec887	-0.15506183
40	0x3dd02473	0.10163202
41	0xbe2a81bf	-0.16651057
42	0x3d5a55f9	0.053304646
43	0x3de78b9c	0.11305925
44	0x3d18cc39	0.037304137
45	0x3cab1e20	0.020888388
46	0xbdaa9dc2	-0.08330871
47	0xbd5fbdcf	-0.054624375
48	0xbdde61fc	-0.10858533
49	0x3d932fde	0.07186864
50	0x3dbf1850	0.09330809
51	0xbd8b36e2	-0.067975774
52	0xbe047022	-0.129334
53	0xbda64932	-0.0811943
54	0xbdf38f9a	-0.11892624
55	0xbd5d798e	-0.054071
56	0x3e094f1e	0.13409087
57	0x3e0e9dcb	0.1392738
58	0x3df62ccf	0.12020265
59	0x393e0304	0.00018120935
60	0xbce6ac8a	-0.028158445
61	0x3e257407	0.16157542
62	0xbe56432f	-0.20924066
63	0x3c0425f4	0.008065689
64	0xbe1ad090	-0.15118623
65	0xbdeb8cf1	-0.11501492
66	0x3dcf75d2	0.10129894
67	0xbe372ecc	-0.17888945
68	0xbde7634a	-0.11298235
69	0xbe20fab4	-0.15720636
70	0x3e468e5c	0.19390243
71	0xbd88e962	-0.06685139
72	0x3e1b6395	0.15174706
73	0xbddee51c	-0.10883543
74	0x3e0acf61	0.13555671
75	0xbdc952c3	-0.09830239
76	0x3d454c8d	0.048168708
77	0x3dbba4e0	0.09162307
78	0x3deb758a	0.11497028
79	0xbdcba7ae	-0.09944092
80	0x3e12a399	0.1432022
81	0x3e0a86a5	0.13527925
82	0x3d4e143d	0.05031227
83	0x3d962748	0.07331711
84	0xbd74a382	-0.059726246
85	0x3da853cb	0.08219107
86	0x3de459cf	0.11149942
87	0x3df1777a	0.117903665
88	0x3cc0f563	0.02355451
89	0xbe2df567	-0.16988145
90	0x3e31f711	0.17379405
91	0xbe32c1f8	-0.17456806
92	0xbe25810c	-0.16162509
93	0x3c3394dd	0.010960785
94	0x3d089e27	0.03335395
95	0x3e0d7300	0.138134
96	0xbe0995dd	-0.13436075
97	0xbc00e5a9	-0.007867255
98	0xbdcda417	-0.10041063
99	0xbe6b703a	-0.2299203
100	0x3dfe2fc3	0.124114536
101	0xbca69a5d	-0.020337278
102	0x3de993f7	0.11405175
103	0xbd0dd58f	-0.034627493
104	0x3df7f56c	0.121073574
105	0xbe0a390c	-0.13498324
106	0x3d1cda70	0.038294256
107	0xbd9a00b1	-0.07519663
108	0x3bab240d	0.0052228034
109	0xbd2cb455	-0.042164166
110	0xbe488611	-0.19582392
111	0xbdb1a0bc	-0.08673236
112	0x3e0dce1a	0.13848153
113	0xbe1bc3b2	-0.1521137
114	0x3e3667dc	0.17813057
115	0x3dbc2f99	0.09188766
116	0x3dc5f3a4	0.096656114
117	0x3e0f94ec	0.14021653
118	0xbe33d98f	-0.17563461
119	0x3aefb123	0.0018287044
120	0xbd1b80d5	-0.03796466
121	0x3cee9345	0.029122958
122	0xbe3c88f9	-0.18411626
123	0xbd0c12ef	-0.034197744
124	0x3db5d819	0.08879108
125	0xbdd5ccba	-0.10439439
126	0xbb5c813b	-0.0033646363
127	0xbd99d929	-0.07512123
128	0x3d80953b	0.062784635
129	0x3d3c7188	0.04600671
130	0x3d7b856f	0.06140655
131	0xbd698fbd	-0.057021845
132	0xbb950048	-0.0045471527
133	0x3df570d3	0.1198441
134	0xbcea187b	-0.028576126
135	0x3d462318	0.04837331
136	0x3d8dd55e	0.06925462
137	0x3d8c3ee6	0.068479344
138	0xbe598184	-0.21240813
139	0xbe0c3672	-0.13692644
140	0xbd270467	-0.040775683
141	0xbd3cc2d6	-0.046084248
142	0x3e25a777	0.16177164
143	0xbb094fa4	-0.002095201
144	0xbd5b2252	-0.053499527
145	0xbdfca91e	-0.12336944
146	0xbdd6f956	-0.10496776
147	0x3ddd22b5	0.107976355
148	0x3e07efa6	0.13275012
149	0x3df428cd	0.11921845
150	0xbcc22e2d	-0.023703659
151	0xbb8f6894	-0.0043764804
152	0x3dfea6e8	0.124341786
153	0xbd293826	-0.041313313
154	0x3daacd65	0.08339957
155	0x3ccdf5dc	0.025141649
156	0x3d6d100d	0.057876635
157	0xbe3a8ac3	-0.18216996
158	0xbdbc0943	-0.09181454
159	0xbe3d46a6	-0.18483981
160	0x3e1587a0	0.14602518
161	0x3dd531f3	0.10409918
162	0xbd9ec45d	-0.07752297
163	0xbe1ec355	-0.15504201
164	0xbe052c7b	-0.13005249
165	0x3e0ed903	0.13949971
166	0x3dff3dc4	0.12462953
167	0x3d7c118b	0.061540168
168	0xbe0fbd27	-0.14037
169	0x3de07c91	0.10961259
170	0x3c73fbc0	0.014891565
171	0x3c70c246	0.014694756
172	0x3e32724c	0.17426413
173	0x3d1c3df3	0.038145017
174	0xbdc71bdd	-0.097221114
175	0xbcbfa5bc	-0.023394458
176	0xbe25d319	-0.16193809
177	0x3e195156	0.14972433
178	0x3d9baf73	0.07601824
179	0x3da0bc76	0.07848446
180	0x3d96699d	0.07344363
181	0x3dd43c69	0.10363085
182	0xbdf77755	-0.12083308
183	0x3e1b94ee	0.15193531
184	0xbe5011bb	-0.20319264
185	0x3d6f80c4	0.05847241
186	0xbd581e52	-0.05276329
187	0x3bdd116a	0.0067464607
188	0x3d8a0cb3	0.067407034
189	0xbe5cd81a	-0.21566811
190	0xbd58a449	-0.05289105
191	0x3dbedbec	0.093192905
192	0xbe09f0ba	-0.13470736
193	0x3db19ed7	0.086728744
194	0xbe2d3c12	-0.16917446
195	0x3d3b95b9	0.045797084
196	0xbd12e6b3	-0.035864543
197	0x3cebd98e	0.028790262
198	0xbdd7982f	-0.105270736
199	0x3da2a838	0.079422414
200	0xbdeeaefc	-0.11654469
201	0x3ddac8eb	0.10682853
202	0xbd26da58	-0.040735573
203	0x3dd94bc7	0.106101565
204	0xbe3d887b	-0.18509094
205	0xbb185c6e	-0.0023248452
206	0xbdab052e	-0.08350597
207	0xbd5cd5a2	-0.053914674
208	0x3c9de1d2	0.019272719
209	0xbe1beb37	-0.15226446
210	0xbe187ed2	-0.14892128
211	0x3e055dbb	0.13024037
212	0x3d271288	0.040789157
213	0x3df6c599	0.120494075
214	0xbe369328	-0.17829573
215	0xbe054d22	-0.13017705
216	0x3d078f0d	0.03309541
217	0x3cda4c97	0.026647849
218	0x3c75533a	0.014973456
219	0x3db3c012	0.08776869
220	0x3d6a9881	0.057274345
221	0x3d86d681	0.06583882
222	0xbd974cbc	-0.07387683
223	0xbb85ab41	-0.004079253
224	0x3e08aba3	0.13346724
225	0x3ae396b2	0.0017363636
226	0x3c420fd6	0.011844596
227	0x3dad9389	0.08475406
228	0xbd8eea81	-0.06978322
229	0xbe567c0d	-0.20945759
230	0xbe5c9ad8	-0.21543443
231	0xbe103ef9	-0.14086522
232	0x3d69d60f	0.057088908
233	0xbd4b2b8a	-0.04960207
234	0xbdb72582	-0.08942701
235	0xbe2a0ca1	-0.1660638
236	0x3d18d5ee	0.037313394
237	0xbcaa6fac	-0.020805202
238	0x3dd3973c	0.1033158
239	0x3d817b77	0.06322377
240	0xbe85a220	-0.26100254
241	0xbc167b89	-0.0091847265
242	0xbe590e5d	-0.21196885
243	0x3dcccb17	0.09999674
244	0xbdefd738	-0.117109716
245	0xbb528db7	-0.0032127926
246	0xbd666494	-0.056248263
247	0x3d84a6b4	0.064771086
248	0xbd72791e	-0.059197538
249	0x3dd04cc2	0.101708904
250	0x3dce1153	0.10061898
251	0xbe01c177	-0.12671457
252	0xbd3ff9e4	-0.046869174
253	0xbe318869	-0.17337193
254	0x3e0cb340	0.13740253
255	0xbe133088	-0.14373982

critic.0.bias f4 [64]
0	0x3e4560ab	0.19275157
1	0x3d9d1be2	0.07671334
2	0xbdf7d96d	-0.121020176
3	0xbe2bc8d8	-0.16775835
4	0x3e42f815	0.19039948
5	0xbc593a03	-0.01325846
6	0x3ddc2af3	0.107503794
7	0x3e35665a	0.17714825
8	0xbcaaf7c3	-0.020870095
9	0x3d3eb4aa	0.046559013
10	0x3ddeddfc	0.10882184
11	0xbe376d41	-0.17912771
12	0xbd3a93f6	-0.045551263
13	0x3df901d4	0.12158552
14	0xbcd5d206	-0.026101124
15	0xbc30d8a8	-0.010793842
16	0xbcb5bcd8	-0.022184774
17	0xbc685ada	-0.014181817
18	0xbe24a5b3	-0.16078834
19	0xbd5e08ef	-0.05420774
20	0x3b006517	0.0019591504
21	0xbdb17e2f	-0.08666646
22	0xbe16a2a7	-0.14710484
23	0xbcbe18ad	-0.023205126
24	0x3e6076a2	0.21920255
25	0xbd49d773	-0.049277734
26	0x3db0df2e	0.08636318
27	0xbdc9b500	-0.09848976
28	0x3b532275	0.0032216583
29	0xbe0badb5	-0.13640483
30	0xbd3f50aa	-0.046707787
31	0x3e2a238f	0.16615127
32	0xbcba097d	-0.022709602
33	0x3cceca0c	0.025242828
34	0x3d801669	0.062542744
35	0xbe45a019	-0.19299354
36	0xbe07b7a5	-0.13253649
37	0xbd1e0ca6	-0.03858628
38	0xbe1ec734	-0.15505677
39	0xbbb34979	-0.005471405
40	0x3db6b6be	0.08921574
41	0x3c82321d	0.015893036
42	0xbe36c69c	-0.17849201
43	0xbe16cfcf	-0.1472771
44	0xbe0a1a74	-0.13486654
45	0xbe44cae0	-0.19218016
46	0xbe1c16c0	-0.15243053
47	0x3bdcb430	0.006735347
48	0x3deb4754	0.11488214
49	0x3dbbb4cd	0.091653444
50	0xbda332e3	-0.0796869
51	0xbe2cf5a5	-0.16890581
52	0x3dcbfe33	0.09960594
53	0x3dea829b	0.11450692
54	0x3dbe39f3	0.09288397
55	0xbd81e07d	-0.06341646
56	0x3e2b8bed	0.16752596
57	0xbd27965e	-0.040914886
58	0xbe36c486	-0.17848405
59	0x3d4a043c	0.049320444
60	0xbe11a238	-0.14222038
61	0x3d49fb07	0.049311664
62	0xbe1736a7	-0.14766942
63	0xbdaea537	-0.08527606

critic.2.weight f4 [32, 64]
0	0x3d959c11	0.07305158
1	0xbd9fa77e	-0.077956185
2	0xbd8c896d	-0.068621494
3	0xbccdc088	-0.02511622
4	0x3d5f105a	0.054458953
5	0xbd95d22c	-0.07315478
6	0xbdbd74a9	-0.09250767
7	0xbd1cd12b	-0.038285416
8	0x3dbf3893	0.093369626
9	0x3dc3a1b9	0.095523305
10	0xbdf6f0fc	-0.12057683
11	0x3cce4877	0.025181038
12	0xbd8e63ec	-0.06952652
13	0xbe069b7b	-0.13145249
14	0xbd20be68	-0.039244086
15	0x3e0531e3	0.13007312
16	0xbce45964	-0.027874656
17	0xbc8c5670	-0.01713106
18	0xbde01f6b	-0.109434925
19	0x3dba0e81	0.09084798
20	0x3dbdc17d	0.092654206
21	0x3da848c7	0.08217006
22	0xbdcef985	-0.10106186
23	0xbd203532	-0.03911323
24	0x3dc0dfcc	0.09417686
25	0x3dd11b73	0.10210314
26	0xbd9ad7eb	-0.07560714
27	0x3dba19c5	0.090869464
28	0x3d4d25b8	0.0500848
29	0xbdd1cdc2	-0.10244323
30	0x3da42111	0.080141194
31	0xbc1b59bd	-0.0094818445
32	0x3c80a83e	0.015705224
33	0xbd4ddccd	-0.0502594
34	0x3cac6889	0.02104594
35	0xbd980d1e	-0.07424377
36	0xbc97f428	-0.01854904
37	0xbca49584	-0.020090826
38	0xbdcc02ca	-0.099614695
39	0x3dcdc339	0.100470014
40	0xbdb3f97b	-0.08787819
41	0x3d825361	0.063635595
42	0x3b4810fa	0.0030527697
43	0x3ab4ee2e	0.0013803893
44	0x3d1e73f1	0.03868479
45	0x3db6d681	0.08927632
46	0xbe0144af	-0.12623857
47	0x3d70b12c	0.058762714
48	0xbd8d4a3d	-0.068989255
49	0x3dd55a5b	0.104176246
50	0xbd9eb96e	-0.07750212
51	0x3da2e276	0.0795335
52	0xbdf3855e	-0.11890672
53	0xbc043ebd	-0.008071599
54	0x3d49f1fc	0.04930304
55	0x3e0634d3	0.13106088
56	0x3de069c8	0.10957676
57	0xbd89b5cd	-0.06724129
58	0xbdd94b1d	-0.1061003
59	0x3ce93203	0.02846623
60	0x3dcf9bde	0.10137151
61	0xbd506a7c	-0.0508828
62	0xbd4627f6	-0.048377953
63	0xbd8b901c	-0.06814596
64	0x3da8f3a0	0.08249593
65	0xbcc28f9f	-0.023750124
66	0x3dc3d3b1	0.09561861
67	0xbccd5bea	-0.025068242
68	0x3dc74f93	0.097319745
69	0x3c625757	0.013814769
70	0xbd66dc4a	-0.056362428
71	0x3c7c09fb	0.015383239
72	0xbdb2d104	-0.08731273
73	0xbda6564b	-0.08121928
74	0x3cb980f6	0.022644501
75	0xbdb9e319	-0.090765186
76	0x3de05ccd	0.109552
77	0x3dde0a20	0.10841775
78	0x3daaa95d	0.08333085
79	0xbc0199c4	-0.007910196
80	0x3d96ad9c	0.07357332
81	0x3d956289	0.07294185
82	0xbd0c8f8f	-0.034316596
83	0x3cd25f89	0.02568032
84	0xbbf2a8b4	-0.007405365
85	0xbd426757	-0.047461834
86	0xbd7b2289	-0.061312232
87	0x3dd6be48	0.10485512
88	0xbd86b27e	-0.065770134
89	0xbd1a520d	-0.037675906
90	0xbda8703c	-0.08224532
91	0x3db07d7f	0.086176865
92	0xbdc91c25	-0.09819821
93	0xbd5a0464	-0.053226843
94	0x3bd767ec	0.0065736677
95	0x3d46903a	0.04847739
96	0xbde1f7b5	-0.110335745
97	0xbdb33efd	-0.087522484
98	0xbdc87417	-0.097877674
99	0x3db8ab60	0.09017062
100	0x3d7e6971	0.062112276
101	0xbd158963	-0.036507975
102	0x3cd792cd	0.026315117
103	0x3deedd1c	0.11663267
104	0x3d60ca0b	0.054880183
105	0x3d4f4ab5	0.050608356
106	0x3d5358f5	0.051598508
107	0xbdf495f3	-0.11942663
108	0x3da0029e	0.07812999
109	0xbdef35c3	-0.11680176
110	0x3dbe7047	0.09298759
111	0x3d1a20d0	0.03762895
112	0xbdde092c	-0.10841593
113	0xbca5ce94	-0.020240106
114	0xbd5aabc0	-0.05338645
115	0xbde56f4b	-0.11202868
116	0xbde42610	-0.11140072
117	0x3d2d5efc	0.042326912
118	0xbd39523c	-0.04524444
119	0x3c43bc20	0.011946708
120	0x3dc96281	0.09833241
121	0xbd7b58ed	-0.061364103
122	0xbd8b44bb	-0.06800219
123	0x3d90ad89	0.07064349
124	0xbcdb1a65	-0.026745984
125	0xbd438c0a	-0.047740974
126	0xbd992f61	-0.0747974
127	0x3d397f06	0.045287155
128	0x3d6699b5	0.05629893
129	0xbd83c42e	-0.06433903
130	0x3e03144f	0.12800716
131	0xbd238112	-0.039918013
132	0xbba01cb0	-0.0048862323
133	0xbc9699b5	-0.01838384
134	0x3d00a258	0.031404823
135	0x3d4109d9	0.047128532
136	0xbd139e1a	-0.03603945
137	0xbddfd9a8	-0.109301865
138	0x3d9fea20	0.07808328
139	0xbded87cf	-0.11598169
140	0xbc2d1dce	-0.010566188
141	0x3db75bd5	0.089530624
142	0x3d42cfea	0.047561564
143	0x3d7c6b17	0.061625566
144	0x3d167110	0.03672892
145	0xbd4d508f	-0.050125655
146	0xbd31fcdd	-0.04345404
147	0xbd8c6a5e	-0.068562254
148	0x3ccde60b	0.025134107
149	0xbcedb54d	-0.029017115
150	0xbd8312d2	-0.06400074
151	0x3c9c4e5e	0.019080337
152	0x3db5ca23	0.08876445
153	0xbd31cd06	-0.043408416
154	0x3d1b9a0a	0.0379887
155	0x3cb72c4e	0.022359993
156	0x3de2158b	0.11039265
157	0xbd206ca8	-0.039166123
158	0x3d05abbb	0.032634478
159	0x3cdfb11e	0.027306136
160	0x3dbdccbf	0.09267568
161	0xbe14aab4	-0.14518243
162	0x3d905d56	0.070490524
163	0x3babda14	0.005244503
164	0xbd99c2fd	-0.07507894
165	0x3d6f5c11	0.05843741
166	0xbd0db87b	-0.034599762
167	0xbd0f2de2	-0.034955867
168	0xbd09f5fb	-0.03368185
169	0xbdd49f32	-0.103819266
170	0x3d7d7eb8	0.061888427
171	0xbdb2eb89	-0.08736331
172	0xbcd1187b	-0.025524369
173	0x3cb972c6	0.022637736
174	0xbcf28525	-0.029604504
175	0x3c62c108	0.013839968
176	0x3b169e01	0.0022982361
177	0x3d82178a	0.06352146
178	0x3d8062f4	0.06268874
179	0x3d825f5a	0.06365843
180	0x3ddbb9e3	0.107288145
181	0x3c97f652	0.018550072
182	0xbc258c90	-0.0101043135
183	0xbdf259b3	-0.11833515
184	0xbc0795c5	-0.008275454
185	0xbc174334	-0.009232331
186	0x3dd0c91b	0.10194608
187	0x3dcb5f4e	0.09930287
188	0x3d3c8d9d	0.04603349
189	0xbd0f02b7	-0.0349147
190	0x3d8e6635	0.06953088
191	0x3d8fa052	0.070130005
192	0xbca6a80b	-0.020343801
193	0x3d9a7aae	0.075429305
194	0x3c83bc77	0.016081078
195	0xbdcc5ec0	-0.0997901
196	0x3d3c1ff6	0.045928918
197	0xbd6c9111	-0.057755534
198	0xbd450aa4	-0.04810585
199	0x3d85bc4c	0.065300554
200	0x3ca7737b	0.020440808
201	0xbdced4bb	-0.10099169
202	0x3d0a70d3	0.033799004
203	0xbc94a385	-0.018144378
204	0x3d2de4c5	0.0424545
205	0xbd41a34f	-0.047274884
206	0xbd03e47a	-0.032200314
207	0xbdd75a75	-0.105153
208	0x3c36b72f	0.011152073
209	0xbd013bec	-0.031551287
210	0xbda87f8e	-0.08227454
211	0xbdfc2a9f	-0.12312817
212	0xbdb27331	-0.08713377
213	0x3dda711e	0.10666107
214	0xbe09aae6	-0.13444099
215	0xbdabec5d	-0.08394692
216	0x3dc6fb93	0.09715953
217	0x3d37bfb0	0.04486054
218	0x3c8efe42	0.017455224
219	0x3dfb9daf	0.12285935
220	0x3dee3cca	0.11632688
221	0x3dc88a78	0.09792036
222	0x3d80a59a	0.06281586
223	0xbd1fc3b0	-0.03900498
224	0xbdb9ad5c	-0.09066269
225	0x3d9ffb46	0.078115985
226	0xbde82fd1	-0.11337245
227	0xbda752bb	-0.081700765
228	0xbdb884d4	-0.0900971
229	0x3e0ddd28	0.13853896
230	0xbd38b87e	-0.04509782
231	0x3dc6189a	0.09672661
232	0xbdbea2c4	-0.09308389
233	0x3cc0af07	0.02352096
234	0x3dbe8d9a	0.09304352
235	0x3d45a2fa	0.04825113
236	0x3db619cd	0.0889164
237	0xbdc80978	-0.09767431
238	0x3da8508e	0.082184896
239	0x3dca03cd	0.09864006
240	0xbd7e1645	-0.062032957
241	0x3d89252b	0.06696542
242	0x3de492ef	0.11160838
243	0x3de7a710	0.113111615
244	0xbd93c7a1	-0.072158106
245	0x3cb92090	0.022598535
246	0xbd637693	-0.055533003
247	0xbd60533a	-0.05476687
248	0xbd314a05	-0.04328348
249	0x3cc7f472	0.024408553
250	0x3e04245e	0.12904498
251	0xbd7dc189	-0.061952148
252	0xbcd0b2f9	-0.025475966
253	0xbdaa719c	-0.083224505
254	0x3d8b1be2	0.067924276
255	0x3d521813	0.05129249

critic.2.bias f4 [32]
0	0xbd24fdf9	-0.04028127
1	0x3c65b90e	0.014021171
2	0xbdd6c089	-0.10485942
3	0x3c4121e6	0.011787867
4	0x3d998d11	0.074976094
5	0xbd81d05f	-0.06338572
6	0x3cfaef07	0.030631555
7	0xbdd61264	-0.104527265
8	0xbcba5593	-0.022745883
9	0x3d96aac3	0.07356789
10	0x3d89c540	0.067270756
11	0x3d7a3301	0.061083797
12	0x3de82ca2	0.11336638
13	0xbdb21b62	-0.08696629
14	0x3da59c73	0.08086481
15	0x3d2bf3d0	0.041980565
16	0xbdb8195d	-0.08989213
17	0xbd47caa8	-0.048777252
18	0xbd11782b	-0.03551499
19	0x3d9980cb	0.074952684
20	0x3d8a07d7	0.067397766
21	0x3d337f2b	0.04382245
22	0x3abcdd90	0.0014409292
23	0xbd618947	-0.05506256
24	0x3e0f2e49	0.139825
25	0xba267d94	-0.000635111
26	0x3da2c0d7	0.079469375
27	0x3d8475a4	0.06467751
28	0xbc1925a1	-0.00934735
29	0x3de40ca3	0.11135223
30	0xbd003aa2	-0.031305917
31	0x3df85c01	0.12126923

critic.4.weight f4 [1, 32]
0	0x3d40321d	0.04692279
1	0x3d9096ab	0.07059988
2	0xbe02d3a0	-0.12776041
3	0xbd31f02e	-0.043441944
4	0x3d958d9f	0.07302403
5	0x3927bd59	0.00015996899
6	0x3dc2caf9	0.0951137
7	0x3e0177b9	0.12643327
8	0x3a0033de	0.00048905413
9	0x3e115e1e	0.14196059
10	0x3da23bfd	0.07921598
11	0xbd9e99e1	-0.07744194
12	0xbc5ca365	-0.013466691
13	0xbd220759	-0.03955779
14	0x3c82102c	0.015876852
15	0xbdf1d9b8	-0.11809105
16	0x3dfdb410	0.1238786
17	0xbdbeb54f	-0.093119256
18	0xbd0f08b3	-0.034920406
19	0x3d2b0313	0.04175098
20	0xbc684661	-0.014176936
21	0xbda77745	-0.08177046
22	0xbca7d53a	-0.020487417
23	0xbd837a17	-0.06419771
24	0xbd1cbdac	-0.038266823
25	0x3db37f1a	0.08764477
26	0xbc56963b	-0.013097341
27	0xbca04516	-0.019564193
28	0x3dd75776	0.10514729
29	0xbdf106ed	-0.11768899
30	0x3e0d31f8	0.13788593
31	0xbdb56d34	-0.088587195
