Policy Gradient/walker_ppo_model_old_7400.pth (torch, 34325 bytes, 11 tensors)

actor.0.weight f4 [64, 24]
000000 ec a0 b8 bd a0 f0 cf 3e 65 3c 7c bd c8 1d 21 3f
       -0.090150684 0.4061327 -0.061581034 0.6293607
000010 25 f3 1e be 9a 27 bf bd 2b c8 2d 3f dd 26 3a be
       -0.1552244 -0.09333725 0.6788356 -0.18178888
000020 bc 77 59 be 15 c3 0e be 17 cf 95 bc 03 c8 4f be
       -0.21237081 -0.13941605 -0.018287225 -0.20291142
000030 8c 86 80 3d 2d 15 03 3d b1 ad 4a 3e d0 5d 1c 3e
       0.06275663 0.032002617 0.1979282 0.15270162
000040 a1 d2 38 3c a1 43 7e bd 1d 2c 23 3e 96 f7 2c be
       0.011280687 -0.062076215 0.15934797 -0.16891322
000050 59 df 03 3d 24 c4 0e 3e 37 e5 fc 3d f2 07 c8 3c
       0.032195423 0.13942009 0.12348407 0.024417851
000060 af f4 28 bb a1 76 5a 3e 9c b6 4b 3e 2d 3a 11 3e
       -0.0025780608 0.21334316 0.19893879 0.14182349
000070 48 89 72 3e c3 31 24 3e 6d d5 23 3f 65 f4 1c be
       0.23685181 0.16034608 0.63997537 -0.15327604
000080 11 70 2c be 3e 2d 5d bd 6b af 28 3e 2b 91 d6 3d
       -0.16839625 -0.053998224 0.16473167 0.10476907
000090 d3 a4 7e bd 96 6e a8 3d 44 26 e1 3d 07 a3 8e 3d
       -0.062168907 0.082242176 0.10993627 0.06964689
0000a0 88 ad 61 bd d1 b5 bb 3d 69 3e f7 bd 7f be fd 3c
       -0.055097133 0.09165538 -0.12072451 0.030974625
0000b0 6c 47 96 3c 25 cd 8f bd 12 5b e4 bb ea 4f ea 3d
       0.018344603 -0.0702155 -0.0069688642 0.11441024
0000c0 96 5f af bd 5a 7d c5 be d7 35 6b bb 1e f3 b2 be
       -0.085631534 -0.38572198 -0.0035890245 -0.3495111
0000d0 1f ba 0c be ad 52 1a 3d 57 0b d4 3e 35 70 ed 3d
       -0.13742875 0.037676502 0.41414902 0.115936674
0000e0 d3 56 45 be d2 5d 09 3e 4d 16 12 be fb 7e ac 3e
       -0.19271402 0.13414696 -0.1426632 0.33690628
0000f0 10 6f 16 be ec 2d 6b 3e 65 dd 70 be f7 16 63 be
       -0.14690804 0.22966737 -0.23521955 -0.22176729
000100 41 94 53 be 1a ec 12 3d 7a 4f 64 be 79 a0 e9 3d
       -0.20662023 0.035869695 -0.22295943 0.11407561
000110 7c 4a 31 bd 07 bc 12 be 7f 8e 3e be ce ca 69 bd
       -0.043283924 -0.14329539 -0.18609045 -0.057078175
000120 e5 85 88 be 97 27 cd be b9 86 03 be 33 0c 41 be
       -0.26664653 -0.40069267 -0.12844361 -0.1885231
000130 15 f5 ba be a3 bd 23 be 76 69 66 3c d1 25 0f be
       -0.36515108 -0.1599031 0.01406323 -0.1397927
000140 8d da 62 bd 1a 01 cc 3d 82 be 23 3d e5 d1 5a bd
       -0.055384208 0.099611476 0.039976604 -0.053422827
000150 e7 9a dd 3d 8b 11 17 3d ee 0e 22 be 27 25 78 be
       0.10820561 0.036881965 -0.15826008 -0.24232922
000160 dc 21 21 be 16 02 a8 3d 56 95 64 bd a1 90 8e 3d
       -0.15735573 0.08203523 -0.05580648 0.069611795
000170 11 72 23 3d 48 f1 19 be 68 fc 14 3e 53 ca 65 3d
       0.039903704 -0.15033448 0.1454941 0.056101155
000180 9a d3 38 be 25 f8 91 be 3b 28 46 be f8 ff b5 be
       -0.1804947 -0.28509632 -0.19351284 -0.3554685
000190 1b 1b 1b 3e ee bb b2 3c 8d 75 dd be 69 1b d0 bc
       0.15147059 0.021818127 -0.43253747 -0.025403695
0001a0 a7 13 9c bd 5b 6f 12 bc 8a 58 84 3c 8e f8 d1 3e
       -0.07620936 -0.008937682 0.0161555 0.41009945
0001b0 f8 cf 30 3e 56 3d 2b 3e b8 53 b6 3d 48 02 af 3d
       0.17266834 0.16722617 0.08902687 0.08545357
0001c0 0e 00 50 be 2c 1b 2b bc d2 bf aa bd 10 6f 22 bd
       -0.20312521 -0.01044349 -0.08337368 -0.0396567
0001d0 00 52 2e 3d 40 de 0e be 2b d4 28 be 47 a6 5e 3d
       0.04255867 -0.13951969 -0.16487186 0.054357793
0001e0 a2 d0 ce 3d 5d 34 c4 bc 19 fd 21 3d 17 58 04 be
       0.10098387 -0.02395075 0.039548013 -0.12924229
0001f0 36 07 22 3d 56 86 6f bc 87 dd d7 3e 20 df 1d bd
       0.039557658 -0.0146194305 0.421612 -0.038542867
000200 64 d2 06 3e 92 c0 6c bd e3 d1 98 3d 0d 06 cd 3d
       0.13166195 -0.057800837 0.07461908 0.1001092
000210 6f 2b 29 be 3b 6b 6d 3e c7 99 35 bd 4d d1 15 be
       -0.16520475 0.23185436 -0.044336107 -0.14630623
000220 e0 d3 5b bc db 76 11 3e 4b 5f 07 be ba 5c 24 be
       -0.013417214 0.14205496 -0.13219945 -0.16050997
000230 c0 a1 5f bd 1b e1 29 3d 63 59 fa bd 17 b0 81 bc
       -0.054597616 0.041474443 -0.122240804 -0.015831036
000240 87 6c f7 bd 7a 70 76 be b5 3b 02 3d 81 5d 8f be
       -0.12081247 -0.24066344 0.031795222 -0.28001025
000250 53 20 6d be 65 7a 08 3e e5 b7 56 3e a8 5a 84 3d
       -0.23156862 0.1332794 0.20968588 0.06462604
000260 96 85 b4 3d 9c 0e f9 3d 72 6c 21 3e ae 1e 8a 3e
       0.08814542 0.1216099 0.15764025 0.26976532
000270 61 f2 0f 3e fb 93 07 3e c8 a5 09 bd 29 7c 82 3c
       0.14057304 0.13240044 -0.033605367 0.015928345
000280 af 50 97 3d 47 91 66 3d 3d 32 43 be aa 9e 54 3d
       0.07388436 0.05629089 -0.19062133 0.051909126
000290 63 d8 fb bd c6 7e 90 bd f2 81 49 be c2 35 b7 bd
       -0.12297132 -0.0705543 -0.19678476 -0.089458
0002a0 f6 86 1e bd a6 34 9a 3e b5 bd 2b 3e 70 24 ef 3e
       -0.038702928 0.30118293 0.16771586 0.46707487
0002b0 d7 c6 5e 3e df fe 30 3b c9 77 ee 3e 46 70 3e bd
       0.21755539 0.0027007384 0.46575764 -0.04649379
0002c0 e6 84 ca bc 51 2f 6a bb 79 7b 02 be 37 45 a0 be
       -0.024721574 -0.003573377 -0.12742414 -0.31302807
0002d0 8a 34 06 be 5d 79 ef 3c 8d 72 57 3e 1e 3a e2 3d
       -0.1310598 0.029232675 0.21039791 0.11046241
0002e0 e4 e4 ef 3d bb be bd 3c 49 55 53 3d 37 46 63 bd
       0.11713579 0.023162236 0.051595006 -0.055486884
0002f0 b1 2d f8 3d bf 35 0b 3e ed d0 bb 3d e2 6f 47 be
       0.1211809 0.13594721 0.09170709 -0.19476274
000300 03 f7 02 bd 43 ff 79 be cd 0b 89 be a8 d0 b5 be
       -0.03197385 -0.24413781 -0.26766816 -0.35510755
000310 a7 42 83 3e 56 39 e3 bc df c9 0a bf 6f 4e 27 3d
       0.2563679 -0.0277373 -0.5421428 0.040846284
000320 be 62 67 3e 6f d7 67 3a b5 d7 02 3d 2f 3d 2f 3e
       0.22596261 0.0008844053 0.031943996 0.17113183
000330 c9 0c 9e bd f3 10 3d be 74 06 30 3e b7 39 e5 3c
       -0.07717282 -0.18463497 0.17189962 0.027981622
000340 a3 50 4e bc e4 a1 80 bd 1e 55 1d 3d 13 c0 21 3e
       -0.0125924675 -0.06280878 0.038411252 0.15795927
000350 de 16 1a 3e 4d f0 44 bd 17 b6 ee bd fb c5 3a 3e
       0.15047786 -0.04808073 -0.11655825 0.18239586
000360 f7 55 13 be f4 8b 61 be ad bd 69 be 34 4e 06 bf
       -0.14388262 -0.22026044 -0.22826262 -0.5246308
000370 5e 5d 33 be 80 1b 9f bc 3a 1c 29 bf c8 8b 7b bd
       -0.17516086 -0.019422293 -0.66058695 -0.061412603
000380 a9 84 ac 3d 88 f8 14 3e 61 57 eb 3d 2e dc 62 be
       0.084237404 0.14547932 0.114912756 -0.22154304
000390 f5 e5 d3 3d 10 d9 b7 3d 70 de e6 bc b7 33 17 be
       0.10346595 0.08976948 -0.028182238 -0.14765821
0003a0 65 76 dc 3d ea f2 1d be f3 f2 ae bc d0 51 86 be
       0.107647695 -0.15424696 -0.021356082 -0.26234293
0003b0 05 ef 5e bd 52 71 e4 bd af b5 60 3d 25 e1 ef 3d
       -0.054427166 -0.11154427 0.054860767 0.11712865
0003c0 ec 26 07 3d ee ac e6 3e 21 0f cf 3d 92 af 55 3e
       0.032996103 0.4505381 0.101103075 0.20867756
0003d0 6d cb 32 3e 73 47 3c bd dc d9 4b 3e 7e 2b 0c bd
       0.17460413 -0.045966577 0.19907326 -0.034221165
0003e0 fc 5e 4a bd 4a 4f a5 bd fb 73 22 3e f2 f6 b8 be
       -0.04940699 -0.08071764 0.15864556 -0.36125904
0003f0 0a a8 06 3e dd 31 bf bd 6b 92 4f bd 45 44 62 3d
       0.1315004 -0.093356825 -0.050676744 0.05524089

actor.0.bias f4 [64]
000000 f9 e1 38 be d5 f6 2a be 02 1a 76 3e f9 49 57 3b
       -0.18054952 -0.16695721 0.24033359 0.0032850488
000010 aa a0 7e 3e 4e b8 f6 bd 80 46 2a be 33 5a 6e bd
       0.24865976 -0.12046872 -0.16628456 -0.05819149
000020 7e b5 30 be 1f 3f 21 3e 93 b7 09 be 6b 31 b9 3c
       -0.17256734 0.15746735 -0.13448934 0.022606572
000030 41 ad db bd e8 c7 3c bc 66 80 22 bd a8 84 f2 bc
       -0.10726405 -0.011522271 -0.03967323 -0.029604271
000040 86 b7 a0 bd 06 79 e0 bd 3d c4 08 3e a8 ff de 3d
       -0.07847504 -0.109605834 0.13356109 0.10888606
000050 b8 ab 9a bd 2c 0a ea 3d f4 db 60 3e 4d 39 b0 bd
       -0.07552284 0.114277214 0.21958905 -0.08604679
000060 87 48 29 be 0b 24 11 3e 98 93 ad 3b d7 63 40 be
       -0.16531573 0.14173906 0.0052971356 -0.18788086
000070 34 94 32 be 5a ea 55 be 94 7d 33 3e 63 10 d9 bd
       -0.17439348 -0.2089018 0.17528373 -0.10598829
000080 bc 5f 3d be 7a 05 09 3e 39 96 26 be e3 49 17 be
       -0.18493551 0.13380995 -0.16268243 -0.1477428
000090 99 a9 e3 bd c7 29 f0 bc ba 12 af 3d 11 d9 32 3e
       -0.111163326 -0.029316796 0.08548494 0.17465617
0000a0 3e 02 1b 3e 2a a1 17 3e ac fc c3 3d 5c c9 2c 3c
       0.15137574 0.14807573 0.09569678 0.010546055
0000b0 27 d5 f8 3d 71 bf da bc 78 bc 9f 3d 01 15 85 bd
       0.121500306 -0.026702615 0.077996194 -0.06498147
0000c0 f1 db 76 3d c8 28 a2 bd 54 43 2c be 41 c9 73 3d
       0.060268346 -0.07917935 -0.16822559 0.059518103
0000d0 de e3 2e 3d a1 ee ca 3d 7d c4 f0 bd 33 83 16 3e
       0.04269778 0.09908796 -0.11756227 0.14698486
0000e0 4c 26 d1 3d 51 ba 0f 3e 0a d1 e1 bd ac ef d0 bc
       0.10212383 0.14035918 -0.11026199 -0.02550491
0000f0 47 b3 c0 3d e7 82 27 bd ed 33 5b bd 23 e7 2d 3e
       0.094091944 -0.040896323 -0.053516317 0.16982703

actor.2.weight f4 [32, 64]
000000 39 61 a4 3d 6a ae 1b 3e 01 5d af 3c 45 8c 92 be
       0.08026356 0.15203252 0.021406652 -0.28622642
000010 05 14 ee bc de 69 37 3e 02 43 1b 3e 1c 64 95 3d
       -0.02906228 0.17911479 0.1516228 0.07294485
000020 f2 1d 39 3e 89 df 7c be b2 78 42 3e 4a fd 3d 3e
       0.1807783 -0.24694647 0.18991354 0.18553653
000030 ab 60 b3 bb 0e 71 af 3d 6d c3 df 3d 38 37 a4 bd
       -0.00547417 0.08566485 0.109259464 -0.08018345
000040 5f cd b0 3a 51 9e 84 3e 1c f6 31 3e 2c 7f e7 bd
       0.001348894 0.25902036 0.1737904 -0.11303553
000050 9b a4 87 3e 58 a6 89 be 47 b5 c7 be 65 ec b8 3a
       0.26492772 -0.26884723 -0.3900549 0.0014108537
000060 5a 22 96 3d 2c 39 89 3b f5 1d 13 3e 66 5d a3 3d
       0.07330771 0.0041877236 0.14366896 0.07976799
000070 d9 df ae 3d 65 db 19 3e a5 0c 3d bc 88 39 37 3d
       0.08538789 0.15025099 -0.011538659 0.0447326
000080 87 5a 1c 3e 1f ff c4 3c 6c 40 66 3d 4e fd 21 3e
       0.15268908 0.024047432 0.05621378 0.15819284
000090 10 e8 87 3c 55 67 c5 bd f5 22 98 bd ab 1a 4e be
       0.016590148 -0.0963885 -0.074285425 -0.2012736
0000a0 9f 81 59 be 8c f5 dd bd a7 0b ee bd 56 d5 3a be
       -0.21240853 -0.1083785 -0.11623316 -0.18245444
0000b0 a6 fc ce 3c 47 01 4a 3e 2b 1e 48 bd 5f c0 1d be
       0.025266957 0.1972705 -0.048856895 -0.15405415
0000c0 77 f4 6f 3d 49 95 01 3d 18 ee 75 3e 6e c4 81 be
       0.05858275 0.03163651 0.24016607 -0.25345176
0000d0 6f 71 80 bc 85 1b 42 bd 81 0f 1e be 31 15 1e bd
       -0.01567909 -0.047389526 -0.15435602 -0.03859443
0000e0 e0 14 65 bd 1a 3b 09 be 55 97 23 bc af b5 32 bc
       -0.05592811 -0.13401452 -0.009984811 -0.010907575
0000f0 ba 05 2c be 75 b4 0f be 0a 99 90 bd ab 5c 22 be
       -0.1679906 -0.14033683 -0.0706044 -0.15855663
000100 b2 22 0a bf f6 96 2d be fc 6f 52 bd 1c a3 94 bd
       -0.5395919 -0.16952118 -0.051376328 -0.07257673
000110 41 d5 a8 3e 00 cf fc bc ff 01 d6 bc 28 55 c3 be
       0.329752 -0.030860424 -0.026123999 -0.38150907
000120 43 e2 9c 3e d4 d7 40 3e cc 4c e5 bd 5c 4e 9e 3d
       0.30641374 0.18832332 -0.111962885 0.077297896
000130 64 60 c8 bd 61 b1 b2 3e 5e a0 92 be 9c 77 2a be
       -0.0978401 0.34900954 -0.28637975 -0.1664719
000140 c0 ef bf bd dd 19 8d 3d 03 f2 13 be a3 f1 6c be
       -0.093719006 0.06889699 -0.14447789 -0.23139052
000150 b8 df 2e be c1 f2 90 be 6a 7f 28 bd d5 9e 3a be
       -0.1707753 -0.28310207 -0.041137137 -0.18224652
000160 09 d8 13 bc 2f 6d 77 3c dc e0 76 3d cc ef e1 bb
       -0.009023675 0.015101715 0.060273036 -0.006895041
000170 d0 09 45 be 97 ff 2b bb f8 7b dd bc 8a 95 ff bc
       -0.19242024 -0.0026244873 -0.027036652 -0.031199235
000180 45 0b 28 be e2 0b c1 3d 8c be 67 be 74 28 81 bd
       -0.16410549 0.094260946 -0.22631282 -0.06306544
000190 a3 52 b0 bd b3 46 59 bd 86 92 2a be 73 1d 75 3e
       -0.08609512 -0.05304594 -0.16657457 0.23937015
0001a0 9d 75 2c 3e e5 01 95 bb 81 dc ee 3d f8 50 c5 3c
       0.16841741 -0.004547345 0.116631515 0.02408646
0001b0 89 ce d8 bd 75 85 06 be cc 74 64 3e 92 2f 19 bb
       -0.105862685 -0.13136847 0.2231018 -0.0023374301
0001c0 a4 46 30 be 57 d8 49 3c fe 0e f0 bd 68 70 59 3d
       -0.17214447 0.012319646 -0.117216095 0.053085715
0001d0 6e 42 8a 3d d2 f1 cd 3d d5 f5 e3 be 65 c3 88 3d
       0.06750952 0.10055889 -0.44523492 0.066778935
0001e0 6e 3f df 3d 3f 7a 6c 3c a6 4d 60 3b 81 fe af 3d
       0.1090077 0.014433443 0.003422597 0.08593465
0001f0 30 65 11 bd 35 cd 86 bc 73 1a 85 bd 2c f3 a3 3e
       -0.03549689 -0.016455272 -0.064991854 0.32021463
000200 36 80 f2 bd 4a c7 d1 bd e1 1e 0e 3e 48 6d 76 3e
       -0.118408605 -0.102430895 0.13878967 0.24065125
000210 2e 72 bf 3c fc 8d 76 bd 20 d4 e1 3d 06 c4 85 be
       0.023369875 -0.060194 0.11026788 -0.26126117
000220 fd 15 4e bd 21 97 d4 3d 73 ec d3 bd d0 6c 6b be
       -0.05031394 0.10380388 -0.103478335 -0.22990727
000230 54 c2 22 be dd 11 7e bd d3 14 49 bd ab 6f b7 bd
       -0.15894443 -0.062028755 -0.049092125 -0.08956846
000240 6f f8 40 be 8d 49 86 bd 84 1d 27 bd 72 a9 59 3e
       -0.1884477 -0.065569974 -0.040799633 0.21256045
000250 09 82 e8 bd ba 78 69 3e 33 e7 94 3e 1e 24 32 3d
       -0.11352927 0.2279996 0.2908264 0.043491475
000260 3c 4f da 3b 98 03 99 3d f6 23 13 bd 94 d2 21 be
       0.0066622775 0.074713886 -0.035922967 -0.15802985
000270 58 cc 3a bd e9 d1 ce bd 85 87 ea 3c cd 3c 63 be
       -0.045605034 -0.10098631 0.028629074 -0.22191162
000280 a9 4f dc bc 39 11 ae 3d ab 1a c4 3d 31 88 51 be
       -0.026893454 0.08499379 0.09575399 -0.20462109
000290 7d a1 b5 ba 87 bd 29 3d 20 35 8b b9 db 59 67 3e
       -0.0013857331 0.041440513 -0.00026551727 0.22592871
0002a0 92 2e 06 3e 43 48 9a 3e 54 cd 9c 3d 52 90 c8 bd
       0.13103703 0.30133256 0.07656351 -0.09793152
0002b0 ad 38 e2 3d 37 d8 d6 be 26 b5 1c bd dd 7d 8e 3e
       0.11045966 -0.41961834 -0.038258694 0.278304
0002c0 ac 72 a6 3c 31 91 10 bd 6a d0 ee bd ac bc 6b 3d
       0.020318352 -0.035294715 -0.116608456 0.05755298
0002d0 0f df 06 be 55 c0 34 3e 63 0a 41 3e b2 26 f0 3d
       -0.13171028 0.17651494 0.18851618 0.117261305
0002e0 8f 3c 85 bd 48 76 4f 3d d6 77 6f 3d aa 8d 38 3d
       -0.06505691 0.05064991 0.058463894 0.045056976
0002f0 c0 ca bd 3d af 5e 9e bc 43 ef bc 3d a6 f6 6f 3e
       0.09267187 -0.019332258 0.09225323 0.23433933
000300 05 2b 03 3e b7 f4 98 3e 08 24 a0 3e f3 6e d2 3d
       0.1280938 0.29874203 0.3127749 0.10275068
000310 8e 1b 4c be f1 9a 33 3e 8e f9 3d 3e e1 df 92 3c
       -0.19932386 0.17539574 0.18552229 0.01792902
000320 e3 39 82 be 0f c4 60 be d9 91 d2 bd ca 3b 13 be
       -0.2543479 -0.2194979 -0.102817245 -0.14378276
000330 66 a6 ac 3c 95 8e 2a be 74 1a 29 3e 61 e3 44 3e
       0.021075439 -0.16655953 0.16513997 0.19227363
000340 67 0f 9d 3d d7 a2 83 be 25 c5 22 3e 69 9e cd 3e
       0.076689534 -0.25710174 0.15895517 0.4015992
000350 02 dc a4 3d 40 62 1c 3e 19 9b 8d 3d a4 c4 c9 ba
       0.08049776 0.15271854 0.06914348 -0.0015393686
000360 1b 7c 04 3e b1 2f 23 bd 16 13 78 3b da 4f 1f 3d
       0.12937967 -0.039840404 0.0037853173 0.03889451
000370 f5 33 1a 3e 61 ed 5c 3d 97 60 9e be 18 ef fa be
       0.15058883 0.05393732 -0.30933067 -0.4901054
000380 08 dd 9b 3a 4d a6 4d 3e 40 3d 14 3e 8f 82 8b bd
       0.0011891434 0.2008297 0.1447649 -0.068120115
000390 da 20 21 bc 68 17 c5 bd e3 3a 2b 3e 69 2e 31 be
       -0.009834493 -0.09623605 0.16721682 -0.1730286
0003a0 b2 60 1e 3e 77 34 08 3d 72 46 6d bc 81 c6 8c bd
       0.15466574 0.03325316 -0.0144821275 -0.06873799
0003b0 2e 68 75 3e f0 21 97 bc 86 23 0c 3e 8d ab 48 3e
       0.23965523 -0.0184488 0.13685426 0.19596691
0003c0 b8 2b 9c 3e 47 ed e3 3d 94 51 b3 be db c9 16 3e
       0.30502105 0.111292414 -0.35023177 0.14725439
0003d0 64 2c 1d be 4e 98 d6 bd f6 70 83 3d 37 1a 54 be
       -0.15348965 -0.104782686 0.0641803 -0.20713125
0003e0 e1 bc 6f bd a6 e4 30 3e 4d 58 c3 3d 94 5e a3 3d
       -0.05852974 0.17274722 0.095383264 0.07977024
0003f0 bd a8 3a 3e 5b 35 97 3d 64 c7 11 be 26 02 9b 3d
       0.18228431 0.073832236 -0.14236218 0.07568769

actor.2.bias f4 [32]
000000 a7 15 c1 bc d5 c3 02 3e 36 e5 70 3d b5 f5 d7 3c
       -0.023569895 0.12770016 0.058812343 0.02636228
000010 09 90 94 bd 31 9d b2 bd 97 52 f7 bd 2f 45 2a bc
       -0.07254035 -0.08721388 -0.120763 -0.010392471
000020 a0 09 9a bc eb 38 c4 3d 7f ef 85 bd 48 57 62 bc
       -0.018803418 0.09581169 -0.06539821 -0.013814755
000030 d6 f3 b5 bd 96 e2 8a 3d 23 e1 5c bd cd 66 3f bc
       -0.08884399 0.06781499 -0.053925645 -0.011682224
000040 bb 5a c6 3d 1e 74 35 bd 45 a0 a6 3d bd df a2 3a
       0.09685274 -0.04430019 0.08136038 0.0012426298
000050 1a 59 98 bc 53 9e 0a bd 25 19 cf bb a7 ca e6 3d
       -0.018597174 -0.033842396 -0.006320136 0.112691216
000060 ca ac c4 bd d2 b2 81 3d b1 19 a5 bc 47 28 95 bd
       -0.096032694 0.063329354 -0.020153852 -0.07283073
000070 30 b7 ae 3c 67 0b fa bc ab 10 e3 3d ec bc 14 be
       0.021327585 -0.030523015 0.110871635 -0.14525193

actor.4.weight f4 [4, 32]
000000 c9 a8 a0 be 4c 35 40 bd 84 66 f4 3e c6 4a 26 3e
       -0.31378773 -0.046925828 0.47734463 0.16239461
000010 b6 00 63 be 2e e0 02 bf 57 98 f4 bd 76 0b 56 3d
       -0.2216824 -0.5112332 -0.11943119 0.052257024
000020 8c 4d 1b 3e 75 5c e8 be 89 13 25 be 0a 00 75 3d
       0.151663 -0.4538304 -0.16120733 0.05981449
000030 26 e4 5b bf d6 4b cc 3d de 1d fe 3e e3 69 3e 3e
       -0.85895 0.09975402 0.49632162 0.1859508
000040 08 7c 0d 3d c3 6d 02 3e 95 b9 8a 3e 5c d7 20 3f
       0.034542114 0.12737183 0.27094713 0.6282861
000050 c0 bf f2 3d 0b fa cd 3e 32 6f 40 3e 45 dc 29 3f
       0.1185298 0.4022983 0.18792418 0.6635173
000060 21 5e 57 be a1 07 d8 bd 2c fe 47 3d e1 c8 10 3e
       -0.21032001 -0.1054833 0.04882638 0.14139129
000070 30 52 20 be f3 4e a4 be d0 5c da 3c 29 9f 4f be
       -0.15656352 -0.32091483 0.026655585 -0.20275559
000080 d1 ba 40 be 15 aa 19 3f 13 62 b3 3e e6 fb a1 be
       -0.18821265 0.6002515 0.35035762 -0.31637496
000090 25 54 6f be 47 f3 a8 3d 31 d2 c2 be 72 8c ba be
       -0.23371942 0.082495265 -0.38050988 -0.36435276
0000a0 78 7b d5 be 97 d9 18 3d 9c 12 19 3f 41 30 49 3f
       -0.41695762 0.037316885 0.5979402 0.78589255
0000b0 6a 56 11 3c 2d b6 9e 3e 41 6c 0f 3e 82 10 16 bf
       0.0088707 0.30998364 0.1400614 -0.5861894
0000c0 83 61 cc 3e 3f e3 78 bd 1d f3 0e 3f c8 38 d9 3d
       0.39918146 -0.060763594 0.5583971 0.10606533
0000d0 db 2d 84 be e9 14 83 3e ca 8c d0 3e c3 a0 1c 3d
       -0.25816235 0.2560189 0.40732414 0.03823925
0000e0 c1 3e 2b be f3 52 f5 3d 25 02 8f 3a e3 a6 f6 be
       -0.16723157 0.11978712 0.0010910673 -0.481742
0000f0 07 ea f1 3e 78 7e 88 be 17 0c c8 be 8f 0d c9 be
       0.4724886 -0.26658988 -0.39071724 -0.39268157
000100 1c 93 50 bc 2d 16 c9 3c 2e 2b 1e be 00 f2 96 be
       -0.012730386 0.024546707 -0.15446159 -0.29481506
000110 47 8b 06 be de 14 47 3d e4 59 8b be 79 0e 9a be
       -0.13139068 0.048603885 -0.2721702 -0.30089167
000120 3f 23 5b be 6b 5e 21 3c 5b f2 18 be 0c 24 18 3e
       -0.21400164 0.009849171 -0.14936201 0.14857501
000130 31 91 1d 3e 43 02 49 3e bc 68 84 3d e8 b9 ea 3c
       0.15387417 0.19629769 0.06465289 0.0286531
000140 5b cc 64 3e c9 18 6f be fb fe 0c be 64 ff 40 be
       0.2234358 -0.23349299 -0.13769142 -0.18847424
000150 20 ca 26 3d c4 fe d5 3d 75 30 6b be 97 86 89 bd
       0.040720105 0.10448983 -0.22967704 -0.06715124
000160 b8 66 bf bd f3 d1 ed 3d f8 45 94 3d f0 38 87 be
       -0.09345764 0.1161231 0.07239908 -0.26410627
000170 e7 ab 29 bd d5 ad ef 3d 5d d1 93 3e 3a db ca 3c
       -0.041423704 0.11703078 0.2887067 0.024762738
000180 5a 6f 12 bd b9 58 3b be cc 05 0a 3c 53 21 16 be
       -0.035750724 -0.18295564 0.008424234 -0.1466115
000190 25 4a d5 be c7 6d 65 3e bb c7 90 be 7b 4b 08 be
       -0.4165813 0.22405158 -0.28277382 -0.13310044
0001a0 c8 1f 13 be 61 f8 c4 3e 84 ef e0 bc 29 1b 2e 3e
       -0.14367592 0.38470748 -0.02745796 0.17002548
0001b0 cc 5f f6 bc 62 a1 11 be fd 7f c4 be 83 11 fc 3d
       -0.030074976 -0.14221719 -0.38378897 0.123080276
0001c0 b2 39 7d be 37 53 1a bf 26 63 1b 3e 8f c0 f7 3b
       -0.2472904 -0.60283226 0.15174541 0.0075607966
0001d0 d6 0b 9f be b0 9c ba be 89 2e 79 be e7 32 8a 3d
       -0.31063718 -0.36447668 -0.24334158 0.0674799
0001e0 1e df a4 3e 10 b5 ed be e6 66 11 bf df e7 a3 3a
       0.32201475 -0.46427202 -0.56797636 0.0012505016
0001f0 8d 25 6f 3e 12 6c 83 be d5 30 9f 3e 69 bd 34 be
       0.23354168 -0.2566839 0.31091943 -0.17650379

actor.4.bias f4 [4]
000000 db 8c dc 3d 95 82 86 bd 3e c9 3b 3e 84 db f8 bd
       0.107690535 -0.06567875 0.18338487 -0.12151244

critic.0.weight f4 [64, 24]
000000 de 6b 4d 3e 76 bb 17 3e 89 81 1f 3e 0b 51 e5 bd
       0.2006068 0.14817604 0.15576757 -0.11197098
000010 ba a0 5d bd a2 86 b8 bd 98 ef bb 3d 87 46 00 3e
       -0.05410836 -0.09010054 0.09176558 0.12526904
000020 9e 0a 34 3e c5 eb fc bd 1c ea ea 3d c4 e0 56 bd
       0.17582175 -0.12349657 0.11470434 -0.052460447
000030 ef be 95 bc b3 5a 46 3e d6 18 1a be 9f a3 ad bd
       -0.01827952 0.19370537 -0.15048537 -0.08478474
000040 0e 44 27 3d 89 93 be 3d d9 30 61 bd 75 d6 2f bd
       0.040836386 0.09305484 -0.054978225 -0.04292913
000050 8e e4 91 bd 0b c4 42 bc 44 3c 29 be 03 e2 a0 bd
       -0.071236715 -0.011887561 -0.16526896 -0.07855608
000060 42 a1 cf 3c 6c 9b f1 3d d7 c8 26 3e 29 fa 46 3c
       0.025345448 0.117972225 0.16287552 0.012144604
000070 ad d7 b8 bd 06 a3 11 3e 71 b8 48 be 1b 95 93 3d
       -0.09025512 0.14222345 -0.19601609 0.07206174
000080 15 dc 5c 3d 8c bd 52 bc 86 d8 3d 3e 4c 36 0d 3e
       0.053920824 -0.012862574 0.18539628 0.13790244
000090 54 cd 41 3e 6f a0 e2 bd 22 02 60 bd 2c 2e 02 be
       0.18925983 -0.110657565 -0.054689534 -0.12712926
0000a0 dc 4f 02 3e b6 57 0f be ca d7 a8 3d dc c8 11 3e
       0.12725776 -0.13998303 0.082442835 0.14236778
0000b0 de 4f 88 3d 20 78 4c 3d b7 e6 62 bd 95 d1 ca bc
       0.066558585 0.049919248 -0.055395808 -0.02475814
0000c0 66 6f b2 bd 8c b0 0a 3d a6 b2 c1 3d 42 e5 9b bd
       -0.08712654 0.033859774 0.094579026 -0.07612087
0000d0 cc 70 18 be 8f e2 af bd e0 ec ce bd ba 00 b9 bd
       -0.14886779 -0.085881345 -0.10103774 -0.09033342
0000e0 e1 b5 25 3e df 99 0b 3e 2d 9f 16 3e f1 10 18 3b
       0.16182663 0.13632916 0.14709158 0.0023203457
0000f0 67 2a c5 bd db 3c 1e 3e fd a5 56 be fb 35 a7 3b
       -0.09627228 0.15452902 -0.20961757 0.0051028705
000100 d3 c7 1f be 19 67 f4 bd 24 34 ca 3d 60 51 3a be
       -0.1560357 -0.11933727 0.09873226 -0.18195105
000110 fa 7f ef bd 15 80 26 be a6 b3 41 3e 69 05 8b bd
       -0.116943315 -0.16259797 0.18916187 -0.06788141
000120 b3 18 25 3e 58 98 b7 bd 32 c5 0c 3e df 26 6a bd
       0.16122703 -0.08964604 0.13747099 -0.057165977
000130 c8 ee 38 3d 8e ce df 3d 15 6f fa 3d 5e fd f6 bd
       0.045149595 0.10928069 0.122282185 -0.12060045
000140 48 6c 19 3e a5 a3 11 3e 16 92 9c 3d 68 af a1 3d
       0.14982712 0.14222582 0.07645051 0.07894784
000150 91 44 98 bd 46 6b b0 3d 0d 2a f8 3d 2a e2 fc 3d
       -0.07434953 0.08614211 0.121173956 0.12347825
000160 d9 8d d5 3c 29 ed 2a be 4a 46 37 3e 25 e3 2d be
       0.026068615 -0.16692032 0.17897907 -0.1698118
000170 e7 f4 20 be 02 f5 81 3c 3d f9 22 3d 4e 8d 14 3e
       -0.15718423 0.0158639 0.039788473 0.14507028
000180 26 74 08 be 49 ca aa 3a 6f d8 ec bd f5 0c 48 be
       -0.13325557 0.0013030256 -0.11564719 -0.19536193
000190 0f 16 0e 3e 0d e6 9f bc 70 30 01 3e 76 e4 1e bd
       0.13875602 -0.019518876 0.12616134 -0.038792096
0001a0 ec 35 df 3d 64 cb 19 be c8 e2 37 3d 94 31 b3 bd
       0.10898957 -0.15018994 0.04489401 -0.08749691
0001b0 b9 e3 37 3a f2 f8 68 bd 7a 87 53 be 15 3f cf bd
       0.00070148293 -0.056878038 -0.20657149 -0.10119454
0001c0 82 59 f8 3d fe d8 2c be d8 8d 27 3e fe 87 9d 3d
       0.12126447 -0.16879651 0.16362703 0.07691954
0001d0 87 1c a6 3d 52 80 fe 3d 0c d5 44 be 32 c1 53 bc
       0.0811091 0.12426819 -0.19221896 -0.012924479
0001e0 4d 55 2e bc cc 38 94 3d 5e b7 26 be f5 43 b5 bc
       -0.0106404545 0.07237396 -0.16280887 -0.022127131
0001f0 11 f3 84 3d eb 4a dc bd 5e bb 28 bc 2f 02 b7 bd
       0.06491674 -0.10756477 -0.010298578 -0.08935963
000200 46 9f b2 3d 57 d5 8d 3d 0c 93 a1 3d 09 c5 24 bd
       0.08721785 0.06925457 0.07889375 -0.04022697
000210 b1 e3 3d bb 67 74 15 3e 4d 39 39 bb 4d 19 90 3d
       -0.0028974826 0.14595185 -0.0028262914 0.07036076
000220 a2 33 b5 3d c2 c9 b4 3d 62 de 42 be 39 7f eb bd
       0.08847739 0.08827545 -0.19030145 -0.11498875
000230 69 7b 9a bc bb 56 c0 bc eb e3 3d 3e 3d 77 b6 3c
       -0.018857675 -0.023478856 0.18543975 0.022273654
000240 55 0d 88 bd 55 d5 23 be bc 9e c9 bd ca fe dc 3d
       -0.06643168 -0.15999348 -0.09844729 0.10790785
000250 23 dd 06 3e 90 62 02 3e c0 f9 fb bc b2 76 84 3b
       0.13170294 0.12732911 -0.030758739 0.00404247
000260 db cb 03 3e e7 84 08 bd 5a 0d c7 3d 5b 88 98 3c
       0.12870733 -0.03332987 0.097193435 0.018619707
000270 93 ad 8d 3d db 6a 33 be a6 38 b5 bd a4 d1 35 be
       0.06917872 -0.17521231 -0.088486955 -0.17755753
000280 88 01 20 3e 3b 26 e9 3d ff 51 8f bd 97 7e 16 be
       0.15625584 0.11384245 -0.069980614 -0.14696728
000290 74 75 f8 bd 87 29 18 3e cb 52 08 3e 15 9f 8a 3d
       -0.121317774 0.14859591 0.13312833 0.06768624
0002a0 55 b0 22 be 23 a6 b6 3d 91 72 f0 3c 64 3f 8c bc
       -0.15887578 0.08918407 0.029351505 -0.01712007
0002b0 84 1a 31 3e 58 11 53 3d 6a e1 f5 bd 05 25 f1 bc
       0.17295271 0.051530212 -0.12005885 -0.029436598
0002c0 c5 62 19 be 3a 2b 25 3e 41 85 b9 3d c1 6b b9 3d
       -0.14979084 0.16129771 0.09058619 0.090537556
0002d0 ca f5 a5 3d d3 03 d8 3d a3 18 eb bd 91 d5 25 3e
       0.08103521 0.105476044 -0.114793085 0.1619475
0002e0 38 cb 42 be 21 40 91 3d c8 3e 2e bd 0e 7f 8f 3c
       -0.19022834 0.0709231 -0.04254034 0.01751664
0002f0 56 92 a1 3d b0 82 50 be 88 6e 25 bd 48 28 d2 3d
       0.078892395 -0.20362353 -0.040388614 0.10261589
000300 a4 d3 19 be 3a 3d bc 3d 4d ee 30 be 63 04 00 3d
       -0.1502214 0.091913655 -0.17278405 0.031254184
000310 f7 a3 df bc 74 df 15 3d bc 66 d9 bd 42 da cc 3d
       -0.027299864 0.036590055 -0.10615298 0.10002567
000320 4b 11 f5 bd cd dc cd 3d f9 42 3c bd 44 b1 d1 3d
       -0.11966189 0.1005188 -0.045962308 0.10238889
000330 7a 79 31 be af 06 27 bc 98 5c c6 bd 14 a6 81 bd
       -0.17331496 -0.010194465 -0.096856296 -0.06330505
000340 aa 50 52 3c f4 f9 22 be fd c0 21 be 10 6b f9 3d
       0.012836615 -0.15915662 -0.15796275 0.12178624
000350 ff a2 07 3d df 26 e8 3d 30 84 3e be ec b3 0f be
       0.03311443 0.11335539 -0.18605113 -0.14033478
000360 cb f8 1e 3e a4 53 0b 3d 8c 9f d7 3d 87 60 a0 3d
       0.15524594 0.034015313 0.10528478 0.07830911
000370 2d d3 a4 3d 8e d3 af 3d 64 44 c3 bd ae 52 ca bd
       0.08048091 0.08585273 -0.09534529 -0.09879051
000380 62 bb 33 3e 5f 56 16 3c fb 5c db 3d d6 18 a7 3d
       0.1755195 0.009175866 0.10711094 0.08159034
000390 eb 49 e6 bd d8 69 4c be be 6b 45 be f5 e6 ed bd
       -0.112445675 -0.19962251 -0.19279382 -0.11616317
0003a0 e6 1b aa 3d 92 35 c0 bc f1 2e 84 bd 85 7f 14 be
       0.083061025 -0.023463044 -0.06454266 -0.1450177
0003b0 af 77 4a 3d d3 43 eb bc fa 2e 77 3d 48 d9 0d 3d
       0.049430545 -0.028718865 0.060347535 0.034631044
0003c0 a9 9a 7b be b4 26 25 3c f2 70 3c be 2b b5 14 3e
       -0.24570717 0.010080028 -0.1840246 0.14522235
0003d0 87 e7 1d be ab e0 41 bc 73 dd 84 bd 92 07 82 3d
       -0.15420352 -0.01183335 -0.064875506 0.063491
0003e0 e6 90 e3 bc 77 61 09 3e 3f 40 17 3e c6 a6 e0 bd
       -0.027779054 0.13416086 0.14770602 -0.109693095
0003f0 99 ca 7d bd 50 74 1f be 00 69 2b 3e 99 4d ef bd
       -0.06196079 -0.15571713 0.16739273 -0.116847225

critic.0.bias f4 [64]
000000 3d 79 3e 3e 3c 1c df 3d b1 25 f8 bd ae 7b 23 be
       0.18600936 0.10894057 -0.12116564 -0.15965149
000010 7a b8 34 3e c7 3b 48 3c 20 d6 e5 3d 64 c0 3d 3e
       0.17648497 0.012221283 0.11222482 0.18530422
000020 3c ce 04 bd d3 1e 00 3c ca 4b 12 3e 8a 85 31 be
       -0.032423243 0.007819849 0.14286724 -0.17336097
000030 88 ee 28 bd 5f eb 0f 3e 59 95 b5 bc 41 dc a3 3c
       -0.041243106 0.1405463 -0.022165941 0.020002486
000040 7c c4 03 bd 4d 06 eb bc d0 c5 2d be b0 56 81 bd
       -0.032169804 -0.028689528 -0.1696999 -0.063153625
000050 65 16 62 3c 93 56 ac bd 17 d1 37 be 55 34 f7 bc
       0.013799285 -0.0841495 -0.17950855 -0.030176321
000060 95 79 5d 3e 33 d0 44 bd 52 46 be 3d 7d 42 e7 bd
       0.21628411 -0.048050117 0.09290756 -0.112919785
000070 bf ec 5e bb fd 58 0f be 06 9c 93 bd 08 d4 29 3e
       -0.0034015623 -0.1399879 -0.072074935 0.1658479
000080 54 4f 0d bd 07 35 18 3d 66 ad 97 3d aa 4c 48 be
       -0.03449948 0.037159946 0.0740612 -0.19560495
000090 39 f5 0d be 15 ba 05 bd a8 54 22 be ae 28 4b bc
       -0.13863076 -0.032648165 -0.15852606 -0.0123998355
0000a0 ee 45 cb 3d 6a 33 f5 3b 82 4e 3d be 4a a1 10 be
       0.099254474 0.0074829357 -0.1848698 -0.14124027
0000b0 bb 16 07 be 76 14 4f be ec 5b 1c be d7 be 64 3c
       -0.13192265 -0.20222649 -0.1526944 0.013961515
0000c0 48 ed f9 3d c1 62 97 3d 5c f7 2b be 1e f9 28 be
       0.12203461 0.07391883 -0.16793579 -0.1650128
0000d0 c4 74 cc 3d f8 4b e8 3d 72 ce 91 3d 1b 51 57 bd
       0.09983209 0.11342615 0.071194544 -0.052567583
0000e0 7e 23 1a 3e a4 27 29 bd bb 7d 3a be 6d d3 5f 3d
       0.15052602 -0.04129757 -0.18212025 0.05464499
0000f0 92 0e 1d be e8 fb 9f 3d 7a c6 24 be 71 1f a2 bd
       -0.1533759 0.07811719 -0.16091338 -0.07916153

critic.2.weight f4 [32, 64]
000000 7c 76 8f 3d 96 7a 9e bd 9f 19 91 bd 91 11 ba bc
       0.07005021 -0.07738225 -0.07084965 -0.022713454
000010 8c 19 73 3d 84 d0 92 bd 4d e4 dc bd 69 8d 31 bd
       0.059350535 -0.071686774 -0.107857324 -0.04334775
000020 cc 06 be 3d 6c 45 c1 3d ba 61 f7 bd fe 4e cf 3c
       0.0927864 0.09437069 -0.12079187 0.025306221
000030 0b 88 97 bd 8d 8a 03 be e9 6c fc bc 82 0d ff 3d
       -0.07398995 -0.12845822 -0.030813651 0.12453748
000040 d1 52 c3 bc 65 bf ea bc 6b 3e d3 bd 88 c4 a8 3d
       -0.0238432 -0.028655717 -0.1031464 0.0824061
000050 29 d9 c0 3d 27 9b a9 3d 52 35 d6 bd 86 99 24 bd
       0.0941642 0.08281546 -0.10459389 -0.040185474
000060 b6 ba bb 3d 92 81 c9 3d 45 2d 95 bd 6e f6 c4 3d
       0.09166472 0.09839167 -0.07284025 0.09617315
000070 da 6b 6f 3d 02 6a bc bd fa 8a aa 3d a3 bd 60 bc
       0.058452465 -0.09199907 0.08327289 -0.013717088
000080 79 a5 46 3c 47 7b 77 bd 6f df f3 3c 64 3f 8e bd
       0.012124413 -0.0604203 0.029769627 -0.069456846
000090 9e e8 4c bc 82 26 40 bc 23 8f d5 bd f5 fc c9 3d
       -0.012506632 -0.011727931 -0.10427692 0.09862701
0000a0 1d 48 c0 bd 2c 1c 9d 3d bf 9b 42 3c 79 3d c5 3b
       -0.093887545 0.07671389 0.011877953 0.006019291
0000b0 72 12 4b 3d 82 92 bd 3d 4e de f8 bd 28 4b 7e 3d
       0.049578138 0.0925646 -0.12151776 0.062083393
0000c0 68 21 94 bd db 61 e3 3d fb c0 9d bd df 4b 9c 3d
       -0.07232934 0.11102649 -0.07702824 0.07631659
0000d0 34 ef f9 bd 31 b3 c7 bb fa d6 5f 3d 4c 1c 01 3e
       -0.122038275 -0.0060943593 0.054648377 0.1260845
0000e0 ff cc dc 3d 86 35 7a bd e9 b5 c9 bd ce 6a 06 3d
       0.107812874 -0.0610862 -0.0984915 0.0328167
0000f0 c8 7c d3 3d e4 9f 53 bd 48 e1 34 bd 17 b1 8a bd
       0.103265345 -0.051666155 -0.044160157 -0.067720585
000100 10 f0 ac 3d 56 6f aa bc 48 4c c6 3d c6 bb a4 bc
       0.08444226 -0.020805042 0.09682518 -0.020109069
000110 33 42 d2 3d 09 f4 95 3c c1 87 88 bd e3 b6 49 3c
       0.10266533 0.018304842 -0.06666518 0.01231167
000120 b1 12 b9 bd 27 ce a1 bd b8 d5 be 3c 3a f0 c7 bd
       -0.09036768 -0.079006486 0.023295268 -0.097626165
000130 dd 0c e8 3d ca 58 e8 3d 49 c2 ba 3d f0 46 45 bc
       0.113305785 0.1134506 0.09119088 -0.012040839
000140 6f 10 9f 3d 5b ec 7c 3d b9 36 fc bc bc 60 b6 3c
       0.07766806 0.061748844 -0.030787813 0.022262923
000150 ee 33 a7 3a cc 60 1f bd e0 e3 85 bd 79 40 da 3d
       0.0012756565 -0.038910672 -0.06537604 0.106568284
000160 af 55 87 bd 1e 72 0a bd d9 ee a5 bd 41 48 b7 3d
       -0.0660814 -0.033800237 -0.08102197 0.08949328
000170 ff 79 c3 bd dd e0 29 bd 0a b5 f0 3b c4 61 4d 3d
       -0.09544753 -0.041474212 0.0073458003 0.050142065
000180 a7 0d e4 bd 08 22 bf bd 66 ee c1 bd 44 38 bd 3d
       -0.111354165 -0.09332663 -0.09469299 0.092392474
000190 8f 8b 87 3d 67 1d 1c bd cc 7c f2 3c ee a8 ea 3d
       0.066184156 -0.038113978 0.029600523 0.11458002
0001a0 c9 09 52 3d eb 2c 5c 3d 86 eb 6d 3d 63 c3 ec bd
       0.051278863 0.053753775 0.05808594 -0.115607046
0001b0 6e 78 b1 3d 6f f9 ec bd f5 22 c2 3d 26 9c 24 3d
       0.08665548 -0.11571013 0.09479324 0.040187977
0001c0 56 0c ea bd 5a fa cf bc 3b 3d 61 bd 9a f5 e5 bd
       -0.11428134 -0.025387932 -0.054990035 -0.112284854
0001d0 cc 20 f7 bd 23 25 3c 3d 80 41 31 bd c2 34 08 3c
       -0.120668024 0.045933854 -0.043275356 0.00831336
0001e0 d5 aa c2 3d f6 b1 61 bd 9a 77 82 bd b3 0f 87 3d
       0.0950524 -0.055101357 -0.063704684 0.06594791
0001f0 c9 f4 e7 bc a8 53 42 bd 4d fa 94 bd 3a f9 38 3d
       -0.028314965 -0.047443062 -0.072743036 0.045159556
000200 15 0d 5c 3d a3 97 8d bd f7 cd 02 3e 89 8f 37 bd
       0.053723413 -0.06913688 0.12773882 -0.04481462
000210 9a bf 14 bc 93 0c b8 bc dc 5b 2b 3d c6 56 4a 3d
       -0.0090788845 -0.022466933 0.04183565 0.04939916
000220 bf 86 04 bd a4 5a dc bd 6a 6f 9c 3d 3c 41 ea bd
       -0.032355066 -0.10759476 0.07638438 -0.11438224
000230 76 49 7c bc 3e 86 ac 3d 71 d3 2d 3d 24 58 85 3d
       -0.015398374 0.08424042 0.042437974 0.06510952
000240 c1 92 15 3d b9 88 37 bd 5b 3a 43 bd 64 74 8b bd
       0.03651691 -0.044808123 -0.047663074 -0.06809309
000250 97 07 68 3c b3 ea f5 bc 26 71 74 bd 52 57 88 3c
       0.014161966 -0.03001914 -0.05967822 0.0166432
000260 0b 9c b5 3d 6d 6c 30 bd 25 a0 01 3d b0 eb 9f 3c
       0.088676535 -0.043072153 0.031646866 0.019521564
000270 3c fb d9 3d a6 73 4e bd 54 13 06 3d a9 75 d5 3c
       0.10643622 -0.05040326 0.032733276 0.026057081
000280 a8 7a bf 3d 59 1d 0f be 71 ae 89 3d 7b d4 7b 3b
       0.09349567 -0.13976039 0.06722725 0.0038426209
000290 23 3a a2 bd a1 b0 5e 3d 2a f9 10 bd 27 93 f3 bc
       -0.07921245 0.054367665 -0.03539387 -0.029733254
0002a0 f5 fe f3 bc 70 03 da bd f7 4d 68 3d b8 3b b4 bd
       -0.029784659 -0.10645187 0.056714978 -0.08800453
0002b0 08 11 06 bd cf 18 b2 3c bc ed 13 bd af 72 6b 3c
       -0.032731086 0.021740345 -0.036115393 0.014370604
0002c0 79 ba fb 3b 27 4b 87 3d 57 16 84 3d e0 0e 82 3d
       0.0076821414 0.06606131 0.064495735 0.063504934
0002d0 ee ca da 3d 6b 21 85 3c 3e fb ef bb 4e ee ec bd
       0.10683237 0.016251286 -0.0073236516 -0.115688905
0002e0 2e f8 57 bb 82 d2 13 bc 6e ca c6 3d fd 73 c7 3d
       -0.0032954323 -0.009022357 0.09706579 0.0973892
0002f0 94 52 36 3d ce 95 17 bd 9d 15 89 3d ab 0f 91 3d
       0.044512346 -0.0370081 0.066935755 0.070830666
000300 0b 62 b2 bc ff c2 94 3d 0f a9 20 3c 1c b1 d5 bd
       -0.021775266 0.07263755 0.009805932 -0.104341716
000310 6e fe 27 3d ed 92 80 bd 7f dd 13 bd ca bc 8a 3d
       0.041014127 -0.06278024 -0.036099907 0.0677429
000320 28 50 c3 3c 0c 4b c8 bd 05 f8 f9 3c 35 1e 74 bc
       0.023841932 -0.09779939 0.030513773 -0.01489978
000330 ec 6d 25 3d 5d c2 53 bd 3c 1f 1b bd 59 c6 ce bd
       0.040388033 -0.05169903 -0.037871584 -0.100964256
000340 42 61 41 3c f2 fe f8 bc 24 95 b4 bd 30 a8 fe bd
       0.011802973 -0.030395005 -0.08817509 -0.12434423
000350 b7 8d c9 bd eb 5e da 3d a0 78 06 be e9 47 ac bd
       -0.09841483 0.106626354 -0.13131952 -0.08412153
000360 0e f5 c7 3d 0d ce 55 3d fb a6 22 3c c4 42 f7 3d
       0.09763537 0.05219846 0.009927507 0.120732814
000370 1f cd eb 3d 57 e0 b2 3d 02 25 80 3d 5b 2d 16 bd
       0.11513733 0.08734196 0.06257059 -0.036664348
000380 82 5f bb bd ee 2d aa 3d 29 d1 f7 bd 3f 7f aa bd
       -0.09149076 0.08309542 -0.12100441 -0.083250515
000390 84 e9 c1 bd a6 fa 0c 3e e9 c7 3e bd dc b6 d4 3d
       -0.09468368 0.1376749 -0.046577368 0.1038644
0003a0 f5 7d b7 bd 61 cd 7e 3c 7f a5 b4 3d 59 e2 41 3d
       -0.08959571 0.015551896 0.088206284 0.047335003
0003b0 87 47 b0 3d 78 30 cb bd c6 16 ba 3d 72 81 cb 3d
       0.08607393 -0.09921354 0.09086375 0.09936799
0003c0 cb 76 6b bd 7f ea 8d 3d 59 4a e7 3d cd 68 d9 3d
       -0.057486337 0.06929492 0.112934776 0.10615692
0003d0 43 7a 90 bd 1f 7d da 3c b1 3d 65 bd 54 27 59 bd
       -0.070545696 0.02667099 -0.055967037 -0.05301602
0003e0 63 43 1d bd 44 ce e3 3c 9e 28 fc 3d 5d 7d 81 bd
       -0.038394343 0.027808316 0.123124346 -0.06322739
0003f0 72 b5 06 bd c2 4d b4 bd 58 09 85 3d fb 98 54 3d
       -0.032887883 -0.088038936 0.06495923 0.051903706

critic.2.bias f4 [32]
000000 10 1c 1e bd 4d c3 92 3c 45 51 df bd c8 85 06 3c
       -0.03860098 0.017915392 -0.10904173 0.008210607
000010 d2 85 a3 3d c9 52 a7 bd 25 95 0e 3d f6 9f ce bd
       0.079845086 -0.08170087 0.034810204 -0.10089104
000020 59 b5 aa bc 86 79 9f 3d 72 6c 93 3d 57 39 6b 3d
       -0.020838426 0.07786851 0.07198419 0.05742773
000030 5b be e8 3d ce 57 bd bd 66 8a b1 3d 7b 30 19 3d
       0.113644324 -0.09245263 0.086689755 0.03739975
000040 be 03 b0 bd 08 e3 5d bd 15 fc 1c bd 47 d3 9e 3d
       -0.08594464 -0.054171592 -0.03832634 0.07755142
000050 fb f3 8a 3d 45 69 21 3d 80 b7 b2 b9 0f 5e 74 bd
       0.06784817 0.039407033 -0.00034087524 -0.059660014
000060 8d bf 0c 3e c6 98 37 3b 39 97 a2 3d f5 33 81 3d
       0.13744946 0.0028014644 0.07939 0.06308738
000070 ca 5d 92 bb 3f 43 db 3d 4b 3c dd bc a4 24 f1 3d
       -0.004466747 0.107061855 -0.027006289 0.11774567

critic.4.weight f4 [1, 32]
000000 4e 41 4d 3d f5 34 bc 3d 21 d8 0f be a1 99 75 bd
       0.050111108 0.09189788 -0.1404729 -0.059960965
000010 bc 44 af 3d 6e 3f 9b 3b 27 f0 16 3e 87 da 04 3e
       0.08558032 0.004737786 0.14740048 0.12973987
000020 1f a8 28 3a de 19 1f 3e eb 6b ae 3d 9a 15 a6 bd
       0.00064337434 0.15537211 0.085166775 -0.08109589
000030 87 27 cb bb 24 5f 30 bd 67 65 aa 3c a8 7e f8 bd
       -0.0061997804 -0.043059483 0.020800306 -0.12133533
000040 9e de 02 3e 96 85 d0 bd 0a 47 36 bd db 20 87 3d
       0.12780234 -0.101817295 -0.044501342 0.065980636
000050 fd 83 b3 bc 9e fa bd bd cf 5b bc bc df 76 9f bd
       -0.021913523 -0.09276317 -0.022992996 -0.07786345
000060 98 08 1b bd 4b e5 e7 3d f8 cf ae bc 6f 96 b7 bc
       -0.037849993 0.11323031 -0.021339402 -0.0224106
000070 b5 db dd 3d 4d af f5 bd 6c 67 12 3e af 86 be bd
       0.108329214 -0.119963266 0.14297265 -0.093030326
