Policy Gradient/walker_ppo_model_18400.pth (torch, 34323 bytes, 11 tensors)

actor.0.weight f4 [64, 24]
0	0xbdf7c457	-0.12097996
1	0x3ef6070d	0.48052254
2	0xbcf40295	-0.029786387
3	0x3f42d676	0.7610849
4	0xbe095114	-0.13409835
5	0xbdca7afe	-0.0988674
6	0x3f5380a1	0.8261815
7	0xbe3b1746	-0.18270597
8	0xbe7c8c92	-0.24662998
9	0xbe0bdcd3	-0.13658457
10	0xba1dce0f	-0.000601978
11	0xbe84b9e1	-0.25923064
12	0x3d54e85f	0.05197942
13	0x3d6edbe8	0.058315188
14	0x3e814115	0.25244966
15	0x3e5508b6	0.20804104
16	0x3d894546	0.06702666
17	0xbbc9c705	-0.006157758
18	0x3e5bc4d5	0.21461804
19	0xbdede0f3	-0.11615171
20	0x3da9f7dd	0.08299229
21	0x3e40fed5	0.1884721
22	0x3e16704a	0.14691272
23	0x3d1897f0	0.037254274
24	0x3c837adc	0.016049795
25	0x3a555348	0.0008137715
26	0x3e63ed88	0.2225858
27	0x3d5e90a2	0.05433715
28	0x3e8a7db6	0.27049035
29	0x3e578eb3	0.21050529
30	0x3f5e28a0	0.8678074
31	0xbe28d911	-0.16489054
32	0xbe3031eb	-0.17206542
33	0xbd652a06	-0.05594828
34	0x3dd1cae9	0.1024378
35	0x3d4334f9	0.04765794
36	0xbd2fe8e4	-0.04294671
37	0x3dd06ed6	0.1017739
38	0x3e1988f2	0.14993647
39	0x3de0972e	0.10966335
40	0xbc7c1d5e	-0.015387861
41	0x3e05b923	0.13058905
42	0xbdaaeeba	-0.08346315
43	0x3d84ff3a	0.06493993
44	0x3d4b5cc8	0.04964903
45	0xbd27a398	-0.0409275
46	0x3b21339a	0.0024597407
47	0x3e0ea47f	0.13929938
48	0xbb55d8df	-0.0032630486
49	0xbf06a2c5	-0.52592117
50	0xbd19bebd	-0.037535418
51	0xbf1779b0	-0.59170055
52	0xbe4b72b1	-0.1986797
53	0x3ddfd9c2	0.10930206
54	0x3f07f408	0.5310674
55	0x3d1e6e51	0.038679425
56	0xbe55eabb	-0.20890324
57	0x3e24f73b	0.16109936
58	0xbe2c1d46	-0.16808042
59	0x3ea8cfb8	0.32970977
60	0xbdd78c96	-0.105248615
61	0x3e8afa37	0.27144024
62	0xbe820db4	-0.2540108
63	0xbe77e2f4	-0.2420767
64	0xbe6a0ca0	-0.22856379
65	0x3c4c35b5	0.012463977
66	0xbe7df874	-0.24801809
67	0x3db387a7	0.08766108
68	0xbd8fd243	-0.07022526
69	0xbe2f9ff1	-0.17150857
70	0xbe52ca69	-0.20585026
71	0xbcfd990d	-0.03095677
72	0xbe9b353a	-0.30314046
73	0xbe45430c	-0.19263858
74	0xbdd8e8ed	-0.10591302
75	0xbe854c8c	-0.26034963
76	0xbece810f	-0.4033284
77	0xbe3809c0	-0.1797247
78	0xbd04e636	-0.03244611
79	0xbe327b93	-0.17429952
80	0xbe0df797	-0.1386398
81	0x3e298bb4	0.16557199
82	0x3ddc3659	0.107525535
83	0xbcf0e2d9	-0.029405044
84	0x3d9ba3a5	0.07599572
85	0x3cd6c67e	0.026217695
86	0xbe339d3f	-0.17540453
87	0xbe84e846	-0.2595846
88	0xbe33392c	-0.17502278
89	0x3d82ab14	0.06380287
90	0xbd99c288	-0.07507807
91	0x3d4b3f4f	0.049620923
92	0x3ca1a90f	0.019733934
93	0xbe30abbb	-0.1725301
94	0x3e0f5e99	0.1400093
95	0x3d415ae0	0.047205806
96	0xbd3131df	-0.04326045
97	0xbe66efff	-0.22552489
98	0xbea17d53	-0.31540927
99	0xbed7970a	-0.4210742
100	0x3d15c3e5	0.036563773
101	0xbd5018f0	-0.050805032
102	0xbeea22a5	-0.45729557
103	0xbcf83c8d	-0.03030231
104	0xbd7aea8a	-0.06125883
105	0xbca531d9	-0.02016537
106	0x3d3a67fa	0.045509316
107	0x3efc077c	0.4922446
108	0x3e4c6372	0.1995981
109	0x3e6ba1f7	0.23011003
110	0x3d907f08	0.07055479
111	0x3d853dcb	0.06505927
112	0xbe6650b8	-0.2249173
113	0xbd06e70e	-0.032935195
114	0xbdd78a94	-0.105244786
115	0xbd6e939d	-0.058246244
116	0x3ce33b66	0.027738284
117	0xbe1b211b	-0.15149347
118	0xbe2d0361	-0.1689582
119	0x3daf00b2	0.085450545
120	0x3e45e374	0.19325048
121	0xbebdeb05	-0.37093368
122	0x3d2e0f2b	0.042494934
123	0xbebed893	-0.37274608
124	0x3d8d1c2e	0.068901405
125	0x3d757a39	0.059931014
126	0x3ef10e02	0.47081
127	0xbd8ffc0b	-0.07030495
128	0x3e48d837	0.1961373
129	0xbd677f18	-0.05651769
130	0xbd5fc548	-0.0546315
131	0x3db4f145	0.08835081
132	0xbdcf5376	-0.10123341
133	0x3e885164	0.26624596
134	0xbc78c673	-0.015184033
135	0xbdf0b17b	-0.11752602
136	0x3c788a26	0.015169656
137	0x3e2e955d	0.17049165
138	0xbdd53f70	-0.1041249
139	0xbe0800cb	-0.13281552
140	0xbce5c2f5	-0.028047064
141	0x3d8d28db	0.06892558
142	0xbdc833ec	-0.09775528
143	0x3d2856bd	0.041098345
144	0xbda58cff	-0.080835335
145	0xbee0a516	-0.4387595
146	0x3d90cd77	0.07070439
147	0xbf21a2ee	-0.63139236
148	0xbe89a365	-0.26882473
149	0x3e56ba00	0.20969391
150	0x3e9192ee	0.2843241
151	0x3a31fad6	0.00067893916
152	0x3db258f8	0.08708376
153	0x3e4b7920	0.19870424
154	0x3dd8ec4d	0.10591946
155	0x3e9303fe	0.28713983
156	0x3e0b61d0	0.13611531
157	0x3e2efc19	0.17088355
158	0xbc9ce589	-0.01915242
159	0x3cef6fbf	0.02922809
160	0x3db00043	0.085938
161	0x3d895c2b	0.06707033
162	0xbe39e965	-0.18155439
163	0x3d710788	0.058845073
164	0xbdf12f70	-0.11776626
165	0xbd8a7b60	-0.06761813
166	0xbe3aecbb	-0.18254368
167	0xbd0d8341	-0.034549
168	0xbdcf4727	-0.10120993
169	0x3e69d0ea	0.228336
170	0x3e6eaf95	0.23309167
171	0x3f203e57	0.62595123
172	0x3e9b7ded	0.3036951
173	0x3cb6e740	0.022327065
174	0x3f0696d3	0.5257389
175	0xbc071dda	-0.008246863
176	0xba8fb458	-0.0010963781
177	0xbd065457	-0.032795276
178	0xbe102415	-0.14076264
179	0xbebde4b4	-0.3708855
180	0xbe0223ad	-0.12708922
181	0x3b47174c	0.0030378876
182	0x3e69e3cc	0.22840804
183	0x3e0540bc	0.13012975
184	0x3e0d7a3e	0.13816163
185	0x3d386a69	0.045023356
186	0x3d968533	0.073496245
187	0xbd120bc5	-0.035655756
188	0x3e0e19ba	0.13877001
189	0x3e1c5cb2	0.15269735
190	0x3db7ead0	0.08980334
191	0xbe63c708	-0.22243893
192	0xbbaf8130	-0.0053559765
193	0xbeaf3090	-0.34216738
194	0xbe96cf49	-0.2945502
195	0xbea94302	-0.33058935
196	0x3e84605e	0.25854772
197	0xbcd8a6c5	-0.02644671
198	0xbf323e32	-0.6962615
199	0x3d992ec9	0.07479627
200	0x3e96ee58	0.29478717
201	0xbd31ad23	-0.043378007
202	0x3b91268f	0.0044296454
203	0x3e4bfa74	0.19919759
204	0xbd7ac6cd	-0.061224747
205	0xbe425065	-0.1897598
206	0x3e0b6502	0.1361275
207	0xbc06b46b	-0.008221726
208	0xbd475759	-0.048667286
209	0xbdc98c3d	-0.098412015
210	0x3b88383e	0.004157095
211	0x3e01c2b4	0.1267193
212	0x3df83655	0.12119738
213	0xbd98a5a5	-0.07453469
214	0xbe06a42f	-0.13148569
215	0x3e2d6cba	0.16936007
216	0xbe2503b0	-0.16114688
217	0xbbf23756	-0.0073918505
218	0xbe638731	-0.2221954
219	0xbf02555a	-0.50911486
220	0xbe78b15b	-0.24286406
221	0xbd99e388	-0.07514101
222	0xbf524a66	-0.82144773
223	0xbd80d680	-0.06290913
224	0x3d793a3e	0.06084656
225	0x3e3c703b	0.18402188
226	0x3e3d7c54	0.18504459
227	0xbe2fec12	-0.17179897
228	0x3d9d6341	0.07684947
229	0x3d83c74a	0.06434496
230	0xbd7aea1d	-0.061258424
231	0xbe39022c	-0.18067235
232	0x3d990aca	0.07472761
233	0xbe3f5771	-0.186857
234	0xbd5a05ad	-0.05322807
235	0xbe959b4c	-0.29220045
236	0xbda88a59	-0.08229513
237	0xbe0e40e1	-0.13891937
238	0x3d4b384d	0.04961424
239	0x3dd46a87	0.10371881
240	0xbd8af593	-0.06785121
241	0x3f04914a	0.51784194
242	0x3e41e1ae	0.18933746
243	0x3ed85610	0.4225316
244	0x3e77adac	0.24187344
245	0xbd8a81fa	-0.06763072
246	0x3e66e3c1	0.22547819
247	0x3ccf76b8	0.025325164
248	0xbd238024	-0.039917126
249	0xbdabd716	-0.08390634
250	0x3e1eff1c	0.15527004
251	0xbec185d4	-0.37797415
252	0x3dd1299c	0.102130145
253	0xbdfd5fc8	-0.123717844
254	0xbc869e47	-0.016432894
255	0x3dbb0ac7	0.09132915

actor.0.bias f4 [64]
0	0xbe275a6e	-0.1634309
1	0xbe0d77b0	-0.13815188
2	0x3e88cd61	0.26719192
3	0xbc058ac4	-0.00815076
4	0x3e8e8b52	0.27840668
5	0xbd7e3f08	-0.06207183
6	0xbde01e0b	-0.1094323
7	0xbda94845	-0.082657374
8	0xbe3f51f5	-0.18683608
9	0x3e0ed045	0.13946636
10	0xbe1bbcda	-0.1520876
11	0x3a486886	0.000764497
12	0xbe02d858	-0.12777841
13	0xbc38f691	-0.011289255
14	0xbd397ce4	-0.04528512
15	0xba605c0d	-0.00085586385
16	0xbd5c42d3	-0.053774666
17	0xbdfeb75d	-0.124373175
18	0x3e3a7a1f	0.18210648
19	0x3e066d0b	0.13127534
20	0xbd837891	-0.064194806
21	0x3dea98c9	0.11454923
22	0x3e683ddc	0.22679847
23	0xbdb2d1a7	-0.08731394
24	0xbe1b309c	-0.15155262
25	0x3e0bb98d	0.13645001
26	0xbcafc522	-0.021456305
27	0xbe409d14	-0.1880992
28	0xbe04a8bd	-0.12954994
29	0xbe4122d4	-0.18860942
30	0x3e03021a	0.1279377
31	0xbe081d71	-0.13292481
32	0xbe32ba48	-0.17453873
33	0x3e30f31e	0.17280242
34	0xbe4069a3	-0.18790297
35	0xbe39eef2	-0.18157557
36	0xbd6ae7d1	-0.057349984
37	0xbb995c5a	-0.0046801986
38	0x3dca5adb	0.098806106
39	0x3e217630	0.15767741
40	0x3e459417	0.19294773
41	0x3e063c20	0.13108873
42	0x3e0929d6	0.13394865
43	0x3d5d707a	0.054062344
44	0x3e2b2816	0.1671451
45	0xbbe17735	-0.0068806657
46	0x3debf310	0.1152097
47	0xbd428af7	-0.04749581
48	0x3d9012f8	0.07034868
49	0xbd03eddc	-0.032209262
50	0xbe5200a8	-0.20508063
51	0x3dacd19a	0.08438416
52	0x3d1b6461	0.037937526
53	0x3d4521a5	0.04812779
54	0xbe09a506	-0.13441858
55	0x3dea453e	0.11438988
56	0x3e14532f	0.14484857
57	0x3e49937f	0.19685172
58	0xbd969433	-0.073524855
59	0xba3f5f44	-0.00073002675
60	0x3de4e4e5	0.11176471
61	0x3b9d61a9	0.0048029018
62	0xbd30cca9	-0.04316393
63	0x3e384c9e	0.17997977

actor.2.weight f4 [32, 64]
0	0x3d869f48	0.06573349
1	0x3dc75e61	0.09734798
2	0x3c91947a	0.017770994
3	0xbe9c2e92	-0.3050428
4	0x3c63509c	0.013874199
5	0x3e09e4c1	0.13466169
6	0x3e4fe5d6	0.20302519
7	0x3d1b2440	0.037876368
8	0x3e55572f	0.20834039
9	0xbe9b91e0	-0.3038473
10	0x3e692ce8	0.22771037
11	0x3e2db91b	0.16965143
12	0x3cfe31ff	0.0310297
13	0xbbda3f34	-0.0066603664
14	0x3da59688	0.08085352
15	0xbde9b8b9	-0.11412186
16	0x3cbde9e7	0.023182822
17	0x3e99159e	0.29899305
18	0x3e1948cf	0.1496918
19	0xbe00c647	-0.12575637
20	0x3e976ea8	0.29576612
21	0xbebdbff5	-0.37060514
22	0xbf2109db	-0.62905663
23	0x3ccf06d5	0.025271812
24	0x3ddf137c	0.10892388
25	0x3d8a1452	0.06742157
26	0x3e64ac24	0.22331291
27	0xbc8d20db	-0.01722758
28	0x3e03d31e	0.12873504
29	0x3e42c910	0.19022012
30	0x3c3a532b	0.011372368
31	0x3d3900f3	0.04516692
32	0x3deda0b6	0.11602919
33	0x3d3a4ace	0.045481496
34	0x3d048747	0.032355573
35	0x3e04182d	0.12899847
36	0x3db0f937	0.08641284
37	0xbd8f15cb	-0.069865786
38	0xbd2fd0b0	-0.04292363
39	0xbe8de55c	-0.2771405
40	0xbe1a01ce	-0.15039751
41	0xbdc71244	-0.09720281
42	0xbe042f2b	-0.12908618
43	0xbe537dac	-0.20653409
44	0x3d2297f3	0.03969569
45	0x3e6e5359	0.23273982
46	0xbcd67aae	-0.026181545
47	0xbe6438bd	-0.22287269
48	0x3d7de37c	0.061984524
49	0x3d7e3022	0.06205762
50	0x3e6cc88b	0.23123376
51	0xbea4ea9f	-0.32210252
52	0x3d4eaf22	0.05045999
53	0xbdeb5f12	-0.114927426
54	0xbe6ab4e2	-0.22920564
55	0xbd3673e1	-0.044544104
56	0x3c7e613a	0.01552611
57	0xbd5bc867	-0.053657915
58	0xbc2c8385	-0.010529404
59	0x3d8231e7	0.06357174
60	0xbe69ab4c	-0.22819251
61	0xbe27c77e	-0.16384694
62	0xbc7388c2	-0.014864149
63	0xbe595b73	-0.21226291
64	0xbf113c26	-0.56732404
65	0xbe7594db	-0.23982565
66	0xbd68ba3d	-0.056818236
67	0xbd901c0a	-0.07036598
68	0x3ead3306	0.3382799
69	0xbd0c1acb	-0.03420524
70	0xbd42a961	-0.047524814
71	0xbef2ccdb	-0.47421917
72	0x3e95e5a2	0.29276758
73	0x3e70bb36	0.23508915
74	0xbe136171	-0.1439264
75	0x3e0cba2f	0.13742898
76	0xbd95fe2d	-0.07323871
77	0x3efbb6e4	0.49162972
78	0xbec4e33d	-0.3845462
79	0xbe5b32b6	-0.21406063
80	0xbe095c90	-0.13414216
81	0x3d5bb0a3	0.05363525
82	0xbe1d6dec	-0.15373963
83	0xbea562b8	-0.3230188
84	0xbe41e5e1	-0.18935348
85	0xbe912885	-0.28351226
86	0xbca6662c	-0.020312391
87	0xbe71995e	-0.23593661
88	0xbc8b29a4	-0.01698763
89	0x3bcf646a	0.006329109
90	0x3cf2e63e	0.029650804
91	0xbbaae8da	-0.0052157464
92	0xbe835983	-0.2565423
93	0xbc247c28	-0.010039367
94	0xbae975db	-0.0017811613
95	0x3cd90b97	0.026494784
96	0xbdf56760	-0.11982608
97	0x3dbbb13e	0.09164666
98	0xbe7c7c4c	-0.2465679
99	0xbd434e47	-0.047682073
100	0xbde69810	-0.11259472
101	0xbc347990	-0.011015311
102	0xbe5fcc4b	-0.21855275
103	0x3ed54e6a	0.41661388
104	0x3e2faf6f	0.17156766
105	0x3d04d17a	0.032426335
106	0x3e37f8f8	0.17966068
107	0xbb8575db	-0.0040728874
108	0xbdbc3274	-0.09189311
109	0xbe631cd2	-0.22178963
110	0x3e42c21a	0.19019356
111	0xbd3c1db7	-0.045926776
112	0xbe65e7b7	-0.22451673
113	0x3c8e1514	0.017344035
114	0xbe016c15	-0.12638886
115	0x3d80b1f9	0.062839456
116	0x3db30ee0	0.087430716
117	0x3db77587	0.089579634
118	0xbefaad5c	-0.48960388
119	0x3dc21da1	0.094783075
120	0x3e302764	0.17202526
121	0x3c99efe0	0.01879114
122	0xbcb83bb9	-0.022489415
123	0x3dbf4013	0.09338393
124	0xbd3abf9e	-0.045592897
125	0x3ce0848f	0.027406959
126	0xbd4cc06c	-0.049988195
127	0x3ecb8e03	0.39756784
128	0xbda69c94	-0.08135334
129	0xbc954b33	-0.018224334
130	0x3df9b285	0.12192253
131	0x3e90968b	0.28239855
132	0x3daeb7a3	0.0853112
133	0xbdc4c864	-0.09608534
134	0x3dbbdbf8	0.09172815
135	0xbe8922e7	-0.2678444
136	0xbd16101d	-0.03663646
137	0x3e165836	0.14682087
138	0xbd352714	-0.04422672
139	0xbe98a983	-0.29816827
140	0xbe36101d	-0.17779584
141	0xbd1f91a8	-0.038957268
142	0xbdb7181f	-0.089401476
143	0xbe20201c	-0.15637249
144	0xbe2a4d6d	-0.16631098
145	0xbdcb63ad	-0.09931121
146	0xbcd1b483	-0.02559877
147	0x3e7af9b4	0.24509317
148	0xbe651106	-0.22369775
149	0x3e8089e7	0.2510521
150	0x3ebd24a6	0.36942023
151	0x3d40c55d	0.04706322
152	0x3ac30d4b	0.0014881281
153	0xbcd86cfa	-0.026419152
154	0xbd92e205	-0.07172016
155	0xbe0c4e67	-0.13701783
156	0xbceaf91c	-0.028683238
157	0xbdf18f44	-0.11794904
158	0x3c83d407	0.016092313
159	0xbe5a24d0	-0.21303105
160	0x3d5387ca	0.05164317
161	0x3dfc8f51	0.12332023
162	0x3dfe7893	0.124253415
163	0xbe3d940e	-0.1851351
164	0xbd5c2046	-0.053741716
165	0x3d5e2d1e	0.054242246
166	0xbd3a2ae8	-0.045451075
167	0x3e6eb49b	0.23311083
168	0x3e29b080	0.16571236
169	0x3ea240e3	0.3169013
170	0x3d56ddf8	0.05245778
171	0xbe27d4bc	-0.16389745
172	0x3dfb4354	0.12268701
173	0xbef06b7b	-0.46957
174	0xbd2fd0cb	-0.04292373
175	0x3ec4f914	0.38471282
176	0xbd3418e7	-0.04396906
177	0xbd374674	-0.044744924
178	0xbde538c2	-0.11192466
179	0x3bef5501	0.0073038344
180	0xbe274a38	-0.16336906
181	0x3e371f59	0.17883052
182	0x3e549a5e	0.20762011
183	0x3dac4a69	0.0841263
184	0xbdbc2f82	-0.09188749
185	0xbd8fbbef	-0.07018267
186	0x3de04cba	0.109521344
187	0x3d093012	0.03349311
188	0x3e1051d5	0.14093716
189	0x3cc08b05	0.02350379
190	0x3d608665	0.05481567
191	0x3e60ffea	0.21972623
192	0x3d88dc09	0.066825934
193	0x3ecf51dd	0.40492144
194	0x3ef7d58f	0.4840512
195	0x3e3342c3	0.17505936
196	0xbe11981d	-0.14218183
197	0x3e10b28c	0.1413061
198	0x3e8024a4	0.25027955
199	0x3d10a70e	0.035315566
200	0xbe879f5b	-0.26488766
201	0xbe283848	-0.1642772
202	0xbe35dd83	-0.17760281
203	0xbe4362f6	-0.1908072
204	0xbd2a77bb	-0.04161809
205	0xbe9ff615	-0.31242433
206	0x3e47c4d9	0.19508685
207	0x3e4aefbc	0.19818014
208	0xbcf2e88a	-0.029651899
209	0xbec05618	-0.37565684
210	0x3e1310a9	0.14361824
211	0x3f229f45	0.63524276
212	0xbcf20162	-0.029541675
213	0x3e34cd4c	0.1765644
214	0x3dfda9d6	0.12385909
215	0x3c289329	0.010288992
216	0x3df7cbf5	0.120994486
217	0xbcdb8557	-0.02679698
218	0x3d29ffc3	0.04150368
219	0xbd567150	-0.052354157
220	0x3e6febb1	0.23429753
221	0x3d8135e9	0.06309111
222	0xbeb840f0	-0.35987043
223	0xbf257e41	-0.64645773
224	0xbe0a48c6	-0.13504323
225	0x3ebd7b05	0.3700792
226	0x3e4ea88f	0.20181488
227	0xbe06741c	-0.1313023
228	0xbd980390	-0.074225545
229	0xbdf1c4ca	-0.11805113
230	0x3e8afb5f	0.27144906
231	0xbe833573	-0.25626716
232	0x3e5f7781	0.21822931
233	0x3b9be0f4	0.004757041
234	0xbdb5b5a2	-0.08872534
235	0xbd9648ca	-0.07338102
236	0x3eacbb4b	0.33736643
237	0x3c82454b	0.015902182
238	0x3e7e5253	0.24836092
239	0x3e8590a8	0.26086926
240	0x3eb65afd	0.35616294
241	0x3da7cb92	0.08193125
242	0xbed2e324	-0.4118892
243	0x3e21e176	0.15808663
244	0xbe916272	-0.2839542
245	0xbdb31a5f	-0.08745264
246	0x3ca6afd2	0.02034751
247	0xbe83d765	-0.2575027
248	0xbd703349	-0.05864266
249	0x3e01d92d	0.12680502
250	0x3e173c1a	0.1476902
251	0x3c89dab1	0.016827913
252	0x3eaad5cb	0.33366236
253	0x3d308f77	0.04310557
254	0xbde8e861	-0.11372448
255	0x3dea37dc	0.114364356

actor.2.bias f4 [32]
0	0xbd3eed4f	-0.046613034
1	0x3e02a36d	0.12757654
2	0x3d95b667	0.07310181
3	0x3d237107	0.039902713
4	0xbc0a52d7	-0.008442602
5	0xbdc114b0	-0.09427774
6	0xbd1f0efa	-0.038832642
7	0x3ca8ae6f	0.020590989
8	0x3b7671cc	0.003760445
9	0x3d791340	0.060809374
10	0xbd92af26	-0.07162313
11	0xbd65db32	-0.056117244
12	0xbdeb63ae	-0.11493622
13	0x3dc73495	0.09726826
14	0xbcac5edb	-0.021041324
15	0x3bd47250	0.0064833537
16	0x3e17dd74	0.14830571
17	0xbd6362f8	-0.055514306
18	0x3d66d146	0.056351922
19	0x3d0e5186	0.034745716
20	0x3d6e5066	0.058182143
21	0x3cb42e05	0.0219946
22	0xbd3654c7	-0.044514444
23	0x3e10740b	0.14106767
24	0xbe350f37	-0.17681585
25	0x3dbd9c49	0.09258325
26	0x3d285357	0.041095104
27	0xbd8863e4	-0.066596776
28	0xbc37481a	-0.011186624
29	0xbd5f8d31	-0.05457801
30	0x3ddf71d4	0.10910383
31	0xbe1417aa	-0.14462152

actor.4.weight f4 [4, 32]
0	0xbeb942ec	-0.3618387
1	0xbdafcede	-0.08584379
2	0x3f07282f	0.5279569
3	0x3e4a978f	0.19784378
4	0xbe8ead47	-0.27866575
5	0xbf053431	-0.5203276
6	0xbdec123a	-0.11526914
7	0x3dbf7614	0.093486935
8	0x3e478d47	0.19487487
9	0xbee34a2e	-0.44392532
10	0xbe37c494	-0.17946082
11	0x3d1731ec	0.036912844
12	0xbf895062	-1.0727656
13	0x3de1e13e	0.1102929
14	0x3ef9b0a3	0.48767576
15	0x3e526740	0.20547199
16	0x3cc000cb	0.023437878
17	0x3e060bb6	0.13090405
18	0x3e95179c	0.29119575
19	0x3f413ab4	0.754802
20	0x3dabe548	0.08393341
21	0x3ed3b7b7	0.413511
22	0x3e1c9ddb	0.15294592
23	0x3f57f56e	0.8435887
24	0xbe5f36c9	-0.21798243
25	0xbe268a3d	-0.16263671
26	0x3b8c24cc	0.0042768475
27	0x3e478a5b	0.19486372
28	0xbe22618b	-0.15857522
29	0xbec45518	-0.3834617
30	0x3df01c85	0.1172419
31	0xbe707f56	-0.23486075
32	0xbe30f274	-0.17279989
33	0x3f441b5d	0.76604253
34	0x3eb1747b	0.3465918
35	0xbebff35c	-0.37490356
36	0xbe647500	-0.22310257
37	0x3ddf7543	0.10911038
38	0xbedced70	-0.431499
39	0xbee69498	-0.45035243
40	0xbf03435e	-0.5127467
41	0x3c2283f2	0.0099191535
42	0x3f365e58	0.7123771
43	0x3f95022d	1.1641289
44	0x3dba728f	0.091038816
45	0x3eb92550	0.3616128
46	0x3e2a6048	0.16638291
47	0xbf38d43f	-0.7219886
48	0x3eebb86f	0.4603915
49	0xbcc0276b	-0.023456296
50	0x3f29067c	0.6602552
51	0x3d2d456d	0.042302538
52	0xbe82722f	-0.2547774
53	0x3e9b17f4	0.30291712
54	0x3f022097	0.5083098
55	0xbcb69163	-0.022286123
56	0xbe650dea	-0.22368589
57	0x3e32327e	0.17402074
58	0x3d67f4b0	0.056629837
59	0xbf1daade	-0.6158885
60	0x3f0b0efc	0.5431974
61	0xbe9102c9	-0.28322437
62	0xbef08eae	-0.46983856
63	0xbefaf871	-0.4901767
64	0x3d4d799d	0.050164808
65	0xbbb27b6e	-0.005446843
66	0xbe7efd8a	-0.24901405
67	0xbed61ee4	-0.41820443
68	0xbe057a0c	-0.13034838
69	0x3e049ffd	0.12951656
70	0xbea67345	-0.3250982
71	0xbec69a8e	-0.3878979
72	0xbe958bed	-0.29208317
73	0x3d8335b7	0.0640673
74	0xbe64a8c8	-0.2233001
75	0x3e42618f	0.18982528
76	0x3e46de10	0.19420648
77	0x3e586739	0.21133126
78	0x3c11d8e2	0.008901807
79	0x3d9a7b81	0.07543088
80	0x3e54feb1	0.20800282
81	0xbed2c882	-0.411686
82	0xbe1b499a	-0.15164796
83	0xbe8c1725	-0.27361408
84	0x3c92854a	0.017885823
85	0x3d3375f3	0.043813657
86	0xbeac3274	-0.33632243
87	0xbdd26009	-0.102722235
88	0xbd83b960	-0.06431842
89	0x3dcf6d65	0.10128287
90	0x3d15850a	0.03650383
91	0xbe938a1a	-0.288163
92	0xbd3f0c82	-0.046642788
93	0x3e277977	0.16354929
94	0x3ee65cad	0.4499258
95	0x3cd8c041	0.026458861
96	0xbd35147d	-0.044208992
97	0xbe294f1f	-0.16534089
98	0x3c41e37f	0.011834024
99	0xbe1c5e1c	-0.15270275
100	0xbedaf0e6	-0.42761916
101	0x3e5ff844	0.2187205
102	0xbe945f5e	-0.2897901
103	0xbde72ffe	-0.11288451
104	0xbe0adb63	-0.13560252
105	0x3ec42d3a	0.38315755
106	0xbbce9671	-0.006304555
107	0x3e500dec	0.20317811
108	0xbd5817e5	-0.052757163
109	0xbe6602fb	-0.22462074
110	0xbecbb221	-0.3978434
111	0x3de991a9	0.114047356
112	0xbea39260	-0.31947613
113	0xbf51e172	-0.8198463
114	0x3e21a7ed	0.15786715
115	0x3c8e134d	0.017343188
116	0xbeb8409a	-0.35986787
117	0xbed934af	-0.42423007
118	0xbebaa1b5	-0.36451498
119	0x3ddb86b9	0.10719056
120	0x3ece9dc7	0.4035475
121	0xbf1854c9	-0.5950437
122	0xbf2442b0	-0.6416426
123	0x3c6ab56d	0.014325482
124	0x3e900e40	0.28135872
125	0xbe9f8f97	-0.31164238
126	0x3ee1ae99	0.4407852
127	0xbe3c6cbe	-0.18400857

actor.4.bias f4 [4]
0	0x3e1955c4	0.14974123
1	0xbddc3d45	-0.10753874
2	0x3e56213b	0.20911114
3	0xbe46b9d4	-0.19406825

critic.0.weight f4 [64, 24]
0	0x3e4a04eb	0.19728439
1	0x3e0e0168	0.13867724
2	0x3e27db72	0.16392305
3	0xbe01efee	-0.12689182
4	0xbd8232e8	-0.06357366
5	0xbd9198e2	-0.07109238
6	0x3d9b1dc8	0.0757404
7	0x3dce0046	0.10058646
8	0x3e305cd9	0.17222919
9	0xbdfb5fb3	-0.122741126
10	0x3d2ef54b	0.0427144
11	0xbd08c381	-0.033389572
12	0x39a24604	0.00030951214
13	0x3e51a3cc	0.2047264
14	0xbe119dd6	-0.14220366
15	0xbda3d496	-0.07999532
16	0x3d309bcb	0.043117326
17	0x3dc4f4a6	0.096169755
18	0xbd49c47c	-0.049259648
19	0xbd187042	-0.037216432
20	0xbd869278	-0.065709054
21	0xbbd71e2a	-0.006564875
22	0xbe23bd35	-0.15990146
23	0xbd93d3e1	-0.07218147
24	0x3c874063	0.016510194
25	0x3e1e9451	0.15486266
26	0x3e084489	0.13307394
27	0x3d4275f4	0.04747577
28	0xbd8b4874	-0.06800929
29	0x3e1d1e2a	0.15343538
30	0xbe2be481	-0.16786386
31	0x3d847217	0.064670734
32	0x3cc882fb	0.024476519
33	0xbd08012d	-0.033204246
34	0x3e3b7da7	0.18309651
35	0x3dc188ef	0.09449946
36	0x3e389e54	0.18029147
37	0xbe043027	-0.12908994
38	0xbdae3ff3	-0.08508291
39	0xbe1e0320	-0.1543088
40	0x3dd199de	0.10234426
41	0xbe29b87b	-0.1657428
42	0x3d5de933	0.054177474
43	0x3de98089	0.11401469
44	0x3d1d09ff	0.03833961
45	0x3cb403c5	0.021974454
46	0xbda8acbc	-0.082360715
47	0xbd5b66af	-0.053564724
48	0xbdcffb4f	-0.10155355
49	0x3d8fe5b1	0.07026232
50	0x3dbf6e21	0.09347177
51	0xbd89f206	-0.067356154
52	0xbe0ccca7	-0.13749944
53	0xbdad7a06	-0.0847054
54	0xbde2c3b3	-0.11072483
55	0xbd6df74c	-0.05809717
56	0x3e11d4ea	0.14241377
57	0x3e0c60e0	0.1370883
58	0x3e056b9b	0.1302933
59	0xbbc121a8	-0.0058939047
60	0xbd14716a	-0.036240973
61	0x3e21c371	0.15797211
62	0xbe589285	-0.21149643
63	0x3bbcbfbb	0.0057601607
64	0xbe1d3c8d	-0.1535513
65	0xbdf083cc	-0.11743888
66	0x3dca511e	0.09878753
67	0xbe39ea92	-0.18155888
68	0xbded5dcd	-0.11590157
69	0xbe245ee5	-0.16051824
70	0x3e43236f	0.19056486
71	0xbd8d1152	-0.06888069
72	0x3e1ca18a	0.15295997
73	0xbdda78c6	-0.10667567
74	0x3e0b9146	0.13629636
75	0xbdc3545a	-0.09537573
76	0x3d41f2ee	0.047350816
77	0x3dbc6fb8	0.09200996
78	0x3deb3638	0.11484951
79	0xbdcde5f5	-0.100536264
80	0x3e136334	0.14393312
81	0x3e0b31cc	0.13593215
82	0x3d547982	0.05187369
83	0x3d964e63	0.0733917
84	0xbd776a99	-0.060404394
85	0x3da8a318	0.08234233
86	0x3de59dea	0.1121176
87	0x3df26446	0.11835532
88	0x3cc3bc6e	0.023893561
89	0xbe2d92df	-0.16950558
90	0x3e3271fa	0.17426291
91	0xbe3242db	-0.17408316
92	0xbe24fcc0	-0.16112041
93	0x3c3cac86	0.011515742
94	0x3d0b1935	0.033959586
95	0x3e0e16a1	0.1387582
96	0xbe0a8c1d	-0.13530011
97	0xbbd39a1a	-0.0064575793
98	0xbdd0620e	-0.101749524
99	0xbe697ead	-0.22802229
100	0x3e00bbbc	0.12571615
101	0xbca6c19c	-0.020355992
102	0x3decbda7	0.11559611
103	0xbd0cef6b	-0.034408014
104	0x3df59a4e	0.11992322
105	0xbe0bae81	-0.13640787
106	0x3d23b4ea	0.039967455
107	0xbd9c737d	-0.07639215
108	0x3b8e6613	0.0043456643
109	0xbd320a0b	-0.04346661
110	0xbe49d46b	-0.19709937
111	0xbdb48668	-0.088146985
112	0x3e0c42c2	0.13697341
113	0xbe1d4500	-0.15358353
114	0x3e34fd5f	0.17674778
115	0x3db960f2	0.09051694
116	0x3dc326d5	0.09528891
117	0x3e0e2f10	0.1388514
118	0xbe354ff5	-0.17706282
119	0x39d31b2f	0.0004026531
120	0xbd17e790	-0.03708607
121	0x3d00ed1b	0.03147612
122	0xbe3a8a8e	-0.18216917
123	0xbd09c62a	-0.03363625
124	0x3db3c24e	0.08777295
125	0xbdd9990c	-0.106248945
126	0xbbb15661	-0.0054119085
127	0xbd9c8e80	-0.07644367
128	0x3d85fc46	0.06542258
129	0x3d455fe4	0.04818715
130	0x3d88646f	0.06659781
131	0xbd666b1c	-0.05625449
132	0xbbc57441	-0.0060258214
133	0x3df93009	0.12167365
134	0xbcd83e44	-0.026396878
135	0x3d4e8ab4	0.050425246
136	0x3d91de8a	0.07122524
137	0x3d905e0e	0.070491895
138	0xbe57595c	-0.21030182
139	0xbe0a0489	-0.13478293
140	0xbd1e0b02	-0.038584717
141	0xbd33756d	-0.043813158
142	0x3e28031a	0.16407433
143	0x38719321	5.7595902e-05
144	0xbd5d1cfa	-0.053982712
145	0xbe01ad75	-0.12663825
146	0xbdd666f1	-0.10468853
147	0x3dda55bf	0.10660886
148	0x3e07f896	0.13278422
149	0x3df3df4d	0.119078256
150	0xbcc8ffcb	-0.024536034
151	0xbb7bc296	-0.0038415543
152	0x3dffc427	0.12488585
153	0xbd26dc7e	-0.04073762
154	0x3dacb890	0.0843364
155	0x3ccc502a	0.024940569
156	0x3d6ff5f0	0.058584154
157	0xbe3a1085	-0.18170364
158	0xbdbafa4a	-0.0912977
159	0xbe3c9507	-0.18416224
160	0x3e1655a5	0.14681108
161	0x3dd6b9ca	0.10484655
162	0xbd9d6d54	-0.07686868
163	0xbe1e1b74	-0.1544016
164	0xbe048729	-0.12942185
165	0x3e0f7851	0.14010741
166	0x3e003bf5	0.12522872
167	0x3d7e2764	0.062049285
168	0xbe10a468	-0.14125216
169	0x3ddd8aca	0.108174875
170	0x3c7df3ac	0.01549999
171	0x3c4d82d2	0.012543397
172	0x3e3268e6	0.17422828
173	0x3d1bd2bf	0.03804278
174	0xbdc94df1	-0.09829319
175	0xbcbc9806	-0.02302171
176	0xbe251521	-0.16121341
177	0x3e1a2de7	0.15056573
178	0x3d9f249c	0.077706546
179	0x3da38a33	0.07985344
180	0x3d97e0ed	0.07415948
181	0x3dd4fada	0.10399409
182	0xbdf60a36	-0.12013666
183	0x3e1c7673	0.1527956
184	0xbe4f133a	-0.20222178
185	0x3d735258	0.0594047
186	0xbd54afc8	-0.05192545
187	0x3bf8169c	0.0075710546
188	0x3d8bb976	0.06822483
189	0xbe5c05b8	-0.21486557
190	0xbd553385	-0.052051086
191	0x3dc05fda	0.09393282
192	0xbe0baeb4	-0.13640863
193	0x3daf350d	0.085550405
194	0xbe2e9441	-0.17048742
195	0x3d34c4c6	0.04413297
196	0xbd0d1f18	-0.03445348
197	0x3cee642b	0.029100498
198	0xbdd624a8	-0.104562104
199	0x3da4cc78	0.08046812
200	0xbdf07fce	-0.11743127
201	0x3dd88988	0.10573107
202	0xbd2633c9	-0.04057673
203	0x3dd7ca16	0.10536592
204	0xbe3c74f6	-0.18403992
205	0xbb4c9749	-0.0031218103
206	0xbdada52e	-0.08478771
207	0xbd616f6c	-0.0550379
208	0x3c958c90	0.018255502
209	0xbe1cffb0	-0.15331912
210	0xbe19abbb	-0.15006916
211	0x3e042bdf	0.1290736
212	0x3d2238bd	0.03960489
213	0x3df443c5	0.119269885
214	0xbe37ddaa	-0.17955652
215	0xbe0698af	-0.13144182
216	0x3d258bc1	0.040416483
217	0x3ce2ded6	0.027694147
218	0x3c887fa5	0.016662428
219	0x3db43514	0.08799186
220	0x3d6b2be1	0.057414893
221	0x3d7cf8ac	0.06176059
222	0xbd9f8397	-0.07788771
223	0xbc068084	-0.008209351
224	0x3e152cc4	0.14567858
225	0x3b1e6929	0.0024171567
226	0x3cace7a5	0.02110655
227	0x3da66efe	0.08126639
228	0xbd9a7cd1	-0.07543338
229	0xbe555ca0	-0.20836115
230	0xbe5b3ab0	-0.21409106
231	0xbe0ec970	-0.1394403
232	0x3d6fe234	0.058565333
233	0xbd451fd1	-0.048126046
234	0xbdb435ee	-0.08799349
235	0xbe28ae25	-0.16472681
236	0x3d1d5941	0.038415197
237	0xbca6162b	-0.020274242
238	0x3dd239d4	0.10264936
239	0x3d80fb56	0.062979385
240	0xbe8a7026	-0.27038687
241	0xbc1427e8	-0.0090427175
242	0xbe58e45a	-0.21180859
243	0x3dd33df4	0.10314551
244	0xbded1631	-0.11576498
245	0xbc0dbda3	-0.00865117
246	0xbd58bb07	-0.05291274
247	0x3d8c74c5	0.068582095
248	0xbd71bf10	-0.059020102
249	0x3dd4ac19	0.103843875
250	0x3ddab21d	0.10678504
251	0xbe077095	-0.1322654
252	0xbd5614dc	-0.052265987
253	0xbe35cec9	-0.17754664
254	0x3e0ce3a8	0.13758719
255	0xbe12fb9e	-0.14353797

critic.0.bias f4 [64]
0	0x3e4661d3	0.19373254
1	0x3d9fd81a	0.0780489
2	0xbdfb7875	-0.12278835
3	0xbe2b00b7	-0.16699491
4	0x3e419baf	0.18907045
5	0xbc3465b9	-0.011010581
6	0x3ddce4d8	0.10785836
7	0x3e360423	0.17775016
8	0xbcb68a9d	-0.022282893
9	0x3d3a1d60	0.04543817
10	0x3de163da	0.11005373
11	0xbe3a1b46	-0.18174466
12	0xbd36dfbc	-0.044646963
13	0x3dfdbe2c	0.12389788
14	0xbcd4eba2	-0.025991265
15	0xbbb558a0	-0.0055342466
16	0xbcb0619f	-0.021530924
17	0xbc68e0ab	-0.014213721
18	0xbe257127	-0.16156445
19	0xbd5ab0d0	-0.053391278
20	0x3b4d6226	0.0031339019
21	0xbdb37313	-0.08762183
22	0xbe1a7bb9	-0.15086259
23	0xbcbc1aaf	-0.022961942
24	0x3e6048e9	0.21902813
25	0xbd4ac8ce	-0.04950791
26	0x3db2afea	0.08724959
27	0xbdcc80e4	-0.099855214
28	0x3b2b0d6c	0.002610053
29	0xbe0bfb33	-0.13670044
30	0xbd49ddad	-0.049283672
31	0x3e298a8e	0.1655676
32	0xbcbe5e41	-0.023238303
33	0x3cdc752c	0.02691134
34	0x3d746b1b	0.059672456
35	0xbe45f00c	-0.19329852
36	0xbe085627	-0.13314115
37	0xbd25c0cb	-0.040467065
38	0xbe1f018d	-0.15527935
39	0xbbbf4922	-0.0058375755
40	0x3db81fd4	0.08990446
41	0x3c8364d2	0.016039286
42	0xbe375ac4	-0.17905718
43	0xbe168ed0	-0.14702916
44	0xbe09428a	-0.13404289
45	0xbe45b6de	-0.1930804
46	0xbe1c63f7	-0.15272509
47	0x3be3d67b	0.0069530583
48	0x3dec7f2f	0.11547696
49	0x3db8648e	0.09003554
50	0xbdc0e85c	-0.09419319
51	0xbe2c3b99	-0.1681961
52	0x3dce1322	0.10062243
53	0x3de7d268	0.11319429
54	0x3dbe1740	0.09281778
55	0xbd7d58bf	-0.061852213
56	0x3e294ae7	0.16532479
57	0xbd28ddb4	-0.041227058
58	0xbe3726af	-0.1788585
59	0x3d49f6a7	0.04930749
60	0xbe10c624	-0.14138085
61	0x3d576681	0.05258799
62	0xbe182d94	-0.14861137
63	0xbdacd298	-0.08438605

critic.2.weight f4 [32, 64]
0	0x3d95d197	0.07315367
1	0xbd9f364b	-0.077740274
2	0xbd8d4e27	-0.06899672
3	0xbccc2d08	-0.024923816
4	0x3d612f33	0.054976653
5	0xbd95009e	-0.07275508
6	0xbdbfb252	-0.09360184
7	0xbd1edf05	-0.038786907
8	0x3dbf3671	0.09336556
9	0x3dc367dd	0.09541295
10	0xbdf6de78	-0.12054151
11	0x3ccddc41	0.02512944
12	0xbd8ed91f	-0.06975006
13	0xbe06486e	-0.13113567
14	0xbd1f70c8	-0.038925916
15	0x3e050356	0.12989554
16	0xbce51b40	-0.027967095
17	0xbc919807	-0.017772688
18	0xbddf3f05	-0.10900692
19	0x3db9c074	0.09069911
20	0x3dbe8ed0	0.09304583
21	0x3da8ec3d	0.08248184
22	0xbdcf6210	-0.10126126
23	0xbd215c22	-0.039394505
24	0x3dc0a116	0.09405725
25	0x3dd0cdeb	0.10195526
26	0xbd99efba	-0.07516427
27	0x3dba5ff5	0.091003336
28	0x3d4e284b	0.050331395
29	0xbdd06edc	-0.10177395
30	0x3da454c3	0.080239795
31	0xbc21311e	-0.009838371
32	0x3c7e16c7	0.01550836
33	0xbd50ed24	-0.051007405
34	0x3cb170fb	0.021660319
35	0xbd977700	-0.07395744
36	0xbc944f5a	-0.018104244
37	0xbca1ba74	-0.019742228
38	0xbdccb895	-0.09996144
39	0x3dcdf419	0.100563236
40	0xbdb5204e	-0.08844052
41	0x3d8266b6	0.06367247
42	0x3b77bd5e	0.003780208
43	0x3a9abd31	0.0011805651
44	0x3d2197b3	0.039451312
45	0x3db75616	0.089519665
46	0xbe010065	-0.12597807
47	0x3d71c8b1	0.059029285
48	0xbd8d658d	-0.06904135
49	0x3dd6cb71	0.10488022
50	0xbd9e6b09	-0.07735259
51	0x3da374db	0.07981273
52	0xbdf47352	-0.11936058
53	0xbc05e416	-0.008172056
54	0x3d4b8213	0.049684595
55	0x3e05d42e	0.13069221
56	0x3de02e32	0.10946311
57	0xbd88e734	-0.066847235
58	0xbdd81744	-0.105513126
59	0x3ceb380c	0.028713249
60	0x3dcf0fd2	0.10110439
61	0xbd509ab2	-0.05092878
62	0xbd44e255	-0.04806741
63	0xbd8b5c7a	-0.06804748
64	0x3da9a489	0.08283336
65	0xbcbef958	-0.023312256
66	0x3dc3c7ab	0.09559568
67	0xbcca017a	-0.024658907
68	0x3dc82c42	0.097740665
69	0x3c6b4e3a	0.014361912
70	0xbd6a4b8a	-0.057200946
71	0x3c75923f	0.014988481
72	0xbdb33d99	-0.08751983
73	0xbda61ac4	-0.08110574
74	0x3cba1244	0.022713788
75	0xbdba0cd3	-0.09084477
76	0x3de07479	0.109597154
77	0x3ddf0810	0.1089021
78	0x3dab0964	0.083514005
79	0xbc035a59	-0.008017146
80	0x3d96d1ce	0.07364236
81	0x3d940356	0.07227199
82	0xbd0b9d12	-0.03408534
83	0x3cd2a4e6	0.025713395
84	0xbbe0c9cb	-0.006859993
85	0xbd41917b	-0.04725788
86	0xbd7c48b3	-0.06159277
87	0x3dd6e4f1	0.10492886
88	0xbd868eb0	-0.06570184
89	0xbd18b2b3	-0.037279796
90	0xbda7f4ea	-0.082010105
91	0x3db06c18	0.08614367
92	0xbdc94b49	-0.09828813
93	0xbd57d898	-0.052696794
94	0x3bd3fbac	0.0064692106
95	0x3d451fab	0.048125904
96	0xbde1dd8d	-0.110285856
97	0xbdb44961	-0.088030584
98	0xbdc7ad86	-0.09749894
99	0x3db8e4ef	0.090280406
100	0x3d7fa98b	0.06241755
101	0xbd1565b7	-0.036473956
102	0x3cd77d1a	0.02630477
103	0x3deeef13	0.116666935
104	0x3d5f5004	0.05451967
105	0x3d4efb14	0.050532416
106	0x3d5677b6	0.05236026
107	0xbdf501eb	-0.119632564
108	0x3da141ab	0.07873853
109	0xbdef0bd0	-0.11672175
110	0x3dbee4bd	0.09320972
111	0x3d1a4126	0.037659787
112	0xbdde396c	-0.10850796
113	0xbca486b1	-0.020083757
114	0xbd5a94af	-0.053364452
115	0xbde4bad7	-0.11168449
116	0xbde50934	-0.11183396
117	0x3d2c84f0	0.042118967
118	0xbd3a08ea	-0.045418657
119	0x3c3e0d35	0.0115998285
120	0x3dc8cd10	0.098047376
121	0xbd7ad653	-0.06123955
122	0xbd8a7f21	-0.06762529
123	0x3d9095bd	0.0705981
124	0xbcdf2d72	-0.02724335
125	0xbd441975	-0.04787584
126	0xbd98e5bd	-0.07465694
127	0x3d38b249	0.0450919
128	0x3d6653b1	0.056232158
129	0xbd84c1a7	-0.06482249
130	0x3e03385c	0.12814468
131	0xbd2506fd	-0.040289868
132	0xbbadcba8	-0.0053038187
133	0xbc9acfe2	-0.018897954
134	0x3d03e590	0.03220135
135	0x3d424cc5	0.047436494
136	0xbd12cdfe	-0.03584098
137	0xbde00e87	-0.10940271
138	0x3d9f2de4	0.07772425
139	0xbded57d5	-0.11589018
140	0xbc2c5869	-0.0105191255
141	0x3db66b79	0.089072175
142	0x3d41f72d	0.047354866
143	0x3d7c6dc2	0.06162811
144	0x3d164dd9	0.036695335
145	0xbd4b28ef	-0.049599584
146	0xbd331a7a	-0.043726422
147	0xbd8ca1d3	-0.06866803
148	0x3cc882ef	0.024476497
149	0xbcf01c6e	-0.029310431
150	0xbd827ece	-0.06371842
151	0x3c9df322	0.019280974
152	0x3db5a99e	0.088702425
153	0xbd329ca1	-0.043606404
154	0x3d1968b2	0.03745336
155	0x3cb757a5	0.02238066
156	0x3de1dfdb	0.11029025
157	0xbd22e667	-0.03977051
158	0x3d0630b7	0.0327613
159	0x3ce2692b	0.027638039
160	0x3dbdc6bf	0.092664234
161	0xbe1425c4	-0.14467531
162	0x3d8f97c2	0.070113674
163	0x3ba873c4	0.0051407535
164	0xbd9a56cc	-0.075360864
165	0x3d6f4b48	0.058421403
166	0xbd0d4e77	-0.034498658
167	0xbd0eaa9c	-0.034830675
168	0xbd086890	-0.033302844
169	0xbdd44fa4	-0.10366753
170	0x3d7a6e80	0.061140537
171	0xbdb21d26	-0.08696966
172	0xbcd546ea	-0.026034791
173	0x3cb8c0b7	0.022552831
174	0xbcf5106a	-0.029915053
175	0x3c62784d	0.013822627
176	0x3b20927d	0.0024501376
177	0x3d822a49	0.063557215
178	0x3d805def	0.062679164
179	0x3d818535	0.06324235
180	0x3ddc1fc7	0.107482485
181	0x3c995a46	0.018719804
182	0xbc24eaa1	-0.0100657055
183	0xbdf18778	-0.11793417
184	0xbc028fbd	-0.00796884
185	0xbc184a0a	-0.009294996
186	0x3dcfe15e	0.10150407
187	0x3dcac10d	0.09900103
188	0x3d3d44ae	0.046208076
189	0xbd0f7ad1	-0.035029236
190	0x3d8e066b	0.06934818
191	0x3d8febb3	0.07027378
192	0xbca78a6b	-0.020451745
193	0x3d9966af	0.074902885
194	0x3c8263ce	0.015916731
195	0xbdccd851	-0.100021966
196	0x3d397866	0.045280837
197	0xbd6f1a31	-0.058374587
198	0xbd418041	-0.047241453
199	0x3d868611	0.0656854
200	0x3ca80de3	0.020514434
201	0xbdcee2de	-0.10101865
202	0x3d07a742	0.033118494
203	0xbc930e3c	-0.017951123
204	0x3d2db323	0.042407166
205	0xbd42e208	-0.04757884
206	0xbd046065	-0.03231849
207	0xbdd706cd	-0.10499344
208	0x3c3a9e82	0.01139033
209	0xbd002bdf	-0.03129184
210	0xbda96dea	-0.082729176
211	0xbdfca64b	-0.12336405
212	0xbdb3f1a2	-0.08786322
213	0x3dd9cd7e	0.10634898
214	0xbe099c01	-0.13438417
215	0xbdab9f8c	-0.083800405
216	0x3dc725ab	0.097239815
217	0x3d37097e	0.044686787
218	0x3c8b6c73	0.017019486
219	0x3dfb7ab8	0.12279266
220	0x3dee4cb5	0.116357245
221	0x3dc73fef	0.09728991
222	0x3d80b709	0.06284911
223	0xbd1e755f	-0.038686153
224	0xbdb9e9bd	-0.09077785
225	0x3da0e9f4	0.07857123
226	0xbde8ee8d	-0.11373625
227	0xbda7c905	-0.08192638
228	0xbdb9707a	-0.09054656
229	0x3e0e0d84	0.13872343
230	0xbd396654	-0.045263603
231	0x3dc69d6d	0.09697995
232	0xbdbdb21e	-0.09262489
233	0x3cc2a3aa	0.023759682
234	0x3dbd2aae	0.09236656
235	0x3d478c54	0.04871781
236	0x3db5b964	0.08873251
237	0xbdc88243	-0.097904705
238	0x3da8d3da	0.082435325
239	0x3dca1b43	0.09868481
240	0xbd7cef8a	-0.06175188
241	0x3d89149a	0.066933826
242	0x3de453b3	0.11148777
243	0x3de68746	0.1125627
244	0xbd9337f3	-0.07188406
245	0x3cbb6ba8	0.022878483
246	0xbd622c46	-0.055218004
247	0xbd5e7000	-0.05430603
248	0xbd3046b6	-0.043036185
249	0x3cc8c4fe	0.024507996
250	0x3e039075	0.12848075
251	0xbd7e8ab9	-0.062144015
252	0xbcd0790d	-0.025448347
253	0xbdab3f34	-0.083616644
254	0x3d8a7703	0.06760981
255	0x3d538d69	0.05164853

critic.2.bias f4 [32]
0	0xbd247802	-0.04015351
1	0x3c6ac5a0	0.014329344
2	0xbdd75ecf	-0.1051613
3	0x3c3e7ee7	0.011626936
4	0x3d9a3aa5	0.07530717
5	0xbd821333	-0.06351318
6	0x3cfdc0ea	0.030975778
7	0xbdd56d99	-0.10421295
8	0xbca307e6	-0.019901227
9	0x3d974c8c	0.07387647
10	0x3d8a83cc	0.067634195
11	0x3d79075c	0.060798034
12	0x3de8527f	0.1134386
13	0xbdb302df	-0.08740782
14	0x3da67a03	0.08128741
15	0x3d2a9f50	0.04165584
16	0xbdb77fe9	-0.08959944
17	0xbd497d7b	-0.049191933
18	0xbd128600	-0.035772324
19	0x3d99e91b	0.075151645
20	0x3d8a3697	0.067486934
21	0x3d323eb8	0.043516845
22	0x3aabc839	0.0013105936
23	0xbd63327e	-0.055468075
24	0x3e0ef61f	0.13961075
25	0xb9dee316	-0.00042512332
26	0x3da2d60d	0.07950983
27	0x3d841a7c	0.06450364
28	0xbc139e78	-0.00900995
29	0x3de36398	0.111029804
30	0xbcfdeabc	-0.03099572
31	0x3df7cd32	0.12099685

critic.4.weight f4 [1, 32]
0	0x3d41ff8e	0.047362857
1	0x3d93b831	0.07212866
2	0xbe03e8eb	-0.1288182
3	0xbd34aa36	-0.04410764
4	0x3d97c5a0	0.07410741
5	0x3798f3ba	1.8233306e-05
6	0x3dc81b5e	0.09770845
7	0x3e01999a	0.1265625
8	0x3a1db3fe	0.00060158956
9	0x3e12579c	0.14291233
10	0x3da31ef9	0.07964892
11	0xbd9f4272	-0.07776345
12	0xbc5c544e	-0.013447834
13	0xbd23673d	-0.039893378
14	0x3c859747	0.016307486
15	0xbdf23578	-0.118266046
16	0x3dfe1735	0.1240677
17	0xbdbfbb35	-0.09361879
18	0xbd15077a	-0.036384083
19	0x3d31f29e	0.04344427
20	0xbc6f2a56	-0.014597496
21	0xbda9e8b7	-0.0829634
22	0xbca97b27	-0.020688606
23	0xbd855e42	-0.06512119
24	0xbd1bf8fa	-0.03807924
25	0x3db5d851	0.0887915
26	0xbc5cab14	-0.013468523
27	0xbca7f6bf	-0.0205034
28	0x3dd80809	0.105484076
29	0xbdf15083	-0.117829345
30	0x3e0d877b	0.13821213
31	0xbdb6d998	-0.089282215
