Policy Gradient/walker_ppo_model_old_17800.pth (torch, 34325 bytes, 11 tensors)

actor.0.weight f4 [64, 24]
000000 96 39 cd bd b4 d5 e7 3e c4 a5 9d bc 58 df 48 3f
       -0.10020749 0.4528023 -0.019244082 0.78465796
000010 02 33 1c be 33 62 da bd 7f 95 57 3f c1 8f 2b be
       -0.15253833 -0.10663261 0.8421249 -0.16754057
000020 9d 7c 5c be b5 11 04 be f8 ab 5f 3c fe 52 61 be
       -0.21531911 -0.1289738 0.01365184 -0.22004315
000030 ac c3 90 3d fa 4d 74 3d cb 7e 83 3e 85 6a 59 3e
       0.070685714 0.059644677 0.25682673 0.2123204
000040 b0 f1 91 3d 8e cd ed ba 42 82 60 3e 3a f9 e3 bd
       0.07126176 -0.0018142925 0.2192469 -0.111315206
000050 a8 9a b3 3d 23 9e 45 3e ae 7d 1c 3e cf a2 2e 3d
       0.08769733 0.19298606 0.15282318 0.042635735
000060 cc cc af 3c b8 2b 9c bc 76 1d 6f 3e ec ff 96 3d
       0.02145996 -0.019063815 0.23351082 0.07373032
000070 03 9b 87 3e 5b 7c 48 3e 49 e1 63 3f 7b c0 08 be
       0.26485452 0.19578688 0.8901563 -0.13354675
000080 4a 14 1a be b3 90 53 bd 03 a0 d1 3d 72 4b bd 3d
       -0.15046802 -0.051651668 0.10235598 0.09242906
000090 5d 6d 85 bc ca 12 b8 3d b6 e9 1d 3e fb 91 e9 3d
       -0.0162875 0.08987959 0.15421185 0.11404797
0000a0 f8 80 31 bc 1b 98 0a 3e 2e 7f a0 bd d9 97 90 3d
       -0.010833971 0.13534586 -0.078367576 0.07060213
0000b0 98 fd 61 3d 36 c7 14 bd 1a 5b f3 3b 5f 03 13 3e
       0.055173486 -0.036322795 0.0074266316 0.14356755
0000c0 49 cd 38 bb 90 e8 05 bf a2 ae 2a bd 0d a3 17 bf
       -0.0028198531 -0.5230799 -0.04167045 -0.5923317
0000d0 5a 54 4a be a0 42 d2 3d 46 36 10 3f c1 06 ab 3d
       -0.1975874 0.10266614 0.56332815 0.083508976
0000e0 e9 52 50 be 14 6e 25 3e 25 4f 2f be 5c 3b ad 3e
       -0.20344128 0.16155273 -0.17120035 0.3383435
0000f0 14 ad c8 bd 24 98 82 3e a9 bc 7c be 51 6e 70 be
       -0.09798637 0.255067 -0.24681343 -0.23479582
000100 1e 68 62 be 90 52 a3 3c ab 29 76 be 3a 89 c3 3d
       -0.2211003 0.01993683 -0.24039333 0.09547658
000110 65 a2 80 bd a6 09 29 be 09 03 4c be bd c0 df bc
       -0.06280974 -0.16507587 -0.19923033 -0.027313584
000120 93 30 8d be 4a bf 22 be 74 a9 f3 bd ab bc 89 be
       -0.27576122 -0.15893283 -0.11897555 -0.26901755
000130 ef d5 d9 be c0 fd 3a be e9 8c 65 bb ee ff 2b be
       -0.4254603 -0.1826086 -0.0035026616 -0.16796848
000140 fd a0 f3 bd 97 6d 2c 3e 75 de f3 3d e8 af 6b bd
       -0.118959405 0.1683868 0.11907665 -0.057540804
000150 e0 db 8c 3d e3 bd f8 3c fe c0 28 be 6f 2c 7f be
       0.06877875 0.030363983 -0.1647987 -0.24919294
000160 88 b1 28 be 3a 94 97 3d 57 d2 84 bd 93 07 74 3d
       -0.16473973 0.07401319 -0.06485432 0.059577536
000170 af 74 ef 3c 37 c0 26 be 8c 8d 1a 3e 23 a7 67 3d
       0.029230444 -0.16284262 0.15093058 0.05655588
000180 9e 38 84 bd 80 46 5a be 2a fc a7 be 80 65 dd be
       -0.06456111 -0.21315956 -0.32809573 -0.432415
000190 79 59 4a 3d 50 5b 19 bd 5e 6d e8 be e1 df ae bc
       0.049401734 -0.037440598 -0.4539594 -0.021346988
0001a0 7d 32 a0 bd 70 b8 d0 bc de ec 10 3d 43 34 ea 3e
       -0.0782213 -0.025478572 0.035382144 0.45742998
0001b0 3f 8e 3d 3e bc bb 67 3e 0c 4f 8a 3d 07 4e 7e 3d
       0.18511294 0.22630209 0.06753358 0.06208613
0001c0 9a 50 69 be 52 d8 13 bd 61 8f de bd 1f 57 7e bd
       -0.22784653 -0.03609497 -0.10867191 -0.062094804
0001d0 01 4e c2 3c 28 64 1f be b2 57 31 be c0 2c a3 3d
       0.023718836 -0.1556555 -0.1731861 0.0796752
0001e0 7a a0 25 3e e4 9f c9 be c8 90 31 3d be 3b bb be
       0.16174498 -0.393798 0.043350965 -0.36569017
0001f0 a7 03 b7 3d 19 5a 75 3d dd 20 f9 3e 2a d5 15 bd
       0.089362435 0.059900377 0.48657885 -0.036580242
000200 36 68 37 3e f3 21 89 bd 05 f4 8e bd 55 71 e3 3d
       0.17910847 -0.066959284 -0.06980137 0.11105601
000210 b8 d1 b2 bd dc 26 79 3e 01 b9 dc bc dd 11 04 be
       -0.08731407 0.2433123 -0.026943685 -0.1289744
000220 bb a4 84 3b 8e 4b 23 3e 8f 7c eb bd 30 a5 12 be
       0.0040479577 0.1594679 -0.11498367 -0.14320827
000230 e0 c6 1c bd af 2a 6c 3d 02 42 e0 bd 7d 19 e8 3c
       -0.0382756 0.057657894 -0.1095009 0.028332466
000240 14 f9 a9 bd 57 b2 da be ca e9 81 3d da ba 22 bf
       -0.08299461 -0.42714188 0.0634342 -0.6356636
000250 de e2 85 be df 9b 50 3e 74 17 a3 3e aa 27 3a 3d
       -0.26149648 0.2037196 0.3185383 0.045447983
000260 ca bf 98 3d aa c8 45 3e 2d b7 ca 3d 43 e0 92 3e
       0.07458456 0.19314829 0.09898219 0.28686723
000270 92 7c 13 3e db e3 18 3e 80 c8 88 bc 17 86 02 3d
       0.14402989 0.1493067 -0.016697168 0.03186616
000280 ba e6 b5 3d a5 64 8f 3d f2 bb 36 be 22 19 7f 3d
       0.08881898 0.07001618 -0.17845133 0.062279828
000290 91 cc ea bd f8 45 86 bd 04 05 39 be 69 92 11 bd
       -0.11464799 -0.06556314 -0.1806832 -0.03554002
0002a0 11 47 b5 bd e0 bc 52 3e 0c 43 7c 3e 78 ee 25 3f
       -0.088514455 0.20579863 0.24634951 0.64817
0002b0 e5 bd 96 3e 84 0c 62 3c 87 51 05 3f f4 66 70 bc
       0.29441753 0.013796929 0.52077526 -0.014672983
0002c0 a3 42 3c 3c 52 82 e9 bc a1 8d 07 be 02 00 aa be
       0.011490497 -0.028504524 -0.13237621 -0.3320313
0002d0 19 09 e2 bd 6b be 1c 3c 73 35 69 3e a6 8e 04 3e
       -0.110368915 0.009566884 0.22774296 0.12945041
0002e0 6e bd 0c 3e ec 3d 36 3d e6 d7 95 3d 81 eb 11 bd
       0.13744137 0.044492647 0.0731657 -0.035624985
0002f0 b3 55 0e 3e c4 92 1c 3e 9c a5 b8 3d b7 95 61 be
       0.13899879 0.15290362 0.090159625 -0.22029768
000300 56 ba 01 bd db 45 ab be a1 17 99 be 51 b8 af be
       -0.031671844 -0.33451733 -0.2990084 -0.3432031
000310 83 ef 91 3e 08 54 94 bc 9f b2 39 bf c0 4a 4c 3d
       0.28503045 -0.018106475 -0.7253818 0.049875975
000320 bf ed 86 3e 9f 61 4f bd a6 27 03 bc b3 68 36 3e
       0.2635326 -0.050630208 -0.008005058 0.17813377
000330 a1 a5 99 bd b8 10 3e be 17 ba 01 3e ce d4 8f bc
       -0.07502294 -0.18561065 0.12668644 -0.017557528
000340 11 85 6d bd c1 b4 dc bd a7 8a b1 bb 04 ba ef 3d
       -0.05798823 -0.107766636 -0.00541814 0.117054015
000350 1d 4b e5 3d 1d d1 aa bd 10 8b 11 be d5 e6 23 3e
       0.11195967 -0.083406664 -0.14213204 0.16006024
000360 07 84 1e be 39 78 e0 3c 49 52 75 be 26 e6 07 bf
       -0.15480052 0.027401077 -0.2395717 -0.53085554
000370 27 ed 75 be eb 6d 8e bd 3d cc 52 bf 87 66 a3 bd
       -0.24016248 -0.06954559 -0.8234289 -0.0797854
000380 a7 68 55 3d 26 08 38 3e 26 96 40 3e 36 ef 5b be
       0.052101757 0.17971858 0.18807277 -0.2147797
000390 59 72 6c 3d e9 78 8c 3d 2c de 78 bd 0b b3 38 be
       0.057726238 0.06858999 -0.060758755 -0.1803705
0003a0 d3 53 99 3d 68 67 3f be ff 68 5b bd 4c 0d 96 be
       0.07486691 -0.1869179 -0.05356693 -0.2930702
0003b0 d3 b7 aa bd d1 ad 0e be c6 5c 4a 3d 1d 4d d2 3d
       -0.08335843 -0.13933493 0.049404882 0.102686144
0003c0 66 eb 3e bd d5 90 00 3f 8a 4a 4b 3e b3 1f e0 3e
       -0.046611212 0.50220996 0.19852653 0.43774185
0003d0 94 52 69 3e 0b e4 8e bd 1c 71 58 3e ec 85 34 ba
       0.22785407 -0.069770895 0.21136898 -0.0006886411
0003e0 4c c9 c6 bc d4 09 a2 bd 45 16 31 3e c9 9a b7 be
       -0.024265908 -0.07912031 0.17293651 -0.3586028
0003f0 67 e3 dc 3d e4 ae db bd 8b d7 90 bc 0b 57 b8 3d
       0.10785561 -0.10726717 -0.017680904 0.09000977

actor.0.bias f4 [64]
000000 da 04 22 be 30 4a 09 be 0f 92 8a 3e e5 2a 58 3a
       -0.15822163 -0.13407207 0.2706456 0.0008246138
000010 bd 95 8b 3e c6 23 99 bd 06 a7 e2 bd cb ff a4 bd
       0.2726268 -0.07477526 -0.110670134 -0.08056601
000020 bc 92 48 be 38 b7 0d 3e 30 95 19 be bf 80 0d bc
       -0.19587225 0.13839424 -0.14998317 -0.0086366525
000030 d1 aa 01 be c3 a6 8b bc 98 24 27 bd cd 26 c5 3b
       -0.12662818 -0.017047292 -0.040806383 0.0060165883
000040 07 30 62 bd ca de 06 be 6a a7 3a 3e 49 dc 0c 3e
       -0.055221584 -0.13170925 0.18227926 0.13755907
000050 8a d3 91 bd 10 63 01 3e 46 de 70 3e f2 1d a1 bd
       -0.07120426 0.12635446 0.2352229 -0.0786704
000060 0b 94 1f be 4b 8e 02 3e b6 ab de bc 65 92 3e be
       -0.15583818 0.12749593 -0.027181488 -0.18610533
000070 21 02 02 be 1c e9 47 be 0c a2 01 3e cf e4 0b be
       -0.12696125 -0.19522518 0.12659472 -0.13661502
000080 96 9a 2b be 16 2e 37 3e 76 36 38 be b4 89 3d be
       -0.16758189 0.17888674 -0.17989525 -0.18509561
000090 ee 9d 69 bd b4 8e 5c bb 92 c7 db 3d 72 10 1e 3e
       -0.05703538 -0.0033654394 0.107314244 0.15435961
0000a0 76 2d 45 3e 67 b4 0c 3e 0c 1b 07 3e f9 73 46 3d
       0.19255623 0.13740693 0.13193911 0.048450444
0000b0 38 df 2c 3e ac 89 09 bc 9a 9a de 3d 26 72 16 bd
       0.16882026 -0.00839464 0.10869332 -0.036729954
0000c0 ae 62 96 3d 0b c8 1e bd 10 be 55 be eb 62 b9 3d
       0.073430404 -0.038764995 -0.20873284 0.0905207
0000d0 fe e5 0b 3d ef 0f 62 3d 8b f0 fc bd 73 d1 e9 3d
       0.034154885 0.055190977 -0.123505674 0.114169024
0000e0 b0 e1 0b 3e 7a 0b 43 3e 4e b6 89 bd df da 04 bc
       0.13660312 0.19047347 -0.06724225 -0.008108824
0000f0 5a e3 f5 3d 59 23 85 3b ab 04 29 bd 80 64 33 3e
       0.120062545 0.0040630517 -0.041264217 0.17518806

actor.2.weight f4 [32, 64]
000000 34 56 15 3d 88 c2 be 3d 00 55 14 3d bb e0 91 be
       0.036459163 0.09314448 0.036213875 -0.28491768
000010 78 5b 37 3d 23 2d 04 3e bd d4 5c 3e 24 a7 e3 3c
       0.044764966 0.12907843 0.21565528 0.02778966
000020 54 e1 6d 3e 60 f0 93 be 87 4c 4b 3e ea 04 3f 3e
       0.23230487 -0.2889433 0.19853412 0.18654218
000030 cd bb 53 3c ef 5e de 3a 87 27 80 3d dc 47 f6 bd
       0.012923193 0.0016965548 0.06257539 -0.12025425
000040 fa dc 31 3c c9 20 98 3e 44 23 00 3e a4 06 d8 bd
       0.010855908 0.29712513 0.12513453 -0.105481416
000050 9c 71 8a 3e d9 ab d2 be 52 5d 18 bf f2 c5 ae 3c
       0.27039802 -0.41146734 -0.59517395 0.021334622
000060 72 ed e2 3d e9 03 c2 3d 01 6b 7a 3e 35 ec 4e bd
       0.11080445 0.09473402 0.24454881 -0.050518233
000070 71 5f 0b 3e 20 06 4e 3e c4 ca 99 3b 5f bf bb 3c
       0.13610627 0.20119524 0.004693361 0.022918401
000080 cd 96 c2 3d 07 68 85 3d 37 ff 07 3d 4f 95 f7 3d
       0.09501419 0.06513982 0.033202376 0.12089025
000090 6e fd 7a 3d 0b 55 b7 bd 62 d4 43 bd c1 ee 88 be
       0.061276846 -0.089517675 -0.047809966 -0.26744655
0000a0 34 85 05 be 44 f1 c3 bd b7 1d e8 bd 42 91 51 be
       -0.13039094 -0.09567502 -0.11333793 -0.20465568
0000b0 51 4c 3a 3d b1 d0 62 3e 81 90 a9 bb f6 f1 59 be
       0.045482937 0.22149922 -0.005174697 -0.21283707
0000c0 98 38 78 3d 60 76 9c 3d dc 34 5e 3e be c6 ab be
       0.060600847 0.07639766 0.21699852 -0.33550066
0000d0 3f 6d 23 3d 7b 69 ea bd 36 32 80 be 22 e3 3e bd
       0.039899107 -0.114459 -0.25038308 -0.04660333
0000e0 d2 14 c8 3c b9 5a 87 bd 54 b2 a5 bb 91 11 8f 3d
       0.02442399 -0.06609101 -0.0050566588 0.069857724
0000f0 1e e7 5f be 88 11 3a be c8 fc 35 3b 4c 4e 39 be
       -0.21865508 -0.1817075 0.0027769078 -0.18096274
000100 44 ef 0e bf 3f 6f 79 be 57 f0 95 bd 21 b5 86 bd
       -0.5583384 -0.24358843 -0.07321232 -0.06577516
000110 1c 15 a2 3e a8 17 4b bd 31 b3 b2 bd b7 2b dc be
       0.3165673 -0.049583107 -0.08725584 -0.43002102
000120 59 98 95 3e d8 46 84 3e d8 31 0a be 0d df 1e 3e
       0.29217795 0.258353 -0.13495576 0.15514775
000130 f3 66 8c bd 28 21 f5 3e c6 c5 b1 be 4b 19 61 be
       -0.068555735 0.4787686 -0.34721202 -0.21982305
000140 d4 45 20 be 74 74 81 3d e2 14 39 be 93 07 a8 be
       -0.15651637 0.0632104 -0.18074372 -0.3281828
000150 4d 01 49 be a7 93 87 be 3f 48 29 bc ad e8 67 be
       -0.19629402 -0.26479837 -0.010332166 -0.22647353
000160 8d 83 c7 bc 33 a9 0b 3d d3 6e 27 3d 7c 73 07 bc
       -0.02435472 0.034096908 0.040877175 -0.00826728
000170 f5 c3 87 be 15 cd 21 bc 40 bb 13 3d fd 6d 50 3d
       -0.2651669 -0.0098755555 0.036067247 0.050886143
000180 7d 7f 1b be fc dc b2 3d 75 55 52 be 83 4f 0c bd
       -0.15185352 0.08733556 -0.20540412 -0.034255516
000190 e4 b7 18 be 11 27 18 bd 8c 6a 5c be 0e 52 d7 3e
       -0.14913899 -0.03714663 -0.2152502 0.4205479
0001a0 c3 93 0f 3e e3 d9 c9 3c 1b ed 0a 3e 53 37 83 bc
       0.1402121 0.02464003 0.13567011 -0.016017592
0001b0 d8 83 f3 bd 92 17 59 be 01 0e 3d 3e 77 4b 67 bd
       -0.118903816 -0.21200398 0.18462373 -0.056468453
0001c0 37 61 61 be 71 51 ef bc dc 71 ce bd cb 11 7a 3d
       -0.22009741 -0.029213639 -0.10080311 0.061052125
0001d0 60 82 7a 3d c2 56 14 3e 1c 8c f3 be 11 ee c4 3d
       0.06115949 0.1448622 -0.47567832 0.0961572
0001e0 93 42 03 3e 7c cc 90 bb 4b 13 59 bd 61 81 27 3d
       0.12818365 -0.0044189077 -0.052996915 0.04089487
0001f0 df a6 62 bd 5c a9 06 3b 83 2e 9d bd cf 03 be 3e
       -0.055334922 0.0020547723 -0.07674887 0.3711228
000200 89 04 6c bd e3 dd d2 bc 72 0a e5 3d 87 19 8c 3e
       -0.057621513 -0.02574057 0.11183633 0.27363226
000210 91 d6 64 3d 31 32 ad bd c1 52 a3 3d bb db 84 be
       0.05586869 -0.08456839 0.079747684 -0.2594889
000220 bd f3 8c bd 3e 6b 15 3e 33 7f 07 bd 73 d6 99 be
       -0.06882427 0.14591691 -0.03308029 -0.30046424
000230 d1 d3 20 be 13 0d 21 bd c3 2b 9b bd 70 d7 14 be
       -0.15705802 -0.03931911 -0.07576706 -0.14535308
000240 30 b2 31 be ca 94 d7 bd 95 96 e3 bb 02 dc 67 3e
       -0.1735313 -0.10526426 -0.006945441 0.2264252
000250 b6 6a 4f be fe 53 98 3e 69 a0 bc 3e d7 d7 3f 3d
       -0.2025555 0.2975158 0.36841133 0.0468367
000260 b7 5c 1d bc 79 99 3c bd 2c 35 c9 bd 03 d9 e7 bd
       -0.0096046245 -0.0460448 -0.09824595 -0.113206886
000270 ac 42 40 bd 77 0d 08 be 1b 1d dc 3c 91 50 43 be
       -0.046938583 -0.13286386 0.026869347 -0.19073702
000280 39 18 81 3d a9 60 e0 3d b0 bf f9 3d c0 71 2e be
       0.06303448 0.109559365 0.121947646 -0.1703558
000290 58 32 2a bd e5 81 8a 3d 9b 14 23 bd 0b b4 76 3e
       -0.041551918 0.06763057 -0.039814573 0.24092118
0002a0 91 cd 0d 3e 95 0c a1 3e 76 72 34 3d 2e 2b 1c be
       0.13847949 0.31454912 0.04405447 -0.15250847
0002b0 85 94 e4 3d b8 86 ea be 91 c8 74 bd 6a 35 bf 3e
       0.1116114 -0.45805907 -0.059761588 0.3734544
0002c0 13 ce 25 bd 47 eb 61 bd 30 e1 d5 bd 3e 8d 23 3d
       -0.04047973 -0.05515602 -0.10443342 0.03992962
0002d0 6e 4b 20 be 25 72 40 3e ac dd 6c 3e 9e 34 bf 3d
       -0.15653774 0.18793543 0.23131436 0.09336208
0002e0 b3 84 c3 bd 67 4d 61 bd 10 90 b8 3d a9 8f 3e 3c
       -0.09546795 -0.055005457 0.09011853 0.011630931
0002f0 15 2c 09 3e c8 00 09 3d a3 1e 4e 3d b7 c6 48 3e
       0.13395722 0.03344801 0.050322186 0.19607054
000300 a2 a6 9f 3d f6 08 c9 3e d2 fa f6 3e 4d 53 1d 3e
       0.077954546 0.3926465 0.48238236 0.15363808
000310 05 a6 15 be 2b ce 11 3e 08 33 86 3e 28 62 22 3d
       -0.14614113 0.14238803 0.2621081 0.03964439
000320 01 15 8a be 73 f3 47 be ec b7 1d be 57 c7 42 be
       -0.2696915 -0.19526462 -0.15402192 -0.19021355
000330 88 b2 75 bc bb 6e aa be 34 98 3d 3e 30 39 4f 3e
       -0.014996178 -0.33287606 0.18515092 0.20236659
000340 80 f5 0b bc be 8a bd be 05 8e 19 3e 72 f3 1d 3f
       -0.0085424185 -0.37019914 0.14995582 0.61699593
000350 78 54 79 bc ea 27 2c 3e ab 66 c9 3d aa a4 87 3c
       -0.015217893 0.16812101 0.098340355 0.01655801
000360 a3 5f 00 3e 32 08 19 bd db 27 2d 3d 30 72 41 bd
       0.12536483 -0.03736133 0.042274337 -0.04722804
000370 9e a0 6c 3e 09 b6 8f 3d 84 f8 ba be 4d 0a 23 bf
       0.23108146 0.07017142 -0.36517727 -0.6368759
000380 ff 25 c9 bd c9 d2 af 3e 61 12 35 3e 42 57 d8 bd
       -0.098217 0.34340504 0.17682792 -0.10563518
000390 80 ee 09 bd 0a 2f f8 bd 24 f4 8c 3e a3 42 8d be
       -0.033674717 -0.12118347 0.27530015 -0.27589902
0003a0 ee 8b 55 3e cd ce 3b 3c af 87 b6 bd 5a 5e 94 bd
       0.2085416 0.011462879 -0.08912598 -0.07244559
0003b0 d9 6d a4 3e 4c f0 ed 3c 6e 07 76 3e 0a ac 82 3e
       0.32115057 0.029045247 0.24026272 0.2552188
0003c0 3c c6 bc 3e 9e 19 e7 3d c6 e7 d5 be d1 e0 21 3e
       0.3686999 0.11284183 -0.41778392 0.15808417
0003d0 6f 86 79 be 67 38 ec bd 8e 71 c1 3c 08 0a 84 be
       -0.24367689 -0.115341954 0.023613717 -0.25788903
0003e0 8f 78 36 bd 52 b4 18 3e ea d6 15 3e bb cc 09 3d
       -0.044548567 0.14912537 0.14632764 0.03364251
0003f0 29 49 a0 3e 07 00 18 3d 75 82 d8 bd d6 b1 b1 3d
       0.31305817 0.0371094 -0.10571758 0.08676498

actor.2.bias f4 [32]
000000 0a b8 6b bd 89 09 08 3e 41 87 b5 3d 0c fe 22 3d
       -0.05754856 0.13284887 0.08863688 0.03979306
000010 c7 90 67 bc a9 9c cb bd f9 f3 da bc ab a5 e6 3c
       -0.014133639 -0.0994199 -0.026727663 0.028155169
000020 fe bd 08 3c ba 37 85 3d 02 16 a4 bd a4 a3 77 bd
       0.008346079 0.065047696 -0.0801201 -0.060458794
000030 af 70 f9 bd ee 5d bb 3d 06 62 d5 bc 26 d3 a4 3b
       -0.12179696 0.09148775 -0.026047718 0.0050300537
000040 3f 76 18 3e 40 ab 57 bd 1b 78 7a 3d 92 3c 3a 3d
       0.14888857 -0.05265355 0.061149698 0.04546792
000050 b8 f7 69 3d 1a 68 ad 3c a8 8a 35 bd 6b 3d 1a 3e
       0.05712101 0.021167804 -0.044321686 0.15062492
000060 2e 37 32 be 91 35 a5 3d 4f 14 e8 3c 3b c9 81 bd
       -0.17403862 0.080668576 0.028329996 -0.0633721
000070 d3 f2 64 bc d4 38 85 bd 17 5d ef 3d 81 10 0c be
       -0.013973909 -0.0650498 0.11687677 -0.1367817

actor.4.weight f4 [4, 32]
000000 f5 c1 b5 be 3f 5f bc bd ce 11 fc 3e 52 97 46 3e
       -0.3549954 -0.09197854 0.49232334 0.19393662
000010 ef 01 8a be 58 98 02 bf c3 34 e3 bd 05 dd c6 3d
       -0.269546 -0.5101371 -0.11094048 0.09710125
000020 18 76 4d 3e 43 ba da be 0e a8 44 be 18 ce d4 3c
       0.2006458 -0.4272023 -0.19204733 0.02597718
000030 c8 c1 89 bf 07 23 e7 3d b9 50 f1 3e aa 02 5a 3e
       -1.0762262 0.11285978 0.471319 0.21290079
000040 0c e5 be 3c cc 7f e6 3d 31 45 8d 3e fb 3b 36 3f
       0.023302577 0.11254844 0.2759185 0.7118527
000050 1a ca bf 3d 1e ba d1 3e d7 f2 02 3e 53 04 59 3f
       0.0936472 0.4096231 0.12787949 0.84772223
000060 e2 75 63 be 9f 27 2b be 13 ad 60 ba 43 34 4f 3e
       -0.22212937 -0.16714333 -0.0008570712 0.2023478
000070 af 3b 2e be d1 18 c1 be dd ae 12 3e 3d 9f 63 be
       -0.17014955 -0.37714246 0.14324518 -0.22228713
000080 dd 39 38 be 6a 77 3a 3f 99 0f b6 3e 3b 22 c2 be
       -0.17990823 0.7283846 0.35558775 -0.3791674
000090 2c c5 8d be ea a4 f5 3d 91 b1 f2 be 0f 20 e8 be
       -0.27689493 0.119943455 -0.47401097 -0.4533696
0000a0 e4 b0 03 bf e6 97 20 3d ab 8f 31 3f 1e 49 9a 3f
       -0.5144179 0.03920736 0.69359845 1.2053564
0000b0 19 fd b3 3d ee b2 a6 3e 9e e1 08 3e a8 e3 33 bf
       0.08788509 0.32558388 0.13367316 -0.7026925
0000c0 9a c7 d7 3e 37 42 64 bd ce 63 31 3f 36 d5 4e 3d
       0.4214447 -0.05572721 0.69292915 0.050496303
0000d0 38 6d 9a be 1b 5e 8a 3e 33 5b f8 3e f9 f0 7b bc
       -0.30161452 0.27024922 0.4850708 -0.015377277
0000e0 18 14 3a be 3f 72 f5 3d 4c 01 4c bb c8 7e 1b bf
       -0.18171728 0.11984681 -0.0031128703 -0.6074033
0000f0 6c 75 14 3f 30 39 9e be 4e ec de be 75 64 06 bf
       0.5799167 -0.30903006 -0.4353966 -0.52497035
000100 98 71 65 3d 6a 32 7b 3c 5c 24 7c be 5d 6b d4 be
       0.056016535 0.015331844 -0.24623245 -0.41488162
000110 62 b3 0b be ee d8 10 3e 92 ca aa be ff 5b cb be
       -0.13642648 0.14145252 -0.33357674 -0.39718625
000120 96 94 9c be 79 49 91 3d 0c 44 4b be 5d a0 52 3e
       -0.30582112 0.07094092 -0.19850177 0.20568986
000130 34 37 56 3e 9f 33 62 3e ff 84 51 3b 7b 70 58 3d
       0.20919496 0.22090004 0.003197014 0.052841645
000140 a9 b3 60 3e 45 53 c6 be 6e f8 10 be 61 47 90 be
       0.21943535 -0.38735405 -0.14157268 -0.28179458
000150 1c 5b 02 3c b3 74 22 3d e1 2e a0 be 7b ba ec bd
       0.0079562925 0.039662074 -0.31285766 -0.11559006
000160 df a9 81 bd 82 44 e4 3d 89 d0 24 3d 39 1b 9d be
       -0.063312285 0.11145879 0.040237937 -0.30684832
000170 5c 39 01 bd 67 b9 27 3e e7 03 da 3e ed ad c3 3c
       -0.031548843 0.16379319 0.42581102 0.023886645
000180 14 44 7f bd 39 cf 28 be ff f8 b8 3c 4b 68 1c be
       -0.062320784 -0.16485299 0.022579668 -0.1527416
000190 17 51 e5 be 50 e0 67 3e ef ec 96 be 64 44 e1 bd
       -0.4478843 0.22644162 -0.2947764 -0.109993726
0001a0 8e 8e 07 be 32 e9 c2 3e 4d ee 4b bb f1 a3 58 3e
       -0.13237974 0.3806854 -0.003111738 0.21156289
0001b0 c7 45 66 bd c7 f9 57 be 92 27 c9 be 5b 57 e9 3d
       -0.05621889 -0.21091376 -0.39288002 0.11393615
0001c0 00 fd 9e be aa 97 54 bf ed b7 34 3e de 18 aa 3c
       -0.310524 -0.8304392 0.17648287 0.02076381
0001d0 5e ac be be bb 8f ce be dc 71 bb be 4c 43 e5 3d
       -0.3724088 -0.40344033 -0.36610305 0.111944765
0001e0 87 9b c4 3e 58 76 16 bf bf 42 23 bf 69 2d 8d 3c
       0.38399908 -0.5877433 -0.6377372 0.017233567
0001f0 9a 87 92 3e 49 f4 a5 be bd 19 e5 3e 2e 09 4e be
       0.2861908 -0.32412937 0.447462 -0.2012069

actor.4.bias f4 [4]
000000 79 15 1f 3e 20 7e d6 bd ee d2 45 3e d2 65 38 be
       0.15535535 -0.10473275 0.19318745 -0.18007591

critic.0.weight f4 [64, 24]
000000 d4 0c 4c 3e 83 f5 0c 3e c1 c2 29 3e 91 a1 01 be
       0.19926769 0.1376553 0.16578199 -0.12659289
000010 53 05 87 bd c0 3b 95 bd 51 9f 98 3d ab 86 d0 3d
       -0.065928124 -0.07286787 0.07452262 0.10181936
000020 9a 80 32 3e 5b 6d f6 bd e2 26 3f 3d 3d 4d 0c bd
       0.1743187 -0.12032577 0.04666794 -0.034253348
000030 b6 32 d3 39 ec f6 53 3e 57 e1 0f be ea f4 9f bd
       0.0004028284 0.20699662 -0.14050804 -0.078103855
000040 05 ed 38 3d bc 0a c9 3d 76 09 42 bd b8 c1 10 bd
       0.045147914 0.098165005 -0.047372304 -0.035340995
000050 f8 b9 82 bd 59 8c 99 bb 87 c1 21 be 08 96 8f bd
       -0.06383127 -0.00468592 -0.15796481 -0.07011038
000060 9b 0f 84 3c e2 d0 1e 3e d7 26 08 3e 3f fa 38 3d
       0.016120723 0.1550937 0.13296066 0.04516053
000070 66 fd 8a bd 99 fc 1b 3e e6 4f 2c be 3b db 84 3d
       -0.06786613 0.15233077 -0.16827354 0.064871274
000080 6c a5 db 3c f3 f2 0b bd bd 9c 3a 3e 42 e6 c7 3d
       0.026812278 -0.03416724 0.18223853 0.09760715
000090 b3 b6 3a 3e 6f 0f 07 be 21 14 ae bd 3e 12 1e be
       0.18233757 -0.13189481 -0.08499933 -0.15436646
0000a0 82 4c d1 3d a0 d0 29 be 27 0c 5e 3d cb b2 e9 3d
       0.10219671 -0.1658349 0.054210808 0.11411055
0000b0 dd a2 1d 3d f5 67 b5 3c f2 a8 a8 bd de bc 5b bd
       0.038485397 0.022144297 -0.08235349 -0.053646915
0000c0 8a 1d c3 bd e5 05 8d 3d 95 ee c0 3d 47 fa 89 bd
       -0.095271185 0.0688589 0.09420506 -0.0673719
0000d0 25 80 12 be de 8c ae bd 3d 94 dd bd b9 8a 78 bd
       -0.14306696 -0.08522962 -0.1081929 -0.06067917
0000e0 d4 d8 16 3e f5 3f 0e 3e 39 a5 0a 3e 44 b6 3f bb
       0.14731151 0.13891585 0.1353959 -0.0029252926
0000f0 54 e8 28 bd 3a 59 22 3e 54 b5 55 be 63 58 0b 3c
       -0.04123719 0.1585435 -0.20869952 0.00850496
000100 a0 6d 1a be fc b7 ea bd 72 68 d0 3d 99 bc 36 be
       -0.15080881 -0.114608735 0.10176171 -0.17845382
000110 dd be e6 bd 56 fa 20 be 96 94 46 3e 97 b8 85 bd
       -0.11266873 -0.15720496 0.19392619 -0.06529348
000120 20 3b 1d 3e 45 3f db bd c2 fe 0b 3e d7 92 bd bd
       0.15354586 -0.10705427 0.13671401 -0.09256523
000130 56 94 3f 3d 22 3d be 3d f8 9a eb 3d e7 d7 cf bd
       0.046772324 0.09289004 0.11504167 -0.10148602
000140 e9 dc 13 3e ad c0 0b 3e 0a 22 56 3d ba f3 95 3d
       0.1443974 0.13647719 0.052278556 0.07321878
000150 94 24 79 bd 57 ae a9 3d 8b cb e6 3d 13 1d f3 3d
       -0.0608259 0.08285206 0.112692915 0.1187078
000160 42 53 c5 3c 94 57 2d be 42 c9 32 3e bf ea 31 be
       0.024087552 -0.1692794 0.17459586 -0.17374705
000170 d3 a4 24 be d0 ba 42 3c 56 da 0c 3d 78 90 0e 3e
       -0.160785 0.01188536 0.03438791 0.13922298
000180 4f 66 0b be c1 09 df bb 82 6f d3 bd 45 eb 68 be
       -0.13613246 -0.0068065827 -0.10324003 -0.22745998
000190 2c 7a 02 3e b2 69 a7 bc 86 0b f0 3d 0e ca 0a bd
       0.12741917 -0.020436142 0.11720948 -0.0338841
0001a0 dc bc f2 3d cc 4a 0d be c2 0c 2c 3d a1 bc 9d bd
       0.11852428 -0.13798064 0.042004354 -0.07701994
0001b0 bf 98 9c 3b c4 61 38 bd 13 2b 4b be 28 9e b7 bd
       0.004778951 -0.04501511 -0.1984065 -0.08965713
0001c0 d1 90 0a 3e db ee 1e be 57 6d 33 3e 72 3e b6 3d
       0.13531806 -0.15520804 0.17522179 0.08898629
0001d0 d2 fa bf 3d 2b 95 0c 3e b3 fa 36 be ec 24 9b ba
       0.09374012 0.13728778 -0.17869072 -0.0011836565
0001e0 3a 00 0f bd b7 51 08 3d 7a f0 38 be a0 80 08 bd
       -0.034912325 0.033281054 -0.18060485 -0.03332579
0001f0 ca b4 af 3d 5d 39 da bd 83 ad e0 bb 64 7c 9f bd
       0.08579405 -0.106554724 -0.0068566217 -0.077873975
000200 f0 0f 89 3d 7e 0e 4c 3d 40 e2 8d 3d eb 13 68 bd
       0.06692493 0.04981851 0.069279194 -0.05665962
000210 5d 6b c8 bb 36 ce fc 3d f3 74 cb bc 00 2e 54 3d
       -0.0061163143 0.12344019 -0.02483604 0.05180168
000220 09 6d 94 3d b5 fe 92 3d 18 ee 55 be c5 93 08 be
       0.07247359 0.07177488 -0.20891607 -0.1333762
000230 77 2c 18 bd b2 52 2d bd de a2 29 3e 3d 18 d9 3a
       -0.03715178 -0.042315193 0.16566035 0.001656301
000240 07 70 5d bd d4 c8 02 be 91 4e d6 bd 68 86 db 3d
       -0.054061916 -0.12771922 -0.10464204 0.10718995
000250 ef ed 07 3e 83 00 f4 3d 1d 36 cc bc 99 92 58 bb
       0.13274358 0.1191416 -0.024928147 -0.0033046363
000260 b0 04 00 3e d5 0d 26 bd 5f 1f af 3d 83 81 c8 3c
       0.12501788 -0.040540535 0.085509054 0.024475818
000270 ab 95 72 3d 20 c3 39 be 75 16 bb bd 02 6a 3c be
       0.059224766 -0.1814084 -0.09135143 -0.18399814
000280 30 a9 16 3e 88 4f d7 3d 76 0f 9d bd 9f ec 1d be
       0.14712977 0.10513216 -0.076689646 -0.15422295
000290 6b 55 04 be d6 a8 0f 3e fc 6a 00 3e 64 a2 7e 3d
       -0.1292321 0.1402925 0.12540811 0.062166587
0002a0 73 bf 10 be 03 3b df 3d d3 6b 81 3c 80 c4 53 3c
       -0.14135532 0.108999275 0.015798485 0.012925267
0002b0 ff 3f 32 3e 40 14 1c 3d 15 cc ca bd e0 92 b7 bc
       0.17407225 0.03810525 -0.09902207 -0.022408903
0002c0 53 b0 24 be ef 92 1a 3e fc 4e a0 3d af 7f a3 3d
       -0.16082887 0.15095113 0.07827565 0.07983338
0002d0 1c 5e 99 3d 3a 32 d5 3d e3 d0 f5 bd 01 cd 1c 3e
       0.07488653 0.104099706 -0.120027326 0.15312578
0002e0 b5 93 4e be 4f 2b 75 3d 09 4b 53 bd f5 95 01 3c
       -0.20173533 0.059855755 -0.05158523 0.007909288
0002f0 f9 70 8c 3d 42 a9 5b be 9a a0 53 bd 40 f7 c0 3d
       0.06857485 -0.21451285 -0.051666833 0.09422159
000300 5d f1 0c be f1 33 af 3d 78 2f 2f be 68 3a 31 3d
       -0.13763948 0.08554829 -0.17107952 0.04326859
000310 2b 91 08 bd 41 5e f8 3c 10 df d5 bd d0 c9 a5 3d
       -0.033341568 0.030318381 -0.104429364 0.08095133
000320 ae 5e f1 bd c0 3c d7 3d 5c e0 26 bd 2a fa d6 3d
       -0.11785637 0.10509634 -0.04074131 0.10496934
000330 d5 a5 3a be 1d 10 71 bb f5 85 af bd 07 50 64 bd
       -0.18227322 -0.0036783286 -0.08570472 -0.055740383
000340 fe 0a 91 3c f1 97 1d be eb 5e 1a be 1e 78 03 3e
       0.017705437 -0.15389992 -0.15075271 0.1283879
000350 0c 71 1f 3d cc d5 f2 3d 0f a2 38 be af 68 07 be
       0.03892617 0.11857185 -0.1803057 -0.13223527
000360 5d dd 33 3d 06 62 e3 3c d7 24 89 3c 7b 20 b2 3d
       0.04391228 0.027756702 0.0167412 0.086976014
000370 f9 53 7e 3d 38 8b 84 3d e8 51 97 bd 69 f2 c6 bb
       0.0620918 0.06471866 -0.07388669 -0.006071378
000380 1a 6a 15 3e d8 b9 94 bb 81 a2 c5 3c cc cd 9d 3d
       0.14591256 -0.004538756 0.02412534 0.07705268
000390 bc 6d 9b bd fa 9e 56 be 99 42 5e be 54 bc 11 be
       -0.075892895 -0.20959082 -0.21705092 -0.14231998
0003a0 44 11 64 3d 73 78 51 bd 77 e8 ba bd c9 6f 2c be
       0.05568053 -0.05114026 -0.091263704 -0.16839518
0003b0 e8 97 0b 3d 43 fc d3 bc a2 3e c2 3d 7a 0c 65 3d
       0.034080416 -0.025877124 0.094846025 0.0559201
0003c0 65 25 89 be e4 86 ee bb 89 29 58 be 12 0d d8 3d
       -0.26786342 -0.007279264 -0.21109594 0.10549368
0003d0 a6 f3 f4 bd af e1 5c bc ee 9d 62 bd 87 2c 91 3d
       -0.11960535 -0.013481542 -0.055326395 0.07088571
0003e0 88 45 65 bd 5d 52 db 3d 5e 03 e9 3d 26 69 0a be
       -0.055974513 0.10709069 0.11377595 -0.13516673
0003f0 2f 4e 4b bd 77 70 35 be a5 bf 0e 3e a7 34 11 be
       -0.04963511 -0.17718683 0.13940294 -0.14180242

critic.0.bias f4 [64]
000000 3a 73 48 3e 7e f7 9f 3d 61 81 f4 bd cf 7a 2a be
       0.19575205 0.07810877 -0.119387396 -0.1664841
000010 78 01 40 3e 22 8b 19 bc 98 03 dd 3d 1c 42 36 3e
       0.1875056 -0.009371551 0.10791701 0.17798656
000020 71 7a bd bc 90 c8 1a 3d d4 05 e7 3d e8 7f 30 be
       -0.023129674 0.037788928 0.112804085 -0.17236292
000030 23 ae 37 bd 15 e8 00 3e 3e d2 d1 bc 08 81 fa ba
       -0.044843804 0.12588532 -0.025612947 -0.0019111941
000040 06 6d c5 bc 0c 93 78 bc 56 dd 25 be 66 04 62 bd
       -0.024099838 -0.015171777 -0.16197714 -0.055179976
000050 79 8b 3e 3b cb 78 b6 bd 47 85 1d be 3d f0 aa bc
       0.0029074831 -0.08909758 -0.15382873 -0.020866508
000060 84 2c 60 3e d9 77 35 bd 17 e8 b2 3d ac d7 ce bd
       0.21891981 -0.04430375 0.08735674 -0.1009973
000070 7a 07 ea 3a 07 7a 0c be d4 fd 50 bd 66 17 27 3e
       0.0017855011 -0.13718425 -0.05102332 0.1631752
000080 a0 6a e4 bc ce d0 e0 3c 1c b4 7e 3d 92 4c 46 be
       -0.027882874 0.027443316 0.062183484 -0.19365147
000090 37 a6 08 be f8 3a 0a bd 2e 3d 20 be ea 9f bf bb
       -0.13344656 -0.033747643 -0.15648338 -0.0058479207
0000a0 af 02 b9 3d 22 dd a0 3c 5a ce 37 be 38 63 18 be
       0.09033715 0.019636694 -0.1794981 -0.14881599
0000b0 12 b9 08 be 5b 39 46 be 0a 0f 18 be cd 1f 53 3b
       -0.13351849 -0.19357817 -0.14849487 0.0032215
0000c0 da 7c ee 3d 8d 52 b3 3d 2f e6 d3 bd 0c 36 2c be
       0.11644907 0.0875598 -0.103466384 -0.16817492
0000d0 aa b9 d1 3d 5a 49 e1 3d 7f 6d b9 3d 76 b8 6e bd
       0.10240491 0.11000319 0.09054088 -0.058281384
0000e0 b0 a5 27 3e 78 d7 2b bd dc 8b 37 be cc d9 4d 3d
       0.16371799 -0.041953534 -0.17924446 0.050256535
0000f0 a9 6f 10 be 54 7e 5a 3d 54 cc 18 be 6b ea ae bd
       -0.14105095 0.053343132 -0.14921695 -0.085408054

critic.2.weight f4 [32, 64]
000000 d2 4f 95 3d 7d ee 9f bd 2f e0 8d bd c8 dc ca bc
       0.07290615 -0.0780916 -0.06927525 -0.02476348
000010 77 1b 62 3d 31 da 94 bd 9e 32 c1 bd d1 cb 1f bd
       0.055201974 -0.07268179 -0.094334826 -0.039012734
000020 54 4f bf 3d 49 1d c3 3d f7 c4 f6 bd f0 e6 cd 3c
       0.093413025 0.0952707 -0.12049287 0.025134534
000030 33 c8 8f bd f9 2f 06 be d4 40 1e bd 37 bd 04 3e
       -0.07020607 -0.13104238 -0.038636044 0.12962805
000040 6d f7 e2 bc c9 b7 96 bc 2a 84 de bd 8e f1 b8 3d
       -0.027705872 -0.018398182 -0.10865052 0.09030448
000050 15 2f be 3d 5e ab a9 3d 80 92 cf bd 5e 3c 22 bd
       0.09286324 0.08284639 -0.101353645 -0.039608352
000060 ba 64 c0 3d 9f 02 d0 3d c1 cf 99 bd e8 c9 ba 3d
       0.09394212 0.1015675 -0.07510329 0.09120542
000070 85 10 50 3d 74 9e ce bd fd 8a a4 3d 7c 08 22 bc
       0.050797004 -0.10088816 0.080343224 -0.009889718
000080 79 cb 7d 3c b7 e0 52 bd ad aa b4 3c c4 c0 96 bd
       0.015490406 -0.051483836 0.02205404 -0.07360986
000090 ad 8c 91 bc b3 90 9f bc e3 75 cd bd c7 35 ce 3d
       -0.017767275 -0.019478178 -0.10032251 0.10068851
0000a0 86 d1 b5 bd a8 40 83 3d cf 8d 8f 3b 60 3b 8a 3a
       -0.08877854 0.064088166 0.0043809186 0.001054626
0000b0 33 bf 23 3d b0 bf b7 3d 20 8c 00 be 7b fb 72 3d
       0.039977264 0.08972108 -0.12553453 0.05932186
0000c0 b7 7b 8d bd 80 54 d7 3d 9c 4b 9e bd df 19 a3 3d
       -0.06908362 0.10514164 -0.07729265 0.07963919
0000d0 31 0c f5 bd ec 28 04 bc 7c 52 4d 3d ae df 05 3e
       -0.11965216 -0.008066397 0.05012749 0.13073608
0000e0 e7 d6 df 3d 35 a4 87 bd 52 33 d7 bd c0 38 ec 3c
       0.10929661 -0.06623117 -0.105078354 0.028835654
0000f0 72 23 cf 3d 4b 48 50 bd b8 09 44 bd 1b 8a 8a bd
       0.101141825 -0.050850194 -0.04786083 -0.06764623
000100 c6 9f a9 3d 89 e0 be bc 56 d1 c3 3d 74 65 c7 bc
       0.082824275 -0.023300426 0.09561412 -0.024340369
000110 ad 5e c8 3d e3 1d 6f 3c 85 87 6c bd c9 5b 74 3c
       0.09783683 0.014594528 -0.05774643 0.014914461
000120 8a 7d b3 bd d7 42 a6 bd 30 1c bb 3c 50 d8 b9 bd
       -0.08764179 -0.081182174 0.02284059 -0.090744615
000130 0f 39 e0 3d e8 77 df 3d 32 50 ab 3d 13 1e 06 bc
       0.10948383 0.10911542 0.083649054 -0.008185881
000140 10 e0 96 3d a4 64 93 3d 72 b7 0a bd be 99 d1 3c
       0.07366955 0.0719693 -0.033866353 0.025586005
000150 ed 2f e1 bb 6d 35 41 bd 7e dc 7c bd 09 36 d7 3d
       -0.0068721683 -0.04717009 -0.061733715 0.10508353
000160 63 7e 86 bd d9 ea 17 bd 3d e1 a7 bd a8 97 b0 3d
       -0.06567075 -0.037089203 -0.08197258 0.08622676
000170 76 20 c9 bd f7 90 54 bd 54 45 d1 3b 68 11 45 3d
       -0.098206446 -0.05189606 0.0063864384 0.048112303
000180 7b 9b e1 bd e5 cb b4 bd dc 7e c7 bd ce 47 b9 3d
       -0.11015984 -0.08827952 -0.097409934 0.09046899
000190 d6 58 80 3d 44 28 15 bd 19 69 d7 3c b4 03 ef 3d
       0.06266944 -0.036415353 0.026295232 0.11670628
0001a0 4b 81 5e 3d 66 2b 50 3d 1f cd 58 3d 28 68 f5 bd
       0.054322522 0.050822638 0.052929994 -0.11982757
0001b0 39 0c a2 3d 43 e2 ee bd 59 90 bf 3d 3b aa 1a 3d
       0.079124875 -0.1166425 0.09353704 0.03776
0001c0 23 60 de bd 73 a6 a6 bc cf c2 5a bd d9 03 e5 bd
       -0.108581804 -0.020343041 -0.05340844 -0.111823745
0001d0 c7 36 e5 bd 12 5c 2c 3d 96 82 3a bd bc 3f 3f 3c
       -0.111920886 0.042079993 -0.045534693 0.01167291
0001e0 7b 14 c8 3d 4b ea 79 bd 71 e7 89 bd 96 7f 90 3d
       0.09769531 -0.061014455 -0.06733597 0.07055585
0001f0 93 e3 df bc 91 7c 43 bd 5a 99 98 bd 0e 01 39 3d
       -0.027330196 -0.047726218 -0.074511245 0.04516702
000200 5c b2 66 3d 0b df 84 bd 20 49 03 3e fb 5b 26 bd
       0.05632244 -0.064878546 0.12820864 -0.040615063
000210 3a c6 ae bb 60 2c 9c bc f0 0a 06 3d 46 8a 42 3d
       -0.005333689 -0.019064128 0.032725275 0.04749515
000220 90 3b 12 bd 1f 0d e0 bd e0 8e 9e 3d 62 c5 ed bd
       -0.035701334 -0.10940003 0.07742095 -0.116099134
000230 6d f3 29 bc 25 e1 b5 3d b1 bb 41 3d f8 e4 7c 3d
       -0.010372979 0.088808335 0.047298137 0.0617418
000240 c2 50 16 3d 28 61 4a bd 26 f0 33 bd 3f 0e 8c bd
       0.03669811 -0.04940906 -0.043930195 -0.06838655
000250 90 09 c7 3c 15 96 f0 bc 89 1b 82 bd 9c 7f 9d 3c
       0.024296552 -0.02936844 -0.06352908 0.019225888
000260 98 8f b5 3d 21 ab 32 bd b2 b6 18 3d 8c 7f b7 3c
       0.08865279 -0.043620232 0.037283607 0.022399686
000270 4e 71 e1 3d bd f9 25 bd 1b ac 06 3d 6e 23 e3 3c
       0.11007939 -0.040521372 0.032878976 0.027726855
000280 7f a8 bd 3d 9b d8 13 be ac 4b 8f 3d 25 06 a3 3b
       0.09260654 -0.14438097 0.06996855 0.0049750977
000290 b6 cd 9a bd ae a4 6e 3d d3 e1 0c bd 9d 47 0e bd
       -0.075587675 0.05826252 -0.03439505 -0.034736264
0002a0 b5 9b 07 bd 8b ce d4 bd 0b ab 78 3d 11 84 b1 bd
       -0.03310748 -0.103909574 0.060709994 -0.08667768
0002b0 1e dc d7 bc 99 44 b8 3c d9 07 fa bc 1a c2 62 3c
       -0.026350077 0.022493647 -0.03052132 0.013840223
0002c0 0c a2 25 3b b6 a4 82 3d 47 7f 80 3d ec 54 81 3d
       0.002527359 0.06379072 0.06274276 0.06315026
0002d0 c9 e9 db 3d 3d 12 9a 3c 99 55 23 bc d8 cd f1 bd
       0.1073795 0.018807525 -0.009969139 -0.1180684
0002e0 bf 9a f7 bb c3 b9 1b bc 4e 33 cf 3d 0c 58 ca 3d
       -0.007556289 -0.009504738 0.101172075 0.09880075
0002f0 8b 47 3d 3d 77 ae 10 bd ed c2 8d 3d 26 98 8f 3d
       0.046210807 -0.035322633 0.06921945 0.07011442
000300 43 9d a6 bc 84 46 99 3d 75 3e 81 3c 7d 73 cd bd
       -0.02033866 0.07484153 0.015776852 -0.10031793
000310 dc ea 38 3d df e6 6f bd f1 4c 3f bd 33 bc 86 3d
       0.045145854 -0.058569785 -0.046704236 0.06578865
000320 f5 bb a8 3c a5 06 cf bd 7c 9c 05 3d 90 48 94 bc
       0.020597437 -0.10108689 0.03261994 -0.018101007
000330 4f f8 2d 3d 1f 88 43 bd 49 8b 04 bd d5 98 d6 bd
       0.042473134 -0.047737237 -0.032359395 -0.10478369
000340 4c 62 3b 3c 78 0a 00 bd eb f0 a9 bd 23 16 fc bd
       0.01143701 -0.031259984 -0.082979046 -0.1230891
000350 8c 58 b4 bd 8b d1 d9 3d 01 80 09 be 5b f9 ab bd
       -0.088059515 0.1063567 -0.13427736 -0.0839717
000360 f2 2a c7 3d 7e 22 36 3d 00 e1 8b 3c 95 5c fb 3d
       0.09724988 0.044466488 0.017075062 0.12273518
000370 b9 3b ee 3d 52 fa c5 3d cf e4 80 3d 43 7d 1d bd
       0.11632485 0.096668854 0.06293642 -0.038449537
000380 60 4f ba bd 09 78 a1 3d 8b 35 e9 bd 9f 46 a8 bd
       -0.09097171 0.07884223 -0.11387166 -0.08216595
000390 35 0b ba bd b7 0e 0e 3e 31 f9 39 bd 6e d5 c6 3d
       -0.09084169 0.13872801 -0.045403663 0.09708677
0003a0 89 49 bd bd bf c0 c0 3c cb 24 bc 3d 94 1e 48 3d
       -0.09242541 0.023529408 0.09186705 0.048857287
0003b0 7e 8f b5 3d bf c8 c8 bd 9b 24 a8 3d 9c 26 ca 3d
       0.088652596 -0.09803914 0.08210107 0.098706454
0003c0 e1 45 7c bd 33 b4 89 3d 94 56 e4 3d fb 0c e6 3d
       -0.06159008 0.067238234 0.11149326 0.112329446
0003d0 48 30 93 bd ad 7b bc 3c 55 62 60 bd c3 8c 5e bd
       -0.07186943 0.023008192 -0.054781277 -0.05433346
0003e0 8c ec 2e bd 88 6b c7 3c a2 2d 03 3e 47 85 7e bd
       -0.042706057 0.024343267 0.12810376 -0.062138822
0003f0 0c fe cf bc a0 fc ab bd 71 17 8a 3d 82 f0 53 3d
       -0.025389694 -0.08397794 0.06742752 0.051743038

critic.2.bias f4 [32]
000000 28 33 24 bd 32 24 6e 3c 82 d3 d7 bd 7a dc 3b 3c
       -0.04008785 0.014534997 -0.10538389 0.01146614
000010 05 b1 9a 3d 4e 11 92 bd 44 95 ff 3c 47 f0 d4 bd
       0.07553295 -0.07132207 0.031199105 -0.10397392
000020 3d 7c a4 bc 59 b8 97 3d 11 0b 8b 3d 93 14 78 3d
       -0.020078773 0.074082084 0.0678922 0.060566496
000030 27 45 e8 3d 5e 99 b3 bd 93 0e a7 3d 8b a8 29 3d
       0.11341315 -0.08769487 0.08157077 0.0414205
000040 91 11 b7 bd 2e a9 4a bd 24 19 13 bd fa 45 9a 3d
       -0.089388974 -0.04947775 -0.035912648 0.07532878
000050 3d 65 8a 3d 3d 62 31 3d f2 73 9a 3a 83 92 64 bd
       0.06757591 0.043306578 0.0011783822 -0.055803787
000060 87 d3 0e 3e 52 dc 8f b9 da db a2 3d 26 ee 83 3d
       0.13947879 -0.00027439237 0.079520896 0.064419076
000070 a3 a4 0f bc e9 e5 e2 3d 21 0a fc bc 36 63 f7 3d
       -0.00876728 0.11079008 -0.030766549 0.1207947

critic.4.weight f4 [1, 32]
000000 f5 c1 41 3d cd 5b 95 3d 71 b4 04 be 9b f6 36 bd
       0.047304112 0.072929 -0.12959458 -0.044668775
000010 42 0c 99 3d c5 54 f9 b6 94 85 cc 3d fb ae 01 3e
       0.07473041 -7.4306467e-06 0.099864155 0.12664406
000020 0b fb a4 39 75 dd 12 3e 8c 8d a3 3d b4 7a 9f bd
       0.0003146756 0.14342292 0.07985982 -0.07787076
000030 60 61 57 bc de 2e 24 bd 23 b0 87 3c cb 73 f2 bd
       -0.013145775 -0.04008376 0.01656348 -0.11838492
000040 70 4a fe 3d a2 27 c0 bd 91 4a 18 bd 8a fe 35 3d
       0.124165416 -0.09382559 -0.037180487 0.0444322
000050 fe 41 72 bc 9e 05 ab bd f4 a3 aa bc 24 5e 86 bd
       -0.014786242 -0.08350681 -0.020830132 -0.06560925
000060 5c 69 1b bd da 6e b7 3d a4 4c 60 bc 0a eb a8 bc
       -0.037942275 0.0895669 -0.013690148 -0.020619888
000070 57 4d d8 3d af 65 f1 bd f2 b5 0d 3e a7 77 b7 bd
       0.105616264 -0.11786973 0.13838938 -0.08958369
