Policy Gradient/walker_ppo_model_old_8900.pth (torch, 34325 bytes, 11 tensors)

actor.0.weight f4 [64, 24]
0	0xbde46627	-0.111522965
1	0x3ecf0afa	0.40438062
2	0xbd8d76f1	-0.06907452
3	0x3f38bff1	0.7216788
4	0xbe1e353d	-0.15449996
5	0xbdb8bbaf	-0.09020173
6	0x3f34037c	0.70317817
7	0xbe1e6182	-0.15466884
8	0xbe3d2312	-0.1847041
9	0xbe0de3c8	-0.13856423
10	0xbc6c6b09	-0.014429816
11	0xbe54d61a	-0.20784798
12	0x3d8a8fb1	0.06765688
13	0x3bf85fd1	0.0075797816
14	0x3e571d1b	0.21007197
15	0x3e290ea2	0.16509488
16	0x3cc29145	0.02375091
17	0xbd4b2c67	-0.049602892
18	0x3e2fbb80	0.1716137
19	0xbe20ce5f	-0.15703724
20	0x3d3033af	0.04301804
21	0x3e18d184	0.14923674
22	0x3e075aee	0.1321828
23	0x3cf21a4d	0.029553557
24	0xbcbcf1ca	-0.023064513
25	0x3e2fedd0	0.17180562
26	0x3e47f071	0.19525315
27	0x3e1ec452	0.15504578
28	0x3e83b216	0.25721806
29	0x3e1cc051	0.15307738
30	0x3f2e59cd	0.68105775
31	0xbdfeb148	-0.124361575
32	0xbe24488a	-0.16043296
33	0xbd648609	-0.05579189
34	0x3e0dac11	0.1383517
35	0x3de6abd3	0.112632416
36	0xbd48d111	-0.049027506
37	0x3d9033ba	0.07041116
38	0x3dfb3530	0.12266004
39	0x3da8d3da	0.082435325
40	0xbd2dbb9b	-0.042415243
41	0x3dd50ae8	0.10402471
42	0xbddebf44	-0.10876325
43	0x3d2d761b	0.042348962
44	0x3ceb8792	0.028751168
45	0xbd78dec9	-0.06075934
46	0x39bda653	0.0003617281
47	0x3dfc3cc6	0.12316279
48	0xbdaa0bdd	-0.08303044
49	0xbecc72d4	-0.39931357
50	0xbba99d03	-0.005176188
51	0xbeda69a1	-0.42658713
52	0xbe03ab6b	-0.1285836
53	0x3d425ae4	0.04744996
54	0x3eda5960	0.42646313
55	0x3df4097a	0.1191587
56	0xbe46d7e3	-0.19418292
57	0x3e043b8c	0.1291334
58	0xbe2654e8	-0.16243327
59	0x3ebff140	0.37488747
60	0xbe20386e	-0.15646526
61	0x3e55347c	0.20820802
62	0xbe791976	-0.24326119
63	0xbe6bab72	-0.2301462
64	0xbe5c6f85	-0.21526916
65	0x3cddf022	0.027092043
66	0xbe6d38e8	-0.2316624
67	0x3dd863d4	0.10565916
68	0xbd53c9f2	-0.051706262
69	0xbe1bab92	-0.15202168
70	0xbe441286	-0.19147691
71	0xbd689600	-0.056783676
72	0xbe85bb9f	-0.26119706
73	0xbeb8b958	-0.36078906
74	0xbdfeb382	-0.12436582
75	0xbe725d5e	-0.2366843
76	0xbebf9aff	-0.3742294
77	0xbe0fafc7	-0.14031897
78	0xbc947442	-0.018121842
79	0xbe0e9feb	-0.13928191
80	0xbd109f7d	-0.03530835
81	0x3de3d6a4	0.11124924
82	0x3d8c9a9c	0.06865427
83	0xbd1cdd2f	-0.038296875
84	0x3dbd2409	0.09235389
85	0x3ca4c226	0.020112108
86	0xbe31c565	-0.17360456
87	0xbe83fd9a	-0.2577942
88	0xbe3114a9	-0.17293037
89	0x3d887f27	0.066648774
90	0xbd9214f9	-0.071329065
91	0x3d5d6fc4	0.054061666
92	0x3cc65102	0.02420855
93	0xbe2a3cea	-0.166248
94	0x3e0b61b9	0.13611497
95	0x3d47918f	0.0487228
96	0xbe274111	-0.16333415
97	0xbe86af8f	-0.26305816
98	0xbe4385b0	-0.19093966
99	0xbee26b21	-0.44222358
100	0x3e14e8ab	0.14541881
101	0x3cbb84f7	0.022890551
102	0xbee53483	-0.44766626
103	0xbd67b5e2	-0.05656994
104	0xbdc022f5	-0.093816675
105	0xbc6b617f	-0.014366507
106	0x3c32d797	0.010915658
107	0x3ed8bc5f	0.42331216
108	0x3e22e93b	0.15909283
109	0x3e3bb615	0.18331178
110	0x3daac5c0	0.08338499
111	0x3da2de62	0.079525724
112	0xbe561a93	-0.20908575
113	0xbc8489e9	-0.016179042
114	0xbdb53238	-0.08847469
115	0xbd33b5f4	-0.043874696
116	0x3d21add9	0.039472435
117	0xbe113897	-0.14181744
118	0xbe2a42d1	-0.16627051
119	0x3d6a64e6	0.05722513
120	0x3dd0f9c0	0.10203886
121	0xbda158d9	-0.078782745
122	0x3d2933b5	0.041309077
123	0xbe3e2454	-0.18568546
124	0x3d90d332	0.07071532
125	0xbcf56797	-0.029956622
126	0x3eeb96e1	0.4601355
127	0xbd0371cf	-0.03209096
128	0x3ddbca40	0.107319355
129	0xbd9169cf	-0.071002595
130	0x3ca3b503	0.019983774
131	0x3def91f1	0.11697758
132	0xbe19c066	-0.150148
133	0x3e724f2c	0.23663014
134	0xbd2f0ded	-0.04273789
135	0xbe144e64	-0.14483029
136	0xbc45c50e	-0.012070907
137	0x3e12806b	0.143068
138	0xbe0650da	-0.1311678
139	0xbe23232a	-0.15931383
140	0xbd599d97	-0.053128805
141	0x3d3060b8	0.04306099
142	0xbdfc6298	-0.12323493
143	0xbc5e33d2	-0.01356216
144	0xbdf2638f	-0.118353955
145	0xbe7c7a8f	-0.24656127
146	0x3d17d6dd	0.037070144
147	0xbec279a1	-0.3798342
148	0xbe64a5d3	-0.22328882
149	0x3e0cb705	0.13741691
150	0x3e66395e	0.22482821
151	0x3d9fd714	0.07804695
152	0x3da7a6ab	0.08186086
153	0x3e0291dd	0.12750955
154	0x3e06146e	0.13093731
155	0x3e9b5d1e	0.3034448
156	0x3e065c6c	0.13121194
157	0x3dec96c5	0.115521945
158	0xbd0d05ec	-0.034429476
159	0x3c7228b4	0.014780212
160	0x3d946d8f	0.07247459
161	0x3d604294	0.054750994
162	0xbe44d719	-0.19222678
163	0x3d4ed793	0.050498556
164	0xbdfee3dd	-0.12445805
165	0xbd94890d	-0.07252703
166	0xbe4844a2	-0.19557431
167	0xbda8b31e	-0.08237289
168	0xbd759872	-0.059959836
169	0x3e908e2d	0.28233472
170	0x3e22b954	0.1589101
171	0x3f1215cc	0.5706451
172	0x3e64fc2a	0.22361818
173	0xbc0249ac	-0.007952135
174	0x3ef9c6be	0.4878444
175	0xbcba585f	-0.022747217
176	0xbc3ff761	-0.011716695
177	0xbc3a121c	-0.011356857
178	0xbe059584	-0.13045317
179	0xbea8c6fc	-0.32964313
180	0xbdebae6f	-0.1150788
181	0x3c90e76b	0.017688474
182	0x3e5e9bae	0.21739075
183	0x3df16a03	0.11787798
184	0x3dff815c	0.12475845
185	0x3cfbb7ce	0.030727293
186	0x3d7106d3	0.0588444
187	0xbd485927	-0.048913147
188	0x3e01d1ab	0.12677638
189	0x3e103541	0.14082815
190	0x3dbdcd1f	0.09267639
191	0xbe4ba4fe	-0.19887158
192	0xbcce4db4	-0.025183536
193	0xbe803681	-0.25041583
194	0xbe894b64	-0.2681533
195	0xbecbfd60	-0.39841747
196	0x3e862bbf	0.2620525
197	0xbd19df76	-0.037566625
198	0xbf0f0a93	-0.5587551
199	0x3c404f6e	0.0117376875
200	0x3e44ccd7	0.19218765
201	0xbc16431d	-0.0091712745
202	0x3ce038c3	0.027370816
203	0x3e202ed5	0.15642865
204	0xbda15304	-0.07877162
205	0xbe1c0eec	-0.15240067
206	0x3e2a2586	0.16615877
207	0x3cb5d7f3	0.0221977
208	0xbc958c59	-0.0182554
209	0xbd8c1711	-0.06840337
210	0x3d07c684	0.033148304
211	0x3e1cc7af	0.15310548
212	0x3e1637f2	0.14669779
213	0xbd5004dd	-0.050785888
214	0xbdfa63b6	-0.122260496
215	0x3e356189	0.17712988
216	0xbdff5b03	-0.12468531
217	0xbe37181c	-0.17880291
218	0xbe61c07d	-0.22046085
219	0xbf124884	-0.571419
220	0xbe4424ac	-0.19154614
221	0xbc38ab1a	-0.011271263
222	0xbf32f991	-0.6991206
223	0xbd9f4cb2	-0.077783
224	0x3dacc344	0.084356815
225	0x3e1b015d	0.15137239
226	0x3e0f2f2e	0.13982841
227	0xbe65bff1	-0.22436501
228	0x3db77eed	0.08959756
229	0x3dc7be8d	0.097531416
230	0xbd3a9c6a	-0.045559324
231	0xbe291a61	-0.16513969
232	0x3db8b532	0.09018935
233	0xbe2f8abe	-0.1714277
234	0xbd1d2421	-0.038364533
235	0xbe8edaf6	-0.2790143
236	0xbd904182	-0.070437446
237	0xbe01d387	-0.12678348
238	0x3d337d9b	0.04382096
239	0x3dda871a	0.106703
240	0x3bf1eb19	0.007382762
241	0x3ee0a668	0.43876958
242	0x3dd3be24	0.10339001
243	0x3e9d1eb3	0.30687484
244	0x3e325ad8	0.17417467
245	0xbd4972a2	-0.049181588
246	0x3e4fe213	0.20301084
247	0xbc781d73	-0.01514374
248	0xbd10e647	-0.03537586
249	0xbd973472	-0.0738305
250	0x3e309e35	0.17247851
251	0xbec9c0af	-0.39404818
252	0x3e12cf6b	0.14336936
253	0xbdc5c8bb	-0.09657427
254	0xbd252c6b	-0.040325563
255	0x3d873202	0.06601335

actor.0.bias f4 [64]
0	0xbe342151	-0.17590834
1	0xbe2233e1	-0.15840103
2	0x3e7682a1	0.24073268
3	0xbb99cd87	-0.00469369
4	0x3e810852	0.2520166
5	0xbdf1414e	-0.11780034
6	0xbe22fc88	-0.15916646
7	0xbd804075	-0.06262294
8	0xbe355b5e	-0.17710635
9	0x3e16678b	0.14687936
10	0xbe09f54c	-0.1347248
11	0x3ca72b34	0.020406343
12	0xbde33eb3	-0.11095943
13	0xbc491e4c	-0.01227529
14	0xbd23bf29	-0.039977226
15	0xbccf7e90	-0.025328904
16	0xbd8a6f4a	-0.06759508
17	0xbde222ad	-0.1104177
18	0x3e0f5a7b	0.1399936
19	0x3de1fed4	0.11034933
20	0xbd893e22	-0.06701304
21	0x3de7ffd3	0.113280915
22	0x3e5b5068	0.21417391
23	0xbdacbf78	-0.08434957
24	0xbe35bfb3	-0.17748909
25	0x3e12bf59	0.14330806
26	0xbc20b74a	-0.0098093245
27	0xbe3e7e61	-0.18602897
28	0xbe22b98d	-0.15891095
29	0xbe551b78	-0.2081126
30	0x3e2b7f85	0.16747864
31	0xbdd8f12d	-0.10592876
32	0xbe302ddf	-0.17204998
33	0x3e0b4223	0.13599448
34	0xbe33555d	-0.17513032
35	0xbe1d2431	-0.15345837
36	0xbdc82f76	-0.097746775
37	0xbc649521	-0.013951571
38	0x3dafc3ae	0.08582245
39	0x3e2b667d	0.16738315
40	0x3e21a7c7	0.15786658
41	0x3e0dc7e6	0.13845786
42	0x3dd5b186	0.104342505
43	0x3c82729a	0.015923787
44	0x3e0843a9	0.1330706
45	0xbc8a6acc	-0.016896628
46	0x3d9d1a87	0.07671075
47	0xbd842975	-0.0645322
48	0x3d825b8d	0.06365118
49	0xbd92fda1	-0.07177282
50	0xbe3031d9	-0.17206515
51	0x3d74c995	0.059762556
52	0x3d390c4c	0.045177743
53	0x3dabe2d9	0.08392877
54	0xbdfdd5eb	-0.12394317
55	0x3e1368e3	0.1439548
56	0x3de7631a	0.11298199
57	0x3e197d4c	0.14989203
58	0xbdcc97e5	-0.09989909
59	0xbc9afe28	-0.01892002
60	0x3dbb9b64	0.09160498
61	0xbcade818	-0.021228835
62	0xbd511e50	-0.0510543
63	0x3e31ee1d	0.1737599

actor.2.weight f4 [32, 64]
0	0x3e2551c6	0.16144475
1	0x3e25a1d6	0.16175017
2	0x3cd4686f	0.025928704
3	0xbe84e117	-0.2595298
4	0xbcf2ee3b	-0.029654613
5	0x3e264544	0.1623736
6	0x3e0ba9f1	0.13639046
7	0x3dedda14	0.11613861
8	0x3e02cfbe	0.1277456
9	0xbe8c62c8	-0.27419114
10	0x3e751ac9	0.23935999
11	0x3e2df182	0.16986659
12	0x3d8b08aa	0.06788762
13	0x3d24eee5	0.04026689
14	0x3e043da4	0.12914139
15	0xbd7e3735	-0.06206437
16	0x3d4b1743	0.04958273
17	0x3e89037a	0.26760465
18	0x3e40d3e4	0.1883083
19	0xbdcf30be	-0.10116719
20	0x3e9457ef	0.28973338
21	0xbe876658	-0.2644527
22	0xbeca0ffe	-0.39465326
23	0x3d7637e2	0.060111888
24	0x3d7f2399	0.062289808
25	0x3c36e037	0.011161855
26	0x3dd65629	0.104656525
27	0x3d5c1b19	0.05373678
28	0x3de28c5c	0.11061928
29	0x3e16bc18	0.1472019
30	0xbb98ecd3	-0.0046669035
31	0x3d659ae1	0.056055907
32	0x3e455678	0.19271266
33	0x3cfe030c	0.031007312
34	0x3d8e58e8	0.06950551
35	0x3e1d5e4b	0.15368001
36	0x3c27751a	0.01022079
37	0xbdf50524	-0.11963871
38	0xbd03f1d7	-0.03221306
39	0xbe78f858	-0.24313486
40	0xbe58b8aa	-0.21164194
41	0xbdec2907	-0.11531263
42	0xbe0abcff	-0.13548659
43	0xbe2b9297	-0.16755138
44	0x3d16418f	0.036683615
45	0x3e72c61f	0.2370839
46	0xbd66ddb5	-0.05636378
47	0xbde90d18	-0.113794506
48	0x3d543266	0.051805876
49	0x3d21b47e	0.03947877
50	0x3e70a901	0.2350197
51	0xbe712f5c	-0.23553222
52	0x3c8b1676	0.016978484
53	0xbd87551f	-0.066080324
54	0xbdda3043	-0.106537364
55	0xbd73e17d	-0.059541214
56	0xbd94137f	-0.07230281
57	0xbde1374a	-0.10996874
58	0xbc607253	-0.013699132
59	0x3c12740f	0.008938803
60	0xbe4954b5	-0.1966122
61	0xbe0f8d80	-0.14018822
62	0xbd92a010	-0.07159436
63	0xbe5ca41b	-0.21546976
64	0xbf0d960a	-0.55307066
65	0xbe05fbb7	-0.13084303
66	0xbc257a27	-0.010099924
67	0xbd98a509	-0.07453353
68	0x3eaebe1e	0.34129423
69	0x3c24c7e1	0.0100574205
70	0xbc94135d	-0.01807564
71	0xbeccf1fd	-0.40028372
72	0x3e906486	0.28201693
73	0x3e4c8e65	0.19976194
74	0xbe070290	-0.13184571
75	0x3db7c5cd	0.089732744
76	0xbdebbadb	-0.11510249
77	0x3ecb23de	0.39675802
78	0xbe997751	-0.29973844
79	0xbe2688d4	-0.16263133
80	0xbdd2678e	-0.10273658
81	0x3d4b35bd	0.049611796
82	0xbdcdf0aa	-0.10055669
83	0xbe600d18	-0.21879995
84	0xbe495e81	-0.19664957
85	0xbe8e6f20	-0.27819157
86	0xbcbcaeb8	-0.023032531
87	0xbe569c0a	-0.20957962
88	0x3b85592b	0.0040694675
89	0xbc8ff54d	-0.017573023
90	0x3d328a12	0.043588705
91	0xbc91a16f	-0.017777173
92	0xbe323b14	-0.17405349
93	0x3b343382	0.0027496521
94	0xbd8fb465	-0.070168294
95	0xbd1e059c	-0.03857957
96	0xbe2c8b6f	-0.16850065
97	0x3e129c20	0.1431737
98	0xbe57c9f4	-0.21073133
99	0xbd8fc65c	-0.07020256
100	0xbdcde065	-0.100525655
101	0xbd52b24d	-0.051439572
102	0xbe2c67ef	-0.16836523
103	0x3e8db490	0.2767682
104	0x3e384de3	0.17998461
105	0xbb79aea1	-0.0038098472
106	0x3e12f9a5	0.14353044
107	0x3d121e40	0.03567338
108	0xbd92f93c	-0.07176444
109	0xbe122c7b	-0.1427478
110	0x3e67925e	0.22614428
111	0xbab59f23	-0.001385663
112	0xbe4775e6	-0.19478568
113	0x3c8aca47	0.016942156
114	0xbe0d3ab9	-0.13791932
115	0x3d835d69	0.06414301
116	0x3d0a979f	0.033836003
117	0x3d989867	0.074509434
118	0xbeeb455b	-0.45951352
119	0x3d35feef	0.044432577
120	0x3e15cc2b	0.14628665
121	0xbbfae128	-0.0076562352
122	0x3ca0f4e0	0.019648015
123	0x3d8c11cb	0.06839331
124	0xbc9a88e2	-0.018864099
125	0xb9ef4a19	-0.0004564084
126	0xbd5f2be9	-0.054485235
127	0x3ec01c47	0.37521574
128	0xbe4302f2	-0.19044092
129	0xbdbdcb6f	-0.092673175
130	0x3e1b7c51	0.15184142
131	0x3e5cbf4a	0.21557346
132	0x3d3a190e	0.04543405
133	0xbd204d12	-0.039136
134	0x3e029868	0.12753451
135	0xbe9a9254	-0.30189764
136	0xba4a8bb5	-0.00077265064
137	0x3e05821a	0.13037911
138	0xbe0ebbea	-0.13938871
139	0xbe5d4dc0	-0.2161169
140	0xbe672ed5	-0.22576459
141	0xbcae9000	-0.021308899
142	0xbda046a2	-0.07825972
143	0xbddba610	-0.10725033
144	0xbe5cf923	-0.21579413
145	0xbd989515	-0.0745031
146	0xbd0d9df8	-0.03457448
147	0x3e5d13d7	0.215896
148	0xbe1106bf	-0.1416273
149	0x3e547c1b	0.20750467
150	0x3e8e371a	0.27776414
151	0xbc49a708	-0.01230789
152	0x3ca8388f	0.020534782
153	0x3d63dc7c	0.055630192
154	0xbbaac553	-0.005211511
155	0xbe112c56	-0.14177069
156	0xbd468c4e	-0.04847365
157	0xbdc237e3	-0.09483316
158	0x3bea35dd	0.0071475343
159	0xbe7524e5	-0.23939855
160	0xbd48a778	-0.048987836
161	0x3dc001c5	0.093753375
162	0x3da71fdb	0.08160373
163	0xbe4f4644	-0.20241648
164	0xbad6be28	-0.0016383575
165	0x3d706bce	0.05869656
166	0xbd3f7177	-0.046739068
167	0x3e806f2f	0.25084826
168	0x3e18efab	0.14935176
169	0x3e9a3ac0	0.30122948
170	0x3dbc8313	0.09204688
171	0xbddc95c4	-0.10770753
172	0x3de6e667	0.112744145
173	0xbee5e5d4	-0.44901907
174	0xbcb8b26a	-0.022546012
175	0x3e7fe124	0.24988228
176	0x3c52e2f7	0.012871495
177	0xbcf16c07	-0.029470457
178	0xbdf0e6b4	-0.11762753
179	0x3cffdbfd	0.031232828
180	0xbe1f984c	-0.1558544
181	0x3e310de6	0.17290458
182	0x3e0a99f8	0.13535297
183	0x3df80fc8	0.12112385
184	0xbd0ac9b4	-0.033883765
185	0x3cbc4bc0	0.02298534
186	0x3d805835	0.06266824
187	0x3d061538	0.03273508
188	0x3df6b5f2	0.12046422
189	0xbc851e8c	-0.016249917
190	0x3db98946	0.09059386
191	0x3e937175	0.28797498
192	0x3d838eba	0.06423707
193	0x3e8fa7b7	0.28057644
194	0x3ecd5488	0.40103555
195	0x3d72d24e	0.059282593
196	0xbe30b2ae	-0.17255661
197	0x3e341cdc	0.17589134
198	0x3e4f25b4	0.20229226
199	0x3b17a81f	0.002314098
200	0xbe5f6e94	-0.21819526
201	0xbe83e595	-0.25761095
202	0xbe123379	-0.14277448
203	0xbdf08042	-0.11743213
204	0x3c8fba15	0.017544786
205	0xbe275f68	-0.16344988
206	0x3de6bad4	0.112661034
207	0x3e458903	0.19290547
208	0x3d71ea75	0.059061486
209	0xbe8d5ef3	-0.27611503
210	0x3df83e1d	0.12121222
211	0x3ed48ae0	0.41512203
212	0x3d4c91f7	0.04994389
213	0x3dc7c8fd	0.09755132
214	0x3d2b9b1f	0.041895982
215	0xbccfab84	-0.02535034
216	0x3e12a7af	0.14321779
217	0xbaca96a4	-0.0015456271
218	0x3c94f69f	0.018184004
219	0xba2dd94c	-0.0006631806
220	0x3e2a72ed	0.16645403
221	0x3d858512	0.06519522
222	0xbeb722a5	-0.3576862
223	0xbf0de463	-0.55426615
224	0x3c41a6e4	0.011819575
225	0x3e38961f	0.18026017
226	0x3de1bd67	0.11022454
227	0xbd854b8f	-0.06508552
228	0x3cb143cf	0.021638779
229	0xbddf53b4	-0.10904637
230	0x3e103a3e	0.14084718
231	0xbe54b3a0	-0.20771646
232	0x3e2e3b2b	0.17014758
233	0x3d2e2662	0.042517073
234	0xbc983835	-0.01858149
235	0xbd181bfe	-0.03713607
236	0x3e811e6c	0.25218523
237	0xbc3d0878	-0.011537664
238	0x3e3769a3	0.17911391
239	0x3e4efbca	0.20213237
240	0x3eaf3d6c	0.3422655
241	0x3e34eb49	0.17667879
242	0xbed05e73	-0.4069706
243	0x3e1a13d9	0.15046634
244	0xbe108e75	-0.14116843
245	0xbe07e63c	-0.13271421
246	0xbc8e2c11	-0.017354997
247	0xbe421f18	-0.18957174
248	0xbcaa7600	-0.02080822
249	0x3e6240fc	0.22095102
250	0x3d929c21	0.071586855
251	0x3dd0104b	0.10159358
252	0x3e55b092	0.20868137
253	0x3d5153f5	0.05110546
254	0xbdfd0dfb	-0.12356182
255	0x3dcdcf55	0.10049311

actor.2.bias f4 [32]
0	0xbc9cf91f	-0.019161759
1	0x3df75d4d	0.120783426
2	0x3d5e9081	0.05433703
3	0x3ca4172d	0.020030582
4	0xbd74430c	-0.059634253
5	0xbd9cbb1f	-0.07652878
6	0xbdf1d678	-0.11808485
7	0xbc71f241	-0.0147672305
8	0xbcbb11ce	-0.022835638
9	0x3dce44f6	0.10071747
10	0xbd957ce9	-0.07299215
11	0xbcf44156	-0.02981631
12	0xbdc5495b	-0.09633132
13	0x3da15f2a	0.07879479
14	0xbd5d4559	-0.054021213
15	0xba32cad0	-0.00068203826
16	0x3de2ac7b	0.11068054
17	0xbd2e2abe	-0.04252123
18	0x3d821f13	0.06353583
19	0x3ba7327f	0.005102455
20	0x3c16bff8	0.009201042
21	0xbccbbb05	-0.024869451
22	0x3adcdb83	0.0016850088
23	0x3dfa837b	0.12232109
24	0xbdf0ea7d	-0.11763475
25	0x3da4d23b	0.08047911
26	0x3b08f22e	0.0020896303
27	0xbd907d23	-0.07055118
28	0xbb32dbc9	-0.0027291647
29	0xbd06d730	-0.032920063
30	0x3dd8018b	0.10547169
31	0xbe02b79e	-0.12765357

actor.4.weight f4 [4, 32]
0	0xbeab0cec	-0.33408296
1	0xbc616573	-0.013757098
2	0x3f094339	0.536182
3	0x3e202af8	0.15641391
4	0xbe6ae87f	-0.22940253
5	0xbef987e3	-0.48736486
6	0xbe0a0f9a	-0.13482514
7	0x3d314778	0.04328105
8	0x3e0d3ef5	0.13793547
9	0xbee102f0	-0.43947554
10	0xbde84fb5	-0.11343328
11	0x3dbcf3a5	0.09226159
12	0xbf5992e1	-0.84989744
13	0x3e01e951	0.1268666
14	0x3efc2a25	0.49250904
15	0x3e1236fa	0.14278784
16	0x3d6e3105	0.058152217
17	0x3e0e20ca	0.13879696
18	0x3ea0d625	0.3141338
19	0x3f25f15a	0.648214
20	0x3db9d2bb	0.09073397
21	0x3ed569a9	0.41682175
22	0x3e60c554	0.21950275
23	0x3f27727f	0.6540908
24	0xbe6a35cf	-0.22872089
25	0xbdb7336d	-0.089453556
26	0x3d62e381	0.055392746
27	0x3df786d6	0.12086265
28	0xbde529c1	-0.111896046
29	0xbead37f4	-0.3383175
30	0x3c064470	0.008195028
31	0xbe6e1c25	-0.23252924
32	0xbe4489ff	-0.19193266
33	0x3f23c63a	0.63974345
34	0x3ec42494	0.38309157
35	0xbe927ccc	-0.28610837
36	0xbe5b9fb8	-0.21447647
37	0x3d6c114e	0.05763369
38	0xbeb226c4	-0.347952
39	0xbea9a3f5	-0.33132902
40	0xbec6f08e	-0.38855404
41	0x3be3aca8	0.0069480725
42	0x3f27556b	0.6536471
43	0x3f53fb13	0.82804984
44	0x3c6fad4e	0.014628721
45	0x3e9fa0c5	0.31177345
46	0x3e2dc222	0.16968587
47	0xbf2117a5	-0.62926704
48	0x3eccdc57	0.40011856
49	0xbd0b2b3f	-0.03397679
50	0x3f1d6393	0.61480063
51	0x3dec9c52	0.11553253
52	0xbe752172	-0.2393854
53	0x3e95b15a	0.2923687
54	0x3eedcafa	0.4644392
55	0x3cf42557	0.029802961
56	0xbe4d36d3	-0.20040445
57	0x3e0e5d09	0.13902678
58	0x3cf0fcce	0.029417422
59	0xbeebdf8d	-0.46068993
60	0x3eefafef	0.46813914
61	0xbe85e3f8	-0.2615049
62	0xbedcff87	-0.43163702
63	0xbed27791	-0.41106847
64	0xbc805dcc	-0.015669726
65	0xbcb1f21e	-0.021721896
66	0xbe129f54	-0.14318591
67	0xbeabf9bf	-0.3358898
68	0xbe430f7b	-0.19048874
69	0x3db7967d	0.0896425
70	0xbea18d65	-0.31553188
71	0xbea9ab93	-0.33138713
72	0xbe74e117	-0.2391399
73	0x3d672083	0.05642749
74	0xbe36e328	-0.1786009
75	0x3e27fbec	0.16404694
76	0x3e186ff4	0.14886457
77	0x3e335dbc	0.17516226
78	0x3c31e979	0.010858887
79	0x3d8d0f76	0.068877146
80	0x3e39c7a3	0.18142562
81	0xbe9f94d5	-0.31168237
82	0xbde4bfab	-0.1116937
83	0xbe3d0ec6	-0.18462667
84	0x38e615bf	0.00010971305
85	0x3d534ff7	0.051589932
86	0xbe86597c	-0.26240146
87	0xbd666e0f	-0.056257304
88	0xbd1f054d	-0.038823415
89	0x3d41177b	0.047141533
90	0x3a2e0095	0.000663766
91	0xbe7dc6a4	-0.24782807
92	0xbc823ffe	-0.015899654
93	0x3d9e1f72	0.077208415
94	0x3eaf90de	0.34290212
95	0xbbd33c03	-0.006446363
96	0xbd5b3e3e	-0.053526156
97	0xbe3d1044	-0.18463236
98	0x3c14e876	0.009088626
99	0xbe14bf61	-0.1452613
100	0xbeea4d1e	-0.4576196
101	0x3e639ac0	0.22227001
102	0xbe9d0d59	-0.30674246
103	0xbe07c254	-0.13257724
104	0xbe13616a	-0.1439263
105	0x3ec7ecff	0.39048
106	0xbc897fd5	-0.016784588
107	0x3e3c49b4	0.1838749
108	0xbd0e4b5d	-0.03473984
109	0xbe2b2e39	-0.16716851
110	0xbec5b366	-0.38613433
111	0x3df9339e	0.12168048
112	0xbe895691	-0.26823857
113	0xbf24268b	-0.6412131
114	0x3e254b1f	0.16141938
115	0x3bcd978c	0.0062741693
116	0xbeb91aa0	-0.36153126
117	0xbeba9f55	-0.36449686
118	0xbe7d5064	-0.24737698
119	0x3da74965	0.08168296
120	0x3eaded82	0.33970267
121	0xbf0373aa	-0.51348364
122	0xbf2208ed	-0.6329487
123	0x3c074ab9	0.008257561
124	0x3e825457	0.2545497
125	0xbe902c38	-0.28158736
126	0x3e9de8c0	0.30841637
127	0xbe4d5e3f	-0.20055483

actor.4.bias f4 [4]
0	0x3df375ac	0.118876785
1	0xbda7a8d7	-0.081865005
2	0x3e4624f5	0.19350035
3	0xbe1838ea	-0.14865461

critic.0.weight f4 [64, 24]
0	0x3e53d501	0.20686723
1	0x3e17bce7	0.14818154
2	0x3e21a499	0.15785445
3	0xbdebcb9b	-0.11513444
4	0xbd73b5df	-0.059499618
5	0xbdbbec8e	-0.091759786
6	0x3db7afe5	0.08969096
7	0x3df1fcc8	0.11815792
8	0x3e357a96	0.17722544
9	0xbdfac9d0	-0.12245524
10	0x3dcc686f	0.099808566
11	0xbd43d43e	-0.04780983
12	0xbc2f11f2	-0.010685431
13	0x3e49ab8c	0.19694346
14	0xbe17ed24	-0.14836556
15	0xbdaa1303	-0.083044074
16	0x3d2d4309	0.042300258
17	0x3dc1f206	0.094699904
18	0xbd589f98	-0.052886575
19	0xbd2799e7	-0.040918257
20	0xbd8deeae	-0.0693029
21	0xbc25eb3c	-0.010126885
22	0xbe2763eb	-0.1634671
23	0xbd9c6287	-0.0763598
24	0x3ccd4743	0.025058394
25	0x3dfae118	0.122499645
26	0x3e2425d2	0.16030052
27	0x3ca294d4	0.019846357
28	0xbdb46426	-0.08808164
29	0x3e149ee5	0.14513738
30	0xbe475678	-0.19466579
31	0x3d9336e2	0.071882024
32	0x3d55ac24	0.05216612
33	0xbc6f952b	-0.014622967
34	0x3e3b6599	0.18300475
35	0x3e08722c	0.13324803
36	0x3e44c171	0.19214417
37	0xbde698d1	-0.11259616
38	0xbd6cc4ff	-0.057805058
39	0xbe0501f9	-0.12989034
40	0x3dff81a6	0.124759
41	0xbe120df0	-0.14263129
42	0x3da2a3b3	0.079413794
43	0x3e0ecb6a	0.13944784
44	0x3d8298be	0.063767895
45	0x3d42060c	0.047369048
46	0xbd6c9d60	-0.057767272
47	0xbce1b5dc	-0.027552538
48	0xbdb2c6fb	-0.08729359
49	0x3d245006	0.04011538
50	0x3dbdd4f9	0.09269137
51	0xbd90ab35	-0.07063905
52	0xbe172e10	-0.14763665
53	0xbdaa509c	-0.08316156
54	0xbdce6245	-0.10077337
55	0xbdb32524	-0.087473184
56	0x3e231a16	0.1592792
57	0x3e0a5a0b	0.13510911
58	0x3e1c6c67	0.15275727
59	0x39af3234	0.00033416005
60	0xbdc147f7	-0.09437554
61	0x3e1d6ae3	0.15372805
62	0xbe5810ea	-0.21100202
63	0x3b84b613	0.0040500253
64	0xbe209b3d	-0.15684219
65	0xbdf65126	-0.120271966
66	0x3dc79697	0.097455196
67	0xbe3b88cb	-0.18313901
68	0xbdf1c7f0	-0.11805713
69	0xbe2781af	-0.16358064
70	0x3e40c0b8	0.18823516
71	0xbd8d7bfb	-0.06908413
72	0x3e26a684	0.16274458
73	0xbdb4c7ca	-0.08827169
74	0x3e0d9948	0.13828003
75	0xbd732404	-0.05936052
76	0x3d355dba	0.044278838
77	0x3ddb4e81	0.10708333
78	0x3df6d5d6	0.12052505
79	0xbdf2720a	-0.118381575
80	0x3e187fe9	0.14892544
81	0x3e10da43	0.1414576
82	0x3d9188fb	0.07106205
83	0x3da02198	0.078189075
84	0xbd93a9fd	-0.07210157
85	0x3dae4d77	0.08510869
86	0x3df5ccb0	0.12001932
87	0x3dfb7396	0.12277906
88	0x3cd2c685	0.025729427
89	0xbe2b5868	-0.16732943
90	0x3e368826	0.17825374
91	0xbe2e76a3	-0.17037444
92	0xbe216f2b	-0.15765063
93	0x3c7c982b	0.015417139
94	0x3d1fc449	0.03900555
95	0x3e139e65	0.14415891
96	0xbe0a1c90	-0.13487458
97	0xba199696	-0.0005858926
98	0xbde9013f	-0.11377191
99	0xbe4f0753	-0.20217638
100	0x3e0c9347	0.13728057
101	0xbc9c6254	-0.019089855
102	0x3e010d17	0.1260265
103	0xbd1dba6d	-0.038507868
104	0x3de119f3	0.109912775
105	0xbe18554f	-0.14876293
106	0x3d313277	0.043261018
107	0xbdb0b08c	-0.08627424
108	0x3b1c4005	0.002384187
109	0xbd64058f	-0.055669364
110	0xbe52a77b	-0.20571701
111	0xbdccabfe	-0.099937424
112	0x3dfb90d1	0.12283481
113	0xbe2b56aa	-0.16732278
114	0x3e28baab	0.16477458
115	0x3da0337f	0.07822322
116	0x3da90e82	0.0825472
117	0x3e00e3b5	0.12586863
118	0xbe432ba4	-0.19059616
119	0xbc3fe6bf	-0.011712729
120	0xbc646131	-0.013939188
121	0x3d8114aa	0.063027695
122	0xbe27b038	-0.16375816
123	0xbcd9bf76	-0.026580554
124	0x3d8a65c6	0.06757693
125	0xbde1422f	-0.10998952
126	0xbc44a954	-0.012003262
127	0xbdb143e8	-0.0865553
128	0x3dae3c23	0.08507564
129	0x3d893af8	0.067007005
130	0x3d9e6f09	0.07736022
131	0xbd29d4bd	-0.04146265
132	0xbb32821b	-0.0027238193
133	0x3e112dd9	0.14177646
134	0xbbab3642	-0.005224974
135	0x3d8c0b63	0.06838109
136	0x3db1cf72	0.08682145
137	0x3db13111	0.08651937
138	0xbe450589	-0.19240393
139	0xbdef927d	-0.11697862
140	0xbcaa7bdf	-0.02081102
141	0xbcd09b99	-0.02546482
142	0x3e3b986a	0.1831986
143	0x3ca1f89b	0.019771865
144	0xbd7c316c	-0.06157057
145	0xbe1f319f	-0.15546273
146	0xbdcc0a67	-0.099629216
147	0x3dda259c	0.10651705
148	0x3e068a7a	0.13138762
149	0x3e008064	0.12548977
150	0xbcfe1112	-0.031014
151	0x3b1d7398	0.0024025198
152	0x3e038b44	0.12846094
153	0xbd0c599f	-0.034265157
154	0x3dc49333	0.095983885
155	0x3ca08236	0.01959334
156	0x3d894a29	0.06703598
157	0xbe33b8f4	-0.17551023
158	0xbdb5dcfa	-0.088800386
159	0xbe3691e3	-0.17829089
160	0x3e1eeaa1	0.15519191
161	0x3de72866	0.11287002
162	0xbd90a4f0	-0.07062709
163	0xbe1753ef	-0.14778112
164	0xbdfa6cba	-0.12227769
165	0x3e17031c	0.1474728
166	0x3e07532f	0.13215326
167	0x3d89882a	0.06715424
168	0xbe1caba0	-0.15299845
169	0x3dc366b0	0.095410705
170	0x3cd84629	0.026400642
171	0xbc019c17	-0.00791075
172	0x3e30afd2	0.1725457
173	0x3d4deb1d	0.05027305
174	0xbdede95a	-0.11616774
175	0xbce4b9db	-0.027920654
176	0xbe1ae740	-0.15127277
177	0x3e23e9c2	0.1600714
178	0x3dbcc55a	0.09217329
179	0x3db6e0ea	0.08929618
180	0x3da32e26	0.079677865
181	0x3dd99898	0.10624808
182	0xbdec56d1	-0.115399964
183	0x3e24c641	0.16091253
184	0xbe4432bf	-0.19159983
185	0x3d8e9edc	0.06963894
186	0xbd3231c9	-0.04350451
187	0x3c861462	0.016367141
188	0x3d9edc77	0.07756894
189	0xbe521644	-0.20516306
190	0xbd2be880	-0.041969776
191	0x3dd045d2	0.10169567
192	0xbe18066a	-0.14846197
193	0x3db71f01	0.089414604
194	0xbe31c7e7	-0.17361413
195	0x3d0c1ad6	0.03420528
196	0xbce576d0	-0.028010756
197	0x3d12a41f	0.03580105
198	0xbdd3df73	-0.10345354
199	0x3dc42f69	0.09579355
200	0xbdf41647	-0.119183116
201	0x3dcebf50	0.10095084
202	0xbd363729	-0.0444862
203	0x3dd0cf69	0.1019581
204	0xbe31e281	-0.1737156
205	0xbc17f5ee	-0.009274943
206	0xbdc41f02	-0.09576227
207	0xbd8045b9	-0.062632985
208	0x3c57e34f	0.013176753
209	0xbe2289ca	-0.15872875
210	0xbe20fdc2	-0.15721801
211	0x3dfa8e06	0.1223412
212	0x3d091e94	0.033476427
213	0x3de86224	0.11346844
214	0xbe3e4f49	-0.18584932
215	0xbe0ee42a	-0.13954225
216	0x3e0facee	0.14030811
217	0x3d1496ad	0.036276508
218	0x3da810bb	0.08206316
219	0x3d9f4d4d	0.07778416
220	0x3da0b4ff	0.07847022
221	0x3da6b905	0.081407584
222	0xbdc03995	-0.09385983
223	0xbdbf760f	-0.0934869
224	0x3e36e819	0.17861976
225	0x3c21daf9	0.009878867
226	0x3db452b8	0.0880484
227	0x3d9b2a42	0.075764194
228	0xbddd58a8	-0.108079255
229	0xbe5116ca	-0.2041885
230	0xbe4bc855	-0.1990064
231	0xbdfb39c2	-0.12266876
232	0x3d9c6341	0.07636119
233	0xbcf81815	-0.03028492
234	0xbd9213c7	-0.071326785
235	0xbe1aee9a	-0.15130082
236	0x3d362ff6	0.044479333
237	0xbcfb7a0d	-0.030697847
238	0x3d806560	0.06269336
239	0x3d153f05	0.036437053
240	0xbe81101d	-0.25207606
241	0x3bac4daa	0.0052582817
242	0xbe3eecba	-0.18644992
243	0x3e0c4e16	0.13701662
244	0xbe1a4688	-0.15065968
245	0xbc17b55c	-0.009259548
246	0xbd847a42	-0.06468631
247	0x3d867ce0	0.06566787
248	0xbcf869c6	-0.030323874
249	0x3e072ffb	0.13201897
250	0x3e11257e	0.14174458
251	0xbde3b50a	-0.11118515
252	0xbd80548b	-0.06266125
253	0xbe22d0fd	-0.15900035
254	0x3e28e60f	0.1649401
255	0xbdf385a0	-0.11890721

critic.0.bias f4 [64]
0	0x3e40c144	0.18823725
1	0x3dd93fd4	0.106078774
2	0xbdfaa897	-0.12239187
3	0xbe246a73	-0.16056232
4	0x3e35f796	0.17770228
5	0x3c1eed01	0.009700061
6	0x3de4c98c	0.111712545
7	0x3e3cd0cc	0.18439025
8	0xbd017d6d	-0.031613756
9	0x3c2b81cd	0.010467959
10	0x3e0fc4d2	0.14039925
11	0xbe3008ef	-0.17190908
12	0xbd25b524	-0.040455952
13	0x3e0e5ea0	0.13903284
14	0xbcbc7324	-0.023004122
15	0x3c93fd3c	0.018065087
16	0xbd02ae15	-0.0319043
17	0xbcd85693	-0.02640847
18	0xbe2cf590	-0.1689055
19	0xbd7efe1f	-0.062254068
20	0x3c52b513	0.012860554
21	0xbdb13c4f	-0.08654081
22	0xbe357525	-0.17720468
23	0xbcea47dd	-0.02859872
24	0x3e5dd66b	0.21663825
25	0xbd3ae73b	-0.045630675
26	0x3dbde1a8	0.09271556
27	0xbde4eb8c	-0.111777395
28	0xbb3302c0	-0.0027314872
29	0xbe0ef61f	-0.13961075
30	0xbd8ec949	-0.06971986
31	0x3e292247	0.16516982
32	0xbd0f659e	-0.03500902
33	0x3d15644a	0.036472596
34	0x3d8ee819	0.06977863
35	0xbe482c1f	-0.19548081
36	0xbe0d4ce7	-0.13798867
37	0xbcfce1e8	-0.03086944
38	0xbe2091e9	-0.1568066
39	0xbc39d3a2	-0.011341961
40	0x3dc90d8f	0.09817039
41	0x3c41701c	0.011806514
42	0xbe3c973c	-0.18417066
43	0xbe0e54fd	-0.13899608
44	0xbe06c80a	-0.13162246
45	0xbe4e16f2	-0.2012594
46	0xbe1cd2c5	-0.15314777
47	0x3b94bca3	0.004539089
48	0x3df80943	0.121111415
49	0x3d98ec38	0.0746693
50	0xbe280f66	-0.16412124
51	0xbe27be5c	-0.1638121
52	0x3dd0cbc1	0.10195113
53	0x3de6089f	0.11232113
54	0x3d95cafe	0.07314108
55	0xbd590e41	-0.05299211
56	0x3e1b634a	0.15174595
57	0xbd298652	-0.041387863
58	0xbe3a30d0	-0.18182683
59	0x3d5499be	0.051904432
60	0xbe1a985a	-0.1509718
61	0x3d9807ed	0.07423387
62	0xbe2302da	-0.15919057
63	0xbdad251a	-0.08454342

critic.2.weight f4 [32, 64]
0	0x3d92940a	0.071571425
1	0xbd9e4f40	-0.077299595
2	0xbd8f754d	-0.07004795
3	0xbcbc6293	-0.022996223
4	0x3d702f42	0.05863882
5	0xbd935889	-0.07194621
6	0xbdd86289	-0.10565669
7	0xbd2f8dd0	-0.042859852
8	0x3dbe78fc	0.0930042
9	0x3dc1b5ca	0.09458502
10	0xbdf78133	-0.1208519
11	0x3cd02799	0.025409507
12	0xbd95c82e	-0.07313572
13	0xbe03f6ad	-0.12887068
14	0xbd056b3f	-0.03257298
15	0x3e0009b9	0.12503709
16	0xbccb42bd	-0.024812097
17	0xbcdda724	-0.027057238
18	0xbdd44dad	-0.10366378
19	0x3dae163e	0.08500336
20	0x3dc0cc2b	0.09413942
21	0x3daacd75	0.08339969
22	0xbdd4d7a6	-0.10392694
23	0xbd25ad23	-0.04044832
24	0x3dbc520a	0.09195335
25	0x3dca66c2	0.09882881
26	0xbd959881	-0.073044784
27	0x3dc1eaa4	0.09468582
28	0x3d6bbb24	0.057551518
29	0xbdbeb982	-0.093127266
30	0x3daa600c	0.08319101
31	0xbc48861b	-0.0122390045
32	0x3c620fe2	0.013797732
33	0xbd70bbdd	-0.05877291
34	0x3ceb696f	0.028736798
35	0xbd8fc75e	-0.07020448
36	0xbc5ad743	-0.013356986
37	0xbc6ea9ec	-0.01456688
38	0xbdd5e4c7	-0.104440264
39	0x3dc9c0f4	0.09851256
40	0xbdbebce2	-0.0931337
41	0x3d971a9d	0.07378123
42	0x3c2d6b7d	0.010584709
43	0x3b9102ac	0.0044253673
44	0x3d3fb445	0.046802778
45	0x3dbcbc33	0.09215584
46	0xbdfcfee3	-0.12353303
47	0x3d7e6fd5	0.06211837
48	0xbd939c40	-0.07207537
49	0x3de39962	0.1111324
50	0xbd9d9e26	-0.0769618
51	0x3d9f2eeb	0.07772621
52	0xbdfaed35	-0.12252275
53	0xbbf7b30b	-0.0075591854
54	0x3d59dfd8	0.05319199
55	0x3e01ed1a	0.12688103
56	0x3ddcd840	0.10783434
57	0xbd7f54a1	-0.062336568
58	0xbdcb4b75	-0.09926502
59	0x3d02b65a	0.031912185
60	0x3dd157d3	0.10221829
61	0xbd519565	-0.051167864
62	0xbd36cbcb	-0.044627946
63	0xbd892610	-0.06696713
64	0x3daea8d3	0.085282944
65	0xbcab04dd	-0.020876342
66	0x3dc528ef	0.09626948
67	0xbca92000	-0.020645142
68	0x3dd01c9e	0.10161708
69	0x3c9081ec	0.017640077
70	0xbd85f822	-0.06541468
71	0x3c4d0263	0.012512776
72	0xbdb8459e	-0.089976534
73	0xbda3a36a	-0.07990153
74	0x3cbcedc0	0.023062587
75	0xbdc3f820	-0.095688105
76	0x3de63483	0.112404846
77	0x3de71e1d	0.112850405
78	0x3db7774b	0.089583
79	0xbc3e84f2	-0.011628376
80	0x3d9d42ba	0.07678743
81	0x3d810bdc	0.0630109
82	0xbcfeb500	-0.031092167
83	0x3cc71134	0.024300195
84	0xb9b612a7	-0.00034727642
85	0xbd279844	-0.040916696
86	0xbd84de1d	-0.06487677
87	0x3ddb4e0f	0.10708248
88	0xbd870aa2	-0.06593825
89	0xbd0906fb	-0.033453923
90	0xbda61992	-0.08110346
91	0x3db4d793	0.0883018
92	0xbdc47f25	-0.095945634
93	0xbd308060	-0.043091178
94	0x3bf397a3	0.007433848
95	0x3d4bbc75	0.049740274
96	0xbde2b34f	-0.11069357
97	0xbdbcc59a	-0.09217377
98	0xbdc35d15	-0.09539238
99	0x3dbc38c2	0.09190513
100	0x3d864e35	0.065578856
101	0xbd1c453e	-0.038151972
102	0x3ce7b1c9	0.028283017
103	0x3debc468	0.11512071
104	0x3d53dda0	0.05172503
105	0x3d5e8dde	0.054334514
106	0x3d6b3dc5	0.057431955
107	0xbdef1ac9	-0.11675031
108	0x3dae7d25	0.08519963
109	0xbded5346	-0.11588149
110	0x3dc197b4	0.09452763
111	0x3d23fcee	0.040036134
112	0xbde79e2c	-0.11309466
113	0xbcc5198e	-0.024060037
114	0xbd604176	-0.05474993
115	0xbde73e5d	-0.11291192
116	0xbdf37641	-0.118877895
117	0x3d3536ed	0.044241834
118	0xbd37ba9a	-0.04485569
119	0x3c1519e3	0.00910041
120	0x3dc2f7cb	0.09519919
121	0xbd691f7b	-0.056914788
122	0xbd83877f	-0.06422328
123	0x3d882f4b	0.066496454
124	0xbcefddfa	-0.029280651
125	0xbd449ce0	-0.04800117
126	0xbd958ef5	-0.073026575
127	0x3d3af800	0.045646667
128	0x3d5b06b2	0.053473182
129	0xbd8cb662	-0.06870724
130	0x3e0346c0	0.12819958
131	0xbd3511f0	-0.04420656
132	0xbc0761c9	-0.00826306
133	0xbcb24b1b	-0.021764329
134	0x3d261214	0.040544584
135	0x3d49e672	0.049292035
136	0xbd06ea08	-0.032938033
137	0xbddc7486	-0.107644126
138	0x3d9d179e	0.0767052
139	0xbdec5657	-0.115399055
140	0xbc639b02	-0.013891937
141	0x3dadf088	0.08493143
142	0x3d31e96c	0.0434355
143	0x3d84a49a	0.06476708
144	0x3d163dc8	0.036680013
145	0xbd396fc7	-0.045272615
146	0xbd415f9a	-0.047210313
147	0xbd8dfefa	-0.069333985
148	0x3c82dfad	0.015975798
149	0xbcf1b01e	-0.029502925
150	0xbd7697f7	-0.06020352
151	0x3c8a29c7	0.016865624
152	0x3db5962e	0.08866535
153	0xbd362c06	-0.044475578
154	0x3d04f03c	0.032455668
155	0x3ca8d82e	0.020610895
156	0x3ddac620	0.106823206
157	0xbd48b932	-0.04900474
158	0x3d04df68	0.03243962
159	0x3cd87823	0.026424473
160	0x3dbf07ed	0.093276836
161	0xbe102484	-0.1407643
162	0x3d8b42d6	0.06799857
163	0x3b8758cc	0.0041304585
164	0xbda0f284	-0.07858756
165	0x3d636cb3	0.055523586
166	0xbd0c6331	-0.034274284
167	0xbcfd4767	-0.030917836
168	0xbcf7c5d7	-0.030245705
169	0xbdda71fb	-0.10666271
170	0x3d6a79ba	0.057244994
171	0xbdb3206d	-0.08746419
172	0xbd00d8ac	-0.031456634
173	0x3cb2f3c1	0.021844747
174	0xbd0f349d	-0.034962285
175	0x3c680bb9	0.014162951
176	0x3bdace18	0.0066774003
177	0x3d861b1a	0.06548138
178	0x3d837085	0.06417946
179	0x3d828782	0.06373502
180	0x3dda652f	0.106638305
181	0x3c90e87f	0.017688988
182	0xbbe3d861	-0.0069532846
183	0xbdee152c	-0.11625132
184	0xbb7ca1e9	-0.0038548654
185	0xbc1619f7	-0.009161464
186	0x3dc7bb41	0.09752513
187	0x3dc812ce	0.09769212
188	0x3d3ae834	0.045631602
189	0xbd15ff7c	-0.036620602
190	0x3d89bf63	0.06725957
191	0x3d9006b1	0.07032526
192	0xbcb066f5	-0.021533469
193	0x3d955a62	0.0729263
194	0x3c40ce40	0.011767924
195	0xbdd41413	-0.10355391
196	0x3d2a735d	0.041613925
197	0xbd7cd663	-0.061727893
198	0xbd1aa4c4	-0.03775479
199	0x3d8ad0ea	0.067781284
200	0x3cbc21de	0.022965368
201	0xbdcae4f0	-0.099069476
202	0x3cfd40ff	0.030914782
203	0xbc81c79c	-0.015842251
204	0x3d28d5f6	0.041219674
205	0xbd509f21	-0.050933007
206	0xbd15492a	-0.036446728
207	0xbdcf55bc	-0.101237744
208	0x3c3c0c6f	0.011477574
209	0xbcf60f19	-0.030036496
210	0xbdb3395a	-0.08751173
211	0xbdfdd173	-0.12393465
212	0xbdc575fb	-0.096416436
213	0x3dda6278	0.10663313
214	0xbe06fc2d	-0.13182135
215	0xbdabb034	-0.083832175
216	0x3dc84374	0.09778491
217	0x3d4a4411	0.04938132
218	0x3c409a9d	0.011755613
219	0x3df8cd42	0.12148525
220	0x3dea54ef	0.11441981
221	0x3db60581	0.088877685
222	0x3d7e5384	0.062091365
223	0xbd16cac7	-0.036814477
224	0xbdbc4b87	-0.09194093
225	0x3da8e97e	0.0824766
226	0xbdf530d0	-0.11972201
227	0xbdaaa88e	-0.083329305
228	0xbdc0cdd2	-0.09414257
229	0x3e0e5662	0.1390014
230	0xbd3a93ab	-0.045550983
231	0x3dd222cd	0.10260544
232	0xbdb7f699	-0.08982582
233	0x3c8f8f5e	0.017524417
234	0x3db593e4	0.088660985
235	0x3d432e79	0.04765174
236	0x3db27412	0.08713545
237	0xbdcb3110	-0.09921467
238	0x3db662a0	0.0890553
239	0x3dcb0f57	0.09915035
240	0xbd6ce92f	-0.05783957
241	0x3d8c12b7	0.06839507
242	0x3de65a8c	0.11247739
243	0x3ddb55d8	0.10709733
244	0xbd91051c	-0.07081053
245	0x3cd6b8f9	0.026211249
246	0xbd60b0a0	-0.054855943
247	0xbd58e8f3	-0.052956533
248	0xbd20c90e	-0.03925424
249	0x3cd5854b	0.026064536
250	0x3dfccd4d	0.123438455
251	0xbd824677	-0.06361096
252	0xbcfde199	-0.030991362
253	0xbdb37c0c	-0.087638944
254	0x3d858a91	0.0652057
255	0x3d53ba1e	0.051691167

critic.2.bias f4 [32]
0	0xbd1f2b42	-0.038859613
1	0x3c8f576d	0.017497743
2	0xbdde464a	-0.1085325
3	0x3c111396	0.008854767
4	0x3da247c3	0.07923844
5	0xbdaa7029	-0.08322174
6	0x3d0cadaa	0.034345306
7	0xbdcf868c	-0.10133085
8	0xbc99c015	-0.01876835
9	0x3d9e5024	0.07730129
10	0x3d923291	0.07138551
11	0x3d6d3633	0.057913017
12	0x3de97843	0.11399891
13	0xbdbc06d6	-0.09180991
14	0x3db01ef1	0.085996516
15	0x3d1ba739	0.038001273
16	0xbdb120d6	-0.08648841
17	0xbd5ae6c5	-0.053442735
18	0xbd1b8a52	-0.03797371
19	0x3d9e2b9e	0.07723163
20	0x3d8b5d35	0.06804887
21	0x3d23af91	0.039962355
22	0xb88c2cc2	-6.684057e-05
23	0xbd724c9b	-0.059155088
24	0x3e0d0519	0.13771476
25	0x3b145c3e	0.0022637988
26	0x3da2d01f	0.07949852
27	0x3d81beae	0.063351974
28	0xbba97d2a	-0.0051723914
29	0x3ddc646d	0.10761342
30	0xbce1ec9c	-0.027578644
31	0x3df2183e	0.1182103

critic.4.weight f4 [1, 32]
0	0x3d4b2556	0.049596153
1	0x3db60b23	0.08888843
2	0xbe0e4f4d	-0.13897438
3	0xbd6b07d5	-0.057380516
4	0x3dac3665	0.084088124
5	0x39e434f9	0.00043527017
6	0x3e10d1ad	0.14142485
7	0x3e043218	0.12909734
8	0x39cf39bb	0.0003952513
9	0x3e1d8958	0.15384424
10	0x3dac8ad1	0.08424915
11	0xbda4f234	-0.08054009
12	0xbbf8dbb2	-0.007594549
13	0xbd2f5bd6	-0.04281219
14	0x3ca4a4c3	0.020098096
15	0xbdf773cb	-0.12082633
16	0x3e0214d6	0.12703261
17	0xbdcdac2d	-0.100426055
18	0xbd34d754	-0.044150665
19	0x3d815e5b	0.06316825
20	0xbca9f11b	-0.02074485
21	0xbdbb4c78	-0.09145445
22	0xbcba3745	-0.022731433
23	0xbd9bf2aa	-0.07614644
24	0xbd1a3478	-0.037647694
25	0x3de36506	0.11103253
26	0xbca274c1	-0.019831063
27	0xbcb36ae6	-0.02190156
28	0x3ddd16da	0.10795374
29	0xbdf517df	-0.11967444
30	0x3e11b417	0.14228855
31	0xbdbd0a2a	-0.09230454
