Policy Gradient/walker_ppo_model_old_100.pth (torch_old, 162157 bytes, 11 tensors)

actor.0.weight f4 [128, 24]
0	0x3e1f9bd7	0.15586792
1	0xbf3c9b3a	-0.73674357
2	0xbd3ee788	-0.046607524
3	0xbe872150	-0.26392603
4	0x3ec5b93d	0.38617888
5	0x3f1aeb07	0.60514873
6	0xbe215e4a	-0.15758625
7	0xbf1a4776	-0.6026529
8	0xbf49d980	-0.78847504
9	0xbe573688	-0.21016896
10	0x3da66c01	0.08126069
11	0xbe47169f	-0.19442223
12	0x3f818198	1.0117674
13	0x3f417781	0.75572973
14	0xbd70eac1	-0.05881763
15	0xbd0a99f0	-0.033838212
16	0x3bd7ed05	0.006589534
17	0xbe846a04	-0.25862134
18	0xbe8e8df8	-0.2784269
19	0xbe0c903c	-0.13726896
20	0x3d24a348	0.04019478
21	0xbda072a9	-0.0783437
22	0x3d5b18c1	0.053490404
23	0xbc884f7b	-0.016639462
24	0xbe2d0cda	-0.16899434
25	0xbe3ba936	-0.18326268
26	0x3e82f3e4	0.255767
27	0xbf9a177e	-1.2038419
28	0x3e010136	0.12598118
29	0x3f67751b	0.90413064
30	0x3f3f97da	0.7484108
31	0xbee400a7	-0.44531748
32	0xbe3588a8	-0.17727911
33	0x3f29e689	0.66367394
34	0x3e650167	0.22363816
35	0xbe817f06	-0.25292224
36	0xbef4a979	-0.47785547
37	0x3d30123a	0.042986132
38	0x3cc34309	0.023835676
39	0x3d4aa1bc	0.04947065
40	0x3e60b68a	0.21944633
41	0x3e273d49	0.16331972
42	0xbd62bd88	-0.055356532
43	0x3d5b2f22	0.053511746
44	0x3e75468f	0.23952697
45	0x3e9c7a2d	0.30561963
46	0x3dae86da	0.08521815
47	0x3dde5aec	0.10857186
48	0xbe2245d7	-0.15846954
49	0xbf4434a8	-0.7664285
50	0x3e058275	0.13038047
51	0xbe294209	-0.16529097
52	0x3f3cb264	0.737097
53	0x3e8aeda3	0.27134427
54	0x3d9b8eb9	0.075955816
55	0xbf3bdeb8	-0.73386717
56	0x3f4232fe	0.7585906
57	0xbe094397	-0.1340469
58	0x3e4ed9ff	0.20200346
59	0x3ee616e6	0.44939345
60	0x3c115158	0.0088694915
61	0x3f0d68dd	0.55238134
62	0x3f13dfa1	0.57763106
63	0x3ef12cb6	0.47104424
64	0x3ef0f75f	0.4706373
65	0x3f0c41e7	0.5478806
66	0x3f05ebb4	0.5231278
67	0x3f0dde43	0.5541727
68	0x3ef453c9	0.47720173
69	0x3e8d4dc9	0.27598408
70	0x3ed0d73a	0.40789205
71	0x3e9fcbd1	0.31210187
72	0xbf42fe4b	-0.7616927
73	0x3f8006c7	1.0002068
74	0xbef427b5	-0.47686544
75	0x3f68c14f	0.90919966
76	0xbf110234	-0.56643987
77	0xbeaf0ec4	-0.34190953
78	0xbee5611d	-0.44800654
79	0xbee6de01	-0.4509125
80	0x3e7a2dd8	0.2443155
81	0xbe99f4fe	-0.30069727
82	0xbe963167	-0.29334566
83	0x3fa131bd	1.2593304
84	0x3eb310cf	0.3497376
85	0xbe730cac	-0.23735303
86	0xbe80c154	-0.25147498
87	0xbededd9f	-0.43528458
88	0xbe015e08	-0.12633526
89	0xbebaf10c	-0.3651203
90	0xbef9255d	-0.48661318
91	0xbe438a24	-0.19095665
92	0xbebd0a3d	-0.36921874
93	0xbecc42a0	-0.3989458
94	0xbe0811cf	-0.13288043
95	0x3c185334	0.009297181
96	0xbe081963	-0.13290934
97	0x3f1441c4	0.5791285
98	0x3e6242d0	0.220958
99	0x3f1b2edb	0.6061837
100	0xbdfa3859	-0.12217779
101	0x3e3346c1	0.17507459
102	0xbed27e87	-0.41112158
103	0xbeed5293	-0.46352062
104	0xbd4011e0	-0.046892047
105	0x3f1ce7e7	0.61291355
106	0x3eba2b33	0.36361083
107	0xbf4f98bc	-0.8109243
108	0x3e8aaa8a	0.27083236
109	0xbf08f7ca	-0.53503096
110	0xbe408786	-0.18801698
111	0x3d3fafbb	0.04679845
112	0xbdca1170	-0.09866607
113	0xbe6e1438	-0.232499
114	0xbd6ee625	-0.05832495
115	0xbe04f02b	-0.12982242
116	0xbdeabb2e	-0.11461483
117	0x3d5c41d9	0.053773735
118	0xbd89eb4f	-0.06734335
119	0xbea87982	-0.32905203
120	0x3fd2792f	1.6443232
121	0x3ee6db04	0.4508897
122	0xbeb5a128	-0.35474515
123	0xbf0058b9	-0.5013538
124	0xbe169a6a	-0.14707342
125	0x3f088ada	0.5333687
126	0xbf402f5f	-0.7507228
127	0xbe64e939	-0.22354592
128	0xbed69a61	-0.41914657
129	0x3b9534e9	0.0045534265
130	0x3edcec3e	0.43148988
131	0xbfebc1cb	-1.8418516
132	0x3dd9df3c	0.10638282
133	0xbecb9fa0	-0.39770222
134	0xbd24746a	-0.040150084
135	0xbdbb535f	-0.09146761
136	0xbe572c44	-0.2101298
137	0x3df1cc9d	0.11806605
138	0xbdbcd64c	-0.092205614
139	0x3ce0813f	0.02740538
140	0xbe130eef	-0.14361165
141	0xbe5aa735	-0.21352847
142	0xbe6809a9	-0.22659935
143	0x3e101c50	0.140733
144	0xbe7f03c6	-0.24903783
145	0xbfa76090	-1.3076344
146	0xbec083a5	-0.37600437
147	0xbd3907f0	-0.045173585
148	0xbc530fc4	-0.012882177
149	0x3e80d803	0.25164804
150	0xbde28535	-0.110605635
151	0x3f94993b	1.1609262
152	0xbe873852	-0.26410156
153	0x3db9f3a8	0.09079677
154	0x3f7cbdd3	0.9872715
155	0x3ec22b5f	0.37923715
156	0xbf1570c1	-0.58375174
157	0x3ee30ee1	0.4434729
158	0x3e207faa	0.156737
159	0x3d7d586a	0.061851896
160	0x3e0b530c	0.13605899
161	0x3df13b32	0.11778869
162	0x3d5eb28e	0.0543695
163	0x3c9602f7	0.01831196
164	0xbb9a8ed4	-0.0047167335
165	0x3de20c8b	0.11037549
166	0xbe8300b1	-0.25586465
167	0xbe896818	-0.2683723
168	0xbf871c36	-1.0555484
169	0xbf54f3cc	-0.83184505
170	0xbe0f3edd	-0.13988824
171	0xbf0108b8	-0.5040393
172	0x3f165d28	0.58735895
173	0x3d0a91ae	0.033830337
174	0x3e6ea687	0.23305713
175	0x3e3264eb	0.1742131
176	0xbe893370	-0.26797056
177	0xbd173b48	-0.03692177
178	0x3e871e0c	0.2639011
179	0x3f770f10	0.9650736
180	0x3ede5257	0.43422195
181	0x3ed3a6ea	0.41338283
182	0x3e9ece90	0.3101697
183	0x3e90b1d1	0.28260663
184	0x3e6ebcae	0.23314163
185	0x3ccb068a	0.024783392
186	0x3db186e0	0.086683035
187	0x3ed2d35f	0.41176888
188	0x3e5cc8a1	0.21560909
189	0x3e9ba8ce	0.30402225
190	0x3e268bc2	0.16264251
191	0x3d3bf933	0.04589195
192	0x3f534c9b	0.82538766
193	0xbf70a7d8	-0.9400611
194	0xbebbfef4	-0.3671795
195	0x3e969bd6	0.29415768
196	0xbdd5887a	-0.104264215
197	0xbf59891b	-0.8497483
198	0xbe283ccc	-0.16429442
199	0x3f105b3e	0.56389225
200	0xbf5a1de1	-0.8520184
201	0xbef845bb	-0.484907
202	0x3efc984d	0.49334946
203	0x3d66e53f	0.05637097
204	0xbbdf8fcc	-0.006822562
205	0x3f68e3f0	0.90972805
206	0x3dff7d2b	0.12475046
207	0x3dd22307	0.10260587
208	0x3ccc20d8	0.024918005
209	0x3e500209	0.20313276
210	0x3df8af9b	0.12142869
211	0x3c5d94d6	0.013524255
212	0x3d9a77b2	0.07542361
213	0x3dd5abe1	0.10433174
214	0xbe17312a	-0.14764848
215	0x3d418779	0.047248337
216	0x3eeb7900	0.45990753
217	0x3f5aa1ce	0.85403144
218	0x3e5bfc2d	0.21482916
219	0xbe5fc876	-0.21853814
220	0xbe923f0d	-0.2856373
221	0x3e2d77a5	0.16940172
222	0xbe961461	-0.29312423
223	0x3e380d30	0.1797378
224	0xbf7df5f4	-0.9920342
225	0x3c1d234d	0.009590936
226	0xbed5c5c4	-0.41752446
227	0xbf0d3227	-0.5515465
228	0xbe53c73d	-0.20681472
229	0xbff11875	-1.8835589
230	0x3e06fe28	0.1318289
231	0x3ebaca15	0.364823
232	0x3ec49e8f	0.3840222
233	0x3ea0164e	0.31267017
234	0x3ea17af4	0.31539118
235	0x3e931cc6	0.2873289
236	0x3e9e0f73	0.30871162
237	0x3e2e31dd	0.17011209
238	0x3eabb334	0.3353516
239	0xbd923096	-0.07138173
240	0x3e9ef6d0	0.31047678
241	0x3e6c394e	0.23068735
242	0xbe194733	-0.14968567
243	0x3dd50270	0.104008555
244	0x3ec7084b	0.38873515
245	0x3f300d04	0.6876986
246	0xbd47dc22	-0.04879392
247	0xbf0d59c9	-0.55215126
248	0x3e904d43	0.28183946
249	0xbf28459c	-0.65731215
250	0xbf6785cf	-0.9043855
251	0xbf0da047	-0.5532269
252	0x3f37954e	0.71712196
253	0x3f05ece4	0.5231459
254	0xbd7db69f	-0.06194174
255	0xbe6094ba	-0.21931735

actor.0.bias f4 [128]
0	0x3da569bf	0.0807681
1	0xbdd4efc9	-0.10397298
2	0x3ea63efa	0.32469922
3	0xbeb75df7	-0.35813877
4	0xbe00ad7e	-0.12566182
5	0xbe2662c4	-0.16248614
6	0xbe6fbf06	-0.23412713
7	0x3da6bdd9	0.08141679
8	0xbd5a5dba	-0.05331204
9	0x3d56fd93	0.05248792
10	0x3ec35532	0.38150936
11	0xbdb0bedb	-0.08630153
12	0x3cfc3328	0.030786112
13	0x3e2064c5	0.1566344
14	0xbe5cdffc	-0.21569818
15	0x3cdaaba6	0.026693176
16	0xbd9df5f0	-0.077129245
17	0xbe4f6ee4	-0.20257145
18	0x3eed4a89	0.46345928
19	0x3dcc8066	0.099854276
20	0x3d9d09dc	0.07667896
21	0x3e12438f	0.14283584
22	0xbe0e8330	-0.13917232
23	0xbc3bc794	-0.011461157
24	0x3ea6967e	0.3253669
25	0xbe6ab1fe	-0.22919461
26	0x3e5c57d9	0.21517886
27	0xbdf9f193	-0.1220428
28	0x3eb9f8b4	0.36322558
29	0xbe2c7aad	-0.16843672
30	0x3e160687	0.14650927
31	0x3e2a886a	0.166536
32	0x3e4eecbe	0.20207497
33	0xbd971802	-0.07377626
34	0x3be9d9f9	0.00713658
35	0x3f1808fe	0.5938872
36	0xbd3e53d0	-0.04646665
37	0xbe1aa457	-0.15101753
38	0xbd6da301	-0.05801678
39	0x3e5fc8ed	0.21853991
40	0xbe097bcf	-0.13426135
41	0x3df8ecc3	0.12154534
42	0xbd5f8cdd	-0.054577697
43	0xbdd33198	-0.10312194
44	0xbd8d6d7b	-0.06905647
45	0x3d2d9da3	0.042386662
46	0xbe604c1f	-0.21904038
47	0xbd37b2a7	-0.04484811
48	0xbe290ed9	-0.1650957
49	0x3df1fac6	0.11815409
50	0x3ea806ab	0.32817587
51	0x3d9a18d8	0.0752427
52	0xbe4ab3b6	-0.19795117
53	0xbe9a333d	-0.30117217
54	0x3e651054	0.2236951
55	0xbe117702	-0.14205554
56	0xbe65e60b	-0.22451036
57	0xbdad2305	-0.08453945
58	0xbdf9754b	-0.12180575
59	0x3e3850a6	0.17999515
60	0x3d589a76	0.05288168
61	0xbd9710e5	-0.07376269
62	0x3e3f30c3	0.18670945
63	0xbe8d7a31	-0.27632287
64	0x3eabe520	0.33573246
65	0xbe26506e	-0.16241619
66	0x3dec496c	0.115374416
67	0x3e3f931e	0.18708465
68	0x3eae69c3	0.34065065
69	0xbccbbeca	-0.024871249
70	0xbeec45e1	-0.46147063
71	0xbd599150	-0.053117096
72	0x3caf253d	0.021380061
73	0x3e11a582	0.14223292
74	0x3d45439b	0.048160177
75	0xbe0039a8	-0.12521994
76	0x3de4757f	0.11155223
77	0xbd90ba5d	-0.07066796
78	0x3e4d7e37	0.20067678
79	0x3e9c793a	0.3056124
80	0x3e8d59ca	0.27607566
81	0xbda0665a	-0.07832022
82	0xbeb56ce4	-0.3543464
83	0xbd5e3fe6	-0.054260157
84	0x3e9c51be	0.30531114
85	0xbe012035	-0.12609942
86	0x3e72bd5b	0.23705046
87	0xbde2c626	-0.1107295
88	0xbd71bda9	-0.059018765
89	0x3e5c1ef8	0.21496189
90	0x3d31de68	0.043424994
91	0x3e695a6d	0.22788401
92	0xbedc9826	-0.4308483
93	0x3de5aad9	0.11214227
94	0xbda1e330	-0.07904661
95	0xbe72952a	-0.23689714
96	0xbed16caf	-0.40903232
97	0x3ee414b8	0.44547057
98	0xbe2ca56a	-0.16859975
99	0xbdae68e3	-0.08516099
100	0xbebad57a	-0.36490995
101	0x3d8fcc8b	0.07021435
102	0x3d034a42	0.03205324
103	0x3e27cc67	0.16386567
104	0x3e441111	0.19147135
105	0xbdadc777	-0.084853105
106	0x3ecebbbe	0.4037761
107	0xbe956ca1	-0.2918444
108	0xbed0750e	-0.40714306
109	0x3d2da958	0.042397827
110	0x3e29ef0a	0.16595092
111	0x3e713b14	0.23557693
112	0xbe80bdd7	-0.25144836
113	0x3e706d6a	0.23479238
114	0x3d8b446f	0.06800162
115	0xbdd86c6e	-0.10567556
116	0xbcc5464d	-0.024081374
117	0xbe41786f	-0.18893598
118	0x3c449f3e	0.012000857
119	0x3c64d296	0.013966223
120	0x3dccc5bc	0.09998652
121	0xbea641a3	-0.32471952
122	0xbd4385cb	-0.047735017
123	0xbeadb9aa	-0.33930713
124	0xbcbd2687	-0.02308966
125	0xbe2c530c	-0.16828555
126	0x3eb012db	0.34389386
127	0xbb4f1573	-0.0031598478

actor.2.weight f4 [128, 128]
0	0xbe805c52	-0.25070435
1	0xbecffeaa	-0.4062398
2	0xbed6bf58	-0.4194286
3	0xbd7e1c1c	-0.062038526
4	0x3e99bd4d	0.30027238
5	0x3f456985	0.77114135
6	0x3f333910	0.70008945
7	0xbea9b3c8	-0.33144975
8	0x3f09bb47	0.5380139
9	0xbea3f232	-0.32020718
10	0xbe0f2b93	-0.13981466
11	0x3f22488c	0.6339195
12	0xbd0296f3	-0.031882238
13	0x3e195edf	0.14977597
14	0xbf0b7e87	-0.5448994
15	0x3ea310f9	0.31848887
16	0xbf863551	-1.0485021
17	0x3d821796	0.06352155
18	0x3e997119	0.299691
19	0xbf11143f	-0.5667152
20	0xbf58e769	-0.84728104
21	0xbd84cacb	-0.06483992
22	0x3e243b90	0.16038346
23	0xbf033e0b	-0.51266545
24	0xbf4af774	-0.79283834
25	0xbf34ef34	-0.70677495
26	0xbdb91238	-0.09036678
27	0x3e87d589	0.26530102
28	0x3d9e73ef	0.07736956
29	0x3d93837f	0.07202815
30	0xbf4e85c2	-0.8067285
31	0xbe8785d1	-0.2646928
32	0x3e957809	0.29193142
33	0x3f6f6a71	0.9352179
34	0x3eac1197	0.3360717
35	0xbf16e9d9	-0.58950573
36	0x3d5f63bc	0.054538473
37	0x3dd3520c	0.103183836
38	0xbd5b467d	-0.05353402
39	0x3c39f3a0	0.011349589
40	0xbedd79a1	-0.43256858
41	0x3c956904	0.018238552
42	0xbeb8aec5	-0.3607084
43	0x3f1e154d	0.6175125
44	0x3e944a44	0.2896291
45	0xbcf4d38d	-0.029886032
46	0xbf17c1cc	-0.59280086
47	0x3dcb4a4a	0.09926279
48	0xbe35f545	-0.17769344
49	0x3f1a0b9c	0.60173965
50	0x3e247cfe	0.16063306
51	0x3db33f6b	0.087523304
52	0xbe1530e4	-0.14569432
53	0x3e1eba04	0.15500647
54	0x3ec8343b	0.3910235
55	0x3c6e8a25	0.014559303
56	0x3e8988f6	0.26862305
57	0xbeca4c9d	-0.39511576
58	0xbd0555c6	-0.032552503
59	0x3efef0c0	0.49793053
60	0x3ed8d9b3	0.4235359
61	0x3f206102	0.6264802
62	0x3eb8a70f	0.36064956
63	0x3ea68a4b	0.32527384
64	0xbe2df5fd	-0.16988368
65	0x3d85b7c8	0.06529194
66	0x3ea9447f	0.3306007
67	0xbe3ffc25	-0.1874853
68	0x3f8c9298	1.0982237
69	0x3e91b414	0.284577
70	0xbe3b8566	-0.18312606
71	0xbe9026f6	-0.28154725
72	0x3e1f33d5	0.15547116
73	0xbf950fe3	-1.1645473
74	0xbde4c105	-0.11169628
75	0xbf524fb5	-0.82152873
76	0x3ea1b4a0	0.31583118
77	0x3d98d5cc	0.074626535
78	0xbd996990	-0.074908376
79	0xbf60b650	-0.87778187
80	0x3f4c2bd0	0.7975435
81	0xbe084acb	-0.13309781
82	0xbdfc0dc7	-0.12307315
83	0x3e45f38c	0.19331187
84	0xbf517959	-0.81825787
85	0xbe438ecf	-0.19097446
86	0xbe919a4d	-0.28438035
87	0x3e8900cd	0.26758423
88	0xbe8e2ea2	-0.27769953
89	0xbe137558	-0.14400232
90	0xbdc2fcda	-0.09520884
91	0xbcdefaf4	-0.027219273
92	0xbe88827c	-0.26662052
93	0x3e76c892	0.24099949
94	0x3de9f0a7	0.11422854
95	0x3cf571d4	0.029961504
96	0xbe9a1e8e	-0.30101436
97	0x3f07fd80	0.53121185
98	0xbd2e7a28	-0.042596966
99	0x3c19b420	0.009381324
100	0x3efdcab5	0.49568716
101	0xbe5b6046	-0.21423444
102	0xbdbadbe7	-0.09123974
103	0xbe99a399	-0.30007628
104	0xbc69b337	-0.01426392
105	0x3ec55079	0.38537958
106	0xbee252dd	-0.44203845
107	0xbddb22fb	-0.10700031
108	0xbf12c8aa	-0.5733744
109	0x3d8fec76	0.07027523
110	0xbe81d81e	-0.25360197
111	0x3ed8fa71	0.42378572
112	0xbe22d019	-0.15899695
113	0xbeff2387	-0.49831793
114	0x3e87f5f8	0.26554847
115	0x3f33154a	0.6995436
116	0x3dfab534	0.12241593
117	0x3dd98ca8	0.10622531
118	0xbd6d6b5d	-0.057963718
119	0xbdfbfe24	-0.12304333
120	0x3ce3d582	0.02781177
121	0xbe833101	-0.25623325
122	0xbeb9d2a3	-0.36293516
123	0x3eefc6ff	0.4683151
124	0x3e36cb0a	0.17850891
125	0xbd9f63f9	-0.0778274
126	0x3f025be8	0.5092149
127	0x3ec3380f	0.38128707
128	0xbf04e6a8	-0.51914454
129	0x3f1e3bd0	0.61810017
130	0x3da1c7ca	0.07899435
131	0xbe644695	-0.2229255
132	0x3cda5e89	0.026656406
133	0x3ed3fb0b	0.41402468
134	0x3e2d5e39	0.16930474
135	0xbf3a481e	-0.7276629
136	0xbd319ba7	-0.043361332
137	0x3f08e63a	0.534763
138	0xbf1e762c	-0.61899066
139	0xbbe06959	-0.006848496
140	0xbee23403	-0.44180307
141	0x3f415bbd	0.75530607
142	0xbe80c49d	-0.25150004
143	0xbe74fada	-0.23923817
144	0x3e1ab467	0.1510788
145	0xbe874185	-0.26417175
146	0x3d824efc	0.06362721
147	0xbe21bac6	-0.15793905
148	0xbdfd779b	-0.123763286
149	0x3da98237	0.0827679
150	0x3eb27cb8	0.34860778
151	0x3dc2b9fc	0.0950813
152	0xbd485c79	-0.048916314
153	0xbf1c70c3	-0.6110956
154	0xbba4ff30	-0.0050353035
155	0xbf587f2a	-0.84569037
156	0xbe684366	-0.2268196
157	0xbf133640	-0.57504654
158	0xbf310092	-0.69141495
159	0x3ed10b0d	0.40828744
160	0xbe446c4c	-0.19181937
161	0x3e17eb07	0.1483575
162	0x3eb3611c	0.35035026
163	0xbd571112	-0.052506514
164	0xbe235340	-0.15949726
165	0x3e79b3c5	0.24384983
166	0xbf488c78	-0.7833934
167	0xbf07d0dd	-0.53053075
168	0x3d6e3b7d	0.0581622
169	0x3ec03cfe	0.37546533
170	0x3e4ca505	0.19984825
171	0x3f16294d	0.5865677
172	0xbee060f7	-0.43823978
173	0xbea17177	-0.3153188
174	0xbe305109	-0.17218412
175	0x3e0b7b85	0.13621338
176	0xbdb6332b	-0.08896478
177	0xbe0f4d6e	-0.13994381
178	0x3ea1c403	0.31594858
179	0x3ddae037	0.10687297
180	0xbe954bcf	-0.291594
181	0x3e9e96d5	0.3097445
182	0x3f36a333	0.7134277
183	0xbeda8c21	-0.42685035
184	0xbeac8223	-0.33693036
185	0xbf1d98e6	-0.6156143
186	0xbec5ce3d	-0.3863391
187	0x3f4f5e94	0.8100369
188	0xbdefcae8	-0.11708623
189	0x3dbf5c39	0.09343762
190	0x3f3cd687	0.7376484
191	0xbedcf03d	-0.43152037
192	0x3c24ddac	0.010062616
193	0xbe1b91cc	-0.15192336
194	0xbf0d1d4f	-0.55122846
195	0xbcac5f55	-0.021041552
196	0xbf2d86cd	-0.67783815
197	0x3eee1f4f	0.46508262
198	0x3d489489	0.04896978
199	0x3ee03446	0.4378988
200	0x3c2fe81d	0.010736492
201	0x3e147b94	0.14500266
202	0xbdacc257	-0.08435505
203	0x3e12a382	0.14320186
204	0x3f13bf7e	0.5771407
205	0xbe7d4496	-0.24733195
206	0xbe8029ca	-0.25031883
207	0xbf0db79c	-0.5535829
208	0xbeca131c	-0.39467704
209	0x3f0dea70	0.5543585
210	0xbf25376a	-0.6453768
211	0x3e697534	0.22798616
212	0xbef96d5f	-0.48716256
213	0x3e3711e6	0.17877921
214	0xbee943b3	-0.45559463
215	0x3ee31a30	0.44355917
216	0xbd8bb752	-0.06822075
217	0xbebd7471	-0.370029
218	0xbe717645	-0.23580272
219	0x3ba363af	0.0049862484
220	0x3e1697a8	0.1470629
221	0x3eb05278	0.3443792
222	0x3e221464	0.15828091
223	0x3e4310f8	0.19049442
224	0xbe6b39c1	-0.2297125
225	0xbe5f64f9	-0.21815862
226	0x3e1e524b	0.1546108
227	0xbf0a2476	-0.53961885
228	0x3f0ae28f	0.5425195
229	0x3e93d30c	0.28871953
230	0x3d8f0a07	0.069843344
231	0xbf3be0a8	-0.73389673
232	0xbf96074f	-1.172098
233	0x3f56726d	0.8376835
234	0x3e4a6cb2	0.19768026
235	0xbf311cae	-0.69184387
236	0x3d929bb7	0.071586065
237	0xbe8ba02b	-0.27270636
238	0xbf013c01	-0.50482184
239	0x3ee4fb41	0.44722942
240	0x3f87326e	1.0562265
241	0xbf22e212	-0.63626206
242	0x3ea4d319	0.32192305
243	0xbded12a7	-0.11575823
244	0x3cefd076	0.029274207
245	0xbe99ca37	-0.3003709
246	0x3e913d3b	0.28367028
247	0xbeaed07d	-0.3414344
248	0xbf2103ae	-0.6289624
249	0xbf0f74d3	-0.56037635
250	0xbe3b7ef2	-0.18310145
251	0x3f2dfe0f	0.6796579
252	0xbf2ffaea	-0.6874224
253	0xbf2d1ee0	-0.67625237
254	0xbe8fc431	-0.2807937
255	0xbf02e580	-0.5113144

actor.2.bias f4 [128]
0	0xbcf397ec	-0.029735528
1	0xbe27c1df	-0.1638255
2	0x3d660ce6	0.056164645
3	0x3ea8ff08	0.33007073
4	0xbe601f0a	-0.2188684
5	0xbe8876ee	-0.26653236
6	0xbed30448	-0.41214204
7	0xbe8c06b5	-0.27348867
8	0x3ea40e9f	0.32042405
9	0xbd40125e	-0.046892516
10	0xbe9a5732	-0.3014465
11	0x3f01d26c	0.50711703
12	0x3edd82f2	0.43263966
13	0xbe81dac2	-0.2536221
14	0xbe6fbbb3	-0.23411445
15	0x3da651ab	0.08121046
16	0xbf1a8fb9	-0.60375553
17	0xbc9850c2	-0.018593196
18	0x3e91caee	0.28475136
19	0xbf30397a	-0.688377
20	0x3e6e0d71	0.23247315
21	0xbef5d34f	-0.48012778
22	0x3ef9008b	0.48633227
23	0xbeb12070	-0.3459506
24	0xbd3cce3d	-0.04609512
25	0xbe319208	-0.17340863
26	0x3e010739	0.12600411
27	0xbec1546c	-0.3775972
28	0x3cd9c2f6	0.026582222
29	0x3e8d606a	0.2761262
30	0xbe56c30e	-0.20972845
31	0x3e3a8975	0.18216498
32	0xbdabe5d4	-0.083934456
33	0xbe1553f7	-0.14582811
34	0xbca1a881	-0.01973367
35	0xbe578680	-0.21047401
36	0x3f12f0a3	0.5739843
37	0x3e098c0d	0.13432331
38	0xbe207fad	-0.15673704
39	0x3e94c973	0.29059944
40	0xbdc5c83b	-0.096573316
41	0xbe2a7204	-0.16645056
42	0x3ef04ce3	0.4693366
43	0x3e17d12c	0.14825886
44	0xbdc2fc14	-0.09520736
45	0xbe6e8041	-0.23291112
46	0xbee3df57	-0.44506332
47	0xbe9df7fb	-0.30853257
48	0x3ea72ddc	0.32652175
49	0x3e23659c	0.1595673
50	0x3e29b7f1	0.16574074
51	0xbbf41f6a	-0.007450034
52	0xbe73a92d	-0.23795004
53	0xbef84bd7	-0.4849536
54	0xbec950e8	-0.3931954
55	0x3e8d5b0d	0.2760853
56	0x3dc83752	0.097761765
57	0x3e63e542	0.22255424
58	0x3e30fd08	0.17284024
59	0x3d9bff8b	0.076171
60	0xbeaf715c	-0.34266174
61	0x3e7d2ee7	0.24724923
62	0xbe6ab29a	-0.22919694
63	0xbe5dca9f	-0.21659325
64	0x3d918f00	0.07107353
65	0xbda3db75	-0.080008425
66	0xbd205658	-0.039144844
67	0xbe1d70ff	-0.15375136
68	0x3d79f17c	0.061021313
69	0xbe32c735	-0.17458804
70	0x3e978b42	0.29598433
71	0x3e8f5705	0.27996078
72	0x3e10bb7f	0.14134024
73	0xbcbabf7b	-0.022796383
74	0x3ec18b1a	0.3780144
75	0x3ddba3d3	0.10724606
76	0xbf019167	-0.5061249
77	0x3e3104ee	0.17287037
78	0x3f0a837e	0.5410689
79	0xbe98cfda	-0.29846078
80	0x3e226046	0.15857038
81	0xbda889d3	-0.08229413
82	0x3e02a8ac	0.12759656
83	0xbe3d392e	-0.18478844
84	0x3e72ae01	0.2369919
85	0xbe3bd18d	-0.18341656
86	0xbe978f83	-0.29601678
87	0x3d864ae5	0.06557254
88	0x3d0efafd	0.03490733
89	0x3e24bba4	0.16087204
90	0xbc42d749	-0.011892148
91	0x3bd7e621	0.006588713
92	0x3e1beb82	0.15226558
93	0x3e73beca	0.23803249
94	0x3e895b40	0.2682743
95	0x3dc158d4	0.09440771
96	0xbdd07989	-0.10179431
97	0xbe599c5f	-0.21251057
98	0x3ec67678	0.3876226
99	0x3e046348	0.12928498
100	0xbe827be6	-0.25485152
101	0x3e492098	0.1964134
102	0x3e3a0df1	0.1816938
103	0xbe2ed1c5	-0.17072208
104	0x3ea94fcc	0.33068693
105	0xbe21b4a6	-0.15791568
106	0xbed3b7cc	-0.41351163
107	0x3e549050	0.20758176
108	0xbeab6761	-0.3347731
109	0xbe48b5f1	-0.19600655
110	0x3eb99b45	0.36251274
111	0xbeb94136	-0.36182564
112	0xbf0e8632	-0.55673516
113	0x3edb2765	0.42803493
114	0xbe67499a	-0.2258667
115	0xbdf6377b	-0.12022301
116	0xbdb9aaf4	-0.0906581
117	0x3ea357f5	0.31903043
118	0xbe3dfa0a	-0.18552414
119	0xbc680104	-0.014160398
120	0xbe963d21	-0.29343513
121	0x3ef12c6f	0.47104213
122	0x3e81abb1	0.25326303
123	0xbf1f6977	-0.622703
124	0xbedaefb2	-0.42760998
125	0x3e604944	0.21902949
126	0x3cccf4d4	0.025019087
127	0xbe00059b	-0.12502138

actor.4.weight f4 [4, 128]
0	0xbec84839	-0.39117602
1	0x3d2e0f07	0.0424948
2	0x3e9aa708	0.3020556
3	0x3f493fa1	0.78612715
4	0xbf3170f2	-0.69312966
5	0x3e37f4ba	0.1796445
6	0xbe884f88	-0.26623178
7	0x3e61b141	0.22040273
8	0x3f398944	0.72475076
9	0x3eb1006f	0.34570643
10	0xbf5c7009	-0.8610845
11	0x3f13a622	0.57675374
12	0xbf6cc177	-0.92482704
13	0x3c44faeb	0.012022714
14	0xbe7718a2	-0.2413049
15	0xbf552f7b	-0.83275574
16	0xbd0d5bc9	-0.03451136
17	0xbebaec42	-0.36508375
18	0x3ff53f2c	1.9159904
19	0xbe289335	-0.16462405
20	0x3d0fdb34	0.035121158
21	0xbed54571	-0.41654542
22	0x3f597257	0.84940094
23	0xbf1a94a3	-0.6038305
24	0xc04230d3	-3.03423
25	0x3e1cc7f4	0.15310651
26	0x3f5cc832	0.86242974
27	0xbea35949	-0.31904057
28	0x3da45237	0.08023494
29	0x3f99e945	1.2024313
30	0x3fac133c	1.344337
31	0xbee8bcfc	-0.45456684
32	0x3df019b2	0.11723651
33	0xc0161026	-2.3447356
34	0x3f0eec83	0.5582964
35	0xbeb7a735	-0.35869756
36	0x3eeb918c	0.4600948
37	0x3d29416c	0.041322157
38	0x3d74363b	0.05962203
39	0xbe68f319	-0.22748984
40	0xbfa95f07	-1.3232125
41	0x3f736ecd	0.95090944
42	0xbe861ec6	-0.26195353
43	0xbc0a8f60	-0.008457035
44	0x3e96b1b4	0.29432452
45	0x3f23b5a6	0.6394905
46	0x3d798ad1	0.0609234
47	0x3e9aee5a	0.30259973
48	0xbf968e4a	-1.1762173
49	0x3eff2718	0.49834514
50	0xbe867236	-0.2625901
51	0x3e14884e	0.14505121
52	0x3e6933a6	0.22773609
53	0x3cac3c17	0.021024747
54	0xbf5c279d	-0.85997945
55	0xbe0331d3	-0.12811975
56	0x3ebdbf84	0.37060177
57	0x3f3233d7	0.6961035
58	0xbf5d20b4	-0.86378026
59	0xbf270824	-0.65246797
60	0x40034019	2.0507872
61	0x3f215a21	0.6302815
62	0xbf35f2c3	-0.7107355
63	0xbf16c3b9	-0.588924
64	0xbff0ab82	-1.880234
65	0x3f6ad342	0.91728604
66	0xbec63876	-0.3871495
67	0x3cd1d0d2	0.025612269
68	0xbcbea193	-0.023270404
69	0x3e7230f3	0.23651485
70	0x3ec5c3c1	0.3862591
71	0xbedf947d	-0.43667975
72	0x3f57b7e9	0.84265
73	0xbf99cca3	-1.2015575
74	0x401b6c97	2.4285028
75	0xbf892e67	-1.0717286
76	0x3e3b7d08	0.18309414
77	0xbf971e23	-1.1806072
78	0x3e17d1ab	0.14826076
79	0x3de7d933	0.11320724
80	0x3f717afa	0.9432827
81	0x3f14d8f6	0.58143556
82	0x3f12096f	0.57045645
83	0xbf204915	-0.62611514
84	0x3f651512	0.89485276
85	0xbdf42a65	-0.119221486
86	0xbdaaeef5	-0.08346359
87	0xbf1bce9e	-0.6086215
88	0x3f2d0ced	0.6759785
89	0xbe00962b	-0.12557285
90	0xbf3a2eef	-0.72727865
91	0xc037c16f	-2.8711812
92	0xbec0580d	-0.37567177
93	0x3e9fb95b	0.31196102
94	0xc0329326	-2.7902312
95	0x3f15ee71	0.5856696
96	0x3e7d308d	0.24725552
97	0xbefc0ab5	-0.4922692
98	0xbf06bd7a	-0.5263287
99	0xbf1f3e09	-0.62204033
100	0x3f0ac846	0.54211843
101	0x3f48ee1b	0.7848832
102	0x3fedb403	1.857056
103	0x3dedba33	0.1160778
104	0xbf167068	-0.5876527
105	0x3e2d2e56	0.16912207
106	0xbe8ac915	-0.27106538
107	0x3f8719ba	1.0554726
108	0xbf170e96	-0.5900663
109	0xbeb16161	-0.34644607
110	0xbdc4c7a5	-0.09608392
111	0x3f441430	0.76593304
112	0xbd888ba7	-0.066672616
113	0xbdd33f6c	-0.10314831
114	0x3e47d194	0.19513541
115	0xc056b1c3	-3.3545997
116	0x3c22ef0b	0.009944688
117	0x3f1b0b03	0.6056368
118	0xbf0978f6	-0.53700197
119	0xbf125e0a	-0.5717474
120	0x3f22bb89	0.63567406
121	0xbeca23fd	-0.39480582
122	0x3d96886c	0.07350239
123	0xbf6e8066	-0.9316467
124	0x3f336f2e	0.7009152
125	0x3f35ef26	0.71068037
126	0x3e04ffbb	0.12988178
127	0xbf00b1a2	-0.50271046
128	0x3e0d45ab	0.13796107
129	0xbf89faef	-1.0779704
130	0xbf832e34	-1.0248475
131	0xbfa3917d	-1.2778774
132	0xbf80288a	-1.0012372
133	0x3fbba59e	1.4659917
134	0x3f884755	1.0646769
135	0xbf40b8b2	-0.7528182
136	0xbf794a90	-0.973794
137	0x3e96c97e	0.294506
138	0x3f8c7691	1.0973684
139	0x3d342839	0.04398367
140	0x3fc0e44a	1.5069668
141	0x3fd87e2a	1.6913502
142	0x400ab34b	2.1671932
143	0x3f3945b0	0.7237196
144	0xbfab8b89	-1.3401958
145	0xbf4ec1d3	-0.807645
146	0xbe3c1a18	-0.18369329
147	0xbf00043d	-0.5000647
148	0xbf843cda	-1.033107
149	0xbf3c1230	-0.7346525
150	0xbf6b6000	-0.9194336
151	0x3f9ac395	1.2090937
152	0x3f33fe32	0.70309746
153	0xbf10e936	-0.5660585
154	0x3fb1edbb	1.3900675
155	0x3f357721	0.708849
156	0x3fc64875	1.5490862
157	0x3f87510e	1.0571611
158	0x3f23bb0c	0.63957286
159	0xbf880975	-1.0627886
160	0xbe77ca6e	-0.24198315
161	0xbeb23d8a	-0.34812576
162	0xbf4a4334	-0.79008794
163	0x3ebe13f4	0.37124598
164	0x3f93ee9e	1.1557195
165	0xbeb56fd0	-0.3543687
166	0x3f56694a	0.8375441
167	0xbf4a5b81	-0.79045874
168	0x3f767413	0.96270865
169	0xbfc1350c	-1.5094314
170	0x3fb1ac1c	1.3880649
171	0x3ea24493	0.31692943
172	0xbf91340d	-1.134401
173	0x3f29752b	0.6619441
174	0xbf808d94	-1.0043206
175	0xbeba1a7f	-0.3634834
176	0x3f86fbf1	1.0545636
177	0x3f289b98	0.6586242
178	0xbdfea86f	-0.1243447
179	0xbfd1414e	-1.6348054
180	0xbfa996dc	-1.3249164
181	0x3f37eb2d	0.71843225
182	0xbf8f1b31	-1.1180173
183	0x3f4233bc	0.7586019
184	0x3fe90820	1.8205605
185	0x3fd0a686	1.6300819
186	0x3f308041	0.689457
187	0x3fa35396	1.2759883
188	0xbef84213	-0.4848791
189	0xbf38ba65	-0.72159415
190	0x3d25b8a9	0.04045931
191	0x3f7b3ad8	0.98136663
192	0x3e80dd06	0.25168628
193	0xbf6a212f	-0.91456884
194	0xbfaaef8a	-1.3354352
195	0x3fb61d37	1.4227666
196	0xbf5a33a0	-0.85235023
197	0xbf9bbe79	-1.2167503
198	0x3f167732	0.5877563
199	0x3e9a027d	0.30080023
200	0xbf9386ac	-1.1525474
201	0xbf43239b	-0.76226205
202	0x3e7fa17b	0.24963944
203	0x3f213c0b	0.62982243
204	0x3eb3b150	0.35096216
205	0x3f5feba5	0.8746894
206	0xbf206d44	-0.62666726
207	0xbf7d54c2	-0.98957455
208	0xbfb6f75c	-1.4294238
209	0xbfd3da39	-1.6550971
210	0xbfb090b9	-1.3794166
211	0x3ff5b282	1.9195101
212	0x3f596415	0.8491834
213	0xbf882662	-1.0636714
214	0x3f80bd46	1.0057762
215	0xbf6a5ef3	-0.9155113
216	0xbf1b46bd	-0.60654813
217	0xbfd7ee66	-1.6869628
218	0xbd485113	-0.048905443
219	0x3ea9ce3e	0.33165163
220	0xbf5e2f88	-0.86791277
221	0x3da9162b	0.08256181
222	0x3dbf2c75	0.093346514
223	0x3fbc5b46	1.4715354
224	0x3fb1e25e	1.3897207
225	0xbf3d567b	-0.73960084
226	0x3db1076a	0.08643992
227	0xbfa17ea8	-1.2616777
228	0xbfbeb1d4	-1.4898019
229	0x3fb1efba	1.3901284
230	0xbe0c9570	-0.13728881
231	0xbf8d022e	-1.101629
232	0xbfeac6b7	-1.8341893
233	0xbfb0d104	-1.3813787
234	0x3e1ccc85	0.15312393
235	0x3fc0d0a4	1.5063672
236	0x3e841a8c	0.25801504
237	0xbf077091	-0.5290614
238	0x40085a48	2.1305103
239	0x3fbc8427	1.472783
240	0xbf968c1f	-1.1761512
241	0x3f3f3d91	0.7470332
242	0xbd660c33	-0.056163978
243	0x3dd4f622	0.103985086
244	0xbf2b8800	-0.67004395
245	0x3f313ac8	0.6923032
246	0xbf01fe5b	-0.5077874
247	0x3f29727f	0.6619033
248	0xbf98595d	-1.1902272
249	0xbf92d3aa	-1.1470845
250	0x3f92f98b	1.1482404
251	0xbf33d073	-0.70239943
252	0xbfcb9741	-1.5905534
253	0x3fbc8510	1.4728107
254	0xbdb8e1fb	-0.09027477
255	0xbe34096d	-0.1758172

actor.4.bias f4 [4]
0	0x3e0ebf63	0.13940196
1	0x3da7cf5c	0.081938475
2	0x3ea153d9	0.31509283
3	0xbeec28f4	-0.46124995

critic.0.weight f4 [128, 24]
0	0xbd2daf0d	-0.04240327
1	0x3ca99432	0.020700548
2	0xbc0c8553	-0.008576709
3	0x3e19fddd	0.15038247
4	0xbda5a36c	-0.08087811
5	0xbbcb1f05	-0.006198766
6	0xbca3c821	-0.01999289
7	0xbc179da8	-0.009253897
8	0xbd598795	-0.053107817
9	0x3cdf4b51	0.027257593
10	0x3b2c6fda	0.0026311786
11	0xbd4eebd2	-0.050517865
12	0x3d40b704	0.047049537
13	0x3cc1398b	0.023587009
14	0x3e556bd8	0.2084192
15	0xbdb11488	-0.08646494
16	0xbd1ca2fe	-0.03824138
17	0xbce47dd0	-0.027892023
18	0x3dfcc6d1	0.12342609
19	0xbde38a12	-0.11110319
20	0x3c32b0f1	0.010906444
21	0x3e157346	0.14594755
22	0xbd915a8c	-0.070973486
23	0xbe0448df	-0.12918423
24	0xbd345a0d	-0.04403119
25	0xbdc64a9a	-0.09682198
26	0xbcd163e1	-0.025560321
27	0xbdaa8dc7	-0.08327823
28	0x3de07510	0.10959828
29	0xbc4d46cb	-0.012529085
30	0xbd226beb	-0.0396537
31	0xbbc3fa5b	-0.0059807724
32	0xbda81122	-0.08206393
33	0x3b9e1cca	0.0048252093
34	0x3d18c68b	0.03729872
35	0xbd9b863d	-0.07593963
36	0x3d68a84b	0.05680112
37	0x3ca6f4bc	0.02038037
38	0x3cb8580d	0.022502923
39	0x3d6d44dc	0.057926998
40	0x3deb67ca	0.114944056
41	0xbd0c947b	-0.03432129
42	0xbe8374a8	-0.2567494
43	0xbd9bd815	-0.07609574
44	0x3e0c2743	0.13686852
45	0x3dfcef7f	0.12350368
46	0x3de0583d	0.1095433
47	0x3b8be1fb	0.0042688823
48	0x3dd3c9e4	0.10341242
49	0xbc1275b0	-0.008939192
50	0x3da8c989	0.08241565
51	0xbdc87280	-0.09787464
52	0x3de90df8	0.113796175
53	0x3c24706c	0.010036569
54	0xbc92806a	-0.017883498
55	0x3b14806c	0.0022659553
56	0x3d0ccce0	0.03437507
57	0x3db84e43	0.08999302
58	0xbd0bc86d	-0.034126688
59	0x3dd36b13	0.10323157
60	0xbcf109fa	-0.029423703
61	0xbcd2575d	-0.025676424
62	0xbd24e552	-0.04025776
63	0xbe29c85a	-0.16580334
64	0x3e1fc3b7	0.15602003
65	0x3dd140f2	0.102174655
66	0x3d9f39ca	0.07774694
67	0xbe0f3855	-0.13986333
68	0x3c87df56	0.016585987
69	0xbcc90c1f	-0.024541913
70	0xbe190556	-0.14943442
71	0x3de62716	0.11237924
72	0xbd07d811	-0.03316504
73	0x3c08414c	0.008316349
74	0xbd5ffef3	-0.054686498
75	0xbdbca388	-0.092108786
76	0x3da4d908	0.08049208
77	0xbd8a5edd	-0.06756375
78	0x3dbf0316	0.093267605
79	0xbd2b766d	-0.041860987
80	0xbc60a549	-0.013711282
81	0x3c28c4aa	0.010300795
82	0x3d128693	0.03577287
83	0xbd8f222f	-0.06988942
84	0x3d27662e	0.04086893
85	0xbdf8ef4f	-0.121550195
86	0x3cad4890	0.021152765
87	0x3dd6c92d	0.1048759
88	0x3da8a1df	0.082339995
89	0x3dc1cfe1	0.09463478
90	0xbe85a1ed	-0.26100102
91	0x3d7d8ccc	0.061901852
92	0xbdef7832	-0.11692847
93	0x3dde6628	0.108593285
94	0xbcab5d14	-0.020918407
95	0xbdf07bbd	-0.11742351
96	0x3d3e79b6	0.04650279
97	0x3dabfa2b	0.08397325
98	0x3dbac952	0.0912043
99	0xbe3b564d	-0.1829464
100	0x3db39a90	0.08769715
101	0x3d5299a2	0.051416047
102	0x3bad4520	0.0052877814
103	0x3d38788b	0.045036834
104	0x3c5d108b	0.013492714
105	0x3db98fcb	0.090606295
106	0xbda824cb	-0.08210143
107	0x3d8a9a10	0.06767666
108	0xbd89c1d2	-0.067264214
109	0xbd90bf74	-0.07067767
110	0xbd6e4f4c	-0.058181092
111	0xbdb923f9	-0.09040064
112	0xbe2b8b2b	-0.16752307
113	0x3ca9c004	0.020721443
114	0xbad4889a	-0.0016215027
115	0x3e578003	0.21044926
116	0xbd9827fb	-0.07429501
117	0xbde62063	-0.11236646
118	0x3e19cdea	0.15019956
119	0x3c528065	0.012847994
120	0x3d1b4d6c	0.037915632
121	0xbe000783	-0.12502865
122	0xbd99ddc6	-0.07513003
123	0x3dfeb838	0.12437481
124	0xbd8be963	-0.06831624
125	0xbc0a09d0	-0.008425191
126	0x3d335d38	0.043790072
127	0xbbde915b	-0.00679223
128	0x3cab1ed1	0.020888718
129	0xbcddb011	-0.027061494
130	0xbc68f893	-0.014219421
131	0xbd5ea700	-0.054358482
132	0xbbbf9888	-0.0058470406
133	0xbc86b7ee	-0.016445126
134	0xbd1646dd	-0.036688674
135	0xbd63c5b3	-0.055608463
136	0x3dd66c96	0.1046993
137	0x3d58b873	0.05291028
138	0xbe0c20a6	-0.1368433
139	0x3d831003	0.06399538
140	0xbdcf3929	-0.10118324
141	0x3e35c256	0.17749915
142	0x3d4d705b	0.05015598
143	0xbdb26ecd	-0.0871254
144	0x3cb8cc59	0.022558378
145	0xbe29e951	-0.1659291
146	0x3e06f077	0.13177668
147	0x3df4771f	0.11936783
148	0xbd15e62c	-0.036596462
149	0xbd1df46b	-0.038563173
150	0x3c5190a9	0.012790837
151	0xbc82d973	-0.015972828
152	0x3c213ec9	0.009841629
153	0x3dbfdea1	0.09368635
154	0x3c4db5c8	0.012555547
155	0xbc60394a	-0.013685534
156	0x3bac6c2f	0.00526192
157	0x3bc760b1	0.0060845246
158	0x3e2de94a	0.16983524
159	0xbde5965f	-0.11210322
160	0x3e145efe	0.14489362
161	0xbe2fc7e0	-0.1716609
162	0xbd7d20f4	-0.061799005
163	0xbdbc1f80	-0.09185696
164	0xbe3d2a2d	-0.1847312
165	0x3dcd78fb	0.10032841
166	0xbcfc8dbb	-0.030829301
167	0x3e07f75d	0.13277955
168	0x3da34399	0.079718776
169	0xbdef1c0b	-0.11675271
170	0x3d8249e5	0.063617505
171	0xbd9ac21f	-0.07556557
172	0xbcbf2e9e	-0.023337658
173	0xbcc63a41	-0.0241977
174	0x3ce5e495	0.028063098
175	0x3c127d72	0.008941041
176	0x3bffffec	0.0078124907
177	0x3da0c799	0.0785057
178	0x3d0c76f8	0.034293145
179	0x3d22ef44	0.039778963
180	0x3c4f1f3f	0.012641727
181	0xbbb2b916	-0.005454193
182	0xbd8a937e	-0.06766413
183	0x3da9c476	0.08289425
184	0x3e200411	0.15626551
185	0x3dffde2b	0.12493547
186	0xbddeee97	-0.10885351
187	0x3dd4e7ed	0.10395799
188	0xbe4c7b1a	-0.19968835
189	0xbd9081f4	-0.070560366
190	0x3e0a2d90	0.13493943
191	0xbd920346	-0.071295306
192	0x3d3b71c1	0.04576278
193	0xbe0d5a8d	-0.13804074
194	0x3e5a06f7	0.2129172
195	0xbcd752e6	-0.026284646
196	0xbd99e12a	-0.0751365
197	0x3b1093cd	0.0022060752
198	0xbc0d5a44	-0.008627478
199	0xbc3cac04	-0.011515621
200	0xbd199a15	-0.03750046
201	0x3d1a162a	0.037618794
202	0x3d303017	0.043014612
203	0x3d280bb1	0.041026775
204	0xbca6add6	-0.020346563
205	0x3c9d1e80	0.019179583
206	0x3cbf0d1c	0.02332168
207	0x3e617887	0.22018634
208	0x3e315765	0.17318495
209	0xbd2f2ee8	-0.042769343
210	0xbe107f9b	-0.14111178
211	0x3d54ba11	0.05193526
212	0xbc333391	-0.010937587
213	0xbe2f87e1	-0.17141677
214	0x3d8f7a3b	0.070057355
215	0x3d6c5ef8	0.057707757
216	0xbce2896f	-0.027653424
217	0xbdaa86d7	-0.083265
218	0x3d5ad761	0.053428058
219	0xbde751d1	-0.11294902
220	0xbe08f841	-0.13375951
221	0xbd3b8ad1	-0.045786683
222	0xba9c70c0	-0.0011935458
223	0xbc8a1bb7	-0.016858919
224	0x3b782b1d	0.0037867494
225	0xbc31f2c8	-0.010861106
226	0x3d3442f9	0.044009183
227	0xbd075d75	-0.033048112
228	0x3c8797d4	0.01655189
229	0x3cbf0144	0.023316033
230	0x3e010336	0.12598881
231	0x3c521beb	0.012824039
232	0xbcfbd2ab	-0.030740103
233	0xbe2c8007	-0.16845714
234	0xbdb0e5a3	-0.0863755
235	0x3d866a57	0.065632515
236	0x3e085ecb	0.1331741
237	0xbdec789e	-0.115464434
238	0x3d678810	0.056526244
239	0x3e38dad1	0.18052222
240	0x3d3f9811	0.04677588
241	0x3e0465f1	0.12929513
242	0x3df50bf3	0.1196517
243	0xbd89e8b8	-0.06733841
244	0x3dd9d8c2	0.106370464
245	0x3d1354c2	0.035969503
246	0x3d56124d	0.052263547
247	0x3d03c92b	0.03217427
248	0xbd3bdcb9	-0.045864794
249	0x3e06cfc6	0.13165197
250	0x3c619ae4	0.013769839
251	0xbd6ffe33	-0.058592033
252	0x3c8d9000	0.017280579
253	0x3d24b055	0.040207226
254	0xbce82fd4	-0.028343119
255	0x3e14ad2d	0.14519186

critic.0.bias f4 [128]
0	0x3e6bdbe2	0.23033097
1	0xbe46282a	-0.19351259
2	0xbd8664b1	-0.06562174
3	0x3d620f6f	0.0551905
4	0xbd8827b8	-0.06648201
5	0x39eac394	0.00044777675
6	0x3d645349	0.05574349
7	0x3c96933e	0.018380757
8	0xbbe5cce5	-0.0070129507
9	0xbd782b3f	-0.060588118
10	0x3c6759b7	0.014120511
11	0x3dcbb31d	0.099462725
12	0x3e0ecd9b	0.1394562
13	0x3d91ff3c	0.0712876
14	0x3ceb78d7	0.028744144
15	0x3c833234	0.01601515
16	0xbe147b93	-0.14500265
17	0x3df6e243	0.12054875
18	0x3d06f203	0.032945644
19	0xb995c465	-0.0002856582
20	0x3deb16df	0.11478972
21	0xbc58b315	-0.01322629
22	0x3dbe97a8	0.0930627
23	0x3e08639b	0.13319246
24	0xbdbee74d	-0.09321461
25	0x3d97d83d	0.07414291
26	0x3e2b1b39	0.16709603
27	0xbe48d3fb	-0.19612114
28	0xbca226dc	-0.01979392
29	0x3de37924	0.1110709
30	0x3def580f	0.11686718
31	0xba54040a	-0.000808776
32	0xbe083eb1	-0.13305165
33	0x3cefecfb	0.029287806
34	0x3d4f7343	0.05064703
35	0xbdb838ca	-0.08995207
36	0x3d07acb3	0.033123683
37	0xbe269c77	-0.16270624
38	0x3db87c3c	0.09008071
39	0x3b23f894	0.002501999
40	0xbe1bcc86	-0.15214738
41	0xbe37f80a	-0.17965713
42	0x3e03db2f	0.1287658
43	0x3dd34e51	0.10317672
44	0xbe385a2d	-0.1800315
45	0x3e1ef59f	0.15523385
46	0x3d45cb52	0.048289604
47	0xbe4314d8	-0.1905092
48	0xbd2665cd	-0.04062443
49	0xbd1ef39b	-0.03880654
50	0x3df133fa	0.11777492
51	0xbb595400	-0.003316164
52	0x3c947a46	0.01812471
53	0x3d7b6cad	0.06138294
54	0xbd8e653f	-0.06952905
55	0x3dc7a74c	0.09748706
56	0x3e209c66	0.15684661
57	0xbd876200	-0.06610489
58	0x3ddd10df	0.107942335
59	0xbe4004ce	-0.18751833
60	0xbdbe458b	-0.09290608
61	0x3da69a86	0.08134942
62	0x3d0feb05	0.03513624
63	0x3dfedc81	0.124444015
64	0xbd397e24	-0.045286313
65	0xbdd78817	-0.10524004
66	0x3e2a6308	0.1663934
67	0xbe222c45	-0.158372
68	0xbd6a6194	-0.057221964
69	0xbe33d857	-0.17562996
70	0x3dfb7988	0.122790396
71	0x3dd94bb3	0.106101416
72	0x3d570a7e	0.05250024
73	0x3cf54e50	0.029944569
74	0xbd225d66	-0.039639853
75	0x3e47aa55	0.1949857
76	0xbdfd13da	-0.12357302
77	0x3cafa686	0.02144171
78	0xbd951607	-0.07279592
79	0x3e37a5d0	0.17934346
80	0x3d340321	0.043948296
81	0x3e2045c6	0.15651616
82	0xbdde71eb	-0.10861572
83	0xbb0cb211	-0.002146844
84	0xbcb270de	-0.021782335
85	0xbe3ba78a	-0.1832563
86	0x3e2609ad	0.16214629
87	0x3dddeabe	0.10835789
88	0x3defb967	0.117052846
89	0x3da8a273	0.0823411
90	0x3d51c4c4	0.05121304
91	0xbd3cf1b3	-0.04612894
92	0x3ddf1aec	0.10893807
93	0x3df9e9f7	0.122028284
94	0x3dbe08f9	0.09279055
95	0xbe1983cb	-0.14991681
96	0x3da34c4c	0.07973537
97	0x3e09c37a	0.13453475
98	0xbde9f309	-0.114233084
99	0xbdb9e5a2	-0.09077002
100	0x3ccf1f9d	0.02528363
101	0x39d0f3f9	0.00039854625
102	0x3e006c55	0.12541325
103	0xbdb6140a	-0.08890541
104	0x3e192710	0.14956307
105	0xbc2a7d84	-0.010405902
106	0x3dd6ce71	0.10488594
107	0xbdd23b6d	-0.10265241
108	0x3de7f937	0.11326831
109	0xbcf9e175	-0.030503014
110	0xbdd50bdb	-0.10402652
111	0xbde3fbc7	-0.11132007
112	0xbd04b52a	-0.032399334
113	0xbd9f1187	-0.07767015
114	0xbe1d9871	-0.15390183
115	0xbde73e6e	-0.112912044
116	0xbe1fba22	-0.15598348
117	0xbd955695	-0.07291905
118	0xbd9e6305	-0.0773373
119	0xbdaf5576	-0.08561222
120	0xbde02e46	-0.10946326
121	0x3dc47f87	0.095946364
122	0xbe02f59b	-0.12789004
123	0x3dd1848b	0.10230359
124	0xbe104d42	-0.14091972
125	0xbd0241ca	-0.031801023
126	0x3d3409d4	0.043954685
127	0x3d121c99	0.035671804

critic.2.weight f4 [128, 128]
0	0xbc2ebec7	-0.010665602
1	0xbd1537b4	-0.036430076
2	0x3c34ab70	0.011027202
3	0x3d2da780	0.04239607
4	0xbd99ff18	-0.075193584
5	0xbdac8672	-0.08424081
6	0x3cc69f52	0.024245892
7	0xbd5fcc1f	-0.054638024
8	0xbd22c878	-0.039741963
9	0xbd4ede7d	-0.05050515
10	0x3dbe055c	0.09278366
11	0x3d00ad43	0.031415235
12	0xbb077a7d	-0.0020672374
13	0xbd30d492	-0.043171473
14	0xbcd6f307	-0.026238931
15	0x3cac6063	0.021042055
16	0x3d268701	0.040656094
17	0x3d54e3bd	0.051975
18	0xbdaaa109	-0.08331496
19	0x3d08b7eb	0.033378523
20	0xbbdc335f	-0.006719991
21	0xbc8c1815	-0.017101327
22	0x3dc924ad	0.098214485
23	0xbca0d894	-0.019634522
24	0xba15a3b3	-0.0005708292
25	0xbc03b16b	-0.008037905
26	0x3cf9ddd6	0.030501287
27	0x3bc6e9c2	0.0060703466
28	0x3d116abe	0.035502188
29	0xbb8520a6	-0.00406273
30	0xbc6554e0	-0.013997287
31	0x3d1b5d48	0.037930757
32	0x3d2471e6	0.040147685
33	0x3caadb32	0.020856474
34	0x3d2516f6	0.0403051
35	0x3d8efc69	0.06981737
36	0x3cf02891	0.029316219
37	0xbc07c251	-0.008286075
38	0x3d1285b6	0.035772048
39	0x3d10f664	0.035391226
40	0xbd80e89f	-0.06294369
41	0x3c70cf11	0.014697806
42	0x3d8b296a	0.067950085
43	0xbd894358	-0.06702298
44	0x3c7ffcbf	0.015624224
45	0xbd34a4eb	-0.04410259
46	0xbbf71d4c	-0.0075413343
47	0x3db36aee	0.087606296
48	0x3d61a9b6	0.05509349
49	0x3d9d8bce	0.07692681
50	0x3db3ef27	0.08785849
51	0x3c80b5dc	0.015711717
52	0x3b92b984	0.0044776816
53	0x3d419f30	0.047270954
54	0x3daf4ad8	0.08559197
55	0xbd905c26	-0.07048826
56	0xbc28e60e	-0.010308756
57	0xbd343f2b	-0.044005554
58	0x3dceccdc	0.100976676
59	0xbcb2b466	-0.021814536
60	0x3d8cc65e	0.06873773
61	0x3d01f73e	0.03172993
62	0x3bf1235f	0.007358953
63	0x3c171d2e	0.009223266
64	0x3d849aa7	0.0647481
65	0x3d943edf	0.07238554
66	0x3d32037f	0.043460365
67	0xbd7a5f23	-0.061125886
68	0x3d691436	0.05690404
69	0xbbf8c702	-0.007592083
70	0x3d224444	0.039615884
71	0xbda640c8	-0.08117825
72	0xbc389fe4	-0.01126859
73	0xbb28ac14	-0.0025737332
74	0x3d8fb8cf	0.07017671
75	0xbd91fb72	-0.071280375
76	0xbdad8bb7	-0.08473914
77	0x3cf79e9d	0.030227
78	0x3ce846bb	0.02835404
79	0x3d0f1f87	0.034942176
80	0x3d16a5d2	0.036779232
81	0x3d6c1235	0.05763455
82	0xbc3c8232	-0.01150565
83	0xbaa17b7b	-0.0012320125
84	0xbd8d6259	-0.06903524
85	0x3d84d27b	0.064854585
86	0xbd245db3	-0.04012842
87	0x3c0a51b5	0.008442332
88	0x3d07a5a7	0.033116963
89	0x3d7f6a7d	0.062357415
90	0xbdadc1f6	-0.08484261
91	0xbca05ffc	-0.019577019
92	0x3d8e45bf	0.06946897
93	0xbd316ae3	-0.043314826
94	0x3d225b6a	0.03963796
95	0xbd8adbf5	-0.06780235
96	0xbdceadc9	-0.10091741
97	0x3c01891e	0.007906226
98	0xbd5a83b7	-0.05334827
99	0xbd4b26be	-0.049597494
100	0xbd1df4ed	-0.038563658
101	0x3d4f517f	0.05061483
102	0xbccdabdb	-0.025106361
103	0x3cabf977	0.020992978
104	0x3c46920c	0.012119781
105	0xbd70c5a1	-0.058782224
106	0x3cae9890	0.021312982
107	0xbd51083e	-0.05103325
108	0xbd89d7a9	-0.06730587
109	0xbcdd602d	-0.0270234
110	0x3d3375be	0.04381346
111	0xbd85766f	-0.0651673
112	0x3d201cb5	0.039089877
113	0xbd766783	-0.06015731
114	0x3c70b770	0.014692172
115	0x3c4790af	0.012180491
116	0x3d45d691	0.04830033
117	0x3d9766a8	0.07392627
118	0x3d0c00b3	0.034180354
119	0xbbe47341	-0.006971747
120	0x3c539fc7	0.012916512
121	0x3d3bd1a7	0.045854237
122	0x3d17b8b6	0.03704139
123	0xbc86c37b	-0.016450634
124	0xbc438ba7	-0.011935151
125	0x3ba3a088	0.004993502
126	0x3c84833e	0.016175862
127	0x3cafc581	0.021456482
128	0xbc326b3d	-0.010889825
129	0xbd98cb48	-0.07460648
130	0x3d77e479	0.060520623
131	0x3da26e6f	0.0793122
132	0x3c655bc9	0.013998934
133	0x3c22b9d7	0.009932003
134	0xbc436847	-0.011926717
135	0xbd114b75	-0.035472352
136	0x3d839b1f	0.064260714
137	0x3ce624db	0.028093746
138	0xbdc3033f	-0.095221035
139	0x3da3c28e	0.07996093
140	0x3d7538c5	0.059868593
141	0xbd68fe04	-0.056882873
142	0xbd0c8cf1	-0.0343141
143	0x3d0c75cb	0.034292024
144	0x3d9751ab	0.07388624
145	0xbd44f215	-0.04808243
146	0xbd192cf2	-0.03739638
147	0xbd918be4	-0.0710676
148	0xbda54e72	-0.08071603
149	0x3d0742b8	0.033022612
150	0x3d5eb7f7	0.05437466
151	0x3aa8eee0	0.0012888573
152	0xbc0ed2b8	-0.008717231
153	0xbd3f0a84	-0.046640888
154	0xbcf49cbd	-0.029859895
155	0x3ceac28b	0.028657218
156	0xbc30b01d	-0.010784176
157	0x3d51c5a4	0.051213875
158	0x3d4a3936	0.049370967
159	0x3d7d2e4d	0.061811734
160	0xbd8cf202	-0.06882097
161	0x3d98258d	0.07429037
162	0x3c84142f	0.016122906
163	0xbda1c4da	-0.078988746
164	0xbcbb7261	-0.022881689
165	0xbd9b1ee5	-0.07574252
166	0x3bbf4726	0.005837339
167	0xbc1644e4	-0.009171698
168	0xbd46b422	-0.04851163
169	0xbdad5612	-0.08463682
170	0xbd26a4f3	-0.04068465
171	0xbcfb0d46	-0.030645978
172	0xbdba2640	-0.09089327
173	0xbd25666f	-0.04038089
174	0x3db8b0d6	0.09018104
175	0x3d615cd0	0.055020154
176	0xbc09fc07	-0.008421904
177	0xbd5b1da3	-0.05349506
178	0xbd3c88c6	-0.046028875
179	0x3d5537fb	0.05205534
180	0xbd6f2303	-0.058383
181	0x3d911dbf	0.07085752
182	0x3d282cc1	0.041058306
183	0xbd9c4d84	-0.076319724
184	0x3d606d21	0.054791573
185	0x3d624032	0.055237003
186	0xbd282110	-0.041047156
187	0xbbb1e08a	-0.0054283785
188	0x3c316734	0.010827828
189	0x3d5ac899	0.05341396
190	0x3b8a9f23	0.0042303964
191	0xbd82921f	-0.06375527
192	0x3d58a71e	0.05289375
193	0x3d90d49e	0.070718035
194	0x3c14bd56	0.009078344
195	0xbda86eb1	-0.08224238
196	0x3da48d32	0.08034743
197	0xbb728e78	-0.0037011188
198	0xbbb50513	-0.0055242865
199	0x3b4a5819	0.0030875264
200	0xbd04e18e	-0.03244167
201	0x3d9906fa	0.07472034
202	0x3b40323e	0.0029326822
203	0xbc85f7f9	-0.016353594
204	0x3d4a1943	0.049340498
205	0xbd8a1d95	-0.067439236
206	0xbd36b35f	-0.044604655
207	0xbb45e530	-0.003019642
208	0xbac7d0f3	-0.0015244767
209	0x3cad3739	0.021144496
210	0x3c5e4f58	0.013568722
211	0xbc2afa07	-0.010435588
212	0xbd8a981e	-0.06767295
213	0x3d6eaf83	0.05827285
214	0xbd650ba2	-0.055919297
215	0xbba433a3	-0.0050110384
216	0x3d8abf3a	0.06774755
217	0x3c136f6c	0.008998733
218	0xbc75c5f7	-0.015000812
219	0x3d7d5698	0.06185016
220	0x3be0120b	0.0068380884
221	0x3d2a1693	0.041525435
222	0x3d83ba25	0.064319886
223	0x3d82847a	0.06372924
224	0x3cb637e6	0.022243451
225	0x3d59458e	0.05304485
226	0xbd730de0	-0.059339404
227	0x3caaa217	0.020829244
228	0x3da5e23a	0.0809979
229	0x3cc1c103	0.023651605
230	0xbd451558	-0.048116058
231	0xbd1ebd92	-0.038755007
232	0x3c3c1cb5	0.011481454
233	0xbda7de10	-0.08196652
234	0xbd326de4	-0.04356183
235	0x3da086b8	0.078381956
236	0xbd3ef1fd	-0.046617497
237	0xbd839dd7	-0.0642659
238	0x3db184d4	0.08667913
239	0x3d04d3d0	0.032428563
240	0xbd62801d	-0.05529796
241	0xbd1392f2	-0.03602881
242	0xbce1852f	-0.027529327
243	0xba420be6	-0.00074022857
244	0x3d257547	0.040395048
245	0x3d0baff5	0.034103353
246	0x3d87196e	0.06596647
247	0x3d0049b7	0.0313203
248	0xbd8e06cf	-0.069348924
249	0xbd969b89	-0.07353885
250	0xbca35861	-0.019939603
251	0xbc0fafef	-0.008769973
252	0xbd08de15	-0.03341492
253	0xbc0f2244	-0.008736197
254	0xbca77ee2	-0.020446245
255	0x3d58868f	0.0528627

critic.2.bias f4 [128]
0	0x3b316965	0.0027070877
1	0x3d86d323	0.0658324
2	0xbcc4331e	-0.023950156
3	0xbc29d7cd	-0.010366392
4	0xbd688faf	-0.056777652
5	0x3af7d018	0.0018906621
6	0xbc80581c	-0.015667014
7	0x3cf4098f	0.029789714
8	0x3c059045	0.008152072
9	0x3c308070	0.010772809
10	0xbd67dbec	-0.05660622
11	0x3d87a385	0.06622986
12	0xbb30e6e4	-0.002699309
13	0xbd9bb364	-0.076025754
14	0x3c92490e	0.0178571
15	0xbda42162	-0.0801418
16	0xbb9d1381	-0.004793585
17	0x3c37713c	0.011196431
18	0xbccefa9e	-0.025265988
19	0x3b861012	0.004091271
20	0x3bd7f00f	0.0065898965
21	0xbd4ef25d	-0.050524104
22	0x3d623360	0.055224776
23	0x3cc69359	0.024240183
24	0x3d8f6110	0.07000935
25	0x3bff523c	0.0077917855
26	0xbbf32089	-0.00741965
27	0x3d61b53b	0.055104475
28	0xbb2902cc	-0.002578902
29	0xbd706302	-0.05868817
30	0xbd8e77e7	-0.06956463
31	0xbbd173f8	-0.0063919984
32	0x3d585b15	0.052821238
33	0xbc00ddd7	-0.007865391
34	0x3c2c7cd4	0.010527808
35	0x3cb23586	0.021754038
36	0xbbc5bd81	-0.0060345535
37	0x3a4da8b0	0.0007845266
38	0xbd0edd63	-0.0348791
39	0xbd716878	-0.05893752
40	0x3bc527cf	0.0060167084
41	0x3a6ca2ee	0.0009026964
42	0x3b60a418	0.0034277495
43	0xbc02fb55	-0.007994493
44	0x3c31ed4d	0.0108598
45	0xbd98d0cf	-0.07461702
46	0xbc269588	-0.010167487
47	0xbc1a2985	-0.009409313
48	0x3d2edaa9	0.042689
49	0xbcbc1ee1	-0.022963943
50	0xbabd3471	-0.0014435184
51	0x3aa35b6a	0.0012463157
52	0xb9ef2e06	-0.00045619922
53	0xbcc6e09e	-0.024277028
54	0xbd278518	-0.040898412
55	0xbb487866	-0.0030589341
56	0x3b25d754	0.0025305348
57	0x3d5cff0c	0.05395417
58	0x3cdd7f35	0.027038196
59	0x3a286d38	0.0006424966
60	0x3d5e6abe	0.054301016
61	0x3ba2ece9	0.0049720895
62	0xbbcb742f	-0.0062089185
63	0x3d3c0ef1	0.045912687
64	0x3d9dcec4	0.07705453
65	0x3da9310c	0.08261308
66	0xbc26344d	-0.010144305
67	0xbd77d7c3	-0.0605085
68	0x3c5e456d	0.013566357
69	0x3bb7b8b9	0.0056067375
70	0xbb6836ce	-0.0035433057
71	0xbc1e6e50	-0.009669855
72	0xba2cccee	-0.0006591816
73	0xbd5eae53	-0.054365467
74	0x3cd85854	0.026409306
75	0x3c547603	0.012967589
76	0x3bd5a953	0.006520429
77	0xbcaccd12	-0.021093879
78	0x3d872afa	0.06599994
79	0x3bc1a0af	0.0059090476
80	0x3bff001e	0.0077819964
81	0xbb8ce021	-0.004299179
82	0xbc037ee1	-0.008025856
83	0xbd272a0e	-0.04081159
84	0xba89e4a1	-0.0010520407
85	0xbd104c4a	-0.035229005
86	0x3c023fa5	0.007949744
87	0xba3604c4	-0.0006943459
88	0x3b7a008b	0.0038147296
89	0xbd84125b	-0.064488135
90	0xbc0209cd	-0.007936907
91	0x3c906145	0.017624507
92	0xbd45f9d1	-0.048333947
93	0x3bc9cf85	0.0061587715
94	0x3d872568	0.065989316
95	0xbdb44693	-0.088025235
96	0x3cab9306	0.02094413
97	0xbc0d8ed8	-0.008640014
98	0xbccabbae	-0.024747696
99	0xbd11571e	-0.035483472
100	0x3d492e60	0.049116492
101	0x3d6ffef7	0.058592763
102	0xbccd43f4	-0.025056817
103	0xbb839772	-0.0040158564
104	0xbab30c22	-0.0013660232
105	0xbb57e09c	-0.0032940274
106	0x3c82fcd1	0.015989693
107	0x3d23ca0c	0.03998761
108	0xbbfdaeeb	-0.007741799
109	0xbb97929a	-0.0046256306
110	0xbd7112a1	-0.058855657
111	0x3ad245f8	0.0016042581
112	0xbd2b8183	-0.04187156
113	0x3d6100d0	0.054932415
114	0x3c274f41	0.010211767
115	0x3af58518	0.0018731682
116	0x3b5c3c43	0.0033605255
117	0xbc799451	-0.015233115
118	0x3b6a0e8a	0.0035714232
119	0xbd484429	-0.048893128
120	0x3c4145b7	0.0117964065
121	0x3af34187	0.0018558957
122	0x3c279477	0.010228268
123	0x3c4ee370	0.0126274675
124	0x3cf7cd13	0.030249154
125	0x3d2b1044	0.04176356
126	0xbd940a03	-0.07228472
127	0x3b40cd71	0.0029419328
