Policy Gradient/walker_ppo_model_3600.pth (torch, 34323 bytes, 11 tensors)

actor.0.weight f4 [64, 24]
-0.08998933 0.35139105 -0.06983365 0.50232655 -0.1691533 -0.106432475 0.6196256 -0.17564376
-0.1719255 -0.1363819 0.0030141578 -0.2318817 0.036363564 0.06136476 0.19685486 0.15071239
0.00849507 -0.06499393 0.15671478 -0.17068294 0.032291036 0.14049146 0.12997308 0.024794096
-0.06452505 0.2243431 0.18057138 0.1206293 0.23262075 0.15095831 0.51035935 -0.2024159
-0.12394621 -0.043700546 0.18312888 0.036216218 -0.05098461 0.09580367 0.112093784 0.07096418
-0.05426916 0.092613444 -0.11978084 0.032379363 0.021133717 -0.06616515 0.0035290068 0.11559283
-0.078493066 -0.30917475 -0.017394083 -0.23943831 -0.10516128 0.010779968 0.354567 0.08881434
-0.15673606 0.13669172 -0.12350673 0.2875168 -0.1603973 0.2246518 -0.21726634 -0.20285778
-0.18683197 0.05596229 -0.20269142 0.1337593 -0.025279475 -0.12657186 -0.17344168 -0.060606908
-0.17385842 -0.3256883 -0.16313858 -0.09554158 -0.33540222 -0.17469649 0.037156917 -0.122377045
-0.022609293 0.06685891 0.034290988 -0.023991598 0.078176096 0.03262087 -0.16124408 -0.24440414
-0.15884075 0.08045906 -0.05701966 0.06842987 0.03776712 -0.15347144 0.13253018 0.03416301
-0.16735807 -0.20320523 -0.18466197 -0.25857592 0.17646594 0.021716764 -0.39307687 -0.067587525
-0.09256248 -0.0023527215 0.04461484 0.37945393 0.19901752 0.1341133 0.09548777 0.093067385
-0.19445814 -0.0014416528 -0.074533805 -0.031806085 0.04809104 -0.134507 -0.16330053 0.04768197
-0.007063791 0.07524392 0.023376089 0.021906123 0.03597078 -0.04604354 0.30818436 -0.094328076
0.17408454 -0.05111029 0.050721213 0.046535615 -0.14398333 0.24648993 -0.031071955 -0.13347626
-0.000570238 0.1552605 -0.11920117 -0.14723219 -0.040455706 0.05666726 -0.10750158 -0.00876264
-0.09797603 -0.13628042 -0.0051593627 -0.15724795 -0.20513846 0.11725759 0.14040117 0.0042531206
0.13195612 0.11523897 0.17747109 0.2447131 0.14307842 0.13004528 -0.014447581 0.03574622
0.09439758 0.07713909 -0.16962974 0.07249473 -0.103741236 -0.051796906 -0.18422227 -0.0937141
-0.086750664 0.22323047 0.1861022 0.32629883 0.1814284 -0.0056847474 0.41971973 -0.041577406
-0.0055708443 0.014723831 -0.12349096 -0.32852873 -0.12756118 0.056322303 0.20983973 0.108506255
0.11404043 0.019859916 0.04827314 -0.05794478 0.12127642 0.13789442 0.10367062 -0.17890336
-0.0648354 -0.21891406 -0.24121325 -0.2809726 0.24767911 -0.017902551 -0.49315977 0.031429544
0.17620522 0.014990093 0.021088287 0.17131752 -0.03684972 -0.22390758 0.17179617 0.028348
-0.011694538 -0.06165591 0.039178252 0.15804408 0.14959857 -0.04862663 -0.117115065 0.18771444
-0.07715442 -0.18441361 -0.23818178 -0.45164782 -0.1494627 -0.0028583591 -0.5771692 -0.04143733
0.050838795 0.11983163 0.1013691 -0.17082943 0.07819692 0.08694276 -0.033409722 -0.15184191
0.10415363 -0.15782718 -0.024836186 -0.26622063 -0.059864048 -0.11860799 0.038827658 0.106506996
0.004033385 0.36030522 0.1052155 0.042357337 0.14589524 -0.043256544 0.18516044 -0.008755979
-0.05444126 -0.083059445 0.14064857 -0.3460839 0.121410795 -0.044208977 -0.062394995 0.04203837
00000000: 534c b8bd 87e9 b33e f204 8fbd 7998 003f
00000010: 8636 2dbe 45f9 d9bd c99f 1e3f f5db 33be
00000020: 3d0d 30be b2a7 0bbe 2d89 453b 6572 6dbe
00000030: f6f1 143d 9d59 7b3d 5294 493e 5954 1a3e
00000040: e82e 0b3c 8a1b 85bd d779 203e 82c7 2ebe
00000050: 9b43 043d fedc 0f3e aa17 053e fd1c cb3c
00000060: b625 84bd 33ba 653e b4e7 383e 7f0c f73d
00000070: 2234 6e3e d194 1a3e e9a6 023f 1d46 4fbe
00000080: 83d7 fdbd 58ff 32bd 2386 3b3e 7557 143d
00000090: 3dd5 50bd b734 c43d 6d91 e53d ab55 913d
000000a0: 5749 5ebd 1eac bd3d a84f f5bd 39a0 043d
000000b0: 9e20 ad3c 9881 87bd e946 673b efbb ec3d
000000c0: f9c0 a0bd 274c 9ebe 097e 8ebc 512f 75be
000000d0: cc5e d7bd 779e 303c ce89 b53e 4be4 b53d
000000e0: 6b7f 20be eaf8 0b3e 19f1 fcbd 6735 933e
000000f0: 313f 24be 1f0b 663e 117b 5ebe f3b9 4fbe
00000100: e150 3fbe b738 653d 578e 4fbe 33f8 083e
00000110: e716 cfbc 0e9c 01be b29a 31be f33e 78bd
00000120: f107 32be 9ec0 a6be cd0d 27be 4eab c3bd
00000130: d7b9 abbe a3e3 32be da31 183d d1a0 fabd
00000140: 2037 b9bc 53ed 883d b574 0c3d 078a c4bc
00000150: ca1a a03d 769d 053d 2b1d 25be 1445 7abe
00000160: 26a7 22be b8c7 a43d 728d 69bd f624 8c3d
00000170: b2b1 1a3d 9e27 1dbe feb5 073e 83ee 0b3d
00000180: ea5f 2bbe 0815 50be 0718 3dbe 1064 84be
00000190: 7db3 343e 5be7 b13c 5f41 c9be 546b 8abd
000001a0: 6691 bdbd 1e30 1abb 0dbe 363d c947 c23e
000001b0: 40cb 4b3e ff54 093e 188f c33d 1d9a be3d
000001c0: 0920 47be d7f5 bcba 2ea5 98bd 1947 02bd
000001d0: 1cfb 443d 34bc 09be 4138 27be 2b4e 433d
000001e0: 6077 e7bb 7c19 9a3d 367f bf3c 7874 b33c
000001f0: 1956 133d 2798 3cbd 57ca 9d3e 142f c1bd
00000200: 3843 323e 0659 51bd 0cc1 4f3d 219c 3e3d
00000210: 5e70 13be db67 7c3e 9d8a febc 00ae 08be
00000220: 067c 15ba 9cfc 1e3e be1f f4bd 09c4 16be
00000230: e2b4 25bd ee1b 683d ca29 dcbd 2d91 0fbc
00000240: a8a7 c8bd 188d 0bbe df0f a9bb 9b05 21be
00000250: d10f 52be bf24 f03d 53c5 0f3e c35d 8b3b
00000260: 811f 073e 6902 ec3d fbba 353e 1296 7a3e
00000270: 2683 123e 972a 053e 8cb5 6cbc a16a 123d
00000280: 8553 c13d 19fb 9d3d 6bb3 2dbe 1e78 943d
00000290: 4976 d4bd fe28 54bd c3a4 3cbe 2eed bfbd
000002a0: 55aa b1bd 8796 643e 9391 3e3e a410 a73e
000002b0: 5ec8 393e 1e47 babb 81e5 d63e 124d 2abd
000002c0: a18b b6bb 393c 713c d4e8 fcbd eb34 a8be
000002d0: 669f 02be 37b2 663d 3ae0 563e 8738 de3d
000002e0: 078e e93d 43b1 a23c 0eba 453d 8157 6dbd
000002f0: c65f f83d 3234 0d3e 4351 d43d 7132 37be
00000300: 6cc8 84bd 022b 60be 9b00 77be a4db 8fbe
00000310: 989f 7d3e 5fa8 92bc 707f fcbe 44bc 003d
00000320: 246f 343e 0299 753c 58c1 ac3c dc6d 2f3e
00000330: bbef 16bd 0748 65be 56eb 2f3e 113a e83c
00000340: 739a 3fbc e88a 7cbd 6079 203d 4fd6 213e
00000350: 5e30 193e b82c 47bd 06da efbd 3738 403e
00000360: 2303 9ebd ecd6 3cbe ede5 73be 623e e7be
00000370: c00c 19be 4f53 3bbb 5cc1 13bf 31ba 29bd
00000380: 573c 503d 496a f53d 9a9a cf3d e9ed 2ebe
00000390: b525 a03d 0c0f b23d a2d8 08bd 727c 1bbe
000003a0: 804e d53d 739d 21be 4275 cbbc 124e 88be
000003b0: 0134 75bd bfe8 f2bd c009 1f3d 5720 da3d
000003c0: 7c2a 843b ed79 b83e 397b d73d e37e 2d3d
000003d0: 9065 153e c62d 31bd b39a 3d3e 3d75 0fbc
000003e0: ccfd 5ebd 121b aabd 2e06 103e e931 b1be
000003f0: 39a6 f83d 7914 35bd e591 7fbd 6d30 2c3d

actor.0.bias f4 [64]
-0.17924978 -0.16608617 0.2359314 -0.018919941 0.24128257 -0.115159534 -0.17170443 -0.041635804
-0.16822222 0.14717841 -0.12622139 0.035891872 -0.1070777 -0.01719382 -0.03052982 -0.027428925
-0.059670486 -0.096067294 0.1383765 0.11087993 -0.06300316 0.09820335 0.2003746 -0.09061368
-0.16882877 0.13655154 0.015710823 -0.17816164 -0.15883888 -0.1928788 0.17254347 -0.10591295
-0.18070568 0.113495946 -0.1726272 -0.14360029 -0.121617086 -0.042622227 0.07571587 0.15870531
0.14276889 0.13106042 0.07921552 0.020858428 0.11824458 -0.008186547 0.077900596 -0.08139141
0.063752145 -0.081192344 -0.15786146 0.048300333 0.0495394 0.07838929 -0.12400358 0.13462707
0.10872044 0.13509391 -0.116590805 -0.018031264 0.087753564 -0.051156525 -0.071673 0.15690736
00000000: 418d 37be 7e12 2abe 0098 713e fefd 9abc
00000010: c712 773e c3d8 ebbd 49d3 2fbe 4e8a 2abd
00000020: 7242 2cbe f0b5 163e 2e40 01be 5b03 133d
00000030: 8e4b dbbd 0eda 8cbc ac19 fabc a0b2 e0bc
00000040: 0a69 74bd eebe c4bd 92b2 0d3e 0415 e33d
00000050: cd07 81bd d71e c93d 002f 4d3e aa93 b9bd
00000060: 73e1 2cbe 2bd4 0b3e fcb3 803c 0170 36be
00000070: a9a6 22be 0582 45be 3caf 303e e4e8 d8bd
00000080: e90a 39be 9070 e83d 2fc5 30be f40b 13be
00000090: 6112 f9bd a594 2ebd ec10 9b3d a583 223e
000000a0: 0232 123e b434 063e bf3b a23d 4bdf aa3c
000000b0: 372a f23d de20 06bc 598a 9f3d 8ab0 a6bd
000000c0: 7c90 823d 2c48 a6bd 6fa6 21be 92d6 453d
000000d0: d3e9 4a3d 908a a03d 97f5 fdbd aedb 093e
000000e0: d2a8 de3d 0f56 0a3e 29c7 eebd 4db6 93bc
000000f0: 24b8 b33d 8189 51bd 4bc9 92bd 53ac 203e

actor.2.weight f4 [32, 64]
0.091568835 0.1540184 -0.010073013 -0.17294602 0.053733498 0.1643558 0.14536741 0.09355759
0.2008155 -0.1506735 0.170105 0.10204108 -0.043942723 0.05866946 0.12924512 -0.044947412
-0.008893354 0.31062406 0.18507181 -0.042557456 0.24899636 -0.27189294 -0.2510267 0.07360539
0.013020887 0.03382218 0.15747601 0.058328643 0.110431 0.12921755 0.033735245 -0.02377939
0.11666638 0.0634076 0.050114464 0.060750008 -0.03579594 -0.14512639 -0.05533831 -0.1887404
-0.08057762 -0.1081852 -0.100592755 -0.13514313 0.03636329 0.17317232 0.011035342 -0.09696754
0.037098695 0.013439301 0.24780305 -0.2637346 -0.014445318 -0.00057387847 -0.13136823 -0.060450573
-0.09095576 -0.110129766 0.004860863 0.063790075 -0.15250266 -0.11792542 -0.11270884 -0.16940702
-0.49229774 -0.15621798 -0.081215635 -0.10399172 0.31837466 -0.074145205 -0.034735937 -0.37645507
0.31040817 0.13052766 -0.08725773 0.062000208 -0.07298434 0.3039301 -0.28653875 -0.18927705
-0.07008803 0.06780209 -0.18530393 -0.23370044 -0.17654647 -0.26470405 -0.066073425 -0.18009171
-0.0009987893 0.012321621 0.06854423 0.0048293523 -0.18129508 0.0029440178 -0.004732345 -0.014919423
-0.135801 0.070303604 -0.20651367 -0.037815653 -0.06806686 -0.054603323 -0.14141147 0.18365173
0.12429939 -0.0099282395 0.09125083 -0.0026466704 -0.097617224 -0.11479152 0.21068476 -0.00046940809
-0.16524741 0.008081599 -0.11847315 0.02742257 0.07656913 0.08302436 -0.44041494 0.060281396
0.099881105 0.0019613598 0.021329654 0.073635414 -0.021399317 -0.020345548 -0.058903944 0.28189924
-0.12108698 -0.11367204 0.16732045 0.16251034 -0.03447619 -0.023812002 0.09650462 -0.26077023
-0.05236089 0.033165198 -0.14582019 -0.12565863 -0.14631873 -0.009070981 -0.025813514 -0.08279385
-0.18689723 -0.074720785 -0.04975587 0.1720721 -0.038357656 0.20442086 0.22369263 -0.022358615
0.04623736 0.08166286 -0.04533998 -0.123177186 -0.043997172 -0.087761074 -0.00018150822 -0.18444283
-0.040191647 0.057039317 0.10792242 -0.16042827 0.014467344 0.05401685 -0.0030239609 0.23263276
0.039402723 0.26323923 0.078438416 -0.10834481 0.126081 -0.36242437 -0.060832318 0.20062897
0.052484706 -0.041744664 -0.1259049 0.06945335 -0.154185 0.16736703 0.16140029 0.11391121
-0.05517163 0.06319149 0.046504922 -0.010952878 0.09915495 -0.03945283 0.099039145 0.26295957
0.16299404 0.22597636 0.13608433 0.1386267 -0.18847694 0.1582944 0.14261934 0.04612633
-0.20684728 -0.16836636 -0.048961774 -0.11573026 0.033177096 -0.13217016 0.18453024 0.16589612
0.08510118 -0.12987196 0.124886416 0.29232466 0.14515676 0.10638357 0.032768168 0.0055013904
0.10380855 -0.028599663 0.020860676 0.08196324 0.088939846 0.039237436 -0.17823753 -0.31962618
0.01713054 0.15585633 0.12201594 0.014458283 -0.06442156 -0.07348214 0.08983316 -0.083027735
0.12151837 0.012961497 0.0010980333 -0.091908924 0.15247114 -0.009366316 0.119060524 0.12726353
0.23767482 0.07097733 -0.24366824 0.10814747 -0.09183173 -0.057185434 0.08600827 -0.19429934
-0.05240723 0.14863965 0.056782566 0.11977432 0.11344744 0.072316825 -0.145011 0.018488685
00000000: 7188 bb3d 00b7 1d3e 4709 25bc c318 31be
00000010: a817 5c3d e34c 283e 32db 143e 1f9b bf3d
00000020: 94a2 4d3e 274a 1abe 0130 2e3e eafa d03d
00000030: 49fd 33bd 634f 703d d558 043e c71a 38bd
00000040: 6eb5 11bc 1e0a 9f3e 7783 3d3e ba50 2ebd
00000050: e7f8 7e3e 8d35 8bbe 9286 80be 6cbe 963d
00000060: 8f55 553c 2089 0a3d 6441 213e 04ea 6e3d
00000070: a629 e23d 9b51 043e f82d 0a3d ffcc c2bc
00000080: c8ee ee3d d8db 813d d344 4d3d 00d5 783d
00000090: c39e 12bd 039c 14be 6caa 62bd 2a45 41be
000000a0: e105 a5bd 3490 ddbd 9303 cebd f662 0abe
000000b0: acf1 143d 1654 313e 94cd 343c eb96 c6bd
000000c0: cdf4 173d 8430 5c3c 15c0 7d3e 3908 87be
000000d0: 0eac 6cbc 5570 16ba 6585 06be 059b 77bd
000000e0: 0347 babd b78b e1bd e047 9f3b 5fa4 823d
000000f0: a829 1cbe e282 f1bd e4d3 e6bd 0979 2dbe
00000100: 730e fcbe 9bf7 1fbe 6254 a6bd 9cf9 d4bd
00000110: 0102 a33e 71d9 97bd 4547 0ebd b8be c0be
00000120: d2ed 9e3e 0ba9 053e 2eb4 b2bd eef3 7d3d
00000130: d078 95bd ba9c 9b3e 35b5 92be d8d1 41be
00000140: 508a 8fbd d2db 8a3d 50c0 3dbe 2b4f 6fbe
00000150: 99c8 34be 4a87 87be 8151 87bd f669 38be
00000160: cfe9 82ba a0e0 493c eb60 8c3d 8b3f 9e3b
00000170: 6ba5 39be 6cf0 403b ca11 9bbb 9870 74bc
00000180: 6b0f 0bbe 56fb 8f3d 5278 53be 96e4 1abd
00000190: a366 8bbd bca7 5fbd 2bce 10be 330f 3c3e
000001a0: ae90 fe3d 0eaa 22bc b7e1 ba3d c373 2dbb
000001b0: 8aeb c7bd d117 ebbd bfbd 573e e31a f6b9
000001c0: 9e36 29be af68 043c 0da2 f2bd 4ca5 e03c
000001d0: 47d0 9c3d ad08 aa3d 117e e1be a0e9 763d
000001e0: 778e cc3d 288a 003b 87bb ae3c 2ace 963d
000001f0: 9f4d afbc b5ab a6bc 4345 71bd 1955 903e
00000200: 73fc f7bd e3cc e8bd 0d56 2b3e 1c69 263e
00000210: e836 0dbd 6311 c3bc 37a4 c53d ad83 85be
00000220: 5f78 56bd 3bd8 073d e351 15be a8ac 00be
00000230: 94d4 15be 749e 14bc dd76 d3bc d28f a9bd
00000240: fd61 3fbe 3607 99bd d0cc 4bbd ab33 303e
00000250: eb1c 1dbd b453 513e ae0f 653e 6a29 b7bc
00000260: 6363 3d3d dc3e a73d 6ab6 39bd 5244 fcbd
00000270: 6136 34bd 14bc b3bd 3e53 3eb9 95de 3cbe
00000280: ff9f 24bd 0fa2 693d 6e06 dd3d 4f47 24be
00000290: 7008 6d3c c640 5d3d a52d 46bb 4837 6e3e
000002a0: c064 213d 4bc7 863e 52a4 a03d e2e3 ddbd
000002b0: 611b 013e b08f b9be 4f2b 79bd ae71 4d3e
000002c0: 34fa 563d 74fc 2abd 37ed 00be 8f3d 8e3d
000002d0: ace2 1dbe 4362 2b3e 1e46 253e 484a e93d
000002e0: a6fb 61bd 8a6a 813d f27b 3e3d b373 33bc
000002f0: c011 cb3d 4a99 21bd 09d5 ca3d a3a2 863e
00000300: e9e7 263e 5966 673e b159 0b3e 28f4 0d3e
00000310: 1900 41be ed17 223e ce0a 123e f6ee 3c3d
00000320: c6cf 53be 3b68 2cbe 248c 48bd fd03 edbd
00000330: b5e4 073d 9d57 07be 7ff5 3c3e ace0 293e
00000340: 8749 ae3d 28fd 04be 73c4 ff3d 94ab 953e
00000350: f9a3 143e a1df d93d ea37 063d 0245 b43b
00000360: 9499 d43d d749 eabc 02e4 aa3c 58dc a73d
00000370: 1826 b63d 6fb7 203d e683 36be 0ba6 a3be
00000380: 5955 8c3c cd98 1f3e 7ee3 f93d 6fe2 6c3c
00000390: 73ef 83bd ce7d 96bd 73fa b73d 720a aabd
000003a0: a0de f83d 755c 543c e2eb 8f3a bf3a bcbd
000003b0: 6521 1c3e 2d75 19bc 01d6 f33d 5f51 023e
000003c0: 0761 733e 905c 913d 2b84 79be 6c7c dd3d
000003d0: 4612 bcbd 463b 6abd 1b25 b03d 68f6 46be
000003e0: f7a8 56bd fe34 183e d694 683d 3d4c f53d
000003f0: 2257 e83d d81a 943d c37d 14be 9575 973c

actor.2.bias f4 [32]
0.0011154937 0.12407446 0.034753833 0.040976096 -0.081889234 -0.085580975 -0.14367251 -0.008243639
-0.00408469 0.10018961 -0.04697902 -0.030712416 -0.07119892 0.020949822 -0.061823096 -0.019978859
0.066225074 -0.03555824 0.056714043 -0.024021974 -0.013036105 -0.053966414 0.0039028293 0.098744065
-0.086492695 0.0840766 -0.0038085154 -0.055796057 0.018824035 0.011247633 0.0803391 -0.12336133
00000000: c235 923a c01a fe3d 095a 0e3d 8dd6 273d
00000010: 8bb5 a7bd 1445 afbd e31e 13be 5410 07bc
00000020: ddd8 85bb 3630 cd3d 136d 40bd 9b98 fbbc
00000030: bdd0 91bd f69e ab3c 373a 7dbd b4aa a3bc
00000040: 03a1 873d 84a5 11bd fc4c 683d bbc9 c4bc
00000050: 6395 55bc e30b 5dbd 9cc6 7f3b 543a ca3d
00000060: 1523 b1bd 5a30 ac3d 4998 79bb 688a 64bd
00000070: dd34 9a3c fe47 383c d388 a43d dda4 fcbd

actor.4.weight f4 [4, 32]
-0.2761321 -0.08242652 0.404983 0.14722793 -0.21087572 -0.42103273 -0.11764189 0.042213283
0.14424002 -0.38067505 -0.17895727 0.04546958 -0.71078116 0.057418525 0.42071673 0.20757596
-0.006850875 0.10309385 0.24910253 0.49563542 0.099144645 0.32370666 0.17682715 0.541564
-0.14939049 -0.116546035 0.018940276 0.15457244 -0.16198681 -0.28487617 0.021842783 -0.17786896
-0.15185869 0.55364615 0.30347005 -0.30031115 -0.215652 0.09924805 -0.35736957 -0.3441717
-0.39667547 0.05365801 0.55088407 0.6755519 0.019315377 0.27444646 0.12687123 -0.5558335
0.36784998 -0.05420358 0.47933996 0.07499594 -0.25680128 0.2319286 0.35844013 0.013369366
-0.13992642 0.12264601 -0.0014521899 -0.45693645 0.43272257 -0.22754554 -0.35918888 -0.33077642
-0.029002853 0.010923721 -0.11562307 -0.21707942 -0.14360045 0.008508341 -0.2402895 -0.24715012
-0.14724806 -0.0017087567 -0.16067286 0.11726999 0.10783447 0.13771486 0.05618 0.04751506
0.15831807 -0.19201055 -0.12695545 -0.14863992 0.07030541 0.088795654 -0.14667554 -0.023260916
-0.050963506 0.04926113 0.046499196 -0.20726742 -0.08725297 0.07997922 0.20169538 0.011924093
-0.02411804 -0.15440568 0.007967634 -0.12412913 -0.36809164 0.20767024 -0.26477325 -0.11446926
-0.13294818 0.3368975 0.00813242 0.1619968 -0.0120078735 -0.13653821 -0.3191127 0.07960719
-0.23792763 -0.4095969 0.13770054 0.0012699114 -0.27386495 -0.31586805 -0.16287716 0.03602733
0.26341978 -0.33874586 -0.39248568 -0.006035482 0.22025917 -0.21826014 0.2012424 -0.15575564
00000000: 3061 8dbe 3ccf a8bd ef59 cf3e ebc2 163e
00000010: ceef 57be 9a91 d7be 3bee f0bd d6e7 2c3d
00000020: a8b3 133e d7e7 c2be 9340 37be 4f3e 3a3d
00000030: c1f5 35bf b02f 6b3d 2f68 d73e cb8e 543e
00000040: 4e7d e0bb de22 d33d bc14 7f3e edc3 fd3e
00000050: 590c cb3d e1bc a53e 2d12 353e f0a3 0a3f
00000060: d2f9 18be b0af eebd a328 9b3c 3d48 1e3e
00000070: dfdf 25be 4adb 91be a3ef b23c 4823 36be
00000080: d880 1bbe c1bb 0d3f 6d60 9b3e 62c2 99be
00000090: e1d3 5cbe 9042 cb3d 25f9 b6be 4637 b0be
000000a0: 0c19 cbbe 80c8 5b3d bd06 0d3f f8f0 2c3f
000000b0: 483b 9e3c 3f84 8c3e 88ea 013e 1b4b 0ebf
000000c0: d556 bc3e 9304 5ebd 0c6c f53e 7997 993d
000000d0: 757b 83be b17e 6d3e 7785 b73e 2f0b 5b3c
000000e0: df48 0fbe d52d fb3d 6857 beba 93f3 e9be
000000f0: d08d dd3e b301 69be 9be7 b7be 875b a9be
00000100: 6497 edbc 68f9 323c cacb ecbd 114a 5ebe
00000110: ff0b 13be 9266 0b3c 730e 76be ec14 7dbe
00000120: 32c8 16be 5cf8 dfba 6d87 24be 402b f03d
00000130: 52d8 dc3d 2005 0d3e 001d 663d 279f 423d
00000140: 221e 223e 6a9e 44be 9c00 02be 1035 18be
00000150: 48fc 8f3d 7fda b53d 1d32 16be ad8d bebc
00000160: 1cbf 50bd 0ac6 493d f175 3e3d e93d 54be
00000170: afb1 b2bd 25cc a33d 3c89 4e3e 455d 433c
00000180: 3293 c5bc 861c 1ebe ae8a 023c 6a37 febd
00000190: 8276 bcbe 82a7 543e 5c90 87be dc6e eabd
000001a0: 9123 08be d47d ac3e d73d 053c 7de2 253e
000001b0: acbc 44bc acd0 0bbe bd62 a3be 1809 a33d
000001c0: 4da3 73be afb6 d1be 5f01 0d3e 2873 a63a
000001d0: 0738 8cbe 75b9 a1be 45c9 26be 6591 133d
000001e0: f5de 863e 1970 adbe e2f3 c8be 4bc5 c5bb
000001f0: 9f8b 613e 967f 5fbe 7d12 4e3e 687e 1fbe

actor.4.bias f4 [4]
0.079606004 -0.07868326 0.1444544 -0.12493331
00000000: 7908 a33d b024 a1bd dbeb 133e 09dd ffbd

critic.0.weight f4 [64, 24]
0.18307883 0.16195805 0.13610284 -0.09286717 -0.028048106 -0.07875027 0.09717202 0.15086083
0.1571684 -0.1371714 0.14385746 -0.082699046 -0.035929006 0.1786656 -0.16891192 -0.1023502
0.023999888 0.07569768 -0.073852114 -0.062169973 -0.09060434 -0.029779078 -0.18233122 -0.09715008
0.02577625 0.07884208 0.16647604 -0.0037902188 -0.09350309 0.14044537 -0.20657812 0.07155859
0.05370022 -0.0109300865 0.206377 0.15060198 0.18750586 -0.10924406 -0.048628736 -0.12208813
0.13138494 -0.13562909 0.087921984 0.14789799 0.07197988 0.053986408 -0.05220604 -0.020027297
-0.083566874 0.031248853 0.09909961 -0.08853869 -0.15273346 -0.09752485 -0.1047597 -0.096465595
0.16817854 0.14031085 0.13389938 0.007122444 -0.09507503 0.15933889 -0.20543768 0.008207006
-0.1539013 -0.11707684 0.10199708 -0.1786057 -0.11347683 -0.15982467 0.19224554 -0.06401077
0.1566075 -0.103928775 0.13519508 -0.044563524 0.04760156 0.1283394 0.12271268 -0.1394009
0.15182382 0.14444716 0.09953455 0.08022898 -0.08691241 0.09001553 0.12395116 0.1248634
0.02617756 -0.1668823 0.17992431 -0.16894114 -0.15620959 0.016441021 0.04174693 0.14718997
-0.13286553 0.01042897 -0.11918849 -0.18722771 0.14217593 -0.01851022 0.12748946 -0.045318842
0.10616507 -0.15296432 0.05586252 -0.09419606 -0.013738844 -0.057577405 -0.20726031 -0.10311838
0.118206896 -0.1718065 0.16159584 0.074820854 0.07894742 0.121142626 -0.19534004 -0.01478526
-0.0043114754 0.11033629 -0.16259572 -0.012150371 0.06015931 -0.10007594 -0.0069514043 -0.09488267
0.09163732 0.07367737 0.0830858 -0.037067957 -0.005013856 0.1541836 0.001932498 0.07385097
0.09082429 0.09067763 -0.18685846 -0.11145855 -0.015052134 -0.019958274 0.19001938 0.027345033
-0.07445521 -0.16455786 -0.09614158 0.120926544 0.13152853 0.12877938 -0.030139772 0.008345912
0.1294442 -0.031547114 0.09775585 0.014109182 0.073294416 -0.17426945 -0.08842185 -0.17623225
0.15873209 0.1162896 -0.06851331 -0.14543425 -0.119738206 0.1510777 0.13514818 0.068435065
-0.16749409 0.06435073 0.037281085 -0.023927117 0.17167524 0.053444594 -0.13687065 -0.036438838
-0.14498295 0.1646004 0.084727705 0.08902253 0.089679375 0.10722815 -0.11288998 0.16517732
-0.18577942 0.075361 -0.039082937 0.021094931 0.08260326 -0.19881554 -0.03567156 0.10532101
-0.15196271 0.12483522 -0.16888294 0.025907505 -0.026854731 0.03599673 -0.11162619 0.10842077
-0.12061703 0.099357836 -0.0455338 0.100295 -0.17200355 -0.009916775 -0.099414356 -0.0646117
0.012680432 -0.15934977 -0.15912104 0.12076488 0.03230661 0.113800526 -0.18570602 -0.14192894
0.18775843 0.032005634 0.14473897 0.07932896 0.083837494 0.0704765 -0.07361153 -0.110653415
0.17751631 -0.0015333251 0.14868693 0.074879825 -0.124838576 -0.18866707 -0.18576668 -0.109432794
0.089249656 -0.01761097 -0.059062976 -0.14090139 0.050815936 -0.032975357 0.04892302 0.027653977
-0.23668675 0.016686184 -0.17844236 0.15820417 -0.1609251 -0.014204807 -0.06727383 0.058052186
-0.022688543 0.13811526 0.15886359 -0.11350006 -0.053501084 -0.15013854 0.17240073 -0.11303276
00000000: 0479 3b3e 55d8 253e 8b5e 0b3e 2531 bebd
00000010: 24c5 e5bc d247 a1bd 2002 c73d 437b 1a3e
00000020: c1f0 203e a976 0cbe 5f4f 133e 1e5e a9bd
00000030: 4b2a 13bd 1df4 363e 3ff7 2cbe fb9c d1bd
00000040: 6a9b c43c 6307 9b3d c73f 97bd f1a5 7ebd
00000050: c58e b9bd 41f3 f3bc 09b5 3abe 9ff6 c6bd
00000060: b728 d33c f577 a13d b278 2a3e 5265 78bb
00000070: 8c7e bfbd e9d0 0f3e 3789 53be 4f8d 923d
00000080: c3f4 5b3d 1b14 33bc 7e54 533e 6837 1a3e
00000090: 8901 403e 5abb dfbd ed2e 47bd 5709 fabd
000000a0: c689 063e 5ae2 0abe 7110 b43d 9272 173e
000000b0: 306a 933d da20 5d3d 00d6 55bd 4910 a4bc
000000c0: 1c25 abbd 98fd ff3c bcf4 ca3d c653 b5bd
000000d0: 2966 1cbe 1cbb c7bd 418c d6bd c18f c5bd
000000e0: ff36 2c3e a6ad 0f3e eb1c 093e 6463 e93b
000000f0: b3b6 c2bd bc29 233e 415e 52be ae76 063c
00000100: 4d98 1dbe fbc5 efbd d8e3 d03d 6ae4 36be
00000110: 8a66 e8bd 14a9 23be 04dc 443e 1418 83bd
00000120: b75d 203e 9cd8 d4bd 9470 0a3e 3e88 36bd
00000130: daf9 423d 676b 033e c950 fb3d 1cbf 0ebe
00000140: b477 1b3e f5e9 133e c5d8 cb3d 174f a43d
00000150: 22ff b1bd 105a b83d 1bda fd3d 62b8 ff3d
00000160: 5372 d63c 32e3 2abe 143e 383e e8fe 2cbe
00000170: 68f5 1fbe 52af 863c d4fe 2a3d f8b8 163e
00000180: e70d 08be 45de 2a3c 1819 f4bd 9fb8 3fbe
00000190: 9196 113e bfa2 97bc 998c 023e 40a0 39bd
000001a0: 126d d93d aea2 1cbe 19d0 643d dde9 c0bd
000001b0: e318 61bc 49d6 6bbd 0c3c 54be bb2f d3bd
000001c0: 7516 f23d 0bee 2fbe 6179 253e ad3b 993d
000001d0: 2faf a13d a019 f83d 3807 48be e03d 72bc
000001e0: 4747 8dbb fef7 e13d 7e7f 26be 5a12 47bc
000001f0: 9c69 763d 9df4 ccbd 9bc8 e3bb d851 c2bd
00000200: 59ac bb3d 29e4 963d e328 aa3d 92d4 17bd
00000210: 464b a4bb 4ee2 1d3e df4b fd3a 2d3f 973d
00000220: 1602 ba3d 31b5 b93d d357 3fbe 6144 e4bd
00000230: 3a9d 76bc 897f a3bc 7194 423e b102 e03c
00000240: f97b 98bd db81 28be e0e5 c4bd 56a8 f73d
00000250: 6aaf 063e bede 033e afe7 f6bc 4bbd 083c
00000260: 058d 043e 8c37 01bd 3834 c83d 332a 673c
00000270: 621b 963d b173 32be 8416 b5bd 3a76 34be
00000280: aa8a 223e 3e29 ee3d b550 8cbd b7ec 14be
00000290: 4e39 f5bd 1db4 1a3e 4964 0a3e af27 8c3d
000002a0: 9283 2bbe 51ca 833d 0db4 183d cd02 c4bc
000002b0: a2cb 2f3e b8e8 5a3d d227 0cbe e440 15bd
000002c0: 6976 14be 028d 283e b885 ad3d 7251 b63d
000002d0: d2a9 b73d 6f9a db3d dd32 e7bd 3e24 293e
000002e0: f63c 3ebe de56 9a3d 6e15 20bd 47cf ac3c
000002f0: e62b a93d 4d96 4bbe 571c 12bd 8bb2 d73d
00000300: 1d9c 1bbe 9ca9 ff3d a6ef 2cbe fa3b d43c
00000310: 74fe dbbc 4f71 133d 469c e4bd b50b de3d
00000320: 1006 f7bd 1f7c cb3d a681 3abd 7767 cd3d
00000330: b321 30be f879 22bc c199 cbbd 2453 84bd
00000340: 96c1 4f3c 962c 23be a0f0 22be 9453 f73d
00000350: f053 043d 4010 e93d b829 3ebe d255 11be
00000360: bf43 403e 5718 033d 7436 143e 3977 a23d
00000370: feb2 ab3d fc55 903d a4c1 96bd 429e e2bd
00000380: d6c6 353e daf9 c8ba 6341 183e 985a 993d
00000390: 5eab ffbd f131 41be 9f39 3ebe 4d1e e0bd
000003a0: 86c8 b63d e244 90bc 05ec 71bd 7448 10be
000003b0: 5f24 503d 2b11 07bd 8163 483d 988a e23c
000003c0: 035e 72be 77b1 883c 98b9 36be 4600 223e
000003d0: 8dc9 24be 47bb 68bc ddc6 89bd 21c8 6d3d
000003e0: 53dd b9bc 166e 0d3e 23ad 223e b872 e8bd
000003f0: f423 5bbd ebbd 19be d189 303e b87d e7bd

critic.0.bias f4 [64]
0.16711973 0.11396004 -0.11708453 -0.1573695 0.17484222 0.01748692 0.112755515 0.18776464
-0.034269247 0.00084531127 0.14818202 -0.17547953 -0.043352768 0.14365318 -0.01967658 0.02359244
-0.03481267 -0.02843271 -0.17125079 -0.06696702 0.015824432 -0.07917936 -0.18403113 -0.035302594
0.21501908 -0.051483776 0.09416517 -0.11508038 -0.0057327747 -0.1405395 -0.07709953 0.16508223
-0.03837034 0.038671628 0.084333844 -0.19601132 -0.14008442 -0.032080837 -0.16119264 -0.015204299
0.101663105 0.045374 -0.18662868 -0.15697393 -0.13091494 -0.20400621 -0.15060282 0.027959533
0.124205686 0.07055724 -0.17503949 -0.17351583 0.099375926 0.113092884 0.06347657 -0.052305605
0.14757165 -0.03924245 -0.18264166 0.057700254 -0.1565247 0.09427366 -0.16490293 -0.070627205
00000000: 6f21 2b3e e263 e93d 04ca efbd 7825 21be
00000010: d709 333e bb40 8f3c 5dec e63d 6045 403e
00000020: e95d 0cbd e197 5d3a 07bd 173e e8b0 33be
00000030: ac92 31bd d219 133e c730 a1bc ef44 c13c
00000040: bb97 0ebd b7eb e8bc 5e5c 2fbe 0126 89bd
00000050: 3da2 813c ca28 a2bd a872 3cbe 7499 10bd
00000060: f62d 5c3e a7e0 52bd abd9 c03d 43af ebbd
00000070: 00da bbbb 96e9 0fbe 5ce6 9dbd 510b 293e
00000080: 382a 1dbd 2466 1e3d 39b7 ac3d 31b7 48be
00000090: 4a72 0fbe 3267 03bd af0f 25be 741b 79bc
000000a0: bf34 d03d 16da 393d 971b 3fbe c6bd 20be
000000b0: 910e 06be 01e7 50be a037 1abe 640b e53c
000000c0: 8d5f fe3d 5080 903d 8d3d 33be 22ae 31be
000000d0: 9b85 cb3d 3e9d e73d 0100 823d 673e 56bd
000000e0: 061d 173e b1bc 20bd 6a06 3bbe 1a57 6c3d
000000f0: 0348 20be 8c12 c13d 50dc 28be ffa4 90bd

critic.2.weight f4 [32, 64]
0.06862769 -0.07639789 -0.070201054 -0.021720966 0.06145883 -0.071099214 -0.1142964 -0.044117503
0.09272144 0.09279834 -0.12050798 0.022694722 -0.07527148 -0.12757766 -0.028418262 0.122491255
-0.02160982 -0.033231992 -0.1003427 0.07500194 0.09636994 0.082624406 -0.10558887 -0.041335862
0.09104444 0.09260824 -0.06999848 0.09935534 0.06134723 -0.08930769 0.08338738 -0.017167041
0.010342826 -0.06610545 0.03127211 -0.0672085 -0.009905544 -5.3519518e-05 -0.10272303 0.09585361
-0.096021704 0.078718424 0.013333212 0.007739477 0.05769262 0.094079174 -0.116204984 0.061190635
-0.07217506 0.10955642 -0.077353515 0.07445322 -0.11706476 0.0007491817 0.057274096 0.12396335
0.10774426 -0.060709797 -0.096035875 0.038052022 0.10639943 -0.0519002 -0.04329453 -0.07058947
0.08423846 -0.019652328 0.101468965 -0.018292325 0.105188526 0.02001135 -0.07051051 0.012075093
-0.09082322 -0.07611893 0.024070295 -0.10462281 0.11596734 0.114853084 0.09536396 -0.0138076255
0.07962353 0.05754977 -0.02900633 0.013925192 0.0064873328 -0.032825366 -0.06615441 0.106295995
-0.06635039 -0.032999206 -0.08008616 0.09206586 -0.094377264 -0.03723227 0.007143236 0.051970333
-0.11306822 -0.09771277 -0.09387081 0.09402749 0.06819507 -0.035660498 0.033531398 0.11303871
0.04978367 0.053803664 0.058233187 -0.11424324 0.094485864 -0.11480623 0.09671586 0.040313095
-0.11519255 -0.030720823 -0.05578612 -0.11148815 -0.12204052 0.052950036 -0.04138865 0.0064976094
0.09513115 -0.048587434 -0.062276077 0.062835835 -0.026323024 -0.04627307 -0.07240356 0.04295881
0.05353501 -0.070937924 0.12337819 -0.046471704 -0.011524963 -0.023948636 0.04563469 0.049423527
-0.03185259 -0.10857902 0.075700015 -0.10887005 -0.019808115 0.083058625 0.04143141 0.06702826
0.035852004 -0.044080094 -0.0502899 -0.061233923 0.00861726 -0.032915138 -0.059254132 0.017392142
0.08898682 -0.036825616 0.028327337 0.016819471 0.10457976 -0.05396998 0.033076305 0.023430213
0.09301272 -0.13532175 0.06649793 0.0022417924 -0.0814656 0.04929458 -0.03941017 -0.024711771
-0.028098991 -0.10618059 0.056566905 -0.088679254 -0.03751349 0.020730264 -0.037839964 0.015140275
0.009157572 0.06904979 0.06510336 0.06212667 0.105983935 0.009117588 -0.008290031 -0.11359546
-0.0025390738 -0.008890783 0.09514533 0.09545421 0.041684568 -0.038166292 0.066113904 0.07343897
-0.022557916 0.071337156 0.002955837 -0.106470734 0.039005164 -0.065348126 -0.030853434 0.06764824
0.025393719 -0.0940119 0.029682571 -0.007950239 0.037282493 -0.05317675 -0.040463585 -0.099261865
0.012158938 -0.030979615 -0.09114572 -0.12192484 -0.10487153 0.10545701 -0.13091543 -0.08470516
0.09743769 0.06252772 0.0031845483 0.118956365 0.11589387 0.082845174 0.06338703 -0.03794544
-0.091765895 0.08593853 -0.122741 -0.08369003 -0.096749425 0.13053271 -0.04988829 0.10863768
-0.08852065 0.013423552 0.08801818 0.047076043 0.07983206 -0.09988639 0.100927554 0.09985145
-0.057641085 0.073591195 0.114035256 0.10380935 -0.07040609 0.024126392 -0.058264997 -0.052850712
-0.036901206 0.033104207 0.12188426 -0.060786728 -0.03714545 -0.08904522 0.06458115 0.053588234
00000000: ad8c 8c3d 7f76 9cbd 92c5 8fbd 2bf0 b1bc
00000010: 41bc 7b3d 779c 91bd 3b14 eabd 8eb4 34bd
00000020: bde4 bd3d 0e0d be3d e3cc f6bd 48ea b93c
00000030: ef27 9abd b8a3 02be 6acd e8bc b2dc fa3d
00000040: 1407 b1bc 451e 08bd 7980 cdbd 9e9a 993d
00000050: 9a5d c53d fc36 a93d fa3e d8bd cb4f 29bd
00000060: 8275 ba3d 64a9 bd3d 5d5b 8fbd d07a cb3d
00000070: 3c47 7b3d f3e6 b6bd 01c7 aa3d e5a1 8cbc
00000080: f574 293c 4b62 87bd 2f17 003d 9ca4 89bd
00000090: dd4a 22bc 257a 60b8 7460 d2bd e64e c43d
000000a0: 07a7 c4bd 2037 a13d 8b73 5a3c 709b fd3b
000000b0: 194f 6c3d 95ac c03d e1fc edbd 08a3 7a3d
000000c0: 85d0 93bd 1e5f e03d 856b 9ebd ee7a 983d
000000d0: a6bf efbd bc64 443a 3e98 6a3d 7fe0 fd3d
000000e0: 06a9 dc3d d6aa 78bd 75ae c4bd 70dc 1b3d
000000f0: f2e7 d93d 4e95 54bd 9b55 31bd 3691 90bd
00000100: 3785 ac3d ebfd a0bc f6ce cf3d c9d9 95bc
00000110: 156d d73d d8ee a33c d067 90bd 9cd6 453c
00000120: 8601 babd 3ee4 9bbd 112f c53c 7c44 d6bd
00000130: 4980 ed3d 1838 eb3d 2e4e c33d 6139 62bc
00000140: a911 a33d 4fb9 6b3d af9e edbc 7d26 643c
00000150: b193 d43b e473 06bd f77b 87bd b7b1 d93d
00000160: b7e2 87bd 2d2a 07bd 3604 a4bd 078d bc3d
00000170: de48 c1bd dd80 18bd cf11 ea3b d8de 543d
00000180: 5090 e7bd a21d c8bd 573f c0bd 7c91 c03d
00000190: dba9 8b3d be10 12bd 3858 093d d780 e73d
000001a0: f6e9 4b3d 3b61 5c3d ec85 6e3d 5cf8 e9bd
000001b0: ce81 c13d 871f ebbd f712 c63d 581f 253d
000001c0: 12ea ebbd 3caa fbbc fd7f 64bd e653 e4bd
000001d0: 61f0 f9bd 23e2 583d 2587 29bd e6e9 d43b
000001e0: 1fd4 c23d 9e03 47bd 3315 7fbd 13b0 803d
000001f0: 62a3 d7bc d588 3dbd 5148 94bd 94f5 2f3d
00000200: 8747 5b3d e747 91bd b4ad fc3d 1d59 3ebd
00000210: 33d3 3cbc ee2f c4bc 71eb 3a3d 5370 4a3d
00000220: dd77 02bd ad5e debd 9c08 9b3d 43f7 debd
00000230: a144 a2bc a41a aa3d fbb3 293d 1d46 893d
00000240: 8dd9 123d 548d 34bd c8fc 4dbd 6cd0 7abd
00000250: 682f 0d3c 06d2 06bd 76b4 72bd f779 8e3c
00000260: b93e b63d 75d6 16bd bb0e e83c fdc8 893c
00000270: ea2d d63d a00f 5dbd 057b 073d b8f0 bf3c
00000280: 747d be3d c991 0abe 1130 883d 09eb 123b
00000290: 70d7 a6bd 1de9 493d 8f6c 21bd 5770 cabc
000002a0: db2f e6bc 3675 d9bd b3b2 673d 789d b5bd
000002b0: bfa7 19bd 84d2 a93c 14fe 1abd ea0e 783c
000002c0: a409 163c fa69 8d3d e954 853d 8978 7e3d
000002d0: 1b0e d93d f061 153c e9d2 07bc bda4 e8bd
000002e0: 9766 26bb a6aa 11bc 8edb c23d 7f7d c33d
000002f0: 70bd 2a3d 4254 1cbd ba66 873d 2c67 963d
00000300: 61cb b8bc 3719 923d b7b6 413b 540d dabd
00000310: e1c3 1f3d 3dd5 85bd 57c0 fcbc 298b 8a3d
00000320: 7d06 d03c 5089 c0bd dd28 f33c b841 02bc
00000330: 87b5 183d ddcf 59bd 25bd 25bd ce49 cbbd
00000340: 4836 473c f6c8 fdbc 9baa babd bbb3 f9bd
00000350: e2c6 d6bd d8f9 d73d b20e 06be e679 adbd
00000360: 698d c73d 890e 803d dbb3 503b 659f f33d
00000370: c459 ed3d bbaa a93d 0fd1 813d ad6c 1bbd
00000380: c2ef bbbd 8a00 b03d a25f fbbd ae65 abbd
00000390: 9024 c6bd 5eaa 053e aa57 4cbd 6f7d de3d
000003a0: 514a b5bd 75ee 5b3c e042 b43d cfd2 403d
000003b0: fe7e a33d 3c91 ccbd 1bb3 ce3d eb7e cc3d
000003c0: 0f19 6cbd fbb6 963d 518b e93d ff99 d43d
000003d0: 1131 90bd b6a4 c53c 47a7 6ebd fd79 58bd
000003e0: b825 17bd 4798 073d 749e f93d 81fb 78bd
000003f0: d425 18bd 575d b6bd 1f43 843d 567f 5b3d

critic.2.bias f4 [32]
-0.03783996 0.019102946 -0.110066354 0.006746288 0.0816658 -0.080020525 0.03622953 -0.09963491
-0.01796242 0.07953322 0.07365104 0.055919528 0.10969913 -0.09432262 0.08856793 0.035584692
-0.08461137 -0.056025848 -0.03939047 0.07840713 0.067104675 0.037909783 -0.0011783767 -0.06140752
0.13658428 0.004350985 0.078751095 0.061590083 -0.0023580801 0.10544023 -0.025399428 0.1164221
00000000: 13fe 1abd c87d 9c3c 786a e1bd f70f dd3b
00000010: 6640 a73d cde1 a3bd 6a65 143d 630d ccbd
00000020: ed25 93bc 50e2 a23d 5bd6 963d e00b 653d
00000030: f0a9 e03d 382c c1bd 1a63 b53d 41c1 113d
00000040: ba48 adbd 5c7b 65bd e757 21bd eb93 a03d
00000050: 2d6e 893d 4a47 1b3d c373 9aba 7486 7bbd
00000060: c0dc 0b3e b592 8e3b 4148 a13d e245 7c3d
00000070: 058a 1abb 0cf1 d73d 7612 d0bc b66e ee3d

critic.4.weight f4 [1, 32]
0.0507073 0.09914608 -0.14467694 -0.06658919 0.092036925 0.022569688 0.15550408 0.13231608
0.0019957619 0.1588716 0.08742015 -0.082626514 -0.004393645 -0.044320375 0.022667218 -0.12320225
0.12943691 -0.10871487 -0.04501447 0.07312664 -0.026383163 -0.095548585 -0.023601383 -0.08327738
-0.037521895 0.117657736 -0.026119845 -0.025454313 0.10936052 -0.12132291 0.1445568 -0.094798185
00000000: 75b2 4f3d 1a0d cb3d 3126 14be ea5f 88bd
00000010: db7d bc3d 11e4 b83c 763c 1f3e de7d 073e
00000020: 54cb 023b 3daf 223e 5609 b33d 1738 a9bd
00000030: 91f8 8fbb 4889 35bd 9ab0 b93c 7651 fcbd
00000040: 1c8b 043e e7a5 debd 1861 38bd 6bc3 953d
00000050: 8121 d8bc faae c3bd b057 c1bc 558d aabd
00000060: 8fb0 19bd 8af6 f03d 49f9 d5bc 9085 d0bc
00000070: 69f8 df3d 2578 f8bd b306 143e 8d25 c2bd
