Policy Gradient/walker_ppo_model_7300.pth (torch, 34323 bytes, 11 tensors)

actor.0.weight f4 [64, 24]
00000000: 0082 b4bd f708 cf3e cec3 91bd 1e58 213f
00000010: 8693 1cbe 7a52 c4bd 839c 2b3f 16ba 34be
00000020: 87af 53be ba21 18be 3fcc a8ba d014 51be
00000030: 41fc 653d 7e46 223d a59e 423e a868 143e
00000040: 19c5 6c3b d392 8ebd 3e8f 1b3e a865 34be
00000050: 89fc cd3c 1b5f 073e a8dc ec3d be96 813c
00000060: 6d3c 09bc 1d4c 573e 06b5 443e 49a9 193e
00000070: 58e5 753e 0a15 223e d3ef 213f baa7 17be
00000080: a1d3 28be c9e6 73bd 7a9f 363e 9f0f cc3d
00000090: 3005 93bd 6409 b23d a3e2 d63d 9282 843d
000000a0: 18dc 75bd 41b1 b13d 9e9a 00be 989e d63c
000000b0: f555 603c e250 99bd d485 47bc e4c5 dd3d
000000c0: 4f33 a6bd ab4d c6be 7ddf 34bb 79b4 b0be
000000d0: a2fd 10be 2e7b 353d c6b6 d43e fe2a da3d
000000e0: 705e 3fbe 155b 093e 9e91 09be 84a9 af3e
000000f0: d59a 24be 30dd 643e 0861 72be e68d 64be
00000100: 5303 55be e65c 0d3d c6a0 65be 791e e73d
00000110: 673d 36bd babd 13be e6ef 3ebe aafc 71bd
00000120: 55ee 80be b77e cabe 02ac 03be 5a65 4bbe
00000130: e49c bcbe 525a 19be 528b 0a3c 860e 20be
00000140: 6a80 51bd e999 c93d 2e86 2b3d 6424 2cbd
00000150: 5e67 dd3d d7e4 0d3d 838a 22be e58f 78be
00000160: ce74 21be 937d a73d 0175 65bd fe1c 8e3d
00000170: 3946 223d fc44 1abe 8c74 153e 2608 683d
00000180: 9f9a 38be 86fd 92be 9195 3cbe 31c2 b6be
00000190: 514e 163e bb8a d83c 3c93 d7be 90d0 fdbc
000001a0: 1008 a1bd 5298 1bbb 6ee8 ba3b 2911 d43e
000001b0: c2a5 2f3e 45ef 1f3e b174 bd3d 5ffd b53d
000001c0: 098e 4cbe e05c e9bb 54ea a3bd 69f7 14bd
000001d0: 1552 3b3d 646d 0bbe 1842 24be 8aca 6f3d
000001e0: 59aa aa3d b3a9 fcbc b670 233d a5ef ecbd
000001f0: b154 383d 32c0 8abc a65b d83e f968 0bbd
00000200: a7ef 053e e206 6cbd a63f 9e3d 44d0 b63d
00000210: 2915 33be e57e 6a3e 8863 38bd 9d84 16be
00000220: 2f55 68bc f39c 103e 5b41 08be c435 25be
00000230: 46b6 62bd 94c8 273d 3ae6 fcbd df46 93bc
00000240: 9e28 ecbd 479f 76be bd40 053d 9e21 8ebe
00000250: e465 70be d747 0e3e c2aa 553e 2ae5 5d3d
00000260: 23b9 bf3d 5d77 f93d 7f9e 273e 8e93 8d3e
00000270: 5efc 053e 2627 023e 4d1b 0bbd 0803 803c
00000280: 2ac1 963d 1591 653d a961 43be cb14 543d
00000290: db14 fcbd ba42 90bd a6e0 48be 61f7 b8bd
000002a0: 7268 43bd c8f2 983e a9f9 253e 538f ef3e
000002b0: 3e96 643e 7099 93bb 0f88 eb3e c8b2 0ebd
000002c0: 2232 cabc f2ef febb c397 f5bd 9fa8 a4be
000002d0: 18ab 05be 7cb1 213d 09af 543e c6be dc3d
000002e0: 1172 ea3d 8a40 a83c f9a3 483d 9d9b 6dbd
000002f0: 624b f33d 7795 083e 298a b43d 0beb 4abe
00000300: f40e 25bd 9f2b 7abe d41d 84be 1bc8 b4be
00000310: 14e6 823e 44d0 fdbc 3bc2 07bf 7a55 333d
00000320: ffdf 5d3e b43f 253c 9e06 453c fff7 293e
00000330: 3d2c 8cbd c5ad 42be 42e9 373e 159e 113d
00000340: dcdf a8bb 9863 63bd fac3 3a3d 4af3 283e
00000350: f123 213e 0154 28bd e520 e0bd 2dfd 423e
00000360: 2471 08be 17d6 5cbe 9ffb 63be 0c54 08bf
00000370: 92f3 36be c9e3 6fbc be55 28bf f082 91bd
00000380: 26eb a83d 4d32 193e 8fbb d63d 73aa 5abe
00000390: a7aa e33d b01d ae3d 6478 c6bc d22d 13be
000003a0: 8487 e43d 2af1 19be e133 8fbc cd63 84be
000003b0: 231c 50bd 1c15 ddbd 827a 723d 508b fa3d
000003c0: 1e9a fb3c 8f2e e73e 08dd c23d a051 543e
000003d0: 7439 373e 5761 55bd c2da 433e ead8 c3bc
000003e0: 5868 50bd 026e afbd d80e 263e 6d94 bbbe
000003f0: 0506 0e3e 266c a9bd 5eef 5abd 71fd 563d
-0.08813858 0.40436527 -0.07117425 0.6302508 -0.1529065 -0.09586044 0.6703569 -0.17649111
-0.20672427 -0.14856616 -0.0012878253 -0.20418096 0.05614877 0.039618008 0.1900583 0.14493048
0.0036128222 -0.06961598 0.15191361 -0.17616904 0.025144832 0.13219874 0.11565524 0.01581895
-0.008376223 0.21025129 0.1920968 0.15005983 0.24013269 0.15828338 0.6325657 -0.14810076
-0.1648698 -0.059546266 0.17834273 0.09963917 -0.07178724 0.08693197 0.10492446 0.06470217
-0.06002435 0.086763866 -0.12558982 0.02619867 0.013692369 -0.0748613 -0.012177903 0.1082876
-0.08115255 -0.3873113 -0.002759903 -0.3451269 -0.14159253 0.044306926 0.41545695 0.10652731
-0.18688369 0.13413651 -0.13434455 0.34309018 -0.16074689 0.22350001 -0.23669827 -0.22319755
-0.2080205 0.034512423 -0.22424611 0.11285109 -0.04449215 -0.14427844 -0.18646201 -0.05907885
-0.25181833 -0.395498 -0.12858585 -0.19862881 -0.36838448 -0.1497586 0.008456068 -0.1563054
-0.051147856 0.09843809 0.04187601 -0.042026892 0.10810731 0.034642067 -0.1587315 -0.24273641
-0.15767214 0.08178248 -0.056019787 0.069391236 0.03961775 -0.15065378 0.1459524 0.056648396
-0.18027733 -0.28709048 -0.1841643 -0.3569503 0.14678313 0.02643334 -0.42104518 -0.03098324
-0.07862866 -0.0023741913 0.0057039773 0.41419342 0.17153075 0.15618618 0.09250773 0.08886217
-0.19976057 -0.0071216673 -0.08003679 -0.03636876 0.045732576 -0.13615948 -0.16040838 0.058542766
0.083332725 -0.030842638 0.03990241 -0.11569146 0.045002643 -0.016937349 0.42257422 -0.034035657
0.13079701 -0.05762375 0.07726984 0.08926442 -0.1748854 0.22899969 -0.045016795 -0.14699025
-0.014180466 0.14122371 -0.13306181 -0.16133791 -0.05534961 0.04096277 -0.123486 -0.01797813
-0.115311846 -0.24084197 0.032532442 -0.27760023 -0.23476368 0.13894592 0.2086592 0.054173626
0.09361484 0.1218097 0.16369055 0.27651638 0.13084552 0.12710246 -0.033961583 0.015626445
0.07361062 0.056046564 -0.19080223 0.051777642 -0.12308665 -0.07043977 -0.19616947 -0.09031559
-0.04770703 0.29872727 0.16208519 0.46789035 0.22322938 -0.004504375 0.46002242 -0.034838468
-0.024682108 -0.0077800686 -0.11991837 -0.32159898 -0.13053548 0.039475903 0.20769896 0.10778575
0.11447538 0.020538587 0.0489845 -0.058009733 0.118796125 0.13338266 0.088154145 -0.19816224
-0.040297464 -0.24430703 -0.25804007 -0.35308918 0.2556616 -0.030983098 -0.5303075 0.04378269
0.21667479 0.010085989 0.012025503 0.16598509 -0.06844375 -0.190116 0.17960075 0.03555115
-0.0051536392 -0.055514902 0.045597054 0.16499057 0.15736367 -0.041095737 -0.10943774 0.19041891
-0.1332441 -0.21566044 -0.22263955 -0.53253245 -0.17866352 -0.014641711 -0.6575583 -0.071050525
0.08247976 0.14960594 0.10484993 -0.21354084 0.11116534 0.08501756 -0.024227329 -0.14372948
0.1115866 -0.15033403 -0.017480792 -0.25857392 -0.050808083 -0.10795042 0.059198864 0.12233603
0.030713137 0.4515271 0.095148146 0.20734262 0.1789301 -0.052094784 0.19126418 -0.023907144
-0.05088076 -0.08565904 0.162166 -0.36636677 0.13869484 -0.08272581 -0.053450935 0.052487794

actor.0.bias f4 [64]
00000000: 1639 41be 0f50 31be 9963 743e 2633 9a3b
00000010: 0e6c 813e 019d fcbd facc 2abe 87d1 7cbd
00000020: 0a2f 29be bee8 263e f189 0cbe 5909 d83c
00000030: aa27 e5bd 8dae 88bb 07c5 37bd 4346 17bd
00000040: 3310 adbd 33ca ddbd 32a5 023e f985 d63d
00000050: d4e3 9fbd efd1 e23d d31d 613e ac66 bdbd
00000060: 752e 2ebe 12c5 153e 944a 0f3c 7913 44be
00000070: 5728 37be 3253 58be 113e 363e 8305 d7bd
00000080: 71ec 43be d28c 093e b3b0 2abe 3e94 15be
00000090: 2761 ebbd 7ba7 e6bc 7ab3 9f3d 0bca 383e
000000a0: 5ea4 1b3e 4324 193e e2d7 c53d b8be 403c
000000b0: 26ae f43d f5a3 fabc 0556 a73d a1fd 88bd
000000c0: 5cac 593d 168b a5bd 0025 2bbe 1b49 6c3d
000000d0: 766d 2a3d c7f2 ce3d 1140 febd bd83 1c3e
000000e0: b8e1 d63d 59cf 0c3e 594f edbd 2932 c6bc
000000f0: 2f11 bc3d 375a 31bd 9f4b 55bd 1e89 323e
-0.18869433 -0.17315696 0.23866118 0.0047058044 0.25277752 -0.123346336 -0.16679755 -0.06172326
-0.1652185 0.16299722 -0.13724495 0.026371645 -0.11189206 -0.0041711987 -0.044865634 -0.03693224
-0.084503554 -0.10829582 0.1275833 0.10474772 -0.07807127 0.11075198 0.21984033 -0.09248099
-0.1700991 0.14625958 0.008745808 -0.19148053 -0.17886482 -0.21125486 0.17797114 -0.10499098
-0.19133164 0.13432625 -0.16668968 -0.14607331 -0.1149314 -0.028156033 0.07797904 0.18045823
0.1519942 0.14955239 0.09660317 0.011764221 0.11947279 -0.030595759 0.08170704 -0.06689001
0.05314289 -0.08083169 -0.16713333 0.057686906 0.041608296 0.101049 -0.124145634 0.15284629
0.10492271 0.13750972 -0.115874 -0.02419384 0.09182965 -0.043298926 -0.05207407 0.17435119

actor.2.weight f4 [32, 64]
00000000: 22dc b63d ff7f 163e b634 be3c 6626 8fbe
00000010: fdb1 fabc 78fd 303e 323a 183e aeb3 b03d
00000020: abbd 363e 634b 7cbe 4fa1 4f3e 9a1d 3b3e
00000030: a802 293c 262e 983d 48b6 df3d a62b 8fbd
00000040: 06c7 3d3c 3346 863e baf5 2a3e 22be e0bd
00000050: 764b 863e 45ad 8bbe a527 c4be bf49 913c
00000060: a2b2 813d 4778 453c d9db 113e e669 923d
00000070: 7af7 aa3d 5326 1a3e 390a 0abc f249 1d3d
00000080: fcb0 243e 0e2f 173c 1a84 5e3d d887 233e
00000090: 5081 423c 895d e0bd 1bf9 90bd 6cd4 57be
000000a0: b06d 5dbe 4ec8 d2bd 2d81 fabd a9b1 30be
000000b0: 65d1 1d3c d465 4a3e 99e3 48bd a2e7 0dbe
000000c0: 7d16 8b3d f389 203d 1bc1 763e 45fe 7dbe
000000d0: eb1e c5ba df1c 1dbd 39d5 0fbe ed92 0bbd
000000e0: 586c 8bbd 85d2 f0bd f6fd b4bc c803 c4bb
000000f0: 90c7 37be fbca 1ebe 3ca6 94bd 1164 31be
00000100: 478e 07bf f069 2dbe 2554 5fbd 89ba 81bd
00000110: ca72 a83e 3be2 51bd 187d 22bd 4a48 bfbe
00000120: 7334 9b3e c34f 413e 8698 ecbd 478b 8a3d
00000130: 370c bdbd 5d41 a83e 243d 90be 03f8 2fbe
00000140: 19b4 e7bd bfe1 853d 204e 28be c185 66be
00000150: 1e8e 3ebe fcb9 88be a655 00bd 408a 2dbe
00000160: 3445 6cbc cf92 853c d4af 6e3d 7771 6ebc
00000170: 06d3 40be 1ce5 2abc e5b1 08bc 488d f5bc
00000180: 2b91 2cbe eb26 ce3d 558b 5bbe 056b 88bd
00000190: 8d32 b8bd 15ca 5cbd fc24 1fbe 08a1 693e
000001a0: 14ae 2d3e 5528 71bb 8546 cc3d 6c87 a03c
000001b0: 6b24 ccbd b968 01be 7842 6f3e 3996 b43b
000001c0: 9fb4 31be ea53 8f39 2426 fabd 7b1f 593d
000001d0: 7fbe 7f3d c045 e83d 24c8 e4be 3e98 8c3d
000001e0: 2fad c83d e0f2 763c 21ed 623b 1bfd ad3d
000001f0: 6e38 c0bc a5d8 54bc 210c 8ebd a082 9d3e
00000200: 654b fdbd d4d8 c1bd 301a 0c3e 2ac8 703e
00000210: 5350 bc3c a6d5 65bd e519 e23d 9ed1 89be
00000220: f352 42bd d572 d23d f5a5 e8bd afe3 6cbe
00000230: a682 32be 7989 6cbd 10bb 34bd 9279 c1bd
00000240: f297 48be 9c75 8bbd cd27 0ebd 7cf1 5a3e
00000250: 43b0 e2bd d14c 703e bd4c 933e dbd8 043d
00000260: ccf5 663c c182 8a3d f041 06bd 0654 17be
00000270: 316c 24bd 1fe2 cebd 9fec dc3c 2149 61be
00000280: 5e65 10bd 7328 c83d 39e7 ce3d 28f0 55be
00000290: 6ad1 363b 8532 483d d6c9 f4b9 5f06 6a3e
000002a0: ac2e 0a3e da24 963e 3c62 9e3d dde8 dabd
000002b0: 5f7b ff3d 5342 d5be eefe 11bd 1efd 883e
000002c0: 1a62 7f3c bc92 39bd a65b eebd dfe3 4f3d
000002d0: 961c 15be 4cd6 303e faeb 353e 49c5 e43d
000002e0: 3479 73bd 9661 193d 7c19 8d3d 2479 223d
000002f0: 6ad5 d93d 4467 e6bb 91df b33d cf71 793e
00000300: 2f5e f63d 32e4 9e3e 0220 9b3e d41c bd3d
00000310: 017a 51be a21b 3c3e 404e 383e bc29 b03c
00000320: 9346 76be 9c46 5fbe 4226 d6bd fbe5 0ebe
00000330: 83e7 b03b cc47 21be 63c2 343e 7308 493e
00000340: 01a3 a03d 730b 80be ccdc 2b3e 3301 cb3e
00000350: 8271 b93d 4110 1b3e b0c8 823d f9e6 16bc
00000360: 279d 083e da35 2fbd 1bcd 283c b531 683d
00000370: bc7d 213e 9af8 5f3d d973 a0be 0632 f9be
00000380: ae9f 6fbb eb79 4a3e 79e9 163e 31e9 8cbd
00000390: dbf4 39bc 76e7 cbbd 0597 1d3e 1fe5 35be
000003a0: a2cb 193e 7ec0 af3c fd8e a3bc a54c 92bd
000003b0: f5e3 753e 1662 4ebc 0104 0e3e 8c78 3f3e
000003c0: 7c40 9b3e dec0 cf3d 60ec acbe 8090 0d3e
000003d0: 4f24 26be 2686 c9bd 6ea7 623d 8057 57be
000003e0: 6f55 82bd 02d8 273e cd92 c93d 7ef3 9c3d
000003f0: c3e0 3d3e 3cb9 9b3d 93cf 21be 5325 9e3d
0.08928706 0.14697264 0.023218494 -0.27958983 -0.03060245 0.1728419 0.1486595 0.08628021
0.1784579 -0.24638133 0.20276378 0.18273011 0.010315575 0.07430677 0.10923439 -0.06990747
0.011583095 0.26225433 0.166953 -0.10973765 0.26229447 -0.27280632 -0.38311496 0.01773536
0.063329 0.012052602 0.14244021 0.07149105 0.08347984 0.15053682 -0.008425289 0.038400598
0.16083139 0.009227527 0.0543252 0.15969789 0.011871651 -0.109553404 -0.07078763 -0.21077126
-0.21623874 -0.10292111 -0.122316696 -0.17255272 0.009632443 0.19765407 -0.04904518 -0.13857892
0.06791399 0.03919406 0.24097101 -0.24804027 -0.0015039121 -0.03835761 -0.14046182 -0.034075666
-0.06807774 -0.117589034 -0.022093754 -0.005981896 -0.17947221 -0.15507118 -0.07258269 -0.17323329
-0.52951473 -0.16934943 -0.054523606 -0.06334407 0.32900077 -0.05124114 -0.03967008 -0.3735984
0.30313453 0.18878083 -0.11552529 0.06764846 -0.092308454 0.32862368 -0.28171647 -0.17184453
-0.11313648 0.06537198 -0.16436052 -0.2251196 -0.18608901 -0.26704395 -0.03133168 -0.1694727
-0.014420796 0.016305355 0.05827315 -0.014553419 -0.18830499 -0.0104306005 -0.008343195 -0.029974595
-0.16852252 0.10066017 -0.2143987 -0.06661037 -0.08994017 -0.053903658 -0.15541452 0.22815335
0.16960937 -0.0036797721 0.09974388 0.019595824 -0.09967884 -0.12637605 0.233652 0.005511072
-0.17354058 0.00027337606 -0.12214306 0.053008538 0.06243753 0.11341429 -0.44683945 0.068649754
0.09798657 0.015072554 0.0034626203 0.08495542 -0.023464408 -0.012991105 -0.06935907 0.3076372
-0.12367896 -0.09465185 0.13681865 0.23513857 0.02298752 -0.056111954 0.11040095 -0.26917738
-0.047442388 0.10275809 -0.11359779 -0.2313373 -0.17432651 -0.05774829 -0.04412371 -0.09447016
-0.19589213 -0.068095416 -0.034705926 0.21381181 -0.110687755 0.23466803 0.28769484 0.032433372
0.0140966885 0.067632206 -0.032777727 -0.14778146 -0.040142242 -0.10101723 0.026968298 -0.22000553
-0.03525292 0.0977334 0.10102696 -0.20892394 0.0027895817 0.048876304 -0.00046689686 0.22853993
0.13494366 0.2932499 0.077335805 -0.106889464 0.12474703 -0.41652164 -0.03564351 0.26755613
0.015587354 -0.045305952 -0.11638574 0.050754424 -0.14561686 0.17269248 0.17765799 0.11170442
-0.05944176 0.03744658 0.068896264 0.03966631 0.106364086 -0.007031353 0.08782876 0.24359821
0.12029683 0.31033474 0.30297858 0.09234014 -0.20456697 0.18369916 0.179986 0.021504276
-0.2405036 -0.21804279 -0.10456516 -0.13954918 0.005398692 -0.15750045 0.17652278 0.1963213
0.078435905 -0.25008735 0.16783446 0.39649352 0.09054853 0.15142919 0.06385934 -0.009210342
0.13341199 -0.042775966 0.010302807 0.05668803 0.1577062 0.054680444 -0.31338385 -0.48670977
-0.0036563682 0.1977307 0.147375 -0.06880415 -0.011349882 -0.09956257 0.1538964 -0.17763184
0.15019086 0.021454092 -0.019965643 -0.07143525 0.2401274 -0.012596628 0.13868715 0.18698329
0.30322635 0.10144208 -0.3377409 0.13824654 -0.16224788 -0.0984004 0.055335455 -0.21029472
-0.063639514 0.16390994 0.09842453 0.0766363 0.18542771 0.0760369 -0.1580184 0.07721963

actor.2.bias f4 [32]
00000000: 52e2 bdbc d41f 0c3e 7e20 733d 4725 d43c
00000010: 4fe5 95bd 42b2 afbd b398 01be 6b7f 65bc
00000020: 6ca5 bcbc 342c c63d 4249 6abd 5a47 c7bb
00000030: 7f1d b0bd 26eb 923d d1eb 62bd c839 a7bc
00000040: c934 d23d e0b0 1ebd 5b53 b53d 1d0a 8cba
00000050: 8a4a adbc ec99 11bd 4731 54bb 82b2 e13d
00000060: 653f c3bd e643 853d a093 a6bc d0b4 9cbd
00000070: dc04 e03c 7500 03bd 326b e13d 5f25 1bbe
-0.023179207 0.13684016 0.05935716 0.025896681 -0.07319128 -0.08578922 -0.12655906 -0.01400743
-0.023028098 0.096764 -0.05719877 -0.006081504 -0.08599376 0.07173757 -0.055400673 -0.020413294
0.10263974 -0.0387429 0.088537894 -0.0010684166 -0.021153707 -0.035547182 -0.0032378004 0.11020376
-0.09533576 0.06507091 -0.020334065 -0.07651675 0.027346067 -0.031982858 0.11006774 -0.15150975

actor.4.weight f4 [4, 32]
00000000: 8697 9fbe 9334 2abd b55b f83e 143e 293e
00000010: 37fc 58be 8271 02bf 88d3 eabd 3f1e 613d
00000020: 37ef 1d3e 0cfd eabe b52a 1cbe 5f4c 7d3d
00000030: b508 5abf cfde d23d 08a3 003f 5e72 373e
00000040: 4d00 1d3d 133f 103e 3e37 8c3e e497 203f
00000050: d243 fa3d 6687 d13e ef3f 4f3e 87a5 263f
00000060: bb78 62be 6b45 b8bd d794 7b3d 7789 113e
00000070: 103d 1ebe 88ed 9ebe 650a 503c 6961 4cbe
00000080: e4ab 47be 744e 173f 5938 b63e 6c5e a2be
00000090: 12d0 7cbe c098 a83d bbfb c5be 065a bbbe
000000a0: f718 d6be 5700 313d 4581 163f dd4e 4b3f
000000b0: 7a80 5e3b cd92 9e3e 2d69 083e 5fe6 12bf
000000c0: 0da1 c93e 4170 87bd c02d 113f 4865 e53d
000000d0: 1fb4 87be efba 803e fb11 ce3e a648 383d
000000e0: 9029 23be 7362 d63d 9cdd 44bc b306 f6be
000000f0: 563e f43e 516a 8fbe 2ed3 c3be 26dd cdbe
00000100: df75 9ebc f058 e13c b411 16be 8681 92be
00000110: a3f8 01be e442 1f3d 1b4b 8abe 6a8e 98be
00000120: 1c10 57be bd61 9fba 1993 17be f026 1a3e
00000130: 8660 153e 45ff 4b3e 74ea 9a3d 8eae e73c
00000140: d732 683e ca95 61be d8ed 08be 66bf 38be
00000150: 7d77 4b3d 7f47 eb3d 4f45 60be 8380 76bd
00000160: 0c44 d2bd 24b5 fe3d 9901 a93d 152e 85be
00000170: 6e90 4abd fdd2 ef3d de56 8f3e e3e9 bf3c
00000180: 8eee f6bc 1ca0 2fbe 2766 273b 73ad 25be
00000190: 80b2 d6be 9f6e 773e 2e5b 96be c876 16be
000001a0: 86c4 21be 99ea cc3e 42a9 89bc e60f 363e
000001b0: 6999 73bc 96c3 09be 7d2b cabe 0d5f e23d
000001c0: d38c 71be 52d9 1cbf 1659 1d3e 3d62 d6bb
000001d0: 4cab a6be 027b b8be 28c7 71be 1ba7 593d
000001e0: 2596 a13e ae7a e5be 3c34 10bf 7ebc 50bc
000001f0: 6c1c 7a3e 8000 7cbe 100c 9b3e 56a3 36be
-0.3117029 -0.041554045 0.48507467 0.16527587 -0.21189962 -0.5095445 -0.11466128 0.054960486
0.15423284 -0.45896184 -0.15250666 0.06184041 -0.85169536 0.102964036 0.50248766 0.17914721
0.038330365 0.14086561 0.27385896 0.62731767 0.12219967 0.40923613 0.20239232 0.65096325
-0.22116368 -0.089976154 0.06142124 0.14212595 -0.15452981 -0.31040597 0.012697791 -0.19959034
-0.19499165 0.59104085 0.35589865 -0.31712663 -0.24688748 0.0823226 -0.38668618 -0.3659212
-0.41815922 0.043213215 0.58791 0.7941721 0.003395109 0.30971375 0.13321371 -0.5738277
0.39380684 -0.066132076 0.56710434 0.112009585 -0.2650461 0.2514262 0.40248093 0.044991158
-0.15933824 0.104679964 -0.012015726 -0.48051986 0.4770381 -0.280108 -0.38247055 -0.40207785
-0.019343315 0.027508229 -0.1465519 -0.28614444 -0.12692504 0.03888215 -0.27010426 -0.29796153
-0.21002239 -0.0012159866 -0.14802207 0.15053916 0.14587602 0.19921596 0.0756425 0.028281476
0.22675644 -0.22029796 -0.1337198 -0.18041763 0.0496745 0.11488246 -0.21901439 -0.060181152
-0.10266885 0.124368936 0.08252258 -0.2601172 -0.049454145 0.11710165 0.27995962 0.023426956
-0.030143049 -0.1715092 0.0025543065 -0.16179447 -0.4193306 0.24163292 -0.2936644 -0.14693749
-0.15797624 0.40022734 -0.016804341 0.17779502 -0.014868119 -0.13453516 -0.39486304 0.11053286
-0.23588876 -0.61269104 0.15366015 -0.0065424726 -0.32552564 -0.36031348 -0.23611128 0.05313788
0.31559864 -0.4482016 -0.56329703 -0.012740253 0.24424905 -0.24609566 0.3028264 -0.17835745

actor.4.bias f4 [4]
00000000: a4c1 d43d 0206 68bd 8411 3a3e 3339 fbbd
0.103884965 -0.056646354 0.18170744 -0.12266769

critic.0.weight f4 [64, 24]
00000000: c664 4d3e 14ba 173e 255a 1f3e 3d8d e5bd
00000010: 132f 5cbd 7541 b7bd 0678 bb3d 7796 003e
00000020: 9e0f 343e a7d4 fcbd e8ea ee3d fca8 57bd
00000030: 96b5 9dbc d724 463e ce2c 1abe f1bd adbd
00000040: 5326 273d 5680 be3d 6775 61bd 330f 30bd
00000050: 9cfa 91bd 2e4c 43bc 7a4c 29be dafa a0bd
00000060: a91e ca3c c3c5 ef3d 34e2 263e d9b7 3b3c
00000070: edc4 b8bd 8c52 113e faa3 48be bd20 943d
00000080: 7b97 5c3d dadf 52bc 19d5 3e3e a33a 0d3e
00000090: 5477 413e e796 e2bd fe99 5fbd f218 02be
000000a0: 0661 023e 4145 0fbe 7d06 a93d d1dd 113e
000000b0: 4d74 883d efb6 4c3d 86a2 62bd a46b cabc
000000c0: 0dc7 b2bd f774 083d 6cd6 c13d 7412 9ebd
000000d0: 976c 18be 9a0c b0bd a6e9 cebd 20b0 b9bd
000000e0: 64ce 253e 9f9e 0b3e 2f0e 163e 94af 153b
000000f0: b7dd c4bd 3130 1e3e a49b 56be 9eea a73b
00000100: 31c6 1fbe c861 f4bd 6b42 ca3d 4c4c 3abe
00000110: a879 efbd da7d 26be 86b9 413e 5502 8bbd
00000120: 885a 243e eed6 b8bd eab3 0c3e cd69 6abd
00000130: 7d91 393d cb2e e03d 939c fa3d 0dd2 f6bd
00000140: 3451 193e 25a1 113e c5c2 9c3d f9b1 a13d
00000150: d113 99bd d427 b03d 9a2e f83d 8cd9 fc3d
00000160: 6b3c d53c 85f7 2abe b33f 373e 4eed 2dbe
00000170: f001 21be 898c 813c 7dee 223d 0a87 143e
00000180: 5686 08be 5b97 a43a 0be2 ecbd a426 48be
00000190: f51d 0e3e 64e6 9fbc 6a66 013e cead 1fbd
000001a0: 773f df3d f7d3 19be b8f8 373d dc5e b3bd
000001b0: a544 133a 2e1f 69bd 1385 53be ba45 cfbd
000001c0: ca48 f83d e5e0 2cbe 0a8a 273e f179 9d3d
000001d0: 4508 a63d 7968 fe3d 38dc 44be 073f 54bc
000001e0: 88f1 2ebc 6dd8 943d e1c2 26be c735 b6bc
000001f0: dfde 843d 2b4f dcbd 4cd0 27bc 7b8f b6bd
00000200: adb1 b23d 8bdf 8d3d f70c a13d a90f 25bd
00000210: dfbd 45bb 7c8d 153e 146b 37bb b51b 903d
00000220: 862b b53d 92c2 b43d 77dd 42be a882 ebbd
00000230: a196 9abc bb68 c0bc ceea 3d3e f59f b63c
00000240: f90c 89bd a25d 24be d599 c9bd 1263 dd3d
00000250: f0f5 063e 1ebe 023e b1be fcbc 3341 853b
00000260: 2ec7 033e ee5b 08bd dbb5 c73d c251 973c
00000270: 17f1 8d3d 0763 33be c838 b5bd b7cb 35be
00000280: bc0c 203e 063c e93d 5144 8fbd 5474 16be
00000290: 675a f8bd de38 183e 1a5a 083e 01ad 8a3d
000002a0: f850 23be 6bd2 b43d 603f f13c 57d6 90bc
000002b0: cf3d 313e 363e 543d c86d f6bd 64c3 f2bc
000002c0: 9e5f 19be 692c 253e 8b20 ba3d 694a b93d
000002d0: fa0a a63d 78ca d73d b02b ebbd 0ed2 253e
000002e0: 65c9 42be 7043 913d be47 2ebd fb8a 8f3c
000002f0: 139d a13d 577a 50be 1f60 25bd 0629 d23d
00000300: bc69 19be fe98 bd3d 76cd 30be 50e3 013d
00000310: dd58 e0bc 0780 163d b7b3 d9bd 5c9e cc3d
00000320: bbc6 f4bd 23f5 cd3d 6bce 3cbd d2e6 d13d
00000330: 3555 31be 2b19 25bc fe5d c6bd 4d9b 81bd
00000340: d4fd 523c 53ef 22be 27ba 21be a480 f93d
00000350: 63df 073d da4b e83d a677 3ebe 5ea9 0fbe
00000360: a241 233e 16c1 0a3d d63a dd3d 706a a03d
00000370: 335f a13d b5c7 b03d 0101 c0bd 1e7d cebd
00000380: 4ab4 343e 2704 1e3c 4cda e33d 2fe0 a83d
00000390: b861 e3bd 3776 4bbe 31c0 44be 6d87 ecbd
000003a0: 0383 ab3d e178 babc a0b9 82bd d4c6 13be
000003b0: 1634 4d3d 6ab3 e6bc b8f5 783d 0245 0f3d
000003c0: 6762 7bbe 7d18 283c 936e 3cbe 8b32 153e
000003d0: a5fd 1dbe da1d 47bc 7cd1 84bd 7741 823d
000003e0: ba3a e3bc a347 093e 8de3 163e e71d e1bd
000003f0: 8dc4 7dbd 177d 1fbe 5f4d 2b3e 1b90 efbd
0.20057973 0.14817077 0.15561731 -0.1120858 -0.05375583 -0.08948032 0.09153752 0.12557398
0.17584082 -0.12345248 0.116658986 -0.05265139 -0.019251626 0.19349991 -0.15056154 -0.08483494
0.040808033 0.09301822 -0.055043604 -0.042983245 -0.07127878 -0.011920018 -0.1653308 -0.07860346
0.024672823 0.11707642 0.16297227 0.011457407 -0.090219356 0.14191645 -0.19593802 0.07232807
0.0538554 -0.012870753 0.18635978 0.137919 0.18893176 -0.110639386 -0.054590218 -0.12704828
0.12732324 -0.13991262 0.08253191 0.14244772 0.066628076 0.049979147 -0.055330776 -0.02470953
-0.08729372 0.03331467 0.09464726 -0.077183634 -0.14885174 -0.085961536 -0.10103159 -0.09066796
0.16192013 0.13634728 0.14653848 0.0022840248 -0.09612601 0.15448071 -0.2095781 0.005124404
-0.15602948 -0.11932713 0.098759495 -0.18193167 -0.11693126 -0.16258946 0.18918428 -0.06787554
0.1605016 -0.090253696 0.13740507 -0.057229806 0.045304764 0.10946425 0.122368954 -0.12051783
0.14972383 0.14221628 0.07654337 0.07895274 -0.07474483 0.086013466 0.121182635 0.12346181
0.026029786 -0.16695984 0.17895393 -0.16985056 -0.15723395 0.015814083 0.03977822 0.14504638
-0.13332495 0.0012557314 -0.11566552 -0.1954599 0.13878615 -0.019519038 0.12636724 -0.038984112
0.10900777 -0.15022264 0.04491493 -0.08758327 0.0005617834 -0.0569145 -0.20656233 -0.10120721
0.121232584 -0.16882665 0.16361251 0.07689274 0.08107046 0.1242227 -0.19224632 -0.01295448
-0.010677703 0.072678424 -0.16285278 -0.02224244 0.06487822 -0.107572876 -0.010242533 -0.089140855
0.08725295 0.06927403 0.07863801 -0.040298138 -0.0030172986 0.14604753 -0.0027987408 0.07036535
0.08846192 0.08826174 -0.19029795 -0.1149953 -0.018870654 -0.02348744 0.18546602 0.02229307
-0.066919275 -0.16051343 -0.09843794 0.10809912 0.13179755 0.12767836 -0.030852647 0.0040666102
0.1286895 -0.033290796 0.09751483 0.018471602 0.0693075 -0.17518245 -0.08848721 -0.17753492
0.15629858 0.11388402 -0.06995452 -0.14692813 -0.12126618 0.14865443 0.13315621 0.06771279
-0.15948856 0.088291965 0.029449165 -0.01768033 0.17308734 0.05181714 -0.12032658 -0.029634185
-0.14977881 0.16130222 0.09088238 0.09047396 0.08107562 0.10536665 -0.11482942 0.16193411
-0.19022138 0.07092941 -0.042548887 0.017522326 0.07891288 -0.20359169 -0.04037487 0.10261731
-0.1498174 0.092576966 -0.17265877 0.031710923 -0.027386123 0.03674319 -0.10629981 0.09991142
-0.11951967 0.10056522 -0.046095293 0.102491036 -0.1731766 -0.010076801 -0.09685896 -0.063284494
0.0128779 -0.15911607 -0.15793668 0.121827394 0.033172023 0.113425925 -0.1860033 -0.14029452
0.15943006 0.033875547 0.10802238 0.07832801 0.07879486 0.08631841 -0.093751915 -0.10082458
0.176469 0.009644545 0.11125621 0.082458846 -0.11102623 -0.19869314 -0.1921394 -0.11549268
0.08374598 -0.022762718 -0.063830614 -0.14431316 0.0500985 -0.028161723 0.06078121 0.03497792
-0.24549256 0.010259745 -0.18401556 0.14570062 -0.15428789 -0.012153113 -0.064852685 0.06360143
-0.027737964 0.13406233 0.14735241 -0.109920315 -0.061955024 -0.15575062 0.16728733 -0.11697408

critic.0.bias f4 [64]
00000000: df6b 3e3e c137 df3d 771f f8bd 4582 23be
00000010: 5fb1 343e 579a 483c a8e2 e53d ffbf 3d3e
00000020: 47a7 04bd 4c48 053c 5d32 123e 8586 31be
00000030: 3dfb 28bd 0be5 0f3e 13d5 b5bc 3dbb a33c
00000040: f4a6 03bd 8a73 ecbc 54c4 2dbe 8676 81bd
00000050: 11f2 613c a150 acbd 19cf 37be 975d f7bc
00000060: f36d 5d3e 8fbb 44bd 7735 be3d e442 e7bd
00000070: 35fd 5fbb 334a 0fbe a591 93bd 9fd0 293e
00000080: ab53 0dbd 0f44 183d 2fc6 973d 994a 48be
00000090: 3afa 0dbe 88ac 05bd 824d 22be a631 4bbc
000000a0: 894d cb3d f18d ba3b 3248 3dbe 8895 10be
000000b0: 3411 07be 500f 4fbe ec46 1cbe 1c1b 673c
000000c0: f1e7 f93d 6f91 973d 70f2 2bbe a3c2 28be
000000d0: f694 cc3d 3c4f e83d c078 913d 3882 57bd
000000e0: d827 1a3e 0623 29bd fc76 3abe 8f49 603d
000000f0: b504 1dbe 76c0 9f3d 7fc5 24be ee35 a2bd
0.18595837 0.10899306 -0.121153764 -0.15967663 0.17645787 0.012243829 0.11224872 0.18530272
-0.03238609 0.008134913 0.14277025 -0.17336471 -0.041255224 0.14052217 -0.022196328 0.019986743
-0.03214164 -0.028863687 -0.16969424 -0.06321435 0.013790623 -0.08413816 -0.17950095 -0.030195994
0.21623974 -0.048030432 0.09287541 -0.11292055 -0.0034178023 -0.13993149 -0.07205514 0.16583489
-0.03450362 0.03717428 0.074108474 -0.19559707 -0.13864985 -0.03263524 -0.1584988 -0.012401974
0.09926898 0.0056931903 -0.18484572 -0.14119542 -0.13190156 -0.20220685 -0.1526143 0.0141055845
0.122024424 0.07400786 -0.16791701 -0.16480498 0.099893495 0.11343238 0.07103109 -0.05261442
0.15054262 -0.041293167 -0.18209451 0.05475765 -0.15333827 0.07800381 -0.16090964 -0.079204425

critic.2.weight f4 [32, 64]
00000000: 642f 8f3d 0982 9ebd 171e 91bd 4019 babc
00000010: b114 733d 8bc9 92bd 2822 ddbd 32c0 31bd
00000020: 960c be3d 9a06 c13d a164 f7bd 2345 cf3c
00000030: 7ea5 97bd ac86 03be 048a fbbc 9a0a ff3d
00000040: c48a c2bc 0e10 ebbc e833 d3bd afa1 a83d
00000050: 7ba5 c03d da7a a93d 0d48 d6bd 4b89 24bd
00000060: 0fb2 bb3d 18db c93d 5e50 95bd 53fd c43d
00000070: d2f2 6f3d 6f6f bcbd bf97 aa3d 3db6 61bc
00000080: 4abb 473c 86a7 77bd eaf1 f33c a53b 8ebd
00000090: d481 4cbc 88ee 3ebc a1a9 d5bd d2e7 c93d
000000a0: 1653 c0bd 3986 9d3d 4ad6 423c d295 c63b
000000b0: 34a2 4b3d 029d bd3d d4c4 f8bd 202f 7e3d
000000c0: 1d14 94bd af41 e33d 2fc6 9dbd b80c 9c3d
000000d0: 77ea f9bd 2bf0 c8bb a8f9 5f3d 6b22 013e
000000e0: 6cc3 dc3d d521 7abd 97ad c9bd c7fa 063d
000000f0: 3287 d33d d033 54bd 36fa 34bd a2ac 8abd
00000100: 5888 ac3d e1b0 aabc 644c c63d 87d0 a4bc
00000110: 1461 d23d 3f15 963c a09e 88bd 451c 493c
00000120: d907 b9bd fce9 a1bd fecc be3c 3352 c8bd
00000130: 5014 e83d cd55 e83d 5400 bb3d 5885 45bc
00000140: 6d62 9f3d 472f 7d3d cd13 fcbc b9a7 b63c
00000150: 7ee1 ab3a 1dbc 1ebd 56e7 85bd 9716 da3d
00000160: b763 87bd 1acb 09bd ea07 a6bd 6056 b73d
00000170: 142e c3bd 8eba 29bd af95 f13b db7a 4d3d
00000180: a7be e3bd 712b bfbd e6fe c1bd fb3d bd3d
00000190: 1b96 873d 91cd 1cbd 3aa0 f23c 3381 ea3d
000001a0: 64f3 513d ab38 5c3d 95e4 6d3d acb0 ecbd
000001b0: 0774 b13d 55eb ecbd 87fb c13d 1b89 243d
000001c0: 632b eabd 9082 d1bc fb3f 61bd a4fb e5bd
000001d0: 5d32 f7bd ea70 3c3d 1ecd 30bd 403a 083c
000001e0: 6ab1 c23d ed52 61bd f06f 82bd 8b34 873d
000001f0: 80a8 e7bc e991 42bd d804 95bd 27f8 383d
00000200: 50b1 5c3d 3d8f 8dbd 12cc 023e 1d7e 37bd
00000210: 5884 15bc e02e b8bc 6d99 2b3d 9672 4a3d
00000220: 9b9b 04bd f80e dcbd 166e 9c3d 13f7 e9bd
00000230: fe46 7dbc 3787 ac3d 0d63 2d3d 565d 853d
00000240: d14c 153d 9af0 37bd 1360 43bd b68c 8bbd
00000250: a81b 683c 5f9c f6bc 146f 74bd b417 893c
00000260: e1a8 b53d 63e0 30bd 928b 013d d3b4 9f3c
00000270: bda3 d93d a6a1 4ebd 01ff 053d 41c1 d43c
00000280: 244e bf3d 2819 0fbe 5fbf 893d ceb2 7b3b
00000290: 9046 a2bd 2c19 5f3d 6b0a 11bd cd72 f2bc
000002a0: 45be f3bc 8c12 dabd f166 683d b72c b4bd
000002b0: 3c3f 06bd 90e6 b13c 8e84 13bd a4e9 6b3c
000002c0: 15ef fc3b 3595 873d df17 843d b834 823d
000002d0: f3af da3d a5b9 843c 15a0 f1bb c6f2 ecbd
000002e0: dc20 57bb ef46 14bc acc3 c63d 3127 c73d
000002f0: ac2b 363d f86d 17bd 121c 893d 680a 913d
00000300: 82e5 b1bc 3ad5 943d cb7b 1e3c baae d5bd
00000310: 33e0 273d 24a2 80bd 1267 13bd 1fd1 8a3d
00000320: ce40 c33c 27f7 c7bd 5f13 fa3c 7519 73bc
00000330: 5e6c 253d d5c4 53bd c78f 1bbd 8eba cebd
00000340: 41e1 403c 20a6 f9bc 2bb0 b4bd 81d2 febd
00000350: 7d8c c9bd 1056 da3d 0879 06be 5f40 acbd
00000360: 6000 c83d facd 553d 277c 223c c33d f73d
00000370: aaa8 eb3d 03c9 b23d 1219 803d 6340 16bd
00000380: c883 bbbd 3937 aa3d 56d3 f7bd 7f7b aabd
00000390: c4fa c1bd 2109 0d3e 31da 3ebd 91df d43d
000003a0: 0d75 b7bd 4e4c 7c3c 16ad b43d b5ec 413d
000003b0: 6338 b03d 3c3e cbbd 4a99 ba3d 1096 cb3d
000003c0: a678 6bbd 421e 8e3d 824b e73d 1d6c d93d
000003d0: a16d 90bd 0599 db3c e47d 65bd 4c4f 59bd
000003e0: 982b 1dbd 4650 e43c b81f fc3d 008c 81bd
000003f0: 7500 07bd 1224 b4bd 150e 853d 8d85 543d
0.06991461 -0.07739646 -0.07085817 -0.022717118 0.059345905 -0.071673475 -0.107975304 -0.043396182
0.09279744 0.09425087 -0.1207974 0.025301522 -0.07404612 -0.12844342 -0.03070546 0.12453194
-0.02374781 -0.028694179 -0.10312635 0.08233964 0.09406563 0.08275385 -0.10462961 -0.040169995
0.09164821 0.09856242 -0.072907194 0.0961863 0.05858118 -0.09200942 0.083297245 -0.013776359
0.012190649 -0.060462497 0.02977844 -0.0694497 -0.012482125 -0.01165355 -0.10432745 0.09858669
-0.093908474 0.076916166 0.011891911 0.0060603404 0.049715236 0.092584625 -0.12146917 0.06205666
-0.07230399 0.110965125 -0.07703816 0.076196134 -0.12202924 -0.006132146 0.05468145 0.12610786
0.10779461 -0.06106742 -0.09847563 0.032954004 0.10328521 -0.051807225 -0.044183932 -0.06771208
0.08424443 -0.020836296 0.09682539 -0.020118965 0.102724224 0.018320678 -0.0667088 0.012274806
-0.090347 -0.07905957 0.023291107 -0.09781303 0.11331999 0.1134449 0.09130922 -0.012055717
0.07782445 0.061812665 -0.03077116 0.022296773 0.0013113467 -0.038753618 -0.065382645 0.1064884
-0.06610816 -0.03364096 -0.08106978 0.089520216 -0.09530273 -0.041437678 0.00737258 0.050165992
-0.111203484 -0.09334458 -0.09472446 0.092403375 0.06620427 -0.03828198 0.029617418 0.11450424
0.051257506 0.05376498 0.05807932 -0.11557135 0.086647086 -0.115683235 0.09471803 0.040169816
-0.114340566 -0.025574952 -0.054992657 -0.11229637 -0.12070153 0.04600612 -0.043164365 0.008314669
0.09506495 -0.055010725 -0.06369007 0.06601819 -0.02827859 -0.047502432 -0.072763145 0.04515853
0.053880036 -0.06912086 0.12773159 -0.044798005 -0.0091257915 -0.02248329 0.041894365 0.049425684
-0.03237496 -0.107450426 0.07638185 -0.11424079 -0.01545882 0.08424228 0.04233079 0.06511943
0.03645021 -0.04490719 -0.047699045 -0.06813948 0.01416675 -0.03010386 -0.059676245 0.016734935
0.08870102 -0.04318274 0.031627245 0.019495403 0.10626934 -0.05044713 0.032713894 0.025971057
0.09341076 -0.1397444 0.06725954 0.0038406136 -0.07923615 0.054467365 -0.035410326 -0.029595757
-0.029753814 -0.10648069 0.056738798 -0.08797591 -0.03277515 0.021716386 -0.036015086 0.014398966
0.0077189305 0.06620256 0.064498655 0.063577116 0.10678091 0.016201803 -0.0073738196 -0.11569743
-0.0032825982 -0.009050115 0.0970529 0.09724272 0.044475242 -0.03697011 0.06694807 0.07082063
-0.021715883 0.07267232 0.009673069 -0.10433717 0.040985297 -0.06280926 -0.035986967 0.06778168
0.023834612 -0.097639374 0.030526815 -0.014837612 0.04038655 -0.051701386 -0.037978914 -0.10094176
0.011772455 -0.030474722 -0.08822664 -0.12442494 -0.09841249 0.10660946 -0.13132107 -0.08410715
0.097656965 0.052198388 0.009917296 0.12072327 0.115067795 0.08729746 0.06254782 -0.036682498
-0.09155995 0.08311314 -0.12100856 -0.08324336 -0.09471658 0.13773014 -0.046594802 0.103942044
-0.089578725 0.015399052 0.08822076 0.047344882 0.08604505 -0.0992398 0.09111269 0.099407315
-0.057488106 0.06939365 0.11293699 0.10616324 -0.0705216 0.026806364 -0.05602826 -0.05305414
-0.038371652 0.027870309 0.12310737 -0.06325531 -0.03295942 -0.08795942 0.064968266 0.051885176

critic.2.bias f4 [32]
00000000: 5c05 1ebd 73e3 923c 9859 dfbd b842 063c
00000010: 9794 a33d 7945 a7bd bdad 0e3d 7096 cebd
00000020: ec8e aabc 3287 9f3d e279 933d 8e1d 6b3d
00000030: 88b3 e83d 1067 bdbd 1990 b13d e50e 193d
00000040: 31f7 afbd 330c 5ebd 8619 1dbd a8dd 9e3d
00000050: d5e7 8a3d 8a59 213d 11f9 bfb9 4873 74bd
00000060: 81b8 0c3e d1e5 383b 2789 a23d 9a26 813d
00000070: fe06 91bb 6732 db3d 72fb dcbc 201a f13d
-0.03857933 0.017930722 -0.109057605 0.008194618 0.07987326 -0.08167548 0.03483366 -0.100872874
-0.020820104 0.07789458 0.07200982 0.057401232 0.11362368 -0.09248173 0.086700626 0.03736772
-0.0859207 -0.054210853 -0.03835442 0.07757121 0.067825 0.03939203 -0.00036615928 -0.059680253
0.13742258 0.0028213153 0.07936316 0.06306191 -0.0044258824 0.10702973 -0.026975367 0.11772561

critic.4.weight f4 [1, 32]
00000000: cb5c 4d3d c855 bc3d 73e2 0fbe 3ee4 75bd
00000010: f381 af3d dd42 9e3b daf7 163e 44da 043e
00000020: 35ed f339 1d21 1f3e 876a ae3d f11a a6bd
00000030: 1584 c2bb a871 30bd 7948 aa3c 5280 f8bd
00000040: 27e0 023e d796 d0bd 7350 36bd ad58 873d
00000050: ab30 b3bc 09ea bdbd 2682 bcbc 077b 9fbd
00000060: e8a3 1abd fc01 e83d 71e1 aebc 7acc b6bc
00000070: d4dd dd3d a1b2 f5bd 4a6c 123e 0777 bebd
0.050137322 0.09196049 -0.14051227 -0.06003212 0.08569708 0.004829748 0.14742985 0.12973887
0.00046525305 0.15539975 0.08516412 -0.081106074 -0.0059361556 -0.04307714 0.02078651 -0.1213385
0.1278082 -0.101850204 -0.044510316 0.066087104 -0.021873793 -0.09273154 -0.023011278 -0.077871375
-0.03775397 0.113285035 -0.021347733 -0.022314299 0.10833326 -0.119969614 0.14299121 -0.093000464
