Policy Gradient/walker_ppo_model_1400.pth (torch_old, 584582 bytes, 11 tensors)

actor.0.weight f4 [256, 24]
0.017233914 -0.2722229 0.41342342 -0.006058143 0.08776575 -0.09491751 -0.21064784 0.12231158
0.010486348 -0.20973465 0.37559906 0.04982472 0.25195324 0.07686213 -0.06617481 -0.04034656
0.15747401 0.05256464 0.007929627 -0.116096616 0.13103873 -0.13187377 -0.043998826 0.21065108
0.065474264 0.49437162 -0.3071953 -0.1977079 0.05361496 -0.17550904 0.3764549 0.111308895
0.018123057 0.17371385 -0.02796477 -0.034143854 -0.24155065 -0.1452995 -0.04715334 -0.12408183
-0.091325685 -0.026889939 0.18536058 0.10210074 -0.08172867 0.040854126 0.1785605 -0.09284687
0.037212614 0.11606782 -0.47517353 0.29440713 -0.079974465 -0.31538627 0.19099683 0.1674383
0.030058792 0.16981453 0.11647578 -0.16190597 -0.21593454 0.14847796 -0.13654858 -0.0068775234
0.23128694 0.16545115 0.17781557 -0.070577085 0.049875457 0.14104936 -0.0019616857 -0.0055208225
-0.24833886 0.21815957 -0.046372823 -0.013953872 -0.19927748 -0.2261797 0.037023146 0.06968828
-0.20627706 0.21306932 -0.031618364 0.19859439 -0.39690158 -0.18844171 0.03849226 0.073933415
0.045221582 -0.007934744 -0.082539976 0.0053886534 -0.0043529635 0.041941922 -0.04491692 -0.106788285
0.19764414 -0.03313987 -0.23156182 0.32040918 0.027283663 -0.22872013 -0.1364061 0.09355429
-0.059699412 0.205242 0.33689132 -0.007228789 -0.12926775 -0.08566097 0.021649407 0.24810527
0.21119153 0.24859707 0.039343476 0.1759133 -0.07167722 0.1396604 -0.010009156 0.040798742
0.0022136327 -0.05985179 0.034841713 0.24873391 0.30702174 0.29168203 0.06961272 -0.27327877
-0.10856121 -0.0386959 -0.18957856 0.09774423 -0.14137632 0.23328076 0.04533225 0.04962678
0.19756868 0.17899565 0.006771003 0.14627388 -0.06554977 -0.16453318 -0.10404207 -0.112849526
0.040236354 0.4298434 -0.42855522 -0.0075090807 -0.1522879 -0.17776558 0.012665398 0.061695945
-0.29568252 0.14711511 0.21353415 -0.06873736 -0.2404157 0.036999494 0.12339452 0.14900318
-0.14359318 0.026322972 -0.14087938 0.100134745 -0.07638259 0.23318711 0.22650945 -0.0840594
0.11128128 -0.38734585 0.3242321 0.10662069 0.18293016 0.09391229 0.047360122 0.13993669
0.013071793 -0.23901354 0.07682091 -0.24157478 0.35051957 0.24626045 -0.1282801 0.042855658
-0.106216505 -0.028250385 0.011915004 -0.21128859 -0.12197204 -0.14557646 0.05377999 0.141264
-0.16820547 -0.131838 0.017086787 -0.07963475 -0.20182131 0.08468051 0.30196786 0.2759942
0.13266017 0.111424044 -0.19648732 -0.15607792 0.16147034 0.038739 0.15566507 -0.16081786
-0.067591675 0.08775596 -0.107870445 0.14886737 0.2003135 0.041406445 -0.0027594697 0.00020294612
0.008370032 0.02420251 -0.016286299 -0.0897521 0.20477681 -0.25401187 0.22576469 0.2561878
-0.08063559 0.22017008 0.28889084 -0.08732101 -0.39244023 -0.04058364 -0.11986687 -0.120620236
-0.13970461 0.10230439 0.07553239 0.21527015 0.17704768 0.029175907 0.18379255 -0.19380777
-0.103448786 -0.37384582 0.21375363 -0.2754508 -0.15977162 0.021246273 -0.1573595 -0.014143579
0.071877405 -0.24296258 -0.037656303 -0.08784209 0.3334109 -0.11742653 0.021272102 0.10969268
00000000: 232e 8d3c cd60 8bbe 3cac d33e 6383 c6bb
00000010: 88be b33d 1d64 c2bd 11b4 57be 7e7e fa3d
00000020: eece 2b3c aec4 56be 854e c03e 0115 4c3d
00000030: 0400 813e e469 9d3d a986 87bd 6f42 25bd
00000040: de40 213e 054e 573d 44eb 013c 10c4 edbd
00000050: 042f 063e eb09 07be 1d38 34bd ebb4 573e
00000060: 5f17 863d 471e fd3e b448 9dbe f173 4abe
00000070: 5c9b 5b3d a4b8 33be b2be c03e ebf5 e33d
00000080: ce76 943c 0be2 313e 6016 e5bc 6dda 0bbd
00000090: 0e59 77be 64c9 14be dc23 41bd 9d1e febd
000000a0: f608 bbbd 4a48 dcbc 2acf 3d3e 311a d13d
000000b0: 5c61 a7bd a856 273d 90d8 363e 8026 bebd
000000c0: 416c 183d f7b4 ed3d f249 f3be 88bc 963e
000000d0: a7c9 a3bd 4f7a a1be ac94 433e f274 2b3e
000000e0: db3d f63c dce3 2d3e db8a ee3d aeca 25be
000000f0: f21d 5dbe 9b0a 183e 64d3 0bbe d95c e1bb
00000100: 7cd6 6c3e 076c 293e 4915 363e b88a 90bd
00000110: 354a 4c3d 3e6f 103e a08f 00bb 04e8 b4bb
00000120: 8b4c 7ebe 3965 5f3e 6ef1 3dbd c89e 64bc
00000130: 650f 4cbe a79b 67be 95a5 173d bbb8 8e3d
00000140: 4b3a 53be d82e 5a3e 4282 01bd 545c 4b3e
00000150: af36 cbbe ddf6 40be 0faa 1d3d 676a 973d
00000160: 443a 393d ba00 02bc b80a a9bd 4d93 b03b
00000170: 4ea3 8ebb 4bcb 2b3d cefa 37bd d1b3 dabd
00000180: 3a63 4a3e acbd 07bd 8b1e 6dbe ac0c a43e
00000190: fd81 df3c 9c35 6abe 0aae 0bbe 6499 bf3d
000001a0: 5f87 74bd f52a 523e 057d ac3e 7adf ecbb
000001b0: c45e 04be 056f afbd 195a b13c 4f0f 7e3e
000001c0: 9842 583e 3b90 7e3e a026 213d 9e22 343e
000001d0: 82cb 92bd 2303 0f3e 71fd 23bc 951c 273d
000001e0: 9812 113b 2727 75bd 2fb6 0e3d 1ab4 7e3e
000001f0: f431 9d3e 5957 953e 1d91 8e3d 32eb 8bbe
00000200: 5755 debd 987f 1ebd e220 42be 202e c83d
00000210: f4c4 10be 27e1 6e3e 4fae 393d 7345 4b3d
00000220: 724f 4a3e a34a 373e 4adf dd3b d2c8 153e
00000230: f53e 86bd 637b 28be 0214 d5bd a71d e7bd
00000240: e0ce 243d 6f14 dc3e 976b dbbe bc0e f6bb
00000250: 5cf1 1bbe 2e08 36be 8882 4f3c e3b4 7c3d
00000260: b363 97be 58a5 163e b2a8 5a3e 2cc6 8cbd
00000270: 892f 76be c88c 173d 44b6 fc3d 4a94 183e
00000280: 170a 13be 46a3 d73c af42 10be 7213 cd3d
00000290: 7a6e 9cbd 9ac8 6e3e 18f2 673e 5627 acbd
000002a0: 71e7 e33d 3252 c6be c001 a63e f35b da3d
000002b0: 0b52 3b3e 1655 c03d b0fc 413d 904b 0f3e
000002c0: 132b 563c f7bf 74be 4854 9d3d 615f 77be
000002d0: 4d77 b33e b32b 7c3e dc5b 03be 6a89 2f3d
000002e0: 0a88 d9bd 5a6d e7bc 2637 433c 095c 58be
000002f0: 7acc f9bd ff11 15be 6848 5c3d 83a7 103e
00000300: 0e3e 2cbe 8a00 07be 97f9 8b3c 8b17 a3bd
00000310: 3faa 4ebe fa6c ad3d 889b 9a3e 1d4f 8d3e
00000320: 11d8 073e 4a32 e43d f933 49be e4d2 1fbe
00000330: 7b58 253e c9ac 1e3d aa66 1f3e 70ad 24be
00000340: 816d 8abd 66b9 b33d 2eeb dcbd b070 183e
00000350: fb1e 4d3e ce99 293d 38d8 34bb efcd 5439
00000360: 7522 093c 5844 c63c d86a 85bc f3cf b7bd
00000370: 03b1 513e d80d 82be dc2e 673e 0c2b 833e
00000380: 4624 a5bd 4474 613e 80e9 933e 5cd5 b2bd
00000390: eded c8be 083b 26bd c37c f5bd be07 f7bd
000003a0: ba0e 0fbe f784 d13d bab0 9a3d c76f 5c3e
000003b0: fd4b 353e 5002 ef3c 1d34 3c3e 8b75 46be
000003c0: f5dc d3bd b868 bfbe 3be2 5a3e e307 8dbe
000003d0: 2c9b 23be aa0c ae3c d922 21be 78ba 67bc
000003e0: 7634 933d 2fcb 78be 7f3d 1abd 8ee6 b3bd
000003f0: d5b4 aa3e 527d f0bd d542 ae3c 8ea6 e03d

actor.0.bias f4 [256]
-0.12512186 -0.08058777 -0.13803808 -0.015140445 -0.09888471 -0.1782087 -0.049369384 0.06677144
-0.024606783 0.1833301 0.0919496 -0.063071564 0.14773539 -0.049642503 0.16038777 -0.09968267
0.12093619 0.15209758 -0.06618676 -0.17609122 -0.06336963 -0.08090009 0.09179608 0.08781381
-0.08158135 -0.1991343 -0.19003966 -0.07434302 0.0057695913 -0.10117407 0.051526286 -0.2164767
-0.17734002 -0.14123169 -0.07431005 -0.15050878 0.031158734 -0.11207675 -0.04343249 0.19342013
0.17423443 0.14929287 -0.06005016 -0.03337772 -0.06073217 -0.16870593 -0.1345658 -0.10129442
0.008993743 -0.09914323 -0.045806456 -0.009588054 -0.026270943 0.058664046 -0.034076303 0.17585543
0.17080219 -0.05222223 0.04571254 0.06750685 0.08385006 -0.043714583 -0.10464199 0.106385656
-0.014611005 0.0483477 0.04542159 0.04031093 0.0059672883 0.13987717 -0.23897615 -0.116714805
-0.16208497 -0.15298562 0.004696117 0.05706685 0.14197928 -0.104298875 0.033879828 0.031338066
0.012249283 0.21702497 0.038099676 0.07844281 0.05938744 -0.025687663 -0.13102162 -0.00948877
0.02283536 0.016599193 0.040689245 0.0928822 0.10307472 -0.08011872 -0.20226178 0.1188969
0.20138878 -0.13270345 0.034514766 -0.114674985 -0.05430109 -0.056838825 -0.061748277 -0.23472676
0.22056894 0.14408323 0.10592575 0.102246165 0.17857632 -0.12284026 0.20779395 -0.08580337
0.0023038785 0.022614818 -0.094967775 0.05819343 0.18323465 -0.15011027 -0.114387594 -0.116855174
0.07312486 -0.020604592 0.039632168 -0.011482639 -0.22182472 -0.0843097 0.10674141 0.03163205
-0.12686998 -0.001163756 -0.03792087 -0.13077311 -0.028102443 0.131009 0.052734476 0.06100951
0.05739875 -0.025566388 0.04495131 -0.022356873 0.13182592 0.09372691 -0.101888455 0.0037022799
-0.10780889 0.16809258 0.12428289 0.09854634 -0.06948669 0.113968864 0.068347774 -0.018615244
-0.0059595467 -0.18648846 0.041586805 0.18317923 -0.16507013 -0.12428212 -0.07446954 0.06885399
-0.02122311 -0.13476644 -0.08127283 -0.031855296 0.16626564 0.12925236 -0.12098202 -0.18425205
0.24350867 -0.119403 0.033761263 0.06824471 -0.002587183 0.1111607 0.17876923 0.15889978
-0.1474555 -0.12348034 0.017388675 0.0401122 -0.095874995 0.15148832 -0.23059468 0.07523246
0.1620739 0.08774432 0.20237367 -0.09799149 0.1658485 -0.09946523 -0.090085916 0.041647322
-0.15575759 0.00086763245 0.1061046 -0.14601547 -0.056242913 0.15414819 -0.13181482 -0.025483137
0.06604305 -0.052742578 0.14700349 -0.07031892 0.20665471 0.1515978 -0.056200292 -0.060509518
-0.18197426 -0.12582268 0.20264402 0.044153925 -0.23254706 0.0026124825 -0.030046953 0.16888356
-0.10636444 0.10799621 0.16432054 -0.06809558 0.036397383 -0.07474636 -0.12234876 -0.12926349
-0.13943946 -0.010831868 -0.1973337 0.01847492 -0.14347774 -0.00026120726 0.025122836 -0.071927495
0.05504689 0.057108447 0.1544675 -0.032257333 0.11852762 0.0744864 -0.02366966 -0.033545665
0.15601063 0.16833319 0.15894541 0.044069532 -0.025592104 0.1443883 0.09213885 0.14440645
0.06474535 -0.09262846 -0.19192988 0.047951348 -0.0992882 -0.105215125 0.071943186 -0.20869397
00000000: f21f 00be 330b a5bd db59 0dbe a10f 78bc
00000010: 1184 cabd 577c 36be 8d37 4abd 77bf 883d
00000020: 2a94 c9bc e3ba 3b3e 1250 bc3d aa2b 81bd
00000030: f247 173e f055 4bbd b13c 243e 6d26 ccbd
00000040: 65ad f73d 78bf 1b3e ed8c 87bd 4251 34be
00000050: f0c7 81bd f2ae a5bd 95ff bb3d bad7 b33d
00000060: 1f14 a7bd dde9 4bbe c299 42be 2741 98bd
00000070: d70e bd3b 5a34 cfbd 3a0d 533d 11ac 5dbe
00000080: 9f98 35be 0a9f 10be de2f 98bd f91e 1abe
00000090: 9a40 ff3c 7f88 e5bd 44e6 31bd ed0f 463e
000000a0: 836a 323e 3be0 183e 28f7 75bd 13b7 08bd
000000b0: 4cc2 78bd 3fc1 2cbe 9ecb 09be 7373 cfbd
000000c0: 7e5a 133c 9b0b cbbd 8d9f 3bbd 3717 1dbc
000000d0: 2936 d7bc b649 703d 9893 0bbd 7213 343e
000000e0: c5e6 2e3e fae6 55bd 133d 3b3d 0841 8a3d
000000f0: 95b9 ab3d 100e 33bd 8a4e d6bd b9e0 d93d
00000100: ff62 6fbc 3d08 463d fd0b 3a3d 131d 253d
00000110: 3e89 c33b f63b 0f3e 2ab6 74be 2c08 efbd
00000120: 9af9 25be 43a8 1cbe e2e1 993b eebe 693d
00000130: 0463 113e a69a d5bd 93c5 0a3d 585c 003d
00000140: 37b1 483c cb3b 5e3e 680e 1c3d a0a6 a03d
00000150: 3f40 733d ef6e d2bc 882a 06be c976 1bbc
00000160: 3911 bb3c 08fb 873c c4a9 263d 0639 be3d
00000170: d718 d33d 4915 a4bd b61d 4fbe 3880 f33d
00000180: dc38 4e3e 6ae3 07be 5b5f 0d3d b8da eabd
00000190: d26a 5ebd d4cf 68bd c3eb 7cbd 365c 70be
000001a0: d3dc 613e 8e8a 133e 9aef d83d 7066 d13d
000001b0: b6dc 363e ad93 fbbd f0c7 543e adb9 afbd
000001c0: abfc 163b b642 b93c 777e c2bd 3c5c 6e3d
000001d0: dda1 3b3e 82b6 19be 0b44 eabd c451 efbd
000001e0: 7dc2 953d f6ca a8bc 5755 223d ae21 3cbc
000001f0: 0526 63be 90aa acbd 3e9b da3d 9c90 013d
00000200: 34ea 01be 2c89 98ba ea52 1bbd 63e9 05be
00000210: 1837 e6bc 3927 063e 1b00 583d 1ce5 793d
00000220: f41a 6b3d 9a70 d1bc dd1e 383d c325 b7bc
00000230: 60fd 063e e5f3 bf3d e5aa d0bd f3a1 723b
00000240: e8ca dcbd 7620 2c3e 0788 fe3d aad2 c93d
00000250: 0a4f 8ebd 8268 e93d ebf9 8b3d ff7e 98bc
00000260: 4d48 c3bb d5f6 3ebe ed56 2a3d 5693 3b3e
00000270: 2508 29be a087 febd 7c83 98bd 5203 8d3d
00000280: 16dc adbc 3700 0abe 5f72 a6bd b37a 02bd
00000290: 8a41 2a3e bb5a 043e 6cc5 f7bd 92ac 3cbe
000002a0: 565a 793e 8f89 f4bd 4049 0a3d e2c3 8b3d
000002b0: ba8d 29bb 39a8 e33d 480f 373e a0b6 223e
000002c0: 93fe 16be 43e3 fcbd b272 8e3c b14c 243d
000002d0: 1c5a c4bd c11f 1b3e 0321 6cbe 7a13 9a3d
000002e0: b3f6 253e 4bb3 b33d 0b3b 4f3e c3af c8bd
000002f0: 30d4 293e 6db4 cbbd f77e b8bd 6296 2a3d
00000300: eb7e 1fbe d471 633a 5e4d d93d 1485 15be
00000310: f85e 66bd 06d9 1d3e 77fa 06be 03c2 d0bc
00000320: 9441 873d 9a08 58bd 1588 163e 5e03 90bd
00000330: 4b9d 533e 743c 1b3e 4732 66bd d4d8 77bd
00000340: 7657 3abe a9d7 00be ea81 4f3e bfda 343d
00000350: d120 6ebe 2f36 2b3b 0725 f6bc d0ef 2c3e
00000360: 99d5 d9bd 1e2d dd3d a543 283e b275 8bbd
00000370: 6c15 153d 9f14 99bd fd91 fabd a65d 04be
00000380: 38c9 0ebe 2678 31bc d811 4abe b758 973c
00000390: d4eb 12be a5f2 88b9 68ce cd3c b94e 93bd
000003a0: d978 613d 8cea 693d ba2c 1e3e 4420 04bd
000003b0: 9cbe f23d 538c 983d e0e6 c1bc 2e67 09bd
000003c0: 40c1 1f3e 895f 2c3e 96c2 223e 4182 343d
000003d0: 88a6 d1bc 87da 133e 4bb3 bc3d 49df 133e
000003e0: 3699 843d fdb3 bdbd 4489 44be a268 443d
000003f0: 9d57 cbbd 077b d7bd f356 933d dfb3 55be

actor.2.weight f4 [256, 256]
-0.055950355 0.14138359 0.10642637 -0.08372571 -0.0011995565 0.033336595 0.006276802 0.06243203
0.060629055 0.2386451 -0.014221413 -0.12753198 0.06597954 -0.015813584 -0.14486943 -0.0641092
0.03743112 0.1374761 0.10319169 0.14780818 -0.051835977 -0.117875636 -0.12895417 0.0112290075
-0.16919322 -0.14023407 -0.0006302206 0.09832406 0.050875522 -0.040225346 0.05499365 -0.0423637
0.098055094 0.0625703 -0.14055958 0.08954357 0.08581291 0.14488134 0.011319763 0.022648755
0.0076626707 -0.004333614 0.03441527 0.012295351 -0.045547333 0.1375007 -0.12308443 -0.013083179
-0.020155573 0.07254801 0.08196854 0.0638263 -0.029914012 -0.01945535 0.14678572 -0.04991386
-0.039844703 0.12247384 -0.24982047 -0.14945064 0.054625053 0.016463015 -0.19566992 -0.030948425
0.10631341 -0.07008325 -0.030561091 0.010987755 0.07306587 0.13424331 0.009606524 0.048468113
0.06322266 0.04294022 -0.080984935 0.036678143 0.0050817723 0.038451083 0.014087584 -0.035443895
-0.068164155 0.10351296 0.08572686 0.034979846 -0.0065922216 -0.09990438 0.041840326 0.14837538
-0.08980827 0.110804446 0.025786603 0.11442381 0.043461055 0.056768898 -0.06076365 -0.18138884
0.08116799 -0.17397821 0.047096882 0.022488208 0.12890223 0.08577141 0.018250283 -0.066593856
-0.0057687867 -0.0566781 -0.037108935 -0.022345904 0.10234636 -0.11821557 -0.063913055 0.0068635396
0.06859971 -0.01681959 0.009110189 -0.090964526 0.14953572 -0.1394065 0.11970266 -0.042720035
0.005159671 -0.0688913 -0.026034394 0.0011087606 -0.019691909 -0.03349615 -0.14921576 -0.022697862
0.093717314 0.042852744 -0.04602788 -0.16108695 -0.07448413 0.049975965 0.10032915 -0.013740921
-0.014075812 -0.046187878 -0.06347582 0.08043816 0.03247818 0.027227497 0.02286761 -0.04519435
-0.1192535 0.01618062 0.13510786 -0.008182509 -0.005309574 -0.14326555 -0.005057428 0.041712895
-0.14847538 0.040993646 0.14951487 -0.009957069 -0.018798873 -0.104838215 -0.034779362 0.13608958
-0.06357914 0.10258491 0.08291652 -0.029497847 0.06981712 -0.024656788 0.13909206 -0.012952312
0.030602906 -0.017961506 0.14114928 0.1480106 -0.094688535 -0.010806748 0.015373408 -0.036667753
-0.20748514 0.050418627 0.08392801 -0.04721576 0.009475501 -0.0709215 0.0121866455 -0.00022230415
-0.044473194 0.017188413 0.02347444 -0.11168452 -0.01721753 0.047182407 -0.09333889 0.0676618
-0.060778193 -0.06463375 0.0019092214 -0.13320178 -0.09647023 0.05677692 0.039425064 -0.036026657
-0.0718331 0.11429251 0.1237381 0.065229855 0.06837743 0.05730525 0.09741822 0.017178494
-0.060936473 0.03228216 0.062011726 0.03157078 0.016222714 0.031530704 -0.09345169 -0.062204678
0.19666238 0.04472542 -0.04100172 -0.0055805217 0.0021726827 -0.04273303 0.04301362 -0.022860488
-0.06307881 -0.057669364 -0.07312009 0.049413614 -0.08229104 0.11171747 0.07027296 0.18289763
0.038511496 0.030991085 0.007647017 0.03140286 -0.011185148 -0.016681235 -0.032418847 0.080252714
-0.046523865 0.07235818 -0.018107548 0.021886695 -0.006967552 -0.11930569 -0.0047801896 -0.1055085
0.04546572 -0.1582718 -0.01702449 0.033398665 0.11587654 0.027030217 -0.05866733 0.061211333
00000000: 332c 65bd dcc6 103e 12f6 d93d 6378 abbd
00000010: 703a 9dba f48b 083d a2ad cd3b bab8 7f3d
00000020: 2c56 783d 625f 743e ee00 69bc be97 02be
00000030: 4820 873d 7d8b 81bc a758 14be af4b 83bd
00000040: 6051 193d 89c6 0c3e 2a56 d33d 075b 173e
00000050: f651 54bd c868 f1bd 900c 04be dff9 373c
00000060: fd40 2dbe 8599 0fbe 6335 25ba 205e c93d
00000070: da62 503d 55c3 24bd 0641 613d 8f85 2dbd
00000080: 1cd1 c83d dc24 803d daee 0fbe 9f62 b73d
00000090: aebe af3d c65b 143e 8776 393c e289 b93c
000000a0: 2417 fb3b fd00 8ebb 07f7 0c3d 7172 493c
000000b0: d78f 3abd fccc 0c3e b113 fcbd d45a 56bc
000000c0: 4d1d a5bc 0d94 943d 1fdf a73d 5db7 823d
000000d0: 3b0e f5bc d360 9fbc ff4e 163e 7a72 4cbd
000000e0: 3334 23bd 91d3 fa3d f0d0 7fbe 9709 19be
000000f0: 85be 5f3d 72dd 863c b25d 48be 8d87 fdbc
00000100: d8ba d93d cf87 8fbd 415b fabc fc05 343c
00000110: 8fa3 953d 1477 093e af64 1d3c 8086 463d
00000120: e27a 813d 16e2 2f3d 6edb a5bd d23b 163d
00000130: ff84 a63b e27e 1d3d 9ccf 663c 9e2d 11bd
00000140: a699 8bbd 9afe d33d 9091 af3d 0747 0f3d
00000150: 9003 d8bb ab9a ccbd c360 2b3d b7ef 173e
00000160: 66ed b7bd 71ed e23d 6d3e d33c 0857 ea3d
00000170: 3804 323d 8186 683d 4ee3 78bd ffbd 39be
00000180: 673b a63d 5827 32be a9e8 403d 3139 b83c
00000190: f2fe 033e eca8 af3d 9e81 953c 5c62 88bd
000001a0: 1708 bdbb 4c27 68bd 8aff 17bd c20e b7bc
000001b0: f89a d13d 011b f2bd d9e4 82bd 8be7 e03b
000001c0: 017e 8c3d 3dc9 89bc e742 153c 9c4b babd
000001d0: e41f 193e 94c0 0ebe ab26 f53d 34fb 2ebd
000001e0: 7512 a93b e216 8dbd 1546 d5bc d553 913a
000001f0: ed50 a1bc 4233 09bd 04cc 18be def0 b9bc
00000200: ddee bf3d 5c86 2f3d bb87 3cbd faf3 24be
00000210: 238b 98bd 99b3 4c3d 5f79 cd3d 9a21 61bc
00000220: 3c9e 66bc 802f 3dbd 9cff 81bd c3bc a43d
00000230: d707 053d 330c df3c db54 bb3c b61d 39bd
00000240: 2e3b f4bd 388d 843c b759 0a3e ee0f 06bc
00000250: effb adbb 34b4 12be c8b8 a5bb 24db 2a3d
00000260: ee09 18be f4e8 273d 6d1a 193e f922 23bc
00000270: 1800 9abc 6bb5 d6bd ce74 0ebd 115b 0b3e
00000280: c835 82bd 0a18 d23d 23d0 a93d 78a5 f1bc
00000290: 47fc 8e3d 08fd c9bc 266e 0e3e ef35 54bc
000002a0: f2b2 fa3c 0224 93bc 7089 103e 1790 173e
000002b0: 10ec c1bd c90e 31bc bfe0 7b3c ed30 16bd
000002c0: fc76 54be c383 4e3d 73e2 ab3d 5065 41bd
000002d0: 223f 1b3c 4b3f 91bd 7faa 473c 511a 69b9
000002e0: 8629 36bd b7ce 8c3c 784d c03c dbba e4bd
000002f0: c70b 8dbc 5742 413d 7628 bfbd 4592 8a3d
00000300: 8ef2 78bd b35e 84bd d73e fa3a 0c66 08be
00000310: 2f92 c5bd ea8e 683d 2d7c 213d b090 13bd
00000320: 3b1d 93bd 3112 ea3d 676a fd3d 3b97 853d
00000330: 7709 8c3d e9b8 6a3d 3483 c73d eab9 8c3c
00000340: 8698 79bd 4c3a 043d 0200 7e3d 5d50 013d
00000350: 7fe5 843c 5726 013d 9a63 bfbd 55ca 7ebd
00000360: dd61 493e 0132 373d 6bf1 27bd cfdc b6bb
00000370: 9163 0e3b d408 2fbd 0d2f 303d eb45 bbbc
00000380: 772f 81bd b636 6cbd fcbf 95bd ee65 4a3d
00000390: 3488 a8bd 21cc e43d 45eb 8f3d 8449 3b3e
000003a0: 3bbe 1d3d 04e1 fd3c d493 fa3b 49a0 003d
000003b0: e941 37bc 16a7 88bc a0c9 04bd 895b a43d
000003c0: cf8f 3ebd 8730 943d 4856 94bc ba4b b33c
000003d0: 1050 e4bb 8b56 f4bd 23a3 9cbb d714 d8bd
000003e0: 433a 3a3d 0112 22be f176 8bbc 0acd 083d
000003f0: ae50 ed3d 796e dd3c 274d 70bd bcb8 7a3d

actor.2.bias f4 [256]
-0.018483061 -0.060904253 0.009515925 0.07520835 0.017950967 -0.016716653 -0.02259594 -0.018769166
-0.025230395 0.0075317416 0.062462833 0.022153167 -0.03992683 0.023671843 0.009324714 0.096136205
0.022098998 0.027265638 0.08482642 0.029181466 -0.005597902 -0.014177778 0.05554013 0.018687772
-0.032060433 -0.06943618 -0.027775496 -0.08870296 -0.07134846 -0.10192342 0.02028136 0.06360741
-0.09487905 -0.0064611295 0.032080308 0.0755507 -0.07152023 0.0039493307 0.038378336 -0.001560527
0.07516857 0.037314605 0.031720925 0.05732004 0.0062812115 -0.0075397384 -0.11886354 0.08739487
-0.00046154507 0.010490179 0.025866786 -0.019304356 -0.022835644 0.050649524 0.029953582 -0.006004707
-0.026512904 -0.058559325 0.014768678 0.0644016 -0.05753481 0.031981602 0.031657755 -0.01348979
-0.023043737 -0.072127774 0.040314812 -0.064690135 0.06438883 0.04238548 0.032214046 0.07082489
-0.052380864 0.030500006 0.013702125 -0.092779435 -0.062025744 -0.05162847 0.018479582 0.0030698683
-0.11515403 0.037844833 0.032712054 0.09160244 -0.055038568 0.013234184 0.061069857 -0.048787985
-0.11613949 0.008810265 0.037535504 0.02428071 0.011912051 0.057467174 0.060322657 0.040467422
-0.019891156 -0.07229703 0.01708087 0.09334019 -0.041755367 -0.01776341 -0.0025063714 0.013674525
-0.026899567 -0.10684275 -0.050013725 0.024956508 -0.011768207 -0.060109854 0.06394615 -0.03969222
-0.02258063 0.03757459 -0.049183745 0.01808233 -0.030650467 0.06716403 0.008521234 0.030856906
0.023022013 -0.025916737 0.10331253 -0.03554702 0.02316191 0.069235764 -0.05654959 0.0144174155
0.053691044 0.020142995 0.033815812 -0.051724095 0.05486856 -0.05205587 0.044487882 0.054597236
0.06095951 0.0005367065 -0.106577806 -0.088415295 0.11259583 -0.046633374 0.061358023 0.0963982
-0.028609531 -0.053980984 -0.09284525 0.11571479 0.077609226 -0.10989502 0.021256283 0.07841474
0.020124763 -0.093046576 -0.08058373 0.045525726 0.03848835 -0.01174554 0.04025515 0.00223705
-0.05408172 -0.01342673 0.06591583 -0.06894727 0.07433615 0.08317355 -0.0679082 0.117818035
-0.026044503 0.0467731 0.0008438833 -0.05158481 0.04251363 -0.020472635 0.011185138 0.016700622
0.013010721 0.0047053066 -0.09027481 -0.043206345 -0.049500357 0.027717866 0.034023225 -0.06676839
0.022442373 -0.014854218 -0.04947345 -0.020999553 -0.064117305 -0.007144087 -0.052180804 -0.025354441
-0.0132445395 -0.037399817 0.080768414 -0.05363778 -0.011852664 -0.08571967 0.02425394 0.019357987
0.08575291 0.10229653 -0.092888966 0.054857723 0.029578034 0.09802998 -0.076951094 -0.019385476
-0.0777614 0.152289 -0.04084906 0.062352274 -0.05950033 -0.037933815 0.026535204 -0.03961361
-0.033545695 -0.027364865 -0.06620348 -0.059162423 -0.02715612 -0.014456384 -0.018462064 0.013537081
-0.038971566 0.0050247256 0.044835337 -0.122114055 -0.088084504 0.10817416 0.054598197 -0.038442202
-0.083296224 0.09463741 0.021987192 -0.010128352 0.081298426 -0.08510467 -0.06405172 -0.03155003
0.015651045 0.045056965 -0.022450687 -0.023058191 0.10672779 0.074845836 -0.05423888 -0.04384629
-0.025430163 0.11189139 -0.04700677 -0.13565584 0.028308768 -0.016993852 -0.006794711 0.08163062
00000000: ca69 97bc bd76 79bd afe8 1b3c d606 9a3d
00000010: e80d 933c 5df1 88bc 1f1b b9bc cbc1 99bc
00000020: f9af cebc d4cc f63b 07d9 7f3d 8f7a b53c
00000030: 518a 23bd 74eb c13c afc6 183c 0fe3 c43d
00000040: f508 b53c 305c df3c 79b9 ad3d f80d ef3c
00000050: 9b6e b7bb e949 68bc 0c7e 633d 1917 993c
00000060: cd51 03bd 8e34 8ebd 7089 e3bc e6a9 b5bd
00000070: 241f 92bd 3abd d0bd 1825 a63c 9a44 823d
00000080: f34f c2bd e2b7 d3bb a466 033d 53ba 9a3d
00000090: 3379 92bd 6369 813b 9a32 1d3d 998a ccba
000000a0: fbf1 993d 33d7 183d cded 013d 6bc8 6a3d
000000b0: 9fd2 cd3b e90f f7bb ba6e f3bd 15fc b23d
000000c0: 88fb f1b9 00df 2b3c 95e6 d33c 2b24 9ebc
000000d0: d111 bbbc e075 4f3d 3761 f53c 22c3 c4bb
000000e0: 9731 d9bc e7db 6fbd 53f8 713c fce4 833d
000000f0: 9fa9 6bbd 24ff 023d 90ab 013d 4804 5dbc
00000100: 38c6 bcbc bab7 93bd 2521 253d 437c 84bd
00000110: 4ade 833d 669c 2d3d e0f2 033d a40c 913d
00000120: 518d 56bd 26db f93c e17e 603c 2503 bebd
00000130: b50e 7ebd 6078 53bd 7e62 973c d82f 493b
00000140: e0d5 ebbd 2f03 1b3d 13fd 053d 0f9a bb3d
00000150: 1f70 61bd 31d4 583c 6324 7a3d e9d5 47bd
00000160: 8ada edbd ee58 103c d4be 193d 57e8 c63c
00000170: c32a 433c b362 6b3d e414 773d 2bc1 253d
00000180: c7f2 a2bc 7710 94bd 2eed 8b3c 2429 bf3d
00000190: ad07 2bbd 9284 91bc ef41 24bb 1d0b 603c
000001a0: 7b5c dcbc 5fd0 dabd 31db 4cbd 9771 cc3c
000001b0: 70cf 40bc c035 76bd 33f6 823d 4f94 22bd
000001c0: 03fb b8bc d0e7 193d e574 49bd 6521 943c
000001d0: b016 fbbc 4c8d 893d a59c 0b3c 9fc7 fc3c
000001e0: a998 bc3c 564f d4bc 8595 d33d c199 11bd
000001f0: 0cbe bd3c 7bcb 8d3d 8ba0 67bd 0637 6c3c
00000200: 24eb 5b3d ec02 a53c 7382 0a3d a5dc 53bd
00000210: dbbd 603d 8938 55bd ed38 363d 5aa1 5f3d
00000220: aeb0 793d c3b1 0c3a 7745 dabd 1413 b5bd
00000230: a498 e63d a302 3fbd 8d52 7b3d 6b6c c53d
00000240: 895e eabc 2a1b 5dbd a725 bebd e0fb ec3d
00000250: 96f1 9e3d a410 e1bd a821 ae3c e897 a03d
00000260: b0dc a43c 348f bebd 1509 a5bd 2f79 3a3d
00000270: f6a5 1d3d 5e70 40bc 96e2 243d 799b 123b
00000280: cb84 5dbd cafb 5bbc e1fe 863d 3a34 8dbd
00000290: 8d3d 983d e556 aa3d 7413 8bbd 954a f13d
000002a0: 485b d5bc 2695 3f3d 0d38 5d3a 984a 53bd
000002b0: c622 2e3d 3ab6 a7bc de41 373c becf 883c
000002c0: eb2a 553c f92e 9a3b 00e2 b8bd 23f9 30bd
000002d0: e3c0 4abd 9410 e33c f05b 0b3d debd 88bd
000002e0: 11d9 b73c 1b5f 73bc aca4 4abd 4107 acbc
000002f0: ef4f 83bd f218 eabb 8abb 55bd 1eb4 cfbc
00000300: a0ff 58bc 8d30 19bd e969 a53d 4ab3 5bbd
00000310: ad31 42bc cb8d afbd 33b0 c63c a494 9e3c
00000320: 399f af3d d880 d13d 923c bebd 7eb2 603d
00000330: a24d f23c f1c3 c83d 8998 9dbd 4ace 9ebc
00000340: 5e41 9fbd a6f1 1b3e 5851 27bd 1965 7f3d
00000350: 9eb6 73bd 7d60 1bbd 5b60 d93c e141 22bd
00000360: 3667 09bd 482c e0bc b195 87bd 4c54 72bd
00000370: 8376 debc 78da 6cbc c13d 97bc a2ca 5d3c
00000380: a6a0 1fbd 74a6 a43b 42a5 373d ef16 fabd
00000390: a665 b4bd 6a8a dd3d 5ca2 5f3d 9275 1dbd
000003a0: 3697 aabd 42d1 c13d 7c1e b43c 63f1 25bc
000003b0: ca7f a63d 5b4b aebd 8c2d 83bd 9b3a 01bd
000003c0: 9f36 803c a78d 383d 81ea b7bc 88e4 bcbc
000003d0: 1994 da3d c648 993d 9629 5ebd 2b98 33bd
000003e0: eb52 d0bc 5027 e53d 2c8a 40bd 5de9 0abe
000003f0: cae7 e73c b136 8bbc 2ba6 debb f42d a73d

actor.4.weight f4 [4, 256]
-0.022397948 0.10002938 -0.0070106564 -0.04793983 0.1303379 0.083510056 0.08522222 -0.031546436
-0.091075085 -0.059205115 0.1391501 0.13614999 0.13338423 0.14115086 0.037546925 0.1904731
0.134115 0.20361328 0.028377622 0.22518845 0.11980093 0.044113334 0.3271266 -0.070415445
0.11661664 0.15307727 0.1634283 -0.14750752 0.06658626 -0.13872191 0.009934461 0.17740013
0.12571515 0.08443036 0.18007378 -0.19610162 0.1337361 0.14290127 0.24718392 -0.14078254
0.19443749 0.15125598 0.30332616 -0.07976898 -0.02734024 -0.14385946 0.015227252 0.2938202
0.13859037 0.09067903 0.09330251 -0.20426057 0.05119109 -0.007830828 -0.30813426 -0.10030361
-0.13339412 -0.07484911 -0.15329374 -0.018726388 0.10173732 -0.08004984 -0.06709405 -0.10629084
0.003587062 -0.005112158 -0.058712553 0.18666035 -0.019861698 0.21988674 0.20682043 -0.21400344
-0.011853927 0.041351065 0.00070087495 -0.020719402 0.08606695 0.1731796 0.17381093 0.22392301
0.11483268 -0.0595659 0.13081697 0.058114406 0.07190504 -0.06378811 0.042473484 0.008793865
-0.04563006 -0.106942244 -0.093562216 0.13351738 0.13645966 0.059609935 -0.053277038 -0.004487093
-0.17538925 -0.20762002 -0.24432768 0.1353976 -0.006723183 -0.010906315 0.38577387 -0.14035203
0.17188974 0.17811413 -0.050408877 0.013974058 -0.076297455 0.21286805 0.0073603196 0.004204903
0.13321976 -0.0242929 -0.07687453 -0.0035025578 -0.091248676 0.06320086 -0.13813166 -0.120189086
0.07660695 0.031100152 0.13051285 -0.2045191 0.022377355 0.07352539 -0.24080622 -0.100218415
0.24759293 -0.33123294 -0.048661124 -0.066229284 0.050473616 -0.20096786 -0.08138009 -0.14664364
0.12029988 -0.12842128 0.108598314 0.13523954 -0.02081144 -0.051226523 0.06476431 -0.044883844
0.059752226 0.043192253 0.0801987 0.017523693 -0.10134725 -0.2861471 0.11513453 0.12410605
-0.08529936 -0.023708576 -0.1247347 -0.11755633 0.032133613 0.16639611 -0.07128312 0.003091305
0.050495952 0.071981445 0.08647709 0.013348843 0.07683536 -0.1696538 0.17689271 0.016986752
0.26447344 -0.026242752 -0.069237456 0.12601668 -0.0063956548 0.033619825 0.0021485942 -0.030581385
-0.13231906 -0.0034488959 0.104828 0.22408319 0.09723816 0.010831085 -0.08714481 0.0020847644
0.36847582 0.06432745 -0.03843435 0.15692611 0.14885703 0.30801558 0.19005924 0.023126675
0.21931933 -0.071489505 0.24291618 -0.21916796 -0.033730842 -0.05187012 -0.012531222 0.355444
0.04923747 -0.02458406 -0.047123365 0.042265743 -0.0078101247 0.0009446477 0.24438874 -0.044296578
-0.1402147 0.008920982 0.04282127 -0.14059563 -0.16059305 0.16458023 -0.19487567 -0.2232192
-0.15138675 0.009390172 0.056042563 -0.04463751 0.10676242 -0.13505603 -0.028412266 0.19019133
-0.12208187 -0.02238426 -0.14310697 -0.034902673 -0.1862217 -0.05392438 -0.073479496 0.3623641
-0.05048826 -0.11498324 -0.0049626706 0.18514957 0.11485217 -0.10662905 0.13461524 -0.13350017
-0.100500494 -0.09954583 -0.0727897 0.050829217 0.17843334 0.022116626 -0.16342573 -0.275411
-0.10763887 0.010445286 0.042605106 0.08122189 0.017767493 -0.4011743 -0.12098421 -0.003629692
00000000: e77b b7bc 34dc cc3d a6b9 e5bb 8e5c 44bd
00000010: 4c77 053e 5207 ab3d fd88 ae3d d636 01bd
00000020: 9385 babd 1081 72bd 5d7d 0e3e e76a 0b3e
00000030: e095 083e da89 103e ceca 193d 610b 433e
00000040: 7155 093e 0080 503e 3078 e83c cd97 663e
00000050: 315a f53d 2fb0 343d 237d a73e f935 90bd
00000060: b4d4 ee3d 4ac0 1c3e c059 273e 360c 17be
00000070: 615e 883d 1e0d 0ebe 26c4 223c 61a8 353e
00000080: 79bb 003e d3e9 ac3d 4365 383e ddce 48be
00000090: 1ef2 083e b654 123e c81d 7d3e 4c29 10be
000000a0: 9f1a 473e d9e2 1a3e 914d 9b3e eb5d a3bd
000000b0: a4f8 dfbc e54f 13be b97b 793c 9a6f 963e
000000c0: a2ea 0d3e edb5 b93d 6315 bf3d af29 51be
000000d0: c0ad 513d e04c 00bc c6c3 9dbe fb6b cdbd
000000e0: 7898 08be 7d4a 99bd 09f9 1cbe 1568 99bc
000000f0: a85b d03d 2cf1 a3bd 9b68 89bd 03af d9bd
00000100: ea14 6b3b e483 a7bb 937c 70bd e423 3f3e
00000110: 00b5 a2bc fd29 613e bcc8 533e b823 5bbe
00000120: f936 42bc bc5f 293d ecba 373a bcbb a9bc
00000130: de43 b03d fe55 313e 7efb 313e 134c 653e
00000140: 652d eb3d 60fb 73bd e2f4 053e 5f09 6e3d
00000150: f342 933d 57a3 82bd adf8 2d3d 2514 103c
00000160: 96e6 3abd 8904 dbbd 8c9d bfbd c8b8 083e
00000170: 15bc 0b3e 8c29 743d 0639 5abd 7708 93bb
00000180: 3d99 33be 589a 54be 0931 7abe aba5 0a3e
00000190: 264e dcbb 67b0 32bc 2784 c53e 71b8 0fbe
000001a0: dd03 303e 8d63 363e 8a79 4ebd 73f3 643c
000001b0: d741 9cbd 15fa 593e d62e f13b 48c9 893b
000001c0: c36a 083e e701 c7bc 6570 9dbd 2b8b 65bb
000001d0: 96e0 babd 746f 813d 6372 0dbe b225 f6bd
000001e0: 1be4 9c3d bfc5 fe3c 29a5 053e 746d 51be
000001f0: b750 b73c 7b94 963d e895 76be 503f cdbd
00000200: 0089 7d3e 5d97 a9be e350 47bd 38a3 87bd
00000210: 6cbd 4e3d 85ca 4dbe 9baa a6bd c029 16be
00000220: c95f f63d de80 03be cb68 de3d 3c7c 0a3e
00000230: c17c aabc e7d2 51bd 27a3 843d 1fd8 37bd
00000240: c0be 743d 5cea 303d 373f a43d d98d 8f3c
00000250: 268f cfbd df81 92be a7cb eb3d 502b fe3d
00000260: 6eb1 aebd 7d38 c2bc e874 ffbd 60c1 f0bd
00000270: 899e 033d be63 2a3e e2fc 91bd 7e97 4a3b
00000280: d8d4 4e3d 026b 933d e71a b13d 1bb5 5a3c
00000290: db5b 9d3d bab9 2dbe 5d23 353e cd27 8b3c
000002a0: 1069 873e 0afb d6bc 5ecc 8dbd 840a 013e
000002b0: a492 d1bb f1b4 093d 6ecf 0c3b d085 fabc
000002c0: a67e 07be df06 62bb 10b0 d63d 1076 653e
000002d0: cd24 c73d dd74 313c fa78 b2bd 8ba0 083b
000002e0: dda8 bc3e 1cbe 833d 566d 1dbd 3db1 203e
000002f0: fa6d 183e 38b4 9d3e e49e 423e 2774 bd3c
00000300: 3f95 603e 1769 92bd 05bf 783e 916d 60be
00000310: 5a29 0abd c375 54bd c14f 4dbc c2fc b53e
00000320: 3bad 493d 8364 c9bc 6e04 41bd d81e 2d3d
00000330: 13ec ffbb 3ca2 773a 0b41 7a3e 5470 35bd
00000340: 7194 0fbe 4f29 123c 5b65 2f3d 4df8 0fbe
00000350: 8172 24be b887 283e 7d8d 47be 9393 64be
00000360: 2105 1bbe 3cd9 193c e38c 653d d2d5 36bd
00000370: 41a6 da3d 214c 0abe d7c0 e8bc 84c1 423e
00000380: 0f06 fabd 325f b7bc a28a 12be 1bf6 0ebd
00000390: e7b0 3ebe d0df 5cbd 6b7c 96bd ca87 b93e
000003a0: c7cc 4ebd 557c ebbd e69d a2bb d997 3d3e
000003b0: 9d37 eb3d 5560 dabd 94d8 093e 45b4 08be
000003c0: 34d3 cdbd afde cbbd c412 95bd 4c32 503d
000003d0: 3bb7 363e ed2d b53c 1359 27be ac02 8dbe
000003e0: c571 dcbd b422 2b3c b182 2e3d aa57 a63d
000003f0: 228d 913c b866 cdbe 92c6 f7bd 20e0 6dbb

actor.4.bias f4 [4]
-0.03726338 -0.046261862 -0.012961339 0.05617251
00000000: 7ca1 18bd 147d 3dbd cc5b 54bc 2515 663d

critic.0.weight f4 [256, 24]
-0.10202825 0.17782605 0.011418891 -0.13715814 -0.17724057 0.13031511 -0.11436238 0.007609622
0.104676045 -0.15814516 0.15720116 0.0066835894 -0.028393267 -0.14346676 0.1135509 0.025855739
-0.16483365 0.069463566 -0.12168584 0.13780272 0.13302813 -0.058091428 0.1848484 -0.06267277
-0.069910645 -0.09051604 -0.07933605 -0.0844894 -0.2071043 -0.1339822 0.16053174 -0.08937572
-0.10018172 -0.16881149 0.049347352 -0.0411734 -0.010634136 -0.08220482 -0.05939496 -0.005541316
0.062031303 -0.028439512 0.15299034 0.19740552 0.07663207 -0.075596035 0.14212003 0.1972054
0.15005338 0.041351352 0.12702385 0.20204058 0.17835599 0.10356047 0.051367365 0.02740959
-0.04339966 -0.039690387 -0.08709999 -0.15210363 0.05627585 0.18309543 0.046861596 0.16647054
-0.19440533 0.016683739 -0.19080111 -0.062839404 -0.07671322 -0.16405141 0.032307465 0.08007604
-0.15418056 -0.1710469 -0.13377891 -0.057936125 0.020120487 0.13612054 0.12665479 -0.065738104
-0.050344724 0.022918928 -0.0060812654 0.07046655 -0.19714323 0.017753 0.12958546 -0.027995396
0.07636971 -0.19551529 0.1778491 0.14612374 -0.024182064 -0.16796198 0.1674836 0.15328467
0.18791266 -0.0065555326 -0.101586185 0.10628975 -0.07451756 0.032003757 0.0014280814 0.09446798
0.2153844 0.14553161 -0.081745625 -0.010998858 0.03242234 0.07372173 -0.09501349 -0.12066595
-0.060302716 -0.0006813977 0.07641447 0.17881915 0.11003081 -0.05822011 0.01777886 0.10027857
-0.06757169 0.113607004 0.06196156 -0.029364489 -0.1864871 0.1617599 -0.015288867 0.09425991
0.16043092 0.11644829 -0.024464164 0.13661544 -0.007823697 -0.090330236 -0.09162527 -0.18393199
-0.07732184 0.17987147 -0.037025753 -0.012628724 -0.053305045 -0.17262225 -0.10068023 -0.055525903
0.11273178 -0.051693127 0.14013724 0.1970504 -0.0026682862 0.10981343 0.068063974 -0.02675175
0.033072706 -0.07034928 -0.14267017 0.17686549 0.076966844 0.17265445 -0.15632297 0.029945988
-0.16071326 0.12787035 0.16871387 0.14976113 0.05836656 0.012121985 0.014779226 -0.14993526
0.01806648 -0.023633443 -0.05651925 -0.09512656 0.08822589 -0.18830022 0.10479527 0.04394297
-0.12480237 0.121752016 -0.11102752 0.18181324 0.100699216 -0.15210809 0.057989843 0.20315349
-0.1159976 -0.105992556 -0.000105671184 0.011302659 -0.17814386 0.12559035 0.20301148 -0.027312381
0.026635699 -0.1824656 -0.09626466 -0.09254947 -0.12231685 0.014929123 0.036369104 0.008908108
0.19574647 -0.17827494 -0.09918634 0.15243234 0.07583821 0.06952945 -0.02896264 0.081006534
0.061055355 0.0021757742 -0.082659 0.016017571 -0.15730672 -0.18290432 -0.17872407 -0.061988723
0.06586331 0.13294879 0.17304227 -0.1648645 0.16757655 -0.10250804 0.080184765 -0.1775723
-0.1510986 0.17661399 0.055142645 -0.15487619 -0.10275258 -0.06813368 -0.031632856 0.048819505
-0.115120545 0.101830445 0.19932058 -0.109616406 0.02601683 0.09232049 0.1623558 -0.09882664
-0.033972602 0.0038099492 -0.15743305 0.15962754 -0.15481623 -0.057008866 -0.04557279 0.025856417
-0.15366893 -0.11105351 0.10598052 0.00063447666 -0.06532577 -0.039528873 0.19780713 -0.035465576
00000000: 30f4 d0bd 0818 363e 4d16 3b3c 2f73 0cbe
00000010: 8d7e 35be 5371 053e d336 eabd 235a f93b
00000020: 6560 d63d cef0 21be 57f9 203e 0302 db3b
00000030: ff98 e8bc f3e8 12be 608d e83d 6acf d33c
00000040: 27ca 28be ea42 8e3d 6d36 f9bd 281c 0d3e
00000050: 8738 083e 47f1 6dbd e648 3d3e 955a 80bd
00000060: 502d 8fbd 7960 b9bd f07a a2bd c708 adbd
00000070: 2613 54be a132 09be 6f62 243e 9e0a b7bd
00000080: 132c cdbd ebdc 2cbe 7320 4a3d 70a5 28bd
00000090: cd3a 2ebc 005b a8bd 2148 73bd ed93 b5bb
000000a0: 8914 7e3d fbf9 e8bc 80a9 1c3e ac24 4a3e
000000b0: 46f1 9c3d 18d2 9abd ea87 113e 36f0 493e
000000c0: 98a7 193e 0960 293d 8a12 023e bae3 4e3e
000000d0: f4a2 363e 8317 d43d 9666 523d 148a e03c
000000e0: d8c3 31bd 6392 22bd 7b61 b2bd 0ec1 1bbe
000000f0: 8181 663d 5e7d 3b3e f2f1 3f3d 4177 2a3e
00000100: 3112 47be 56ac 883c 5e61 43be f2b1 80bd
00000110: d21b 9dbd 18fd 27be d554 043d e8fe a33d
00000120: 82e1 1dbe eb26 2fbe 57fd 08be 6e4e 6dbd
00000130: b8d3 a43c 2f63 0b3e cbb1 013e b3a1 86bd
00000140: 4536 4ebd 7ac0 bb3c 5a45 c7bb c450 903d
00000150: eadf 49be bd6e 913c 0db2 043e 9a56 e5bc
00000160: b967 9c3d 2935 48be 131e 363e 76a1 153e
00000170: 7719 c6bc 3afe 2bbe d280 2b3e a8f6 1c3e
00000180: 2d6c 403e cbcf d6bb 6b0c d0bd 71ae d93d
00000190: aa9c 98bd 5f16 033d 762e bb3a 6e78 c13d
000001a0: ba8d 5c3e 3d06 153e 406a a7bd 8e34 34bc
000001b0: 4acd 043d 6bfb 963d 6f96 c2bd b61f f7bd
000001c0: fbff 76bd d39f 32ba 317f 9c3d 5e1c 373e
000001d0: d557 e13d 3678 6ebd f9a4 913c da5e cd3d
000001e0: 0763 8abd caaa e83d 68cb 7d3d cc8d f0bc
000001f0: 79f6 3ebe 63a4 253e 287e 7abc 570b c13d
00000200: 0148 243e 717c ee3d 1269 c8bc ebe4 0b3e
00000210: f72e 00bc 0fff b8bd 08a6 bbbd ab58 3cbe
00000220: ea5a 9ebd 3a30 383e 51a8 17bd b5e8 4ebc
00000230: 6456 5abd e3c3 30be 7031 cebd 216f 63bd
00000240: ebdf e63d 2cbc 53bd 2380 0f3e 94c7 493e
00000250: 6ade 2ebb dde5 e03d 2065 8b3d 7c26 dbbc
00000260: 3f77 073d 4913 90bd 2118 12be 3a1c 353e
00000270: cba0 9d3d 54cc 303e 2113 20be 4a51 f53c
00000280: 0492 24be 72f0 023e 54c3 2c3e fb5a 193e
00000290: c611 6f3d 4a9b 463c 9124 723c a188 19be
000002a0: 2800 943c ec9a c1bc bb80 67bd b7d1 c2bd
000002b0: c7af b43d c6d1 40be e79e d63d 8bfd 333d
000002c0: 6398 ffbd 1f59 f93d 6562 e3bd 402d 3a3e
000002d0: 643b ce3d 39c2 1bbe c286 6d3d 7807 503e
000002e0: 2690 edbd a012 d9bd c99b ddb8 ca2e 393c
000002f0: 586b 36be c29a 003e 3ee2 4f3e 37be dfbc
00000300: 1c33 da3c 43d8 3abe 6826 c5bd 948a bdbd
00000310: 4281 fabd 4899 743c c5f7 143d 50f3 113c
00000320: c371 483e b58d 36be 3522 cbbd 3917 1c3e
00000330: 1051 9b3d 7565 8e3d 0f43 edbc c1e6 a53d
00000340: 2e15 7a3d 6f97 0e3b 1f49 a9bd 4837 833c
00000350: 0315 21be 454b 3bbe 7103 37be e3e7 7dbd
00000360: 58e3 863d ba23 083e fe31 313e 3dd2 28be
00000370: 3099 2b3e bcef d1bd e937 a43d 83d5 35be
00000380: 97b9 1abe 4cda 343e 41dd 613d dd97 1ebe
00000390: f26f d2bd ac89 8bbd 7491 01bd f6f6 473d
000003a0: 52c4 ebbd 7b8c d03d b21a 4c3e 917e e0bd
000003b0: 3f21 d53c 8612 bd3d 9940 263e 9f65 cabd
000003c0: db26 0bbd 57b0 793b 2136 21be 6775 233e
000003d0: 2588 1ebe 2182 69bd 89aa 3abd d6d0 d33c
000003e0: 635b 1dbe 0670 e3bd 510c d93d 0253 263a
000003f0: 84c9 85bd 07e9 21bd f48d 4a3e 5a44 11bd

critic.0.bias f4 [256]
0.107772 0.06202904 -0.14022888 -0.09559337 -0.14509656 -0.09918384 0.05930983 0.036882315
0.12646332 -0.06982667 0.16520913 -0.13198486 -0.045375828 0.0136308335 0.025497787 -0.03300071
0.13430673 0.014513577 -0.17658772 -0.077876955 -0.1834113 -0.16785002 0.057883326 0.12036152
-0.2046637 0.11384437 0.030261299 0.23876509 -0.16853979 0.15807109 0.14051229 0.14842045
-0.076984905 -0.14672627 -0.11160984 -0.16427812 0.16204236 -0.056838877 -0.027910823 0.06735385
-0.20012803 -0.1172374 -0.104067415 0.035640888 -0.07185073 0.017555663 -0.1155234 -0.18535243
-0.015068651 -0.028640555 0.071749546 -0.033300463 0.061544783 -0.17564291 -0.08954437 0.16394436
0.16338417 -0.20069578 -0.14599036 0.16899437 -0.16882063 0.1506535 0.083743475 -0.12490591
-0.10139865 0.09683934 0.11479105 0.07158226 -0.14044003 0.11936842 -0.06448866 -0.011359239
0.1384482 0.08604697 0.041434158 -0.06490456 0.09941672 0.06775162 0.084294885 -0.07160126
-0.17131442 -0.058176827 0.14679636 0.13817267 0.10064179 0.15655044 -0.072083145 -0.098555416
-0.03570441 -0.011449844 -0.18939966 -0.015890641 -0.12637085 0.05356916 -0.04738295 -0.071977444
-0.08002969 0.20494178 -0.020258283 0.17352055 -0.059621274 -0.07755602 0.12753984 0.15126984
0.19838081 0.14429948 0.07138487 -0.03496317 -0.049451686 -0.19797178 0.08147154 -0.0994854
0.079540975 -0.1517648 0.012848963 0.21128666 -0.12362377 -0.045035716 -0.05935064 -0.008955179
0.09624814 -0.017285643 -0.060728185 0.14143278 0.0803958 0.07536252 0.029416127 -0.13511303
-0.066022165 0.11367448 -0.0077903783 -0.19863959 -0.18613489 0.11384819 -0.015512013 -0.15966694
-0.18952522 -0.12494187 0.20014223 -0.07893969 0.1025786 -0.16328089 0.009979135 -0.12698634
0.18338579 -0.15243846 -0.18951178 -0.050397437 0.05779611 -0.18457659 -0.09155304 0.18459386
0.061251026 0.12782557 0.017709013 -0.045217942 0.085773796 0.02811277 0.056995057 -0.063208506
-0.040202167 0.1413098 -0.1341109 0.105701804 -0.01903226 0.036508076 0.07231108 0.12956302
-0.13852222 0.15316516 0.15721451 -0.01832767 -0.20333007 0.06496089 -0.15265033 0.1695595
0.15648162 -0.043177474 -0.14731753 0.10873589 -0.09036025 0.027406411 -0.010720224 0.04301176
0.09697286 0.15539761 0.03384888 0.08278074 0.08595834 -0.10571495 0.15021151 0.1936453
-0.103110604 -0.14547059 0.085003525 0.054480698 0.074512325 0.088982604 0.011755721 -0.15800862
0.1448137 0.19525675 0.0100126555 -0.09572174 0.07199708 -0.08469365 -0.10640168 0.13129711
0.1645698 -0.042880487 -0.18234442 -0.028314542 0.091958955 0.03930714 -0.089806095 0.0964333
-0.16846874 0.029418806 -0.10319353 -0.017446302 0.07052347 0.07302792 0.0875145 0.046973713
0.07365518 0.038947806 -0.052009467 -0.15316913 -0.09646165 0.03080036 -0.04979183 0.17213836
-0.010084941 0.13816516 -0.13819204 -0.21626884 -0.18761152 -0.1429275 0.06699932 -0.12558113
0.096430935 0.048689324 -0.009782275 0.016262751 0.0026512302 -0.071917325 -0.07328045 0.06973575
-0.00985024 -0.121437065 0.0367175 -0.15997179 -0.1709686 0.12196641 -0.13137084 0.0880984
00000000: 91b7 dc3d 2a12 7e3d 2998 0fbe 75c6 c3bd
00000010: 3194 14be e620 cbbd ddee 723d e911 173d
00000020: 9a7f 013e 4901 8fbd 952c 293e 0a27 07be
00000030: 01dc 39bd dc53 5f3c bce0 d03c c12b 07bd
00000040: b487 093e 5bca 6d3c 69d3 34be f47d 9fbd
00000050: 2cd0 3bbe e0e0 2bbe 1117 6d3d 1a80 f63d
00000060: 5c93 51be 3d27 e93d 8be6 f73c d67e 743e
00000070: b295 2cbe 63dd 213e 74e2 0f3e 88fb 173e
00000080: 43aa 9dbd 693f 16be b393 e4bd 8638 28be
00000090: 6fee 253e e2cf 68bd 3da5 e4bc d1f0 893d
000000a0: 5dee 4cbe 291a f0bd 4c21 d5bd 2efc 113d
000000b0: 7a26 93bd e5d0 8f3c 8897 ecbd 07cd 3dbe
000000c0: 81e2 76bc 999f eabc 6df1 923d 1166 08bd
000000d0: 6216 7c3d bcdb 33be 0a63 b7bd 08e1 273e
000000e0: 2e4e 273e 3283 4dbe 7f7e 15be dc0c 2d3e
000000f0: 51df 2cbe e944 1a3e b381 ab3d abce ffbd
00000100: 18aa cfbd b453 c63d 9217 eb3d b899 923d
00000110: 83cf 0fbe 6e77 f43d a112 84bd 1a1c 3abc
00000120: 5dc5 0d3e 6539 b03d ddb6 293d afec 84bd
00000130: fe9a cb3d 5dc1 8a3d cca2 ac3d aea3 92bd
00000140: 0c6d 2fbe d34a 6ebd c951 163e 237d 0d3e
00000150: 481d ce3d c24e 203e 54a0 93bd 6cd7 c9bd
00000160: ca3e 12bd 2098 3bbc fcf1 41be 172d 82bc
00000170: 5c67 01be 566b 5b3d a014 42bd e968 93bd
00000180: 9be6 a3bd 42dc 513e b3f4 a5bc 5faf 313e
00000190: 7035 74bd b1d5 9ebd ce99 023e 7be6 1a3e
000001a0: 5724 4b3e 3ec3 133e 3b32 923d 8a35 0fbd
000001b0: da8d 4abd 1db9 4abe 8dda a63d 00bf cbbd
000001c0: 61e6 a23d 3b68 1bbe 7584 523c 885b 583e
000001d0: 762e fdbd 5f77 38bd a819 73bd beb8 12bc
000001e0: bf1d c53d 9f9a 8dbc 1ebe 78bd c1d3 103e
000001f0: 8ea6 a43d aa57 9a3d 17fa f03c 125b 0abe
00000200: a136 87bd 2ace e83d 6e46 ffbb 2d68 4bbe
00000210: 259a 3ebe 3d29 e93d 1926 7ebc bb7f 23be
00000220: e612 42be 86e1 ffbd 16f2 4c3e 22ab a1bd
00000230: bb14 d23d 1b33 27be 877f 233c b508 02be
00000240: 7cc9 3b3e d418 1cbe 600f 42be 8b6d 4ebd
00000250: 9dbb 6c3d a501 3dbe 2980 bbbd 2c06 3d3e
00000260: 5be2 7a3d b5e4 023e 7e12 913c 7336 39bd
00000270: 2caa af3d c04c e63c a673 693d 7673 81bd
00000280: 07ab 24bd 84b3 103e 5e54 09be 307a d83d
00000290: 8be9 9bbc 7e89 153d d517 943d 2bac 043e
000002a0: c5d8 0dbe 54d7 1c3e d7fc 203e e923 96bc
000002b0: c235 50be 370a 853d 5e50 1cbe 01a1 2d3e
000002c0: b83c 203e ddda 30bd 68da 16be ecb0 de3d
000002d0: cb0e b9bd 6983 e03c e1a3 2fbc 192d 303d
000002e0: b599 c63d 8d20 1f3e 20a5 0a3d f388 a93d
000002f0: ed0a b03d 1481 d8bd 0cd1 193e f44a 463e
00000300: a72b d3bd 3ef6 14be 5416 ae3d 2727 5f3d
00000310: eb99 983d 833c b63d 119b 403c 03cd 21be
00000320: 0b4a 143e 63f1 473e 1f0c 243c c209 c4bd
00000330: 3573 933d dd73 adbd 20e9 d9bd c072 063e
00000340: fc84 283e 73a3 2fbd 7fb8 3abe e6f3 e7bc
00000350: fa54 bc3d 8600 213d 42ec b7bd d27e c53d
00000360: 1283 2cbe b5ff f03c 2157 d3bd 8ceb 8ebc
00000370: 9c6e 903d aa8f 953d cd3a b33d 8267 403d
00000380: 87d8 963d bc87 1f3d e107 55bd 5ed8 1cbe
00000390: b08d c5bd 0951 fc3c 85f2 4bbd 0a45 303e
000003a0: 4f3b 25bc 2b7b 0d3e 3782 0dbe 9475 5dbe
000003b0: 3c1d 40be 965b 12be f136 893d 5798 00be
000003c0: 957d c53d 756e 473d d645 20bc 7639 853c
000003d0: 43c0 2d3b 6449 93bd 1014 96bd 9ed1 8e3d
000003e0: e762 21bc ffb3 f8bd 1765 163d a5cf 23be
000003f0: 6512 2fbe 86c9 f93d 1486 06be ef6c b43d
