logs/CartPole-v1/experiment-2020-04-19_19_15_07/checkpoint.pth (torch_old, 137856 bytes, 9 tensors)

feature.0.weight f4 [128, 4]
00000000: 10ac 11bf 19f5 41be b69a 01bf bfa0 9fbd
00000010: 1e33 c4be 85dc 883e 8687 24bf a679 39bc
00000020: ded6 f9bb a5ba 4abe c724 653f 7dd4 f43d
00000030: edfd 1c3e d8a4 8a3e 81af 13bf 8dfa 2a3e
00000040: a573 72be 3f89 363e d9a4 d1be 32f4 513e
00000050: 17af e03d 53ac 1fbe cde5 22bf 34ff 9a3d
00000060: a0f9 973e d466 123e cd4d 0b3d 09d2 b2bd
00000070: d1ac 8c3e 3a94 b8be a3a0 213e 382c 2bbe
00000080: 68d1 a33e 3291 eebd fc6f 0c3e 5946 d53c
00000090: 1ae4 e03e dd0f f9bd 6439 e63d ec64 3ebe
000000a0: 29cd 9fbc fc88 e4be 16d8 35be 6941 093e
000000b0: 1444 03be 96ec 0b3e 0363 55be 450f b6be
000000c0: 7c03 bf3e 6b58 953e cd94 363f 144d 903e
000000d0: 37f1 053e 8d4e 6c3e 4a8d 183f c20d 0dbe
000000e0: 78e6 1bbf 4d70 87be dce7 66bb c000 86bd
000000f0: dfae cebd 8853 313e 5453 4c3e f916 b8be
00000100: bcce 19be 48e5 f0bd 1ace 9b3e 30be 39be
00000110: 7784 41be b16c 09be 4813 32bf 9183 35be
00000120: cc36 4ebf a3c4 a93e 2f1e 0f3f a1b2 83be
00000130: 24fd b7be 53ba 7abc 66dc 803e 6259 c4be
00000140: 2aaf 8b3d 0904 4d3e 8099 65bf a6d5 22bc
00000150: a541 1cbf f700 b33e fb37 093f be8a d7be
00000160: e516 9dbe 38ed 443e cd5e 0f3e 4480 063e
00000170: e7c0 273e 287f a0be f3b6 13bf acba cfbe
00000180: ea4c 5abe 4daa 8a3e bd1a c03e 2e3d 90bd
00000190: 4e82 b93d 4b4d fd3d dd22 f6be 1660 24be
000001a0: 1280 913e e9ef cc3e b31e 0cbe 8abf 82be
000001b0: d1de 2fbf 9875 07bf 9526 55bb 29c5 7ebe
000001c0: a8e4 0c3c d675 4a3d f3d5 923f 8eae e43e
000001d0: a5ae 8ebc 8ecc 12be a496 af3e c2d7 80bc
000001e0: 105b cbbe 3a2c 483e ffa4 933f 3cb1 47be
000001f0: 185d 313e db3f dd3d bae1 8bbf 355e cbbe
00000200: 4ec5 ca3e 0df7 1fbe ae60 df3e 2e78 78bd
00000210: 6f65 9bbe 52f7 54be 090e de3e f3cd e23e
00000220: 6a72 443e ff14 33be 435a af3e 8aeb b73e
00000230: bb96 dbbe 61f5 a83e 8a65 c93d 5c0f e9bd
00000240: b8e3 823e a053 cbbe 5169 83be 33b1 e13e
00000250: 0f44 993e 3548 12bd 4ed4 95be fcdd 623e
00000260: 759a f13d 2b6a 8f3e fb96 34bf 3f27 223e
00000270: e47b f4bd 240f f23d 8d20 a73f af0c 933e
00000280: a2c6 7d3e 640b fc3d 4835 fa3e 7298 cbbd
00000290: 9354 9d3d 3b73 e8be 8c53 5cbf 7efa b8be
000002a0: 88f7 dc3d 7bb9 d73c 2f6c 7dbe aed5 bfbe
000002b0: 8613 e83e 1ed2 a93e db1d 233f 646a d73e
000002c0: ed54 02bf 1004 a7be 4493 13bf 7043 8b3c
000002d0: 84ff 06bf 211a 8f3e c866 2d3f ef24 9c3e
000002e0: 56b3 9dbe 16fb 6bbd d07a c33e 4b57 30bd
000002f0: 5446 183f f6e8 8dbe 3df1 edbe a8a8 e6be
00000300: 8957 a7bc f171 b1bd ae83 9e3e c6c3 a43e
00000310: 7c8c c5bc 5a72 c43d f2fc 8d3e 547b e33e
00000320: f67d 25be d43b a03e f243 e1be 6558 d73e
00000330: 9c6c ea3e 740a 813e 5bc0 2d3e 99e8 f53d
00000340: d4ec 61be 888b 3abc daad 603f 0684 0dbd
00000350: 3f6f 383c 25e9 da3d 9d12 4ebf 0001 f1be
00000360: 5a2e 99be 90d3 793d 78ce bdbd f0a9 dc3d
00000370: 519c 463d 6a39 6abe 1a2a 733d d4bb bf3e
00000380: 869a d3be cdf3 f13e 24a9 893f f81d 133f
00000390: 8d93 0dbf 413f 08bf ce4d 2c3f dfe0 e3be
000003a0: 071b 7cbe 0796 913e 5446 103e bb95 06bf
000003b0: c88b a03e bbd3 2ebe 81fa a43e f9c1 d1be
000003c0: 09a7 253b c3dd adbe 92b3 3ebf ebc0 01bf
000003d0: 9189 4bbd e065 94be 9e3a 0abe 8530 8d3d
000003e0: 02c7 f73d 73a2 1abf 58c8 3a3e f389 86be
000003f0: fe51 643e 9f67 d13e 1744 7abe 5ffe 623d
-0.5690317 -0.18941154 -0.50626695 -0.07794332 -0.3832025 0.26730743 -0.6426929 -0.011320507
-0.007624491 -0.19797762 0.8950924 0.119545914 0.1533124 0.2707889 -0.5768967 0.1669714
-0.23676927 0.17825793 -0.4094608 0.2050331 0.10970896 -0.1559308 -0.636319 0.075682074
0.29682636 0.14297038 0.034009743 -0.08731467 0.27475598 -0.36050588 0.15783934 -0.16716087
0.31995702 -0.116487876 0.13714594 0.026034521 0.43924028 -0.12161229 0.11241415 -0.18593186
-0.019507008 -0.4463576 -0.17758211 0.13403858 -0.12818938 0.13664469 -0.20838551 -0.35558525
0.37307346 0.2916902 0.713208 0.28183806 0.13080297 0.2307684 0.5959059 -0.1377478
-0.6089854 -0.26452866 -0.0035233414 -0.06543112 -0.10091948 0.17317021 0.19953662 -0.35955027
-0.15020269 -0.11762482 0.3043068 -0.18138957 -0.18898188 -0.13420369 -0.6956067 -0.1772597
-0.80552363 0.33157834 0.5590543 -0.2572222 -0.35935318 -0.015303212 0.2516815 -0.38349444
0.06820519 0.2002107 -0.8968735 -0.009938633 -0.61037666 0.34961674 0.53601044 -0.4209804
-0.3068153 0.19231117 0.14001007 0.13134867 0.1638218 -0.31347013 -0.57701033 -0.40572107
-0.21318403 0.27083054 0.375204 -0.07042919 0.09058057 0.12368258 -0.48073474 -0.16052279
0.28418022 0.40026787 -0.13683586 -0.25536758 -0.68699366 -0.5291381 -0.0032524217 -0.24879898
0.008599438 0.049428783 1.1471542 0.44664425 -0.017417261 -0.14335844 0.34294617 -0.015727881
-0.39717913 0.19548121 1.1534728 -0.19501203 0.17320669 0.10803195 -1.0928261 -0.39720312
0.39603657 -0.15621586 0.43628448 -0.060661487 -0.30350825 -0.2079747 0.43370083 0.44297752
0.1918427 -0.17488478 0.34248552 0.3592189 -0.42888436 0.3299971 0.0983382 -0.11379883
0.2556436 -0.39712238 -0.25666288 0.44080505 0.29934737 -0.035713393 -0.29263538 0.22154993
0.117970385 0.28010687 -0.7054288 0.15835284 -0.11937693 0.11819294 1.3056809 0.28720614
0.24782804 0.1230686 0.48868775 -0.09941186 0.07682147 -0.45400414 -0.8606498 -0.3612861
0.107894 0.026333561 -0.247483 -0.37467712 0.45327395 0.3316812 0.6371743 0.42073357
-0.50910836 -0.32620287 -0.57646585 0.01699993 -0.52733636 0.27949622 0.67734957 0.30496928
-0.30800885 -0.0576125 0.38179636 -0.043052 0.5948231 -0.27716798 -0.46473113 -0.4505055
-0.020427482 -0.08664311 0.3095984 0.32180613 -0.02411484 0.09592123 0.27732044 0.4443003
-0.16161332 0.31295645 -0.4399715 0.42059627 0.45785987 0.25203288 0.16967909 0.12007255
-0.22062999 -0.011385806 0.87765276 -0.034549735 0.011256992 0.10689 -0.8049715 -0.47071075
-0.29918176 0.060992777 -0.092678964 0.107746005 0.04848892 -0.22873464 0.059366323 0.3744799
-0.4132883 0.47256318 1.0754743 0.57467604 -0.5530327 -0.5322152 0.6730622 -0.445075
-0.24619685 0.28434774 0.14089328 -0.5257222 0.31356645 -0.17072956 0.3222237 -0.40968302
0.0025276563 -0.33958253 -0.7449275 -0.50684994 -0.04969174 -0.28983974 -0.13498923 0.0689402
0.120985046 -0.6040413 0.18240488 -0.26277122 0.22296903 0.4089937 -0.24440037 0.05541837

feature.0.bias f4 [128]
00000000: 1eed d53e 08c9 a73e 18b6 86be a247 763e
00000010: 9205 c03e 0fa2 763e c75a bdbe d38c 153f
00000020: c060 e3be 7377 25bf feda 583e 4e5b be3e
00000030: 00b7 903d d6bb 4d3c d19a 833e 5f26 d03e
00000040: 8c92 77be b964 673e 5387 1cbe 1fd0 87be
00000050: c841 a2be 874e c1be 07ec 063f ab76 a9bd
00000060: 601a 9dbd b196 5bbe c91d 01bf 99ee b83e
00000070: 9602 68be 5d34 bb3e 85e8 8a3e ad3c e1be
00000080: 060c 07bf 5cfc 17bf 3f84 e93e 2ca0 0f3f
00000090: 9b4e 893e 71e9 d8be b4ee 853e 08e3 8dbe
000000a0: 0170 ed3d 8a27 31bd aef1 f13e f927 d73d
000000b0: 52ee 003e 215b 39be 3860 103f 0149 c0be
000000c0: 815f ba3e 367d 06bf d0f0 1c3e d007 1fbf
000000d0: 9b65 a93e 73ae 0b3f e89d 75be 6ff7 0f3f
000000e0: ecb9 a9be e424 b23e d432 2a3e bb66 5dbe
000000f0: 29fa c6bd bf6d 7e3e f6d3 85bd db0f 29bf
00000100: 24f4 fcbd abff 063f 4a72 dcbe 88f6 b9bd
00000110: 35e2 323e 5ece c23e 5361 fbbe 29a3 b8be
00000120: e8ef ca3e d9cd ef3e 2539 d83e ec88 b63e
00000130: 3f25 f8be e55c 8b3e 8d2a ea3d c7fa 1e3e
00000140: 22b2 d5be 9f2b 033f a0d9 babd 97ce d4be
00000150: 9fd2 b43e ebb5 d9bd 47ef 99be 85ee 92be
00000160: 464c ecbe 302b 393e b6d0 263e 0f77 26be
00000170: 7bd6 433e 9796 b6be 70dc 3cbf 53b7 9a3d
00000180: 3ea2 0f3f 0846 e5be 6dba 9c3d 8444 c2be
00000190: ae66 813b 2592 493e 04a7 dabe 6e84 dbbe
000001a0: 2e79 ccbc 719c 82bd 9489 e63e 7eca ae3e
000001b0: cc62 ba3e 529d bebe 0ee0 efbe 2922 aabe
000001c0: f6b5 cdbe 9ef1 89bd 5ff3 a9be 81b2 18be
000001d0: 1b34 15be 3cc9 11be bd1d b43d e8d8 123f
000001e0: 05cd 4cbe 9104 c83e 3cad 083f eabc b23e
000001f0: 020b 4dbe e3b3 573e d73d 5cbe 006e d7bd
0.4178247 0.32770562 -0.26310802 0.24050763 0.3750425 0.24085258 -0.3698332 0.58418006
-0.44409752 -0.6463539 0.21177289 0.37179035 0.070661545 0.012556991 0.25704053 0.40654275
-0.24176997 0.22597016 -0.15285997 -0.2652597 -0.31690812 -0.37755224 0.527039 -0.08274587
-0.07671046 -0.21444203 -0.50436074 0.36119536 -0.22657236 0.36563388 0.27130523 -0.43991604
-0.5275272 -0.59369445 0.45608708 0.5610378 0.26817784 -0.42365602 0.2615868 -0.27712274
0.11593629 -0.043250598 0.472547 0.10505671 0.12590912 -0.18101169 0.5639682 -0.37555698
0.3640099 -0.52534807 0.15326238 -0.62121296 0.3308533 0.54563063 -0.23986018 0.5623693
-0.3314966 0.3479377 0.16620952 -0.2162122 -0.09715683 0.24846552 -0.06534569 -0.6603982
-0.12351254 0.5273387 -0.43055946 -0.09080225 0.17469104 0.3804807 -0.4909769 -0.3606198
0.3963616 0.46836737 0.42231098 0.35651338 -0.48465917 0.2721931 0.11433897 0.15525351
-0.41737467 0.51238436 -0.0912354 -0.41563866 0.3531694 -0.10630401 -0.30065367 -0.286976
-0.46151942 0.18082881 0.16290554 -0.16256355 0.19124787 -0.35661766 -0.7377386 0.075544976
0.56106937 -0.44779992 0.076527454 -0.37942898 0.003949008 0.19684656 -0.42705548 -0.42874473
-0.024960127 -0.06377495 0.4502684 0.34138864 0.364035 -0.372294 -0.46850628 -0.33229187
-0.40177888 -0.06735538 -0.3319349 -0.14911844 -0.14570658 -0.14236921 0.087947346 0.5736222
-0.20000084 0.39065984 0.53389335 0.34909755 -0.2002373 0.21064715 -0.21507965 -0.10519028

advantage.0.weight f4 [128, 128]
00000000: 4740 30bd 58d8 9ebd d44b 99bd 5a37 29bd
00000010: 8a18 d7bb cfac afbc 09a2 c9ba eb1d ae3c
00000020: d029 ed3c 05ea 753d 441d 47bc 6da6 b2bb
00000030: 440e 98bb 44af 21bd e27b 35bd 715f 38bd
00000040: 5d51 abbd 043e 993b 2d23 9bbd 5aa9 24bd
00000050: 715d 1abd d002 903d d13e cebd 2d10 f0bc
00000060: 96f7 583c aa3d 943c 58d7 893d 6d89 173d
00000070: f053 4b3d ac03 acbd 448b 3d3d 5d9e 21bb
00000080: 6f50 eebb a978 22bd 39ef c23c 8489 8a3c
00000090: 7d32 96bd 12df 83bd dbf3 ce3c 4a2d a8bd
000000a0: 8261 bcbd edd5 8b3d bfb5 3c3c 3f1d 473b
000000b0: f606 6a3c 3626 393d 3f6e 96bd f920 9c3d
000000c0: fc54 04bd b01a 0e3c f946 bbbd 5e61 e53b
000000d0: 74b5 88bd af4d f33c 41f4 abbd bb05 623d
000000e0: c0c0 a9bc 3075 afbc 6478 a3bc b843 92bd
000000f0: 1e31 b73c 5637 7b3d 8438 24bd 2c09 ddbc
00000100: d853 3cbd a130 af3b 8b55 853d 935d 933d
00000110: 5ebb 953c 0e1b d93c 5aca 92bd 0995 11bd
00000120: 1830 943d 364b 65bc d3d2 d53c 7282 9dbd
00000130: 613a a3bd b640 6f3d 36d2 2dbd cdee 5dbd
00000140: b8ee 22bc 1403 a0bc 47c1 df3c e720 4c3d
00000150: 1bb7 8d3d a5a6 ecbc b4f7 82bc 88ea 8dbd
00000160: 83dd 37bd 33b1 0dbd ebfe 99bd f0ae 22bb
00000170: f223 c3bc 3a2b 503d db92 99bd 3f76 b9bb
00000180: 1fcb 31bd 8022 c33b 6558 81bd b145 b2bd
00000190: e031 07bb 4b60 ebba 0f29 9d3d f491 76bd
000001a0: b7e4 00ba 6230 813d b918 8e3d 6337 873b
000001b0: a313 83bd 442e 5f3d 7716 83bd 56bb a8bd
000001c0: f089 f83b 4b93 86bd ec2a e73c 1ced 21bd
000001d0: dcd4 82bd 2c91 19bd c359 94bd 8ce4 a9bd
000001e0: a732 423d f904 66bc fcd6 7abd df3f c1bd
000001f0: 27fb 853d 3ec7 86bd 5f6b 933d b1ca 9cbd
00000200: 9e6a f83d 1841 283e 0dd5 ae3d 73ee 5cbd
00000210: 9df4 e83b 8c6f d33d 1045 1d3d 5aa7 713e
00000220: 7362 763e c84a cd3e f8b5 c33d 66f8 0d3d
00000230: c1a8 083d 9840 863c af6f 433e 22fb c4bd
00000240: 9268 88bd e79f 06bd b660 fb3d 1a5b c839
00000250: d7ad e23e ddbe 87bd a851 dfbc b9f6 44bc
00000260: 9fd0 23be c8aa 6e3d b845 82bc 7ee6 473e
00000270: ea99 d33d 4705 0e3d 0ff3 dc3d 9472 783e
00000280: d81f f83e a940 c93b 1614 843d f13c 3abd
00000290: 6215 1a3e 8c6e 1e3e 3464 25bd fe88 b93e
000002a0: 2060 5b3c 7d01 a73e d137 9dbd f80d 5ebd
000002b0: cb96 263e 58f9 a83b 4951 313e ec2a f63d
000002c0: d8e2 f33c 1f30 37be aa2b 283e 4db3 c0bb
000002d0: 364a c93d c929 16bd 00b6 503c 2aca 6a3d
000002e0: 468e 083e dec8 d83d 58b3 163d 4985 b0bc
000002f0: 2eaa 103e 33df 9d3d 1ab2 2c3e 09a9 723d
00000300: 77be 0e3d cc22 363e 0a8e 273d 491c eebb
00000310: b22f d3bd 8a74 c03d d340 103e de47 8e3b
00000320: b468 a0b9 792f 87bc 9a0d 003d 7197 4e3b
00000330: d109 99bd 9545 69bd 880a 1dbd 862a 19bc
00000340: 33f3 ffba bd51 53bd 98fd 56bc d13d 2d3e
00000350: 9381 c53d 2606 9d3d d61b 213f 6418 21be
00000360: 1fcb d03c ce1b a73d e9f3 353e 1ced b93d
00000370: feb7 9c3d a0af 593e a944 233e ee57 a93d
00000380: 1ac6 4f3d 48c4 b43d 3cf0 e63d b1e3 01be
00000390: 87fa a53d 1061 023d 5b11 8a3d 2054 76bc
000003a0: 194a 953e 9b51 f53b c029 6c3d ab17 023e
000003b0: 3316 19bd f405 c93d fb34 863d ca59 f23d
000003c0: 455f 9dbd 1d75 113e 69da 153e 4865 3f3f
000003d0: 1870 a13d 5d62 423e cc42 833d 5103 f63d
000003e0: 2e88 013e f587 7e3d 7f5d cd3d 4f56 013e
000003f0: 6070 903d 6144 a63d 8830 9c3e 4710 b1bc
-0.04303005 -0.07756108 -0.07485166 -0.041312553 -0.0065642046 -0.021444706 -0.0015383373 0.0212545
0.028950602 0.06003763 -0.012152974 -0.0054519684 -0.0046403725 -0.039473787 -0.044307597 -0.045012895
-0.08365128 0.0046765823 -0.075750686 -0.04020057 -0.03768677 0.070317864 -0.10070575 -0.029304588
0.013242623 0.01809581 0.06730527 0.036996294 0.049640596 -0.08399138 0.046275392 -0.0024661042
-0.007272772 -0.03966585 0.02379571 0.016911276 -0.073338486 -0.06439032 0.025262764 -0.08211763
-0.09198286 0.068279125 0.011517941 0.0030382422 0.014283886 0.045202456 -0.073452465 0.076234765
-0.03230761 0.008673355 -0.09144396 0.0070001325 -0.066752344 0.029700128 -0.08396197 0.055181246
-0.020721793 -0.021418184 -0.019954868 -0.071418226 0.022362288 0.06133207 -0.04009296 -0.026981913
-0.045978397 0.005346373 0.06510457 0.07195582 0.01827782 0.026502158 -0.07167502 -0.03554252
0.07235736 -0.0139949825 0.026101505 -0.07690896 -0.07970119 0.058411323 -0.0424368 -0.054182816
-0.00994461 -0.019532718 0.027313842 0.049836066 0.0691969 -0.028888056 -0.015987255 -0.06929499
-0.044888984 -0.03459282 -0.07519325 -0.002482351 -0.023820851 0.050822474 -0.074987136 -0.005659848
-0.043406602 0.0059550405 -0.06315688 -0.08704699 -0.0020629093 -0.0017957775 0.07673847 -0.060197785
-0.00049168937 0.063080564 0.06938309 0.0041264757 -0.0640023 0.05448748 -0.06400769 -0.082388565
0.007584803 -0.06571063 0.028218709 -0.039532766 -0.06388256 -0.037491962 -0.07243683 -0.08295545
0.047411587 -0.0140392715 -0.06124018 -0.094360106 0.06542044 -0.06580971 0.07198214 -0.07655848
0.121297106 0.16431081 0.0853673 -0.05393834 0.0071092383 0.1032401 0.03839594 0.23598996
0.24060993 0.40096116 0.09556192 0.03466072 0.03336406 0.016388223 0.19085573 -0.09618212
-0.0666057 -0.03286734 0.122743055 0.0003821485 0.44273254 -0.06628201 -0.027260616 -0.012021714
-0.15997551 0.05826834 -0.015902385 0.1952152 0.10332091 0.034673 0.10788547 0.24262458
0.48461795 0.0061417413 0.064491436 -0.045468275 0.1504722 0.15471858 -0.040378764 0.3623733
0.013389617 0.32618323 -0.07676662 -0.05421254 0.1626846 0.005156677 0.17316164 0.120199054
0.029771253 -0.1788945 0.16422907 -0.0058807493 0.09828608 -0.036660943 0.012738705 0.057321705
0.13335523 0.105851874 0.03679213 -0.02154793 0.14127418 0.077085875 0.16864815 0.059243236
0.03484961 0.17786711 0.040906943 -0.0072665554 -0.103118315 0.09397228 0.14087228 0.0043420633
-0.00030595588 -0.016502129 0.03126297 0.0031523372 -0.074725755 -0.056951124 -0.03834012 -0.009348517
-0.0019527435 -0.051591624 -0.013121985 0.16918112 0.09643855 0.07667188 0.629331 -0.1573196
0.02548748 0.081596 0.17768826 0.09078428 0.07652281 0.21258402 0.1594416 0.082687244
0.050726034 0.088265 0.1127629 -0.12684514 0.08104425 0.031830847 0.067415915 -0.015034705
0.29158095 0.007486535 0.057657003 0.12704341 -0.037374686 0.098155886 0.06553074 0.11833532
-0.07684187 0.14204831 0.14634098 0.7476392 0.07882708 0.18982835 0.06409225 0.12012351
0.12649605 0.062141377 0.100275986 0.1263058 0.07052684 0.08118511 0.30505776 -0.021614207

advantage.0.bias f4 [128]
00000000: ea75 55bd 051d a7bd 6086 c2bd f5e1 1abe
00000010: 4f58 e33d ad72 9dbd 19f5 b5bd cb90 473d
00000020: 2d98 683d 53b8 fabc b1a9 7dbe 55b3 c6bd
00000030: b20a f4bd 169a 393d fb47 9bbc 37d9 363d
00000040: d9a4 1e3e b130 94bd faf3 3fbd cc93 913c
00000050: 34b4 8fbd 13d9 913d 17a4 163d 5bb2 9f3c
00000060: 7b7f 35bc cebb 673d 1f67 d7bd d449 553d
00000070: ba46 3b3c 91b4 703d eab1 adbd 9e68 c5bc
00000080: fb86 18bd 3df6 8fbd 232e ecbb 3a83 b9bd
00000090: 4f56 893e d9a1 453d ac40 6fbd 5508 8c3d
000000a0: 21e9 12bd 81f8 cfbd 33b0 abbd 1a77 7e3d
000000b0: 8eaa 963c 8965 b73d 9e19 46bc c159 aa3d
000000c0: 00be b23c f890 09be e54c f6bc 35c6 23bd
000000d0: f08c b3b9 b66c 793e 326d b3bd 06fd 31bd
000000e0: 23e6 793d 0764 b93d a058 c8bd 4c9e b4bb
000000f0: 7066 d0bc cf48 c3bc 98c2 d7bc ce60 f8bc
00000100: a7e2 0f3e 4bf6 873d 4b62 e6bc ef55 4d3d
00000110: 71ef 1c3d 2578 bf3c 4921 a03e 04d3 41bd
00000120: 4d50 c0bc 7086 af3d b7d2 12bc eb3a ccbd
00000130: c499 403d 37eb 923d 3727 093b 1739 12bc
00000140: 49c2 85bd 513d 853d f82c d43d b8c5 013d
00000150: b173 fcbb 460b 6cbc e069 873d e6e4 413d
00000160: ea6b 36bd ccc6 29be 96ba 003e ed5e adbb
00000170: caab a4bd e67e 84bd 4885 693e 9aa6 11bc
00000180: 5879 e1bc db84 5c3d f770 5cbc cde6 6f3d
00000190: 6747 b3bd 675f b4bd b947 633e 5064 e73d
000001a0: 5b73 22be 5788 823c ed42 05bd d263 5b3d
000001b0: 91de b9bc 28ed 26bd 0a7a 093e 181d 493d
000001c0: 69a9 cdbd dbe6 babd a51a d2bc 0597 9d3c
000001d0: a25a a0bd dab9 acbd 2374 76bd 9757 953b
000001e0: e560 3abc ef57 a5bd 0245 09bd 14b1 093d
000001f0: 3d23 14be 194d 913e aeec 883d 0f6e 2bbe
-0.052114405 -0.08159832 -0.09498286 -0.15125258 0.11100828 -0.07687888 -0.08884639 0.04872207
0.05678575 -0.03060547 -0.24771763 -0.097021736 -0.119161025 0.045312963 -0.018955221 0.044640746
0.15492572 -0.0723585 -0.046863534 0.01777067 -0.07016793 0.07121482 0.036777582 0.019494226
-0.011077757 0.05657559 -0.10517716 0.05207236 0.011430437 0.05876595 -0.084812 -0.024097737
-0.037238102 -0.07029388 -0.0072076484 -0.090582326 0.2682366 0.048250053 -0.058411285 0.06837527
-0.03586686 -0.1015482 -0.08383217 0.062125303 0.018391874 0.08954913 -0.012091069 0.083179004
0.021819115 -0.13434207 -0.030065963 -0.039983947 -0.00034246547 0.24357876 -0.08761062 -0.043454193
0.06101049 0.09052282 -0.09782529 -0.0055120345 -0.025439471 -0.023838429 -0.026337907 -0.030319598
0.14051305 0.066387735 -0.028123042 0.05013078 0.038314287 0.023372719 0.31275395 -0.04732038
-0.02347579 0.08570564 -0.008961371 -0.09972175 0.047021642 0.0717377 0.0020927915 -0.008924744
-0.065311976 0.06505836 0.103601396 0.0316827 -0.007704221 -0.014406985 0.06611991 0.047337435
-0.04453651 -0.16579741 0.12571177 -0.005290857 -0.08040579 -0.064695165 0.22804749 -0.008889819
-0.027523682 0.05383764 -0.013454667 0.05856972 -0.08753853 -0.08807259 0.22195329 0.1129843
-0.15864317 0.015934153 -0.03253453 0.053561993 -0.022689136 -0.040753514 0.1342546 0.04910001
-0.10042078 -0.091260634 -0.02564747 0.01923705 -0.07829787 -0.08433886 -0.06016935 0.0045575607
-0.0113756405 -0.080734126 -0.033513077 0.03361614 -0.14466567 0.28379133 0.06685768 -0.16741203

advantage.2.weight f4 [2, 128]
00000000: ed39 f43c 7fb3 4ebe c803 b1bc 1116 15bf
00000010: 1af5 bd3d b5fb ec3c 9121 a6bc 4d44 00bc
00000020: b3e9 0fbd b318 d23c 68ac 64be 531b ddbe
00000030: 20c5 26bf 0c54 ffbd 5fc7 16bf 57a1 a2bd
00000040: 6489 cb3e 2544 e63c 7153 203d 2877 073f
00000050: e10e 4b3d 7d1f ee3c ef7d 5fbd 5520 2ebd
00000060: e166 1fbd 6b24 c03e ee8b cabe 8f8b ebbe
00000070: 3f17 ecbd 8ddf a1bf fd5a 673d 4c05 8ebd
00000080: dcde 69bf 03f8 e53c cbe5 86be d042 c3bb
00000090: 1754 ad3e 7678 e0be 4b98 26bd 2b3e d43e
000000a0: bb59 6bbe c2d4 abbd 1ee8 de3c 877b a6bc
000000b0: 6898 20bf 6b02 b3bd bdcd 573d ff74 153e
000000c0: 4565 873d be43 013d c3c2 693e 0b81 3f3e
000000d0: 18f9 c0be f906 b23e c51a 0dbd d68c f6bb
000000e0: a3e3 383d 3ffb 59be b475 95bf 9291 47be
000000f0: 5778 5fbd fe3c 75bd 0c46 11bf f2c3 a7bf
00000100: 1eaf 73be 956a 803d 2cbd 8abe 57e1 03bd
00000110: 8b88 82bf 3b54 edbc 4aaf c33e 484c 0fbd
00000120: b7bc a5be 295f 6ebe b51a d83b cbdd a8ba
00000130: b3a6 b33d b99f 3bbd 55ca f5bc edfe 84bf
00000140: 01cf 3cbf 5f7e af3d 4235 1b3f fbd8 b43c
00000150: 0080 c9be 7fc3 073d 9f56 ac3e 7d83 513e
00000160: 94c1 5a3d 9a29 a83e 8330 88be b8d6 01be
00000170: 2f70 6e3d 06eb 503e 8626 943e acaa 6fbb
00000180: 56ed 8bbe e2f4 db3b 5a99 2abd dbf3 433e
00000190: 197e 30bd 7b3e 9c3d cd9f 463e e39d 263f
000001a0: d198 87be d6c3 9d3b b67a 9e3c e188 82be
000001b0: 9a9d fdba daab 4d3d 48e6 a53e ba88 01bd
000001c0: b10c 1bbf 082c 95bc 251d ab3d 59a8 fcbe
000001d0: f7af 1c3f f2d1 6bbe 88bd d0bc c950 863d
000001e0: 3c8d 7bbe 58bd ccbe 681b 29bd 230a 02bf
000001f0: f510 a5be 6d8d ca3e 5017 853e 176f afbe
00000200: 2e09 563d 3ccf c9bd 72c1 c4bc 2fa3 b5be
00000210: b15d fc3e 4d68 673d 5f0d 423c 1574 5c3d
00000220: 6bd9 753e 1e94 a2bc 7bd8 12be 2cdf 3fbf
00000230: b07a f1bd 4194 753d e5dc 8abf c457 003d
00000240: 630a 0c3e 9e2d 52bc f045 643b 2f54 50be
00000250: 2002 b5bc a2ee 9ebd da3f 963d 6459 24be
00000260: 895d b73c f8f8 83bf aeba d5bd 5d5a 72be
00000270: 49de 9fbf cecd 74bf 04b4 9d3d e748 fdb9
00000280: dca3 9fbf a48c 9bbc e3b8 0cbf 2e14 1ebd
00000290: d68c cb3e 5936 06bf c25f 72bd 6bf8 9b3e
000002a0: 30a8 37bf e0e0 2a3d fb85 a8bc 741e 1c3c
000002b0: 3bf4 4a3e 2d8e c53d 391f 1d3d 88a9 61bf
000002c0: c052 4c3d abd8 84bf b3db 68bf c21a eabe
000002d0: e054 1cbe a607 d73e 5e86 f5bc 47d8 c2ba
000002e0: 9dbf 8fbd 63ec efbc 31ca 33be 7239 babe
000002f0: e9c0 a93d 02b3 dc3c ad73 5dbe 3ab7 a1bf
00000300: e35c d73d 1726 b73e e8d2 4ebe 4697 1c3d
00000310: b628 8a3d 4684 533c 8979 e53e 0884 923d
00000320: 7396 f0be be39 c03d ef00 65bd a3f2 0ebd
00000330: 8074 073e d3ea e33b c227 e03c a70b b0be
00000340: c6a4 debd ecf4 3e3e 7bf8 f1be d8a5 f03c
00000350: 98c7 8abf b2c7 a2bd c844 07bf b15a 9a3e
00000360: 8069 8e3d d828 4e3f 756c c1bc e487 85be
00000370: c69f 083d 5125 89bf 37f8 c33e 97be 5d3d
00000380: 3dc2 d9bd e4b2 21bd 0c90 97bd c006 cabe
00000390: fd27 80bc 13e1 5c3d 4b79 9f3e 637f 89be
000003a0: f66b 3abf 8008 ac3d 5d3f 34be 80fe bebd
000003b0: d7a1 0cbd 6860 ac3c abc2 e23e 17c0 43bf
000003c0: 1cdc 94be 6248 2bbd 56df 833d b227 10bf
000003d0: 9b6a 39bf c949 88be 2cb3 0cbd 338b acbe
000003e0: ab5c 953d 9858 f2be 690e 873c 155d 84be
000003f0: ea18 0abf 6d2d cf3e 11ab 90be fa50 3ebe
0.029812777 -0.2018566 -0.021608248 -0.58236796 0.09275265 0.028928617 -0.020279678 -0.007828784
-0.035134982 0.025646543 -0.22331393 -0.4318491 -0.6514454 -0.124672025 -0.58897966 -0.079409294
0.39753258 0.028108666 0.039142076 0.52916193 0.049574737 0.02906775 -0.05456346 -0.042511303
-0.038916472 0.37527785 -0.39559883 -0.46004912 -0.11527871 -1.2646347 0.056483258 -0.06934604
-0.9135568 0.028072363 -0.26347193 -0.0059588924 0.33853218 -0.43841904 -0.04067258 0.4145368
-0.22983448 -0.0839019 0.027210291 -0.020322574 -0.62732553 -0.087406956 0.05268644 0.14595412
0.066111125 0.031558745 0.22828202 0.1870157 -0.37690043 0.34770945 -0.034449358 -0.007524113
0.045138966 -0.21287249 -1.1676545 -0.19489124 -0.054558124 -0.05987262 -0.5674751 -1.3106673
-0.2379727 0.06270329 -0.27097452 -0.032197323 -1.019792 -0.028970828 0.38219672 -0.034984857
-0.3237054 -0.23278488 0.0065949806 -0.0012883482 0.0877203 -0.04580662 -0.030003706 -1.0390297
-0.7375336 0.08569025 0.6062814 0.02207612 -0.3935547 0.033145424 0.33659837 0.20460315
0.053407267 0.3284424 -0.26599512 -0.12679565 0.058212455 0.20402154 0.2893564 -0.0036570234
-0.2732951 0.006712542 -0.041650154 0.19135992 -0.043089006 0.07629105 0.19396897 0.65084666
-0.26483777 0.004814605 0.019345623 -0.25495055 -0.0019349337 0.05021272 0.32402253 -0.031624533
-0.6056624 -0.018209472 0.08355168 -0.4934719 0.61206 -0.23029307 -0.025481 0.06558377
-0.24565595 -0.39988208 -0.041285902 -0.5079672 -0.322395 0.39561024 0.2599435 -0.34264442
0.05225485 -0.0985398 -0.024018023 -0.35476062 0.4929023 0.056495953 0.011844008 0.053821642
0.2400872 -0.019846018 -0.14340393 -0.7494991 -0.11790979 0.05995584 -1.0848662 0.0313337
0.13675837 -0.012828259 0.0034831725 -0.20344613 -0.02209574 -0.07760359 0.073363975 -0.16049725
0.022383468 -1.0310354 -0.10435997 -0.23667283 -1.2489711 -0.95626533 0.07700351 -0.00048310237
-1.2471881 -0.018987961 -0.54969615 -0.038593464 0.39755887 -0.5242668 -0.059173353 0.30462965
-0.7174101 0.041718364 -0.0205717 0.009528745 0.19819729 0.096462585 0.038359854 -0.8814931
0.049883604 -1.0378622 -0.90960234 -0.4572354 -0.15266752 0.41998023 -0.029971298 -0.0014865481
-0.07018969 -0.029287523 -0.17557599 -0.36371952 0.08288748 0.026940826 -0.21626158 -1.2634041
0.105157636 0.35771248 -0.20197642 0.038230203 0.06746046 0.012909954 0.44819286 0.07154089
-0.46989784 0.093860134 -0.055909093 -0.034899365 0.13228035 0.0069554835 0.027362708 -0.3438389
-0.10871272 0.18648118 -0.47259888 0.029375955 -1.0842161 -0.07948245 -0.52839327 0.30147317
0.06953716 0.8053107 -0.023611287 -0.2608024 0.033355497 -1.0714513 0.3827531 0.05413684
-0.10632751 -0.039477244 -0.07400522 -0.39458275 -0.015644068 0.053925585 0.31147227 -0.26855
-0.72820985 0.08400059 -0.17602296 -0.09325886 -0.03433403 0.021042064 0.44289145 -0.7646498
-0.2907418 -0.041817077 0.06439082 -0.5631057 -0.7242829 -0.26618794 -0.03435056 -0.3369995
0.07293066 -0.47333217 0.016486363 -0.25852266 -0.53944266 0.40464345 -0.28255513 -0.18585578

advantage.2.bias f4 [2]
00000000: ca8b 5cbe dbaf 443e
-0.215377 0.19207709

value.0.weight f4 [128, 128]
00000000: b170 1f3e fa00 2abc e880 0abd cebf a43d
00000010: 46ad 3f3e 1d68 0a3e 13f3 8f3d 53ca c83d
00000020: b5fd 63be 14c4 bdbe 3d5f 1d3e dc3a dc3d
00000030: 36b7 48bd c98a f83d 1707 5b3d 2f5a 693d
00000040: 133c 99bd 5a76 f93d 5114 83bc 592e 6b3d
00000050: a152 dabe b330 993d 5cbb de3d 3dc6 99bd
00000060: 286a 4f3d 2550 fa3c 9b8b 41bc 42d4 0f3e
00000070: 8169 04bc de50 123e eebf aa3d 4521 60be
00000080: 75c4 f5be 606e 3b3d 2c9b 203e d415 653d
00000090: 6299 683c 7fcf 3abe 4180 103c 5d5a 85be
000000a0: d3ca cd3c 1d69 cebe b48b 303e 0ead f93d
000000b0: bc0e a73d d8cf e63d 1547 af3d ed9c 4cbe
000000c0: c68d d73d 3666 7c3e 3a14 1f3e 670e 10bd
000000d0: bb4b e93d dfcb 4d3d 90ce 383c dfe7 0b3e
000000e0: df8a a73c 87ae 3e3d 788c 24bc c458 1d3c
000000f0: c8a3 bdbd 7fed 283d 4791 e2bc 041f 1dbe
00000100: ad05 5e3c 4d3e 593d 6543 a53d fee7 11bb
00000110: 6962 0d3e 8eb3 dc3d 4995 34be f3d9 49bd
00000120: b295 ae3d 888c 463c f691 2f3d 9eea 033d
00000130: d689 a73d 2a1f 913d 215e 223d 7e0e c33d
00000140: 9a37 e93c 85be 193e f720 3fbc 9b69 bdbd
00000150: 889d e23d f238 9d3d 9d8a 23bf eb11 073e
00000160: e23d b03b 96f1 c83d 5f2a 1a3e 27b1 2d3d
00000170: 81c3 793d 8e15 b5bd eca9 78be f4b8 4c3d
00000180: f253 163e d408 f93c 30cc 923d f016 833e
00000190: 0c5d f83d 65e5 d43c ae3e 183e b80c 3d3c
000001a0: a566 25bd 0712 163e 1d9e 193d 67bf ed3d
000001b0: 1010 843d 1f2e d7bd cafa 693d eb5c 6abc
000001c0: d6fe 8bbd 78f2 8fbd 6f9b 22bc 7d1d 25bf
000001d0: 6a6a b03d 750c 41be 1988 0c3d e286 dc3d
000001e0: f90d 0e3d 190d 193c 7c1f 183e bdc9 ca3d
000001f0: d268 a33c b7a6 c83d 44ed 2ebe 6c5f 93bd
00000200: 067a 8abd d15d 82bd 4639 6cbd 7908 b3bd
00000210: cc58 1fbd 2bac 993b 5a11 9dbd 3471 10bd
00000220: 1e08 8c3c b6e7 39bd ef84 9a3d 6021 8a3b
00000230: 2f83 72bd ba8a 733d aa5e 8cbc ce7a 72bd
00000240: 13be 03bd 7b40 15bd 40db f43a 9000 9e3b
00000250: 5c90 873c becf 1f3d 3e71 5dbd 97eb 15bd
00000260: 6e12 7d3d cab7 6f3d 3693 dbbc 01b0 9e3d
00000270: 287d a7bd 11a6 933b a8fb a23c d5fb 973d
00000280: 0999 a13d dec1 9f3d 7922 afbd 1092 babc
00000290: f1f9 273d 9712 4dbd e00d c6bb e1ce fc3c
000002a0: e046 0f3d c895 a63c c8e1 17bd cf6e 8b3d
000002b0: 0acf e83c 827b de3c 2ddb 45bd 54c7 13bd
000002c0: 128c bbbd 9dd2 103c a408 293a 8a4a 7f3d
000002d0: c6c2 22bd fed6 37bd ce0c 24bd b722 cebb
000002e0: b7ff 913d 8051 97bb ae8b dabc b277 413d
000002f0: 94f8 853c 0e40 c2bd 205f c63c f07b c1bb
00000300: 23ab 8a3d 4edc eebc b3ce 17bd 5063 c5bc
00000310: 9c85 b3bc 6eea b5bd 64d6 893c 8433 c3bc
00000320: da3d 2a3d 7686 043d de2b 953d 0b6c a3bd
00000330: 8edb 2f3d 0b08 75bd 8586 503c 0195 723c
00000340: 0e88 a7bd 8296 0c3c 26f9 2b3d 7425 2dbd
00000350: 7b88 1ebd ea2c dc3c 905e 8cbb c469 753d
00000360: a92f c1bc 615a 95bc 3a39 6a3d 8079 52bc
00000370: b2bc 4fbd 8ca3 adbd 9043 ba3b 0075 a33b
00000380: 245f 06bd 386f 8b3c e25d 0e3d 7484 56bd
00000390: d216 e13b c8a7 4dbc f512 933d 1214 7c3d
000003a0: 9dae 7b3b 0351 99bd 0cbd f9bc b626 663d
000003b0: e871 453c 3fad b2bc b831 cebc 9cde 97bd
000003c0: f2aa 513d b476 9c3c 4c28 6b3d f852 c2bc
000003d0: f6aa bc3c ed55 b03d 075f 88bd 743c 9cbd
000003e0: 76e8 863d 8708 b33d 4938 943d c3fd 0bbd
000003f0: d8bd b8bd b5fa 1bbc 849c 04bc 0d31 5dbc
0.15570332 -0.010376209 -0.03381434 0.08044396 0.18718442 0.13516279 0.070287846 0.09804215
-0.2226475 -0.37063658 0.15368362 0.10753414 -0.04900285 0.12135846 0.05347356 0.05697077
-0.074821614 0.12180777 -0.016000899 0.057417247 -0.42641166 0.07479992 0.1087558 -0.07508514
0.050638348 0.030555794 -0.01181307 0.14045814 -0.008081795 0.14288661 0.08337389 -0.21887691
-0.48001447 0.04575956 0.15684193 0.05592902 0.014196726 -0.18243216 0.008819641 -0.26045504
0.025121128 -0.4031457 0.17240793 0.12191211 0.08157107 0.11270112 0.0855848 -0.19981737
0.10525088 0.24648365 0.1553506 -0.035169985 0.113913976 0.050243255 0.011279717 0.1366267
0.020451961 0.04655316 -0.010043256 0.009603683 -0.092597544 0.04124212 -0.027657164 -0.15343863
0.013551158 0.05303793 0.08069495 -0.0022263522 0.13807072 0.10776435 -0.17635073 -0.04928012
0.08524646 0.012118466 0.04286381 0.03220617 0.08180587 0.07086022 0.03964055 0.095242485
0.028468896 0.15014084 -0.011665574 -0.09248658 0.11065203 0.07676877 -0.6388338 0.13190429
0.0053784708 0.09811704 0.15055226 0.042405274 0.060977463 -0.08842002 -0.2428357 0.049981073
0.1468046 0.030399717 0.07167852 0.25603437 0.12127122 0.02598829 0.1486766 0.011538677
-0.040381093 0.14655314 0.037504304 0.11608773 0.06448376 -0.10506844 0.057123937 -0.01430438
-0.068357155 -0.07028669 -0.009924754 -0.6449812 0.08614047 -0.18852408 0.03430948 0.10767914
0.034681294 0.009341502 0.1485576 0.0990176 0.019947443 0.09797423 -0.17082697 -0.07195935
-0.067615554 -0.0636555 -0.057671808 -0.087418504 -0.038903043 0.0046897135 -0.07669325 -0.03526421
0.017093714 -0.045386992 0.07544886 0.0042154044 -0.059207138 0.05945847 -0.017134983 -0.059199147
-0.03216369 -0.036438446 0.0018681064 0.0048218444 0.016548328 0.039016478 -0.054063074 -0.03660163
0.061785154 0.058524884 -0.026803594 0.07748414 -0.081781685 0.0045058806 0.01989539 0.0742108
0.07890517 0.07800649 -0.08551497 -0.022774726 0.041009847 -0.050066557 -0.0060441345 0.030860366
0.0349797 0.020335093 -0.037080556 0.068082444 0.028419036 0.027158502 -0.048304725 -0.036078766
-0.09157576 0.008839277 0.0006448126 0.062326945 -0.03973653 -0.044882767 -0.040051274 -0.0062907594
0.07128852 -0.00461787 -0.026677933 0.04723329 0.016353883 -0.09484874 0.024215281 -0.005904667
0.06770923 -0.029157784 -0.037062358 -0.024095207 -0.021914296 -0.088826045 0.016825862 -0.023828276
0.041562892 0.032354794 0.072837576 -0.07979592 0.042933993 -0.059822123 0.012727384 0.014806033
-0.08180247 0.008580806 0.041985653 -0.042272046 -0.038704377 0.026876885 -0.0042837337 0.05991532
-0.023582296 -0.018231573 0.05718348 -0.012846351 -0.050717063 -0.0847846 0.0056843236 0.0049883127
-0.032805577 0.017020807 0.034757502 -0.05237241 0.0068691755 -0.012552209 0.0718135 0.061542578
0.0038403638 -0.07486155 -0.030485652 0.05618926 0.012051083 -0.021811126 -0.025170192 -0.07415506
0.051188417 0.01909957 0.057411477 -0.023721203 0.02303074 0.08610139 -0.0665875 -0.07628718
0.06587307 0.08741861 0.07237298 -0.034177553 -0.09020585 -0.009520222 -0.008093957 -0.013500464

value.0.bias f4 [128]
00000000: c7d1 fa3d 9d95 69bd e641 693e f54d 8abd
00000010: 5464 4fbd 6a46 333d 76fc 483d 17ac a5bd
00000020: 5f51 da3d 51d2 853d 88c5 5d3c f8db 403e
00000030: 5914 233e a0b9 29bc dbcb 113e 5719 8ebd
00000040: 2c6b 883d df84 41bd d055 bdbd fa1b 423e
00000050: aea4 db3d a9bd a4bc 1bb6 96bd 0f80 f53c
00000060: 5247 8abd 1e77 d6bd e1a1 29bd 94b9 1e3d
00000070: 1f35 223d f0bf 263c 0a1b ba3d 8657 55bd
00000080: 8065 883b 361f 0c3e dce2 543d a59b 97bd
00000090: 216d 173e 4b8b 303e 5cae 9cbc d766 0c3e
000000a0: 5d94 303e a4ba 91bd e9c8 9ebd 1494 7b3d
000000b0: 3d23 87bd 2a30 563d f3f2 db3d f6e0 a43d
000000c0: 390d e83d 53ca 603e d551 ea3d e332 0abd
000000d0: 0066 3c3c 03ab 453d bf3b 563d 3ef6 343e
000000e0: 8f7b 0abd c0a2 503e aa1e cd3d 9745 cc3b
000000f0: 7bef 5c3d a135 87bc 8eef 523d 6cf8 503e
00000100: e100 cabc cd00 293e 6e97 d7bd ec97 78bd
00000110: b1fb 1f3e 9d98 adbd 0b4a abbd 012a 19bd
00000120: 3fcb 403e 5d3f 3bbd bbb6 333e 2622 503e
00000130: 5bd0 bd3c 231a cfbd 3f2b 3dbd 6c3a 25bd
00000140: 3310 22bc 0a5d acbd 8ddf 4c3e 73c8 0e3e
00000150: 5da5 2e3e 9e0e 733d 33fa 82bc 7498 b1bd
00000160: 8d09 3f3d a0c5 6bbc 21ae 893d f240 b8bd
00000170: d2a9 003e 6f12 253d 8ee5 6e3d 58e3 5bbc
00000180: 2a2a 09bd 7899 9cbd 5545 a63c 4c33 4c3e
00000190: aeb1 afbd 9855 ea3c e259 1d3d 019b e93d
000001a0: 1410 193e 56bf fe3d 621d 14bd 8ba7 4c3e
000001b0: e8e3 e2bc ce21 a63d 6ea9 ae3d 6ca2 56bd
000001c0: 81ee 493e 8a98 343c 603c a43d d8ff 43bd
000001d0: c2a7 88bd ee86 173e d816 b7bc 3ef1 d93d
000001e0: 6510 b3bd 85d8 d33d 93cf f63d 4071 e93c
000001f0: dbba 823d f9a8 c33c 6fab 5ebd 3aa9 b6b9
0.12247043 -0.057027448 0.22779045 -0.067531504 -0.05063279 0.043768324 0.04906889 -0.08089464
0.106600516 0.06534255 0.013535865 0.18833911 0.15925731 -0.010359198 0.14237921 -0.06938427
0.066610664 -0.047245856 -0.09244883 0.18955985 0.107247695 -0.020109968 -0.073589526 0.02996829
-0.067518845 -0.104719386 -0.041414145 0.0387512 0.03960144 0.010177597 0.090871885 -0.052085422
0.0041624904 0.13683781 0.051974162 -0.07402734 0.14787723 0.17240636 -0.01912611 0.13711105
0.17244096 -0.07115677 -0.07753164 0.061420515 -0.06598518 0.052292027 0.10739698 0.080507204
0.11330647 0.2195218 0.114413895 -0.033739936 0.011498928 0.048258793 0.052303072 0.17672059
-0.03380924 0.20374584 0.10015614 0.0062338817 0.053939324 -0.016505064 0.05149799 0.20407265
-0.024658622 0.16504212 -0.1052693 -0.06069176 0.15623356 -0.08476374 -0.08363732 -0.037393574
0.18827532 -0.045714725 0.17550175 0.20325527 0.02317064 -0.10112407 -0.04618382 -0.04033892
-0.0098915575 -0.08416183 0.20007153 0.13943653 0.17055269 0.059340112 -0.015988445 -0.08671656
0.046639968 -0.014390379 0.067226656 -0.08996762 0.12564781 0.040300783 0.05832439 -0.013420902
-0.033487476 -0.07646459 0.020296732 0.19941443 -0.085788116 0.028605267 0.038415797 0.11406518
0.1494754 0.12438838 -0.036160834 0.19985788 -0.027696565 0.081119165 0.0852841 -0.05240099
0.19719888 0.011022696 0.08019328 -0.047851413 -0.06672622 0.14797565 -0.02234976 0.106417164
-0.087433614 0.10344032 0.120513104 0.028496385 0.06383296 0.023884283 -0.05436271 -0.0003483983

value.2.weight f4 [1, 128]
00000000: 408d 373e 0e78 b33c e4d6 6c3e 97f8 2bbd
00000010: c4ef fabc 7813 b639 1b55 3dbc dbad 7abd
00000020: 10de 193e 86aa 2b3d c9f5 5cbf c8f6 193e
00000030: 0023 6a3e 4a44 adbd ccbf 4b3e 0d9b 89bd
00000040: b072 edbc 940a 6ebd 0181 26bd a8b3 043e
00000050: fc64 1c3e f9ba 19bd 713f 9c3d 6ca5 8cbc
00000060: 8a2b 103d daeb 043c 435c 2bbd e193 9bbd
00000070: b81b 313e f64c 69bd cfa0 473e aedf e1bb
00000080: 6d4b 4abd aba8 3f3e 2d70 f0be c089 9fba
00000090: 5601 233e f131 843e c3bf 17bd 17e1 f03d
000000a0: ff6e f43d 344c 3fbc 6c1b 52bd fdcb 463e
000000b0: 7982 1bbc bc8a 4a3e 43c8 2c3e 27c4 173e
000000c0: 8f6a 383e e3d4 113e a697 303e c753 87bc
000000d0: 326b 75bd 4e57 123e 3abe 2fbd 1980 4c3e
000000e0: da71 293d 0c67 023e a7d9 443e d299 9bbd
000000f0: 8cf3 f93c fe3c 35bd d5df 243e d8a0 8a3e
00000100: 7446 9fbc 618d 383e e531 c4bc 10fa 42bd
00000110: ed26 383e 04fe d2bc 5776 d83c cd97 a0bc
00000120: 8fef 373e a937 8b3d 5765 1b3e aace 043e
00000130: 131d 9bbd b6b1 fbba 01ef d6bc 940e 38bf
00000140: 8770 56bb 3814 82bc 7735 7a3e 8cf9 263e
00000150: d394 013e dcdc 2bbd fc02 8c3c eaf0 ebbd
00000160: 5d7e 83bd e620 733d e3ce 97bd 5119 fcbc
00000170: e58f 033e 960f 103e dcce 9cbc 0535 5abd
00000180: 18cc 70bc 3c76 ccbc 0351 553c 7110 323e
00000190: c8e2 babc 2ef0 5d3d fc7a 133e 8ed3 873e
000001a0: 5629 093e 7b1a 073e 9939 d7be 9c7f 503e
000001b0: a3aa 0bbd 74fa fcbe 67c7 843e 4a14 4bbe
000001c0: 1a4b 2c3e d9eb b5bc 0914 f83d 6a02 433d
000001d0: eb9a 34bd d6b3 173e c145 8c3d 7dae 2b3e
000001e0: d9c0 58bf aa71 993e 0bc9 483e 2c29 43bd
000001f0: ebd6 3d3e 46ac 64bd 7fa4 4bbd 0c63 8cbc
0.17924976 0.021907832 0.2312885 -0.04198512 -0.030631907 0.0003472825 -0.011555935 -0.061200958
0.15026116 0.04191067 -0.8631254 0.15035546 0.22864914 -0.08460291 0.19897383 -0.06719027
-0.028985351 -0.058115557 -0.04065037 0.12959158 0.15272897 -0.037531827 0.07629288 -0.017168723
0.035197772 0.008112872 -0.041836035 -0.07596565 0.1729573 -0.05695816 0.19494937 -0.00689312
-0.049388338 0.18716685 -0.46960583 -0.001217179 0.15918478 0.25819352 -0.037048113 0.117616825
0.11935233 -0.011675883 -0.051295683 0.19413753 -0.009491556 0.19779485 0.16873269 0.1482092
0.18009399 0.14241366 0.1724535 -0.01651944 -0.059916683 0.14291117 -0.042906024 0.1997074
0.041368343 0.12734622 0.19223653 -0.07597698 0.03051164 -0.04424762 0.1610101 0.2707584
-0.019442774 0.18022682 -0.023949573 -0.04760176 0.17983599 -0.02575589 0.026423616 -0.019603634
0.17962478 0.06797726 0.15175377 0.12969461 -0.07573905 -0.0019202742 -0.026237013 -0.71897244
-0.003272088 -0.015878782 0.24434458 0.16306132 0.12654428 -0.041958675 0.017091267 -0.1152056
-0.06420586 0.059357546 -0.074125074 -0.03077379 0.1284786 0.14068446 -0.019141607 -0.05327322
-0.014697097 -0.024958722 0.013019803 0.17389084 -0.022813216 0.05418413 0.14402384 0.2652859
0.13394675 0.13193695 -0.4203613 0.20361179 -0.03409828 -0.4940983 0.25933382 -0.19831958
0.16825524 -0.022207187 0.121131964 0.047609724 -0.044093054 0.14814696 0.06849242 0.16765781
-0.8466926 0.2996953 0.19607942 -0.047646686 0.18539016 -0.055828355 -0.049717423 -0.017137073
