Policy Gradient/trained_models/ppo/64_lstm_3/walker_ppo_model_old_1200.pth (torch_old, 584582 bytes, 11 tensors)

actor.0.weight f4 [256, 24]
00000000: dc81 8d3e 1f5f 653e a924 6dbe b4b0 453d
00000010: 21da cb3d 17e4 37bd cf99 02bd 8740 3f3e
00000020: a536 a1bd a478 18be 4a65 d43d 8f90 8d3c
00000030: fff5 43bc dab6 2cbd d6c8 1cbe 0e2a dd3d
00000040: eb77 1ebe 52e4 96bc e1ad 70be e676 12bd
00000050: 81ba 9cbc 39ad a23d 9e4d 54be 8382 e83d
00000060: 22fd 263e 194d 97bd 40e0 3dbe 0000 51be
00000070: 7b26 de3d d179 e1bc 56dd 4b3e ab74 41be
00000080: df47 583d 18b3 203e 05ac 933e fe38 71be
00000090: 0d6b 8e3e d1ba 363d f683 acbd b275 2c3e
000000a0: 4032 283e 7820 3e3c 570a 43be 2d9c c1bd
000000b0: a7e8 6b3d 3ba0 83bd 9099 513e b82b 413e
000000c0: e23a 353b 3f7c 0ebe 1cd8 ec3c 28eb fd3c
000000d0: 3af5 cb3c aa5f aebc b745 ce3c 0690 753e
000000e0: c086 a7be 0efa e4bd cd8b 843e 6eac 53bd
000000f0: 1416 2dbd 710b 013e dfa4 853d 46d8 00bd
00000100: 77fd 0a3e fe11 733e b3b0 d3bd 071c 1dbe
00000110: a5e5 2b3e 75c2 5f3e 7db0 63bc 9116 21be
00000120: 7b25 39be 0ee6 283e b720 84be abf5 bcbd
00000130: 5731 1bbe 9b2b b2be 28c7 c33c fced 583d
00000140: e1f6 553d d72c 183e f9bf c0bb 0d6c 9dbd
00000150: 7725 a03d ba08 023e 2261 863e 25eb a23d
00000160: b282 14bb 9f62 013d d04a 2d3e 2531 113e
00000170: bb60 273e d9a2 d23d 2ea6 cb3d 55f8 b23d
00000180: a729 ae3d 3a47 953e a5bf d13d fdf3 c9be
00000190: 4581 15be 00d8 d7be f468 1c3e 08b7 93be
000001a0: 68b3 0dbd acf9 4b3e c311 833e 5fb9 82bd
000001b0: dd74 13be 6c1e 2cbe 4d89 dc3b e726 313d
000001c0: a682 ddbd 336e a73c bdac 1fbe 19f3 eabd
000001d0: d7f4 cebd db1c 26be 538b 153e 5d64 fabd
000001e0: 5bf9 c5bd 8093 643d 609d a4be 64cc c4bd
000001f0: 4153 693d d621 d9be 5786 a23d 3121 8f3e
00000200: 7df0 bdbd f12c 7a3b 1b03 9b3d 041b 42bd
00000210: 5f23 4e3e ef05 5c3e 5997 98bd 99ed 4fbd
00000220: 77f4 b0bd 0095 903d ed9e 003d 8ed3 1bbe
00000230: bae2 c4bd 1f8d 343e b9aa b43d 43c5 fb3c
00000240: a7db 1b3e 04fd 753e 40bf fd3d eff2 1bbe
00000250: 90e0 7cbc 10e1 b9be 3c45 193e 4003 2d3d
00000260: e7d0 18bd ce38 3d3e 0d35 b13e c300 23be
00000270: 5195 563e d00d 153e 2f3d 0b3d 0a04 c1bd
00000280: 2be9 343d ffe3 15be 3710 ff3d b6bc ddbd
00000290: 3295 d5bd e56c 95bd 6a69 103e 604e eebd
000002a0: a10f ebbc c742 933e 3a15 95bd bd83 ddbd
000002b0: 6dbb b8bd 4ae3 483e e32d b2bd da17 be3d
000002c0: de83 5ebd e286 5ebe 3679 94bd f86a 7dbe
000002d0: 984d 44bd 1647 06be 37e4 59be b1fc 0a3e
000002e0: 73c2 3abe c327 07be a83a 92bd 8650 1c3d
000002f0: d172 46be 3a3a d3bd 833e e83d e6a3 243e
00000300: fecc dcbc 2fda 813b 7d6e 0fbe c67d 7ebe
00000310: ef66 5d3d 1ffb 26be 65a8 30be 1ad1 2f3e
00000320: c644 613e 4d5b 483d 84d7 2b3f 0b0c a7bd
00000330: e7e0 bbbd 68eb 92bc 107f 93bd 0693 c13c
00000340: 2e12 28bc 40e8 103c bba1 eb3d f151 11be
00000350: 200f 47be af09 1c3e 376a 2a3b ea4e f1bd
00000360: 56bc 69be cd10 dcbd 5e9a f4bd 253a 913d
00000370: 8b26 5bbe cfe4 453e a904 a33e 33f0 76bc
00000380: 8318 d9bc 6a12 09be 5d4d 7e3e d694 a63e
00000390: 7f8b 25bd 5867 ae3e ffe5 0fbe 41cd 2ebe
000003a0: d613 b03d f431 fcbd 1a5b fa3c 80ec 90bc
000003b0: e209 5abd 4ab2 47be 5cad 9ebc 5d52 13bd
000003c0: 2b6b 183e 747e 783e 247b 0fbe 1355 10be
000003d0: 99d3 fabc 99fa d5be bb84 ba3d cfc4 7d3c
000003e0: a3a6 b2be edf8 35bd 159e 23be 3a0f ba3d
000003f0: a199 cb3d de98 0a3e 7ab8 d2bd 407a 623d
0.27638137 0.22399567 -0.23158516 0.04826422 0.09953714 -0.044895258 -0.031884965 0.18676959
-0.07871751 -0.14889771 0.10370882 0.017280845 -0.0119605055 -0.04216657 -0.15310988 0.10799037
-0.15475433 -0.018419418 -0.2350383 -0.03575792 -0.0191319 0.07943196 -0.20732734 0.11353018
0.163075 -0.07387752 -0.18542576 -0.20410156 0.10847183 -0.027523907 0.19908652 -0.18892162
0.052802917 0.15693319 0.28842178 -0.23556897 0.27816048 0.044611756 -0.08423607 0.16841772
0.16425419 0.011604421 -0.19046913 -0.09453616 0.05759492 -0.06427046 0.20468736 0.18864334
0.0027653505 -0.13914584 0.028911643 0.03099592 0.024897207 -0.02128585 0.025179727 0.23980722
-0.32719994 -0.11180507 0.2588791 -0.051678114 -0.042257383 0.12602021 0.06525587 -0.031456254
0.13573252 0.23737332 -0.10336437 -0.15342723 0.16786821 0.21851523 -0.013897059 -0.15731265
-0.18080704 0.16494009 -0.2580621 -0.09226545 -0.1515554 -0.34798893 0.023898676 0.052961335
0.052237395 0.14860855 -0.00588226 -0.07686625 0.07819646 0.12698641 0.2624598 0.079550065
-0.0022660908 0.031588193 0.1692307 0.14178903 0.16345493 0.10284967 0.09943806 0.08738772
0.08504038 0.29155904 0.102416314 -0.3944396 -0.14600094 -0.42156982 0.15274411 -0.2885058
-0.034594923 0.19919461 0.2559949 -0.06383013 -0.14400049 -0.1680848 0.0067302347 0.04324999
-0.10815935 0.02043829 -0.15593238 -0.114721484 -0.10105293 -0.16221945 0.14603929 -0.12226174
-0.096667014 0.05580473 -0.32151318 -0.09609297 0.056964163 -0.42408627 0.079357795 0.2795501
-0.09274385 0.003817376 0.07568952 -0.047389045 0.2013068 0.21486638 -0.07450742 -0.0507637
-0.08640378 0.070596695 0.031401563 -0.1521742 -0.09613557 0.17631958 0.08821625 0.03073371
0.1522051 0.24022299 0.12389994 -0.1522939 -0.015434399 -0.36304522 0.14967817 0.042239428
-0.0373086 0.184787 0.34610787 -0.1591826 0.20955397 0.1455605 0.033993896 -0.094245985
0.04416768 -0.14637755 0.124542646 -0.108270094 -0.104288474 -0.072961606 0.14102712 -0.116360426
-0.028693976 0.28761885 -0.07279439 -0.10816143 -0.09020124 0.19617954 -0.087001584 0.09281893
-0.054324977 -0.21731141 -0.07249682 -0.24747837 -0.04792556 -0.13113055 -0.21278463 0.13572957
-0.18238239 -0.13198762 -0.07140094 0.03816273 -0.19379736 -0.1031384 0.11340048 0.16078147
-0.026953217 0.003962777 -0.14006992 -0.24852666 0.054053243 -0.16306733 -0.17251737 0.1716961
0.21998891 0.048915196 0.67125726 -0.08156594 -0.09173756 -0.017934516 -0.072019696 0.023629677
-0.010258241 0.008844435 0.11505457 -0.14191414 -0.19439363 0.15238069 0.002600325 -0.1178263
-0.2282575 -0.10745392 -0.11943506 0.07091168 -0.21401422 0.19325565 0.31839493 -0.015071916
-0.026500946 -0.1338593 0.24834199 0.32535428 -0.040416237 0.3406322 -0.1405258 -0.17070486
0.085975334 -0.12314215 0.030561019 -0.017690897 -0.05323208 -0.19501606 -0.019369774 -0.03596722
0.14884631 0.24266988 -0.14011818 -0.14094953 -0.030618476 -0.41792753 0.091073476 0.015488817
-0.3489276 -0.044426847 -0.15978272 0.090849355 0.09941412 0.13534877 -0.10289092 0.055292368

actor.0.bias f4 [256]
00000000: e9e9 60bc 36a6 dd3d 46cd 4abe 2873 2ebe
00000010: e85c 813d 5166 b33c d981 073e a21b b73d
00000020: 8507 28be 4809 b1bd 9aac 0b3d 1b32 a83c
00000030: 984f c43c bd9b 483e b3b0 693d 084e 0fbe
00000040: e1a8 e2bd 27fb 61bc f6ca 9a3d 0d96 86bd
00000050: e524 c53c f8d2 15be adf5 3d3e 465d 90bd
00000060: 8038 22bd dbf8 53be d821 803d 95e6 1c3e
00000070: fd1a 2e3e 8f43 72bd 6e44 133d 7122 223e
00000080: 37e8 753d bf87 28be d59d c2ba 1c88 acbc
00000090: de70 c53d a1e5 293d f405 3c3e 0dc9 ebbd
000000a0: 3c89 0d3e f025 55be 95ce 44bd 697f db3d
000000b0: 1fb3 383d facf 5bbd 5aca af3d 9641 25bd
000000c0: 6e45 8f3b 1d53 1e3d d95e edbd e7ad 37be
000000d0: ebb0 153e 604b ab3d fc6a 283e 54e2 723c
000000e0: 8795 4cbd 943c 58bc 4746 523e 0f17 e53d
000000f0: dc76 313d 9bbe ba3d 95fa cdbc 4cc8 4ebe
00000100: 7e13 003e 8ce1 21be 1438 47bd aaa8 133e
00000110: e305 16bd 9f90 c23c a6f1 10be 6520 9a3d
00000120: 3bed d3bd be2e 1fbd 69cc f23d bfe5 753c
00000130: 70c4 92bd 273a adbd 87ff e2bd e9e4 a2bd
00000140: fb59 2fbd 65a0 85bd 5980 5ebc a81b 353e
00000150: a949 29bd 73b5 123e ae0d 2c3e 58fb b6b9
00000160: e7f8 483d 6696 a03d 2705 7fbd 64bd 373e
00000170: 5f95 03be 4725 5cbe a982 4a3e df6b 21be
00000180: 47d4 efbb 2c97 02be 27ca 50bd 1774 ecbd
00000190: b0e6 5f3e 9e08 fe3c a930 1c3e 4ce0 30be
000001a0: c9bf 093d 5ad3 42be 1a2a fabd 8488 a6bd
000001b0: cc54 bcbd a135 193e 2cb6 ddbd 4682 32bd
000001c0: f294 9bbc 0efe 2bbc d360 83bd cf4c 4db9
000001d0: 0f12 a23d c984 343e 1a9b 8d3d 4966 083d
000001e0: be12 d5bd ae4a 9bbd 5117 853c 3fc4 04be
000001f0: 1c48 433c 871f 6abd 7c0b ce3c a690 273e
00000200: 7978 873b 7184 b23d ac3c d8bd 2f1f 943c
00000210: f297 03be f270 07bc 60bf 18bd 80aa 393d
00000220: f391 38be 916a 0fbe 6a6b bcbd c955 74bc
00000230: 3411 2dbe 32e2 2cbe 1eb2 51bc e944 5bbe
00000240: 8617 35bd bcf8 023e 43d8 3c3e f6a5 dfbd
00000250: 5473 6bbd 5fcd d33d 960c c3bd 5c10 413e
00000260: 9b99 e63d 29e5 c93d cc9c a03c 0d89 403e
00000270: a73d 8bbd 1642 473c 6d8d 12be e06b 19bc
00000280: b106 b83d 8ad8 4a3e 5356 473e aef4 c3bb
00000290: ab79 96bd 5454 b9bd 2ec9 2e3e 410a ba3d
000002a0: b994 18be c56f 7c3d 4b06 033e 9250 ec3c
000002b0: dcd9 dd3d b5a4 a7bc 708d 4dbe 30e4 573d
000002c0: da6a 3f3e c6fc f53a 34ff 103e afa9 4cbd
000002d0: af63 463e 38d9 633e 996c 1e3e b08a 5abe
000002e0: 34db 19be 5530 09be 5ba8 3fbe 03be 023c
000002f0: 5cd6 ad3d 34d1 37be 3817 c5bd dbc3 07be
00000300: 448a 133e de19 e6bd 7f51 13be 1c7e 233d
00000310: 9d54 9f3d 8fb7 50be 57d0 223e 10ca 19bd
00000320: 8b6e 073e 092d 333e ca17 293e a753 2abe
00000330: 8b50 6bbd eb6a 903d 6415 cd3c 646e 39be
00000340: a050 9b3d 402b 98bc cf2d 12bd 1f89 1abc
00000350: dcb4 30be 4e80 953d aeb6 943b ad78 393e
00000360: fbde 093e 30c3 4f3d a1f1 44bd 9ce2 a2bc
00000370: 3b57 7e3d 7fe9 f83d 3ef2 313e c3e0 42be
00000380: ffb9 c63d b6b0 8a3c a293 8d3d 9ade 49bd
00000390: b4c6 7cbd 6a0b f73c 9575 acbd 679b 423e
000003a0: 9eea babd 7c11 373e 2bf2 8c3d 23db 5bbe
000003b0: 805c e5bd 1e0e 983d 481d eabd d1e6 9c3d
000003c0: c420 4c3e 0c69 fc3d 97f1 6139 d74e a4bd
000003d0: c8fe 4dbd 55d2 3e3d b8c8 3dbd 3b48 603d
000003e0: 3ede 09bd 0bad 1f3e 8c6b 573e 575f 543e
000003f0: 8513 b13d c730 c3bd cb58 07be 6e5e 51be
-0.0137276435 0.10822718 -0.19804868 -0.17036116 0.063165486 0.021899374 0.13233127 0.089408174
-0.16409118 -0.086443484 0.034100153 0.020531705 0.023963735 0.1959066 0.05705328 -0.1399461
-0.11067367 -0.01379279 0.07558243 -0.06571589 0.024065444 -0.1463126 0.18550749 -0.070490405
-0.039604664 -0.207004 0.06256455 0.15322335 0.17002483 -0.05914646 0.03595393 0.15833451
0.06003591 -0.16458033 -0.0014848063 -0.021060996 0.09640668 0.041478757 0.18361646 -0.11512957
0.13821882 -0.20815253 -0.048048574 0.10717661 0.0450927 -0.05366514 0.085835174 -0.04034575
0.0043722903 0.03865348 -0.115903564 -0.17937432 0.1461827 0.08363986 0.16447061 0.014824469
-0.049947288 -0.013198037 0.20534621 0.11186039 0.043326244 0.09118386 -0.0251439 -0.20193595
0.12507436 -0.15808696 -0.048637465 0.14419809 -0.036626708 0.023750601 -0.14154682 0.0752571
-0.103479825 -0.038862936 0.118553944 0.015008389 -0.07166374 -0.08458357 -0.11083894 -0.079538174
-0.04281042 -0.065247335 -0.013580405 0.17686331 -0.041330013 0.1432703 0.16802093 -0.0003490101
0.049065497 0.07841186 -0.062260773 0.1794334 -0.1284995 -0.21498595 0.19776405 -0.15763806
-0.0073190066 -0.1275298 -0.050974037 -0.1154558 0.21865344 0.031009968 0.15252937 -0.17273062
0.033630166 -0.19025937 -0.122150615 -0.08131507 -0.09195861 0.14961864 -0.10825762 -0.04358127
-0.018991921 -0.010497583 -0.06414952 -0.00019578937 0.07913601 0.17628779 0.06914349 0.03330067
-0.104039654 -0.075826034 0.01624647 -0.12965487 0.011919048 -0.057158973 0.02515196 0.16363773
0.0041342345 0.087166674 -0.10558447 0.018081276 -0.12850931 -0.008266674 -0.037291884 0.045328617
-0.18024425 -0.14005496 -0.09200175 -0.014913031 -0.16901094 -0.16883162 -0.012798814 -0.21413006
-0.044211887 0.12790197 0.18441872 -0.109203264 -0.057483032 0.10341906 -0.09523885 0.18853897
0.11259767 0.09858162 0.019606017 0.1880228 -0.067988686 0.012161752 -0.14311762 -0.009364098
0.08985651 0.19809166 0.19466524 -0.005980096 -0.07347425 -0.090492874 0.17068931 0.09083987
-0.14900483 0.06163003 0.1279537 0.028847013 0.10832569 -0.02046428 -0.20073485 0.05270785
0.18693104 0.0018767349 0.14159852 -0.04996651 0.19373964 0.22250831 0.15471114 -0.21341968
-0.15025026 -0.13397343 -0.18716566 0.007979873 0.084881514 -0.17950898 -0.09623569 -0.13258307
0.14408213 -0.112354025 -0.14386557 0.03991519 0.077798106 -0.20382522 0.15899788 -0.037546217
0.13225763 0.17497648 0.16512981 -0.16633473 -0.05744986 0.07051643 0.025034614 -0.18108517
0.075837374 -0.01857531 -0.035688218 -0.009432106 -0.17256492 0.07299863 0.0045383787 0.1811244
0.13463967 0.050723255 -0.048081998 -0.019883446 0.06209491 0.12153911 0.17377564 -0.19031052
0.09703445 0.016929965 0.06912924 -0.049284555 -0.061712936 0.03015681 -0.084208645 0.19004594
-0.09126781 0.17877764 0.068821274 -0.21470313 -0.111992836 0.07424568 -0.11431366 0.07661212
0.19934374 0.123247236 0.00021547671 -0.0802285 -0.050291806 0.046587307 -0.046334 0.054756384
-0.033659212 0.15593354 0.2103712 0.20739494 0.08646301 -0.09530788 -0.13217466 -0.20446178

actor.2.weight f4 [256, 256]
00000000: 77dd c13d 32e9 a33b b3b5 59bc e7b1 513d
00000010: 978d bbbd 12b8 983d b6e0 81bc 1859 2dbd
00000020: 94d8 943d 34ff 05bd d666 25bd e6f2 483e
00000030: ded3 0fbe fffd 3abd acb8 13bd 0732 30bc
00000040: 1b8b 0e3e ffea b93c ea4d 673e 1b96 233e
00000050: 5fcd 58be f021 d03d f25f 40bc 54fc 323e
00000060: 5b36 07bc 48d6 953d 0ada 053e 278d db3d
00000070: e8eb 0d3c 1c6f 973d a5d3 19be fa70 c93c
00000080: 4b77 443e 42b1 0fbe 8196 4dbd 6624 523d
00000090: 2e2d 153e 79ea edba 5ad2 c5bd 4151 81be
000000a0: 8986 bf3d 1559 34be c8b0 21bd 0b79 dbbc
000000b0: 977d e23c cd0d 7dbd 598c 0cbe 0591 60bd
000000c0: 4d0f cb3d e05e a6bc 0199 5cbe fc24 853e
000000d0: 1739 2c3a 0c1f 19bc 19eb 813d 3449 00bd
000000e0: 3d44 713d c526 0fbe 78ac 883c db93 433e
000000f0: 0b56 003c be65 fabd f761 b7ba a2b3 a43d
00000100: 6355 9f3c f9c6 3cbd 1583 5e3d 7a83 b53b
00000110: 2122 c73d 3e07 bcbc 2d0d b53d 71a6 64bc
00000120: 95f6 00bd 3e08 18bd 0e79 5c3d 5d67 6bbd
00000130: b3be 16bc 5997 fdbd 7d1f 02bd 5cd0 b93d
00000140: 2c4f 603e 515a 27bc c319 e23d fb22 83bb
00000150: c34f 6b3d 6928 f13c 7beb 2f3d 6ec1 97bc
00000160: 473e babd 8c30 e23c b3a5 663e 94c5 7f3d
00000170: fb6d 0b3e ba3d 53bd b4f6 023e a1f4 1c3d
00000180: a20e b9bd ce69 1cbe 3287 843d 2ff2 523b
00000190: 582a 91bd 404a 133d 3180 783d d554 133e
000001a0: fe5b dcbc f9da 50bd 81dd 14be c548 1fbe
000001b0: cd38 c33c e032 28bd 2b35 9b3c d81b 5f3c
000001c0: f422 8cbd ea0a abbc 6fdd 253e 01bf 4cbe
000001d0: 30d8 2d3e 6b4c c13b 9ae5 75be ec01 d33d
000001e0: 3b17 2cbd 8c61 0e3e 2ae9 30be 8247 13bd
000001f0: 3d3d 113e b6ae d73d 9219 083e ebdd 183d
00000200: 1c88 0a3d a8ea a03b 5c40 053d b47c b4bd
00000210: 3453 93bc dff3 2c3e 0992 aabb eb46 cebd
00000220: db01 323d 7a42 263e f2a3 463d 0586 75be
00000230: 0fab e8bd c190 663c 0f5a 85bd ebdf a2bc
00000240: 06c8 3b3e d9b3 ce3d b562 81be 7d12 e93d
00000250: 83c9 fc3d 76c3 883d 35dc ae3d 6628 183d
00000260: d9e6 c7bd 51bc 59bd 4f6d 153c bf3e cb3c
00000270: 15f2 c63d 3c82 e4bc c88f b73c 0429 56be
00000280: 8399 d73d e55a 11bd b85e a63b 2ce5 aabe
00000290: 8386 6c3c c8d3 c83d ce9b 96bd 5110 1abd
000002a0: 0145 6a3d c9c4 84bd 19d7 283c 4562 043d
000002b0: e61d bebd 08d7 25bd 7e64 343e 02b4 2cbe
000002c0: b7ae c73d ea3d 8a3e e9bb 743d 6447 c8bc
000002d0: 9ddd 853d 1b09 cc3d c8fc 8cbe a99a 10be
000002e0: 981d 4abc e414 ee3c 9dd5 193e 250b 0e3d
000002f0: 2940 02be f316 08be faee dfba e9da c03c
00000300: df8c a53e 1d65 5c3e b27c e2bb abd0 99bd
00000310: f408 09bc 7d75 cabc efb1 103e 7986 603e
00000320: 9d67 893d bba8 07bd 5a8c 93bc 37f9 25bd
00000330: 32df c1bd 4e39 a5bd 196a 763c 46b3 463e
00000340: d94b c1bc b24d 90bc 43f5 42be 8baa 483e
00000350: 975d 673e ae9b 4c3e 1e9d 3cbc ee82 59bd
00000360: 4827 f1bb a26a 723d 6620 86bc 1701 54bb
00000370: 3b74 f03d a979 71bd c3d5 9c3d ee60 c43d
00000380: 34fc b83d a9d1 b93d f696 debc 4b25 9cbd
00000390: 0967 f0bc 7d04 a6bd bbdc 44be cee3 b4bd
000003a0: a3c4 48bd a71b 80bd ca05 963d 9b9c ad3d
000003b0: 76a9 9c3d 9650 a03c 6f39 053e 6d18 87bd
000003c0: c446 7dbd 1450 32be ee6e 07be e3b1 7e3b
000003d0: 6706 33be 6bd3 ff3d f696 013e 7a27 ef3c
000003e0: 640c dd3d 6c9c 043c a18e b63d 83bc 86bc
000003f0: 8209 513d 3b3f 3bbc 6ceb 4bbc d87c 9cbd
0.09466069 0.0050021643 -0.013287949 0.05119505 -0.091578655 0.074569836 -0.01585422 -0.042321295
0.072678715 -0.032714084 -0.040381275 0.19623908 -0.14045665 -0.045652386 -0.03606479 -0.010754115
0.13920252 0.022695063 0.22588316 0.1597523 -0.21172093 0.10162723 -0.011741625 0.17479068
-0.008252705 0.073162615 0.13071457 0.10720282 0.008662201 0.07394239 -0.15022142 0.024590004
0.19186132 -0.14032462 -0.05019236 0.051304244 0.14568016 -0.0018151543 -0.09659262 -0.25257304
0.093518324 -0.17612107 -0.039475232 -0.026791116 0.027647777 -0.06178074 -0.13725413 -0.0548258
0.09915028 -0.020308912 -0.21542741 0.2600478 0.00065697863 -0.009345781 0.063436694 -0.031319812
0.058902968 -0.13979633 0.016683802 0.19099371 0.007833014 -0.12226437 -0.0013990988 0.08042075
0.019449895 -0.046088193 0.05432423 0.005539355 0.097233064 -0.022952672 0.08840404 -0.013955698
-0.03148516 -0.037117235 0.053826384 -0.05747162 -0.00920074 -0.12382383 -0.03176831 0.090729445
0.21905202 -0.010214404 0.1104007 -0.0040019727 0.057449114 0.029438214 0.04294918 -0.018524852
-0.0909391 0.02761104 0.22524147 0.062444285 0.13616173 -0.05157254 0.12789422 0.038319234
-0.09035994 -0.15274736 0.06471099 0.003218781 -0.070881546 0.035959482 0.060669128 0.1438783
-0.026899334 -0.05099008 -0.14537622 -0.15555103 0.023830796 -0.041064143 0.01894625 0.013617478
-0.06842604 -0.020879228 0.16197751 -0.19994737 0.16977 0.0058990023 -0.24013367 0.10303101
-0.04201434 0.13904399 -0.17276445 -0.035956867 0.14183517 0.1053137 0.13291004 0.037321012
0.03382121 0.0049107857 0.03253208 -0.08812848 -0.01798401 0.16889904 -0.005205397 -0.1007212
0.0434588 0.16236296 0.048496194 -0.23976906 -0.11360752 0.014072598 -0.06511318 -0.019882163
0.18338022 0.10092897 -0.2527062 0.113804795 0.12343123 0.06677906 0.08538095 0.037147902
-0.097608276 -0.05315811 0.0091202995 0.024810193 0.09714142 -0.027894132 0.022407427 -0.20914084
0.10527327 -0.035487074 0.0050772093 -0.3337797 0.014436367 0.09806019 -0.07353936 -0.037613217
0.057194714 -0.06482846 0.0103051895 0.03232028 -0.092830464 -0.040488273 0.1761646 -0.16865543
0.09750121 0.27000362 0.059749518 -0.024448104 0.0653641 0.09962674 -0.27536607 -0.14121498
-0.012336157 0.029062696 0.15022893 0.034678597 -0.12719788 -0.13290004 -0.001708477 0.023541884
0.3233404 0.21522947 -0.0069118375 -0.075105034 -0.008363951 -0.024714226 0.14130376 0.21926297
0.06709216 -0.0331199 -0.01801126 -0.040520873 -0.09466399 -0.080675706 0.015039944 0.19404325
-0.023595737 -0.017615173 -0.19038872 0.19596307 0.22594295 0.19981262 -0.011512069 -0.05310338
-0.007359419 0.059183724 -0.01637287 -0.0032349282 0.11740919 -0.058953915 0.07657959 0.095888
0.09032479 0.090731926 -0.027171593 -0.076243006 -0.029346006 -0.08106325 -0.19224827 -0.08832513
-0.049015652 -0.06255274 0.07325323 0.08477136 0.076495096 0.019569676 0.1301019 -0.06596456
-0.061835065 -0.1741336 -0.1322591 0.0038863353 -0.17482911 0.12491497 0.12655243 0.029193629
0.10793379 0.0080939345 0.08913923 -0.016447311 0.051034458 -0.01142865 -0.012446266 -0.076409996

actor.2.bias f4 [256]
00000000: 9c72 86bd aa9b 2dbd 27fd e73d ea84 d73c
00000010: f38f 913b e9c7 13bd 4ac3 933d db83 ecbd
00000020: 631d 073d e294 633c 0612 83bd 28d4 ffbd
00000030: abf2 b83c d50e c0bd 9f20 63bb b8f4 1dbd
00000040: 1b1b b0bc e398 e5bc 4887 0fbd 3300 843c
00000050: 0b63 c3bc 2541 10bd 5099 333d 3bd0 123d
00000060: 24aa 97bd 1074 24bd d5a4 6b3d 89f6 83bc
00000070: 8ed1 97bd 594a 86bd b570 1a3d 982f 573d
00000080: 6610 9c3c bf2a 87bd a4fe 083c 7278 b23c
00000090: 2c0e 8f39 c70a 3cbd 3cab 0a3c 25fc 633c
000000a0: d1ba 25bd e3e3 473d 7581 b83b 3d99 7bbd
000000b0: 6555 703d 0abc 50bd d15d 4f3d b40b 173e
000000c0: 4a4f e1bd aac2 a63b 1c99 883c 1dd1 73bd
000000d0: ce68 c1bd 36bc d3bd a957 80bc 37d9 9ebb
000000e0: 9937 b2bb c2ec 843d 15b4 c7bc 19a8 8b3d
000000f0: 0478 ddbb 0c0b 883d be78 573d b189 353d
00000100: 9d14 e23c 929b 5f3d ed0b 953d b793 843d
00000110: 2e15 473c c675 86bd a3f9 963d 7f71 573d
00000120: d00a 013d 9990 5c3d 7c1d 72bd 7807 65bc
00000130: daea dd3d 3ee7 9dbd ab81 e73d 8be4 a73c
00000140: 40f8 42bd ce52 063c ab6b 4c3c 516d d6bb
00000150: 2b2f 17bd 794d 893d 7851 8fba d8bf a43c
00000160: 5aab 8e3a b2e8 0e3d c57d d33c 4200 723d
00000170: 3e74 05bc 22de f3bc a0aa 1b3d b788 2c3d
00000180: 221a 4ebd 9138 8bbd f92b 95bc f111 3b3c
00000190: 8bf5 ddbd a50a 083c 2a9a 8dbc cc54 09bd
000001a0: 9be6 bd3d abff bc3d 72a2 ee3c 6d6e 86bd
000001b0: aaa7 5a3d 9f0b 5e3d 93ac a03c e16d 243c
000001c0: f126 353b 20d8 0abc ef31 c5bb 11fb acbb
000001d0: 8d2f b13d cb7a bebd 9ed8 103d 30fc 45bd
000001e0: 9e93 443b 91bc 6ebd b3ea 2abd 204c b53d
000001f0: cfe6 4bbd 058d dabd 3d54 14bd 69e6 e03c
00000200: db20 183d a590 60bc 4120 413c 734d b33c
00000210: ca5a e43c 58f3 d4bb 76d2 5cbd 0f16 513c
00000220: 8017 933d 0ff7 9a3d 2570 44bd a8b2 eebc
00000230: f758 853c a290 e93c a686 d8bd eff8 173d
00000240: 4733 073d f84c 4dbc c6dd f03d b3e6 953d
00000250: ac21 b0bd 3453 74bc a47b 47bd d6c3 1abc
00000260: a8ed 7dbd 9d85 963c e64b 69bc fefb b73c
00000270: 1f6a b63d 177e 233c f5aa 4ebd 4c00 b93d
00000280: cf0d 8339 0d9e 24bd 1041 3cbd 2ad7 ca3d
00000290: e6f6 213b 9bab 8e3c eb4a ee3b 0376 58bd
000002a0: 4de4 81bb 178f 0a3d 2843 f7bc 6724 c1bb
000002b0: 7304 d2bc 679d 023c 92b2 1a3d f6d9 20bd
000002c0: 9378 393d 8db5 30bd e028 d63c 285d 2a3c
000002d0: e6e1 1c3c ebcc 1bbc bec9 353b 33a9 06be
000002e0: eb3c f0bc 6db7 023d bc7a 43bd 005d 6cbc
000002f0: b97f 3f3c 1b2b c43b 90b3 ddbc 5446 073e
00000300: f622 233b df31 113d 174c a33b 1739 e2ba
00000310: 79c6 d63b d250 d5bc 4d8c 02bd af1d 453b
00000320: 053b 053d d281 273d 3d7f c63b a7f7 193e
00000330: 72c8 343d 2da3 1e3d bcf1 3f3d 0bc8 79bd
00000340: a08d 14bc 895b 253e e961 b53c 7cbf 4b3d
00000350: 93da 20bd 21b7 db3c a9b1 863c c987 1e3c
00000360: 57e1 4d3b edbd cdbc b478 25bd 9baf 133d
00000370: 0fbb 293d b30e 703d 3f36 043d 8251 273d
00000380: 8fbe 223d 5b28 173a 70eb 34bd a1ae afbd
00000390: 1ec7 093d 2e11 a6bc 2fca 913c 1988 0abe
000003a0: 9cf4 abbc 20f9 113e f12a be3b 8a8f 4b3d
000003b0: d8cd eebd 05b3 f6bc 83f8 563d c8f1 5bbd
000003c0: aeeb c13d dd38 9f3d 3219 e7bc f36b 963d
000003d0: 8ea5 d73c cadb 2ebc eb72 88bc bbca f0bc
000003e0: ac96 ccbb d949 3b3c 461d ffbc d564 0a3e
000003f0: c69f f73c a3d9 2a3c dfbf 0b3b 1467 07bd
-0.06564829 -0.04238478 0.11327582 0.026308496 0.004442209 -0.03607932 0.07214983 -0.11548587
0.03298701 0.013890477 -0.06399922 -0.124916375 0.02257665 -0.09377829 -0.0034656895 -0.03856346
-0.0214973 -0.028027004 -0.035041124 0.016113376 -0.023850938 -0.035218377 0.043847382 0.035843115
-0.074054986 -0.04014975 0.057530243 -0.016108768 -0.07413016 -0.065571494 0.037705142 0.052535623
0.019050788 -0.0659995 0.008361492 0.021785948 0.00027285644 -0.045908716 0.008463677 0.013915096
-0.040461365 0.048801314 0.005630667 -0.061425436 0.05867519 -0.050960578 0.05062658 0.14750558
-0.11001451 0.0050891237 0.01667457 -0.059525598 -0.09443818 -0.10338633 -0.0156668 -0.0048476714
-0.0054387567 0.064904705 -0.024377862 0.068191715 -0.0067586917 0.06642732 0.052605383 0.044320766
0.02759772 0.054591723 0.07277665 0.06473487 0.012151046 -0.06565432 0.07371833 0.052598473
0.031504452 0.053848837 -0.05911015 -0.0139788315 0.1083581 -0.077101216 0.11304029 0.02049472
-0.04760003 0.008198453 0.012476842 -0.0065437932 -0.036910217 0.0670423 -0.0010934314 0.02011101
0.0010884807 0.034889884 0.025816808 0.059082277 -0.00814539 -0.029769007 0.038004518 0.04212257
-0.05031789 -0.067978986 -0.018209444 0.011417852 -0.10837849 0.008303319 -0.017285425 -0.033528134
0.092725 0.09228452 0.029130194 -0.06564031 0.053382553 0.0542103 0.01961354 0.010035963
0.002764162 -0.00847438 -0.0060179154 -0.005278953 0.08651648 -0.09300765 0.035362832 -0.048336208
0.0029995213 -0.0582853 -0.041727733 0.0885241 -0.049780663 -0.106714286 -0.03621315 0.027453618
0.03714071 -0.013706361 0.011787475 0.021887517 0.027875323 -0.0064987354 -0.05391165 0.012761607
0.07182217 0.07566654 -0.04795851 -0.029137924 0.016277773 0.02851135 -0.10572557 0.037102636
0.033007886 -0.012530558 0.1176105 0.07319393 -0.086001724 -0.014912415 -0.048701897 -0.009446105
-0.061994225 0.018374259 -0.014239287 0.022459026 0.0890696 0.009978793 -0.050456006 0.0903326
0.00024996555 -0.04018979 -0.045960486 0.099043205 0.0024713813 0.017415812 0.0072721145 -0.05284692
-0.003963983 0.033827867 -0.03018339 -0.005894232 -0.025636887 0.007972098 0.037767954 -0.039270364
0.045281004 -0.04314189 0.026142538 0.010398187 0.009575343 -0.0095093055 0.0027738656 -0.13150482
-0.029325923 0.03191321 -0.04772447 -0.01442647 0.011688166 0.005986584 -0.027063161 0.13210422
0.0024892665 0.03544795 0.004983436 -0.0017259446 0.0065544215 -0.026039515 -0.031872083 0.0030077507
0.03252699 0.04089529 0.0060576485 0.15035878 0.044136472 0.038729835 0.046861395 -0.06098179
-0.009066969 0.16148199 0.022141414 0.04974316 -0.03927095 0.026820721 0.016442137 0.009675928
0.003141483 -0.025114978 -0.040398315 0.036056142 0.04143816 0.05860777 0.032278296 0.040849216
0.039732512 0.00057662063 -0.044169843 -0.0857823 0.03363716 -0.020271864 0.017796604 -0.1352848
-0.020990662 0.1425519 0.005803459 0.049697436 -0.11660355 -0.03011466 0.052483093 -0.053697377
0.094687805 0.07774518 -0.028210256 0.073448084 0.02632406 -0.010672519 -0.01665636 -0.029393544
-0.0062435474 0.011431181 -0.031141888 0.13515027 0.030227553 0.010427865 0.002132408 -0.033057287

actor.4.weight f4 [4, 256]
00000000: bf64 14be 2e25 0c3e a5a5 443e a485 10be
00000010: 88fa 583e 8ed8 93bd d85d 96be 5dea 1b3e
00000020: 9922 1cbe d53d 13be 9556 db3d d743 a4be
00000030: d90b f63d 5a0e a8be 59b9 bc3e 116e 6dbe
00000040: 3271 11bd 9eb7 f33d 7216 563d a0f5 7a3c
00000050: 100b 40bd 46f9 323e 309e cb3e 87df 40be
00000060: e526 773e b4b7 c0bd 3282 433d e5e0 19be
00000070: 8066 673e 575b 173d efa0 55bb ea34 9f3d
00000080: a7bd 5dbd 92a3 493d d641 ed3d 306e 1cbe
00000090: 6c65 a4be 468f 3bbe 6322 7fbc cff3 333e
000000a0: 802a b0bd 2ea6 063e f6e1 01bd 443b 59bd
000000b0: 9b93 d63d b347 3bbe d87d 5d3e fe5d 6e3e
000000c0: f3b2 4ebe ae15 a13d 10f1 10be 9cb2 e5bd
000000d0: 8197 85be 139c a13c 84dd 103d 5ac1 eb3d
000000e0: 66cb a5bd 5492 883d 0516 663e d56f 21be
000000f0: fbb4 ac3d 738f 013e 11d1 793d 69fb c53d
00000100: c529 31bc c461 d1bc 1611 1dbe fc2e 5b3e
00000110: e276 5e3e 9b4d 05bd d2d7 7bbc 0105 d1bd
00000120: 1313 0bbd e008 2abe 9cf0 073e 9ea7 423d
00000130: 373a f1bd 1319 61bd 59d4 72be 7d04 9a3d
00000140: 0b86 d03b 7914 9fbd ccb2 7a3e 40da b23e
00000150: c69a 513d dcb6 ae3e 2293 13be 393e 853e
00000160: c451 6dbd 9dd1 88be c478 7dbd 82d2 9b3e
00000170: 0e83 cf3d 6abe 5cbd 62f0 333d 9817 d73d
00000180: 44f5 1a3e 5f17 39be fd17 e1bc 4085 cd3d
00000190: 31ab b2bd 2680 75be d986 033e 521c b1be
000001a0: 762e 663d 2a10 55be 9505 41be d6f9 c53e
000001b0: 68ab d2bd 010f 0fbe b77c bdbd e501 5a3d
000001c0: 5465 c0be fa2f c03e 4676 463c 2095 c4bc
000001d0: 8ddb 543e 0bce a03d 3475 0c3e 1e5e b23e
000001e0: 8e81 963e f952 68be e805 bcbc 15af a4bd
000001f0: 736b 393e d9cd 9e3d 92ab 77bd f8f9 893e
00000200: c555 21b9 a0b2 f93c 5286 54be 5e4b 18be
00000210: d56c 9abd 37ad 963e 204b 7dbe 18d1 fd3d
00000220: 463f 6ebc 15de 823e ca52 9bbe f227 ae3d
00000230: 58b6 1b3e 1d19 45be e79c 803e 93b2 e83d
00000240: c40e dbbd 9989 893e 013c 0f3e 96c1 9d3d
00000250: 1885 44be c15b 183e cf57 63be 3f6f 2a3e
00000260: 72a5 78bd a86c 63bd 457c 8e3e aa42 a1bd
00000270: 8376 033e 5de6 2f3e 6c3c 16be 9c5e 8b3e
00000280: 4cb2 963e 0d0e 9dbd d958 3d3d 93bd 603e
00000290: 964d f33d cacd 443e d88c 12bd 34c3 683d
000002a0: 29b1 b33e a37d 15be d441 b4be 41d2 8abc
000002b0: e596 7d3e 6cf1 a4bd e0b2 32be 4623 683e
000002c0: 786c 853d 0381 cfbd 5311 733e 35b2 f3bd
000002d0: 5411 ae3e 0bf8 3d3d e9f6 90be c59d 93be
000002e0: 8561 8e3e 6048 41be 8b92 1abe 31cb a63c
000002f0: 9d71 13be 39c9 203e 0970 80be 0627 a9bd
00000300: 2527 c13d da1d 91be d818 d53c 2fc6 25be
00000310: b39e af3e 86e4 8d3e fa02 52be ced6 573e
00000320: 677d fb3b 5918 5e3e 717f ab3d 33a1 d33d
00000330: 4f59 22be b339 373c 56cd 493c b525 1abc
00000340: 6daf 8e3e 3547 b5be 5f7f 663e a5d0 1fbe
00000350: 9335 76be 833a 7abd 69e9 563e 98ce 3b3d
00000360: 1323 07be 6287 a3be 2540 6fbe 2329 143d
00000370: bf5d 00bc 150f f03d 1c45 dbbd 2f25 243e
00000380: 2f60 f7bd bcef 1c3e c044 ee3d 8bb4 cebe
00000390: ed20 bfbe 1732 853d 7a7e ce3b 4383 0c3c
000003a0: 5b75 8dbe eee7 163e 922c d63d 3c12 37bd
000003b0: cafc 3e3e a58c 013d 3d56 933e 16df 83be
000003c0: fd17 7dbe b2ad 1cbe c70f aabe e4d1 b8bd
000003d0: 9b2d 1abc 7841 493d 4e76 31be 0748 1cbe
000003e0: b32f 5e3e 8cae fc3d b2d8 7c3d d9fa 153e
000003f0: 887b b3be b925 03bd 264d 183d 9bc0 a7bd
-0.14491557 0.13686058 0.19203813 -0.1411348 0.2118932 -0.07219039 -0.29368472 0.15226121
-0.15247573 -0.14379056 0.107098736 -0.32083008 0.120139785 -0.3282345 0.3686016 -0.23186518
-0.035508342 0.119002566 0.0522675 0.015317351 -0.04688555 0.17477903 0.39769125 -0.18835269
0.24135931 -0.094100386 0.047731586 -0.15027197 0.22597694 0.036952343 -0.0032597145 0.077737644
-0.054135945 0.04922826 0.11584823 -0.15276408 -0.3210863 -0.18316373 -0.015572163 0.17573474
-0.08601856 0.1314933 -0.031709634 -0.053035036 0.10477372 -0.1828907 0.21630037 0.23278043
-0.20185451 0.07865463 -0.14154458 -0.11215708 -0.2609215 0.019727742 0.035367504 0.11511488
-0.08095436 0.06668535 0.22469337 -0.15765317 0.08432957 0.12652378 0.060990397 0.09667093
-0.010813181 -0.025559314 -0.15338549 0.21404642 0.21725038 -0.032544713 -0.01537128 -0.102060325
-0.033953737 -0.16604948 0.13275379 0.047523133 -0.11778682 -0.054955553 -0.23713817 0.07520387
0.0063636354 -0.07767577 0.24482268 0.34932137 0.051172994 0.34123886 -0.14411595 0.26024035
-0.057939306 -0.26722422 -0.06188275 0.30434042 0.101324186 -0.05389253 0.04393042 0.10502547
0.15132624 -0.18075322 -0.027477259 0.10035181 -0.087240584 -0.23974666 0.12844409 -0.3459192
0.056196652 -0.20806947 -0.18849786 0.38667172 -0.102865994 -0.13970567 -0.09252303 0.053224463
-0.37577307 0.37536603 0.0121131595 -0.02399689 0.20786877 0.078517996 0.13716584 0.3483743
0.29395717 -0.22687902 -0.022952035 -0.08041207 0.18107395 0.07754106 -0.060466357 0.26948524
-0.00015386108 0.030480683 -0.20754364 -0.148725 -0.07540289 0.29429027 -0.24735689 0.12393397
-0.014541453 0.2556006 -0.303366 0.08503713 0.15206277 -0.19247861 0.25119707 0.11362185
-0.10696176 0.2686279 0.13987733 0.07702939 -0.19191396 0.14878751 -0.22201465 0.16644
-0.060704656 -0.055523545 0.27829185 -0.07874043 0.12838177 0.1717772 -0.14671487 0.2722062
0.29432905 -0.076686956 0.04622731 0.21947317 0.11880033 0.19219127 -0.03577885 0.056826785
0.350961 -0.14598708 -0.35206473 -0.01694596 0.24764593 -0.0805386 -0.17451048 0.22669706
0.065148294 -0.10132029 0.23737077 -0.11899225 0.33997595 0.04637913 -0.28313377 -0.28831306
0.27808776 -0.18875265 -0.15094964 0.020360561 -0.14398809 0.1570176 -0.25085476 -0.08259396
0.09431294 -0.28343087 0.026012823 -0.16188882 0.34300765 0.27713412 -0.20508948 0.21078035
0.0076748612 0.21688975 0.08373917 0.10333481 -0.15854381 0.01118319 0.012317022 -0.009408404
0.27868214 -0.3540589 0.22509526 -0.15606935 -0.24043874 -0.061090957 0.20987476 0.04585132
-0.13196974 -0.31939226 -0.23364313 0.036172044 -0.007834851 0.11721627 -0.10706541 0.1602981
-0.120788924 0.15325826 0.11634207 -0.40372118 -0.37329808 0.065036945 0.0063016983 0.008576217
-0.27628598 0.14736912 0.1045772 -0.044695124 0.18651119 0.03162827 0.28776732 -0.2575614
-0.24716182 -0.15300635 -0.33215162 -0.090244085 -0.009410287 0.0491347 -0.17330286 -0.15261851
0.21697883 0.1233798 0.061730094 0.14646472 -0.35055184 -0.032018397 0.03718295 -0.081910335

actor.4.bias f4 [4]
00000000: ec76 51bd dd81 ea3c 0534 09bd e8c8 73bd
-0.051138803 0.028626377 -0.033496875 -0.05951777

critic.0.weight f4 [256, 24]
00000000: 1b96 ddbd 305a 353d 3691 6bbe 5ba9 68bc
00000010: db64 763d 0f7e 1bbd b40e a53d e375 633e
00000020: 3761 77bd 6cb9 b03a 4b8d 4ebd ef50 0a3e
00000030: a73e e73d 0507 b53d f4ea 303e 9002 683d
00000040: bf39 b03d afdc 0dbe 4a61 67be fe67 09bd
00000050: 4e3c db3d 0c20 72bd 6f06 2b3e a40a 71bd
00000060: ecd8 ebbd 9435 833d 70cb 07bc 4c88 15be
00000070: e1a3 68bd 03da 993c 0f8c 03be 6669 31bc
00000080: 3fa1 043e 20dd e6bd bd55 443e dd41 5abd
00000090: f74d 003e 829d fd3d ea32 f23d ee65 4b3e
000000a0: d761 abbd e19a b4bc 4ea2 1fbd cfb8 933d
000000b0: eb80 d23d 7c50 23be fd94 223e 68e1 e9bd
000000c0: 0814 8c3b 45b7 d0bd ad9b a7bd 8a64 e6bb
000000d0: 8e7c 23be dd87 0d3e 3958 70bd 57e0 0abb
000000e0: b813 5f3d 65cc ebbd 636c d8bc 40c8 c0bd
000000f0: 182f 3dbe 57be fcb9 8cb8 033e 1966 053e
00000100: c44d a33b 2c79 cc3c d0bc 343e 6492 46be
00000110: 220a 1d3e 92a5 36be 175f 8ebd 4b29 983d
00000120: 7cf0 cebd 6cdc 123e 72b5 463d f52a 0a3e
00000130: 3087 91bd 09e3 10bd 6660 223e 14d3 2abe
00000140: cb67 e23d 7671 f23d 8a29 a3b7 6fc9 afbd
00000150: be9e 77bd 400e 55be cc28 82bd 68a7 31be
00000160: e87c d4bd 2bca 903d 3586 4abe 1210 34be
00000170: dd11 ae3d 8999 163e 5d59 f7bc 5e27 b93d
00000180: 9000 583d 9381 b93d 85f5 453e 5cbe 1a3e
00000190: 704a 193d 66da 86bd 1ae6 33be 53b5 2fbe
000001a0: b3a2 0d3e ea57 863d 1037 dbbd 28ce 1a3e
000001b0: ee66 3abe 44ca 56be ea01 f7bd 4859 0e3e
000001c0: 3e45 86bd fc82 43bc 6b52 36be 7dcd e4bc
000001d0: aae5 4cbe 7efd e93d bd60 33bd 19be 1b3e
000001e0: ec0e 183d bbd4 a73c 6abf 49be d7cd 28be
000001f0: d7c5 49be af2e 983d 3e44 13be 1e67 cabd
00000200: 1119 19be c29c 19be e2ac cd3d dc4c 133d
00000210: 62da ef3d 1891 1a3e 85fd 423e 9827 e3bc
00000220: fcdd 8fbd 8447 fc3d d55a 14bd 29f2 fe3d
00000230: 5e18 193e f4c4 c13d 3e81 38bd c652 7fbd
00000240: bcac 3f3e 9dcc 6c3d 0fd1 12be 562f e2bd
00000250: 9068 35be 1b9a 2f3c d924 203e 45b8 84bd
00000260: 6495 a7bc b878 86bd 7d8a c1bd 68ab e8bd
00000270: be84 093d 89ea 263e 0487 0b3e e1ce b43d
00000280: 4228 0d3e 78bb b23d 7083 423e 286d 373e
00000290: f1a6 ecbd c2fa c2bd 2b23 f63d 3f9d 893d
000002a0: 21c3 4ebd 9da5 21be 8332 1b3d 0e22 213e
000002b0: 7475 2b3c 9ce6 5cbd 3a6c e9bd 0a75 d8bc
000002c0: eebf 353e f919 fb3c 6e8e a13b 24d9 2f3e
000002d0: 9bd1 d5bd 40f5 2ebe 5d09 323b 489c 6cbd
000002e0: 3725 1fbe 8013 39be 0105 19bd 5940 6fbd
000002f0: 0a63 b8bd 807a 203d a7de 88bd 1cf3 6cbd
00000300: 72f8 94bd 8300 23be 85f4 093e f9a2 44be
00000310: 1ccd 19bd a62c 2fbd b1f1 aebc 1057 25be
00000320: 17a6 203e c7a8 be3b 22d5 cbbd 6f1c 3c3e
00000330: 11e5 e03c 99fd 89bc 9e98 01be 4036 2d3c
00000340: 59fb fa3d 760e 9a3d bea9 a6bc 36b7 fdbc
00000350: c8f7 dfbd b914 113e 9fd7 033e 1ec9 99bd
00000360: 5c54 863d 8876 ae3d 71a9 0b3e e1f4 0abe
00000370: 101f 5bbe b8b2 08be 2799 3a3e f95c 573d
00000380: 462e d43d 37c2 3cbe e191 053e 7282 dd3d
00000390: 4778 f43c cf38 8cbd 31c4 8d3d ecc8 c7bb
000003a0: 5088 31be 350a 00be ccdd 04be 2864 f0bd
000003b0: e984 b43c 3de0 39be ee6f 89bc 8a39 efbd
000003c0: 163e 913d 0f21 97bd 7de0 90bd d6e3 273e
000003d0: 53a8 533d 2188 25be abb8 693d 3752 55be
000003e0: 58f1 10be e694 8a3d 7013 6c3d d343 07be
000003f0: c1c4 913c 7859 0cbd 96fd febd 0c09 52be
-0.10819646 0.044275463 -0.23004612 -0.014200534 0.060154777 -0.037962016 0.08059445 0.22212939
-0.060395446 0.0013482994 -0.050427716 0.13507436 0.11291247 0.088392295 0.17277128 0.05664307
0.08604764 -0.13853715 -0.22595707 -0.03354644 0.107048616 -0.059112594 0.16701673 -0.05884804
-0.11515984 0.064067036 -0.008288249 -0.14602774 -0.056796912 0.018780714 -0.12846397 -0.010828352
0.12952136 -0.11272645 0.19173332 -0.05328547 0.12529741 0.12383558 0.11826117 0.19863102
-0.08368271 -0.022046508 -0.038973145 0.07212984 0.102784954 -0.15948671 0.15877147 -0.11419946
0.004274849 -0.10191206 -0.0818399 -0.007031028 -0.15965483 0.13821359 -0.058677886 -0.0021190846
0.054462165 -0.115135945 -0.02641887 -0.09413195 -0.18474996 -0.00048207 0.12863368 0.13027228
0.0049836356 0.024960123 0.17650151 -0.19391781 0.15335897 -0.17836598 -0.06951731 0.07429751
-0.101044625 0.14341897 0.048512883 0.1349295 -0.07105863 -0.035372768 0.15857086 -0.16682082
0.11054953 0.11838047 -1.9450457e-05 -0.08583342 -0.060454123 -0.20806217 -0.06355438 -0.17349017
-0.103753865 0.070698105 -0.19777758 -0.17584255 0.08499501 0.14707007 -0.030193979 0.09040712
0.05273491 0.090579174 0.1933194 0.15111679 0.037424505 -0.06584625 -0.17568246 -0.17159013
0.13831596 0.06559737 -0.10703862 0.15117705 -0.18203327 -0.20975596 -0.12060912 0.13901246
-0.06556176 -0.011933085 -0.17804877 -0.027930016 -0.20009485 0.11425303 -0.04379343 0.15209235
0.037123606 0.02048718 -0.19701925 -0.16484772 -0.19704376 0.07430779 -0.14381501 -0.09882949
-0.14950968 -0.15001205 0.100427404 0.03596197 0.11711575 0.15094411 0.19042023 -0.02772884
-0.07024762 0.12318328 -0.036219437 0.12448532 0.14950702 0.09461394 -0.04504513 -0.0623348
0.18718237 0.057812322 -0.14337562 -0.11044185 -0.17715669 0.010717894 0.15639056 -0.06480459
-0.020456977 -0.06565994 -0.09450243 -0.11360818 0.03357386 0.16300406 0.13625723 0.088285215
0.13784888 0.08727163 0.18995452 0.17912734 -0.11555279 -0.095204845 0.120184265 0.067194454
-0.05047906 -0.15785833 0.03788997 0.15735647 0.010465015 -0.053930864 -0.11397596 -0.026422996
0.17748997 0.030652033 0.004930309 0.17172676 -0.1044037 -0.17085743 0.0027166225 -0.05776623
-0.1554154 -0.18073845 -0.037358288 -0.058410976 -0.09003265 0.039179325 -0.066830926 -0.057849035
-0.0727395 -0.15918164 0.13472183 -0.19202794 -0.037549123 -0.04276719 -0.021355482 -0.16146493
0.15688358 0.0058184597 -0.09952761 0.18370222 0.027452977 -0.016844558 -0.12655875 0.010572016
0.12254972 0.075222895 -0.020344611 -0.03097115 -0.109359324 0.14168061 0.12875222 -0.07509063
0.06559059 0.08518702 0.13638856 -0.13569976 -0.21398568 -0.13349426 0.18222485 0.0525789
0.103603885 -0.18433462 0.1304393 0.10815896 0.029842509 -0.06846773 0.06922186 -0.00609695
-0.17337155 -0.12503894 -0.12975234 -0.11737853 0.022036033 -0.18151946 -0.016777005 -0.116808966
0.0709192 -0.07379352 -0.07074068 0.16395506 0.0516742 -0.1616521 0.05706088 -0.20832144
-0.14154565 0.067666814 0.057635725 -0.13209467 0.017794015 -0.03426501 -0.124507114 -0.20511264

critic.0.bias f4 [256]
00000000: 96ce 97bd b01f c0bc 6e0c d1bd 39ca 59bd
00000010: 0d01 e13d c99d 0b3e e57d 90bd f8f8 173e
00000020: 4dc7 303d 89a2 173e 3d74 f23d 955e a6bd
00000030: 7a98 9fbd 5d3b ddbd 7892 1c3d 219c 3a3d
00000040: 3bfa 053e 7869 bebb fa82 f1bd 1be7 033e
00000050: 1d6c 5b3c 4b2d 66bb 3765 c73d 1c21 98bd
00000060: e910 b23d da08 943d a69a 77bd e03a 26be
00000070: c602 453e ada0 8f3d ff97 203e 484b 58be
00000080: 5dc9 9cbd 5323 e63d 0e65 713d b94f 05be
00000090: 930d 0a3e 2fea eabd 32c6 1b3e 72ce 183e
000000a0: c4be d9bd 2cc9 35be 6003 643e 1222 b63b
000000b0: 862a c03d c937 d6bd fad9 a4bc 8b3b 23be
000000c0: 8a3e f2bd c3d6 473c 2d19 493c 569d a43c
000000d0: c336 c5bb ae62 f23d 8c75 67bd 6dcc 703b
000000e0: 7613 e73d 40bf 18be 06f8 40be ce5b 2a3e
000000f0: 0de3 9bbd d11c 3a3e 4688 8cbd cf24 2e3e
00000100: 64e2 fbbd 05b5 dbbd 667b e4bd d1f8 d8bd
00000110: 8d4e 92bc c95b b03d ef5a 493e 5dc2 d6bd
00000120: 814e 273e 9fec 30bd 8ee8 c9bd 2368 8abd
00000130: 39c2 40bd 3118 9c3d 1351 2dbe c505 02bd
00000140: 93f5 d4bc 84ae 29be 4ff3 21be f888 3abe
00000150: 7e10 9cbb 66c7 efbc 7877 5fbe 209a 2abd
00000160: 59cf 513e c0dc 623c 66bb 56bd 5a76 3d3d
00000170: d65e 443e 44c9 eabd b14e 2f3c 196e 2cbe
00000180: 959a 2a3e 3bf8 fb3c 5fa9 28be f062 333e
00000190: 26b6 ddbd ccca 2fbe 0b8e d6bd 8d2a a3bd
000001a0: 4988 33bd 2142 603d 45ee bcbd 1624 b6bc
000001b0: e6f7 03bd 2d0d ed3d 710f 93bd 5429 3bbe
000001c0: 8f59 db3d cbb6 cf3a bd2d a0bd 2859 c0bd
000001d0: c2df d13c 0238 0fbe 0c46 bd3d 6c33 30be
000001e0: 1a50 d8ba 4608 92bd 3249 cabd fdf1 20be
000001f0: e186 c5bd c025 07be 0b78 3cbe db04 c23d
00000200: 8df4 01be 1a2b 2a3e 84a4 4c3a 7c1c 1b3e
00000210: ef64 d03d e2ec dc3d 11f5 423d 7735 4abd
00000220: f40d 9b3d 81fb 553d fcc1 f8bd f4fd 493e
00000230: 78bf 303e 09d5 1c3e 35d7 2b3e 8899 cfbd
00000240: 5a97 35be 13d6 033e 5002 1b3e 97af 27be
00000250: f96a e1bd ab65 a7bd 3028 29be ecc2 c6bd
00000260: 3084 d3bd 2003 98bd 32d7 2fbc 0c84 0dbd
00000270: e799 4d3d 0a8f 4a3e 6093 84bd c1a4 0f3e
00000280: 54ee 0a3e 979c 1fbe 2e42 b93d 291b 0a3d
00000290: 52c2 10be 647e 04bc 1c1b 4fbe eadf cfbd
000002a0: 1f67 36bc 7057 8fbd 3a7f ff3d 7ff9 a23d
000002b0: 3c46 40be f5fa 933d 9f5d 143d 5f96 d23c
000002c0: e0ac 383e 0300 ccbb 0fb9 7abd 0ec7 213e
000002d0: 12f2 adbc d88e f8bd 248d c33d 8c88 533b
000002e0: 1167 a5bd 11f0 3dbe 1c0d 133e 9935 69bc
000002f0: f085 27bd d792 03be c06f fa3d cd4d d9bd
00000300: 5f63 86bd afa1 053d 48b5 d9bd d853 3bbe
00000310: 0fe8 023e e312 0dbd 0a78 6ebc 7d2c 29be
00000320: 6a8f 79bc f59a 743d 16aa d3bd 03ce c9bd
00000330: 2e38 2b3e 0f22 233e 8bed e83d ffd4 253e
00000340: 881f 1e3e 832c 99bd 1332 813d 8171 033e
00000350: 66af bbbc f5d0 913d 55fa 933d 47ef 473c
00000360: 42f5 e5bd 83ab 463e bc2c 14be fa4d 8ebc
00000370: ad77 31bd a66b 21bd 0029 32be 397f dfbb
00000380: 93b5 313d eb3e 54be 5fc7 3cbe 3aea 473e
00000390: 68af d83d 5b2e a6bc e331 20be 88b8 5f3d
000003a0: 9100 80bd 733b 753d c6dd 03be b43e b43d
000003b0: e07c 8e3d 6e4f 6c3b 5a87 17be 2584 11bd
000003c0: f12b 1f3d 335d e83d 65b5 503e 6209 a0bd
000003d0: 22f9 0e3e 746e 253d 6a9f 53bd 69b6 dabd
000003e0: 34cf 6fbc 89ce 913b 7b27 2bbe 5c59 35be
000003f0: b1e0 693c 8f32 9cbd 7deb 45be c135 ccbd
-0.0741245 -0.02345261 -0.10207449 -0.05317137 0.109865285 0.13634409 -0.070552625 0.14841068
0.043158818 0.14808096 0.11838577 -0.08123509 -0.077927545 -0.10802338 0.03822562 0.045559052
0.13083737 -0.0058109127 -0.1179256 0.12881128 0.013392475 -0.0035122212 0.09736102 -0.0742819
0.086946316 0.07228251 -0.06045022 -0.16233397 0.19239339 0.07013068 0.15682982 -0.21122468
-0.076555945 0.11237206 0.058934264 -0.13018693 0.1348174 -0.11470448 0.15212324 0.14922503
-0.10632089 -0.17752522 0.22266912 0.0055582607 0.09383111 -0.10459859 -0.02012347 -0.15940683
-0.11828335 0.012197199 0.012274069 0.020094555 -0.006018491 0.11835228 -0.056508586 0.003674294
0.11283009 -0.14916706 -0.18844613 0.16636583 -0.07611666 0.18175055 -0.068619296 0.17006229
-0.1229904 -0.10727886 -0.11156349 -0.10594333 -0.017859722 0.08611257 0.19663595 -0.104862906
0.1633854 -0.04319441 -0.098588094 -0.06758144 -0.047060225 0.07621802 -0.16925459 -0.031743784
-0.025996005 -0.16570479 -0.15815471 -0.18216312 -0.004762708 -0.029269885 -0.21822917 -0.04165089
0.20489253 0.013846576 -0.05242481 0.046255447 0.19176802 -0.114641696 0.010699914 -0.16838874
0.16660531 0.030758014 -0.1647086 0.1751821 -0.10825758 -0.17167205 -0.10476311 -0.079671
-0.043831144 0.054750565 -0.09225134 -0.022234004 -0.032218836 0.11574779 -0.071806796 -0.18277484
0.10710441 0.0015847323 -0.07821224 -0.09392005 0.025619391 -0.13986209 0.09241876 -0.17207116
-0.0016503364 -0.07130484 -0.09877242 -0.15717311 -0.09644867 -0.13197994 -0.18405168 0.09473582
-0.12690945 0.16618004 0.0007806497 0.15147585 0.101755016 0.10787369 0.047596995 -0.049367394
0.07571021 0.052241806 -0.121463746 0.19725782 0.1726054 0.15315641 0.16781314 -0.10136706
-0.17733517 0.12874632 0.15137601 -0.16375576 -0.110067315 -0.081736885 -0.16519237 -0.09705147
-0.10327947 -0.07422471 -0.010732459 -0.034549758 0.0501956 0.19781128 -0.06473422 0.14027692
0.13567477 -0.15587078 0.09045826 0.03371731 -0.14136627 -0.0080867745 -0.20225185 -0.1015013
-0.011132984 -0.06999099 0.124754384 0.07957744 -0.18776792 0.07225601 0.036222097 0.025706468
0.18034697 -0.0062255873 -0.061211642 0.1579859 -0.021233592 -0.1213662 0.09548405 0.0032277433
-0.08076299 -0.1854861 0.1436047 -0.01423397 -0.040899217 -0.12848984 0.12228346 -0.106105424
-0.06561922 0.032624897 -0.1063028 -0.18293703 0.12783836 -0.03444184 -0.014554987 -0.16520877
-0.0152319465 0.05971809 -0.10335176 -0.09853747 0.1672065 0.15930961 0.11373433 0.16194533
0.15441716 -0.07479193 0.06308379 0.12836267 -0.022910785 0.071199335 0.072254814 0.012203044
-0.1122842 0.19401364 -0.1447019 -0.017371166 -0.043327022 -0.039409302 -0.17398453 -0.006820586
0.043386053 -0.20727126 -0.18435429 0.19522944 0.10580331 -0.020285776 -0.1564403 0.054619342
-0.06250108 0.05987115 -0.12877569 0.08801022 0.06957412 0.0036058086 -0.14797726 -0.035526413
0.038860265 0.11345901 0.20381697 -0.0781429 0.13962224 0.04038854 -0.0516657 -0.10679323
-0.014636803 0.0044496697 -0.1671428 -0.17709869 0.014274762 -0.07626831 -0.19328113 -0.0997119
