Policy Gradient/trained_models/ppo/64_lstm_3/walker_ppo_model_1800.pth (torch_old, 584582 bytes, 11 tensors)

actor.0.weight f4 [256, 24]
0	0x3efa239b	0.4885529
1	0x3ea4d755	0.32195535
2	0xbe56e427	-0.2098547
3	0xbdea9989	-0.11455066
4	0x3da9080f	0.0825349
5	0x3bcf9843	0.0063352897
6	0xbe7c086e	-0.2461259
7	0x3ee9943f	0.45620915
8	0xbe98b363	-0.2982436
9	0xbe472640	-0.19448185
10	0x3da4f32e	0.08054195
11	0xbd1a5037	-0.037674155
12	0xbda1053f	-0.07862329
13	0xbd4c1724	-0.049826756
14	0xbe2a5aee	-0.1663625
15	0x3dc25b4c	0.0949007
16	0xbe2d0e66	-0.16900024
17	0xbd0bd17c	-0.034135327
18	0xbe814477	-0.25247547
19	0xbd664187	-0.056214835
20	0xbd1fc987	-0.03901055
21	0x3d6489b1	0.055795375
22	0xbe562459	-0.20912303
23	0x3de0a46b	0.1096886
24	0x3df814cb	0.12113341
25	0x3da9c720	0.08289933
26	0xbed38b82	-0.41317374
27	0xbe951302	-0.29116064
28	0x3e4c3adb	0.19944327
29	0xbddcc2bc	-0.1077933
30	0x3e798bc2	0.2436972
31	0xbecdb206	-0.40174884
32	0x3de843bb	0.113410436
33	0x3de66f7d	0.112517335
34	0x3f196a95	0.59928256
35	0xbef840d1	-0.4848695
36	0x3ed03202	0.40663153
37	0x3d821a7e	0.06352709
38	0xbe18103d	-0.14849944
39	0x3dd4bc56	0.10387485
40	0x3dcdb5ea	0.10044463
41	0xbd50daf0	-0.050990045
42	0xbe81f4de	-0.2538213
43	0xbe2697ee	-0.16268894
44	0xbc929431	-0.017892929
45	0xbe1a2cd1	-0.15056159
46	0x3dda88bc	0.10670611
47	0x3d9e84e4	0.077401906
48	0x3d944dea	0.072414234
49	0xbebd094d	-0.36921158
50	0x3ee179cb	0.44038233
51	0x3dcdbdb8	0.100459516
52	0xbdd8fbd7	-0.1059491
53	0x3e0d1156	0.13776144
54	0xbdfed6c6	-0.124433085
55	0x3ef5f8d6	0.4804141
56	0xbf1c561f	-0.6106891
57	0xbe41ceeb	-0.18926589
58	0x3eb17154	0.34656775
59	0xbcd72455	-0.026262442
60	0xbdfae41b	-0.12250539
61	0x3e8f4359	0.2798107
62	0x3d3939ef	0.045221265
63	0xbd4fa4cc	-0.050694272
64	0x3df01b27	0.11723929
65	0x3e60bcbc	0.21946996
66	0xbdf6fba7	-0.120597176
67	0xbe2c5b04	-0.16831595
68	0x3e1f6a33	0.15567856
69	0x3e543c00	0.20726013
70	0xbb8b89b9	-0.004258361
71	0xbdd64a2c	-0.10463366
72	0xbe1826a9	-0.14858498
73	0x3ebb3df3	0.365707
74	0xbe3f8ea0	-0.18706751
75	0xbe01a767	-0.12661515
76	0xbe8aeb8d	-0.27132836
77	0xbf7957f0	-0.97399807
78	0x3dd82fb0	0.10555971
79	0x3e880d53	0.26572666
80	0x3e020055	0.12695439
81	0x3e31bd7a	0.17357436
82	0xbd54c033	-0.051941108
83	0xbd995372	-0.07486619
84	0x3e5ed073	0.21759205
85	0x3c075cf0	0.008261904
86	0x3e321bfd	0.17393489
87	0xbc04d264	-0.008106802
88	0xbdb6ddeb	-0.08929046
89	0xbd64684d	-0.05576353
90	0x3da8fcc1	0.08251334
91	0x3d710e33	0.058851432
92	0x3da2318f	0.07919609
93	0x3c8b4455	0.017000357
94	0x3be0e355	0.0068630376
95	0x3d3e875c	0.046515808
96	0x3e0d57ed	0.13803072
97	0x3f21464a	0.6299788
98	0x3f146dec	0.5798023
99	0xbeca0504	-0.39456952
100	0xbe4526ab	-0.19253032
101	0xbf53c8b8	-0.8272815
102	0x3ec881b2	0.3916145
103	0xbeb60968	-0.3555405
104	0xbd895c87	-0.06707101
105	0x3e34405f	0.1760268
106	0x3ed0c3ea	0.4077447
107	0x3b9d5354	0.0048011933
108	0xbedb6409	-0.42849758
109	0xbebcedda	-0.36900216
110	0xbcbc5d6e	-0.02299377
111	0x3c4b251b	0.012398983
112	0xbe0e5e9a	-0.13903275
113	0xbc44d9ad	-0.012014789
114	0xbe432876	-0.19058403
115	0xbe16c27d	-0.14722629
116	0xbe086b84	-0.13322264
117	0xbe45f86a	-0.19333044
118	0x3ded2ae6	0.11580448
119	0xbe13164b	-0.14363973
120	0xbe00d1b5	-0.12579997
121	0x3de26acb	0.110555254
122	0xbf0f6199	-0.560083
123	0xbd6ad648	-0.05733326
124	0x3d4cd237	0.050005164
125	0xbf3a30e3	-0.72730845
126	0x3e6c427a	0.23072234
127	0x3f1b0613	0.60556144
128	0xbe36911f	-0.17828797
129	0xbd160234	-0.036623195
130	0x3dccb6e7	0.09995823
131	0xbde7d023	-0.11318996
132	0x3ee35573	0.4440113
133	0x3e985e8f	0.29759642
134	0xbd760dc3	-0.060071718
135	0xbd14b56a	-0.036305822
136	0xbd96c338	-0.07361454
137	0x3da56ce6	0.08077411
138	0x3d2341ec	0.03985779
139	0xbe14a735	-0.1451691
140	0xbdbadc1a	-0.09124012
141	0x3e355b35	0.17710574
142	0x3db0e0a9	0.086366005
143	0x3c825e57	0.015914125
144	0x3e349a70	0.17637038
145	0x3ee2ab9b	0.4427155
146	0xbd013df6	-0.03155323
147	0xbe56e1d9	-0.20984592
148	0xbd3fd492	-0.046833582
149	0xbf3a2f54	-0.72728467
150	0x3e4cae11	0.19988276
151	0x3e6e3921	0.2326398
152	0xbc9500bc	-0.018188827
153	0x3e027180	0.1273861
154	0x3f1463ae	0.579646
155	0xbe9251f4	-0.2857815
156	0x3ebed122	0.3726893
157	0x3e6dbe27	0.23217069
158	0xbd270d8d	-0.040784407
159	0xbe2e338e	-0.17011854
160	0xbd095cb0	-0.03353566
161	0xbe681259	-0.22663249
162	0x3d2ed933	0.042687606
163	0xbe4565f9	-0.1927718
164	0xbe461b0a	-0.19346252
165	0xbe2f922d	-0.17145605
166	0x3d394051	0.045227353
167	0xbe47e64e	-0.19521448
168	0x3e882f08	0.26598382
169	0x3f0546f9	0.5206142
170	0xbe7d1de9	-0.24718441
171	0xbe8f4c85	-0.27988067
172	0x3d9f9fe3	0.07794168
173	0x3effdc73	0.49972877
174	0xbe848791	-0.2588468
175	0x3eb922cd	0.36159363
176	0xbe2a308f	-0.16620086
177	0xbe6307d5	-0.22170956
178	0xbde7bf3e	-0.113157734
179	0xbe9b32e4	-0.30312264
180	0xbe4a7697	-0.19771801
181	0xbe5fe938	-0.2186631
182	0xbe1f771b	-0.15572779
183	0x3e44ce93	0.19219427
184	0xbe00096f	-0.12503599
185	0xbd930da5	-0.07180337
186	0xbc1ee510	-0.009698167
187	0x3dd0fe75	0.10204784
188	0xbe01cb39	-0.1267518
189	0xbd015408	-0.03157428
190	0x3e463e8f	0.19359802
191	0x3e41f88f	0.18942474
192	0x3d73a5b4	0.0594842
193	0xbdcd92c1	-0.10037757
194	0xbe2ff045	-0.171815
195	0xbee5e710	-0.4490285
196	0xbc86d16a	-0.016457278
197	0xbeca57d6	-0.39520139
198	0xbeb970d0	-0.36218882
199	0x3e26db4c	0.16294593
200	0x3e81ea96	0.25374287
201	0x3d0a07f0	0.033698976
202	0x3f98ab96	1.1927364
203	0xbe2c2302	-0.1681023
204	0xbe034fc6	-0.128234
205	0xbe17655c	-0.1478476
206	0xbcab9c36	-0.02094851
207	0x3d986d08	0.07442671
208	0x3d23f559	0.040028904
209	0x3d6cbb7b	0.057795983
210	0x3e2a281c	0.16616863
211	0xbdb322c4	-0.087468654
212	0xbe0ad7c8	-0.13558877
213	0x3e574bcb	0.21025006
214	0x3d4c216f	0.049836572
215	0xbdc3191c	-0.095262736
216	0xbf0315b5	-0.51205
217	0xbea2a53f	-0.31766698
218	0xbdde010d	-0.10840044
219	0x3ed681f9	0.41896036
220	0xbe234e6c	-0.15947884
221	0x3ecfefea	0.40612727
222	0x3f358639	0.7090793
223	0xbe2a2185	-0.16614349
224	0xbc004015	-0.007827778
225	0xbe8df0b9	-0.2772272
226	0x3edd0fb0	0.4317603
227	0x3edabced	0.42722264
228	0xbd2ed5d5	-0.042684395
229	0x3ec1c234	0.37843478
230	0xbe91f11c	-0.28504264
231	0xbea202f0	-0.31642866
232	0xbd7b569d	-0.061361898
233	0xbe8b4329	-0.27199677
234	0xbdf6aa08	-0.1204415
235	0xbe2e5c8b	-0.1702749
236	0xbe5577df	-0.20846508
237	0xbeb4c5a6	-0.35307044
238	0xbe334f97	-0.1751083
239	0xbe2dd283	-0.16974835
240	0x3db991ef	0.09061038
241	0x3ec5de00	0.38645935
242	0x3d78f1c4	0.06077744
243	0xbd270c46	-0.04078319
244	0xbd6685c9	-0.05627993
245	0xbf1caf8c	-0.61205363
246	0x3e782de6	0.24236259
247	0x3e7e139e	0.24812171
248	0xbf0ddd55	-0.5541585
249	0xbe016b8c	-0.12638682
250	0xbebfdb82	-0.3747216
251	0x3d5f5975	0.054528672
252	0x3e9feecb	0.31236872
253	0x3e37dfba	0.17956439
254	0xbe36aaa3	-0.1783853
255	0xbca7f956	-0.020504635

actor.0.bias f4 [256]
0	0xbc3dbaca	-0.0115801785
1	0x38e3ad9a	0.00010856539
2	0xbe118304	-0.14210135
3	0xbe59f82f	-0.21286081
4	0x3d32e577	0.043675866
5	0x3c151693	0.00909962
6	0x3d67473a	0.05646441
7	0x3dffbd27	0.1248725
8	0xbe13ae36	-0.14421925
9	0xbe645d59	-0.22301234
10	0xbd092543	-0.0334828
11	0x3d1dc72d	0.038520027
12	0x3ca2a853	0.019855654
13	0x3e736fbd	0.23773094
14	0x3dae3e80	0.08508015
15	0xbe402927	-0.18765698
16	0xbe27a545	-0.16371639
17	0xbca56b8a	-0.02019288
18	0x3c780acb	0.015139292
19	0xbd3dfce7	-0.046383765
20	0x3ce17cd0	0.027525336
21	0xbe610f6a	-0.21978536
22	0x3e47f928	0.1952864
23	0x3d1929de	0.037393443
24	0x3d0af0be	0.033920996
25	0xbe548a0c	-0.20755786
26	0x3d39bd3d	0.045346487
27	0x3e335f91	0.17516924
28	0x3e78540a	0.24250808
29	0xbcc0abf1	-0.023519488
30	0x3cd494bd	0.02594983
31	0x3c9cbef0	0.019134015
32	0x3dec8abb	0.11549898
33	0xbe0a8b15	-0.13529618
34	0xbca06a50	-0.019581944
35	0xbc9833d3	-0.0185794
36	0x3dd56162	0.10418965
37	0x3d1ce5c0	0.038305044
38	0x3e3471c9	0.1762153
39	0xbe027079	-0.12738217
40	0x3dbdb252	0.092625275
41	0xbe350fc9	-0.17681803
42	0xbd02e3b0	-0.03195542
43	0x3e359ba1	0.17735149
44	0x3d446f47	0.047957685
45	0xbdf86987	-0.12129503
46	0x3d5c448d	0.053776313
47	0xbe06c027	-0.13159238
48	0x3d1d80c3	0.038452875
49	0x3dfe7281	0.12424184
50	0xbe450f36	-0.19244084
51	0xbe319b60	-0.17344427
52	0x3e2cd60a	0.16878524
53	0x3d8cf177	0.06881993
54	0x3dec7c21	0.11547113
55	0x3d077330	0.033068836
56	0x3cc212b4	0.023690559
57	0xbd357858	-0.044304222
58	0x3e69479e	0.22781226
59	0x3d649111	0.05580241
60	0xbc91799c	-0.017758183
61	0x3d42229c	0.047396287
62	0xbcc40d9a	-0.023932267
63	0xbe125ac8	-0.14292443
64	0x3d576a88	0.05259183
65	0xbdea5e1b	-0.114437304
66	0xbdba2525	-0.09089116
67	0x3e0f3be7	0.13987695
68	0x3d05afc5	0.03263833
69	0x3c9d290d	0.019184614
70	0xbdc5c97c	-0.09657571
71	0x3e1664a6	0.14686832
72	0xbe407383	-0.18794064
73	0xbb779073	-0.0037775307
74	0x3dcdf19c	0.10055849
75	0xbce1dc11	-0.027570756
76	0xbd554ff1	-0.05207819
77	0xbd2500ef	-0.040284093
78	0xbe55d5aa	-0.20882288
79	0xbcfb9f91	-0.030715736
80	0x3b49ca89	0.0030790886
81	0xbd48424a	-0.048891343
82	0xbd62c82f	-0.05536669
83	0x3dcb5775	0.099287905
84	0x3ce604d6	0.028078478
85	0x3e0ee193	0.13953237
86	0x3d5a44d3	0.053288292
87	0x3c14f245	0.009090965
88	0xbd9e44ec	-0.077279896
89	0x3df971c6	0.12179904
90	0xbcf8b023	-0.030357426
91	0x3e392492	0.18080357
92	0xbdd8f176	-0.1059293
93	0xbdcec08f	-0.100953214
94	0x3e29625c	0.16541427
95	0xbe05ef7a	-0.13079634
96	0x3c8a6786	0.016895067
97	0xbe063c72	-0.13108996
98	0xbc23bc35	-0.0099936025
99	0xbd39a085	-0.0453191
100	0x3df9770d	0.1218091
101	0xbdb0d4db	-0.08634349
102	0x3dfc664f	0.12324201
103	0xbe534a94	-0.20633918
104	0x3da181eb	0.07886108
105	0xbe5f2f2b	-0.21795337
106	0xbe14029c	-0.1445412
107	0xbd972df3	-0.07381811
108	0x3ad9edc8	0.001662665
109	0x3e079b4b	0.13242833
110	0xbdef6d23	-0.11690738
111	0xbdb9b891	-0.090684064
112	0x3ce3caa2	0.027806584
113	0xbe00e54f	-0.12587474
114	0xbd88c236	-0.06677668
115	0x3b4c3812	0.003116135
116	0x3e46e9b0	0.19425082
117	0x3e7a4eb8	0.24444091
118	0x3cbfd6b0	0.0234178
119	0x3c4ee67e	0.012628196
120	0x3c9606c0	0.018313766
121	0xbd2e1f7a	-0.042510487
122	0x3dc355cb	0.09537848
123	0xbdca4d2f	-0.09878003
124	0x3d475da4	0.048673287
125	0xbd2ea977	-0.042642083
126	0x3b1f96d3	0.0024351373
127	0x3e0a4735	0.13503726
128	0xbc59b648	-0.013288088
129	0x3db0b6c7	0.08628612
130	0x3b4d7f30	0.0031356327
131	0x3c2b326e	0.010449035
132	0xbe0d1798	-0.13778532
133	0xbb022ba8	-0.0019862447
134	0xbd11db33	-0.035609435
135	0x3e16f3b7	0.14741407
136	0xbe4b2f97	-0.19842373
137	0xbdd6d713	-0.10490241
138	0xbddb70ce	-0.10714875
139	0xbae1153c	-0.0017172466
140	0xbe4a2a0a	-0.19742599
141	0xbd5d918b	-0.05409388
142	0x3d20cb55	0.039256413
143	0xbe790c8b	-0.24321191
144	0xbdb630fd	-0.088960625
145	0x3e18a1c9	0.14905466
146	0x3dd69c2b	0.104790054
147	0xbe128e94	-0.14312202
148	0xbd43a992	-0.047769137
149	0x3d659688	0.05605176
150	0xbdf5f629	-0.12009842
151	0x3e791acf	0.24326633
152	0x3dad29a8	0.08455211
153	0x3e131518	0.14363515
154	0xbccacbc1	-0.02475536
155	0x3e52d421	0.20588733
156	0xbbd9a5e0	-0.0066420883
157	0x3c9e1eb1	0.019301744
158	0xbdc793a9	-0.09744961
159	0x3b819990	0.0039550737
160	0x3e1b1395	0.15144189
161	0x3e019378	0.12653911
162	0x3e4246f5	0.1897238
163	0xbd48eb56	-0.04905256
164	0xbdaf89c7	-0.08571201
165	0xbda5a153	-0.08087411
166	0x3e5028d1	0.2032807
167	0x3cb70172	0.022339556
168	0xbe19b588	-0.15010655
169	0x3df47f5f	0.119383566
170	0x3ddb5c07	0.10710912
171	0xbd252d26	-0.04032626
172	0x3e19f506	0.15034875
173	0xbcb36387	-0.021898044
174	0xbe35b944	-0.17746454
175	0x3c4a3372	0.012341367
176	0x3e585a33	0.21128158
177	0x3c8a9452	0.016916428
178	0x3e22b4b3	0.15889244
179	0xbd264144	-0.040589586
180	0x3e57c2ad	0.21070357
181	0x3e67b82f	0.22628854
182	0x3e504130	0.20337367
183	0xbe4fea7c	-0.20304292
184	0xbe391d46	-0.18077573
185	0xbdf1296b	-0.11775478
186	0xbe586db2	-0.21135595
187	0x3dfa5df6	0.12224953
188	0x3c434c16	0.011919996
189	0xbe2cfb82	-0.16892818
190	0x3c796bf0	0.015223488
191	0xbe04364a	-0.12911335
192	0x3e2f26ee	0.17104694
193	0xbd9ac44e	-0.075569734
194	0xbda7ef21	-0.08199907
195	0xbd0b6ab6	-0.034037314
196	0x3e00efb9	0.12591447
197	0xbdb3e1d7	-0.0878331
198	0x3e667826	0.2250677
199	0xbbb125c7	-0.0054061147
200	0x3d1d5822	0.038414128
201	0x3e3d9791	0.18514849
202	0x3e321925	0.17392404
203	0xbda145ea	-0.07874663
204	0xbd0c98e5	-0.0343255
205	0x3dba96ae	0.09110771
206	0x3cc8814e	0.02447572
207	0xbe53ff07	-0.20702754
208	0x3dec8f22	0.11550738
209	0xbd205425	-0.039142746
210	0xbdc38c00	-0.09548187
211	0x3d50e9cb	0.051004212
212	0xbe1aeffd	-0.15130611
213	0x3e055d88	0.1302396
214	0xbd0fddc1	-0.03512359
215	0x3e03c031	0.12866284
216	0x3e5cbcf6	0.21556458
217	0x3e13bfc3	0.1442862
218	0xbe603779	-0.21896161
219	0xbdafe975	-0.0858945
220	0xbd20a724	-0.039221898
221	0x3e3eda7b	0.18638031
222	0x3ddaeae9	0.10689337
223	0xbe0cdded	-0.13756533
224	0x3e25b8b1	0.16183735
225	0xbd88d023	-0.06680324
226	0xbcdb1dc8	-0.0267476
227	0xbcb534ff	-0.022119997
228	0xbd4f124e	-0.050554566
229	0x3dc0a3f5	0.09406272
230	0xbc2c4166	-0.010513639
231	0x3e575979	0.21030225
232	0xbde596bc	-0.11210391
233	0x3e045d7c	0.12926286
234	0x3da8807b	0.08227631
235	0xbe5fc303	-0.21851735
236	0xbe1a0d20	-0.1504407
237	0x3da62b28	0.081137
238	0xbd91dec7	-0.071225695
239	0xbb4af59b	-0.0030969146
240	0x3df75c07	0.120781
241	0x3ddaead9	0.10689325
242	0xbd882a4b	-0.06648692
243	0xbe0884c3	-0.13331895
244	0xbddac1bf	-0.106814854
245	0x3d3bf50e	0.045888
246	0x3cdc2b0d	0.026875997
247	0x3e030766	0.12795791
248	0x3c430cea	0.011904934
249	0x3e4782d9	0.19483508
250	0x3e805411	0.25064138
251	0x3e271842	0.16317847
252	0x3bc4957e	0.005999266
253	0xbe3fc9b0	-0.18729281
254	0xbe862994	-0.26203597
255	0xbe692e33	-0.2277153

actor.2.weight f4 [256, 256]
0	0x3d77ac3f	0.060467
1	0x3e2f5419	0.17121924
2	0xbe257e25	-0.16161402
3	0x3d0bc0b0	0.034119308
4	0xbe6baa94	-0.23014289
5	0xbd9941b0	-0.07483232
6	0xbdb18758	-0.08668393
7	0xbae18229	-0.0017204928
8	0x3c8d1827	0.01722343
9	0xbde0215a	-0.10943861
10	0xbe91be6c	-0.28465593
11	0x3e6d322a	0.23163667
12	0xbe9716b8	-0.2950952
13	0xbe65cdd6	-0.22441801
14	0xbe2e9d11	-0.17052104
15	0xbe7fd076	-0.24981865
16	0x3dc19fdf	0.09454321
17	0xbd5a1d43	-0.053250562
18	0x3e48d516	0.19612536
19	0x3e47284d	0.19448967
20	0xbe1166e7	-0.1419941
21	0x3cf2616d	0.029587472
22	0xbbc1fece	-0.0059202677
23	0x3e144c21	0.14482166
24	0xbe24fdbd	-0.16112418
25	0xbdd817b4	-0.10551396
26	0x3de6a63a	0.11262174
27	0x3e89e96b	0.26935896
28	0x3db78da2	0.08962561
29	0x3e218c5e	0.15776202
30	0xbda5c12c	-0.08093485
31	0xbb7b47e3	-0.0038342408
32	0x3e8fe63e	0.28105348
33	0xbeffc552	-0.4995523
34	0xbcce9085	-0.025215397
35	0x3e06fab0	0.13181567
36	0x3eb8abb2	0.36068493
37	0x3d934846	0.071915194
38	0xbdfc5c04	-0.12322238
39	0xbee4d5af	-0.44694278
40	0x3c72291e	0.014780311
41	0xbdf0bb76	-0.11754505
42	0xbe350f5b	-0.17681639
43	0x3e655653	0.22396211
44	0x3e70ac41	0.2350321
45	0x3d1dbf2f	0.038512405
46	0x3dc9a823	0.09846523
47	0xbe8a7d80	-0.27048874
48	0x3df0239c	0.11725542
49	0x3ded8163	0.11596944
50	0xbe5c0081	-0.21484567
51	0x3e3ea956	0.18619284
52	0x3c47cba6	0.01219455
53	0xbcccbf83	-0.024993664
54	0x3d439b36	0.047755443
55	0xbe7c54de	-0.2464175
56	0x3df173ed	0.11789689
57	0xbe07a48f	-0.13246368
58	0x3bb3e0d3	0.0054894476
59	0x3d8e0e23	0.0693629
60	0x3e0f099f	0.13968514
61	0xbea19588	-0.31559396
62	0x3bb25b64	0.0054430235
63	0x3eb30f97	0.34972832
64	0xbe0cf7b7	-0.1376637
65	0x3def3557	0.11680096
66	0x3e207c3f	0.15672396
67	0x3d2ca352	0.042147942
68	0x3d4364f8	0.047703713
69	0xbe8ba372	-0.27273136
70	0x3e9d435a	0.30715448
71	0x3d912edc	0.07089016
72	0xbe32f771	-0.17477204
73	0xbcec7957	-0.028866453
74	0x3ca027bc	0.019550197
75	0x3cbbfc0d	0.022947336
76	0xbc309e9d	-0.010780004
77	0xbe105c3d	-0.14097686
78	0x3e0aa7ba	0.13540545
79	0x3dc26246	0.094914004
80	0x3eeb4d97	0.45957634
81	0x3e4144fa	0.18873969
82	0x3f077bc1	0.5292321
83	0x3e7121de	0.23548076
84	0xbdf8e0fc	-0.12152287
85	0xbd50ff0a	-0.051024474
86	0x3e32529f	0.1741433
87	0x3c31481c	0.010820415
88	0xbe04c41c	-0.12965435
89	0x3e21259c	0.15737003
90	0x3e575cce	0.21031496
91	0x3e459ee1	0.19298889
92	0x3e18369e	0.14864585
93	0xbb5797c8	-0.0032896865
94	0x3b504020	0.0031776503
95	0xbe20d40d	-0.15705891
96	0xbdff90ee	-0.12478815
97	0xbe64ff16	-0.22362933
98	0xbd6951ff	-0.056962963
99	0xbe7c2076	-0.24621758
100	0xbd97c642	-0.074108616
101	0xbce23d19	-0.027617024
102	0x3e82a251	0.25514463
103	0x3dd6b064	0.104828626
104	0x3db03254	0.08603349
105	0x3d60fbe1	0.05492771
106	0xbef870f7	-0.48523685
107	0xbdea803c	-0.1145024
108	0xbd772125	-0.060334343
109	0xbdb16ca6	-0.08663301
110	0x3dd6978a	0.104781225
111	0xbea958d3	-0.3307558
112	0xbd8308d7	-0.063981704
113	0xbc956335	-0.018235782
114	0x3ed477af	0.4149756
115	0xbc5fe191	-0.013664619
116	0x3e93a631	0.2883773
117	0xbe14a588	-0.1451627
118	0xbe5f2352	-0.21790817
119	0xbd27eeef	-0.04099935
120	0x3e1dafc8	0.15399086
121	0x3e6ed0ff	0.23321913
122	0xbdf5871f	-0.11988663
123	0xbd7f2f33	-0.062300872
124	0x3d61dd7f	0.055142876
125	0x3e1c2643	0.1524897
126	0x3df5b90c	0.119981855
127	0xbdc67c63	-0.09691694
128	0x3ddd3fa1	0.10803152
129	0x3a9e6eb7	0.0012087439
130	0x3e856626	0.26054496
131	0xbe641ecc	-0.22277373
132	0xbdb3df1d	-0.0878279
133	0x3e215065	0.15753324
134	0xbe0716f1	-0.13192345
135	0xbe1dc71d	-0.15407987
136	0x3d07df94	0.033172205
137	0x3df05ac8	0.11736065
138	0xbd93431a	-0.07190533
139	0xbe9a1a4d	-0.3009819
140	0xbe898d96	-0.26865834
141	0xbdde7748	-0.10862595
142	0xbe505094	-0.20343238
143	0x3e034d92	0.1282256
144	0x3e6ba1ba	0.23010913
145	0x3e903df9	0.2817228
146	0xbe070c59	-0.13188304
147	0x3e0254b5	0.12727626
148	0x3e75d947	0.24008666
149	0x3dab1490	0.08353531
150	0x3e06973a	0.13143626
151	0x3e3c6380	0.18397331
152	0xbeb422a4	-0.3518268
153	0xbdff744b	-0.12473353
154	0x3e7290b5	0.23688014
155	0xbe119054	-0.14215213
156	0x3efd5387	0.4947779
157	0xbda3ab55	-0.07991663
158	0x3c7481eb	0.014923553
159	0xbedc99a2	-0.43085963
160	0x3c5375f2	0.012906538
161	0x3c3820ea	0.011238316
162	0xbc73302f	-0.014843031
163	0xbe832651	-0.2561517
164	0x3d0fe25f	0.035127994
165	0x3e7468ea	0.23868147
166	0x3c66d139	0.0140879685
167	0x3c59c364	0.013291214
168	0x3df4f7e7	0.11961346
169	0xbe0f4658	-0.13991678
170	0xbe472397	-0.1944717
171	0x3e0172f8	0.12641513
172	0xbccd10e0	-0.02503246
173	0x3dcfe3d3	0.10150876
174	0x3de65944	0.11247495
175	0xbe8d4ce2	-0.2759772
176	0x3e628c77	0.22123896
177	0x3e47294b	0.19449346
178	0x3df9834e	0.121832475
179	0xbd47160c	-0.04860501
180	0x3b8d8bb4	0.0043196324
181	0x3dcc3633	0.09971275
182	0xbe815d61	-0.25266555
183	0xbeaacf72	-0.33361393
184	0xbe83db63	-0.25753316
185	0xbbd92c61	-0.006627605
186	0x3d4705f6	0.04858967
187	0xbdf49407	-0.119422965
188	0xbe74c4f7	-0.23903261
189	0x3d25c2d6	0.040469013
190	0x3d26142b	0.040546577
191	0xbdda2e3e	-0.10653351
192	0x3edb0ab4	0.42781603
193	0x3ebbf15a	0.36707574
194	0x3da507ea	0.0805815
195	0xbec19c13	-0.37814388
196	0xbc9125e4	-0.017718263
197	0xbc18adc8	-0.009318776
198	0x3e6f4258	0.23365152
199	0x3e1baef0	0.15203452
200	0xbc7cb20e	-0.015423311
201	0x3e0059cb	0.12534253
202	0xbc8fe006	-0.017562877
203	0x3db70cf3	0.08938017
204	0xbe038d59	-0.12846889
205	0x3dac2e04	0.08407214
206	0x3e330dee	0.17485783
207	0x3ee16e3f	0.44029424
208	0x3e4e31c9	0.20136179
209	0x3d50808c	0.05090384
210	0xbe3bae06	-0.18328103
211	0x3ebe6a5e	0.37190527
212	0x3e8c429c	0.2739457
213	0x3e47fc11	0.1952975
214	0xbbda6be8	-0.0066656955
215	0x3d952b72	0.07283677
216	0xbc935071	-0.017982693
217	0x3e8652e9	0.2623513
218	0xbdf92da9	-0.12166912
219	0xbe6c37f5	-0.23068221
220	0x3e90c9d6	0.2827899
221	0xbe4a5ef3	-0.19762783
222	0x3e3e11c4	0.18561465
223	0x3e38b400	0.18037415
224	0x3e9dcacc	0.30818784
225	0x3dd28bdb	0.102805816
226	0xbdb08c6d	-0.08620534
227	0xbe4508ac	-0.1924159
228	0xbcdb1eb7	-0.026748044
229	0xbdd75576	-0.10514347
230	0xbe1fad22	-0.15593389
231	0xbd512d30	-0.051068485
232	0xbe9f91c2	-0.31165892
233	0xbe48c033	-0.19604568
234	0xbd8e39e6	-0.06944637
235	0x3d304e20	0.043043256
236	0x3e7777bc	0.24166769
237	0x3da483b0	0.0803293
238	0x3e1bce06	0.1521531
239	0xbd5576b6	-0.052115165
240	0xbe863a83	-0.26216516
241	0xbdf1bf07	-0.11804014
242	0xbdc7d86e	-0.097580776
243	0x3dd50766	0.10401802
244	0xbe008b24	-0.12553078
245	0x3ea7d9c8	0.3278334
246	0xbdb027c8	-0.08601338
247	0x3deb9f35	0.11504976
248	0x3eafadc0	0.34312248
249	0x3db9f123	0.09079196
250	0x3e45d845	0.19320782
251	0xbde4c284	-0.111699134
252	0xbd8f9585	-0.070109405
253	0xbd59677a	-0.0530772
254	0x3d87a98a	0.06624134
255	0xbd76ee94	-0.06028612

actor.2.bias f4 [256]
0	0xbcad6f7d	-0.021171326
1	0xbdbd42b7	-0.092412405
2	0x3da7175c	0.08158752
3	0x3e1e99ab	0.15488307
4	0x3e25f468	0.16206515
5	0xbe4803bb	-0.19532673
6	0x3e1e366b	0.15450446
7	0xbe77774c	-0.24166602
8	0x3d24bad7	0.040217247
9	0xbe1df87a	-0.15426818
10	0x3d9d4db7	0.076808386
11	0xbdee6d82	-0.11641981
12	0x3d98306e	0.07431112
13	0xbd8523d7	-0.065009765
14	0xbd13a766	-0.036048315
15	0x39f2f52e	0.0004634051
16	0xbcd2b3a9	-0.025720434
17	0xbd9e426e	-0.07727514
18	0x3dbb2927	0.091387086
19	0xbdacd3a8	-0.08438808
20	0xbe67a812	-0.22622707
21	0xbd16bde9	-0.036802206
22	0x3dace58e	0.084422216
23	0xbcbcc865	-0.023044774
24	0xbd129220	-0.035783887
25	0xbd9a9e69	-0.075497456
26	0x3e446cef	0.1918218
27	0xbe0d3984	-0.13791472
28	0xbdecb01a	-0.11557026
29	0x3c94964d	0.018138075
30	0x3d030f4b	0.031997006
31	0x3daffefc	0.08593556
32	0xbcf67467	-0.030084802
33	0xbd68d916	-0.056847654
34	0xbd81b667	-0.063336186
35	0x3e0eb0bb	0.13934605
36	0x3cd3922e	0.02582654
37	0xbdaafbdd	-0.0834882
38	0x3b04025d	0.002014301
39	0x3d0936b2	0.033499427
40	0xbe21c1e0	-0.15796614
41	0x3d226d05	0.03965475
42	0xbd081e36	-0.033231936
43	0xbd447f99	-0.04797325
44	0x3d6b36c0	0.05742526
45	0x3cba5b86	0.02274872
46	0x3c541215	0.012943764
47	0x3e39be0a	0.181389
48	0xbcc2055c	-0.023684196
49	0x3b232b79	0.0024897738
50	0xbd611f4a	-0.05496148
51	0xbdbfb0e8	-0.09359914
52	0xbd4f0608	-0.05054286
53	0xbdd014dd	-0.10160229
54	0x3dc7ba0e	0.09752284
55	0xbcb530cc	-0.022117995
56	0xbe245fc4	-0.16052157
57	0x3dbb4b79	0.09145255
58	0x3d12e6d7	0.035864677
59	0x3d059631	0.032613937
60	0xbdfa561f	-0.122234575
61	0x3e141069	0.14459385
62	0x3e2a3f87	0.16625796
63	0x3dfb8427	0.122810654
64	0xbca4fd18	-0.020140216
65	0x3ddccc19	0.10781116
66	0xbbd12fc9	-0.0063838703
67	0x3d62231a	0.055209257
68	0x3d325432	0.043537326
69	0xbd6d499f	-0.05793154
70	0x3d2fb627	0.042898323
71	0x3dd21d1c	0.102594584
72	0x3d3fbe53	0.046812367
73	0xbd796e06	-0.060895942
74	0xbe3ca6ad	-0.18422957
75	0xbe4c46b1	-0.19948842
76	0x3dbf0d5b	0.09328719
77	0xbda8840a	-0.082283095
78	0x3dffe066	0.124939725
79	0x3e3ced4f	0.18449901
80	0xbdd50bd1	-0.104026444
81	0x3d136a94	0.035990313
82	0xbd1c818e	-0.03820949
83	0x3e027ff3	0.12744121
84	0x3cd5945f	0.026071725
85	0x3e8fb3ae	0.28066772
86	0xbd48c239	-0.04901335
87	0x3c79574f	0.01521857
88	0xbdf2db3f	-0.11858224
89	0x3dbafc85	0.091301955
90	0x3d8262cb	0.063664995
91	0x3cf9f917	0.030514283
92	0xbcb87901	-0.022518637
93	0x3cd54690	0.026034623
94	0xbd86c639	-0.06580777
95	0x3df03e50	0.11730635
96	0x3dbf63d6	0.09345214
97	0xbcc7c346	-0.024385106
98	0xbd0a6532	-0.033787914
99	0xbe271621	-0.16317035
100	0xbcb3621e	-0.021897372
101	0x3e0cd49d	0.1375298
102	0xbe20faf5	-0.15720733
103	0xbd332650	-0.04373771
104	0x3db5a658	0.08869618
105	0x3d59d858	0.053184837
106	0xbd9cbc05	-0.076530494
107	0xbd96c3d2	-0.073615685
108	0x3d867501	0.065652855
109	0xbda43fe0	-0.08019996
110	0x3e4e4d66	0.20146713
111	0x3e049854	0.12948734
112	0xbd1ab0c5	-0.037766237
113	0xbcc53401	-0.024072649
114	0x3ce57727	0.028010918
115	0x3d5f6761	0.05454195
116	0xbd424b9c	-0.047435388
117	0xbda64419	-0.08118457
118	0x3e1c5378	0.15266216
119	0x3d8a376b	0.067488514
120	0x3d881223	0.06644084
121	0xbd86afda	-0.0657651
122	0xbd3a2bd1	-0.045451943
123	0x3d75d52a	0.060017742
124	0xbe4c9e08	-0.19982159
125	0xbd56b9fa	-0.052423455
126	0xbc9e3f93	-0.019317424
127	0x3b427bb5	0.0029675786
128	0x3e0f9d77	0.14024912
129	0xbd96e794	-0.07368389
130	0xbd1ba739	-0.038001273
131	0x3da7559d	0.08170626
132	0x3d979ebe	0.074033245
133	0xbcdb7ac1	-0.026791932
134	0xbdf600bb	-0.12011858
135	0x3c681cf3	0.014167058
136	0x3d51b509	0.05119804
137	0x3d1c2c12	0.038127966
138	0xbd722c86	-0.059124492
139	0xbdded7b8	-0.10880989
140	0xbde8a55a	-0.11359663
141	0x3caf758e	0.02141836
142	0xbaa50deb	-0.0012592649
143	0x3d490755	0.049079258
144	0xbca1d485	-0.019754658
145	0xbca8fec7	-0.0206293
146	0x3e46a436	0.19398579
147	0x3e2ea2e8	0.17054331
148	0xbd6d649a	-0.05795727
149	0x3b61b5fe	0.0034440751
150	0xbd993f0c	-0.07482728
151	0xbd11c838	-0.035591334
152	0xbd78c53d	-0.060734976
153	0x3d70c2cc	0.058779523
154	0x3e417996	0.18894038
155	0x3e532555	0.2061971
156	0x3e145e3e	0.14489076
157	0x3cb85dff	0.022505758
158	0xbe360b9f	-0.1777787
159	0x3d42ccf7	0.04755875
160	0xbe28ae7f	-0.16472815
161	0xbe020200	-0.12696075
162	0x3d7c4dd3	0.061597656
163	0x3e1fce2a	0.15605989
164	0xbd1d0af8	-0.03834054
165	0x3cf18dc9	0.029486554
166	0xbd77e556	-0.060521446
167	0xbde1854d	-0.11011753
168	0x3c5fc1ef	0.013657077
169	0xbe0328f4	-0.12808591
170	0x3cff1164	0.031136222
171	0x3d927c2d	0.07152591
172	0xbda9c5bb	-0.08289667
173	0xbe3e919a	-0.1861023
174	0xbd1f8a34	-0.03895016
175	0xbe28a6a2	-0.16469815
176	0x3d7211c3	0.05909897
177	0xbe4cb04c	-0.19989127
178	0xbd990e8c	-0.07473478
179	0x3db3dca8	0.08782321
180	0x38bc4f50	8.979312e-05
181	0x3e110253	0.14161043
182	0xbd5d492c	-0.05402486
183	0xbdcc8aa2	-0.099873796
184	0x3d36989f	0.044579145
185	0x3e0db75d	0.13839479
186	0xbdf46b36	-0.11934511
187	0xbd562cf2	-0.052288957
188	0xbdf12bcd	-0.117759325
189	0xbdf00faa	-0.11721738
190	0x3d8214d0	0.06351626
191	0x3d6f3e15	0.058408815
192	0x3d83dbc9	0.06438405
193	0x3e54d6ac	0.20785016
194	0xbda3eb93	-0.080039166
195	0x3e057573	0.13033085
196	0xbd29727a	-0.04136894
197	0x3c2a0c8d	0.010378969
198	0x3d529234	0.05140896
199	0x3dd5c77f	0.104384415
200	0x3cc21495	0.023691455
201	0xbc8258ea	-0.015911538
202	0x3d5520fd	0.052033413
203	0x3e67443c	0.22584623
204	0x3d1c2271	0.038118783
205	0x3c7a47af	0.01527588
206	0xbc236a65	-0.009974097
207	0xbda5fe8d	-0.08105192
208	0x3cb1fac3	0.021726018
209	0x3ebb3ca1	0.36569694
210	0xbe346eb0	-0.17620349
211	0x3e0d6342	0.13807395
212	0x3d8225e2	0.06354882
213	0x3e1fe4e9	0.15614666
214	0xbe45503a	-0.19268885
215	0x3e1e6d74	0.1547144
216	0xbe30e649	-0.17275347
217	0xbcbf77e4	-0.023372598
218	0xbdb71a9a	-0.08940621
219	0x3d276870	0.040871084
220	0xbd3f3b70	-0.046687543
221	0x3e1a5b52	0.15073898
222	0x3d5170c8	0.051132947
223	0xbc5ac6cb	-0.01335306
224	0x3c4879c3	0.0122360615
225	0x3bbcc4ba	0.0057607563
226	0xbdfc4bee	-0.1231917
227	0xbe019449	-0.12654223
228	0x3da96296	0.08270757
229	0x3c9be5fd	0.019030565
230	0x3cf21f2f	0.029555885
231	0xbe7df3a7	-0.24799977
232	0xbe5c3659	-0.21505107
233	0x3e8fcd37	0.28086254
234	0x3e340bf9	0.17582692
235	0x3ddb0064	0.10693434
236	0xbe05f216	-0.1308063
237	0x3c3ac4d9	0.011399471
238	0xbbb21329	-0.005434413
239	0xbca710e4	-0.020393796
240	0xbc8ba10f	-0.017044572
241	0x3e0ea4c7	0.13930045
242	0xbe01bb14	-0.12669021
243	0x3dbe151d	0.09281371
244	0x3dd5b433	0.10434761
245	0x3d27d3a9	0.04097334
246	0x3cdfc591	0.027315887
247	0xbd5760bd	-0.05258249
248	0x3d349647	0.04408863
249	0x3c3aee52	0.011409359
250	0xbdad770f	-0.08469974
251	0x3df5f196	0.120089695
252	0x3d3db845	0.04631831
253	0x3dd76380	0.10517025
254	0xbe1aba71	-0.15110184
255	0x3a8d5cca	0.00107851

actor.4.weight f4 [4, 256]
0	0xbe7e0313	-0.2480586
1	0x3e919704	0.28435528
2	0x3eda851f	0.42679688
3	0xbd8dbe3e	-0.069210514
4	0x3ecc01af	0.39845034
5	0xbeb4d8fb	-0.35321793
6	0xbee8a694	-0.4543959
7	0x3e9cb1d5	0.30604425
8	0xbe8810fb	-0.26575455
9	0xbe768aae	-0.2407634
10	0x3e2e7936	0.17038426
11	0xbec3c975	-0.38239637
12	0x3eec0ca5	0.46103397
13	0xbf07da30	-0.530673
14	0x3f2ec14c	0.682637
15	0xbea5791c	-0.32318962
16	0xbd1d56bd	-0.0384128
17	0x3e82f529	0.25577667
18	0x3e7cbc78	0.2468127
19	0xbccad514	-0.024759807
20	0xbd2018cd	-0.039086152
21	0x3e590185	0.21191986
22	0x3f0856e4	0.53257585
23	0xbe7e2367	-0.24818192
24	0x3f00d4c1	0.50324637
25	0xbe48dcbd	-0.19615455
26	0xbd76ea1c	-0.060281858
27	0xbed4004a	-0.4140647
28	0x3e66f328	0.22553694
29	0x3c00cb53	0.007860976
30	0xbe1bf737	-0.15231024
31	0xbd7abbea	-0.061214365
32	0xbe9cc779	-0.30620936
33	0x3e97d6b8	0.29656005
34	0x3df5b668	0.11997682
35	0xbe99d4a2	-0.30045038
36	0xbf0b8ea8	-0.5451455
37	0xbeee4d49	-0.4654334
38	0x3bb4a786	0.0055131344
39	0x3e87e76d	0.2654375
40	0x3bee52bc	0.0072730463
41	0x3d3caf7c	0.046065792
42	0xbe082e76	-0.13298973
43	0xbd19a4a2	-0.03751052
44	0x3df9929c	0.12186167
45	0xbeacb950	-0.33735132
46	0x3dc31fa5	0.0952752
47	0x3eb6dff7	0.35717747
48	0xbeb67181	-0.35633472
49	0xbd384463	-0.044987094
50	0xbe9b4c29	-0.30331543
51	0xbd400676	-0.04688116
52	0xbe9cf6cd	-0.30657044
53	0x3e738a70	0.23783278
54	0xbd2c3b0c	-0.0420485
55	0x3eda45c4	0.42631352
56	0xbe6192a3	-0.22028594
57	0x3ddabbc9	0.106803484
58	0x3f11af3b	0.56908005
59	0xbe75b629	-0.2399527
60	0x3e04391f	0.12912415
61	0x3ea346bc	0.31889904
62	0x3d5119c2	0.051049955
63	0x3e826572	0.25468022
64	0xbd934a16	-0.07191865
65	0xbdd8e6af	-0.105908744
66	0xbecd84e3	-0.40140447
67	0x3dce946c	0.10086903
68	0x3f0219ef	0.5082082
69	0x3e4ee4d9	0.20204486
70	0xbe4a6cba	-0.19768038
71	0x3ccb90bd	0.02484929
72	0x3bd0f0a5	0.0063763433
73	0xbedbefad	-0.42956296
74	0x3ea93c20	0.33053684
75	0x3e85ea0d	0.2615513
76	0xbe93e7eb	-0.28887877
77	0xbe80ad08	-0.25132012
78	0xbec4df84	-0.3845178
79	0xbdcfa447	-0.10138755
80	0xbdbc6c17	-0.09200304
81	0xbe90bda0	-0.28269672
82	0x3eceecab	0.40414938
83	0x3f0456ee	0.51695144
84	0x3e348a42	0.17630866
85	0x3ef14478	0.4712255
86	0xbef8a2d2	-0.48561722
87	0x3ece23ad	0.40261593
88	0xbea49a6e	-0.3214907
89	0xbeec0e6a	-0.46104747
90	0xbe8b7a5b	-0.27241787
91	0x3ebfbf2f	0.3745055
92	0x3e967886	0.29388827
93	0xbe12a438	-0.14320457
94	0xbd61b5e1	-0.055105094
95	0x3e1aa8f1	0.15103509
96	0x3eac379e	0.33636183
97	0xbe970f50	-0.2950387
98	0x3e2021a2	0.1563783
99	0x3e201b7e	0.15635487
100	0xbbf4a915	-0.007466445
101	0xbeb3df4f	-0.35131308
102	0x3e999da4	0.30003083
103	0xbf31ffce	-0.6953095
104	0x3e49f71e	0.19723174
105	0xbe904df1	-0.28184465
106	0xbe8c0fa8	-0.27355695
107	0x3edcfd51	0.43162015
108	0xbe1771ce	-0.14789507
109	0xbe99c4f5	-0.3003308
110	0xbe897f82	-0.26855093
111	0xbdf3722e	-0.118870124
112	0xbedfecea	-0.4373544
113	0x3f06df7e	0.5268477
114	0xbd24e853	-0.040260624
115	0x3e0b595f	0.13608311
116	0x3eadafb1	0.33923104
117	0x3e10141f	0.14070176
118	0x3ec1eef6	0.37877625
119	0x3f1e765e	0.61899364
120	0x3ee1b620	0.44084263
121	0xbef336f7	-0.47502872
122	0xbd5120f8	-0.051056832
123	0xbe4e8192	-0.20166615
124	0x3e6130ee	0.21991321
125	0x3e47e742	0.19521812
126	0xbe9d7314	-0.3075186
127	0x3ed6ed92	0.41978127
128	0xbdc1e675	-0.09467784
129	0x3e54ad4b	0.20769231
130	0xbf1f6ce1	-0.6227551
131	0xbed39ff4	-0.41332972
132	0xbead133a	-0.3380373
133	0x3f0ca66e	0.5494145
134	0xbf1b78f3	-0.6073143
135	0x3e901e8a	0.281483
136	0xbd96010a	-0.07324417
137	0x3f1457dd	0.5794657
138	0xbf375b53	-0.71623725
139	0x3dabb968	0.08384973
140	0x3eca09ec	0.39460695
141	0xbee46c73	-0.4461399
142	0x3f119d06	0.56880224
143	0x3e020355	0.12696584
144	0xbe8d660a	-0.27616912
145	0x3efe002b	0.49609503
146	0x3e34e4aa	0.17665353
147	0x3e1803f2	0.14845255
148	0xbe8fdc21	-0.28097633
149	0x3ea4c819	0.32183912
150	0xbed3f73d	-0.41399565
151	0x3e5c50e9	0.2151524
152	0x3d20f34c	0.039294526
153	0xbcbdb21b	-0.023156216
154	0x3f17b308	0.59257555
155	0xbe707312	-0.23481396
156	0x3e724b2e	0.23661491
157	0x3e6dcb0f	0.23221992
158	0xbe70e86b	-0.2352616
159	0x3ee1a418	0.44070506
160	0x3f1344c2	0.5752679
161	0xbd9d0678	-0.076672494
162	0x3e9ded82	0.30845267
163	0x3e849bd7	0.25900146
164	0x3d7bfb00	0.06151867
165	0x3e87d152	0.26526886
166	0xbdc76b72	-0.097372904
167	0x3da4c218	0.08044833
168	0x3f283808	0.65710497
169	0xbe834988	-0.25642037
170	0xbeeb9e4f	-0.46019217
171	0xbe0948fb	-0.13406746
172	0x3f1a277b	0.6021649
173	0xbe1dc8f6	-0.15408692
174	0xbeafa77b	-0.34307465
175	0x3eb68fe1	0.35656646
176	0x3d5170d9	0.05113301
177	0xbeb2a797	-0.34893486
178	0x3eb1e7e6	0.34747237
179	0x3ceced6e	0.028921809
180	0x3f1ecec9	0.6203428
181	0x3e74950c	0.23884982
182	0xbe7ec58b	-0.24880044
183	0xbea29629	-0.31755188
184	0x3f01f6e4	0.5076735
185	0xbe9c8169	-0.30567482
186	0xbe9bb8c1	-0.30414394
187	0x3d5fffe8	0.05468741
188	0xbed26aa3	-0.41096982
189	0x3e658f9f	0.22418068
190	0xbecb1eb5	-0.39671865
191	0xbd81bb9d	-0.063346125
192	0x3da54a4d	0.080708124
193	0xbeafc5b2	-0.34330517
194	0xbd044542	-0.032292612
195	0xbe34a32e	-0.17640373
196	0x3f0ce9db	0.55044335
197	0x3f18c219	0.5967117
198	0xbefcabee	-0.49349922
199	0x3eacd8d6	0.33759183
200	0x3dac784a	0.08421381
201	0x3ef3ef81	0.47643664
202	0x3e82b626	0.25529593
203	0xbd91e0f5	-0.07122985
204	0xbe925c92	-0.2858625
205	0xbe1e5793	-0.15463094
206	0x3d664c00	0.056224823
207	0x3e6c5493	0.23079138
208	0x3ed9f2de	0.42568105
209	0xbefa74c6	-0.48917216
210	0x3ee6ead2	0.4510103
211	0xbe3a0886	-0.18167314
212	0xbed0f75d	-0.40813723
213	0xbe6c87eb	-0.23098724
214	0x3edf2127	0.4357998
215	0x3ddc14dd	0.10746167
216	0xbe736866	-0.23770294
217	0xbedb327f	-0.42811963
218	0xbe7b0c1f	-0.24516343
219	0xbdbb64a5	-0.09150056
220	0xbca8e4b8	-0.020616874
221	0x3ebed45f	0.372714
222	0xbe81d58e	-0.25358242
223	0x3e6866d2	0.22695473
224	0xbe465943	-0.19369988
225	0x3e65b001	0.22430421
226	0x3ec34840	0.3814106
227	0xbf130ee2	-0.57444584
228	0xbf050efa	-0.5197598
229	0x3cb75813	0.022380864
230	0xbc898477	-0.016786797
231	0x3dd6c501	0.10486794
232	0xbedddf58	-0.4333446
233	0x3e3339df	0.17502545
234	0x3d6a50d8	0.057206005
235	0xbe4f9959	-0.20273341
236	0x3ee953df	0.455718
237	0xbe184519	-0.14870109
238	0x3e90fe3b	0.28318962
239	0xbe6f19fa	-0.23349753
240	0xbeb859d6	-0.3600604
241	0xbeafed34	-0.3436066
242	0xbf363066	-0.711676
243	0xbe8add88	-0.2712214
244	0x3cd85869	0.026409345
245	0x3e4d7bdd	0.20066781
246	0xbe6b0aa0	-0.22953272
247	0xbe34de3e	-0.17662904
248	0x3edec6ab	0.43510947
249	0x3e458c52	0.19291809
250	0x3e1b4d96	0.15166315
251	0x3e2ac523	0.16676764
252	0xbf07f4dc	-0.53108
253	0xbdbfd559	-0.09366865
254	0x3e5bd870	0.21469283
255	0xbe43e02f	-0.19128488

actor.4.bias f4 [4]
0	0xbd8262c3	-0.063664936
1	0x3d4096fa	0.047018982
2	0xbcb4ac0f	-0.0220547
3	0xbd109ffc	-0.035308823

critic.0.weight f4 [256, 24]
0	0xbde77de9	-0.11303312
1	0x3d391c2b	0.04519288
2	0xbe6c79de	-0.23093364
3	0xbd46529e	-0.048418634
4	0x3d95b9fa	0.07310863
5	0x3ddc60d5	0.10760657
6	0x3d85c8d7	0.06532448
7	0x3e19b412	0.15010098
8	0xbd8d69ef	-0.06904971
9	0x37c47003	2.341718e-05
10	0xbc792c38	-0.0152082965
11	0x3debcd4b	0.11513766
12	0x3d956166	0.07293968
13	0x3dacc182	0.08435346
14	0x3e38a588	0.18031895
15	0x3d836e89	0.06417567
16	0x3dbfaccf	0.093591325
17	0xbe0618b5	-0.13095362
18	0xbe5f8d02	-0.21831134
19	0xbcd3577b	-0.02579855
20	0x3deb5678	0.11491102
21	0xbd519594	-0.05116804
22	0x3e33d401	0.17561342
23	0xbd613342	-0.054980524
24	0xbe0cac17	-0.13737522
25	0x3d8a80a0	0.067628145
26	0x3ba70152	0.005096593
27	0xbe14cfe0	-0.14532423
28	0xbd746111	-0.059662882
29	0xbb38700c	-0.0028142957
30	0xbdbf445e	-0.09339212
31	0x3b9f5d31	0.004863404
32	0x3e085719	0.13314475
33	0xbde46507	-0.11152082
34	0x3e5310e4	0.20611912
35	0xbd09d7ba	-0.033653
36	0x3dccb0e1	0.099946745
37	0x3e012d74	0.12614995
38	0x3deb6309	0.11493499
39	0x3e47f9a9	0.19528832
40	0xbdb24ac7	-0.08705669
41	0xbcd0afe8	-0.025474504
42	0xbd2de831	-0.042457763
43	0x3d8c8733	0.06861725
44	0x3dcb7bf0	0.099357486
45	0xbe268c8f	-0.16264556
46	0x3e207f21	0.15673496
47	0xbdedc980	-0.11610699
48	0x3c5420fe	0.012947319
49	0xbddea57c	-0.108714074
50	0xbd931652	-0.07181992
51	0xbc5d98d5	-0.0135252075
52	0xbe2e3f80	-0.17016411
53	0x3e0b3fbd	0.13598533
54	0xbd4fc76f	-0.050727304
55	0xbb436b25	-0.0029818502
56	0x3d835e17	0.064144306
57	0xbdd6bd6c	-0.10485348
58	0xbd16c3f5	-0.036807973
59	0xbda9ec00	-0.082969666
60	0xbe2df266	-0.16986999
61	0x3c07d718	0.008291028
62	0x3e0d9a76	0.13828453
63	0x3e0f47e7	0.13992272
64	0x3c7033f1	0.014660821
65	0x3d0e210e	0.034699492
66	0x3e3ec86a	0.1863114
67	0xbe3c75d9	-0.1840433
68	0x3e272583	0.16322903
69	0xbe2ca8b9	-0.16861238
70	0xbd74c744	-0.059760347
71	0x3daca0c1	0.08429099
72	0xbda022e7	-0.07819157
73	0x3e11796a	0.14206472
74	0x3d661617	0.05617341
75	0x3e0f3f28	0.13988936
76	0xbd8c6fd9	-0.06857271
77	0xbd94567d	-0.07243059
78	0x3dee64a1	0.11640287
79	0xbdfa70b5	-0.122285284
80	0x3dca1671	0.098675616
81	0x3ded1abe	0.11577366
82	0xbd4df7fe	-0.050285332
83	0xbde64913	-0.112444066
84	0xbcd9f657	-0.026606722
85	0xbe4a1754	-0.19735461
86	0xbd6f2d3d	-0.058392752
87	0xbe2c69f7	-0.16837297
88	0xbdca0da8	-0.09865886
89	0x3d9b4289	0.0758105
90	0xbe4541f1	-0.19263436
91	0xbe2ec29f	-0.1706643
92	0x3db8a938	0.09016651
93	0x3e1bda5f	0.1522002
94	0xbcc91d2d	-0.024550045
95	0x3dc1a6d9	0.09455652
96	0x3d32fce9	0.043698225
97	0x3d9b2938	0.07576221
98	0x3e3d9d3d	0.18517013
99	0x3e1f8fe0	0.15582228
100	0x3d37b76f	0.04485267
101	0xbd8d12b5	-0.06888334
102	0xbe352803	-0.17691045
103	0xbe2872cf	-0.16450046
104	0x3e04ac85	0.12956436
105	0x3d6bd39f	0.057574864
106	0xbdd87e39	-0.1057095
107	0x3e126759	0.14297237
108	0xbe3d4000	-0.18481445
109	0xbe5e3a52	-0.21701935
110	0xbe0396e8	-0.12850535
111	0x3e063de8	0.13109553
112	0xbd9672e8	-0.073461354
113	0xbca1d32e	-0.019754019
114	0xbe3e3a3c	-0.18576902
115	0xbd119e94	-0.035551623
116	0xbe54b3b3	-0.20771675
117	0x3dda064e	0.10645734
118	0xbd53e32a	-0.051730312
119	0x3e13b56b	0.14424674
120	0x3d050ac6	0.032480977
121	0x3cb91b7e	0.022596117
122	0xbe4de590	-0.20107102
123	0xbe190397	-0.14942776
124	0xbe45c6b1	-0.19314076
125	0x3d9155a8	0.07096416
126	0xbe15b4cf	-0.14619754
127	0xbdc694b0	-0.09696329
128	0xbe1dce5f	-0.15410756
129	0xbe1e6050	-0.15466428
130	0x3dcfbc80	0.101433754
131	0x3d008116	0.031373106
132	0x3de7be42	0.11315586
133	0x3e158c73	0.14604358
134	0x3e3dfef0	0.18554282
135	0xbd0571e2	-0.03257931
136	0xbd99d73e	-0.07511757
137	0x3df21e36	0.118221685
138	0xbd292b06	-0.041300796
139	0x3df449c5	0.11928133
140	0x3e13bee7	0.14428292
141	0x3db765d1	0.08954967
142	0xbd4d6805	-0.05014803
143	0xbd89e8e6	-0.06733875
144	0x3e368cc2	0.17827132
145	0x3d43939f	0.047748204
146	0xbe1adb25	-0.1512266
147	0xbdd8a350	-0.105780244
148	0xbe2ca08c	-0.16858119
149	0x3c3bf522	0.011472018
150	0x3e1ecce4	0.15507847
151	0xbd719f67	-0.05898991
152	0xbce63c85	-0.02810503
153	0xbd967a59	-0.07347555
154	0xbdccb2f4	-0.0999507
155	0xbdf50988	-0.119647086
156	0x3d037eba	0.032103278
157	0x3e1eb1bc	0.15497488
158	0x3e03d581	0.12874414
159	0x3da55b39	0.0807404
160	0x3e0572c0	0.13032055
161	0x3da381f8	0.07983774
162	0x3e3b07e2	0.18264726
163	0x3e30143e	0.17195222
164	0xbdfb4bbb	-0.12270304
165	0xbdd1f2b3	-0.10251369
166	0x3de722bc	0.11285922
167	0x3d747312	0.059680052
168	0xbd4a1d5e	-0.049344413
169	0xbe140c6a	-0.1445786
170	0x3d2140bc	0.039368376
171	0x3e16eec8	0.14739525
172	0x3c3538a1	0.011060865
173	0xbd715582	-0.058919437
174	0xbdf3dc0c	-0.11907205
175	0xbcc355b8	-0.023844585
176	0x3e361543	0.17781548
177	0x3d0039d2	0.03130514
178	0xbbb709d4	-0.0055858884
179	0x3e2ce09d	0.16882558
180	0xbdc80420	-0.09766412
181	0xbe2dd801	-0.1697693
182	0x3ba50d00	0.00503695
183	0xbd630a09	-0.055429492
184	0xbe1cc402	-0.15309146
185	0xbe36c17f	-0.1784725
186	0xbd1008b3	-0.035164546
187	0xbd668b01	-0.05628491
188	0xbdb4012b	-0.08789285
189	0x3d29e03d	0.041473616
190	0xbd842b6c	-0.064535946
191	0xbd65af48	-0.056075364
192	0xbd98a93f	-0.07454156
193	0xbe2f6229	-0.17127289
194	0x3e0530dc	0.1300692
195	0xbe3db276	-0.18525109
196	0xbd0a3a11	-0.033746783
197	0xbd1cf5fc	-0.038320526
198	0xbcbeef19	-0.02330737
199	0xbe23bf6d	-0.15990992
200	0x3e1b9d9d	0.15196843
201	0x3ad0cc4c	0.0015930026
202	0xbdcc71b3	-0.09982624
203	0x3e380882	0.17971995
204	0x3ce19acd	0.027539635
205	0xbca7d085	-0.020485172
206	0xbe0644ed	-0.1311223
207	0x3bc3c4db	0.0059743947
208	0x3df197f6	0.117965624
209	0x3d90da23	0.07072856
210	0xbcca8175	-0.024719933
211	0xbd1046f5	-0.03522392
212	0xbde8a692	-0.11359896
213	0x3e0c8f27	0.13726483
214	0x3dfec6bf	0.124402516
215	0xbda25287	-0.07925897
216	0x3db4a88a	0.08821209
217	0x3db22db7	0.08700126
218	0x3e18cfbc	0.14922994
219	0xbe145b68	-0.14487994
220	0xbe615a0a	-0.22007003
221	0xbde65fa9	-0.112487145
222	0x3e215323	0.1575437
223	0x3c66ce1b	0.014087225
224	0x3def2885	0.1167765
225	0xbe31187e	-0.172945
226	0x3e03ca9b	0.12870257
227	0x3ddd7a5d	0.108143546
228	0x3c9910c7	0.018684758
229	0xbd74dfda	-0.059783794
230	0x3db675e1	0.08909202
231	0x3c61c842	0.013780655
232	0xbe1d27ca	-0.1534721
233	0xbdd7421b	-0.105106555
234	0xbde0d5fb	-0.109783135
235	0xbdc768ab	-0.09736761
236	0x3d2c6a79	0.042093728
237	0xbe254d82	-0.16142848
238	0x3b405d99	0.0029352664
239	0xbdccc4ba	-0.0999846
240	0x3d653ed9	0.05596814
241	0xbdc12675	-0.09431163
242	0xbd8a459a	-0.06751557
243	0x3e382bb4	0.17985421
244	0x3d314f40	0.04328847
245	0xbe3fc963	-0.18729167
246	0x3dd3b4db	0.1033723
247	0xbe1ae90a	-0.1512796
248	0xbe099b38	-0.13438118
249	0x3d961849	0.07328851
250	0x3d2521ce	0.04031544
251	0xbde5f434	-0.11228219
252	0x3d25e481	0.04050112
253	0xbcd803e7	-0.026369048
254	0xbe011eeb	-0.1260945
255	0xbe53aff2	-0.20672587

critic.0.bias f4 [256]
0	0xbd9012dc	-0.07034847
1	0xbccfe493	-0.025377547
2	0xbdbcb8b2	-0.09214915
3	0xbd499db5	-0.049222667
4	0x3dd094e4	0.10184649
5	0x3e06b5a6	0.13155231
6	0xbda05c83	-0.07830145
7	0x3e19e6e8	0.1502949
8	0x3d1ec580	0.03876257
9	0x3e28d42f	0.16487192
10	0x3df3cef1	0.11904705
11	0xbda3f895	-0.08006398
12	0xbda8e4e8	-0.082467854
13	0xbdc22b81	-0.09480954
14	0x3d1fcefb	0.03901575
15	0x3d1a7309	0.037707362
16	0x3e0c9ac2	0.1373091
17	0xbc0a7465	-0.008450602
18	0xbddea885	-0.10871986
19	0x3e103e20	0.14086199
20	0x3c4cc764	0.01249871
21	0xbb5d36ba	-0.0033754543
22	0x3dd8f5d5	0.10593764
23	0xbd804f4e	-0.06265126
24	0x3db7c322	0.089727655
25	0x3d9b6b04	0.07588771
26	0xbd576e77	-0.05259558
27	0xbe1e0ac3	-0.15433793
28	0x3e438821	0.19094898
29	0x3d964169	0.07336695
30	0x3e1f737b	0.15571396
31	0xbe540dd8	-0.20708406
32	0xbd8c0c14	-0.06838241
33	0x3de88403	0.11353304
34	0x3cb82ed1	0.022483261
35	0xbe01702e	-0.1264045
36	0x3e0f27cb	0.13980024
37	0xbdeefa49	-0.11668832
38	0x3e145eec	0.14489335
39	0x3e106413	0.14100675
40	0xbde1c525	-0.110239305
41	0xbe4584df	-0.19288968
42	0x3e7063cd	0.23475571
43	0xbab84119	-0.0014057487
44	0x3dc9679b	0.09834214
45	0xbdcc04d2	-0.09961857
46	0xbc30b40d	-0.010785115
47	0xbe22581b	-0.15853922
48	0xbded41e6	-0.11584835
49	0x3bdaacad	0.0066734166
50	0x3b75dffe	0.0037517543
51	0x3a2db49d	0.000662634
52	0xba3a3d66	-0.0007104486
53	0x3dc9647d	0.0983362
54	0xbd757de3	-0.059934508
55	0x3b4d5ef5	0.0031337116
56	0x3da1e022	0.07904078
57	0xbe14d56a	-0.14534536
58	0xbe3d07d9	-0.18460025
59	0x3e2283b6	0.15870556
60	0xbd5b88eb	-0.053597372
61	0x3e1bdca7	0.15220891
62	0xbdce1dda	-0.100642875
63	0x3e346aba	0.17618838
64	0xbdc30c2a	-0.095238045
65	0xbde42d4e	-0.11141454
66	0xbda26071	-0.07928551
67	0xbdcce4b4	-0.10004559
68	0xbc73f8cd	-0.014890862
69	0x3da4e6c7	0.0805183
70	0x3e4af62e	0.19820473
71	0xbdd57071	-0.10421837
72	0x3e1ecceb	0.15507858
73	0xbd46741b	-0.04845057
74	0xbdda0c14	-0.10646835
75	0xbd952ad2	-0.07283558
76	0xbd07540f	-0.03303915
77	0x3d8e21f6	0.06940071
78	0xbe29358e	-0.16524336
79	0xbcb15831	-0.021648498
80	0xbd063288	-0.032763034
81	0xbe204ade	-0.1565356
82	0xbe1cbee2	-0.15307191
83	0xbe4a2a07	-0.19742595
84	0xbbc4a0af	-0.0060006003
85	0xbce29443	-0.027658587
86	0xbe628b15	-0.22123368
87	0xbd1c87e3	-0.03821553
88	0x3e521f75	0.20519812
89	0x3c752aea	0.014963845
90	0xbd42f796	-0.047599398
91	0x3d50dd3f	0.050992247
92	0x3e43aad3	0.19108133
93	0xbdde1436	-0.10843699
94	0x3c22cab3	0.009936023
95	0xbe2a8e0f	-0.16655754
96	0x3e25c39e	0.16187903
97	0x3d16a84c	0.036781594
98	0xbe2fd17f	-0.1716976
99	0x3e2ab2b4	0.16669732
100	0xbde9a720	-0.1140883
101	0xbe332369	-0.17493977
102	0xbdbefffb	-0.09326168
103	0xbdadbd68	-0.08483392
104	0xbd6c005c	-0.05761753
105	0x3d63fbbf	0.055660006
106	0xbdb4fab1	-0.08836878
107	0xbcdebf4e	-0.02719083
108	0xbcf0c14d	-0.029389048
109	0x3df70b9e	0.12062763
110	0xbd8c6ffd	-0.068572976
111	0xbe3d63a9	-0.18495049
112	0x3dd8ec9d	0.105920054
113	0xbbc17acb	-0.0059045306
114	0xbd9351cd	-0.07193337
115	0xbd89ed34	-0.06734696
116	0x3cec021e	0.028809603
117	0xbe0b8588	-0.13625157
118	0x3dbca008	0.09210211
119	0xbe3441a6	-0.17603168
120	0xb9e98de1	-0.0004454693
121	0xbdb1be20	-0.086788416
122	0xbdcb0f45	-0.09915022
123	0xbe055afc	-0.13022989
124	0xbdbaec2a	-0.09127076
125	0xbe0226e6	-0.12710151
126	0xbe457999	-0.19284667
127	0x3dbb06ce	0.09132157
128	0xbdf5d6b1	-0.1200384
129	0x3e202ee0	0.15642881
130	0xbc7636af	-0.015027686
131	0x3e2dd9e8	0.16977656
132	0x3dafe850	0.08589232
133	0x3dce556e	0.10074888
134	0x3d402082	0.046906002
135	0xbd55d79d	-0.052207578
136	0x3d8ccdf5	0.06875221
137	0x3d32c060	0.043640494
138	0xbdf2a0a3	-0.11847045
139	0x3e47dfe1	0.19518997
140	0x3e2760a2	0.16345456
141	0x3e12572a	0.14291063
142	0x3e255b97	0.1614822
143	0xbdc5bd9b	-0.09655305
144	0xbe31c033	-0.17358474
145	0x3dd72c06	0.10506444
146	0x3e1381bf	0.14404963
147	0xbe18dcc7	-0.1492797
148	0xbdddb639	-0.10825772
149	0xbd9d946b	-0.07694324
150	0xbe34a988	-0.17642796
151	0xbdc1be74	-0.09460154
152	0xbdc4b322	-0.09604479
153	0xbd8eeafa	-0.06978412
154	0xbc474e06	-0.012164598
155	0xbd11a186	-0.03555443
156	0x3d61a69f	0.055090543
157	0x3e469696	0.19393381
158	0xbd86e076	-0.06585781
159	0x3e0dd3a3	0.13850264
160	0x3e10090b	0.1406595
161	0xbe0fd7c3	-0.1404715
162	0x3dad7d5e	0.084711775
163	0x3d13a2ef	0.036044057
164	0xbe0b9247	-0.13630019
165	0xbbb5e102	-0.0055505047
166	0xbe4fc7a7	-0.20291005
167	0xbdf0cf51	-0.117582925
168	0xbc1bd18b	-0.009510408
169	0xbd43c02f	-0.047790702
170	0x3df16f11	0.11788762
171	0x3d680256	0.056642853
172	0xbe3c5bf1	-0.18394448
173	0x3d8d294f	0.068926446
174	0x3d2bc3eb	0.04193489
175	0x3cc5a9ee	0.02412888
176	0x3e37f98a	0.17966285
177	0xbc49c305	-0.012314563
178	0xbd6efcb6	-0.058346473
179	0x3e22d0d9	0.15899982
180	0xbca0059b	-0.019533923
181	0xbddf81da	-0.10913439
182	0x3dad0044	0.08447316
183	0x3babf484	0.0052476544
184	0xbda28368	-0.0793522
185	0xbe46b596	-0.19405207
186	0x3e1c8377	0.15284525
187	0xbc9077d2	-0.01763526
188	0xbd234aa1	-0.039866094
189	0xbdf5c3fb	-0.12000271
190	0x3defd124	0.11709812
191	0xbdc7a562	-0.09748341
192	0xbd834665	-0.06409911
193	0x3cf0243c	0.029314153
194	0xbddc946e	-0.10770498
195	0xbe36fdb4	-0.17870218
196	0x3df52482	0.11969854
197	0xbd43a9df	-0.047769424
198	0x3c368ef6	0.011142483
199	0xbe264f3e	-0.16241166
200	0xbc240d5e	-0.010012953
201	0x3d849b7d	0.064749695
202	0xbdcd947c	-0.10038087
203	0xbdd3e9af	-0.10347306
204	0x3e312b7b	0.17301743
205	0x3e1d73f3	0.15376262
206	0x3de5aeff	0.112150185
207	0x3e0d92a9	0.13825478
208	0x3e206eb2	0.15667227
209	0xbda1323d	-0.0787091
210	0x3d8d8fe8	0.069122136
211	0x3df609c8	0.120135844
212	0xbce4cd2f	-0.02792987
213	0x3d829f20	0.06378007
214	0x3d9fb470	0.077980876
215	0x3c036215	0.00801899
216	0xbde616a9	-0.11234791
217	0x3e4208cc	0.18948668
218	0xbe1a7299	-0.15082778
219	0xbbf256a7	-0.0073955837
220	0xbd131574	-0.03590913
221	0xbd0c3b9e	-0.034236543
222	0xbe2a1c7f	-0.16612433
223	0xbc846e2d	-0.016165817
224	0x3d3d28b2	0.04618139
225	0xbe547b5e	-0.20750186
226	0xbe38945e	-0.18025348
227	0x3e4a08de	0.19729945
228	0x3dc277fb	0.09495541
229	0xbc289dd9	-0.01029154
230	0xbe1cfb21	-0.15330173
231	0x3d926c31	0.07149542
232	0xbc2b3fad	-0.010452193
233	0x3d605d28	0.05477634
234	0xbe086b9d	-0.13322301
235	0x3da6798f	0.08128654
236	0x3d8c5a9d	0.068532206
237	0xbc4df941	-0.012571634
238	0xbe142c8d	-0.1447012
239	0xbcee1bc3	-0.029065972
240	0x3d1d9529	0.03847233
241	0x3de9c67d	0.11414812
242	0x3e5e6bc3	0.21720795
243	0xbd97a9a8	-0.07405406
244	0x3e109446	0.14119062
245	0x3d2923a4	0.041293755
246	0xbd77c30d	-0.06048875
247	0xbddfb2b3	-0.10922756
248	0xbbf60816	-0.007508288
249	0x3b88afbe	0.0041713407
250	0xbe2cfc05	-0.16893013
251	0xbe3ff0aa	-0.1874415
252	0x3c117ff4	0.008880604
253	0xbd9a909e	-0.07547115
254	0xbe3b48a6	-0.18289432
255	0xbdd833c6	-0.1055675
