logs/CartPole-v1/experiment-2020-04-19_11_15_22/checkpoint.pth (torch_old, 54666 bytes, 14 tensors)

fc1.weight f4 [64, 4]
000000 11 1c 6b 3d 14 6a 02 3d 1f 32 84 bd 53 a0 26 bd
       0.057399813 0.031839445 -0.06454872 -0.04068024
000010 a8 98 39 bd 68 af 2d bd 00 fc 8b ba d0 ed 9b 3d
       -0.0453116 -0.04240361 -0.001067996 0.076137185
000020 60 65 ae 3b e4 90 28 bd ea 8a d7 3d a0 02 b9 bd
       0.0053221434 -0.041153803 0.10524543 -0.09033704
000030 4d df 09 3d 4f 32 d8 bd d7 58 93 3d 1d b4 d5 3c
       0.03366022 -0.105564706 0.07194679 0.026086861
000040 9c 7e f9 bc 00 e7 c8 3c 02 ce 34 3d 9a e8 de 3c
       -0.03045588 0.024524212 0.044141777 0.027210522
000050 f8 f3 dc 3d 3c b0 cf bd 10 5f ce 3c 60 95 96 bc
       0.10788721 -0.10141036 0.025191814 -0.018381774
000060 1c f2 95 bd 3c 06 4e bd 3c 04 f2 bd f4 d0 17 3d
       -0.07321569 -0.050298914 -0.11817214 0.037064508
000070 88 6b 3c 3d 34 48 19 3d ec 86 5b 3d c0 9b d8 3c
       0.046000987 0.037422374 0.05359547 0.026441455
000080 36 eb 01 3d 76 43 c9 3d 00 26 0a bb 41 b7 59 bc
       0.031718455 0.0982732 -0.0021079779 -0.01328832
000090 58 86 b9 3d 0d 8b 6a 3d 5f 7e 92 bc d2 33 b0 bd
       0.09058827 0.057261515 -0.017882524 -0.08603634
0000a0 c4 9a 21 3d ca 40 af bd a2 39 d2 3d 64 be 2a bd
       0.039454237 -0.085572794 0.10264899 -0.041685477
0000b0 dc 28 83 3d 21 35 80 3d e3 ac 6a bd 0d 0e 79 bd
       0.06404278 0.062601335 -0.057293784 -0.060804415
0000c0 02 e2 e9 bc 4f 92 35 3d e5 35 1e 3d 05 1b da bd
       -0.028550152 0.044328984 0.038625617 -0.10649685
0000d0 b8 48 70 bd 47 0a e1 3d d9 aa 5c 3d 16 76 17 bc
       -0.0586631 0.109882884 0.05387387 -0.0092444625
0000e0 0c 8c a2 bd 30 c3 e8 bc c0 82 83 bc 64 66 4e 3d
       -0.07936868 -0.028413385 -0.016053557 0.050390616
0000f0 b7 9c 83 bc 40 4b 75 bd 9f ed ec bc 0c 36 33 bc
       -0.016065938 -0.059886217 -0.0289219 -0.010938179
000100 5c a0 4e 3d d8 08 19 3d f0 09 8b 3d 20 da 09 3d
       0.0504459 0.03736195 0.06789005 0.033655286
000110 f0 3a e5 bd 8b bd 49 bd e5 b6 35 bd 7d be fb bd
       -0.11192882 -0.049253028 -0.044363875 -0.12292192
000120 6c 3e e8 3c 58 1b 40 3d 85 d9 dd bd d1 5a 9b 3c
       0.028350078 0.046901077 -0.10832504 0.018964203
000130 f3 1d 4c bd 57 a2 8a bd 95 73 73 bd 0d 5a 75 bd
       -0.04983325 -0.06769245 -0.0594364 -0.059900332
000140 5e 86 f2 3d 00 9e e9 bd 00 da 4b ba 74 ab d1 bd
       0.11842035 -0.11407089 -0.000777632 -0.1023778
000150 29 0c 1d bd ce 2c 89 3d fb 37 d9 3d fd 28 74 3d
       -0.038341675 0.06697999 0.106063806 0.059609402
000160 49 1e b2 bd 0a bf 14 3c 08 72 fb 3c 65 b1 a5 bd
       -0.08697183 0.00907875 0.030694023 -0.08090476
000170 75 1b 90 3d 30 85 bd 3d 07 c5 11 bd c3 3c 54 3c
       0.07036487 0.09253919 -0.03558829 0.01295394
000180 f0 62 18 bc d4 2e 8a 3d 40 8a 43 bc de 92 fc 3d
       -0.009300932 0.06747213 -0.011934817 0.123327
000190 db 73 60 bd f2 61 a1 bd ef 6e 4e bd aa 35 ee 3d
       -0.05479799 -0.0788001 -0.050398763 0.11631329
0001a0 50 ba 69 bc 4c 1e 54 3d be 6e bc bd 46 85 94 3d
       -0.014265612 0.051786706 -0.0920081 0.072519824
0001b0 f9 44 6a 3d 98 62 9b 3d 88 a0 54 3d 98 cb cb bd
       0.057194684 0.07587165 0.051910907 -0.09950942
0001c0 b4 f5 2e bd 70 c8 0a 3d 8e 36 a0 bd 4e 12 8b bd
       -0.04271479 0.03388256 -0.078229055 -0.06790601
0001d0 5d 09 df 3c cb 03 b8 bd 42 de 21 3e 7f 0d 0e bc
       0.027226144 -0.089850985 0.15807441 -0.00867021
0001e0 86 85 0e 3d 27 49 d4 3c 31 11 76 bd 54 6b ba 3c
       0.034795307 0.025913788 -0.06007499 0.022756256
0001f0 6f ec d1 bd bb 39 fe bd db a8 6b 3d 15 e3 43 bd
       -0.10250174 -0.12413355 0.05753408 -0.047823984
000200 12 ed b2 bd cb 31 b3 bd 6a e9 7a bd 1c 78 87 3c
       -0.08736624 -0.08749732 -0.061257757 0.016536765
000210 4c 30 7a 3d 9c 47 11 3d 38 88 10 3d 0a 1c ff 3d
       0.061081216 0.035468683 0.03528616 0.1245652
000220 d0 b3 0e 3c 3a 9b d2 bd 6c 37 e4 3d d0 2c a6 bd
       0.008709863 -0.10283513 0.111433834 -0.08114016
000230 64 8f 4c 3d c6 80 9d 3d 76 85 cc 3d a8 84 9e 3d
       0.049941435 0.07690577 0.09986393 0.07740146
000240 b2 e7 bc bd dc bf 76 bd 1e 1a 90 3d 2e 58 ee 3d
       -0.0922388 -0.060241565 0.070362315 0.11637913
000250 f0 e8 02 3c 05 be 3e 3d 6a a0 87 bd 52 e7 99 3d
       0.007990107 0.046567935 -0.066223934 0.07514824
000260 61 98 82 bd d9 bd 0a 3e 1c a9 ea bd 88 9b e3 bd
       -0.0637672 0.13548984 -0.11458036 -0.111136496
000270 32 6a b9 3c 1e 61 62 bb ef 7a 3d 3d 1d e4 cd bd
       0.022633646 -0.003454275 0.046259817 -0.10053275
000280 fe 96 28 3d e0 c9 bb 3d 7e 0f a3 bd 8b 87 00 bd
       0.041159622 0.09169364 -0.07961939 -0.031379264
000290 5b 5e a6 3d fb c7 ba 3d fc 53 12 3e 99 be b0 b9
       0.081234656 0.091201745 0.1428985 -0.00033711342
0002a0 41 6a 9c 3d d0 cf 2c 3c f0 2b 95 3d 50 35 11 3e
       0.07637454 0.010547593 0.07283771 0.14180493
0002b0 98 be d6 3d 88 df 23 bd 57 43 14 bc 54 4f ba bd
       0.104855716 -0.040008098 -0.009049258 -0.09097162
0002c0 d9 ca b4 3d ae 58 35 bd c4 6f 4c bc 4d 2a 79 bd
       0.088277526 -0.044274025 -0.012477819 -0.060831357
0002d0 e9 6f 94 bd 50 ef 0e bc ad a4 f4 3d 9a 58 d9 bc
       -0.07247908 -0.008724049 0.11945472 -0.026531506
0002e0 fb 6d ce bc 6f c6 b4 bd 2f 66 a0 bd 79 28 09 bc
       -0.025198927 -0.08826911 -0.0783199 -0.008371466
0002f0 c6 85 b9 bd 89 e5 0a 3e f5 0d 5f bd 08 f5 8b 3d
       -0.090587184 0.13564123 -0.05445667 0.068338454
000300 1c 73 a0 3d d4 18 80 3a 0d 4a fc 3c da 50 1c bc
       0.07834455 0.0009773024 0.030797029 -0.009540761
000310 c9 e9 3b bd b4 02 85 37 7a 46 92 3c 12 02 8d bd
       -0.04587725 1.5856094e-05 0.017855871 -0.068851605
000320 36 cc 9c bd 92 1d 90 bd eb f8 d6 3d 49 fd 2e 3d
       -0.07656138 -0.0703689 0.10496696 0.04272202
000330 5c 8b 2b 39 72 d2 93 3c da 37 b7 bd 33 ec f9 bd
       0.00016359746 0.018044684 -0.089462 -0.122032546
000340 e1 ef 16 be 0c 0b f5 bb 16 3e 61 3d 67 dc 3a bd
       -0.14739944 -0.0074781235 0.05499085 -0.04562035
000350 3a 5e 99 bd 6e c7 90 3b d2 6c c5 3c b5 36 16 bd
       -0.074886754 0.004418305 0.024099741 -0.036673266
000360 c8 e6 99 bc ae ed da 3d 80 f2 4d bd 86 62 ab 3d
       -0.018786803 0.10689865 -0.050280094 0.08368401
000370 d0 56 35 3d 30 4f f1 3c 40 75 5a bc 74 c1 05 3d
       0.044272244 0.029456705 -0.013333619 0.032655194
000380 78 a2 8d 3d f6 57 6c bd e4 90 1d 3d e1 3a 66 3d
       0.06915754 -0.057701074 0.038468257 0.056208495
000390 ad 4b ea bd ea 55 7e 3d 0a 5f 57 3d 0d 2b d8 bd
       -0.11440215 0.062093653 0.05258087 -0.10555086
0003a0 94 47 f0 bd 3e 7f ab bd be 81 b7 3d ba f6 8c 3d
       -0.117324024 -0.08373879 0.08960293 0.06882997
0003b0 e4 2c cd bd e0 e8 af 3d 46 b0 d8 39 d5 af 50 3d
       -0.10018328 0.08589339 0.00041330064 0.050948936
0003c0 20 5f dd bd 7b 25 44 bd 57 5f 1a bd 97 ad b2 3c
       -0.10809159 -0.047887307 -0.03768858 0.02181129
0003d0 76 36 09 3d bb 71 21 bd 3c 93 a6 bd 51 64 0e be
       0.033499204 -0.039415102 -0.081335515 -0.13905455
0003e0 d6 39 12 be 40 a7 ad 3d b0 77 33 bd 5f 77 ad bd
       -0.14279875 0.08479166 -0.043815315 -0.08470034
0003f0 e7 a8 c3 bd 48 2e 86 bc 0e 53 58 bd 34 c0 98 3d
       -0.095537 -0.01637949 -0.052813582 0.07458535

fc1.bias f4 [64]
000000 f4 81 9c 3e 90 41 22 bd b2 33 d6 be ea d8 88 3e
       0.30567896 -0.039613307 -0.41836315 0.26727992
000010 e3 35 81 3e 8a 40 8c be 5c 5e ac be 28 b4 b2 bd
       0.25236425 -0.2739299 -0.3366574 -0.08725768
000020 37 4e 95 3d de c8 81 be 40 ea 44 bc 95 d1 4b be
       0.07290309 -0.25348562 -0.01201874 -0.19904168
000030 c2 8e 4c be 9b 64 87 bd 28 25 43 be 78 64 d1 3e
       -0.19976333 -0.06610986 -0.19057143 0.40896964
000040 7b 08 09 3e 62 6b fb 3e 08 6f fe 3e 7c 69 02 3e
       0.13382141 0.49105364 0.49694085 0.12735552
000050 50 01 55 be 2b 55 b2 3e f3 fc f6 3c 32 93 c0 3e
       -0.20801282 0.34830603 0.030149912 0.376123
000060 30 a7 da bd 04 d0 ed 3e 15 85 d2 3d ea 3a ac bd
       -0.1067642 0.46447766 0.1027929 -0.084096745
000070 fc 02 a7 be ab be bd 3e e1 d2 da 3d c0 d4 44 3e
       -0.32619464 0.3705953 0.10684753 0.19221783
000080 5c 5d 38 3e 40 86 d3 bc 78 b3 80 be 94 d0 18 be
       0.18004364 -0.025820851 -0.25136924 -0.14923316
000090 80 58 b6 bc bb 99 ae 3e df d1 fd 3b 28 d4 05 be
       -0.022258997 0.34101662 0.007745966 -0.13069212
0000a0 09 85 90 bd 90 83 c6 3d ef f5 c4 3e 7c 40 ce 3e
       -0.070566244 0.09693062 0.38468882 0.40283573
0000b0 63 20 42 3b af 47 cf 3d 0d c0 d9 3e 96 22 85 3e
       0.0029621355 0.101210944 0.42529336 0.2600295
0000c0 6d c0 65 bd 89 02 ae 3e 9a 37 8a 3e 64 05 f5 bd
       -0.056091715 0.3398631 0.26995546 -0.11963919
0000d0 2b 41 6d 3e 98 1d ab 3d b4 16 3e be 70 a0 20 bd
       0.23169391 0.08355254 -0.18563348 -0.039215505
0000e0 32 1f e9 3e f1 37 49 3e ee 5a d3 be ff bb b3 3e
       0.45531613 0.19650246 -0.4128031 0.35104367
0000f0 02 49 21 3e 3a ea 94 3e b7 4f 17 3b 0b 12 75 3e
       0.15750507 0.2908495 0.0023088285 0.23932664

noisy2.weight_mu f4 [64, 64]
000000 83 14 c5 bd 7c 59 3a 3d ec 6f f1 3d ae 67 fd bd
       -0.09623053 0.045495495 0.117889255 -0.12373291
000010 e0 89 cd bd ee 20 95 3d 9c f6 b4 bd a0 45 9d bc
       -0.10036063 0.072816715 -0.088360995 -0.019198239
000020 2d c6 c5 bd 2c 2f d6 bd 5c 64 c9 3d fe c2 e6 bd
       -0.0965694 -0.10458216 0.09833595 -0.112676606
000030 fe d7 b3 3b 53 9b 1a 3d be 41 ee bd d0 6b b4 bb
       0.0054883948 0.037745785 -0.11633633 -0.0055060163
000040 3b dd 77 bc af 65 47 bd 74 17 9c 3d 3e f3 26 3b
       -0.015128429 -0.048680957 0.07621661 0.0025474573
000050 b8 95 c2 bc 51 0b 95 bc 75 91 14 bd 13 18 8f bd
       -0.023753032 -0.018193873 -0.03627153 -0.06987014
000060 f8 ac f9 3d 54 d8 f3 3b 3a c0 77 3d 14 1f 57 bd
       0.12191194 0.00744156 0.060486056 -0.052519873
000070 0c b6 bc bd 46 f1 30 3d bc 7f 8e bc 55 35 e2 3d
       -0.0921441 0.043198846 -0.017394893 0.110453285
000080 1e 62 02 be 70 7c 48 3d 76 99 d4 3d 1e 9c b9 bd
       -0.12732741 0.048946798 0.10380833 -0.0906298
000090 c4 74 77 bd 9a 26 9c 3d 7b fa d8 bd c8 17 de 3d
       -0.06041409 0.0762455 -0.1059465 0.1084438
0000a0 2a 47 6f bd 05 1f f2 bd 97 d3 7c 3d d5 32 90 3d
       -0.058417477 -0.11822323 0.061725225 0.070409454
0000b0 7c e5 47 bd 26 15 91 3c 94 d0 de 3d 5d fc ac bb
       -0.048802838 0.01771028 0.10879627 -0.0052791075
0000c0 00 4a e4 3c 97 76 37 3d 94 98 09 bc cc b8 23 3d
       0.027867317 0.04479083 -0.008398194 0.039971158
0000d0 1e 73 9d bd 71 8a c0 bd 32 6a 9e bd 1a ab a7 3d
       -0.076879725 -0.094014056 -0.07735099 0.08186932
0000e0 d8 1a bd 3c 10 13 5e bd 7c 63 00 bd 03 df d6 3d
       0.02308409 -0.0542174 -0.031344876 0.10491755
0000f0 79 a1 eb 3a ed eb d6 bd 8e 43 09 bd 76 f9 f3 bd
       0.00179772 -0.10494218 -0.03351169 -0.11912815
000100 88 b6 42 bc 5c fd 6b bd 18 60 eb 3c e0 9f b2 3c
       -0.011884339 -0.05761467 0.028732345 0.02180475
000110 41 2d ea bd cc 5f 61 3d 2c 25 b9 3d 60 e7 2e bc
       -0.11434413 0.055023 0.09040293 -0.010675281
000120 12 5f 59 bd 33 e5 83 3d 66 4d da 3d 0d d1 89 bb
       -0.05306918 0.06440201 0.10659294 -0.004205829
000130 a8 76 ed 3d d6 84 28 bc 28 12 7a bd 8d 84 81 3d
       0.115948975 -0.010285577 -0.06105247 0.0632411
000140 90 bb 93 3d 4d 38 e8 bd 81 21 95 3c b9 ad 45 3d
       0.07213509 -0.113388635 0.018204452 0.048261378
000150 80 c9 f4 3b 35 2a bc bd 96 ed b2 3c 36 7f 91 bd
       0.0074703097 -0.09187738 0.021841805 -0.07104342
000160 60 eb 1a 3d 5e 26 d3 bc 89 a2 1d bd f5 fb 66 3b
       0.037822127 -0.02577513 -0.038485084 0.0035245393
000170 10 59 1a bc c5 65 07 be 49 f6 09 bd 3d 37 6b bd
       -0.009420648 -0.13222416 -0.03368214 -0.057425726
000180 b7 b8 a3 bd f8 5d 88 bd 48 ac 8d bc 20 5e 70 3c
       -0.07994216 -0.06658548 -0.017294064 0.014670879
000190 b0 dc a3 bd 51 88 da 3d d9 38 15 bd 91 f9 16 bc
       -0.08001077 0.106705315 -0.036431167 -0.009214775
0001a0 b1 31 c9 bc 62 bb 3f 3d 4b 49 9e 3c 45 29 b5 bd
       -0.024559828 0.04680956 0.019322058 -0.08845762
0001b0 a7 e6 04 bd 66 9e ed bd 87 d1 d2 bd 2f 83 f9 bd
       -0.03244653 -0.11602478 -0.102938704 -0.121832244
0001c0 e4 38 2e bd cd a3 e7 bc 13 a0 a0 3d c7 77 b6 bc
       -0.042534724 -0.028276348 0.07843032 -0.022273911
0001d0 31 f1 62 bd be 50 1d 3d ac 2f a1 bd 60 dd 69 3c
       -0.0554058 0.03840708 -0.07870421 0.014273971
0001e0 42 62 7d bd fd ec fa bd b4 89 6d 3d 6c 63 70 bd
       -0.061861284 -0.12252233 0.057992652 -0.058688566
0001f0 af 81 74 bd 8a 94 c1 bc 35 3c b0 3d 53 03 0e 3c
       -0.05969399 -0.0236304 0.086052336 0.008667785
000200 f0 93 43 3d 16 1d 83 3d ba 27 88 3d dd 34 33 bd
       0.047748506 0.06402032 0.06648202 -0.043751586
000210 88 60 aa bd c0 4b 29 bd 18 4d f0 bc 72 a5 cf 3d
       -0.08319193 -0.041332006 -0.029333636 0.10138978
000220 9b 28 c0 3d f6 23 d4 3c 00 cd 05 3a 9d ce 86 bd
       0.09382745 0.025896054 0.0005104095 -0.06582377
000230 79 6a c9 3c ad 2e 27 bb c8 3d de 3c df 30 56 bc
       0.024586903 -0.0025509999 0.027129069 -0.013073175
000240 e7 b3 15 3c 4d 1d bd bd c1 1c 89 bd 7a c6 fb bd
       0.00913713 -0.09234104 -0.066949375 -0.12293716
000250 a4 79 63 3d f6 fe ae 3d ee 65 c5 3d 92 ae be bd
       0.055535927 0.08544724 0.09638582 -0.093106404
000260 88 59 91 3d 2d 27 ce 3d 92 ae 48 bd 32 87 5d bd
       0.07097155 0.10066066 -0.04899461 -0.05408401
000270 00 f8 6b bb bf a4 8f 3d 0e 12 24 3d ca 5f dd bd
       -0.0036005974 0.07013845 0.04005628 -0.10809286
000280 ff 15 0c bb a6 3c 9b 3d d8 a8 d5 bd 30 a4 f3 bd
       -0.0021375415 0.07579927 -0.10432595 -0.11896551
000290 9a 8e 8d 3d 89 56 80 bd cb cf ae bc a7 d9 dc bd
       0.06911965 -0.06266505 -0.021339318 -0.107837014
0002a0 b3 46 7c 3c b7 2c cc bd de 24 63 3d bc d7 a1 bd
       0.015397715 -0.09969466 0.05545508 -0.07902476
0002b0 50 d5 20 bd 31 ee e1 bd 52 a1 14 bd 89 36 c4 bc
       -0.03926593 -0.110317595 -0.03628666 -0.023951786
0002c0 ee 7e e7 bd e7 78 2a 3d 8f 09 fa bd 24 61 e7 bd
       -0.11303507 0.041619208 -0.122088544 -0.11297825
0002d0 c6 25 03 3d 02 af 85 bb 38 31 5e 3d 82 da cc 3d
       0.032018445 -0.0040797004 0.054246157 0.100026146
0002e0 3a 74 ce 3d 1c df e4 bd 4a d9 8d bd 04 fd b4 3d
       0.10080762 -0.11175367 -0.0692621 0.088373214
0002f0 b5 9c 9f 3d f3 d4 1d bd 6f 68 c0 bd fc ff 44 bc
       0.07793561 -0.038533162 -0.09394919 -0.012023922
000300 a7 45 44 3b de 46 90 bd 52 db fa bd 14 b8 cd 3c
       0.0029948743 -0.07044767 -0.12248863 0.02511219
000310 97 aa 52 3d 84 ca fd bd 66 9b b8 3d 46 d3 b5 bd
       0.05143222 -0.123921424 0.09014015 -0.08878188
000320 68 f1 b1 3d bc c9 ef 3d 96 60 96 bd eb cd 03 3d
       0.08688623 0.117084 -0.07342641 0.0321788
000330 c2 9b 98 3d dc 63 52 3c 14 12 67 3d 5c 5c d4 3d
       0.074515834 0.012841191 0.056413725 0.10369179
000340 61 1b b8 3b 33 77 b5 3c c6 20 8b 3d ec ba d3 3d
       0.005618498 0.022151565 0.067933604 0.10338387
000350 38 e4 3a 3d 13 2c 5d 3b c3 af c8 3d 5d 90 d0 bc
       0.045627803 0.0033748194 0.09799149 -0.025459463
000360 22 77 b3 3d a7 e8 52 3c 2f 26 70 3c a7 b9 8c 3d
       0.08762957 0.012872851 0.014657541 0.06871348
000370 b2 d3 92 3d 63 e5 6c 3d 72 d9 34 bb cd 39 b8 3d
       0.07169284 0.057835948 -0.0027595428 0.089953996
000380 41 b4 ab 3d 24 59 b7 bd 90 c2 93 3c 38 63 1c 3d
       0.0838399 -0.08952549 0.01803711 0.03818056
000390 8c 2e 44 3d 6e 2c c6 bc 62 8e 03 be d5 cd fe bd
       0.047895953 -0.024191108 -0.12847283 -0.12441603
0003a0 e4 88 79 3d fb 3e 07 be b8 ce 7f bc 34 5c 0c be
       0.060921565 -0.13207619 -0.01561325 -0.13707048
0003b0 d3 46 77 bd fa 4d bb bc aa 4f 5e bd a3 65 a9 3d
       -0.060370278 -0.02286433 -0.054275192 0.08271339
0003c0 0a 74 f7 3d eb 3b 92 3d 18 e3 02 be d3 fa 37 3d
       0.120826796 0.07140335 -0.12781942 0.04491694
0003d0 bb 91 fa bd 6f a4 e3 bd 7e 69 b8 3d be 36 c6 bd
       -0.12234827 -0.111153476 0.09004496 -0.0967841
0003e0 ef d4 55 bd 9d a2 01 be 68 ec bf bd de d5 2d bd
       -0.052205022 -0.12659688 -0.09371263 -0.042440288
0003f0 ef f8 d7 bd d1 b3 00 be bd d6 07 bd 1a 03 fa bc
       -0.10545527 -0.12568595 -0.033163775 -0.030519057

noisy2.weight_sigma f4 [64, 64]
000000 4f 36 50 3d cd cc 4c 3d cd cc 4c 3d 17 58 30 3d
       0.050833043 0.05 0.05 0.04305276
000010 3b 0f 4c 3d cd cc 4c 3d cd cc 4c 3d cd cc 4c 3d
       0.049819212 0.05 0.05 0.05
000020 d5 91 48 3d 36 29 42 3d cd cc 4c 3d 8b 88 46 3d
       0.0489672 0.047402583 0.05 0.04847006
000030 ef 5d 4c 3d 86 8f 3a 3d cd cc 4c 3d e7 82 37 3d
       0.04989427 0.04554703 0.05 0.044802573
000040 e7 1b 4b 3d cc 07 3e 3d 33 ec 30 3d f8 9e 47 3d
       0.049587157 0.046394154 0.043194007 0.04873559
000050 cd cc 4c 3d 48 fa 3a 3d 45 7d 58 3d 94 0f 3a 3d
       0.05 0.045648843 0.05285384 0.045425013
000060 cd cc 4c 3d c0 2a 45 3d 56 b5 5e 3d 98 2a 52 3d
       0.05 0.048136473 0.054372154 0.05131015
000070 cd cc 4c 3d 56 82 4b 3d b4 18 48 3d 8a 76 2a 3d
       0.05 0.049684845 0.048851684 0.041616954
000080 c2 f6 31 3d cd cc 4c 3d cd cc 4c 3d cd cc 4c 3d
       0.043448217 0.05 0.05 0.05
000090 cd cc 4c 3d 15 73 40 3d cd 9b 54 3d fe f0 3a 3d
       0.05 0.04698475 0.051906396 0.045639984
0000a0 96 18 53 3d 66 ee 54 3d 42 33 2f 3d 00 29 3e 3d
       0.05153712 0.051985167 0.042773493 0.04642582
0000b0 c6 10 2b 3d 2a f9 50 3d c9 8c 2f 3d db 52 51 3d
       0.041764043 0.05101887 0.042858873 0.051104408
0000c0 cd cc 4c 3d 79 d3 57 3d e6 bd 4e 3d c0 8e 48 3d
       0.05 0.05269191 0.05047407 0.048964262
0000d0 ad 62 4d 3d 67 42 2f 3d cd cc 4c 3d cd cc 4c 3d
       0.050142933 0.042787936 0.05 0.05
0000e0 5b 04 09 3d 93 0a 38 3d cd cc 4c 3d 48 a6 3c 3d
       0.03345142 0.04493196 0.05 0.046057016
0000f0 a8 98 48 3d db f8 4a 3d e0 76 3b 3d f8 d0 31 3d
       0.04897371 0.049553733 0.045767665 0.04341218
000100 69 15 3c 3d cd cc 4c 3d cd cc 4c 3d 1c c4 08 3d
       0.045918856 0.05 0.05 0.03339015
000110 aa d8 f4 3c cd cc 4c 3d cd cc 4c 3d cd cc 4c 3d
       0.02988847 0.05 0.05 0.05
000120 7a 39 75 3d 0c 2d 81 3d cd cc 4c 3d 95 aa 0f 3d
       0.059869267 0.0630742 0.05 0.03507479
000130 32 9a 2c 3d 17 de 1e 3d cd cc 4c 3d ef 62 55 3d
       0.04213924 0.03878602 0.05 0.052096304
000140 14 4e 12 3d 4f d6 4e 3d b5 7f 0e 3d 4d bf 66 3d
       0.035718992 0.05049735 0.03478976 0.056334782
000150 cd cc 4c 3d 8e 61 40 3d f7 a8 24 3d 55 0e 4b 3d
       0.05 0.046968035 0.0402002 0.049574215
000160 cd cc 4c 3d 79 fd 2b 3d 18 54 5b 3d 2b 33 77 3d
       0.05 0.041989777 0.053546995 0.060351532
000170 cd cc 4c 3d 74 fe 00 3d 73 ab 5e 3d e3 aa 3d 3d
       0.05 0.031492665 0.054362725 0.04630555
000180 7b be 55 3d cd cc 4c 3d cd cc 4c 3d cd cc 4c 3d
       0.05218361 0.05 0.05 0.05
000190 cd cc 4c 3d 9b fd 2d 3d 02 2d 5f 3d e7 3c 21 3d
       0.05 0.042478185 0.054486282 0.03936472
0001a0 be 92 75 3d 53 29 69 3d e8 a6 35 3d 30 77 4d 3d
       0.059954397 0.056924175 0.044348627 0.050162494
0001b0 06 68 03 3d 0c 5f 52 3d a8 88 10 3d 4f 24 77 3d
       0.032081626 0.051360175 0.035286576 0.06033736
0001c0 cd cc 4c 3d 3d 7b 59 3d 0a 69 52 3d 90 ca 31 3d
       0.05 0.053096045 0.051369704 0.04340607
0001d0 5a 4c 75 3d a1 27 60 3d cd cc 4c 3d cd cc 4c 3d
       0.059887268 0.054725293 0.05 0.05
0001e0 4f 4c 24 3d af d8 24 3d cd cc 4c 3d a6 88 7a 3d
       0.040111836 0.040245708 0.05 0.061165474
0001f0 58 0f 3c 3d 06 9d 4f 3d ee 90 61 3d a7 f1 3a 3d
       0.04591307 0.05068686 0.055069856 0.045640614
000200 82 2f 41 3d cd cc 4c 3d cd cc 4c 3d cb 8e 80 3d
       0.047164448 0.05 0.05 0.062772356
000210 b5 65 83 3d cd cc 4c 3d cd cc 4c 3d cd cc 4c 3d
       0.064158835 0.05 0.05 0.05
000220 4f e8 3d 3d 05 28 4c 3d cd cc 4c 3d 01 71 59 3d
       0.046364125 0.049842853 0.05 0.053086285
000230 95 60 4a 3d 32 4c 73 3d cd cc 4c 3d 15 7f 65 3d
       0.049408514 0.059398837 0.05 0.056029398
000240 73 ae 6d 3d 8e 3b 56 3d c1 c1 4d 3d 3e 8b 48 3d
       0.058027696 0.05230289 0.050233606 0.048960917
000250 cd cc 4c 3d 58 8c 3c 3d 5e 36 49 3d ad e8 38 3d
       0.05 0.04603228 0.049124114 0.045143772
000260 cd cc 4c 3d 14 0e 58 3d 9c e9 37 3d d8 6f 36 3d
       0.05 0.0527478 0.04490052 0.044540256
000270 cd cc 4c 3d ee b2 34 3d 94 1d 26 3d 10 74 0d 3d
       0.05 0.044115953 0.04055555 0.034534514
000280 bc cc 4a 3d cd cc 4c 3d cd cc 4c 3d cd cc 4c 3d
       0.049511656 0.05 0.05 0.05
000290 cd cc 4c 3d 13 90 3e 3d 23 e7 4c 3d 69 b3 3d 3d
       0.05 0.04652412 0.050025117 0.046313677
0002a0 6e 82 51 3d 5b 59 5c 3d 96 0f 52 3d 21 24 2c 3d
       0.051149778 0.053796154 0.051284395 0.042026643
0002b0 86 da 5b 3d 3d 28 20 3d 1e 47 5a 3d 44 ba 34 3d
       0.053675197 0.039100874 0.05329048 0.04412295
0002c0 cd cc 4c 3d 82 06 3d 3d ac 2d 4d 3d 1f 5b 19 3d
       0.05 0.046148784 0.050092384 0.037440415
0002d0 47 84 51 3d 82 75 20 3d cd cc 4c 3d cd cc 4c 3d
       0.05115154 0.039174564 0.05 0.05
0002e0 a8 6e 3f 3d 0e ca 4a 3d cd cc 4c 3d d7 15 25 3d
       0.04673639 0.0495091 0.05 0.04030403
0002f0 cb 04 2d 3d a4 3c 6f 3d ec 46 43 3d f5 f8 2d 3d
       0.0422409 0.05840744 0.04767506 0.042473752
000300 7f 66 25 3d cd cc 4c 3d cd cc 4c 3d bd 08 4c 3d
       0.04038095 0.05 0.05 0.04981302
000310 61 32 64 3d cd cc 4c 3d cd cc 4c 3d cd cc 4c 3d
       0.055712108 0.05 0.05 0.05
000320 94 c1 4d 3d 59 e8 80 3d cd cc 4c 3d f5 fb 38 3d
       0.05023344 0.06294317 0.05 0.04516216
000330 71 aa 36 3d 5a 2b 36 3d cd cc 4c 3d 3b ab 1f 3d
       0.04459614 0.044474937 0.05 0.038981657
000340 96 a9 56 3d e7 b1 4b 3d 99 bb 3e 3d e1 54 66 3d
       0.052407824 0.049730208 0.046565626 0.05623329
000350 cd cc 4c 3d 22 88 3b 3d cd 72 46 3d f4 8f 3f 3d
       0.05 0.045784123 0.048449326 0.046768144
000360 cd cc 4c 3d 05 fd 27 3d 22 2d 3a 3d 6b a5 43 3d
       0.05 0.041012783 0.0454532 0.047765177
000370 cd cc 4c 3d 38 f2 30 3d 65 4d 35 3d 3c 8f 19 3d
       0.05 0.043199748 0.044263262 0.037490115
000380 c0 41 4f 3d cd cc 4c 3d cd cc 4c 3d cd cc 4c 3d
       0.050599813 0.05 0.05 0.05
000390 cd cc 4c 3d cf 82 26 3d b9 52 39 3d 00 68 55 3d
       0.05 0.040652093 0.045244906 0.052101135
0003a0 5d 92 67 3d 01 c1 69 3d 33 dd 41 3d 87 c8 41 3d
       0.056536067 0.05706883 0.047330093 0.04731038
0003b0 9e 58 0a 3d 30 71 2e 3d 12 95 4f 3d 8c 6f 45 3d
       0.03377592 0.042588413 0.050679274 0.048202083
0003c0 cd cc 4c 3d e5 60 29 3d 23 bf 37 3d 64 3f 1b 3d
       0.05 0.04135217 0.044860017 0.03790225
0003d0 19 21 25 3d 19 4d 42 3d cd cc 4c 3d cd cc 4c 3d
       0.040314768 0.047436807 0.05 0.05
0003e0 06 ae 3a 3d 9e 42 28 3d cd cc 4c 3d 0e b2 47 3d
       0.045576118 0.041079156 0.05 0.04875379
0003f0 55 55 12 3d e6 c8 4d 3d 4a ff 59 3d 7f 73 6e 3d
       0.03572591 0.05024042 0.05322198 0.058215614

noisy2.bias_mu f4 [64]
000000 c9 01 af bd 9e b1 af 3d 0a 07 1a 3c d0 99 75 bd
       -0.08545262 0.085788 0.009401092 -0.05996114
000010 80 ab fe 3d 85 e7 07 3e 94 c4 da 3d 5f fa b9 bd
       0.12435055 0.13271911 0.106820256 -0.090809576
000020 25 db b5 3b 65 32 f6 3d 76 d5 84 bd 8c b4 02 be
       0.0055498057 0.12021331 -0.06486027 -0.12764186
000030 b0 d7 be 3d ac 36 58 3d 03 f1 0e bd ac 0d 19 3e
       0.09318483 0.052786514 -0.034897815 0.14946622
000040 5c 2e 90 bc 0c c9 80 3d 0c 95 96 3c cd a2 1c bd
       -0.01760023 0.06288347 0.018381618 -0.038241196
000050 92 4c e6 bd ae da 00 be ea 57 8d bd 7b c9 b9 bd
       -0.112450734 -0.1258342 -0.06901534 -0.090716325
000060 3f 95 99 bd a7 30 17 3d aa 51 b0 bd f1 7c 24 3e
       -0.074991696 0.036911633 -0.08609326 0.16063286
000070 cd 7e d9 bc d3 b4 92 3d 78 fb f3 3c 39 0a 05 be
       -0.026549721 0.07163396 0.029782996 -0.12992181
000080 fd fd 9f bd 25 d4 e5 3d d5 bd 08 3e 75 2b 02 3e
       -0.07812116 0.11222104 0.13353665 0.1271189
000090 93 f1 79 3c bc 4e fc bd 8d 69 88 3d e0 f1 d7 3d
       0.01525535 -0.12319705 0.06660757 0.10544181
0000a0 e7 43 4d 3d 26 d3 04 3b e4 e2 87 3d 39 f1 70 3d
       0.050113585 0.0020267456 0.06635073 0.058823798
0000b0 ea f0 de bd 91 55 69 bd 55 bb 02 bd 58 b8 6c bd
       -0.108857945 -0.056966368 -0.031916935 -0.05779299
0000c0 ac 81 93 bd d4 78 a8 bd 5a 2c 31 3d 8d d4 86 bc
       -0.07202467 -0.08226171 0.043255188 -0.016458774
0000d0 0d 77 98 bd 03 b8 c4 3d c7 60 fc 3c 4e d9 7f 3d
       -0.07444582 0.0960541 0.030807866 0.062463097
0000e0 25 a6 ca 3d 5f ff ed bd 18 b7 b2 3d 5d b6 35 bb
       0.09894971 -0.11620974 0.087263286 -0.0027727105
0000f0 9f 31 54 3d 5a 2c 95 bd c2 53 87 bd b2 a9 95 bd
       0.051805135 -0.0728385 -0.066077724 -0.073077574

noisy2.bias_sigma f4 [64]
000000 ac 97 23 3d e3 b3 2f 3d 6c bd 38 3d a3 88 0a 3d
       0.039939567 0.042896163 0.04510252 0.033821713
000010 af c7 6d 3d 54 b6 31 3d 3b 14 29 3d 3e 25 89 3d
       0.05805176 0.043386772 0.04127906 0.066965565
000020 6e 69 3d 3d e5 25 6e 3d e6 99 63 3d 25 b9 13 3d
       0.046243124 0.058141608 0.05556669 0.03606524
000030 9c dc 5b 3d 8c a5 58 3d 31 c4 8f 3d c1 26 78 3d
       0.053677186 0.052892253 0.070198424 0.060583834
000040 c5 36 40 3d 59 f3 4b 3d 21 3b 3a 3d a1 87 33 3d
       0.046927232 0.04979262 0.045466546 0.043830518
000050 18 eb 62 3d 72 df 2d 3d 97 36 24 3d 85 4e 27 3d
       0.055399984 0.042449422 0.040091123 0.040846366
000060 5e fe 42 3d d8 cf 27 3d d1 8c 39 3d cc 82 f5 3c
       0.047605865 0.0409697 0.04530031 0.029969595
000070 b9 04 1a 3d cb ea 75 3d 84 a6 6f 3d 93 8b 22 3d
       0.03760216 0.06003837 0.05850841 0.03968389
000080 01 25 80 3d a1 f8 39 3d d4 ba 86 3d ce 65 4c 3d
       0.06257058 0.045403127 0.065786034 0.049901776
000090 8f ec 2a 3d dd be 1b 3d db 47 a8 3d c0 a4 40 3d
       0.041729506 0.03802382 0.0821683 0.047032118
0000a0 ea e6 26 3d c7 25 60 3d c8 c8 89 3d 11 31 7e 3d
       0.04074756 0.054723527 0.06727749 0.062058512
0000b0 bf f8 3c 3d 99 26 3d 3d 3f f5 27 3d ec 72 5a 3d
       0.04613566 0.046179388 0.04100537 0.053332254
0000c0 db 9c 24 3d 64 84 41 3d 4c 54 45 3d 85 5d 65 3d
       0.04018865 0.0472454 0.048176095 0.05599739
0000d0 13 4d 23 3d c6 d6 17 3d 2c 52 3e 3d 8c 4f 10 3d
       0.039868426 0.03707006 0.046465084 0.03523211
0000e0 19 59 5b 3d e6 4c 2b 3d b3 83 72 3d 9d 66 21 3d
       0.053551767 0.041821383 0.05920763 0.0394045
0000f0 d6 03 30 3d 8c 67 28 3d fd 1d 16 3d 9b eb 34 3d
       0.04297241 0.041114375 0.036649693 0.044170003

noisy2.weight_epsilon f4 [64, 64]
000000 09 53 a0 3d f3 aa de bd ed ac 2a 3d 2f 40 0c be
       0.07828338 -0.1087245 0.04166882 -0.13696359
000010 f1 8a d3 bd b7 14 fa 3d b6 20 e4 bc 10 7b da bd
       -0.10329235 0.12210982 -0.027847629 -0.106680036
000020 3e 06 0d 3e 34 c1 92 bd 53 70 cd 3d a2 5f d4 3d
       0.13771912 -0.07165757 0.1003119 0.10369803
000030 d1 2e 24 bd d5 8a 7e bd 31 58 a5 bd c7 4d c3 bd
       -0.04008371 -0.06214412 -0.08073462 -0.09536319
000040 50 b8 d3 bd 45 0a 86 bd bc 85 b8 bd 65 53 9d 3d
       -0.10337889 -0.065449275 -0.09009883 0.07681922
000050 49 6f b2 bd c6 5f 52 3d e9 3c ba bd 53 07 50 bd
       -0.08712632 0.051360868 -0.09093649 -0.050788235
000060 1f 76 bc bd 5a 06 6b bd bd 67 d9 3d 83 67 4f bd
       -0.09202217 -0.057379104 0.1061549 -0.050635826
000070 cb f5 86 bd 7a fb e0 bd 3a 31 0d 3e ec 07 da 3c
       -0.0658985 -0.10985465 0.1378831 0.026615106
000080 78 6d f0 3d 81 43 8c bc 20 8e dd 3d 75 e9 43 3d
       0.117396295 -0.017122032 0.10818124 0.047830064
000090 f5 6a 01 be d7 06 f6 3c 53 c6 c2 3c 44 a8 ea 3d
       -0.12638457 0.030032558 0.023776209 0.11457875
0000a0 dd 7d 9c 3d 51 7f 61 3d 35 0a 97 3d 2b f2 8b bc
       0.07641194 0.05505306 0.07374994 -0.017083248
0000b0 d9 b6 d5 bd f6 97 c7 bd 20 63 8b 3d dc df 07 be
       -0.10435266 -0.09745781 0.06806016 -0.1326899
0000c0 ec db e7 3d bf 51 e0 bd 2e 19 c1 3d 22 f1 1f 3d
       0.11321244 -0.10953092 0.09428631 0.03904832
0000d0 8e 49 1d bd cf 44 27 3d 78 77 db 3d 1b 6b ee bd
       -0.038400225 0.040837105 0.10716146 -0.116415225
0000e0 9b c3 d7 3d d1 a1 f2 3c 5f d9 c2 bd f6 b1 fc 3c
       0.10535356 0.029618176 -0.095141165 0.030846577
0000f0 24 fa 9b bd 15 58 c7 3d 6c ec e6 bd ba 5e 1a be
       -0.0761607 0.09733597 -0.11275563 -0.15075198
000100 88 e4 5e 3f 7d c8 9a bf 92 48 ed 3e 30 fc c2 bf
       0.8706746 -1.2092434 0.4634443 -1.5233212
000110 c0 0c 93 bf c0 d6 ad 3f 1e 94 9e be 63 df 97 bf
       -1.1488266 1.3581161 -0.3097238 -1.1865047
000120 8a 0f c4 3f ff 06 4c bf 87 ce 8e 3f 9a a0 93 3f
       1.5317242 -0.79698175 1.1156777 1.1533387
000130 cd 41 e4 be ac f0 30 bf 3c df 65 bf fb c2 87 bf
       -0.44581452 -0.69117236 -0.89793754 -1.0606378
000140 4b 2c 93 bf cb 59 3a bf 64 44 80 bf 4f b9 5a 3f
       -1.1497892 -0.72793263 -1.0020871 0.8543901
000150 21 12 78 bf ca 3c 12 3f ac 75 81 bf 66 9b 10 bf
       -0.9690266 0.57124007 -1.0114036 -0.5648712
000160 59 01 83 bf 77 5f 23 bf 00 20 97 3f 4f 2c 10 bf
       -1.0234786 -0.6381754 1.1806641 -0.5631761
000170 3a a1 3b bf 5f 64 9c bf 4c 4b c4 3f 5a 8f 97 3e
       -0.7329289 -1.2218131 1.5335479 0.29601556
000180 ea 20 a7 3f cd 00 43 be 80 02 9a 3f 32 2f 08 3f
       1.305692 -0.19043274 1.2032013 0.53197014
000190 ae ec b3 bf 4b 05 ab 3e d3 64 87 3e 11 1e a3 3f
       -1.4056604 0.33402476 0.2644411 1.274355
0001a0 71 90 59 3f 05 c0 1c 3f 1f fc 51 3f b9 8f 42 be
       0.84986025 0.612305 0.8202533 -0.19000138
0001b0 2e 8f 94 bf 5c be 8a bf db c8 41 3f a5 e6 bc bf
       -1.1606195 -1.0839343 0.75697106 -1.4757887
0001c0 1d 2c a1 3f 63 ee 9b bf 83 3a 86 3f 6c 5c de 3e
       1.2591587 -1.2182125 1.0486606 0.43429887
0001d0 a1 ab da be 1a 8c e8 3e d8 8e 98 3f 5d bb a5 bf
       -0.42709067 0.4541939 1.1918592 -1.2947804
0001e0 f4 fb 95 3f 35 a9 a8 3e 10 72 87 bf f7 a7 af 3e
       1.1717515 0.32941595 -1.0581684 0.34307835
0001f0 51 d9 58 bf f5 91 8a 3f a1 85 a0 bf 58 9d d6 bf
       -0.847066 1.0825793 -1.254078 -1.6766768
000200 dc 4a 90 bf d6 66 c8 3f c6 9b 19 bf c2 73 fc 3f
       -1.1272845 1.5656383 -0.60003316 1.9722826
000210 9e 63 be 3f d8 12 e1 bf d3 50 cd 3e 22 a2 c4 3f
       1.4874151 -1.7583876 0.40100726 1.5361979
000220 44 d8 fd bf 67 14 84 3f 42 e5 b8 bf 0b 23 bf bf
       -1.9831624 1.0318726 -1.4444964 -1.4932569
000230 de c3 13 3f c1 16 65 3f 81 cf 94 3f 28 c6 af 3f
       0.57720745 0.89487845 1.1625825 1.3732347
000240 74 8c be 3f e8 45 71 3f 1d 12 a6 3f fb 97 8d bf
       1.4886613 0.94247293 1.2974278 -1.1062006
000250 80 97 a0 3f 5e 56 3d bf 5e 9d a7 3f f5 39 3b 3f
       1.2546234 -0.7395991 1.30949 0.7313531
000260 a9 9d a9 3f e8 85 53 3f 57 aa c3 bf 21 aa 3a 3f
       1.3251239 0.826262 -1.5286359 0.72915846
000270 d8 ed 72 3f 1c 7c ca 3f a2 25 fe bf 82 3a c4 be
       0.9489417 1.5819125 -1.9855235 -0.38325888
000280 b8 62 d8 bf bc 79 7c 3e 7e 66 c7 bf 45 52 30 bf
       -1.6905127 0.24655813 -1.5578153 -0.68875533
000290 ef f3 e8 3f c1 6c dd be 40 4c af be 3b 31 d3 bf
       1.8199443 -0.43247035 -0.34237862 -1.6499399
0002a0 cd d7 8c bf c5 f2 4a bf b6 ef 87 bf 54 e7 7b 3e
       -1.1003357 -0.79276687 -1.0620029 0.24599963
0002b0 f0 57 c0 3f 87 a2 b3 3f d9 e5 7a bf 2b 93 f4 3f
       1.5026836 1.4033974 -0.9800697 1.9107412
0002c0 85 ac d0 bf 5a e3 c9 3f 04 ca ad bf c0 f2 0f bf
       -1.6302649 1.5772507 -1.3577275 -0.5622978
0002d0 20 8f 0d 3f dd 8a 16 bf 4d 85 c5 bf c9 93 d6 3f
       0.55296516 -0.5880564 -1.5431305 1.676385
0002e0 38 30 c2 bf a1 5e da be 64 5d af 3f 2b 6d e3 be
       -1.5170965 -0.4265032 1.3700376 -0.44419226
0002f0 40 61 8c 3f 08 69 b3 bf f7 d4 cf 3f fb ee 0a 40
       1.0967178 -1.4016428 1.6236867 2.1708362
000300 1a d0 95 bf a1 11 d0 3f 42 7c 1f bf 2c 0e 03 40
       -1.1704133 1.625538 -0.6229898 2.04774
000310 58 ac c5 3f 48 af e9 bf bf 2b d5 3e 04 28 cc 3f
       1.544322 -1.8256617 0.41634938 1.5949712
000320 3f c7 03 c0 07 22 89 3f 2e f8 bf bf 18 73 c6 bf
       -2.059036 1.0713509 -1.4997613 -1.5503874
000330 1f 6b 19 3f 84 da 6d 3f 00 81 9a 3f bd 7f b6 3f
       0.5992908 0.92911553 1.2070618 1.4257733
000340 be d6 c5 3f 01 81 7a 3f a8 6c ac 3f ca 02 93 bf
       1.5456159 0.97853094 1.3470659 -1.1485226
000350 62 bc a6 3f ca 94 44 bf 09 07 ae 3f b5 63 42 3f
       1.302624 -0.76789534 1.3595897 0.7593339
000360 ed 1a b0 3f 9f 9d 5b 3f be 26 cb bf 60 ce 41 3f
       1.3758217 0.85787386 -1.5871198 0.7570553
000370 29 39 7c 3f 4e 3b d2 3f 69 ef 03 c0 6d bc cb be
       0.9852472 1.6424348 -2.0614874 -0.39792195
000380 10 aa e0 bf 47 11 83 3e 7a 07 cf bf 36 11 37 bf
       -1.7551899 0.2559912 -1.6174157 -0.71510637
000390 8a dd f1 3f 74 e5 e5 be 2b 01 b6 be b5 45 db bf
       1.8895733 -0.4490162 -0.35547766 -1.7130648
0003a0 42 3b 92 bf 81 b6 52 bf 1c 23 8d bf 46 c5 82 3e
       -1.1424334 -0.8230973 -1.102634 0.25541133
0003b0 ce b3 c7 3f ec 81 ba 3f 9b 3f 82 bf 9b ee fd 3f
       1.5601747 1.4570899 -1.0175661 1.9838442
0003c0 55 a8 d8 bf b4 9c d1 3f 28 70 b4 bf 9f 74 15 bf
       -1.6926371 1.6375947 -1.4096727 -0.58381075
0003d0 98 f9 12 3f 52 4d 1c bf e0 13 cd bf 6b c9 de 3f
       0.574121 -0.6105548 -1.602169 1.7405218
0003e0 28 9e c9 bf 68 b9 e2 be f7 12 b6 3f a6 20 ec be
       -1.575139 -0.4428208 1.4224538 -0.4611866
0003f0 2c c0 91 3f 3b 46 ba bf 88 c8 d7 3f bc 3f 10 40
       1.1386771 -1.4552683 1.6858072 2.25389

noisy2.bias_epsilon f4 [64]
000000 5b 94 af 3f 9d f2 c6 bf 68 05 b0 3f de bc 21 bf
       1.371715 -1.554279 1.375165 -0.63178813
000010 64 b6 1b 3e e9 56 9c 3f f8 fe 2b bf 6a 31 4d 3f
       0.15206295 1.2214023 -0.67185926 0.80153525
000020 3a 7e af 3f 5d 9e 60 3f 27 7a 37 bf a9 85 85 bf
       1.3710396 0.87741643 -0.71670765 -1.0431415
000030 05 df 7a bf 38 2c 3d bf fe 88 61 3e 85 91 5a bf
       -0.9799655 -0.738956 0.22024915 -0.85378295
000040 c2 00 5c bf 5c 8f 42 3e da 82 5b bf ed 3c 77 3f
       -0.85938656 0.19 -0.8574654 0.9657734
000050 16 5b 5a 3f bc e3 93 bf 8c bb a6 bf 59 d9 c1 bf
       0.85295236 -1.1553874 -1.3025985 -1.5144454
000060 6a a6 d8 be 81 5e 8d bf 2f 56 59 bf 6a 02 b7 bf
       -0.42314464 -1.1044465 -0.8489713 -1.4297612
000070 4c f5 0a bd 66 a6 7c bf 6c 05 61 3f 63 12 0c 3f
       -0.03392534 -0.98691404 0.878989 0.54715556
000080 84 fc 96 3f d5 1c db 3e d8 ba 7f be b3 cf 89 3e
       1.1795812 0.42795435 -0.24973619 0.26916274
000090 f9 c1 83 bf 4d 43 70 3f 4b db 47 bf 67 fb 32 3f
       -1.0293571 0.9385269 -0.7806899 0.6991486
0000a0 dd f0 e9 be d6 85 c7 3e ed 26 4b bf 48 bf 14 3f
       -0.45691577 0.38969296 -0.7935627 0.5810437
0000b0 a8 dd 58 bf 89 22 aa bf 6c 6a 06 3f d8 87 32 bf
       -0.8471322 -1.3291789 0.52506137 -0.6973853
0000c0 9c 6f 18 bf bc 35 1a bf df d1 9c bf 49 d3 df 3e
       -0.595453 -0.6023824 -1.2251548 0.43715885
0000d0 8f 0f d3 be 7e 60 6f be 69 eb 8b bf 45 63 aa bf
       -0.41222808 -0.23376653 -1.0931216 -1.3311545
0000e0 bf 38 95 3d 31 48 09 bf eb be ad bf 08 32 59 bf
       0.07286214 -0.5362578 -1.3573889 -0.84841967
0000f0 16 a9 00 be a6 03 02 bf 65 07 73 bf 3b 28 2f bf
       -0.12564501 -0.5078682 -0.9493316 -0.6842076

noisy3.weight_mu f4 [2, 64]
000000 a0 7e e9 bd 54 a1 0c 3d 0e 6c d0 3d 7c 01 3e 3d
       -0.11401105 0.034333542 0.1017686 0.046388134
000010 90 29 cf bd ba 9c d5 bd 60 18 16 3d 0a 65 9a bd
       -0.10115349 -0.10430284 0.03664434 -0.07538803
000020 f0 b7 36 3d ee be b8 bd 14 f9 ba 3d 00 e3 4f 3d
       0.04460901 -0.09020792 0.09129539 0.050753593
000030 98 e8 eb bd 80 ed fb 3c 70 d8 1a bd 7c a8 dc 3d
       -0.11518973 0.030752897 -0.037804067 0.10774323
000040 fe c1 d4 3d c8 f9 69 3d 50 36 96 bd 46 64 8f bd
       0.103885636 0.057122976 -0.07334578 -0.070015475
000050 e0 a8 dd 3d 00 24 da bd 90 f0 e2 3c 70 21 10 3d
       0.10823226 -0.10651398 0.0277026 0.03518814
000060 8e 33 a6 3d a6 50 a3 3d a2 cf 9d 3d 6a 1d e9 bd
       0.08115302 0.07974367 0.077056184 -0.113825634
000070 0c 0f 76 3d 50 60 06 bc 66 ca fd bd ae ee ff bd
       0.060072944 -0.008201674 -0.1239212 -0.124966964
000080 72 6d 83 bd 3a df e7 bd 40 81 60 bb a4 a0 8c bd
       -0.064173594 -0.11321874 -0.0034256727 -0.06866577
000090 06 9f f4 bd f0 b8 12 3c 9c de 21 3d be a4 81 bd
       -0.11944394 0.008955225 0.039518937 -0.0633025
0000a0 f2 b3 c0 3d d8 33 8e bd b8 4e 07 bd 80 9a 9e 3b
       0.09409322 -0.06943482 -0.033034056 0.004840195
0000b0 30 66 fa 3c d0 47 57 3c 88 1e 17 bd fa 73 e4 bd
       0.030566305 0.01313968 -0.03689435 -0.11154933
0000c0 00 a3 78 3b 90 65 f6 bd 20 06 5a bd e8 b7 f1 bd
       0.0037938952 -0.1203109 -0.053228498 -0.118026555
0000d0 20 04 3b 3d 70 ee e6 3d 2c a1 bd bd 40 7f 16 bc
       0.04565823 0.11275947 -0.09259257 -0.009185612
0000e0 50 ee 94 bc 02 68 9f bd 7c 37 1e 3d b0 04 48 bd
       -0.018180043 -0.0778351 0.038627133 -0.048832595
0000f0 3e 7f a6 3d 38 e1 f1 bc 4c 96 ed 3d d8 1b df 3c
       0.08129738 -0.029526338 0.116009325 0.027234957
000100 e9 fa 8d bd c8 b5 70 bd 94 83 ec 3b 7f 59 a3 bd
       -0.06932623 -0.05876711 0.007217834 -0.079760544
000110 51 0d 24 3e 91 3a e3 3d 10 3b 2a bc 79 7e 7f 3c
       0.16020705 0.11095155 -0.010390058 0.015594118
000120 01 5b c9 bd e7 de a6 3d 29 75 b6 3c 92 f3 4b bd
       -0.09831811 0.08147984 0.022272663 -0.049792834
000130 b3 5a 2b 3e 0c 1d 46 3d 51 5a f4 3d 4c c0 2e 3e
       0.16733818 0.048367545 0.11931289 0.17065543
000140 14 55 e5 bd 19 f9 ee 3d 68 79 4e bd 64 75 9c bd
       -0.11197868 0.11668605 -0.05040875 -0.07639578
000150 d8 80 d1 bd dc 40 76 bd cc 22 bb bd 56 13 6c bd
       -0.10229653 -0.06012045 -0.09137496 -0.057635628
000160 59 98 db bd 91 1b 7a bd 20 9f 13 bd a6 9e ff 3d
       -0.107224174 -0.061061446 -0.036040425 0.12481432
000170 66 3b d9 bd 88 36 02 3c 02 9e 08 3e 3e 74 6d bc
       -0.106070325 0.007947572 0.13341525 -0.014493046
000180 ce 04 b4 3d f6 df f6 3d e0 94 9f 3d 36 e3 d1 3d
       0.08789979 0.12054436 0.077920675 0.10248415
000190 89 56 08 3d b5 3c a5 3d aa 93 29 3e 97 0f 30 bd
       0.03328565 0.080682196 0.16560236 -0.042983618
0001a0 20 f4 e7 bd 2f 11 e8 3c 30 a3 e2 3d ed 79 4a bb
       -0.1132586 0.028328506 0.11066282 -0.0030895427
0001b0 50 8f e9 bd 1a 36 7c 3c 16 02 b8 3d c8 41 8c 3b
       -0.11404288 0.015393758 0.08984773 0.0042803027
0001c0 43 77 b4 bb 9f 24 a7 3c 49 5f 93 3c 28 1c 08 3e
       -0.005507381 0.020403204 0.017989771 0.13291991
0001d0 2d df d9 bd eb a3 a1 bc 80 da 0f 3e f5 86 c7 bc
       -0.106382705 -0.019731482 0.14048195 -0.024356345
0001e0 4a e9 bb 3d 1a 9f c7 bb fb 9b 74 3d 17 bd 9a 3d
       0.09175356 -0.0060919644 0.059719067 0.07555597
0001f0 27 54 9e bd 40 66 81 bd 7d 3b 97 3d bd b1 aa bc
       -0.077308945 -0.06318331 0.07384393 -0.020836705

noisy3.weight_sigma f4 [2, 64]
000000 cd cc 4c 3d cd cc 4c 3d cd cc 4c 3d cd cc 4c 3d
       0.05 0.05 0.05 0.05
000010 cd cc 4c 3d cd cc 4c 3d cd cc 4c 3d cd cc 4c 3d
       0.05 0.05 0.05 0.05
000020 cd cc 4c 3d cd cc 4c 3d cd cc 4c 3d cd cc 4c 3d
       0.05 0.05 0.05 0.05
000030 cd cc 4c 3d cd cc 4c 3d cd cc 4c 3d cd cc 4c 3d
       0.05 0.05 0.05 0.05
000040 cd cc 4c 3d cd cc 4c 3d cd cc 4c 3d cd cc 4c 3d
       0.05 0.05 0.05 0.05
000050 cd cc 4c 3d cd cc 4c 3d cd cc 4c 3d cd cc 4c 3d
       0.05 0.05 0.05 0.05
000060 cd cc 4c 3d cd cc 4c 3d cd cc 4c 3d cd cc 4c 3d
       0.05 0.05 0.05 0.05
000070 cd cc 4c 3d cd cc 4c 3d cd cc 4c 3d cd cc 4c 3d
       0.05 0.05 0.05 0.05
000080 cd cc 4c 3d cd cc 4c 3d cd cc 4c 3d cd cc 4c 3d
       0.05 0.05 0.05 0.05
000090 cd cc 4c 3d cd cc 4c 3d cd cc 4c 3d cd cc 4c 3d
       0.05 0.05 0.05 0.05
0000a0 cd cc 4c 3d cd cc 4c 3d cd cc 4c 3d cd cc 4c 3d
       0.05 0.05 0.05 0.05
0000b0 cd cc 4c 3d cd cc 4c 3d cd cc 4c 3d cd cc 4c 3d
       0.05 0.05 0.05 0.05
0000c0 cd cc 4c 3d cd cc 4c 3d cd cc 4c 3d cd cc 4c 3d
       0.05 0.05 0.05 0.05
0000d0 cd cc 4c 3d cd cc 4c 3d cd cc 4c 3d cd cc 4c 3d
       0.05 0.05 0.05 0.05
0000e0 cd cc 4c 3d cd cc 4c 3d cd cc 4c 3d cd cc 4c 3d
       0.05 0.05 0.05 0.05
0000f0 cd cc 4c 3d cd cc 4c 3d cd cc 4c 3d cd cc 4c 3d
       0.05 0.05 0.05 0.05
000100 9e 93 58 3d b5 72 40 3d 6c ed 3f 3d 8f a6 40 3d
       0.052875154 0.046984393 0.046857283 0.047033843
000110 e6 82 2d 3d d5 32 07 3d 7a 15 3c 3d 80 b2 8e 3d
       0.042361163 0.03300746 0.04591892 0.0696764
000120 e9 55 4a 3d 50 bd 84 3d 34 a3 24 3d 40 88 26 3d
       0.049398337 0.06481421 0.040194705 0.040657282
000130 11 5b 4c 3d bd cb 51 3d 1e 91 31 3d 3f 06 e5 3c
       0.049891535 0.05121969 0.043351285 0.02795708
000140 1c da 51 3d 41 3c 3b 3d 89 81 3e 3d 1d 45 44 3d
       0.051233396 0.04571176 0.046510253 0.047917474
000150 13 68 91 3d 59 91 60 3d d2 dd 64 3d a0 0d 2e 3d
       0.07099929 0.054826114 0.055875607 0.042493463
000160 6b fc 33 3d 35 5d 54 3d 01 3a 51 3d 62 38 47 3d
       0.043941896 0.0518467 0.051080707 0.048637755
000170 ec 06 4d 3d 90 6e 5e 3d eb f5 1c 3d e9 33 4b 3d
       0.05005543 0.05430466 0.038320463 0.049610052
000180 37 42 66 3d 59 be 02 3d 7b 95 4e 3d b2 6f 0b 3d
       0.05621549 0.03191981 0.050435524 0.034042068
000190 b2 1a 34 3d 3f 75 61 3d 71 ec 45 3d 67 02 31 3d
       0.04397077 0.055043455 0.04832119 0.04321518
0001a0 ac fd 63 3d 26 1c 1d 3d ac 6a 39 3d 1d 0f 39 3d
       0.055661842 0.038356923 0.045267746 0.04518043
0001b0 f7 1c 5c 3d 73 cf 29 3d df 5c 30 3d 95 b5 3b 3d
       0.05373856 0.041457605 0.04305732 0.045827467
0001c0 b6 45 34 3d 4f 22 2b 3d 5f 09 1c 3d 1f 8b 41 3d
       0.044011794 0.041780766 0.038094874 0.047251817
0001d0 0c 8d 4f 3d 12 5f 3b 3d 7e c0 18 3d 73 ca 3f 3d
       0.050671622 0.045744963 0.03729295 0.04682393
0001e0 c4 cb 0d 3d 44 5d 37 3d 8b c0 14 3d 2d 95 e9 3c
       0.034618154 0.04476668 0.036316436 0.028513515
0001f0 da fb 5b 3d 82 fb 4d 3d fa 5c 09 3d f9 1a 40 3d
       0.05370698 0.050288685 0.033535935 0.046900723

noisy3.bias_mu f4 [2]
000000 36 6a 8f bd 13 e3 2b 3e
       -0.0700268 0.1678584

noisy3.bias_sigma f4 [2]
000000 c3 d0 90 3e 01 ec 4c 3e
       0.28284273 0.20011903

noisy3.weight_epsilon f4 [2, 64]
000000 b1 85 f2 bf 89 74 11 bf 1d 31 8d 3f 81 9b aa 3f
       -1.8947049 -0.56818444 1.1030613 1.3328706
000010 5b 3c ff bf 68 ce 7f 3f cf f4 88 bf 1d 86 d9 bf
       -1.9940294 0.99924326 -1.069971 -1.6994053
000020 82 37 fa 3f 80 97 a6 3f 8a cc 17 3f ec 85 af 3f
       1.954819 1.3014984 0.59296477 1.3712745
000030 41 de 86 3e 00 01 46 3f ff f3 1d bf a5 6e a2 bf
       0.2634144 0.77345276 -0.61700433 -1.2690016
000040 c4 3b bc 3f e6 c8 c5 3f b5 e1 37 bf 96 47 2e 3f
       1.4705739 1.5451934 -0.71828777 0.6807798
000050 1b 19 f4 3f cd bb bb 3f 14 77 bf 3f eb 2c f5 bf
       1.9070162 1.4666687 1.4958215 -1.9154333
000060 61 f8 83 3f 38 b0 b5 3f d1 7a 87 3f ef 39 e4 bf
       1.0310174 1.4194403 1.0584356 -1.783018
000070 4a 7c 01 be 0e 67 59 3f 59 56 29 bf 89 6c 75 bf
       -0.12645069 0.84922874 -0.6614738 -0.95868737
000080 92 dc c2 bf 36 ce a2 3f a4 b8 21 40 8d e3 72 bf
       -1.5223563 1.271918 2.5268946 -0.94878465
000090 2c 79 ca 3f 84 59 bf bf fb 5e af 3f 02 18 cc 3f
       1.5818229 -1.4949193 1.3700861 1.5944827
0000a0 cb 48 f0 be b1 73 30 bf cc 5a 84 3e fe 83 02 3f
       -0.46930537 -0.6892653 0.25850523 0.50982654
0000b0 90 c7 92 bf 03 43 ce bf 20 fa 04 40 c1 56 6b 3f
       -1.1467152 -1.61142 2.0777664 0.9192925
0000c0 59 23 84 3f a9 18 ea bf 69 d4 9e 3f 39 01 37 3f
       1.0323287 -1.8288776 1.2408572 0.7148624
0000d0 68 62 74 3f 25 81 ba 3f db ec 7b bf b6 a5 24 3f
       0.95462656 1.4570662 -0.9840829 0.64315355
0000e0 6f b3 5e bf c0 8f fc 3f 25 d4 b3 bf 09 94 bc 3f
       -0.86992544 1.9731369 -1.4049116 1.4732677
0000f0 79 e5 d1 bf ce 5c 58 3f a5 dc 54 3f aa 00 89 bf
       -1.6398154 0.8451661 0.83149177 -1.0703328
000100 56 4a 97 3f d7 79 b5 3e 23 28 30 bf 5e db 54 bf
       1.181956 0.3544452 -0.68811244 -0.8314723
000110 aa 38 9f 3f c6 93 1f bf 50 df 2a 3f 26 b2 87 3f
       1.2439167 -0.6233486 0.66747 1.0601242
000120 26 17 9c bf c8 d8 4f bf 04 64 bd be 6b fd 5a bf
       -1.2194564 -0.81190157 -0.36990368 -0.85542935
000130 61 44 28 be b1 09 f7 be 9f 11 c5 3e 3a a8 4a 3f
       -0.16432334 -0.4824958 0.38490006 0.79162943
000140 0c d9 6a bf b2 c3 76 bf 1a 6b e5 3e 40 70 d9 be
       -0.9173744 -0.9639236 0.44808275 -0.42468452
000150 ff 45 98 bf 64 39 6a bf 3d e1 6e bf 0e f2 98 3f
       -1.1896361 -0.9149382 -0.93312436 1.1948869
000160 c9 a6 24 bf 91 ae 62 bf b7 07 29 bf 4e 5f 8e 3f
       -0.64316994 -0.8854762 -0.66027397 1.1122835
000170 2d 8d a1 3d c6 9e 07 bf af 45 d3 3e bd 19 19 3f
       0.07888255 -0.52976644 0.41264102 0.598049
000180 0e 1e 73 3f 75 1f 4b bf 27 c5 c9 bf e4 84 17 3f
       0.94967735 -0.79344875 -1.5763291 0.5918715
000190 35 9d 7c bf 5a bc 6e 3f d5 cc 5a bf c6 a2 7e bf
       -0.9867738 0.9325615 -0.854688 -0.9946712
0001a0 f3 e4 95 3e 11 26 dc 3e 94 21 25 be 2e d6 a2 be
       0.29276237 0.42997792 -0.1612609 -0.3180403
0001b0 d2 20 37 3f 9c ab 80 3f 5d e8 a5 bf 2b cf 12 bf
       0.71534455 1.0052371 -1.2961537 -0.57347363
0001c0 66 dc 24 bf bd 08 92 3f 9c 29 46 bf 07 53 e4 be
       -0.643988 1.1408917 -0.7740724 -0.44594595
0001d0 b9 73 18 bf d0 b0 68 bf fa 27 1d 3f b9 6b cd be
       -0.5955158 -0.90894794 0.61389124 -0.40121248
0001e0 e9 ec 0a 3f 98 8d 9d bf 99 5c 60 3f 2d 47 6b bf
       0.54267746 -1.2308836 0.8764129 -0.9190548
0001f0 0d f0 82 3f af f8 06 bf a3 c9 04 bf 1a ee 2a 3f
       1.0229508 -0.5272321 -0.51870173 0.66769564

noisy3.bias_epsilon f4 [2]
000000 52 b6 c4 be df f8 9d bf
       -0.3842035 -1.2341574
