logs/CartPole-v1/experiment-2020-04-19_11_04_52/checkpoint.pth (torch_old, 205718 bytes, 14 tensors)

linear.weight f4 [128, 4]
000000 71 8d 33 3d 32 3d ef 3e b6 0b be 3e e7 cd bd bd
       0.04383606 0.46726376 0.3711831 -0.092677884
000010 da 68 cd be 09 fe e3 3e 9f 0a 92 3e 0c e4 bd be
       -0.40119058 0.4452975 0.28523728 -0.37088048
000020 d1 63 c5 3e f7 d3 89 be 45 74 a3 bd 0c 7a f1 bd
       0.38552716 -0.2691953 -0.07981161 -0.11790857
000030 d1 74 00 3f 19 84 82 be d8 2e 6e 3e 6c 79 81 bd
       0.5017825 -0.25491408 0.23260057 -0.063219875
000040 99 34 c0 be 97 a9 b4 3e ee ec d0 be 38 6e 01 3f
       -0.3754013 0.35285637 -0.40805763 0.50558805
000050 8a 13 be 3e 53 54 16 bd c3 e6 23 be a3 8b c3 3e
       0.37124282 -0.03670151 -0.16005997 0.38192472
000060 c3 40 01 bf f7 b7 a0 3e 94 07 59 3e 39 44 70 be
       -0.50489444 0.31390354 0.21194297 -0.23463525
000070 ea 89 cb be 49 cd 22 3e 49 56 08 3f 9e 79 17 3e
       -0.39753658 0.15898623 0.5325666 0.14792487
000080 16 51 e8 be bf 80 51 be e8 82 a3 3e 20 be 9c 3e
       -0.45374364 -0.20459269 0.3193581 0.30613804
000090 fb 28 c1 be 19 3b 78 3e a7 b7 05 bd 86 9f bb 3d
       -0.37726578 0.24241294 -0.032645848 0.09161286
0000a0 ac 28 7d be 08 3d 83 be 74 4a 26 3e a0 2e 36 3e
       -0.24722546 -0.256325 0.16239339 0.17791224
0000b0 7c b4 82 be a3 91 c9 3e 38 ff a1 be 76 5c e3 be
       -0.25528324 0.39368924 -0.3164003 -0.4440648
0000c0 ff 7f 04 bf b3 97 c3 be 0e f8 6b 3e b7 14 e3 be
       -0.51757807 -0.38201675 0.23043844 -0.44351742
0000d0 43 1a c7 3e 0c 03 ab 3e df 01 c1 3d a1 d9 2a 3e
       0.38887224 0.33400762 0.09424185 0.16684581
0000e0 38 e3 98 3e 4c 4a ed be ea 89 f5 be 20 c3 e6 3d
       0.29860854 -0.46345747 -0.47956783 0.11267686
0000f0 02 2c 77 3e 2f a3 af bd 81 8b 19 bd cf b6 29 bc
       0.24137881 -0.08576047 -0.037486557 -0.010358526
000100 19 66 98 be 98 72 c4 3e 14 c8 bf 3e 84 85 71 3d
       -0.29765394 0.38368678 0.37457335 0.05896522
000110 5f 03 46 3e bc 90 a4 3d b6 8a 3f 3e 6f 0a 08 be
       0.19337223 0.080354184 0.18705258 -0.1328523
000120 a7 48 ff bd 51 c8 49 3e 49 51 a0 3e 87 c0 e1 3e
       -0.12465029 0.19705321 0.31312016 0.440922
000130 2a 90 ca bd 2c 21 70 be ba 66 e1 3e 7c 7d 85 be
       -0.09890778 -0.23450154 0.44023687 -0.260723
000140 76 db 38 be fc f2 0f be 11 81 83 bd 07 3a f2 be
       -0.18052468 -0.14057535 -0.06421102 -0.47309896
000150 29 7c 38 be 7f b8 8a be 63 33 3e be 08 54 1b 3e
       -0.18016113 -0.27093884 -0.1857429 0.15168774
000160 fd a9 27 3e 79 c3 c6 3e 6a 0f 95 3e 40 c5 85 3e
       0.16373439 0.3882101 0.29113322 0.26127052
000170 ad 2a a4 bd a9 e6 b4 bd af 09 ca be 48 e0 91 3e
       -0.08015952 -0.088330574 -0.39460513 0.28491426
000180 08 0b 5a 3e 8e 5b 4a 3d 60 34 d7 be 21 c7 f2 3d
       0.2129327 0.04940372 -0.42032146 0.11854387
000190 04 c7 67 be 3a cb e2 3e 69 59 de 3e 7d 9e a1 be
       -0.22634512 0.44295675 0.4342759 -0.3156623
0001a0 b7 b2 3c 3e af b0 84 be 9b d3 aa 3e ef 5e 78 3e
       0.1842755 -0.2591605 0.33364567 0.24254964
0001b0 f0 84 84 3e 83 18 b4 3e ed 7e c7 be 5b b4 3d be
       0.25882673 0.3517495 -0.38964024 -0.18525831
0001c0 c7 af c4 3e 4c 90 44 be a5 3e f6 bc 09 75 b1 be
       0.38415357 -0.1919567 -0.030059168 -0.34659603
0001d0 62 6e 99 bc 0d 89 17 be d0 4f 52 be 2c c7 a3 be
       -0.018729392 -0.14798374 -0.20538259 -0.31987894
0001e0 0f e8 05 3e 45 51 cf 3e 82 2f 76 be 06 db d6 be
       0.13076805 0.4049169 -0.2404156 -0.41963977
0001f0 e5 bd 3f be 5c 11 8d be 07 93 44 be b7 dc ce 3d
       -0.18724783 -0.27552307 -0.19196711 0.10100692
000200 f0 25 a2 3e f3 9f 77 3e 35 be be bd cb 1b 7a 3d
       0.3166957 0.2418211 -0.09313623 0.06106166
000210 db 03 bb 3e 60 40 80 bd 48 8d f9 3e a4 23 a3 3c
       0.3652638 -0.062622786 0.48740602 0.019914456
000220 b9 b4 e2 be 69 c1 8d 3e dd d7 49 3e 2b 7f bb 3d
       -0.44278505 0.27686623 0.19711252 0.09155115
000230 01 83 d8 3e a4 09 cd bd 68 34 e2 be 0d 02 c4 3e
       0.42287448 -0.100116044 -0.44180608 0.38282815
000240 a3 06 20 3d c8 33 e9 3d 9a 29 7c be ca f7 16 be
       0.03906883 0.113868296 -0.24625245 -0.14742962
000250 ac 1e 0c 3e a3 20 cd 3e 76 29 85 3e 27 22 b7 3d
       0.13683575 0.40063962 0.26008195 0.08942061
000260 44 a8 75 bb 42 7d 5e be bb 4a d8 3e ce d2 bf 3e
       -0.0037484327 -0.2172747 0.42244515 0.3746552
000270 a0 5d db 3d 24 0e 24 3e 78 51 29 be 1c 6a 4e 3e
       0.10711217 0.16021019 -0.16534984 0.20157665
000280 a5 19 bd be 18 92 13 3e 17 46 b6 3e 73 c0 bf be
       -0.36933628 0.14411199 0.3560035 -0.37451515
000290 99 af d7 3e 5f 3c 34 be 0b e4 8b be 7a d1 9d 3e
       0.42126158 -0.17601155 -0.2732242 0.3082388
0002a0 7e 08 c1 3e f4 c7 50 3e 81 fd 5e be 69 e5 eb 3e
       0.37701792 0.20388776 -0.21776392 0.46073464
0002b0 88 2d 74 3e 7b a1 bb 3e f9 3f 38 3e 5f 42 d0 be
       0.23845494 0.36646637 0.17993154 -0.40675637
0002c0 6d c1 f4 3d 01 65 6f be 35 69 31 3b 2e f5 be 3e
       0.119509555 -0.23378374 0.0027070765 0.37296432
0002d0 08 3c e5 3d 44 58 88 be ee 77 ee 3e 5a e5 81 3e
       0.11193091 -0.2662984 0.46575874 0.25370294
0002e0 f4 be a9 3e 6b b5 34 be fc ab c7 3e cc 38 f1 3e
       0.33153498 -0.1764733 0.389984 0.47113645
0002f0 69 97 02 bf 20 7d 97 3e 0d 9b f3 3e 5f e7 ce 3c
       -0.51012284 0.2958765 0.47579232 0.02525681
000300 97 7a dc be 7c 8a 39 3e 2e 36 ca be 30 9c bd 3e
       -0.4306228 0.18119234 -0.3949446 0.37033224
000310 45 06 f4 bd 25 32 e5 be 0a c5 ba be 9e 7e 35 3e
       -0.11915258 -0.4476482 -0.36478454 0.17724082
000320 92 34 e7 be a4 9e c0 be a6 73 91 3d 30 1a c6 be
       -0.45157295 -0.37621033 0.07102136 -0.38691854
000330 25 c4 91 3e 65 73 e7 3d 55 ba 73 be bb 1c 18 be
       0.2846996 0.11301307 -0.23801549 -0.1485471
000340 89 87 67 3e ea f2 da be 10 85 07 3d d3 11 5f 3c
       0.22610296 -0.42763454 0.033085883 0.0136150895
000350 e6 df c0 3e f3 37 8b 3e bb d3 87 be e8 7a 80 3e
       0.3767082 0.27191123 -0.26528725 0.2509377
000360 11 ad 17 3e a9 20 37 be 5b 49 d3 3e a7 26 1f 3e
       0.14812113 -0.17883553 0.41266903 0.15542088
000370 ac c3 85 be 95 3f 24 bc 3a cf d3 3e d0 d5 d9 3c
       -0.26125848 -0.010024925 0.4136904 0.026591212
000380 30 6d b3 be 11 92 8a be ed a5 a8 be 67 e3 5f be
       -0.3504424 -0.27064565 -0.3293909 -0.21864091
000390 75 31 0b 3e 6a ac 7b 3e 52 6f 8d 3e 6f eb 2c be
       0.13593085 0.2457749 0.27623993 -0.16886686
0003a0 39 91 9f 3e f9 40 c2 bd 18 76 ae 3d c1 62 ca 3d
       0.31165484 -0.09485049 0.08518618 0.09882117
0003b0 80 41 79 bc f8 b6 cb bd 68 2b fc be 40 bc cb bc
       -0.01521337 -0.09947008 -0.49251866 -0.024870038
0003c0 78 4b 9f 3e 49 6f ca 3e 96 14 02 3f b2 3d 9b bd
       0.31112266 0.3953803 0.5081266 -0.07580127
0003d0 98 13 ca 3e d1 e9 f3 3e 7b 58 bb 3e 04 be d0 3d
       0.39468074 0.47639325 0.36590943 0.101924926
0003e0 c1 b9 71 3e 54 8c 42 3d 86 96 89 3e db 15 a0 bd
       0.23606016 0.04749711 0.26872653 -0.078166686
0003f0 eb 50 ac be 03 56 22 3e 1e 65 8f bd 22 f2 d5 bd
       -0.33655486 0.15853123 -0.070017084 -0.10446574

linear.bias f4 [128]
000000 7c da f8 be c5 14 90 3d dc 5c ca 3e 17 78 a1 3e
       -0.4860419 0.070352115 0.3952397 0.31536934
000010 6b 28 a0 be ef e5 6b 3e 22 3e c3 3e 0d c9 af 3e
       -0.31280836 0.23036931 0.3813334 0.34333077
000020 2a d4 4f 3e 45 ad 44 be 31 6e c3 be e6 e1 0a 3c
       0.20295778 -0.19206722 -0.38170007 0.00847671
000030 70 d6 c9 be ec b1 c5 3c dd 6e a6 3e a9 fd 24 3e
       -0.39421415 0.024132691 0.32506457 0.16112389
000040 2e 74 ef 3e f1 08 dd 3e 4e 0d af be 9b bc e3 3e
       0.46768326 0.43170884 -0.34189838 0.44479832
000050 cd b9 ce 3e 81 72 6e 3e 55 f2 0c 3e 8a af da 3e
       0.4037613 0.23285867 0.13764317 0.4271205
000060 2b 16 a0 3e d2 98 0e bd 61 ed 9a 3e 64 bf fd 3e
       0.31266913 -0.03481371 0.3025923 0.49560082
000070 ac 93 fa 3e b7 e8 d2 be 2d 4c 50 3e 62 5b 6f be
       0.4894079 -0.41193172 0.20341559 -0.23374704
000080 46 f7 9e bd 5d cd 96 bd f6 fe 8c be b0 ce 37 3e
       -0.077620074 -0.07363389 -0.2753827 0.17949939
000090 3c 57 8b be cb 72 e9 bd f4 95 e5 3e 42 30 c6 be
       -0.27214992 -0.11398848 0.44840968 -0.38708693
0000a0 3a cb ed be 3a fd 16 3e 08 34 ca 3c b3 c1 1b be
       -0.46444112 0.14745036 0.024683014 -0.15210609
0000b0 24 c1 4d be 1d 4f f3 3e c1 cb 62 be 9b 32 49 3e
       -0.20093209 0.47521296 -0.22148038 0.1964821
0000c0 31 b0 8a 3e e0 15 b7 3e 15 ce a9 3e e8 a4 af be
       0.27087548 0.35758877 0.3316504 -0.343055
0000d0 7a a0 f8 be 73 f3 43 be ce 87 5a be f8 5d c0 3e
       -0.48559934 -0.19135837 -0.21340868 0.37571692
0000e0 2e ab 46 3e 5d df 91 3e 0e 81 88 3e 42 d3 af be
       0.19401237 0.28490725 0.2666096 -0.34340864
0000f0 02 fb c3 3e 50 6a c9 be b8 c6 ae 3d 00 34 eb be
       0.3827744 -0.39338923 0.08533996 -0.4593811
000100 ce ee 55 3e f6 54 b5 be 13 2f 0b 3e 1b 05 fa 3e
       0.20891878 -0.35416383 0.13592176 0.4883202
000110 95 7f be 3e ec 57 a2 be b4 c9 b7 3e 7d 68 e8 3d
       0.37206712 -0.31707704 0.35896075 0.113480546
000120 cc 4b 77 3d 64 86 b1 3d 71 ad 45 be 08 bf a3 be
       0.06037502 0.08668211 -0.19304444 -0.31981683
000130 c9 64 54 be ec 04 bd 3d 37 53 dd be a9 4a 3e bd
       -0.20741571 0.092294544 -0.4322755 -0.04645792
000140 2c 31 d4 3d 94 ee 17 3d 42 2a 56 be 87 ef 56 be
       0.10360941 0.03709276 -0.20914558 -0.2098981
000150 88 2f f4 3e fd b9 ee 3e 66 7e 8e be 68 e9 49 3e
       0.47692513 0.46626273 -0.2783081 0.19717944
000160 a0 d5 d5 3e 27 ea a3 3d 96 0a 8b be 14 55 e2 be
       0.41764545 0.080036454 -0.27156514 -0.44205534
000170 92 2f 2e 3e 66 c5 95 bb f9 4f ae 3e 18 0f ec 3e
       0.17010334 -0.004570651 0.3404539 0.46105266
000180 88 8c 2f bd 5f bd 3b 3d dc 01 de be d8 21 9c be
       -0.04285863 0.045834895 -0.43360794 -0.3049457
000190 d4 e8 0c be 42 3b 98 be a0 4e 40 3d da 6e c7 3e
       -0.13760692 -0.2973271 0.046949983 0.3895176
0001a0 48 52 47 3e ae c0 54 3e 2e 52 d3 be 2b e4 e5 3e
       0.19464982 0.20776626 -0.41273636 0.4490064
0001b0 a4 7f ef 3e 6d 9a 5c 3e 7c 7c 44 bd 77 6a e1 be
       0.4677707 0.21543284 -0.04797028 -0.4402654
0001c0 68 f5 da bd 8a c7 b8 be e6 c3 d3 be 05 6c dd 3e
       -0.10691339 -0.36089736 -0.41360396 0.43246475
0001d0 c2 75 5d 3e 12 94 7c be 83 30 97 3d af a6 eb 3e
       0.21626952 -0.2466586 0.073823 0.46025607
0001e0 ed 5a c9 bd 5a 6c c8 3e f4 6b a9 be e2 ea 02 3f
       -0.09831796 0.39145166 -0.33090174 0.5113965
0001f0 5f 55 ff 3e 97 f1 da 3e ed a3 86 be 65 99 b4 3d
       0.4986982 0.42762443 -0.2629694 0.0881832

noisy1.weight_mu f4 [128, 128]
000000 43 12 0c 3c 16 f4 3d 3d 17 d2 25 3b f0 d2 91 bc
       0.008549276 0.046375357 0.0025302225 -0.017800778
000010 1f d0 a2 bd 47 7a 84 3d a8 41 f1 bc e2 c1 98 3c
       -0.07949852 0.06468635 -0.029450253 0.018647138
000020 fd 2b 8e 3d 02 50 2d bb 37 b9 5d bd 06 fe ad 3d
       0.06941984 -0.0026445393 -0.054131713 0.08495717
000030 0e 69 db bc 30 1c 89 3c 7c 27 92 3d 39 8b cf bc
       -0.026783492 0.016737074 0.07136437 -0.025334941
000040 1f 5d 46 bc e8 37 98 3d 9a e2 79 bc ee e2 8c 3d
       -0.012107163 0.07432538 -0.01525178 0.06879221
000050 cd 11 0a 3d 14 22 6d bd 34 98 66 3d b4 4b 7c 3b
       0.033708382 -0.057893828 0.056297496 0.003849727
000060 07 8c 7f 3d 98 7c 4b bc f0 72 b7 3d 29 9b cd 3d
       0.0623894 -0.012419842 0.089574695 0.1003936
000070 80 61 8a bc 4f 3b 87 bc e7 27 72 3d 55 59 c9 bd
       -0.016892195 -0.016507773 0.059120085 -0.09831492
000080 7f 0a c1 3c e1 f0 0b bc 4c 2a 01 3d 37 18 2c 3d
       0.023564575 -0.008541317 0.031534478 0.04201528
000090 86 5d 38 bc c3 08 8c 3d 9d 12 9a bd f8 16 48 bd
       -0.0112527665 0.06837609 -0.075230815 -0.04885003
0000a0 c5 de 3c bd a4 e9 86 bd 4d 3e e7 bc 91 a9 b4 bc
       -0.046110887 -0.06587532 -0.02822795 -0.022053512
0000b0 78 11 10 bd cb 27 4c 3d e9 a5 3a bd 78 0a 6e 3d
       -0.03517291 0.049842637 -0.04556838 0.058115453
0000c0 42 45 ab 3c d2 a8 07 bd 9f 68 03 bd df dc fb bd
       0.020907048 -0.033119984 -0.032082196 -0.12297987
0000d0 55 d9 87 bd 99 d1 d3 bc 43 ee 28 3d 76 02 74 b8
       -0.0663325 -0.02585678 0.04124285 -5.8176425e-05
0000e0 e3 03 13 bc 15 f1 80 3d 8e b3 c6 3a 11 68 0d bd
       -0.008973095 0.06295983 0.0015159713 -0.034523074
0000f0 e6 8c b6 3c 74 e7 b1 bd 45 58 e3 bc 67 71 72 bd
       0.022283982 -0.08686724 -0.027752051 -0.05919018
000100 42 8f 1b bb d3 63 90 bd e1 42 b6 3d f5 8d a1 3d
       -0.0023736511 -0.0705029 0.08899475 0.07888404
000110 90 a5 59 bd 7e 73 3a 3d 51 cf 29 bd a8 47 ca bc
       -0.05313641 0.0455203 -0.041457478 -0.024692371
000120 d6 62 9f 3d a7 ff eb 3c 6e 54 b2 bd 8a e9 1e 3d
       0.07782523 0.028808428 -0.0870751 0.03879694
000130 0b 3f 95 3c 93 58 dc bc 45 87 e3 3a 89 0a a2 bd
       0.018218538 -0.026897704 0.0017359039 -0.07912166
000140 04 5d a0 3c 34 cd ef 3d 64 96 14 3c 5b d9 d3 bd
       0.019575603 0.11709061 0.009069059 -0.10344192
000150 00 e8 20 3d ed 4d d4 bb 45 60 7c 3c ef 61 f6 3c
       0.039283752 -0.006479016 0.015403812 0.030075995
000160 34 59 9d 3c fc 45 1e 3d 21 a1 26 bc 3d 71 6a bd
       0.019207574 0.03864096 -0.010170252 -0.0572369
000170 56 45 3b bd 11 48 b6 bc f6 30 b1 3d 7a b1 64 3d
       -0.04572042 -0.02225116 0.08651917 0.055833317
000180 d6 4a 81 3d 41 6b b2 3d 5a 88 97 bd 39 4f a1 3d
       0.06313102 0.08711863 -0.07399054 0.07876439
000190 90 05 20 bd 94 57 4f bd 84 84 3d 3b 83 73 92 3d
       -0.039067805 -0.05062063 0.0028918097 0.07150938
0001a0 0c 47 4e bd 0e 0c 89 bc 7b fa 83 3d db e3 ba 3d
       -0.050360724 -0.016729381 0.0644426 0.09125491
0001b0 29 49 84 b9 9c b0 dc bc 46 b9 6e 3d b7 5b 9c bd
       -0.0002523151 -0.026939683 0.05828216 -0.07634681
0001c0 ee 12 59 bd aa 37 fe bd 6c 4f 73 bd 6b 9b 2d 3d
       -0.05299657 -0.12412961 -0.059401914 0.042384546
0001d0 f9 e3 86 bd f3 30 e4 bd da d8 b8 bc 33 98 28 bd
       -0.06586451 -0.11142149 -0.02256434 -0.041160773
0001e0 2d fa 9e bd 38 1d 51 3c ac 68 ae bd 66 f8 80 3d
       -0.07762561 0.012763314 -0.08516058 0.06297378
0001f0 ca ea c9 3d 42 65 cb 3d 8f 4c a4 bd 24 8f d9 bc
       0.098592356 0.09931423 -0.08022415 -0.026557513
000200 cb a1 40 bd 54 c6 95 3d 84 8c 0f 3d 73 fe 70 3c
       -0.047029298 0.07313219 0.035046116 0.014709103
000210 cf ea 2b 3c 7b 30 92 3d 1b e8 72 3d 50 59 a5 3d
       0.010492994 0.07138153 0.059303384 0.08073676
000220 c6 84 e8 bc 40 e6 7a bd 77 79 59 3d 55 cc a6 3c
       -0.028383624 -0.06125474 0.053094354 0.020361105
000230 a2 88 1d bd 72 86 9c 3d 4e 3c 2e 3c 25 56 cf 3d
       -0.03846038 0.07642831 0.010634495 0.10123853
000240 ee 85 84 bd 9e 47 33 3d 04 5e 1e bd 92 e7 44 bd
       -0.064708576 0.04376947 -0.03866388 -0.048072405
000250 eb da b1 3d a6 16 37 3d 8b 8a be 3c c6 61 11 bd
       0.086843334 0.044699334 0.023259422 -0.035493635
000260 e4 03 86 3c 7b 9c 48 bd df ff 9c bc db ad 09 3d
       0.016359277 -0.048977356 -0.019164978 0.033613067
000270 32 ba b9 3d 9f 86 93 3d 6d 1a c4 3d e9 51 d6 3c
       0.09068717 0.07203411 0.09575353 0.026162105
000280 6c 2e 2e 3d 84 51 f8 bd a2 8c 72 bd 21 37 12 3c
       0.04252474 -0.12124923 -0.05921615 0.008924277
000290 47 25 fc 3c 90 17 35 bd 96 d5 c1 bc 62 7f 45 bd
       0.030779494 -0.044211924 -0.023661416 -0.048217185
0002a0 e5 bb 98 bd ba d9 2d bd 4f 69 18 3b b0 7f 3e 3c
       -0.07457713 -0.04244397 0.0023256128 0.011627123
0002b0 c4 3a 90 bd a9 ee 73 3d 57 9b d9 b9 89 61 89 3d
       -0.07042459 0.059553776 -0.00041505203 0.067080565
0002c0 e0 b3 88 3d 5c 6c c5 bc 29 04 05 3d 9e 89 05 3d
       0.066749334 -0.024099521 0.03247467 0.032601945
0002d0 36 78 bc 3c 19 73 d3 bc c5 7b 01 3b 41 30 af 3c
       0.02300654 -0.025811719 0.001975761 0.021385314
0002e0 a2 0f 60 3d 1a 34 d5 3d be 62 42 bd d8 5c 20 bc
       0.05470241 0.10410328 -0.04745745 -0.009787761
0002f0 a6 0a eb 3a d6 73 db 3c b7 2b 6f 3d c4 2a 96 3c
       0.0017932251 0.026788633 0.0583913 0.01833094
000300 48 84 d5 3c fb 7e a8 3d a7 bf 99 ba bd 43 94 bc
       0.026064053 0.082273446 -0.001173009 -0.018098706
000310 0f 21 7c bd ee c9 70 3d 30 8b 02 bc 07 3f b5 3d
       -0.061554965 0.058786325 -0.007967755 0.08849912
000320 d6 90 0f bd cd c0 4d bd 8d ce 0b 3d 8c 0d 85 3c
       -0.035050236 -0.050232697 0.03413253 0.016241811
000330 4a c7 ab ba 89 d4 1b bd 97 82 83 3c dc b0 22 3c
       -0.0013105657 -0.038044486 0.016053481 0.009929862
000340 e1 eb 90 bc a0 2a 81 bd 77 34 0a bd a8 b4 e5 3c
       -0.0176906 -0.06306958 -0.03374144 0.028040245
000350 64 82 2f bd b3 82 b6 3d 70 21 03 bd 1a 64 2c 3d
       -0.04284896 0.08911648 -0.03201431 0.04208765
000360 51 84 a6 3d 94 34 f9 3a 83 97 8b 3c ce 07 f9 bc
       0.08130706 0.0019012862 0.01704002 -0.03039923
000370 f5 59 fa bb e3 13 aa 3a b1 f7 8b 3d 4c 82 2d bd
       -0.0076401182 0.0012975897 0.06834353 -0.04236059
000380 67 f7 9e ba 20 34 06 bd e2 51 c5 bd 3e d5 fd 3c
       -0.0012128175 -0.032764554 -0.096347585 0.03098547
000390 d7 d0 a3 bd 7b 4b b8 bd 31 23 eb bc 37 7f 2f bd
       -0.079988174 -0.08998772 -0.028703304 -0.04284593
0003a0 46 60 e2 3c c0 35 8c bd 2a 28 de bd 00 f7 19 bc
       0.027633797 -0.068461895 -0.108475044 -0.009397268
0003b0 dc 91 81 bd 5c c1 6a bb 59 c8 83 3d ae de 52 3d
       -0.063266486 -0.0035820818 0.06434698 0.051481895
0003c0 a9 14 4e 3d 2b e2 11 bc 9c 56 f6 3c d1 6f a3 bc
       0.05031267 -0.00890402 0.030070595 -0.01995078
0003d0 18 ad ea bc c2 e9 31 3d 5d 5d 89 3c d7 04 59 3d
       -0.02864699 0.04343582 0.016768152 0.05298313
0003e0 8c 79 91 bc d3 7e 9f 3d 17 1e 68 3d 4a 7f ed 3c
       -0.017758153 0.07787862 0.05666932 0.02899136
0003f0 f9 e1 70 bd ac ea 89 bd c1 4a 57 bd ca bb 18 3d
       -0.058809254 -0.06734213 -0.052561525 0.037288465

noisy1.weight_sigma f4 [128, 128]
000000 c1 8e 5a 3d 79 21 eb 3c 3c 55 c1 3c ab 32 43 3d
       0.053358797 0.028702484 0.023600213 0.047655743
000010 a8 5d 9b 3d 7b 13 d0 3c 5a f9 46 3d 34 5d 98 3c
       0.07586223 0.025399914 0.048577644 0.01859913
000020 9e cc e6 3c 8c ba e3 3c 70 c9 a0 3c a5 b1 03 3d
       0.028173741 0.027798913 0.019627303 0.032151837
000030 33 2f f7 ba 8a a9 98 3c bf 8c 33 3d 4c 20 41 3d
       -0.0018858671 0.01863553 0.043835398 0.04714994
000040 5d 65 9f 3c fd 6d af 3c 48 11 c7 3c 2c 2b 47 3d
       0.019457513 0.021414751 0.024300233 0.048625156
000050 1c 8e c9 3c be b0 d4 3c 4d 69 54 3c fe 35 44 3d
       0.024603896 0.025963183 0.012964559 0.047903053
000060 75 10 b9 3c 55 3e f9 3c f5 bd cd 3c 53 f4 bc 3c
       0.022590855 0.03042523 0.025114993 0.023065722
000070 81 e0 bf 3c e5 62 d1 3d 06 ad e7 3c f2 45 52 3d
       0.023422481 0.10223941 0.028280746 0.051336236
000080 fe 42 0f 3d d7 8b 85 3d b0 e0 f2 3c e5 8d e0 3c
       0.034975998 0.06520813 0.029648155 0.02741141
000090 34 0b 81 bc eb e1 f3 3c 4b 32 c3 3c c3 d0 10 3d
       -0.015752412 0.029770812 0.023827692 0.03535534
0000a0 0e fa 4e 3d 05 2d f0 3c 4e 70 23 3d 88 f0 11 3d
       0.05053144 0.029318342 0.039902024 0.03562978
0000b0 f4 5d e9 3c 7c d4 42 3d 1c c6 f1 3c 6c bd 88 3c
       0.028487183 0.047565922 0.029513411 0.016691886
0000c0 f2 15 b6 3c 32 c7 34 3d 65 05 3f 3d 47 f0 a8 3d
       0.022227261 0.04413528 0.046636004 0.08248954
0000d0 84 4f 85 3d 10 5e 58 3d 16 87 3e 3d 9b 43 a7 3c
       0.06509307 0.05282408 0.046515547 0.020417979
0000e0 48 fb 35 3d 10 cb 45 3d 33 eb 46 3d c3 d0 10 3d
       0.044429094 0.04828936 0.048564147 0.03535534
0000f0 d2 33 a7 3c 05 03 11 3c dc 82 41 3d 20 7d 86 3d
       0.020410452 0.008850818 0.047243938 0.065668344
000100 66 96 30 3d c3 d0 10 3d e6 a0 d6 3c 4f 7e 49 3d
       0.04311218 0.03535534 0.02619977 0.049192723
000110 57 e6 39 3d c3 d0 10 3d cb bb 37 3d 5d 91 3b 3d
       0.045385685 0.03535534 0.044856828 0.045792926
000120 f3 0f 13 3d 44 71 1e 3d 48 8d a6 3a f9 0b 36 bc
       0.035903882 0.038682237 0.00127069 -0.011111253
000130 0f 1c 85 3d 0d 9c 41 3d 28 b7 da 3b 69 88 14 3d
       0.064994924 0.047267962 0.006674666 0.036262903
000140 52 ea 29 3d db fe 92 3d bf 6a ea 3c aa ac 69 3d
       0.04148323 0.07177516 0.028615354 0.05704943
000150 80 91 ba 3c 1c e3 44 3d d8 72 97 bc a0 44 2e 3d
       0.022774458 0.04806815 -0.018487379 0.042545915
000160 5d 32 4e 3d be be 01 3d cc 8f e2 3c ba 53 32 3c
       0.050341 0.031676047 0.027656458 0.01088422
000170 06 3a cd 3c a5 c1 1a 3d a2 8d 95 3c c4 00 c5 3c
       0.025052082 0.03778233 0.018256012 0.024048217
000180 68 b6 09 3d 1d b1 de 3c c7 d8 80 3d ef df ed 3c
       0.03362122 0.027184064 0.06291347 0.029037444
000190 e8 a7 28 3d 20 57 83 bd 9c 30 29 3d b4 6c 3a 3d
       0.041175753 -0.06413102 0.041306123 0.045513824
0001a0 c7 67 e8 3c 14 e5 ef 3c 06 ff 36 3d 8a 83 c2 3c
       0.028369797 0.029284038 0.044676803 0.023744363
0001b0 7b fc 46 3d 94 c4 36 3d de a2 18 3d cf 46 96 3d
       0.048580628 0.044621065 0.037264697 0.073377244
0001c0 73 c7 c0 3b b9 e5 0b bc c3 d0 10 3d f7 aa 49 3d
       0.005883151 -0.008538657 0.03535534 0.04923531
0001d0 75 68 e7 3c ef e4 3c bc e5 40 27 3d ac e0 c3 3c
       0.028248051 -0.011529191 0.040833373 0.023910843
0001e0 04 15 05 3d 8f e8 3b 3d 01 76 59 3c 2f c7 3f 3d
       0.032490745 0.045876082 0.013272763 0.046820816
0001f0 26 89 bc 3c 28 34 c7 3c cb c2 de 3c a8 c3 48 3d
       0.023014616 0.024316862 0.027192494 0.049014717
000200 11 23 c7 3c 8e ce 08 3d be b2 56 3d 6b dd 97 3c
       0.024308713 0.03340011 0.052416556 0.018538198
000210 e9 65 bf 3b 49 d3 46 3d b7 e3 9c 3c 75 53 55 3d
       0.005841006 0.04854134 0.019151552 0.052081544
000220 e5 73 39 3d 93 92 f8 3c 16 fd 41 3d fc 05 fa 3c
       0.04527654 0.03034333 0.047360502 0.030520432
000230 25 40 84 3d 29 6c 2c 3d f8 86 a9 3c 35 bd 95 3c
       0.06457547 0.042095337 0.02069424 0.018278698
000240 6a 6c 5b 3d 22 84 5b 3d 37 c0 30 3d 0d 70 94 3c
       0.05357019 0.05359281 0.04315206 0.018119836
000250 f4 d5 52 3d 2c d5 49 3d 86 ea 5b 3d 54 61 a3 3c
       0.051473573 0.049275562 0.053690456 0.01994387
000260 a5 8e 57 3d 4e 41 e1 3c 38 6e 47 3d b9 5c 57 3d
       0.05262627 0.02749696 0.048689097 0.05257866
000270 41 32 5a 3d 7f e1 aa 3c 40 bd 34 3d 23 62 ad 3c
       0.053270582 0.020859478 0.044125795 0.02116496
000280 c7 77 35 3d a7 61 64 bc 1e 1c f5 3c 1f 60 44 3d
       0.04430368 -0.013939298 0.029920634 0.04794323
000290 9a 1d 52 3d d0 57 d4 3c f6 56 49 3d c3 d0 10 3d
       0.05129776 0.025920779 0.049155198 0.03535534
0002a0 6c 50 4a 3c 73 f6 3f 3d 46 df e7 3c 8f 6b 3f 3d
       0.012348276 0.04686589 0.028304707 0.046733435
0002b0 5f 50 25 3d 8f 71 a9 3c 7c bf 26 3d ca fe 59 3d
       0.04035985 0.020684032 0.040709957 0.0532215
0002c0 53 2f 4c 3d 2d cb ad 3c 87 af 99 3c ac d4 01 3d
       0.04984982 0.021215046 0.018760456 0.03169696
0002d0 41 f1 23 3d 36 98 6d bc 67 06 e1 3c 21 4b 55 3d
       0.040025 -0.014501622 0.027468873 0.0520736
0002e0 99 9d 9e 3c 1e 9c 9b 3c 3b b1 99 3c c3 d0 10 3d
       0.019362258 0.01899534 0.018761268 0.03535534
0002f0 1e 17 5b 3d c4 89 81 3c e6 bc a7 3c 43 a6 41 3d
       0.053488843 0.015812762 0.020475816 0.0472777
000300 49 34 dc 3c c3 d0 10 3d e9 d6 3c 3d 42 02 a1 3c
       0.0268804 0.03535534 0.04610339 0.019654397
000310 cc 94 97 3c c3 d0 10 3d 9f 05 97 3c 82 d0 ab 3c
       0.018503569 0.03535534 0.018435298 0.020973448
000320 48 fa f3 3c 8e 1a ac 3c 0c 77 3e 3d a9 a8 88 3d
       0.02978243 0.021008756 0.04650025 0.06672794
000330 93 ce 5e 3d 50 71 a5 3c 4d 37 d7 3c a1 e1 30 3d
       0.054396223 0.020195633 0.026271487 0.043183926
000340 ae 35 c2 3c f9 68 bb 3c c0 b2 4c 3d 82 b5 74 3c
       0.023707237 0.022877203 0.049975157 0.014935853
000350 19 2d 4f 3d 8d 0c 9c 3c fe 2a 3a 3d b9 7e df 3c
       0.050580118 0.019048953 0.045451157 0.027282106
000360 98 78 9c 3c 9a 5c 16 3d e5 85 26 3d 7e f3 43 3d
       0.019100472 0.036709405 0.040655036 0.047839634
000370 f6 ce 49 3d 95 7b 14 3d f2 4f 5d 3d b3 3f 59 3d
       0.04926964 0.03625067 0.05403132 0.053039264
000380 fd db e6 3c 86 eb 12 3d 54 99 c2 3c 83 5a 47 3d
       0.02818107 0.035869144 0.023754753 0.048670303
000390 74 f9 bc 3c da ae 32 3d bc 66 e0 3c 6b d6 98 3c
       0.023068167 0.043623783 0.027392738 0.01865693
0003a0 59 75 3a 3d 1e b3 3d 3d a6 09 59 3c 39 ca 4d 3d
       0.045522068 0.046313398 0.013246929 0.050241683
0003b0 c9 a9 93 3c c1 e9 c1 3c c6 6f 37 3d be 96 41 3d
       0.018025296 0.023671033 0.04478433 0.0472629
0003c0 33 79 27 bb 51 2d 5b 3d c3 d0 10 3d c8 33 9a 3c
       -0.0025554418 0.053510014 0.03535534 0.01882352
0003d0 9c 0b 40 3d 23 0a f7 bb 6c 03 13 3d 3d ff 4e 3d
       0.04688607 -0.00753905 0.035891935 0.050536383
0003e0 15 76 38 3d e9 2e 96 3c ef 18 48 3d 90 79 97 3c
       0.045034487 0.018332915 0.048851904 0.018490583
0003f0 2a 05 55 3d 60 47 52 3d e9 29 4c 3d 76 5a ac 3c
       0.052006878 0.0513376 0.049844656 0.021039229

noisy1.bias_mu f4 [128]
000000 fc 13 cc bc 10 74 89 3d 36 ca 34 3d b4 c2 be 3c
       -0.024911873 0.0671159 0.044138156 0.023286201
000010 39 fb ba 3d ff f0 b8 bd 15 63 9e 3d d8 40 a2 bd
       0.09129948 -0.09030341 0.07733742 -0.07922524
000020 43 05 07 bd a9 ac 73 bd 9e 2d 42 3d 74 3e 34 bb
       -0.032964002 -0.059490833 0.047406785 -0.0027503045
000030 19 81 f6 3b 3c 2a 80 bd 43 8f 2a 3b ca 78 99 bd
       0.007522714 -0.062580556 0.0026025332 -0.07493742
000040 cf c5 52 3d 59 58 a9 3d f8 62 91 3d ba 18 86 bd
       0.051458176 0.08268804 0.07098955 -0.06547685
000050 48 b4 ae 3b 24 06 bb bd df 01 9c 3c e8 03 3b bd
       0.00533155 -0.091320306 0.019043861 -0.045658022
000060 64 80 ac 3d fd 86 4f bd 0b 60 97 3c b1 45 b3 bd
       0.08422926 -0.050665844 0.018478414 -0.08753527
000070 ab 82 b0 3d 50 4a 1d 3c cc 83 93 bd 1b 5f 98 3d
       0.08618673 0.009600237 -0.07202873 0.07440015
000080 0e ac fc 3b 39 c5 d9 3c 77 19 16 bd c8 de ff bc
       0.00771094 0.0265833 -0.03664538 -0.03123416
000090 b1 8c 96 3d 4a 25 4d 3d 59 18 75 3d 02 69 7a 3d
       0.073510535 0.05008439 0.059837673 0.0611353
0000a0 16 f1 ba 3d 87 61 84 3d 6d a7 88 3d 56 7e 7f bd
       0.09128015 0.06463914 0.06672559 -0.062376343
0000b0 5f 12 0a 3d ce b2 21 bd 62 7c 93 bd 2f 25 aa 3c
       0.033708926 -0.039477162 -0.072014585 0.020769684
0000c0 8e 0f 84 3d fe e0 9a bd 78 e8 16 3d d2 34 34 bd
       0.06448279 -0.07562445 0.036842793 -0.043995686
0000d0 2c ff aa bc 6d 81 56 bd a3 7d d7 3c 5f 74 80 3d
       -0.020873629 -0.052369524 0.026305025 0.06272196
0000e0 7b 24 33 3d c9 f3 ac 3c a6 8c 7b bd 58 bf 6c 3d
       0.043735962 0.02111234 -0.06141343 0.057799667
0000f0 62 38 c7 3d c2 cb d5 3d ce a0 09 bd 37 c2 24 3d
       0.09727551 0.10439254 -0.03360062 0.04022428
000100 39 98 53 bd 41 f0 87 bc 33 31 6f bd 02 0c f6 bc
       -0.051658843 -0.016594054 -0.05839653 -0.030035023
000110 9c aa cb bc c2 1d 32 bd c3 12 a2 3d 4f f6 3a 3d
       -0.024861626 -0.04348541 0.07913735 0.045645054
000120 f0 8b 2b 3d 17 8d 7e bd f1 5d 3f bc 98 22 44 3d
       0.0418815 -0.062146273 -0.011680112 0.047884554
000130 fa 5d 0e bd ec fd cf bc 78 f8 b4 3c c3 92 58 bd
       -0.03475759 -0.025389634 0.022091135 -0.052874338
000140 1f 0a 94 bd 29 15 56 3d b7 66 8b 3d 6c 4a 61 3d
       -0.07228493 0.052266274 0.06806701 0.055002615
000150 df 87 8a bd f7 65 25 bd e9 4f 3b bc 6f dc 82 3d
       -0.067641966 -0.040380444 -0.011432626 0.063897006
000160 f2 22 11 bd 1d 25 a5 bd e9 17 28 bc 29 84 7f bd
       -0.035433717 -0.080637194 -0.010259607 -0.062381897
000170 58 60 1d 3c 2a 7f 24 3d 09 da 73 3d b3 a5 95 bd
       0.00960549 0.040160336 0.059534106 -0.07306995
000180 31 c7 bb bd 90 e1 97 bc 6a 32 c4 3d c9 d6 89 3d
       -0.09168852 -0.018540174 0.09579928 0.0673042
000190 36 f0 71 bd b2 e6 a3 3d 32 a3 86 bd 17 e7 2d bd
       -0.059066974 0.08002986 -0.06574096 -0.042456713
0001a0 9e 50 83 bd da c5 2c bd e4 6a 37 bd bd 12 30 bd
       -0.06411861 -0.042180873 -0.044779673 -0.04298662
0001b0 59 0f 90 3d 3c f7 51 3d cf c9 a3 bd 50 dd 54 bc
       0.07034177 0.05126117 -0.07997476 -0.012992218
0001c0 33 14 2e bd eb f8 2c bd d3 4e f7 bc ff 4a c0 bd
       -0.042499732 -0.042229574 -0.030188954 -0.09389304
0001d0 fb 0e cd bc b6 84 79 3d 43 da 5a 3d d2 46 cf 3d
       -0.025031557 0.06091758 0.053430807 0.1012093
0001e0 fa 38 bf bd 96 eb 15 bd 63 24 8f 3d e8 6a 88 bc
       -0.09337039 -0.036601625 0.06989362 -0.01665254
0001f0 98 42 18 3d 56 3b 00 bd 2f 7a 8a bd 22 e7 d7 bc
       0.037172884 -0.031306587 -0.06761586 -0.02635533

noisy1.bias_sigma f4 [128]
000000 cc 29 49 3d 97 be 57 3d c3 d0 10 3d e2 28 a4 3c
       0.049112126 0.052671995 0.03535534 0.020039026
000010 2b a1 9a 3c 09 bb 01 3d 75 6a 2b 3d d8 2c da 3c
       0.018875679 0.03167251 0.041849572 0.026632711
000020 2d ce 3c 3d ba b6 b3 3c c3 d0 10 3d 2b 36 2e 3d
       0.046095062 0.021937717 0.03535534 0.042532127
000030 13 e9 c1 3c 41 37 2c 3d d3 4e a5 3b 56 8b fb 3c
       0.023670709 0.04204488 0.005044797 0.030706089
000040 15 b8 b8 3c c3 d0 10 3d 7c 81 2b 3d c3 d0 10 3d
       0.022548715 0.03535534 0.041871533 0.03535534
000050 de 5b b6 3c b3 85 04 3d 42 49 b5 3c 55 c7 52 3d
       0.022260603 0.032354068 0.022129659 0.05145963
000060 e7 2d 03 3d 67 5e 53 3d 31 81 50 3d bb 45 29 3d
       0.032026198 0.0516037 0.050904457 0.041326266
000070 d0 59 4a 3d 41 3f fc 3c 27 28 2e 3d c3 d0 10 3d
       0.049402058 0.03079188 0.04251876 0.03535534
000080 9d bc 24 3d 8e 81 2b 3d 24 62 4d 3d a5 69 27 3d
       0.04021894 0.0418716 0.050142422 0.040872235
000090 96 27 2a 3d 65 76 99 3c 8f 84 32 3d e1 af 2d 3d
       0.04154166 0.018733213 0.04358345 0.04240406
0000a0 ba 92 9d 3c ec a1 50 3d 1d 17 29 3d cf c3 40 3d
       0.019235004 0.05093567 0.04128181 0.047061738
0000b0 ae 9c 9f 3c e3 12 4b 3d ff 58 31 3d 04 da 36 3d
       0.01948389 0.04957856 0.043297764 0.04464151
0000c0 62 11 c3 3c c3 d0 10 3d 03 a7 54 3d d8 18 00 3d
       0.023812 0.03535534 0.051917087 0.031273693
0000d0 e2 59 a2 3c c3 d0 10 3d 79 af 00 3d 82 19 4c 3d
       0.01981825 0.03535534 0.031417344 0.049829014
0000e0 42 3d 3e 3d 4a 46 30 3d 6b c2 e7 3c e4 0c bf 3c
       0.04644514 0.043035783 0.028290948 0.023321576
0000f0 f9 9b aa 3c 2d e3 8c 3c cd 84 53 3d 9a d5 d0 3c
       0.020826327 0.01719817 0.05164032 0.025492478
000100 c3 d0 10 3d 28 79 4e 3d e8 b1 ec 3c c3 d0 10 3d
       0.03535534 0.050408512 0.028893426 0.03535534
000110 c3 d0 10 3d e6 9c 22 3d 55 c9 30 3d c8 30 ab 3c
       0.03535534 0.03970041 0.043160755 0.020897284
000120 17 03 54 3d 8a 97 fb 3c b7 41 ea 3c a0 85 84 3c
       0.05176076 0.030711908 0.028595788 0.016176999
000130 f8 1c 1d 3d 51 09 48 3d c3 d0 10 3d 28 eb 44 3d
       0.038357705 0.04883701 0.03535534 0.048075825
000140 89 ad 37 3d c9 1c d0 3c ed ab a9 3c f0 78 64 3d
       0.04484323 0.02540435 0.020711863 0.055779397
000150 9a 0c 0e 3d 73 96 9f 3c 44 bb 24 3d ee e0 46 3d
       0.034679987 0.01948092 0.040217653 0.048554353
000160 a7 bc 83 3c 32 f9 1f 3d 50 68 36 3d ee 3a 4a 3d
       0.016081167 0.03905601 0.044533074 0.049372606
000170 7c e1 3d 3d 2b 9a cd 3c 9a a6 f3 3c 0c 84 d8 3c
       0.046357617 0.025097927 0.029742528 0.026430152
000180 c3 4f 24 3d c3 d0 10 3d bc 25 4d 3d 1e 61 55 3d
       0.04011513 0.03535534 0.050084814 0.05209457
000190 c3 d0 10 3d a7 2c 4c 3d c3 d0 10 3d c3 d0 10 3d
       0.03535534 0.04984727 0.03535534 0.03535534
0001a0 c3 d0 10 3d b4 8e 9b 3c 83 5a a0 3c 1a 9d 32 3d
       0.03535534 0.018988945 0.01957441 0.043606855
0001b0 ca 55 a4 3c 7a 2b a0 3c c3 d0 10 3d 44 27 f2 3c
       0.020060439 0.019551981 0.03535534 0.029559739
0001c0 c3 d0 10 3d b1 79 e8 3c 95 d9 f0 3c 19 9e 27 3d
       0.03535534 0.02837834 0.029400626 0.040922258
0001d0 3a bd 93 3c 2e a0 36 3d 24 f8 f2 3c d7 97 b8 3c
       0.018034566 0.044586353 0.029659338 0.02253334
0001e0 b5 2f 2a 3d 1c a6 4e 3d 2d 1d 1d 3d c3 d0 10 3d
       0.041549403 0.050451383 0.038357902 0.03535534
0001f0 93 df 4f 3d 52 1f d6 3c c3 d0 10 3d a4 73 b1 3c
       0.050750326 0.026137982 0.03535534 0.021661587

noisy1.weight_epsilon f4 [128, 128]
000000 10 2d 9d bf e5 b8 a5 bf 85 27 3a bf c0 13 62 3f
       -1.2279377 -1.294705 -0.7271655 0.88311386
000010 2b 57 9f bf 43 8b 7e bf 65 04 0d 3f 10 3b 87 bf
       -1.2448477 -0.99431247 0.5508483 -1.05649
000020 2f 67 81 bf 8c 1f 2d 3f 50 33 33 3f 55 da ae bf
       -1.0109614 0.6762626 0.7000017 -1.366038
000030 1e 32 7f bf 88 d3 48 bf cf a8 96 3f 31 79 b6 3f
       -0.9968585 -0.7844777 1.1770266 1.4255735
000040 72 6d a1 bf 49 53 18 bf c9 6e 87 3f c1 7c 57 3f
       -1.2611525 -0.59502083 1.0580684 0.84174734
000050 be 7e 7a bf a3 75 4b bf dd fa 91 bf f7 83 52 3f
       -0.97849643 -0.79476374 -1.1404682 0.8223261
000060 86 c5 1c bf 42 f1 9f bf eb e2 97 bf 5f 89 4f bf
       -0.61238897 -1.2495501 -1.1866125 -0.81068987
000070 9b bd 3f bf 0e 68 5a be bd b5 79 bf f7 50 81 bf
       -0.7489869 -0.21328756 -0.97542936 -1.0102834
000080 af fb 80 3f f5 d6 38 bf db 61 88 3f 49 6a f2 be
       1.0076808 -0.72203 1.0654863 -0.47346714
000090 40 bb 98 3f 5c 2f 74 bf ed 86 c1 bf c1 ff 6d bf
       1.1932144 -0.95384765 -1.5119301 -0.92968374
0000a0 d2 bd 1e bf f7 5f 96 bf 90 16 8b 3f 82 ee 37 3f
       -0.6200839 -1.1748036 1.086626 0.7184831
0000b0 c2 bd ca 3f 45 05 90 3f eb 3f 99 3f 36 1b a3 bf
       1.583916 1.1251608 1.1972631 -1.2742679
0000c0 55 ff 85 bf 2c 14 5a 3f 42 72 9a 3f 24 a1 86 bf
       -1.0468546 0.8518703 1.2066119 -1.0517926
0000d0 b9 20 32 be df 60 bd bf 14 4f 6c bf 83 74 b8 be
       -0.17395295 -1.4795188 -0.92308164 -0.3602639
0000e0 c7 6d 90 3f 05 d5 7d 3f 67 64 c5 3f 1d 0a a4 3f
       1.1283501 0.99153167 1.5421265 1.2815586
0000f0 e0 41 b8 bf 87 53 51 3f bf 6d 47 3f 65 98 4a bf
       -1.4395103 0.8176808 0.77901834 -0.79138786
000100 fb 55 6d 3f 17 48 1a 3f 4e 1a 95 bf ca 5a 96 3f
       0.9270932 0.6026625 -1.1648653 1.1746457
000110 bd 97 45 3f e4 bf cf bf 7a 73 9f 3f 89 a3 b9 3f
       0.7718466 -1.6230435 1.2457116 1.4503032
000120 a9 9b a6 3f 10 88 86 3f a6 4d 9f 3f 1d 7c 72 3f
       1.3016254 1.0510273 1.2445571 0.9472063
000130 af 30 6a bf c5 7c 0c 3e 11 b3 a7 3f 42 36 67 3e
       -0.91480535 0.13719471 1.3101522 0.22579291
000140 ec 9a 27 3f 8b b7 78 3f 6b 10 b0 3f 03 0e c8 bf
       0.6547077 0.97155064 1.375501 -1.5629276
000150 80 5b d3 bf c1 b6 85 3f eb a1 8b 3d 0c de ab 3f
       -1.6512299 1.0446397 0.06817993 1.3427138
000160 08 7f 22 3f d7 af bc bf 30 a4 a2 3f 98 4a 72 3f
       0.63475084 -1.4741162 1.2706356 0.9464507
000170 8c 53 84 bf 59 d1 64 bf 91 79 69 be d8 f9 a2 bf
       -1.0337996 -0.8938194 -0.2280028 -1.2732496
000180 45 19 a8 bf 1e 9c 5a bf b5 30 a3 bf 20 02 84 3f
       -1.3132712 -0.85394466 -1.2749239 1.0313148
000190 bd c4 a6 bf 9a 91 46 3f 6f c7 0d 3e 67 12 f3 3e
       -1.302879 0.7756592 0.13845609 0.47474977
0001a0 21 f8 2f bf 02 61 48 bf 34 90 40 bf 71 fb 8e bf
       -0.6873799 -0.7827302 -0.75220037 -1.1170484
0001b0 77 b4 93 3f dc d7 2d 3f d2 29 4d 3f 07 ba 5e bf
       1.1539448 0.679075 0.8014194 -0.87002605
0001c0 97 e3 a4 3e 03 67 38 3f 98 86 17 3f 14 4b ab 3f
       0.32204887 0.72032183 0.5918975 1.3382287
0001d0 63 d4 60 bf d5 af 92 3f b6 4f 8f 3f 43 dd d5 bf
       -0.87824076 1.145991 1.1196201 -1.6708149
0001e0 81 39 58 3e f7 87 13 3f d2 a2 8e 3e 3f dd 1d 3f
       0.21115686 0.5762934 0.27858597 0.6166572
0001f0 c0 e1 a4 bf 7a 93 8f bf 57 94 9a 3f fc 68 c7 3f
       -1.2881393 -1.1216881 1.207652 1.5578914
000200 f8 af a1 3f 9a 7a aa 3f 5c 7f 3f 3f ef 90 68 bf
       1.2631826 1.3318665 0.7480371 -0.9084615
000210 fc e9 a3 3f cf ec 82 3f 93 10 11 bf b8 1c 8b 3f
       1.2805781 1.0228518 -0.56665915 1.0868139
000220 05 1e 85 3f a2 17 32 bf 0e 58 38 bf 21 df b3 3f
       1.0399786 -0.6956731 -0.7200936 1.4052469
000230 a2 42 83 3f 2e 97 4e 3f d6 fb 9a bf fc b5 bb bf
       1.025471 0.8069943 -1.2108104 -1.4664912
000240 98 0f a6 3f 8e b2 1c 3f ee 51 8b bf 21 ac 5d bf
       1.2973509 0.6120995 -1.0884378 -0.8659077
000250 ac d7 80 3f a2 4c 51 3f 81 2b 96 3f ce 8e 58 bf
       1.0065818 0.8175756 1.1732026 -0.845929
000260 76 45 21 3f 7f 88 a4 3f f6 3e 9c 3f 53 7e 55 3f
       0.62996614 1.2854155 1.2206714 0.8339588
000270 7e 3e 45 3f e1 ac 60 3e 4a 70 80 3f 2a 07 85 3f
       0.7704848 0.21940948 1.0034268 1.0392811
000280 70 af 84 bf 23 25 3e 3f fa 4b 8c bf 85 5f f9 3e
       -1.0366039 0.74275416 -1.0960686 0.48705688
000290 81 1d 9d bf 9a 31 7b 3f f1 14 c7 3f 8a d4 74 3f
       -1.2274629 0.9812256 1.5553266 0.9563681
0002a0 3b 4c 23 3f e7 b0 9a 3f 90 14 8f bf 04 36 3d bf
       0.63788193 1.2085236 -1.117815 -0.73910546
0002b0 79 8f d0 bf 83 27 94 bf fa a5 9d bf b2 c9 a7 3f
       -1.6293784 -1.1574558 -1.2316277 1.3108428
0002c0 ed d7 89 3f 97 56 60 bf 1c e1 9e bf 62 7e 8a 3f
       1.076902 -0.87632126 -1.2412448 1.0819819
0002d0 96 3d 37 3e 66 d0 c2 3f 72 17 73 3f dd bf bd 3e
       0.17894587 1.5219848 0.9495765 0.37060443
0002e0 06 93 94 bf 13 8f 82 bf d1 0e cb bf 75 bf a8 bf
       -1.1607368 -1.0199913 -1.5863897 -1.3183428
0002f0 c6 8b bd 3f a1 55 57 bf 20 27 4d bf 0a 69 50 3f
       1.480828 -0.84115034 -0.80137825 0.81410277
000300 e5 25 74 bf bb b5 1e bf e4 61 99 3f 93 ab 9a bf
       -0.9537032 -0.6199605 1.1982999 -1.208361
000310 a0 43 4b bf 68 b6 d5 3f 1b 07 a4 bf 96 f7 be bf
       -0.7940006 1.6696291 -1.2814668 -1.4919307
000320 e0 63 ab bf 95 64 8a bf 30 e0 a3 bf dc 71 79 bf
       -1.3389854 -1.0811945 -1.2802792 -0.9743936
000330 7c e9 70 3f 0d 85 10 be 4d 83 ac bf 2d d9 6d be
       0.9410627 -0.14113255 -1.347757 -0.23227377
000340 76 6a 2c bf 16 db 7f bf 1e 1e b5 bf fd cb cd 3f
       -0.67349946 -0.99943674 -1.4149816 1.6077877
000350 87 6c d9 3f 44 8d 89 bf eb a3 8f bd e8 cc b0 bf
       1.6986245 -1.0746236 -0.07013687 -1.3812532
000360 09 29 27 bf 4a 1a c2 3f 42 4f a7 bf ec 3e 79 bf
       -0.6529699 1.5164273 -1.3071063 -0.97361636
000370 dd 1f 88 3f ac 62 6b 3f 1c 2d 70 3e 5f a7 a7 3f
       1.0634724 0.91947436 0.23454708 1.3097953
000380 70 ec ac 3f 70 e2 60 3f cf df a7 3f 1b cc 87 bf
       1.3509655 0.87845516 1.3115176 -1.0609163
000390 22 8e ab 3f a9 44 4c bf 36 d9 11 be 77 0c fa be
       1.340275 -0.7979227 -0.14243016 -0.48837635
0003a0 21 05 35 3f 5e 21 4e 3f 22 17 46 3f 0f 16 93 3f
       0.7071095 0.80519664 0.7737905 1.1491107
0003b0 c8 f1 97 bf 3d d5 32 bf 56 0d 53 bf 99 1e 65 3f
       -1.1870661 -0.69856626 -0.82442224 0.89499813
0003c0 2c 9f a9 be fa b1 3d bf fd df 1b bf b9 35 b0 bf
       -0.3312925 -0.74099696 -0.60888654 -1.3766395
0003d0 68 48 67 3f ab e5 96 bf bf 6c 93 bf b5 00 dc 3f
       0.9034486 -1.1788839 -1.1517562 1.7187716
0003e0 4c 6e 5e be 01 c4 17 bf e4 ba 92 be 36 65 22 bf
       -0.21721762 -0.59283453 -0.2865821 -0.63435686
0003f0 48 9d a9 3f 74 b2 93 3f 2b 04 9f bf 3a 22 cd bf
       1.3251123 1.1538835 -1.2423147 -1.602607

noisy1.bias_epsilon f4 [128]
000000 38 46 2a 3f 63 cd a9 3f 09 5d 02 bf 8e 4a a6 be
       0.66513395 1.3265804 -0.5092321 -0.32478756
000010 95 6b ac bf b7 4c ab 3e 51 95 be 3f 0f be 8a 3f
       -1.3470331 0.33456966 1.4889318 1.0839251
000020 35 1f 8e be 8d 03 87 bf 21 3b 85 bf 3f 1a 88 3f
       -0.27758184 -1.0547959 -1.040867 1.063301
000030 e5 fb c5 be 47 b0 60 bf cc 70 78 bf ef 53 99 3f
       -0.38668743 -0.8776898 -0.97047114 1.197874
000040 00 7f 8c bf 61 c8 92 bf d6 77 18 bf 3d f6 6a 3f
       -1.0976257 -1.1467401 -0.59557855 0.9178198
000050 d0 99 a9 bf ff 03 1e 3f c9 19 62 bf f0 5d 24 3f
       -1.3250065 0.6172485 -0.88320595 0.6420584
000060 5b 38 63 bf a6 63 3f 3f ec ea 24 3f ff e6 7e bf
       -0.88757867 0.74761426 0.6442096 -0.9957122
000070 9d c9 91 3f 2f 16 5e 3f 6b eb 92 be 4a 2d c6 bf
       1.1389652 0.867526 -0.28695235 -1.5482571
000080 22 52 50 bf 4a 5c 57 be 15 47 d8 3f 8e 95 86 bf
       -0.81375325 -0.21031299 1.6896693 -1.051439
000090 b2 50 b2 bf 4d ed 7a bf 4c 7f 96 3f 67 46 fd be
       -1.3930876 -0.9801834 1.1757598 -0.49467775
0000a0 f0 d8 6a bf 97 97 71 3f f3 de ac bf 55 61 83 3f
       -0.9173727 0.9437193 -1.3505539 1.0264078
0000b0 64 7a 76 bf 75 88 76 3f 57 ed 44 bf 36 67 f0 bf
       -0.96280503 0.96301967 -0.7692465 -1.8781497
0000c0 0d 02 8a bf 73 71 b8 3f 32 ec b0 3f a8 3d 12 3f
       -1.0781876 1.4409622 1.3822081 0.5712533
0000d0 cb da 6c bf c1 2e 99 bf ea 8b a4 3f b5 5d 75 3f
       -0.9252135 -1.1967393 1.2855198 0.9584611
0000e0 bc 47 2c bf ec 36 85 bf dd eb 18 3f bd 2a a9 be
       -0.6729696 -1.0407386 0.597349 -0.3304042
0000f0 42 68 0d bf 94 2f ec be e0 86 a9 3e 6b 90 9f 3f
       -0.5523721 -0.4613005 0.33110714 1.2465948
000100 de 2e 04 bf b5 3e c2 3d 71 12 83 3f ff 08 5a 3f
       -0.51634014 0.09484617 1.0240003 0.85169977
000110 27 ae 4f bf b0 e6 2e bf bb 4e 09 bf cf 8a c1 be
       -0.8112511 -0.6832075 -0.5363576 -0.37801215
000120 5b c5 45 3f 5b 2e 99 3f b8 fc d7 bf e1 4a 84 bf
       0.77254266 1.1967272 -1.6873999 -1.0335351
000130 e5 ef 8b bf ce 91 b5 3e 73 fb 85 bf fa 5b 00 3f
       -1.0932585 0.35462803 -1.0467361 0.50140345
000140 b6 2b 5d bf bb 78 b0 3f ff d4 41 bf 59 23 60 3f
       -0.8639482 1.3786844 -0.7571563 0.87553936
000150 1e 77 4d 3e 74 7e 05 bf c5 b0 1a bf bb e3 04 3f
       0.20064971 -0.5214608 -0.6042598 0.5190999
000160 ea 90 30 bf d8 b6 9f bf f4 03 31 bf 40 25 e0 3e
       -0.6897112 -1.2477674 -0.69146657 0.4377842
000170 0f d9 58 3f 07 e9 21 3f 77 59 7b 3f 73 a6 87 3f
       0.84706205 0.63246197 0.9818339 1.0597671
000180 49 57 94 be 58 ed a5 3f da 64 d5 3f 41 2c 4c 3f
       -0.28972843 1.2963057 1.6671402 0.79755026
000190 2b 89 2a be 8c c5 64 3f 41 02 8a bf 26 1a a1 bf
       -0.16653888 0.8936393 -1.0781938 -1.2586105
0001a0 9f 11 2e bf 21 9b 99 be 24 a8 4f bf cc a6 bc bd
       -0.6799564 -0.30001166 -0.8111594 -0.092115015
0001b0 8b ed 27 bf a1 aa d7 be 1b 79 24 3e 98 88 d5 3f
       -0.65596837 -0.42122367 0.16061823 1.668231
0001c0 22 12 94 bf 00 93 4e 3f 18 a3 0e 3f 4c 05 5f bf
       -1.1568034 0.80693054 0.5571761 -0.8711746
0001d0 8e e1 c3 be 18 26 2c bf cc 36 ec 3e a2 9e 90 bf
       -0.38258022 -0.67245626 0.46135557 -1.1298411
0001e0 6f c3 6e bf a5 da a4 3f 64 f1 3a bf 03 5d a8 3f
       -0.9326696 1.2879225 -0.7302458 1.3153385
0001f0 b2 98 74 3f ad b8 3e 3f c8 51 71 bf 67 36 a2 bf
       0.95545495 0.7450054 -0.94265413 -1.2672852

noisy2.weight_mu f4 [2, 128]
000000 a3 db ef 3c b6 3f 9d bd 88 b7 23 bc bb d3 c1 3d
       0.029279536 -0.076781675 -0.009992488 0.094642125
000010 73 00 3b bd fa 14 10 bd 04 68 d0 3c 6a 83 25 3d
       -0.045654725 -0.035176255 0.025440224 0.04040853
000020 9d 63 34 3d 80 28 99 3d 33 d3 9b 3d ca e6 9f 3d
       0.04404031 0.07478428 0.076086424 0.078076914
000030 d6 b7 b5 3c 41 08 a7 bd 82 c1 2b 3d 74 74 2a 3b
       0.022182386 -0.08155871 0.04193259 0.0026009353
000040 82 a9 67 3d 7d 69 8f 3d eb 0a 9a bd a2 0c 3d 3d
       0.05655814 0.07002542 -0.07521614 0.046154626
000050 93 7f 7f 3d 9f b1 5b bd 88 92 a9 3d 9f 0a ac 3c
       0.062377524 -0.05363619 0.08279902 0.021001158
000060 2f a4 bc 3d 3e 78 c7 b9 81 85 40 bd 54 b4 93 3b
       0.09211003 -0.00038045825 -0.04700232 0.004507581
000070 39 c0 90 3c 54 0d 24 bd 5b fb 09 bd c0 31 15 3c
       0.017669784 -0.040051773 -0.033686977 0.0091061
000080 66 da 8c 3d cf 90 94 bd ad 4e c3 bc ed 13 7f 3d
       0.06877594 -0.072541825 -0.023841226 0.062274862
000090 1e 77 6e bd 6a 17 1a bd 0b b5 78 3d e0 37 24 bd
       -0.058219068 -0.037619986 0.06071953 -0.04009235
0000a0 ab 49 a2 bc 91 34 5e 3d e7 94 01 bc 40 06 96 bd
       -0.019810518 0.05424935 -0.007909036 -0.07325411
0000b0 bc ec 29 bd 49 e7 6c 3c 7f 09 9a 3d 75 27 67 3c
       -0.041485533 0.01445944 0.075213425 0.014108528
0000c0 5c 60 6a 3d f7 ec 8d 3d 58 62 5f bd 3d 14 45 3c
       0.0572208 0.06929963 -0.054537147 0.012028751
0000d0 ba 38 36 bd f5 e1 af bd bb f2 67 3d fc 15 99 3d
       -0.044487692 -0.0858802 0.05662797 0.07474896
0000e0 7a 2c 0e bc b1 c2 b4 3d 21 12 85 bc 39 45 b3 3d
       -0.008677596 0.08826197 -0.016243996 0.087534375
0000f0 1f 6c 46 3d 3b 4f 15 bd 3e 6f 75 bc 72 2f 8d bd
       0.048442956 -0.036452513 -0.0149801355 -0.06893815
000100 cf 0d 92 3d 6e 64 93 3d 4a 24 e9 bc 80 8c 38 bb
       0.0713154 0.0719689 -0.028459687 -0.0028159916
000110 7a 9c 4e 3d b5 e3 ab bd ad fc 34 3d 2e 77 05 3d
       0.050442196 -0.08393041 0.044186283 0.03258436
000120 7d c9 a0 bd db 1b 6a bd 4b ae 98 3d 33 b1 ef bb
       -0.07850931 -0.05715547 0.07455119 -0.007314825
000130 5c 11 c0 bc 3e 9f 92 3d 54 36 b3 3c 56 81 2b 3d
       -0.023445778 0.07159279 0.021876492 0.04187139
000140 00 15 9f 39 54 90 8e bb f4 07 bc 3d 3b 67 a5 bd
       0.0003034249 -0.0043507013 0.091812044 -0.0807633
000150 4d c1 a9 3c 1e 85 3e 3d 1a 4a 4d bd e2 81 c3 3d
       0.020722056 0.04651367 -0.050119497 0.095462576
000160 f3 09 92 3d 01 46 67 bd 13 0b d4 3b aa eb b2 3d
       0.07130804 -0.056463245 0.0064710467 0.087363556
000170 b9 12 20 bd 01 60 7c bd 3c 4e a7 bd f3 6f 98 bd
       -0.039080355 -0.061614994 -0.08169219 -0.074432276
000180 36 c1 2f 3d 5c 3e 69 bd d5 3b de 3c 8b 3c 0b bd
       0.04290887 -0.056944236 0.02712814 -0.033993285
000190 c5 da 14 bd 69 01 01 3c 52 14 55 3d d6 10 a0 bd
       -0.036341447 0.007873871 0.052021332 -0.07815711
0001a0 70 e4 ca bc 99 e8 1d 3d 27 e1 1f 3c 33 9d c8 bc
       -0.02476713 0.0385519 0.00975827 -0.02448902
0001b0 20 d1 b5 3d 0d 7c 81 3d a1 b3 99 bd 27 c1 b6 3d
       0.08877778 0.06322489 -0.075049646 0.0892356
0001c0 0b 6d 9a 3d 0a 76 10 3d 96 38 00 bd f6 a7 01 bd
       0.075403295 0.03526882 -0.031303965 -0.03165432
0001d0 02 85 0d 3b db 32 35 3c 1a 29 6c bd 26 64 95 3d
       0.0021594171 0.011059488 -0.057656385 0.072944924
0001e0 bf 40 36 bd b6 bb c5 3c 6f 40 8f 3d 6a ca 70 3d
       -0.04449534 0.02413736 0.069947116 0.058786787
0001f0 aa 07 56 3c 4c 79 6a bc 00 8c 55 bc 45 40 a3 3d
       0.013063351 -0.014311146 -0.013033867 0.07971243
000200 7c 72 4a 3d fd 03 8e 3d ef d9 0f bd 44 aa 5c 3c
       0.049425587 0.069343545 -0.035119947 0.013468329
000210 dc 37 24 3d 7a be 5a bd 95 b8 09 be cf b1 99 3d
       0.040092334 -0.05340431 -0.13449319 0.075046174
000220 e4 ff 5a bd 50 25 94 3d 58 c2 eb 3c 72 d0 bc bb
       -0.053466693 0.07233679 0.028779194 -0.0057621533
000230 a4 aa 63 3c da f8 2e bd 6c de 04 3e b3 b6 3b ba
       0.013895664 -0.042717792 0.12975472 -0.0007160708
000240 50 12 fb 3c 44 d7 01 3d b6 cb 26 3d 3f 5f 86 bd
       0.03064838 0.031699434 0.040721618 -0.065611355
000250 cb 2e 30 3d cb e1 b3 3d c6 2f 6c 3d d6 df 63 3d
       0.043013375 0.08783301 0.057662748 0.05563339
000260 e0 d0 17 bd aa a5 42 3d 50 62 bb 3d dc e0 a3 bd
       -0.037064433 0.04752127 0.09149611 -0.08001873
000270 15 ff ab 3d f2 03 b2 bc ff 91 5e bd 60 8c 93 bb
       0.083982624 -0.021730397 -0.05433845 -0.004502818
000280 4d 05 1d bd 3c 90 3f 3c 41 fa 88 3d 77 ef 9b bd
       -0.038335133 0.011692103 0.06688357 -0.07614034
000290 21 dc c2 3c 40 19 58 3d 44 0e d8 bd 0f 70 45 bd
       0.023786606 0.052758455 -0.10549596 -0.04820257
0002a0 4f 16 c9 3d 7f 42 8f 3d dc 96 33 bc 32 91 b1 bd
       0.09818708 0.06995105 -0.010961261 -0.08670272
0002b0 43 e2 ac 3d e7 98 d0 3c 2e a9 5e bd c7 5a 81 bd
       0.084415935 0.025463535 -0.05436056 -0.063161425
0002c0 b0 a9 b4 bb dc ec f3 3c b2 9b 94 3d 82 57 a6 bd
       -0.0055133924 0.02977603 0.07256259 -0.081221595
0002d0 8b 7e a2 3d 1a f5 25 3d 74 13 5c bd 36 29 be 3c
       0.079342924 0.04051695 -0.05372949 0.02321301
0002e0 08 55 86 bd a3 3b 4b bd b4 bd 2c bd e4 a5 e8 bb
       -0.06559187 -0.04961742 -0.042173102 -0.007099854
0002f0 b3 b2 44 3d 71 54 91 3d eb 79 a4 3d 46 c7 65 3c
       0.048021983 0.07096184 0.080310665 0.014024561
000300 d4 0b 75 bd 9b 76 ff 3c 57 aa 96 3b 1a 97 24 bd
       -0.059825733 0.031184485 0.004597943 -0.040183164
000310 9b 7e 8e 3d 19 50 81 3d 4f 9b 99 bd ab ca af 3d
       0.06957742 0.063141055 -0.07500326 0.08583578
000320 22 eb a5 3d e1 a3 91 bd d3 f1 17 bc 19 d2 08 3d
       0.08101489 -0.071113355 -0.009273964 0.03340349
000330 18 a5 85 bc cd 66 ab 3b 9d b9 80 3d a8 54 13 3d
       -0.016314074 0.0052307607 0.06285403 0.035969406
000340 ae f9 6f bc 96 7c 62 bc 45 e2 3c 3d e7 bb d8 bd
       -0.014646931 -0.013823649 0.046114225 -0.105827145
000350 1a 40 84 bb d9 db a9 3d 04 5d e3 bc 59 ae 37 3d
       -0.004035962 0.08293886 -0.027754314 0.044844005
000360 78 7a c6 3b eb 3a fc 3b 86 fd 80 bd ef 0a 81 3d
       0.00605708 0.0076974533 -0.06298356 0.063009135
000370 6a 2e e7 3c 71 54 45 3b fe 73 a9 3c 44 10 ea 3b
       0.028220374 0.0030110145 0.020685192 0.0071430523
000380 4f b8 94 bd 8b 75 9c 3d f1 75 ca 3d f7 4c 9f 3d
       -0.072617166 0.07639607 0.09885777 0.07778352
000390 90 6f c5 3b 94 64 0d 3d 12 ec 64 bd 71 0a 9e 3d
       0.006025262 0.034519747 -0.055889197 0.07716835
0003a0 80 3e 32 bb e8 84 f0 3c 3a 95 ca 3d 8a ed c3 3b
       -0.0027197897 0.02936025 0.09891744 0.0059792446
0003b0 dc 1c 71 3d 32 be 8c ba 42 12 37 3d bf 3c 35 bd
       0.058865413 -0.0010737835 0.044695146 -0.044247385
0003c0 28 27 da bc a1 88 a8 bd 21 de 81 bd ea 7f cf ba
       -0.02663 -0.08229185 -0.06341196 -0.0015830968
0003d0 44 73 c6 3d f9 f5 8b bd ba ba 34 bd c0 32 8d 3a
       0.09689954 -0.06834025 -0.04412339 0.0010772571
0003e0 bb c2 09 3d 2b fc 5e 3d 9c 46 11 bd 83 d5 59 bd
       0.033632975 0.054439705 -0.03546773 -0.053182136
0003f0 8a 35 6c 3d b9 93 92 bc 46 f3 82 bd 80 f3 6e 3c
       0.057668246 -0.017892705 -0.06394057 0.014584422
