logs/CartPole-v1/experiment-2020-04-16_17_45_23/checkpoint.pth (torch_old, 54666 bytes, 14 tensors)

fc1.weight f4 [64, 4]
000000 3f 4d 77 3d e2 bf 06 3d 13 fe 8a bd 79 63 2b bd
       0.060376402 0.032897837 -0.06786742 -0.04184291
000010 a8 98 39 bd 68 af 2d bd 00 fc 8b ba d0 ed 9b 3d
       -0.0453116 -0.04240361 -0.001067996 0.076137185
000020 60 65 ae 3b e4 90 28 bd ea 8a d7 3d a0 02 b9 bd
       0.0053221434 -0.041153803 0.10524543 -0.09033704
000030 42 4c 10 3d de 20 d9 bd 43 ca 96 3d a7 a8 da 3c
       0.035228975 -0.10601972 0.07362797 0.026691748
000040 64 12 e9 bc 5a ca c0 3c d2 f1 35 3d a5 0e e6 3c
       -0.028451152 0.023533989 0.04442007 0.028083155
000050 f8 f3 dc 3d 3c b0 cf bd 10 5f ce 3c 60 95 96 bc
       0.10788721 -0.10141036 0.025191814 -0.018381774
000060 1c f2 95 bd 3c 06 4e bd 3c 04 f2 bd f4 d0 17 3d
       -0.07321569 -0.050298914 -0.11817214 0.037064508
000070 88 6b 3c 3d 34 48 19 3d ec 86 5b 3d c0 9b d8 3c
       0.046000987 0.037422374 0.05359547 0.026441455
000080 f0 bd e2 3c 93 05 c8 3d c7 1a 71 ba fd e4 4f bc
       0.02767846 0.09766688 -0.00091974105 -0.012688872
000090 0f b7 b9 3d 50 cd 6c 3d d2 d3 9a bc e5 70 b1 bd
       0.09068119 0.05781299 -0.018899832 -0.08664111
0000a0 c4 9a 21 3d ca 40 af bd a2 39 d2 3d 64 be 2a bd
       0.039454237 -0.085572794 0.10264899 -0.041685477
0000b0 15 4b 80 3d af 00 7d 3d e1 5d 65 bd 32 64 75 bd
       0.06264321 0.06176823 -0.055997733 -0.059910007
0000c0 3f 84 ed bc 74 f9 34 3d d4 6f 28 3d 92 55 d9 bd
       -0.028993724 0.04418321 0.041122273 -0.10612024
0000d0 76 63 75 bd d2 38 dc 3d b2 df 6a 3d 56 c0 de bb
       -0.059909306 0.10753025 0.05734224 -0.0067978306
0000e0 0c 8c a2 bd 30 c3 e8 bc c0 82 83 bc 64 66 4e 3d
       -0.07936868 -0.028413385 -0.016053557 0.050390616
0000f0 e3 a2 55 bc 0f 92 76 bd 48 51 f2 bc 8e 19 30 bc
       -0.0130393235 -0.060197886 -0.029579774 -0.01074828
000100 d5 ae 50 3d 9f bc 16 3d 34 9a 89 3d d7 d2 0b 3d
       0.050947983 0.036800977 0.06718865 0.03413662
000110 cc 8f df bd 31 3a 4b bd ee 5c 3c bd 00 4a fb bd
       -0.10916099 -0.049616043 -0.045987062 -0.12269974
000120 dd ae f9 3c ea e2 3d 3d bd 92 de bd fb dc 9e 3c
       0.03047889 0.04635898 -0.10867832 0.019392481
000130 18 bd 44 bd 03 c4 8b bd 52 83 78 bd fd 5b 73 bd
       -0.048031896 -0.06824496 -0.06067211 -0.0594139
000140 5e 86 f2 3d 00 9e e9 bd 00 da 4b ba 74 ab d1 bd
       0.11842035 -0.11407089 -0.000777632 -0.1023778
000150 46 6a 16 bd da 28 88 3d 61 fe d6 3d 96 b0 75 3d
       -0.036722444 0.06648417 0.10497738 0.05998286
000160 d5 78 ae bd 13 e9 0c 3c e3 75 f6 3c 14 1c a5 bd
       -0.08519141 0.008600491 0.03008551 -0.08061996
000170 83 a8 93 3d 2c 83 bd 3d 45 a3 0e bd f7 62 53 3c
       0.072098754 0.09253535 -0.034823675 0.012902013
000180 f0 62 18 bc d4 2e 8a 3d 40 8a 43 bc de 92 fc 3d
       -0.009300932 0.06747213 -0.011934817 0.123327
000190 c0 00 5a bd 46 d6 a2 bd 18 a2 50 bd 0e 7a ef 3d
       -0.05322337 -0.07951026 -0.050935835 0.11693202
0001a0 be 28 25 3b ca b4 50 3d 69 57 bf bd a9 a2 96 3d
       0.0025201286 0.050953664 -0.09342844 0.07355244
0001b0 09 fa 66 3d c8 a1 98 3d 35 a3 56 3d 85 38 c9 bd
       0.056390796 0.07452732 0.05240174 -0.09825233
0001c0 b4 f5 2e bd 70 c8 0a 3d 8e 36 a0 bd 4e 12 8b bd
       -0.04271479 0.03388256 -0.078229055 -0.06790601
0001d0 3e 77 e5 3c 1f fe b9 bd 51 9d 23 3e 1a 76 fd bb
       0.02801096 -0.09081673 0.1597798 -0.007735026
0001e0 ad f4 18 3d 51 42 cf 3c 67 0f 7b bd 75 09 be 3c
       0.037342716 0.025300177 -0.061293986 0.023197869
0001f0 f1 89 cc bd 80 26 ff bd fb fb 69 3d af 5c 42 bd
       -0.09987248 -0.12458515 0.057125073 -0.04745167
000200 74 26 b6 bd b0 5d b4 bd 0b 7d 7c bd 18 ba 8b 3c
       -0.08894053 -0.08806932 -0.061642688 0.01705651
000210 4c 30 7a 3d 9c 47 11 3d 38 88 10 3d 0a 1c ff 3d
       0.061081216 0.035468683 0.03528616 0.1245652
000220 d0 b3 0e 3c 3a 9b d2 bd 6c 37 e4 3d d0 2c a6 bd
       0.008709863 -0.10283513 0.111433834 -0.08114016
000230 64 8f 4c 3d c6 80 9d 3d 76 85 cc 3d a8 84 9e 3d
       0.049941435 0.07690577 0.09986393 0.07740146
000240 b2 e7 bc bd dc bf 76 bd 1e 1a 90 3d 2e 58 ee 3d
       -0.0922388 -0.060241565 0.070362315 0.11637913
000250 70 ce 19 3c 60 86 3a 3d eb cc 86 bd 68 bc 9b 3d
       0.009387597 0.045538306 -0.06582054 0.07604295
000260 04 65 81 bd cb 4d 0a 3e 17 91 ea bd 48 d7 e2 bd
       -0.06318095 0.13506238 -0.11453455 -0.11076218
000270 2e 87 bc 3c 90 1b 68 bb f3 02 3f 3d 0f 87 cd bd
       0.023013677 -0.003541682 0.046633672 -0.10035526
000280 ef 52 29 3d d5 ac ba 3d 66 bf a2 bd de 57 fd bc
       0.041338857 0.09114996 -0.079466626 -0.030925687
000290 1a 4b a6 3d 0e 90 ba 3d 38 73 11 3e b7 8c c2 b9
       0.08119793 0.091095075 0.14204109 -0.00037107404
0002a0 e2 09 9b 3d bb 72 1a 3c de bc 93 3d 8e 2c 12 3e
       0.07570244 0.009426768 0.07213758 0.14274809
0002b0 c8 aa da 3d 48 74 26 bd b4 57 27 bc 73 2f b9 bd
       0.10677105 -0.04063824 -0.010213781 -0.09042253
0002c0 c3 6d b6 3d a5 11 39 bd 33 49 48 bc 9a 98 75 bd
       0.08907654 -0.045182843 -0.012224483 -0.059959985
0002d0 83 71 94 bd 4a 87 12 bc 5a fb f0 3d aa e5 d8 bc
       -0.07248213 -0.008943388 0.117666915 -0.0264767
0002e0 63 d5 cc bc f4 3e b7 bd 1e 76 9c bd 3c ce e8 bb
       -0.025004094 -0.08947554 -0.076397166 -0.007104663
0002f0 e7 2a b4 bd cf 35 0b 3e db 42 63 bd 51 19 8b 3d
       -0.087972455 0.13594745 -0.05548368 0.06791938
000300 10 cc a1 3d 8a 60 d5 3a 35 d8 f6 3c 16 0f 27 bc
       0.0790025 0.0016279381 0.030132392 -0.010196468
000310 a5 43 33 bd a7 df 49 b9 d1 ca 89 3c 84 c6 8c bd
       -0.043765683 -0.00019252171 0.016820343 -0.06873801
000320 3c 40 92 bd b5 92 91 bd 7d 44 da 3d 51 71 31 3d
       -0.07141158 -0.0710806 0.10657594 0.043320958
000330 51 a8 f6 ba 0e a2 87 3c 86 93 b5 bd 1a dd f6 bd
       -0.0018818473 0.016556766 -0.088660285 -0.120538905
000340 cd 44 13 be 00 77 ee bb bd 8e 55 3d 35 75 3c bd
       -0.14381714 -0.0072773695 0.05213808 -0.046010215
000350 72 13 93 bd db bc 7b 3b a9 cb b0 3c c2 47 14 bd
       -0.07181443 0.0038412127 0.021581488 -0.036201246
000360 c8 e6 99 bc ae ed da 3d 80 f2 4d bd 86 62 ab 3d
       -0.018786803 0.10689865 -0.050280094 0.08368401
000370 d0 56 35 3d 30 4f f1 3c 40 75 5a bc 74 c1 05 3d
       0.044272244 0.029456705 -0.013333619 0.032655194
000380 bb c2 88 3d 52 30 73 bd 3c f6 25 3d b8 b3 6c 3d
       0.06677767 -0.059372254 0.04051803 0.05778858
000390 82 67 e4 bd 8b 29 7e 3d 27 2e 50 3d 1c 4a d8 bd
       -0.11152555 0.062051337 0.050825264 -0.1056101
0003a0 94 47 f0 bd 3e 7f ab bd be 81 b7 3d ba f6 8c 3d
       -0.117324024 -0.08373879 0.08960293 0.06882997
0003b0 c7 9b c7 bd 20 14 ae 3d 53 2d d1 39 aa dd 53 3d
       -0.09746509 0.08499932 0.00039897356 0.051725067
0003c0 dc 55 d8 bd d2 ca 47 bd 2f f8 34 bd aa 1f b9 3c
       -0.105632514 -0.04877741 -0.044182 0.022598106
0003d0 92 db 0d 3d bf 73 25 bd f2 39 a8 bd 7b 76 0d be
       0.034633227 -0.040393587 -0.08214177 -0.13814728
0003e0 d9 70 12 be f7 80 ac 3d a5 52 37 bd ac 8f ac bd
       -0.1430086 0.084230356 -0.04475655 -0.08425841
0003f0 bd a4 bd bd 9d eb 8b bc 84 be 5f bd 33 02 9a 3d
       -0.09259937 -0.017080123 -0.05462505 0.07519951

fc1.bias f4 [64]
000000 ee ef 9c 3e 90 41 22 bd b2 33 d6 be a0 be 88 3e
       0.30651802 -0.039613307 -0.41836315 0.26707935
000010 68 38 81 3e 8a 40 8c be 5c 5e ac be 28 b4 b2 bd
       0.25238347 -0.2739299 -0.3366574 -0.08725768
000020 c1 19 96 3d 3a 98 81 be 40 ea 44 bc 1c 7f 4c be
       0.07329131 -0.25311452 -0.01201874 -0.19970363
000030 99 8f 4b be 64 8a 8b bd 28 25 43 be 19 5e d1 3e
       -0.19878997 -0.06813505 -0.19057143 0.40892103
000040 74 ef 08 3e 37 66 fb 3e d5 41 fe 3e 27 03 02 3e
       0.13372594 0.4910142 0.496596 0.12696515
000050 50 01 55 be 3f 30 b2 3e 6a a0 f7 3c b0 3f c1 3e
       -0.20801282 0.34802434 0.030227859 0.37743902
000060 30 a7 da bd 64 db ed 3e 94 54 d4 3d f8 67 ae bd
       -0.1067642 0.46456444 0.103676945 -0.08515924
000070 fc 02 a7 be c5 95 bd 3e 6f bb d9 3d 29 8e 44 3e
       -0.32619464 0.37028328 0.10631453 0.19194855
000080 36 1e 38 3e 40 86 d3 bc 78 b3 80 be 94 d0 18 be
       0.17980275 -0.025820851 -0.25136924 -0.14923316
000090 80 58 b6 bc fe 61 ae 3e ba 9c f5 3b 01 86 05 be
       -0.022258997 0.34059137 0.00749549 -0.130394
0000a0 d0 51 91 bd 51 95 c6 3d 14 0e c5 3e 1a 53 ce 3e
       -0.070956826 0.096964486 0.38487303 0.40297776
0000b0 3b 1e 01 3b 4f 1a d0 3d 02 6b d9 3e 91 2b 85 3e
       0.0019701857 0.10161268 0.42464453 0.260098
0000c0 ea ff 62 bd 36 f1 ad 3e e4 2c 8a 3e 3e 13 f8 bd
       -0.05541984 0.33973092 0.26987374 -0.12113045
0000d0 37 97 6d 3e 75 ed aa 3d b4 16 3e be 70 a0 20 bd
       0.23202215 0.083460726 -0.18563348 -0.039215505
0000e0 c3 1b e9 3e 05 08 49 3e ee 5a d3 be 5c 9f b3 3e
       0.45528993 0.19631965 -0.4128031 0.3508252
0000f0 67 8a 21 3e 40 c1 94 3e 9d 7c c0 3a 39 85 74 3e
       0.15775453 0.29053688 0.0014685575 0.23878945

noisy2.weight_mu f4 [64, 64]
000000 ff 1d c5 bd 7c 59 3a 3d ec 6f f1 3d 64 13 fe bd
       -0.09624862 0.045495495 0.117889255 -0.12406042
000010 de aa cd bd ee 20 95 3d 9c f6 b4 bd a0 45 9d bc
       -0.10042356 0.072816715 -0.088360995 -0.019198239
000020 4c a5 c5 bd ce 51 d6 bd 5c 64 c9 3d 59 9e e5 bd
       -0.096506685 -0.10464822 0.09833595 -0.11211843
000030 e0 dd b2 3b b7 27 1b 3d be 41 ee bd 6f de b6 bb
       0.0054585785 0.037879672 -0.11633633 -0.0055807154
000040 53 b3 78 bc f8 75 47 bd a7 f4 9b 3d 3b 5d 26 3b
       -0.015179473 -0.04869649 0.07615023 0.002538516
000050 b8 95 c2 bc 41 1b 96 bc 68 a6 13 bd 25 20 8f bd
       -0.023753032 -0.018323543 -0.03604737 -0.06988553
000060 f8 ac f9 3d 24 4a ec 3b 5f f0 76 3d 4a af 56 bd
       0.12191194 0.0072109867 0.06028783 -0.052413262
000070 0c b6 bc bd 56 a6 30 3d 79 01 90 bc b5 09 e2 3d
       -0.0921441 0.04312738 -0.017578827 0.11037008
000080 4c 7d 02 be 70 7c 48 3d 76 99 d4 3d 1e 9c b9 bd
       -0.1274311 0.048946798 0.10380833 -0.0906298
000090 c4 74 77 bd 2c eb 9b 3d 21 c6 d8 bd e3 17 de 3d
       -0.06041409 0.07613215 -0.10584665 0.108444
0000a0 f7 b6 6e bd 6a 05 f2 bd 25 2f 7c 3d e6 2d 90 3d
       -0.058279958 -0.11817439 0.061568398 0.070400044
0000b0 39 3b 46 bd 29 12 90 3c 08 af de 3d 4e f1 af bb
       -0.048396323 0.017586784 0.10873228 -0.005369342
0000c0 00 4a e4 3c 66 60 37 3d c1 68 0e bc 8c 26 24 3d
       0.027867317 0.044769667 -0.008691967 0.040075824
0000d0 dc 7c 9d bd 30 79 c0 bd 32 6a 9e bd 1a ab a7 3d
       -0.07689831 -0.09398115 -0.07735099 0.08186932
0000e0 7a 5b bc 3c 3c e0 5d bd 7c 63 00 bd 4e bb d6 3d
       0.022992838 -0.054168925 -0.031344876 0.10484944
0000f0 63 ac be 3a ad e1 d6 bd a9 f3 08 bd 2e a4 f4 bd
       0.0014547225 -0.10492263 -0.033435497 -0.11945377
000100 34 d0 23 bc 5c fd 6b bd 18 60 eb 3c 2b 31 b7 3c
       -0.00999837 -0.05761467 0.028732345 0.022362312
000110 dc 32 e7 bd cc 5f 61 3d 2c 25 b9 3d 60 e7 2e bc
       -0.112889975 0.055023 0.09040293 -0.010675281
000120 f6 bd 50 bd b6 a5 86 3d 66 4d da 3d ae a0 4c bb
       -0.05096241 0.065745756 0.10659294 -0.0031223702
000130 3f 4b f0 3d 31 a4 fc bb 28 12 7a bd 9a 8b 84 3d
       0.11733102 -0.007710003 -0.06105247 0.064719394
000140 69 7b 96 3d d7 97 e4 bd f7 5b a2 3c 0e 46 4d 3d
       0.07347757 -0.11161774 0.019819243 0.050115637
000150 80 c9 f4 3b 4b 43 b9 bd 63 db c5 3c ef f3 8d bd
       0.0074703097 -0.09046038 0.024152463 -0.06931292
000160 60 eb 1a 3d 9a 3a cc bc f0 60 1a bd 55 f7 c7 3b
       0.037822127 -0.024930287 -0.037690103 0.0061024823
000170 10 59 1a bc 9a 26 06 be c1 9f 02 bd b9 4e 66 bd
       -0.009420648 -0.13100663 -0.031890634 -0.05622742
000180 9b 23 a2 bd f8 5d 88 bd 48 ac 8d bc 20 5e 70 3c
       -0.079169475 -0.06658548 -0.017294064 0.014670879
000190 b0 dc a3 bd cd 5d dd 3d 1b 89 0a bd f4 2d 09 bc
       -0.08001077 0.10808907 -0.03382216 -0.0083727725
0001a0 73 98 ba bc 96 8f 47 3d 7a 7f a4 3c 6f 8d b1 bd
       -0.022777772 0.04872092 0.020080317 -0.086695544
0001b0 39 67 f5 bc 02 f3 e9 bd 42 21 d0 bd c0 0f f6 bd
       -0.029956447 -0.11423303 -0.101625934 -0.12014723
0001c0 e4 38 2e bd d4 f1 d8 bc 8f ae a1 3d 80 d1 a3 bc
       -0.042534724 -0.0264825 0.078946225 -0.019997358
0001d0 ca b3 5b bd 31 b5 25 3d ac 2f a1 bd 60 dd 69 3c
       -0.053638257 0.040456 -0.07870421 0.014273971
0001e0 d9 c4 78 bd 39 97 f6 bd b4 89 6d 3d 11 07 6a bd
       -0.060734604 -0.12040562 0.057992652 -0.057135645
0001f0 aa 47 70 bd c2 06 b1 bc d4 4a b5 3d 7c df 1b 3c
       -0.058662094 -0.021609668 0.08852163 0.009513732
000200 bb 29 40 3d 16 1d 83 3d ba 27 88 3d c7 5e 36 bd
       0.046914797 0.06402032 0.06648202 -0.04452398
000210 1c fa ab bd c0 4b 29 bd 18 4d f0 bc 72 a5 cf 3d
       -0.08397314 -0.041332006 -0.029333636 0.10138978
000220 18 c8 be 3d 87 45 c7 3c 00 cd 05 3a c4 ad 87 bd
       0.093155086 0.024325145 0.0005104095 -0.0662494
000230 6e 3a c4 3c 39 6b 04 bb c8 3d de 3c dc 57 63 bc
       0.023953643 -0.0020205511 0.027129069 -0.013875928
000240 3f 09 09 3c 3e c1 be bd 00 ca 8a bd f1 98 fd bd
       0.008364021 -0.09314202 -0.0677681 -0.12382687
000250 a4 79 63 3d 62 57 ad 3d 5f 25 c6 3d 8d 4f c0 bd
       0.055535927 0.084639326 0.09675097 -0.09390173
000260 88 59 91 3d 5d a2 cc 3d 2d 3f 4c bd 58 9e 5c bd
       0.07097155 0.09991906 -0.049864937 -0.053861946
000270 00 f8 6b bb 87 1c 8e 3d 0c 55 20 3d 50 ee de bd
       -0.0036005974 0.06939035 0.039143607 -0.10885298
000280 22 c5 35 bb a6 3c 9b 3d d8 a8 d5 bd 30 a4 f3 bd
       -0.0027735909 0.07579927 -0.10432595 -0.11896551
000290 9a 8e 8d 3d b7 f4 81 bd 34 96 ad bc 37 77 dd bd
       0.06911965 -0.06345504 -0.021189786 -0.10813754
0002a0 1c 5b 7f 3c 96 ae cd bd e0 55 60 3d e1 80 a3 bd
       0.015585687 -0.10043065 0.054769397 -0.07983566
0002b0 99 7e 21 bd 7b 9e e3 bd 9f b2 17 bd 41 30 cb bc
       -0.039427374 -0.11114212 -0.03703558 -0.024803283
0002c0 ee 7e e7 bd e6 20 27 3d a6 96 fb bd 52 7b e7 bd
       -0.11303507 0.04080286 -0.12284593 -0.11302818
0002d0 5d b5 ff 3c 7d 8a a2 bb 38 31 5e 3d 82 da cc 3d
       0.03121441 -0.0049603567 0.054246157 0.100026146
0002e0 35 00 cd 3d 67 8b e6 bd 4a d9 8d bd 14 47 b3 3d
       0.10009805 -0.11257058 -0.0692621 0.087537915
0002f0 c1 2b 9e 3d 81 36 21 bd 2c 1e c0 bd 8c 54 51 bc
       0.07723189 -0.03935862 -0.09380755 -0.012776505
000300 ae 88 34 3b de 46 90 bd 52 db fa bd 24 31 cb 3c
       0.0027547288 -0.07044767 -0.12248863 0.024803706
000310 25 6f 51 3d 84 ca fd bd 66 9b b8 3d 46 d3 b5 bd
       0.051131386 -0.123921424 0.09014015 -0.08878188
000320 e7 c6 b1 3d 94 80 ef 3d 96 60 96 bd 3d 38 03 3d
       0.08680516 0.11694446 -0.07342641 0.032036055
000330 87 c1 99 3d 6f 7c 5d 3c 14 12 67 3d 1c d7 d3 3d
       0.075076155 0.013518437 0.056413725 0.10343763
000340 4d 19 af 3b 9c a2 b3 3c ae 93 8a 3d 86 24 d3 3d
       0.0053435923 0.021928124 0.06766449 0.10309701
000350 38 e4 3a 3d 64 c4 43 3b 6e 63 c7 3d 63 5b d2 bc
       0.045627803 0.0029871697 0.097357616 -0.025678342
000360 22 77 b3 3d 6e 7c 4d 3c f5 d7 73 3c cd 66 8d 3d
       0.08762957 0.012541873 0.014883031 0.06904373
000370 b2 d3 92 3d 35 05 6c 3d 1f b9 55 bb d7 c3 b7 3d
       0.07169284 0.057622153 -0.0032611561 0.089729
000380 15 54 ab 3d 24 59 b7 bd 90 c2 93 3c 38 63 1c 3d
       0.08365647 -0.08952549 0.01803711 0.03818056
000390 8c 2e 44 3d 12 9f c8 bc 20 a9 03 be 6f 4a fe bd
       0.047895953 -0.024489913 -0.12857485 -0.12416541
0003a0 4a ff 7b 3d 54 85 07 be 28 6d 82 bc a5 8f 0c be
       0.06152276 -0.13234454 -0.01592119 -0.13726671
0003b0 25 53 78 bd 26 95 c0 bc 06 1b 5f bd 01 91 a8 3d
       -0.060626168 -0.02350862 -0.05446913 0.08230782
0003c0 85 40 f3 3d c3 b1 91 3d a8 5c 03 be 71 e9 3a 3d
       0.118775405 0.071139835 -0.12828314 0.045632783
0003d0 6d 22 fb bd f7 b9 e4 bd 7e 69 b8 3d be 36 c6 bd
       -0.122624256 -0.111682825 0.09004496 -0.0967841
0003e0 c9 c3 56 bd a2 e4 01 be 68 ec bf bd 91 01 2f bd
       -0.05243281 -0.12684873 -0.09371263 -0.042726103
0003f0 de f4 d8 bd 94 e3 00 be 9d f4 07 bd 49 9d fd bc
       -0.1059358 -0.12586814 -0.033192266 -0.030958788

noisy2.weight_sigma f4 [64, 64]
000000 0b 2d 50 3d cd cc 4c 3d cd cc 4c 3d 1d b5 2f 3d
       0.050824206 0.05 0.05 0.042897332
000010 b6 70 4c 3d cd cc 4c 3d cd cc 4c 3d cd cc 4c 3d
       0.049912177 0.05 0.05 0.05
000020 2f 17 48 3d 4e 03 42 3d cd cc 4c 3d ba 6f 45 3d
       0.048850235 0.047366433 0.05 0.048202254
000030 02 30 4c 3d 91 c1 39 3d cd cc 4c 3d 3a 03 38 3d
       0.04985047 0.045350615 0.05 0.044924952
000040 30 e7 4a 3d 37 7c 3c 3d ea 6a 31 3d be 9d 47 3d
       0.049536884 0.046016898 0.04331485 0.04873442
000050 cd cc 4c 3d cb a6 3b 3d 92 de 58 3d c5 c6 3b 3d
       0.05 0.045813363 0.052946635 0.04584386
000060 cd cc 4c 3d df a4 43 3d fc 11 5e 3d 03 18 4e 3d
       0.05 0.047764655 0.05421637 0.050315868
000070 cd cc 4c 3d 65 0e 4a 3d 75 ef 46 3d 64 b1 2a 3d
       0.05 0.049330134 0.048568208 0.04167308
000080 3c fb 30 3d cd cc 4c 3d cd cc 4c 3d cd cc 4c 3d
       0.043208346 0.05 0.05 0.05
000090 cd cc 4c 3d 1b 6c 3e 3d a4 d4 54 3d 69 dd 3a 3d
       0.05 0.046489816 0.051960602 0.04562131
0000a0 f4 bc 52 3d 1b b8 54 3d 0a 2c 32 3d 38 3a 3e 3d
       0.05144973 0.05193339 0.04349903 0.04644224
0000b0 2e 1a 2c 3d 86 ce 51 3d 51 75 31 3d 19 05 51 3d
       0.042017154 0.051222347 0.043324772 0.051030252
0000c0 cd cc 4c 3d 26 22 55 3d 45 e1 4a 3d 11 7b 49 3d
       0.05 0.05203452 0.04953124 0.04918963
0000d0 38 2f 4f 3d 51 d7 32 3d cd cc 4c 3d cd cc 4c 3d
       0.05058214 0.043662373 0.05 0.05
0000e0 0a b9 09 3d 5b a2 3b 3d cd cc 4c 3d f8 cb 3c 3d
       0.033623733 0.04580913 0.05 0.046092957
0000f0 4e 38 48 3d 35 b5 49 3d a2 f6 3b 3d 24 ef 30 3d
       0.04888182 0.049245078 0.045889504 0.043196812
000100 1c 05 3e 3d cd cc 4c 3d cd cc 4c 3d 33 76 0b 3d
       0.04639159 0.05 0.05 0.03404827
000110 0c 69 f9 3c cd cc 4c 3d cd cc 4c 3d cd cc 4c 3d
       0.030445598 0.05 0.05 0.05
000120 9e cf 76 3d 10 e1 83 3d cd cc 4c 3d c1 84 18 3d
       0.060256593 0.06439412 0.05 0.03723598
000130 e8 15 26 3d 7a b3 30 3d cd cc 4c 3d 93 7f 59 3d
       0.040548235 0.043139912 0.05 0.05310018
000140 fe 76 0f 3d 8e 98 56 3d 51 23 1a 3d 2b 91 6e 3d
       0.03502559 0.05239158 0.037631337 0.05824391
000150 cd cc 4c 3d 68 b1 43 3d dd 7f 30 3d 85 e3 55 3d
       0.05 0.04777661 0.04309069 0.052218933
000160 cd cc 4c 3d 1d e2 2c 3d cc de 5c 3d 2e 4d 80 3d
       0.05 0.042207826 0.053923413 0.06264721
000170 cd cc 4c 3d f0 f7 01 3d 14 82 63 3d 34 be 3b 3d
       0.05 0.031730592 0.055543974 0.04583569
000180 53 36 58 3d cd cc 4c 3d cd cc 4c 3d cd cc 4c 3d
       0.052786183 0.05 0.05 0.05
000190 cd cc 4c 3d 5e e2 32 3d 25 c8 6e 3d cd 0d 1e 3d
       0.05 0.04367291 0.05829634 0.03858738
0001a0 b2 75 74 3d fb ef 74 3d e4 df 3a 3d 49 59 4c 3d
       0.059682555 0.059799176 0.045623675 0.049889836
0001b0 28 f3 0c 3d fc 59 50 3d fb 35 16 3d f0 e8 73 3d
       0.03441158 0.050867066 0.036672574 0.05954832
0001c0 cd cc 4c 3d 75 d3 54 3d 6b 48 4f 3d 45 d5 3e 3d
       0.05 0.051959474 0.050606173 0.04659011
0001d0 c1 d7 80 3d 09 1c 5c 3d cd cc 4c 3d cd cc 4c 3d
       0.06291152 0.053737674 0.05 0.05
0001e0 7b b7 2b 3d 01 4d 18 3d cd cc 4c 3d 28 e2 72 3d
       0.041923027 0.03718281 0.05 0.05929771
0001f0 00 cd 3d 3d 71 93 5a 3d 92 34 4c 3d bb 1d 3f 3d
       0.04633808 0.053363267 0.049854822 0.046659213
000200 0c 49 4a 3d cd cc 4c 3d cd cc 4c 3d 5c 73 7e 3d
       0.04938607 0.05 0.05 0.062121734
000210 47 52 83 3d cd cc 4c 3d cd cc 4c 3d cd cc 4c 3d
       0.064121775 0.05 0.05 0.05
000220 3c 92 43 3d 5f e4 48 3d cd cc 4c 3d 20 80 57 3d
       0.04774688 0.049045917 0.05 0.052612424
000230 0a 4c 50 3d 9b b9 6e 3d cd cc 4c 3d d7 4b 6b 3d
       0.050853767 0.058282476 0.05 0.057445373
000240 47 65 6f 3d 40 e4 54 3d a5 ae 4b 3d 4a e3 4c 3d
       0.058446195 0.05197549 0.0497271 0.050021447
000250 cd cc 4c 3d c4 e9 3b 3d f0 e0 49 3d 09 ed 3f 3d
       0.05 0.045877233 0.049286783 0.046856914
000260 cd cc 4c 3d e0 31 5f 3d 46 e7 42 3d f1 2e 33 3d
       0.05 0.054490924 0.04758384 0.04374594
000270 cd cc 4c 3d e4 b9 2d 3d 6d 68 26 3d 66 7c 16 3d
       0.05 0.042413607 0.040626932 0.03673973
000280 db bc 45 3d cd cc 4c 3d cd cc 4c 3d cd cc 4c 3d
       0.04827581 0.05 0.05 0.05
000290 cd cc 4c 3d 01 8c 3f 3d 1f 97 53 3d ef 6a 3d 3d
       0.05 0.046764378 0.051657792 0.046244558
0002a0 1e 53 4a 3d 60 8d 5c 3d 74 c7 56 3d 48 de 31 3d
       0.049395673 0.053845763 0.052436307 0.043424875
0002b0 53 4e 5b 3d 26 52 1c 3d a1 97 53 3d 9a 1a 34 3d
       0.053541493 0.03816428 0.051658276 0.04397068
0002c0 cd cc 4c 3d 92 21 3d 3d fc 52 51 3d fc 53 1f 3d
       0.05 0.046174593 0.05110453 0.038898453
0002d0 7d 4e 50 3d e3 db 1e 3d cd cc 4c 3d cd cc 4c 3d
       0.050856102 0.03878392 0.05 0.05
0002e0 87 95 43 3d 5a fd 4c 3d cd cc 4c 3d 3b c8 29 3d
       0.047750022 0.050046302 0.05 0.04145072
0002f0 0c cd 28 3d 36 98 6c 3d 6b c0 4b 3d 92 70 27 3d
       0.041211173 0.057762347 0.04974405 0.04087884
000300 ee da 28 3d cd cc 4c 3d cd cc 4c 3d b3 84 51 3d
       0.041224413 0.05 0.05 0.051151942
000310 9e df 5f 3d cd cc 4c 3d cd cc 4c 3d cd cc 4c 3d
       0.054656617 0.05 0.05 0.05
000320 f0 f6 4c 3d fe 93 7f 3d cd cc 4c 3d cc d7 3b 3d
       0.050040185 0.062396996 0.05 0.045860097
000330 bc 5d 38 3d a1 3a 3a 3d cd cc 4c 3d fa 36 22 3d
       0.045011267 0.04546607 0.05 0.03960321
000340 c2 12 55 3d 5d 97 4b 3d 50 41 3c 3d 19 78 68 3d
       0.052019842 0.0497049 0.045960724 0.05675516
000350 cd cc 4c 3d 03 e9 3a 3d 1b cb 45 3d 76 a2 40 3d
       0.05 0.045632374 0.0482894 0.047029935
000360 cd cc 4c 3d 2b 97 24 3d 4d 9a 3b 3d b0 38 44 3d
       0.05 0.040183228 0.04580145 0.047905624
000370 cd cc 4c 3d 91 b5 2f 3d 83 b9 39 3d 5d 71 14 3d
       0.05 0.042897765 0.045342933 0.036240924
000380 9b a2 4e 3d cd cc 4c 3d cd cc 4c 3d cd cc 4c 3d
       0.05044804 0.05 0.05 0.05
000390 cd cc 4c 3d 74 fa 26 3d 37 05 41 3d 7d 88 53 3d
       0.05 0.040766194 0.047124114 0.051643837
0003a0 f4 61 66 3d 9e 8b 68 3d b2 b9 42 3d 50 0c 3e 3d
       0.05624576 0.056773774 0.047540374 0.04639846
0003b0 d7 10 03 3d d9 fb 2f 3d a4 a9 4f 3d d6 6f 44 3d
       0.03199848 0.04296479 0.05069889 0.047958218
0003c0 fc b0 55 3d d5 fc 27 3d 74 13 34 3d bf 35 19 3d
       0.05217074 0.041012604 0.043963864 0.037404772
0003d0 05 9f 29 3d d0 04 42 3d cd cc 4c 3d cd cc 4c 3d
       0.04141142 0.04736787 0.05 0.05
0003e0 10 22 38 3d 84 fd 28 3d cd cc 4c 3d c6 98 45 3d
       0.04495436 0.041257396 0.05 0.0482414
0003f0 ec d0 15 3d 3d a1 4c 3d aa 76 58 3d 4a 84 68 3d
       0.036576197 0.049958456 0.052847542 0.056766786

noisy2.bias_mu f4 [64]
000000 58 20 af bd 81 c7 b2 3d f1 35 0d 3c 4d 90 76 bd
       -0.08551091 0.087294586 0.008618818 -0.06019621
000010 24 aa fe 3d c1 a3 07 3e 62 ee d8 3d 66 d6 b9 bd
       0.124347955 0.13246061 0.10592343 -0.090740964
000020 e4 3c b1 3b 30 f5 f5 3d 35 88 82 bd 1e 97 02 be
       0.00540887 0.120096564 -0.06373636 -0.12752959
000030 f3 46 bf 3d f7 a6 56 3d e2 41 0f bd 95 ec 18 3e
       0.09339704 0.052405324 -0.03497494 0.14933999
000040 6e 90 93 bc f2 5d 80 3d 75 fc 99 3c 73 e6 1d bd
       -0.018013205 0.06267919 0.018797139 -0.03854985
000050 37 50 e5 bd 7d d0 00 be bc 72 8d bd a4 49 b8 bd
       -0.111969404 -0.12579532 -0.069066495 -0.08998421
000060 f7 4e 99 bd 25 b0 16 3d 72 1f b0 bd 29 7b 24 3e
       -0.074857645 0.03678908 -0.08599748 0.16062607
000070 97 0f d9 bc 4e d6 91 3d a9 0e f3 3c 00 e5 04 be
       -0.026496692 0.071209535 0.029670076 -0.12977982
000080 72 6b 92 bd 85 1f e6 3d f2 7d 08 3e 00 4a 02 3e
       -0.071494 0.112364806 0.13329294 0.12723541
000090 c7 e8 7d 3c d6 50 fc bd 10 a5 87 3d 9d 1b d9 3d
       0.015497393 -0.12320106 0.0662328 0.1060097
0000a0 1c e9 4b 3d 01 fe a7 3b 80 fd 85 3d 8f b5 6e 3d
       0.049782857 0.005126715 0.06542492 0.058278617
0000b0 8a ea de bd d8 ad 60 bd 14 92 03 bd 3a aa 66 bd
       -0.108845785 -0.05485329 -0.032121733 -0.056314684
0000c0 df 87 94 bd ca ec a7 bd 42 fb 31 3d 53 47 88 bc
       -0.07252478 -0.08199461 0.04345251 -0.016635573
0000d0 37 69 97 bd e6 31 c5 3d 30 07 fb 3c 59 af 80 3d
       -0.07393115 0.09628658 0.030643076 0.06283445
0000e0 5e 5e ca 3d 66 4b ed bd ea c7 b2 3d e1 c3 39 bb
       0.0988128 -0.11586647 0.08729537 -0.0028345513
0000f0 f8 a1 53 3d fc 7a 93 bd b7 ae 87 bd 9c d3 93 bd
       0.051668137 -0.07201192 -0.06625121 -0.07218096

noisy2.bias_sigma f4 [64]
000000 53 ac 23 3d 70 64 35 3d 5b 4a 2a 3d 1b b3 0a 3d
       0.039959263 0.044285238 0.041574817 0.033862215
000010 aa 86 6d 3d 7a c6 33 3d 44 4a 2a 3d f2 bd 87 3d
       0.057989754 0.043890454 0.04157473 0.06628026
000020 ee 16 3e 3d 7a 4b 6a 3d 25 85 5d 3d 48 5e 14 3d
       0.046408586 0.057200886 0.054082055 0.036222726
000030 5f 87 5b 3d f0 18 58 3d c0 ed 8e 3d d8 8a 75 3d
       0.053595897 0.052758157 0.06978941 0.059946865
000040 c2 45 3e 3d 8f 97 4f 3d 86 d9 38 3d a2 fc 2f 3d
       0.046453245 0.050681647 0.04512932 0.04296554
000050 e7 7e 6c 3d df 75 2d 3d 35 ba 22 3d 8a 7f 29 3d
       0.05773821 0.04234874 0.039728362 0.041381396
000060 aa 68 43 3d 4a 40 2a 3d 08 36 38 3d 5b e8 f9 3c
       0.047707237 0.041565217 0.044973403 0.030506304
000070 07 8a 1b 3d f5 a6 72 3d 8c f6 69 3d 80 43 20 3d
       0.03797343 0.059241254 0.05711989 0.039126873
000080 c3 29 8c 3d e2 b0 39 3d f1 e1 83 3d 29 e3 4a 3d
       0.06843903 0.045334704 0.06439579 0.049533043
000090 7a cc 25 3d ec bd 1b 3d af 5d a6 3d de 81 44 3d
       0.040478207 0.03802292 0.081233375 0.047975414
0000a0 04 39 26 3d 58 54 6e 3d 97 1c 8b 3d fd 2a 7f 3d
       0.040581718 0.058185905 0.067925625 0.062296856
0000b0 1a 12 3d 3d f8 de 3b 3d 73 59 28 3d 1b d9 59 3d
       0.04615984 0.045866936 0.04110093 0.053185564
0000c0 04 71 22 3d 94 68 42 3d 55 91 44 3d 88 54 69 3d
       0.03965856 0.047463015 0.047990162 0.05696538
0000d0 2e bd 24 3d 8e a5 16 3d 97 3d 3d 3d e6 6b 10 3d
       0.04021948 0.03677898 0.046201315 0.03525915
0000e0 c7 2b 5d 3d 6a 62 23 3d a4 3c 81 3d 09 57 1f 3d
       0.053996827 0.039888777 0.063103944 0.038901363
0000f0 c2 93 30 3d 56 34 29 3d d4 db 17 3d ce fb 34 3d
       0.043109663 0.041309677 0.03707488 0.044185452

noisy2.weight_epsilon f4 [64, 64]
000000 d3 a0 c0 bf c6 5f 83 3e 4d 68 ac 3e 00 0b 7e be
       -1.504908 0.25659007 0.33673325 -0.24808884
000010 e0 b0 a1 3f d4 2f dc 3e 10 e5 86 bf 32 e0 c9 be
       1.2632103 0.4300524 -1.0538654 -0.3942886
000020 d7 c0 68 3f a6 35 a0 bf f5 54 98 3f d0 65 09 3f
       0.9091925 -1.2516372 1.1900927 0.5367098
000030 82 6a 80 bf b2 17 f1 be 1e b4 85 bf 3e 49 8c bf
       -1.0032504 -0.4708839 -1.0445592 -1.0959852
000040 01 5f 86 3f ed d9 2f bf 73 b3 3e 3f 84 ff f0 3e
       1.0497743 -0.68691903 0.7449257 0.47069943
000050 a8 e5 ba 3e a0 86 26 3f 5d 7a 30 bf 2b 8e 0a 3f
       0.3650334 0.6504917 -0.6893671 0.5412318
000060 84 c2 d1 bf b2 7e 96 3f fb 85 86 3f d1 76 3c 3f
       -1.6387486 1.1757414 1.0509638 0.736188
000070 d7 8a b0 3f 17 d1 e7 be a6 f7 28 3f 49 a8 7a 3f
       1.379237 -0.4527671 0.6600288 0.9791303
000080 c9 01 22 bf 37 7c 01 bf c8 8c af bf 08 c7 2a bf
       -0.63283974 -0.5058016 -1.3714838 -0.6670995
000090 38 19 2d bf be f4 9b 3e df 41 60 3f 16 6f 4a bf
       -0.67616606 0.3046016 0.8760051 -0.79075754
0000a0 5b 0c b2 bf 13 f0 03 3f 5d 23 9f 3f 87 20 42 bf
       -1.391002 0.515382 1.2432667 -0.7583088
0000b0 f4 72 9a bf 86 5a 2f bf 64 b5 04 bf 0d 36 b3 be
       -1.2066331 -0.684975 -0.5183928 -0.35002175
0000c0 cf 2e e8 3e 28 29 05 3f 70 88 bd bf f8 ea d2 3f
       0.45348212 0.52015924 -1.4807262 1.6477957
0000d0 94 c5 63 3f eb 04 cd bf 62 ef bb be 40 2b 4e bf
       0.88973355 -1.6017126 -0.36706072 -0.80534744
0000e0 76 af 97 3f 3c a1 d5 3e 10 6b 25 3f 77 b1 95 3f
       1.1850421 0.41724575 0.6461649 1.1694783
0000f0 76 3c 80 bf d1 ec 81 3f 7b 2c d0 bf 80 c5 b8 be
       -1.0018451 1.0150396 -1.6263574 -0.3608818
000100 28 4c b2 3f 6c 33 73 be bf 94 9f be ab 24 6b 3e
       1.3929491 -0.23750085 -0.31168172 0.22963206
000110 6b a9 95 bf 4c ce cb be e5 b7 79 3f 67 db ba 3e
       -1.1692327 -0.3980583 0.97546226 0.36495516
000120 fa 6f 57 bf 68 4a 94 3f bf ff 8c bf 0e 5a fe be
       -0.8415524 1.1585207 -1.1015548 -0.4967808
000130 91 b9 6d 3f 02 28 df 3e 60 83 77 3f 73 d9 81 3f
       0.92861277 0.4358521 0.9668484 1.0144485
000140 ba bf 78 bf c8 c4 22 3f 7d 83 30 bf a0 11 df be
       -0.9716755 0.63581514 -0.68950635 -0.43568134
000150 24 fe ac be 16 23 1a bf 48 59 23 3f 56 3f 00 bf
       -0.33787644 -0.60209787 0.6380811 -0.5009664
000160 92 27 c2 3f 79 4c 8b bf e1 07 79 bf 75 71 2e bf
       1.5168326 -1.0882713 -0.9727765 -0.6814187
000170 89 68 a3 bf 10 92 d6 3e 9c 65 1c bf 6f 02 68 bf
       -1.2766277 0.41908312 -0.61092544 -0.90628713
000180 4f f4 15 3f 40 b4 ef 3e 60 7d a2 3f 84 12 1e 3f
       0.5857591 0.46817207 1.2694511 0.61747
000190 80 38 20 3f 82 5a 90 be d2 92 4f bf aa 5f 3b 3f
       0.6258621 -0.28194052 -0.81083405 0.73192847
0001a0 5e cd a4 3f 8d 3e f4 be 86 4c 93 bf 50 af 33 3f
       1.2875173 -0.47703972 -1.1507728 0.7018938
0001b0 6b f5 8e 3f db 4e 22 3f d4 ab f5 3e ea e0 a5 3e
       1.1168646 0.63401574 0.47982657 0.32398158
0001c0 cf e8 d6 be 22 82 f6 be b8 6e af 3f f8 39 c3 bf
       -0.41974494 -0.48146158 1.3705664 -1.5252066
0001d0 97 d3 52 bf 42 c4 bd 3f 19 f4 ad 3e b2 d4 3e 3f
       -0.8235411 1.4825518 0.33975294 0.745433
0001e0 90 66 8c bf 96 bc c5 be 9f 1c 19 bf 82 8e 8a bf
       -1.09688 -0.38620442 -0.598093 -1.082474
0001f0 52 64 6d 3f b3 84 70 bf be af c0 3f 78 06 ab 3e
       0.927312 -0.9395248 1.5053632 0.33403373
000200 c4 3c e8 3f 4e 63 9e be d2 db cf be e8 23 99 3e
       1.8143544 -0.30935138 -0.40597397 0.29910207
000210 47 f0 c2 bf 3a bb 04 bf eb a1 a2 3f ed 62 f3 3e
       -1.5229577 -0.51848185 1.2705663 0.47536412
000220 7b 4e 8c bf 13 27 c1 3f b3 a7 b7 bf 6c a6 25 bf
       -1.096145 1.509005 -1.4348053 -0.64707065
000230 53 d2 9a 3f 66 55 11 3f 44 32 a1 3f e6 21 a9 3f
       1.2095436 0.5677093 1.2593465 1.321347
000240 4b 00 a2 bf bb 02 54 3f f1 e9 65 bf d3 46 11 bf
       -1.265634 0.82816666 -0.8981009 -0.56748694
000250 e9 53 e1 be 8b c4 48 bf 28 c4 54 3f b7 0b 27 bf
       -0.4400933 -0.784249 0.8311181 -0.6525225
000260 43 e4 fc 3f be 70 b5 bf 49 2f a2 bf 8f 37 63 bf
       1.975716 -1.4175031 -1.267068 -0.8875665
000270 06 d8 d4 bf f5 bd 0b 3f 15 b6 4b bf 71 19 97 bf
       -1.6628425 0.54586726 -0.7957471 -1.1804639
000280 d3 51 43 3f 4f 1c 1c 3f b9 a5 d3 3f c0 e4 4d 3f
       0.7629673 0.60980695 1.653495 0.8042717
000290 1e b1 50 3f 43 06 bc be 62 2f 87 bf 33 0f 74 3f
       0.8152026 -0.36723527 -1.0561335 0.9533569
0002a0 cf a8 d6 3f 46 11 1f bf 63 dc bf bf 5e 0b 6a 3f
       1.6770266 -0.6213573 -1.4989132 0.91423595
0002b0 25 35 ba 3f 21 69 53 3f 2a ff 1f 3f b7 0f d8 3e
       1.4547468 0.8258229 0.62498724 0.4219949
0002c0 73 f6 0b bf bc 8a 20 bf 72 81 e4 3f ad 49 fe bf
       -0.54672927 -0.6271169 1.7852004 -1.9866234
0002d0 bd 4d 89 bf 1e 2d f7 3f 48 94 e2 3e fa 8f 78 3f
       -1.0726849 1.9310644 0.44253755 0.9709469
0002e0 2c e0 b6 bf 5a c7 00 bf ac 6e 47 bf 4f 79 b4 bf
       -1.4287162 -0.50304186 -0.77903247 -1.409952
0002f0 ce 9a 9a 3f 11 a4 9c bf bc fa fa 3f de c3 de 3e
       1.2078493 -1.2237569 1.9607768 0.4350881
000300 4a 91 5e bf 01 cb 17 3e 33 34 47 3e 8b c3 12 be
       -0.86940444 0.14823534 0.19453506 -0.14332406
000310 61 d2 3a 3f d1 68 7e 3e 60 dc 1b bf 9b 40 69 be
       0.7297726 0.24844672 -0.6088314 -0.22778551
000320 eb 76 06 3f 36 1c 39 bf 13 02 30 3f b7 c0 9e 3e
       0.52525204 -0.7230867 0.68753165 0.31006405
000330 0a 60 14 bf 40 48 8b be 08 7c 1a bf 12 17 22 bf
       -0.57959044 -0.2720356 -0.60345507 -0.6331645
000340 7b 41 1b 3f db 2e cb be 3b 57 dc 3e 48 3a 8b 3e
       0.6064679 -0.39684185 0.43035302 0.27192903
000350 16 f2 57 3e 82 68 c0 3e 3a e8 cb be 21 17 a0 3e
       0.21088442 0.37579733 -0.39825612 0.31267646
000360 a0 5c 72 bf b9 e2 2d 3f 84 6e 1b 3f 98 c1 d9 3e
       -0.94672585 0.67924076 0.6071551 0.42530513
000370 44 fb 4b 3f 69 ec 85 be ac 3a c3 3e d5 ce 10 3f
       0.79680276 -0.2615693 0.381307 0.565656
000380 dd 2f bb be 49 9c 95 be b8 d5 4a bf 13 52 c5 be
       -0.36559954 -0.292208 -0.7923236 -0.3853918
000390 9e 00 c8 be 0f 32 34 3e 69 8e 01 3f b5 e5 e9 be
       -0.3906297 0.17597221 0.50607926 -0.45683065
0003a0 b3 b8 4d bf bb 71 98 3e 4b df 37 3f a0 4c e0 be
       -0.80359954 0.2977427 0.71825093 -0.4380846
0003b0 4f 74 32 bf a6 9b ca be b8 55 99 be aa 10 4f be
       -0.6970872 -0.39571875 -0.2994821 -0.202212
0003c0 8d 22 86 3e 7a db 99 3e be fd 5a bf 28 b3 73 3f
       0.26198235 0.3005026 -0.8554343 0.95195246
0003d0 2f 96 03 3f 67 e2 6c bf 1d 25 59 be 7c 36 ee be
       0.51401037 -0.9253296 -0.21205564 -0.46525943
0003e0 da 42 2f 3f 54 d5 76 3e df 20 bf 3e 97 f5 2c 3f
       0.6846138 0.24104816 0.37329766 0.6756224
0003f0 d6 2a 14 bf 64 1e 16 3f 7b 87 70 bf 5b 7d 55 be
       -0.5787786 0.5864012 -0.93956727 -0.208486

noisy2.bias_epsilon f4 [64]
000000 f8 fc 6a 3f d5 1f 21 bf 87 ff 3f bf 2c 3e 24 3f
       0.9179225 -0.62939197 -0.7499928 0.64157367
000010 f3 62 53 bf b0 5e c6 bf 80 d9 e9 be 81 42 4e 3f
       -0.8257286 -1.5497646 -0.45673752 0.80570227
000020 a7 0b f1 be ee bb ee be 78 61 68 3f 23 98 a3 bf
       -0.47079203 -0.46627754 0.90773726 -1.2780803
000030 b3 b7 0d 3f be 18 b5 bf ab f3 37 bf 6f 75 8a 3f
       0.5535843 -1.4148176 -0.7185618 1.0817088
000040 95 a0 b9 bf 24 98 5a bf 00 19 5c bf 64 42 71 3f
       -1.4502131 -0.853884 -0.85975647 0.9424193
000050 a7 d2 9b 3f 33 59 82 3f 6c d6 61 3f f7 ba 38 3f
       1.2173661 1.0183471 0.88217807 0.72160286
000060 60 07 1c bf 86 3c 75 3f 10 8b f5 3e 7c bb 37 3e
       -0.60948753 0.95795476 0.4795766 0.17942613
000070 10 d7 98 3e f4 4a 84 3f 04 b8 77 bf 94 51 5e bf
       0.2985158 1.0335374 -0.9676516 -0.8684323
000080 9a a5 83 bf 3d 4b 4c bf 7e e9 6d bf 26 a3 9f 3f
       -1.0284913 -0.79802305 -0.92934406 1.2471664
000090 76 47 f6 be cb 1f 5c be 97 84 5d bf 76 47 7f bf
       -0.48101395 -0.21496503 -0.8653044 -0.99718416
0000a0 27 4e 94 3f 65 bc 1b 3f 5b 6e 91 3f 83 3d c4 be
       1.158635 0.6083434 1.1361803 -0.3832818
0000b0 e1 e3 29 3f cd f1 57 bf b9 7a 0b 3f 0b 40 81 bf
       0.6636334 -0.84353334 0.54484135 -1.0097669
0000c0 3a f8 a9 3f dc ec 51 3f 62 bd 03 3f 89 cd 0e bf
       1.3278878 0.82002044 0.5146085 -0.5578237
0000d0 23 95 28 3f 81 f3 55 3f 10 f3 82 bf 1e 40 91 3e
       0.65852565 0.8357468 -1.0230427 0.2836923
0000e0 76 3e 9a bf b8 0e 48 3f 91 4a b8 3f 34 5a 1f 3f
       -1.2050312 0.7814746 1.4397756 0.62247014
0000f0 37 06 1f 3f 7e 8f a3 bf 4d bb 52 bf 14 a5 4e bf
       0.6211886 -1.2778165 -0.8231705 -0.8072064

noisy3.weight_mu f4 [2, 64]
000000 a0 7e e9 bd 54 a1 0c 3d 0e 6c d0 3d 7c 01 3e 3d
       -0.11401105 0.034333542 0.1017686 0.046388134
000010 90 29 cf bd ba 9c d5 bd 60 18 16 3d 0a 65 9a bd
       -0.10115349 -0.10430284 0.03664434 -0.07538803
000020 f0 b7 36 3d ee be b8 bd 14 f9 ba 3d 00 e3 4f 3d
       0.04460901 -0.09020792 0.09129539 0.050753593
000030 98 e8 eb bd 80 ed fb 3c 70 d8 1a bd 7c a8 dc 3d
       -0.11518973 0.030752897 -0.037804067 0.10774323
000040 fe c1 d4 3d c8 f9 69 3d 50 36 96 bd 46 64 8f bd
       0.103885636 0.057122976 -0.07334578 -0.070015475
000050 e0 a8 dd 3d 00 24 da bd 90 f0 e2 3c 70 21 10 3d
       0.10823226 -0.10651398 0.0277026 0.03518814
000060 8e 33 a6 3d a6 50 a3 3d a2 cf 9d 3d 6a 1d e9 bd
       0.08115302 0.07974367 0.077056184 -0.113825634
000070 0c 0f 76 3d 50 60 06 bc 66 ca fd bd ae ee ff bd
       0.060072944 -0.008201674 -0.1239212 -0.124966964
000080 72 6d 83 bd 3a df e7 bd 40 81 60 bb a4 a0 8c bd
       -0.064173594 -0.11321874 -0.0034256727 -0.06866577
000090 06 9f f4 bd f0 b8 12 3c 9c de 21 3d be a4 81 bd
       -0.11944394 0.008955225 0.039518937 -0.0633025
0000a0 f2 b3 c0 3d d8 33 8e bd b8 4e 07 bd 80 9a 9e 3b
       0.09409322 -0.06943482 -0.033034056 0.004840195
0000b0 30 66 fa 3c d0 47 57 3c 88 1e 17 bd fa 73 e4 bd
       0.030566305 0.01313968 -0.03689435 -0.11154933
0000c0 00 a3 78 3b 90 65 f6 bd 20 06 5a bd e8 b7 f1 bd
       0.0037938952 -0.1203109 -0.053228498 -0.118026555
0000d0 20 04 3b 3d 70 ee e6 3d 2c a1 bd bd 40 7f 16 bc
       0.04565823 0.11275947 -0.09259257 -0.009185612
0000e0 50 ee 94 bc 02 68 9f bd 7c 37 1e 3d b0 04 48 bd
       -0.018180043 -0.0778351 0.038627133 -0.048832595
0000f0 3e 7f a6 3d 38 e1 f1 bc 4c 96 ed 3d d8 1b df 3c
       0.08129738 -0.029526338 0.116009325 0.027234957
000100 b5 a9 8d bd 84 fa 75 bd 5b e4 f2 3b a7 e3 a3 bd
       -0.06917135 -0.060053363 0.007412476 -0.080024056
000110 14 ee 23 3e ba bc e1 3d fe ec 2c bc b1 ed 51 3c
       0.16008788 0.11022325 -0.01055455 0.012813018
000120 00 55 c9 bd cd d8 a5 3d 73 22 c4 3c 41 c4 4d bd
       -0.098306656 0.08097992 0.023942208 -0.05023599
000130 f9 fb 2a 3e 65 25 46 3d 64 6b f2 3d f0 67 2e 3e
       0.16697682 0.048375506 0.118368894 0.17031837
000140 c8 9e e6 bd f8 8b ef 3d 7a 88 4e bd eb 0b 9c bd
       -0.11260754 0.11696619 -0.050423123 -0.07619461
000150 01 78 d3 bd f9 bf 76 bd ae 56 bb bd a7 61 6b bd
       -0.10325623 -0.060241673 -0.09147392 -0.057466175
000160 22 e6 db bd 7e 3d 7a bd 07 b0 12 bd d5 59 ff 3d
       -0.10737254 -0.0610938 -0.035812404 0.12468306
000170 29 66 d8 bd 2e ab fc 3b 15 17 08 3e 26 03 6d bc
       -0.105663605 0.007710836 0.13290055 -0.014466083
000180 17 65 b9 3d 47 8a f6 3d 8e 98 9e 3d b0 69 d1 3d
       0.090524845 0.12038093 0.07743941 0.102252364
000190 a2 5f 0e 3d e3 33 a5 3d 38 8e 28 3e 34 3c 3b bd
       0.03475917 0.08066537 0.16460502 -0.04571171
0001a0 da d2 e7 bd 0c ed 03 3d 7e 5f e1 3d 47 11 57 bb
       -0.113195136 0.032208487 0.11004542 -0.0032816695
0001b0 2c 8d e9 bd 1d 4f 8f 3c f7 5f b7 3d e2 bd b0 3b
       -0.114038795 0.017493779 0.08953851 0.0053937295
0001c0 16 67 cd bb ce f2 a5 3c 0b ef 92 3c 56 02 06 3e
       -0.0062683923 0.02025738 0.01793625 0.13086829
0001d0 ea f8 da bd 2b 62 a0 bc d7 c8 0f 3e 4d 6b c2 bc
       -0.10692008 -0.01957806 0.14041458 -0.023732806
0001e0 3f 83 bb 3d 19 4c 14 bc 0a ec 78 3d 11 82 9a 3d
       0.091558926 -0.009051346 0.06077198 0.075443394
0001f0 fc 5d 9f bd b0 b9 81 bd 12 54 97 3d 0d 4f ad bc
       -0.07781598 -0.06334245 0.07389082 -0.021155858

noisy3.weight_sigma f4 [2, 64]
000000 cd cc 4c 3d cd cc 4c 3d cd cc 4c 3d cd cc 4c 3d
       0.05 0.05 0.05 0.05
000010 cd cc 4c 3d cd cc 4c 3d cd cc 4c 3d cd cc 4c 3d
       0.05 0.05 0.05 0.05
000020 cd cc 4c 3d cd cc 4c 3d cd cc 4c 3d cd cc 4c 3d
       0.05 0.05 0.05 0.05
000030 cd cc 4c 3d cd cc 4c 3d cd cc 4c 3d cd cc 4c 3d
       0.05 0.05 0.05 0.05
000040 cd cc 4c 3d cd cc 4c 3d cd cc 4c 3d cd cc 4c 3d
       0.05 0.05 0.05 0.05
000050 cd cc 4c 3d cd cc 4c 3d cd cc 4c 3d cd cc 4c 3d
       0.05 0.05 0.05 0.05
000060 cd cc 4c 3d cd cc 4c 3d cd cc 4c 3d cd cc 4c 3d
       0.05 0.05 0.05 0.05
000070 cd cc 4c 3d cd cc 4c 3d cd cc 4c 3d cd cc 4c 3d
       0.05 0.05 0.05 0.05
000080 cd cc 4c 3d cd cc 4c 3d cd cc 4c 3d cd cc 4c 3d
       0.05 0.05 0.05 0.05
000090 cd cc 4c 3d cd cc 4c 3d cd cc 4c 3d cd cc 4c 3d
       0.05 0.05 0.05 0.05
0000a0 cd cc 4c 3d cd cc 4c 3d cd cc 4c 3d cd cc 4c 3d
       0.05 0.05 0.05 0.05
0000b0 cd cc 4c 3d cd cc 4c 3d cd cc 4c 3d cd cc 4c 3d
       0.05 0.05 0.05 0.05
0000c0 cd cc 4c 3d cd cc 4c 3d cd cc 4c 3d cd cc 4c 3d
       0.05 0.05 0.05 0.05
0000d0 cd cc 4c 3d cd cc 4c 3d cd cc 4c 3d cd cc 4c 3d
       0.05 0.05 0.05 0.05
0000e0 cd cc 4c 3d cd cc 4c 3d cd cc 4c 3d cd cc 4c 3d
       0.05 0.05 0.05 0.05
0000f0 cd cc 4c 3d cd cc 4c 3d cd cc 4c 3d cd cc 4c 3d
       0.05 0.05 0.05 0.05
000100 85 6a 58 3d 81 73 3e 3d 3a 88 3e 3d 3d 53 3f 3d
       0.05283596 0.04649687 0.046516635 0.04671024
000110 84 57 2f 3d 2e 04 06 3d 79 23 39 3d 1d fe 8b 3d
       0.04280807 0.03271883 0.045199845 0.06835578
000120 fa 8a 4a 3d 21 2f 85 3d 14 09 20 3d 4f c9 28 3d
       0.049448945 0.0650313 0.039071158 0.041207608
000130 73 da 4f 3d aa 6f 50 3d 0c 56 2f 3d 50 f4 dd 3c
       0.05074544 0.05088774 0.04280667 0.027094036
000140 e5 b2 51 3d 93 1e 37 3d b2 f9 41 3d c3 5c 41 3d
       0.051195998 0.044706892 0.04735727 0.047207605
000150 a0 b7 96 3d df c3 61 3d 89 20 66 3d 2a 16 30 3d
       0.073592424 0.055118438 0.05618337 0.042989887
000160 2a fd 34 3d ed 47 56 3d d2 19 51 3d 86 eb 47 3d
       0.04418675 0.052314688 0.051050015 0.048808597
000170 8d 7c 4b 3d d6 bd 5a 3d cd e1 1c 3d 20 36 4d 3d
       0.049679328 0.053403698 0.038301278 0.050100446
000180 37 31 51 3d 18 c3 07 3d df 46 4c 3d 74 82 0e 3d
       0.051072326 0.03314504 0.049872275 0.03479238
000190 6c 71 39 3d 04 78 61 3d ab d6 4a 3d e8 9f 40 3d
       0.045274183 0.055046096 0.04952113 0.0470275
0001a0 79 e9 5e 3d 95 21 21 3d cc d8 36 3d da 46 3a 3d
       0.054421876 0.039338667 0.044640347 0.045477726
0001b0 73 1a 5c 3d 1f 3e 28 3d 3a c0 30 3d 7d 17 3f 3d
       0.05373616 0.04107487 0.04315207 0.04665326
0001c0 aa a2 35 3d 3e 8a 2a 3d 3c 51 1b 3d 76 16 46 3d
       0.04434458 0.041635744 0.037919268 0.048361264
0001d0 35 47 4e 3d d9 8c 3b 3d fb bd 14 3d 31 f8 3f 3d
       0.050360877 0.04578862 0.036313992 0.046867553
0001e0 81 f9 0d 3d 01 97 33 3d 81 1d 14 3d 07 65 e8 3c
       0.034661774 0.04384518 0.03616095 0.028368486
0001f0 b3 78 5a 3d 18 0b 4e 3d 6d 6e 09 3d cb 51 3e 3d
       0.053337764 0.05030355 0.033552576 0.046464723

noisy3.bias_mu f4 [2]
000000 36 6a 8f bd 85 d9 2b 3e
       -0.0700268 0.16782196

noisy3.bias_sigma f4 [2]
000000 c3 d0 90 3e 8f e1 4c 3e
       0.28284273 0.20007919

noisy3.weight_epsilon f4 [2, 64]
000000 3f 69 9d be e3 4c 42 3e b0 7a 82 3d 59 17 3f 3e
       -0.3074436 0.18974642 0.06371057 0.1866125
000010 0e 8f db be 9b a5 d2 be db 53 e5 be 86 39 3d 3f
       -0.4288258 -0.41141972 -0.4479054 0.739159
000020 24 c8 ed 3d e8 e9 8c be 37 59 35 3e 31 98 9c be
       0.116104394 -0.27522206 0.17709814 -0.30584863
000030 bd 08 4e 3f bc 9b 0f be da b6 08 bf ed 00 1a bf
       0.80482084 -0.14024252 -0.5340401 -0.6015766
000040 72 a4 a4 3e c5 f2 5c bf 75 e3 89 3e 20 62 33 3f
       0.32156712 -0.86307937 0.26931348 0.700716
000050 eb 00 4e bf 16 81 0a 3f 47 76 d2 be af 0d b5 3e
       -0.8047015 0.5410322 -0.41105863 0.35362002
000060 f5 3a 50 3f c6 19 17 be b8 81 2f 3f eb 24 4d 3e
       0.8133996 -0.14755926 0.6855731 0.20033614
000070 47 cd a7 be fe 95 00 3f cf a1 5e 3e c7 50 99 3e
       -0.32773802 0.5022887 0.21741413 0.2994444
000080 8b 82 f5 3e 1b f2 f1 be 6e c6 c1 be aa ad a9 be
       0.4795116 -0.47255024 -0.37846702 -0.33140308
000090 ad 24 d5 be b3 b6 01 3f 71 95 3c 3f 4f 27 28 bf
       -0.41629544 0.506694 0.7366553 -0.6568498
0000a0 2b 75 48 3f 3f c7 9d 3e 52 31 3d bf 1a e8 07 bf
       0.78303784 0.30816075 -0.7390338 -0.53088534
0000b0 57 ba 16 3f 5f ef 19 3f 4c 19 1e 3f cf 51 c3 3e
       0.5887808 0.60130876 0.6175735 0.38148353
0000c0 93 b8 19 bf b9 aa 94 3e 64 57 13 bf 57 1b df 3e
       -0.6004726 0.290365 -0.5755522 0.43575546
0000d0 84 26 50 bf c8 47 e8 be 8d 28 36 3f 50 87 7d bf
       -0.8130877 -0.45367265 0.71155626 -0.99034595
0000e0 d7 26 f0 3e 44 cd 19 3f aa ce 19 3f 91 4d df 3e
       0.46904632 0.60078835 0.6008097 0.43613866
0000f0 15 7c 46 3f 2f 87 36 bf e5 8b a2 3e d9 2e 14 3f
       0.77533084 -0.71300024 0.31747356 0.57883984
000100 a0 2a 00 3f c7 33 9e be f0 79 d4 bd de 96 9b be
       0.5006504 -0.30898878 -0.1037482 -0.3038854
000110 a1 c4 32 3f 0a 83 2b 3f d1 b8 3a 3f d1 11 9a bf
       0.6983128 0.66996825 0.7293826 -1.2036687
000120 03 9b 41 be d4 77 e5 3e 1c a8 93 be d1 00 ff 3e
       -0.18906789 0.44817984 -0.28839195 0.4980531
000130 8e c1 a7 bf 2c db 69 3e 2f a1 5e 3f bc c8 7a 3f
       -1.3105943 0.22837514 0.86964697 0.97962546
000140 e5 0d 06 bf 42 e6 b3 3f b2 8a e0 be 7c 0e 92 bf
       -0.5236495 1.4054644 -0.43855816 -1.141067
000150 31 bb a7 3f 62 8b 61 bf 80 5c 2b 3f 9c 6a 13 bf
       1.3104001 -0.88103306 0.6693802 -0.5758455
000160 53 8b a9 bf 90 0e 76 3e 73 e6 8e bf 10 08 a7 be
       -1.3245643 0.24028993 -1.1164078 -0.3262334
000170 76 a0 08 3f a5 64 51 bf 37 45 b5 be e3 a9 f9 be
       0.53369844 -0.81794196 -0.3540437 -0.48762426
000180 db e5 47 bf f0 fe 44 3f 4d c6 1d 3f 99 27 0a 3f
       -0.78085107 0.76951504 0.6163071 0.5396667
000190 61 8b 2d 3f ca 3a 53 bf 38 8c 99 bf c4 e9 88 3f
       0.677908 -0.8251158 -1.1995916 1.069634
0001a0 35 37 a3 bf 29 77 00 bf 23 0b 9a 3f 80 50 5d 3f
       -1.2751223 -0.50181824 1.2034649 0.8645096
0001b0 27 73 75 bf 25 ac 7a bf f7 b9 80 bf 39 08 1f bf
       -0.95878834 -0.9791892 -1.0056752 -0.6212192
0001c0 e9 52 7a 3f f8 17 f2 be 64 ef 6f 3f 2b a8 35 bf
       0.9778276 -0.47283912 0.93724656 -0.7095973
0001d0 ae 7a a9 3f 4e 20 3d 3f ec 50 94 bf 40 6d ce 3f
       1.3240564 0.7387742 -1.1587195 1.612709
0001e0 fe 88 43 bf 9b 74 7a bf e3 76 7a bf 10 d1 35 bf
       -0.7638091 -0.97834176 -0.97837657 -0.7102213
0001f0 f6 9b a1 bf f9 9d 94 3f 07 59 04 bf 3e 4e 71 bf
       -1.262572 1.161071 -0.51698345 -0.94260013

noisy3.bias_epsilon f4 [2]
000000 c3 d4 39 3f e8 86 26 3f
       0.72590274 0.650496
