DQN/logs/CartPole-v1/experiment-2020-04-19_19_38_29/checkpoint.pth (torch_old, 36991 bytes, 9 tensors)

feature.0.weight f4 [64, 4]
0	0xbec290b4	-0.38001025
1	0xbd85010c	-0.0649434
2	0xbe45a4f9	-0.19301213
3	0xbd6b9db7	-0.057523455
4	0xbeaf54f9	-0.34244516
5	0x3e1f1c34	0.15538102
6	0xbf923fba	-1.1425698
7	0xbd088934	-0.033333972
8	0xbda025ac	-0.07819685
9	0xbe688005	-0.22705086
10	0x3f793522	0.973467
11	0x3d9fa59a	0.07795258
12	0x3eea98b4	0.45819628
13	0x3e923d2e	0.285623
14	0xbf0c3537	-0.547687
15	0x3e29e758	0.16592157
16	0xbe38c1b4	-0.18042642
17	0x3e400e9d	0.18755575
18	0xbe93579e	-0.28777784
19	0x3e6e8608	0.23293316
20	0xbdad7b6a	-0.08470805
21	0xbe5b7721	-0.21432163
22	0x3d831413	0.06400313
23	0x3dc5ad5e	0.09652208
24	0x3e993166	0.299205
25	0x3e9e0799	0.30865172
26	0xbf05972e	-0.52183807
27	0xbe39508e	-0.18097135
28	0x3ed746ef	0.42046306
29	0xbec475eb	-0.38371214
30	0xbf24e4bd	-0.64411527
31	0xbe8718a1	-0.26385978
32	0x3e7d24c5	0.24721058
33	0xbe6bf42f	-0.23042367
34	0xbdf1229e	-0.11774181
35	0x3e5268ac	0.20547742
36	0x3edfec9f	0.43735215
37	0xbe81e3a2	-0.25368983
38	0x3d35cd2f	0.04438513
39	0xbefcefc1	-0.49401668
40	0x3de781b4	0.11304036
41	0xbed34e21	-0.41270545
42	0x3e2a1e0d	0.16613026
43	0x3df660a6	0.12030153
44	0xbcf044cc	-0.02932968
45	0x3e8ca862	0.27472216
46	0xbf4f0639	-0.8086887
47	0xbeeab138	-0.45838332
48	0xbd7b0973	-0.06128831
49	0x3e58b456	0.21162543
50	0x3f860458	1.0470076
51	0x3eeb9605	0.46012893
52	0x3cf5f856	0.030025642
53	0x3e5be9d1	0.21475913
54	0x3f287666	0.6580566
55	0xbe4cfb43	-0.20017724
56	0xbf15022d	-0.58206445
57	0xbe8936dd	-0.2679967
58	0x3d287767	0.041129496
59	0xbc072f94	-0.00825109
60	0x3d278f0e	0.040907912
61	0x3e929784	0.28631222
62	0x3e8a06f9	0.26958445
63	0xbed61e0f	-0.41819808
64	0xbd614c2a	-0.055004276
65	0xbcc54048	-0.024078503
66	0x3f152abb	0.58268327
67	0xbe7ea100	-0.24866104
68	0xbe246222	-0.1605306
69	0xbda20924	-0.079119
70	0xbdd83e7a	-0.105587915
71	0xbdba804a	-0.091065004
72	0xbef69ea5	-0.4816791
73	0x3edd5677	0.4323003
74	0x3f1cc151	0.6123248
75	0xbe404dab	-0.18779628
76	0xbea48b97	-0.3213775
77	0x3d089341	0.033343557
78	0x3f430141	0.7617379
79	0xbebcb170	-0.36854124
80	0xbd58159f	-0.052754994
81	0x3d75db29	0.06002346
82	0xbfa934ef	-1.3219279
83	0xbd7803cc	-0.060550496
84	0xbeb29836	-0.34881753
85	0x3f07f3b6	0.5310625
86	0x3f1f7b81	0.62297827
87	0xbec98bdb	-0.39364514
88	0xbebdc2c8	-0.3706267
89	0x3e62a566	0.22133407
90	0x3ee4dfec	0.4470209
91	0x3e1298e5	0.14316137
92	0xbe6afe97	-0.22948681
93	0xbe681d27	-0.2266737
94	0x3e265d12	0.16246441
95	0xbea4e2d9	-0.3220432
96	0xbe35b0d0	-0.1774323
97	0x3e5d3424	0.21601921
98	0x3f6a317d	0.91481763
99	0x3d884a95	0.066548504
100	0x3ddcb7a2	0.10777213
101	0x3e75ecac	0.24016064
102	0xbc5c9c26	-0.013464963
103	0xbe86877c	-0.2627524
104	0x3e817926	0.2528774
105	0x3f007b7e	0.50188434
106	0x3ed71c25	0.4201366
107	0xbe7e40c6	-0.24829397
108	0xbeb5c0f1	-0.35498765
109	0xbec5a2d7	-0.386008
110	0xbe08cee6	-0.13360175
111	0xbe1a0d0d	-0.15044041
112	0xbe9ffc03	-0.31246957
113	0xbd3f4270	-0.04669422
114	0x3f8b3011	1.0874044
115	0x3ee797dd	0.4523305
116	0xbc977bc4	-0.018491633
117	0xbe2a6729	-0.16640915
118	0x3ed2a5d7	0.4114215
119	0xbbaae456	-0.005215208
120	0xbed9c3c2	-0.42532164
121	0x3e4e428e	0.20142576
122	0x3f5dd9b1	0.86660296
123	0xbedb130e	-0.42787975
124	0xbc77800e	-0.015106214
125	0x3de94a9e	0.11391185
126	0xbf9327f8	-1.1496572
127	0xbf0897dc	-0.5335672
128	0x3e8e8dd7	0.2784259
129	0xbe65e685	-0.22451217
130	0x3efbe22a	0.49195987
131	0xbbe3da19	-0.0069534895
132	0x3e2f8507	0.1714059
133	0xbeb08c00	-0.34481812
134	0xbe40cd75	-0.18828376
135	0x3e9b9bbe	0.3039226
136	0x3ee0f799	0.43938902
137	0xbdf51355	-0.11966578
138	0x3f0e481a	0.5557877
139	0x3ed273ba	0.41103917
140	0xbf05f3e4	-0.5232527
141	0x3e838f55	0.2569529
142	0xbf0933c9	-0.5359464
143	0xbd87ce65	-0.066311635
144	0x3e95161b	0.29118428
145	0xbee21472	-0.44156224
146	0xbe3a31cf	-0.18183063
147	0x3eaafde6	0.33396834
148	0x3e527e92	0.20556095
149	0xbe537e26	-0.2065359
150	0xbe081be1	-0.13291885
151	0x3ed0a476	0.40750474
152	0x3d1d4efb	0.0384054
153	0x3e539220	0.20661211
154	0xbf699da0	-0.9125614
155	0xbc94f9a4	-0.018185444
156	0xbdf00c5e	-0.11721109
157	0x3e2788ae	0.16360733
158	0x3fa0e208	1.2568979
159	0x3e8200fe	0.25391382
160	0x3eb8e851	0.36114743
161	0x3e077a65	0.13230284
162	0x3f2a9cc2	0.66645443
163	0x3aa6f8c8	0.0012738938
164	0xbebf0ce5	-0.37314525
165	0xbee34093	-0.44385204
166	0xbf88f815	-1.0700709
167	0xbe802d13	-0.2503439
168	0x3e9dcb8f	0.30819365
169	0x3d162a39	0.03666136
170	0xbf86c338	-1.0528326
171	0xbea96773	-0.33086738
172	0x3ef55a45	0.47920433
173	0x3eb6d528	0.357095
174	0x3ee03bcb	0.43795618
175	0x3f042a38	0.5162692
176	0xbe90e960	-0.2830305
177	0xbe9d1602	-0.30680853
178	0xbf1a91bf	-0.6037864
179	0x3e24df51	0.16100813
180	0xbf023072	-0.5085517
181	0x3ed1ac58	0.409518
182	0x3f01a929	0.5064874
183	0x3e043b8c	0.1291334
184	0xbe55f31e	-0.20893523
185	0xbd27fd68	-0.04101315
186	0x3de0ed83	0.10982802
187	0xbde53598	-0.11191863
188	0x3f153899	0.58289486
189	0xbeb6c3dd	-0.35696307
190	0xbf1a1d6b	-0.6020114
191	0xbe91cde3	-0.28477392
192	0x3ddf9ccf	0.10918581
193	0xbe24d6cb	-0.16097562
194	0x3ee6d882	0.45087057
195	0x3e9749f4	0.2954861
196	0x3d92b1ae	0.07162796
197	0xbcdd72df	-0.027032314
198	0xbc7767ef	-0.015100463
199	0x3e99eefd	0.30065146
200	0xbe2515e4	-0.16121632
201	0x3eb2a70b	0.3489307
202	0xbda9dd8b	-0.08294209
203	0x3ecd3900	0.4008255
204	0x3e5f8fa8	0.21832144
205	0x3e8ddc41	0.27707103
206	0x3f827195	1.0190912
207	0x3e9f3995	0.3109862
208	0xbe3bae0d	-0.18328114
209	0x3c817a8e	0.015805509
210	0x3eb3c260	0.35109234
211	0xbddff8ed	-0.10936151
212	0x3d9577ad	0.07298217
213	0x3eb2a3d7	0.34890625
214	0xbf83c58a	-1.0294659
215	0xbf00e134	-0.5034363
216	0xbebe2896	-0.3714034
217	0x3e2b8530	0.16750026
218	0x3f487705	0.7830661
219	0x3e6f4532	0.2336624
220	0xbda7415a	-0.08166762
221	0xbe6119f4	-0.21982557
222	0x3f2480f3	0.6425926
223	0x3e3e6bf2	0.18595865
224	0xbe977514	-0.2958151
225	0x3ee09baa	0.43868762
226	0x3efd51c0	0.49476433
227	0x3ee8f1e8	0.4549706
228	0xbec94599	-0.3931091
229	0xbede8c8c	-0.43466604
230	0x3e966d24	0.29380143
231	0xbefdd0e3	-0.4957343
232	0xbf057c91	-0.521432
233	0x3debb723	0.1150954
234	0x3d1bb459	0.03801379
235	0xbd88b0ea	-0.06674369
236	0x3e985363	0.2975112
237	0xbe6206ee	-0.22072956
238	0x3ec11546	0.37711543
239	0xbe8f9c5f	-0.2804899
240	0xbecedd13	-0.4040304
241	0xbe9b9733	-0.30388793
242	0xbdefe583	-0.11713698
243	0xbee20af3	-0.4414898
244	0xbc5ff79a	-0.013669873
245	0xbe7b8c81	-0.24565317
246	0xbed01a46	-0.40645045
247	0x3c6cdad4	0.01445647
248	0x3df31ca7	0.118706994
249	0xbefaaaa1	-0.48958305
250	0xbefa828e	-0.4892773
251	0xbe89c7c6	-0.26910228
252	0x3e909ff2	0.2824703
253	0x3ec93cae	0.39304107
254	0xbec068c2	-0.37579924
255	0x3e01d3ca	0.12678447

feature.0.bias f4 [64]
0	0x3eb53c27	0.35397455
1	0xbe371491	-0.17878939
2	0xbed24c4f	-0.41073844
3	0x3e97b517	0.29630348
4	0x3ebd6e65	0.36998287
5	0xbecb232a	-0.39675266
6	0xbe9c7733	-0.30559692
7	0x3cbcde9d	0.023055369
8	0x3dfcc016	0.12341325
9	0xbeacd249	-0.33754185
10	0x3df1e531	0.11811293
11	0xbe807da7	-0.25095865
12	0xbe7028b4	-0.23453027
13	0x3c21b07a	0.009868735
14	0xbe86d2a0	-0.2633257
15	0x3ef0bdf3	0.4701992
16	0x3e824f31	0.25451043
17	0x3f13b46d	0.5769718
18	0x3f1a23b6	0.6021074
19	0x3dd4463b	0.10364958
20	0xbe4cb102	-0.19989398
21	0x3e6c2963	0.23062663
22	0x3d811f9d	0.06304858
23	0x3efe083b	0.49615654
24	0x3cafd210	0.02146247
25	0x3f037020	0.51342964
26	0x3ddaa8f1	0.10676754
27	0xbe946eb9	-0.28990725
28	0xbee13841	-0.4398823
29	0x3f02a896	0.5103849
30	0x3e508d6a	0.20366445
31	0x3e085ada	0.13315907
32	0x3ed04ecd	0.4068512
33	0x3e01841e	0.12648055
34	0xbe125a05	-0.14292152
35	0xbe9515ec	-0.29118288
36	0x3e4102d0	0.18848729
37	0x3ef2f98e	0.4745602
38	0x3e133fee	0.14379856
39	0xbe3ba8c2	-0.18326095
40	0xbc7f0e6f	-0.015567406
41	0x3d0aedcc	0.033918187
42	0x3f0c851f	0.54890627
43	0x3ef64eeb	0.48107085
44	0xbdf0e246	-0.11761908
45	0x3e8be957	0.27326462
46	0x3f15ee91	0.5856715
47	0x3ee0160c	0.4376682
48	0x3df758d0	0.120774865
49	0x3ee124b5	0.43973318
50	0x3ed364ed	0.41287938
51	0xbdd15b96	-0.10222547
52	0x3eb9f13c	0.3631686
53	0xbc8b8e7a	-0.017035712
54	0xbe9efa21	-0.31050208
55	0x3e00d6aa	0.12581888
56	0x3f2d8d74	0.67793965
57	0x3e63bcdc	0.22240013
58	0xbf2bba1a	-0.67080843
59	0x3f00092b	0.5001399
60	0x3dfdbbfe	0.12389372
61	0x3ebb3f18	0.36571574
62	0xbdb840d6	-0.089967415
63	0x3e73a1dd	0.23792215

advantage.0.weight f4 [64, 64]
0	0x3d69dc35	0.05709477
1	0x3dc82fdd	0.09774754
2	0xbde80ff5	-0.113311686
3	0xbdcb3c84	-0.09923652
4	0x3dbcd46e	0.09220205
5	0x3d8a4130	0.06750715
6	0x3d7b7e4b	0.06139974
7	0xbf04ea8f	-0.5192041
8	0xbd6edc4b	-0.058315556
9	0x3d4e679b	0.050391775
10	0x3d5ec822	0.05439008
11	0xbc0e668d	-0.008691442
12	0xbeacf202	-0.33778387
13	0xbd3aca80	-0.045603275
14	0x3df4bd35	0.11950151
15	0xbe70aac7	-0.23502646
16	0x3dc50d5d	0.096216895
17	0x3df46589	0.11933429
18	0xbdb66013	-0.089050435
19	0x3d2e3fcc	0.04254131
20	0x3e3dd565	0.18538435
21	0x3d8e1d1f	0.06939148
22	0x3dbfb656	0.0936095
23	0x3db5ddb4	0.08880177
24	0xbcf53042	-0.029930238
25	0xbe832526	-0.2561428
26	0xbdd88dc4	-0.10573915
27	0x3c03aa21	0.008036167
28	0x3c907fd1	0.017639073
29	0x3b9b1b5a	0.004733485
30	0xbd8cd6eb	-0.0687693
31	0xbdaabf96	-0.08337323
32	0xbc0f2661	-0.008737178
33	0x3c195079	0.009357565
34	0xbde0be36	-0.1097378
35	0x3dee0a13	0.11623015
36	0x3d1d1648	0.038351327
37	0x3d1f52dd	0.038897384
38	0xbe400c5d	-0.18754716
39	0xbf29b48b	-0.6629111
40	0x3cdc4f57	0.026893301
41	0xbd3c3e32	-0.04595775
42	0xbe9c71e2	-0.30555636
43	0xbbd70685	-0.0065620565
44	0xbd3ebc45	-0.046566267
45	0x3da09a8a	0.07841976
46	0xbd3eb674	-0.04656072
47	0xbee4a3c7	-0.44656202
48	0x3cde8e3c	0.027167432
49	0x3d842138	0.064516485
50	0x3cfb98ad	0.03071245
51	0x3d5401ad	0.05175941
52	0x3e129385	0.14314087
53	0xbda9fee6	-0.08300571
54	0xbe315115	-0.17316087
55	0x3de54744	0.111952335
56	0x3dbb2ae1	0.09139038
57	0x3d2ff443	0.042957556
58	0x3d448fd7	0.04798874
59	0xbd97b457	-0.07407444
60	0xbdec4b7c	-0.11537835
61	0x3cd3c7e9	0.02585216
62	0xbe04403a	-0.12915125
63	0xbdd3d4fc	-0.10343358
64	0x3df638bb	0.12022539
65	0xbe31e741	-0.17373373
66	0xbe65d227	-0.22443448
67	0x3d992630	0.07477987
68	0x3d68ca79	0.056833718
69	0xbddb6933	-0.107134245
70	0x3db903fd	0.09033964
71	0xbd634bdb	-0.055492263
72	0x3da90e0d	0.08254633
73	0xbe024df8	-0.12725055
74	0xbc0f1e2f	-0.008735224
75	0xbd76afdd	-0.06022631
76	0xbedcb6a1	-0.43108085
77	0x3daf9f3d	0.08575294
78	0xbe03b345	-0.12861355
79	0x3d3a4aae	0.045481376
80	0x3e02e1d8	0.12781465
81	0xbd559af7	-0.05214974
82	0x3deb807e	0.11499117
83	0x3e089884	0.1333943
84	0xbf4c1c50	-0.797307
85	0x3e42ca1e	0.19022414
86	0xbe9c3dbc	-0.3051585
87	0x3d8fb512	0.07016958
88	0xbe947b01	-0.29000095
89	0xbd50df33	-0.05099411
90	0x3d8eb8c4	0.06968835
91	0x3dda0ff7	0.10647576
92	0xbe1d976c	-0.15389794
93	0x3d788993	0.060678076
94	0x3dbb3552	0.091410294
95	0xbe496f1c	-0.19671291
96	0xbd1dffc5	-0.038574
97	0x3c933c52	0.017973099
98	0x3c18a972	0.009317743
99	0xbda1f525	-0.07908086
100	0xbb9a91fc	-0.0047171097
101	0x3e1d4ad7	0.1536058
102	0x3cc6eb16	0.02428202
103	0xbf62e698	-0.8863311
104	0x3dbf64c8	0.093453944
105	0xbc7193f1	-0.014744745
106	0xbe19e9a1	-0.15030529
107	0x3d3e74e1	0.046498183
108	0xbcbd4f45	-0.023109088
109	0xbda08a93	-0.07838931
110	0x3e3c672c	0.18398732
111	0xbe7f67ff	-0.24942015
112	0xbd10c2ec	-0.035342142
113	0x3e650455	0.22364934
114	0xbcb0b084	-0.021568544
115	0xbe3b7d47	-0.18309508
116	0x3e40e008	0.18835461
117	0xbd4d4e5f	-0.05012357
118	0xbede2c40	-0.43393135
119	0x3d5dbacd	0.054133225
120	0x3e097895	0.13424905
121	0xbdb6de90	-0.08929169
122	0xbec0b231	-0.3763595
123	0xbd2bc9b9	-0.041940425
124	0xbdb514b3	-0.08841839
125	0xbb5531ad	-0.003253083
126	0xbc9fb659	-0.01949613
127	0xbd912d03	-0.070886634
128	0xbd2a5af8	-0.04159066
129	0x3eacd6e5	0.33757702
130	0x3e8694e6	0.26285475
131	0x3dd8bde6	0.10583095
132	0x3d87513d	0.06607292
133	0x3e37ecb7	0.17961393
134	0xbc50656b	-0.012719492
135	0x3d9eb86e	0.07750021
136	0xbdae8bc4	-0.08522752
137	0x3d3435f1	0.043996755
138	0x3cd9a08a	0.026565809
139	0x3e52087c	0.20511049
140	0x3eac5684	0.33659756
141	0x3cb833b4	0.022485591
142	0x3deb77db	0.1149747
143	0x3d9237e3	0.07139566
144	0x3bbe3df6	0.005805726
145	0xbb8474d0	-0.0040422454
146	0x3d312203	0.043245327
147	0x3ca54f36	0.020179372
148	0x3f5669df	0.83755296
149	0x3d685f98	0.05673179
150	0x3e5d4c51	0.21611144
151	0x3ded8739	0.11598057
152	0x3e5619ec	0.20908326
153	0x3e328595	0.1743377
154	0x3e08f9be	0.13376519
155	0x3e2bcf6c	0.16778344
156	0x3e54f45e	0.20796344
157	0xbcfdf4a0	-0.031000435
158	0xbd022954	-0.031777695
159	0x3e2ccdd8	0.16875398
160	0x3d8afc4d	0.06786404
161	0xbd2cb3ba	-0.042163588
162	0x3e0ef8e5	0.13962133
163	0x3e691767	0.22762834
164	0xbc789b4e	-0.015173746
165	0xbdb16edc	-0.08663723
166	0x3ce7a456	0.028276604
167	0x3f1e5f0c	0.6186378
168	0xbd8beebf	-0.068326466
169	0x3e6a70ef	0.22894643
170	0x3d600935	0.05469628
171	0x3e42b8e9	0.1901585
172	0x3e0637f1	0.13107277
173	0x3d5f5588	0.05452493
174	0xbd85ed33	-0.06539383
175	0x3e99288d	0.2991375
176	0x3e34d1b1	0.17658116
177	0x3c0560f4	0.008140791
178	0x3e074de0	0.132133
179	0x3ea5990a	0.32343322
180	0x3cd81ee8	0.026381925
181	0x3e37d575	0.17952521
182	0x3eba5ae1	0.3639746
183	0x3de36453	0.1110312
184	0xbda9df38	-0.08294529
185	0x3dfac1f8	0.12244028
186	0x3ee2d501	0.44303134
187	0x3dd1fe2e	0.10253559
188	0x3e08ca5b	0.13358442
189	0x3c3f86de	0.01168987
190	0x3e33f8b3	0.1757534
191	0x3dbda37b	0.09259697
192	0x3e0207cf	0.12698291
193	0xbe02487b	-0.12722962
194	0xbe380236	-0.17969593
195	0xbdfe06a4	-0.1240361
196	0x3e07ea35	0.13272937
197	0xbd26537b	-0.040606957
198	0xbd816674	-0.063183695
199	0xbdfab600	-0.12241745
200	0xbdf263f6	-0.11835472
201	0xbdf419d7	-0.11918991
202	0x3d1317c0	0.03591132
203	0x3a0cbb07	0.00053684454
204	0x3e2d3a67	0.1691681
205	0xbe52b6b3	-0.20577507
206	0x3d92086c	0.071305126
207	0x3de7e763	0.113234304
208	0xbce1502c	-0.02750405
209	0x3d6ae024	0.057342663
210	0x3d8d0bf9	0.06887049
211	0x3c71f72e	0.014768405
212	0xbed6d094	-0.41956007
213	0xbdfc6af6	-0.12325089
214	0x3e6edc64	0.2332626
215	0xbd0f29aa	-0.034951843
216	0xbd39067d	-0.045172203
217	0xbda045a9	-0.078257866
218	0xbe1ddbb7	-0.15415846
219	0x3d7e674b	0.062110227
220	0xbd5859da	-0.052820064
221	0x3db016cb	0.085980974
222	0xbc9ffa6d	-0.019528592
223	0xbe47a2ac	-0.19495648
224	0xbe384840	-0.17996311
225	0xbdf50362	-0.11963536
226	0x3e797fcc	0.24365157
227	0xbd136b69	-0.035991106
228	0x3d041a75	0.032251794
229	0xbc2f025f	-0.010681718
230	0x3ccab122	0.024742667
231	0x3cdcd791	0.026958259
232	0x3bffec20	0.0078101307
233	0xbcd5e7d2	-0.026111517
234	0xbe0bb0c7	-0.13641654
235	0xbe895c73	-0.26828346
236	0xbc6c0836	-0.0144062545
237	0x3e10297c	0.14078325
238	0x3e11e5a5	0.14247759
239	0xbf2b6177	-0.66945595
240	0x3df84453	0.12122407
241	0xbd414c91	-0.04719216
242	0x3e79abb9	0.24381913
243	0xbe5bba68	-0.21457827
244	0x3dba2b7f	0.090903275
245	0xbd96b0c5	-0.07357935
246	0xbdf47e7c	-0.119381875
247	0x3e00077d	0.12502857
248	0x3ce7d096	0.028297704
249	0x3d76b020	0.06022656
250	0xbed3a9df	-0.4134054
251	0xbdae140c	-0.084999174
252	0xba7b3a66	-0.0009583592
253	0x3d331e81	0.043730263
254	0xbdc90a9c	-0.09816477
255	0xbe0e4ec2	-0.13897231

advantage.0.bias f4 [64]
0	0xbdb61190	-0.088900685
1	0x3e82024e	0.25392383
2	0xbdcf704e	-0.10128842
3	0xbd1f9945	-0.03896453
4	0xbccc255a	-0.024920154
5	0xba8a9a1a	-0.001057449
6	0xbd2b8c98	-0.041882128
7	0xbdb08a97	-0.08620184
8	0x3dfb7635	0.122784056
9	0xbcaf90f9	-0.021431433
10	0xbe176c55	-0.14787419
11	0xbe3936ee	-0.1808736
12	0xbd97b54c	-0.074076265
13	0xbde032fc	-0.109472245
14	0xbac5793b	-0.0015066037
15	0x3d8dbbbe	0.069205746
16	0x3d6b77a8	0.05748716
17	0x3e8080ec	0.2509836
18	0x3e98a2a7	0.29811594
19	0xbce831c4	-0.028344043
20	0xbd968fea	-0.07351668
21	0x3c3a1f57	0.011360011
22	0xbc3b0485	-0.011414652
23	0xbc20454a	-0.009782145
24	0xbb87ca03	-0.0041439547
25	0xbd87ce78	-0.06631178
26	0x3d9b17b1	0.07572878
27	0xbe06e71f	-0.13174103
28	0xbd809198	-0.0627777
29	0x3d67468d	0.056463767
30	0xbdaf48fe	-0.08558844
31	0xbe1e640c	-0.15467852
32	0x3e049c61	0.12950279
33	0xbe1c4e89	-0.15264334
34	0xbd4a4849	-0.049385343
35	0xbd352ff3	-0.04423518
36	0xbcd0c29f	-0.025483428
37	0xbcd3c717	-0.02585177
38	0xbd7b0d78	-0.06129214
39	0xbda3e330	-0.08002317
40	0xbd2861e8	-0.041108996
41	0xbe1dc3d2	-0.15406731
42	0xbd35d3f8	-0.044391602
43	0xbcabcf88	-0.020972982
44	0xbe02f4a2	-0.12788633
45	0x3c281718	0.010259412
46	0xbcf9286a	-0.030414779
47	0x3ca76fff	0.020439146
48	0xbd964192	-0.07336725
49	0x3e84cbef	0.2593684
50	0x3e38a2c3	0.18030839
51	0xbe083afe	-0.13303754
52	0xbc54e01f	-0.012992888
53	0xbd8557f1	-0.06510914
54	0xbda30066	-0.0795906
55	0x3d938c6e	0.07204519
56	0xbdfca8d3	-0.12336888
57	0xbd2af693	-0.041739058
58	0x3d86d7bb	0.06584116
59	0xbde49483	-0.11161139
60	0xbd041f59	-0.032256458
61	0xbe1462ab	-0.14490764
62	0x3da60ee4	0.08108309
63	0xbd6bc13c	-0.05755733

advantage.2.weight f4 [2, 64]
0	0xbdddba33	-0.1082653
1	0x3ed5e155	0.41773477
2	0xbe498c27	-0.1968237
3	0x3e2a691b	0.16641657
4	0x3d68a91d	0.056801904
5	0xbd0c9b3e	-0.034327738
6	0x3d806cfa	0.06270786
7	0x3dae0c30	0.08498418
8	0x3e9882b3	0.29787216
9	0x3ddfb836	0.10923807
10	0xbe3c0916	-0.18362841
11	0x3c873bd0	0.016508013
12	0x3cad88d2	0.021183405
13	0xbdabdc52	-0.08391632
14	0xbb54e3ae	-0.003248434
15	0xbe3b3587	-0.18282138
16	0xbd89d18f	-0.06729423
17	0x3eb956cc	0.36199033
18	0x3e8faa70	0.2805972
19	0xbc5efc30	-0.013609931
20	0xbdd2b470	-0.10288322
21	0x3e632a9e	0.22184226
22	0xbe4b12bc	-0.19831365
23	0xbebb3dcd	-0.36570588
24	0x3dda2976	0.10652439
25	0xbcc39d83	-0.023878818
26	0xbd07725c	-0.033068046
27	0xbdd8f953	-0.1059443
28	0xbe5a6aec	-0.2132985
29	0x3df0eb9d	0.1176369
30	0xbe81e11b	-0.25367054
31	0xbf8a1fa4	-1.0790906
32	0x3e82d7cb	0.25555262
33	0xbe3ce60a	-0.18447128
34	0x3e7967fb	0.24356072
35	0x3d3c6e50	0.04600364
36	0x3dbf0c0a	0.09328468
37	0xbe0704f0	-0.13185477
38	0xbe2fc96d	-0.17166682
39	0xbdbfa294	-0.09357181
40	0xbe385aa3	-0.18003325
41	0x3e1c61c7	0.15271674
42	0x3d8fd6cc	0.07023391
43	0x3d99b56e	0.07505308
44	0xbedc6be7	-0.43051073
45	0xbe6329ad	-0.22183867
46	0x3e555afd	0.2083549
47	0xbdc99a77	-0.09843915
48	0x3c4f7370	0.0126618
49	0x3efed639	0.49772814
50	0xbead39bb	-0.33833107
51	0x3d05c377	0.032657113
52	0xbd7e7bd0	-0.062129796
53	0xbe2f9aa0	-0.17148829
54	0xbec284f5	-0.37992063
55	0xbd9d3082	-0.07675268
56	0xbf623f52	-0.8837787
57	0x3e89d37b	0.2691916
58	0xbf4baf88	-0.79564714
59	0x3db2b07d	0.08725069
60	0xbdb57f00	-0.08862114
61	0xbf27aba2	-0.65496266
62	0x3c5183c6	0.012787765
63	0xbd8d1a72	-0.0688981
64	0x3e12ca84	0.14335066
65	0x3edba0cb	0.42896113
66	0xbe90c6e7	-0.2827675
67	0x3e33bb23	0.17551856
68	0xbd8f6f51	-0.07003654
69	0x3d92c066	0.07165603
70	0x3cb747a8	0.022373036
71	0x3d1e5da5	0.038663525
72	0x3e8adcf7	0.27121708
73	0x3dbcb581	0.092143066
74	0xbe10568a	-0.14095512
75	0xbeba5562	-0.36393267
76	0x3e641a36	0.22275624
77	0x3c0d85e3	0.008637878
78	0xbcec41f7	-0.028840048
79	0xbefb2c52	-0.4905725
80	0xbe4d117b	-0.200262
81	0x3e5ef850	0.21774411
82	0x3e66ab44	0.2252627
83	0xbc186106	-0.009300476
84	0xbd27ad7e	-0.04093694
85	0x3c1fd77b	0.009755964
86	0xbdff3a2a	-0.12462266
87	0x3de41fb8	0.11138862
88	0x3d6ee33d	0.05832218
89	0xbd245ea1	-0.040129308
90	0x3e5e7d6a	0.21727529
91	0x3b14e3da	0.0022718818
92	0xbe7011ed	-0.23444338
93	0x3e6f2e10	0.23357415
94	0xbe49bbf0	-0.19700599
95	0xbf3ed350	-0.7454119
96	0x3e30c2c3	0.17261796
97	0xbe490095	-0.19629128
98	0x3d1cca17	0.038278665
99	0x3c2e672d	0.010644716
100	0x3dfd801d	0.12377951
101	0xbe735609	-0.23763289
102	0xbdd0e742	-0.10200359
103	0xbd8351a7	-0.06412058
104	0xbdf6e173	-0.1205472
105	0xbeddd250	-0.43324518
106	0xbd2c1fcf	-0.042022523
107	0x3db91c20	0.090385675
108	0x3ef42991	0.47687963
109	0x3ea2c405	0.31790176
110	0xbedbefd4	-0.42956412
111	0xbd1aa0f5	-0.037751157
112	0xbdccca72	-0.09999551
113	0x3eb9d9b0	0.36298895
114	0xbda87ce8	-0.08226949
115	0xbd855e90	-0.06512177
116	0x3e6dc84a	0.23220935
117	0xbe4b25b9	-0.19838609
118	0xbf3a4805	-0.72766143
119	0xbda8a260	-0.082340956
120	0xbf814caa	-1.0101521
121	0x3e06fbe9	0.13182034
122	0xbf77ff71	-0.9687415
123	0x3d27d08b	0.040970366
124	0xbceaf845	-0.028682837
125	0xbf390aee	-0.722823
126	0xbd2cee53	-0.04221947
127	0x3c03aed6	0.00803729

advantage.2.bias f4 [2]
0	0x3e0fa7e5	0.1402889
1	0xbdf65f46	-0.12029891

value.0.weight f4 [64, 64]
0	0x3e0fdd3a	0.14049235
1	0xbd3d0d19	-0.04615507
2	0xbec1e657	-0.37871048
3	0x3bc2dc11	0.005946644
4	0x3e13b68b	0.14425103
5	0xbe1e7da3	-0.15477614
6	0xbd4262f7	-0.04745766
7	0x3d4c5d38	0.049893588
8	0x3d57b046	0.05265834
9	0xbcc2f642	-0.023799066
10	0x3e3ae359	0.18250789
11	0xbe27c7f3	-0.16384868
12	0xbd32fe0d	-0.043699313
13	0x3d92029c	0.07129404
14	0xbe105b9e	-0.14097449
15	0xbb589c7e	-0.003305226
16	0x3e596007	0.21228038
17	0x3db87bdd	0.09008
18	0x3cad9fa3	0.021194285
19	0x3d828527	0.06373053
20	0xbf44e5c8	-0.7691312
21	0xbb5e4c33	-0.003391993
22	0xbde99ab8	-0.114064634
23	0x3e3024ff	0.17201613
24	0xbde4950d	-0.11161242
25	0x3e2c6ea4	0.16839081
26	0xbd081766	-0.03322544
27	0x3da48389	0.08032901
28	0xbe6a7398	-0.22895658
29	0x3e1399ca	0.14414135
30	0x3e1ef9da	0.15524998
31	0x3b110d2c	0.0022133095
32	0x3da9a5a2	0.08283545
33	0x3d9f3230	0.077732444
34	0x3cfb4705	0.030673513
35	0xbe098103	-0.1342812
36	0x3c7f38ac	0.0155774765
37	0x3e38a5a6	0.1803194
38	0x3e1f5316	0.15559039
39	0xbe938582	-0.28812796
40	0x3d6dcfc6	0.058059476
41	0x3d1c4083	0.03814746
42	0x3d0832b0	0.033251464
43	0x3cc12e80	0.023581743
44	0xbd8f3c12	-0.069938794
45	0x3c522b49	0.012827703
46	0x3e2ee798	0.17080534
47	0x3d8baece	0.06820451
48	0x3db564c6	0.08857112
49	0x3e4edda8	0.20201743
50	0x3d1875f3	0.03722186
51	0xbe96e479	-0.29471186
52	0x3df940f4	0.12170592
53	0x3c17a181	0.009254814
54	0xbea9218e	-0.33033413
55	0xbd85e5ca	-0.065379694
56	0x3e5f0daa	0.21782556
57	0x3e2dc8b3	0.16971092
58	0xbeb3c386	-0.3511011
59	0x3e5595f2	0.20857981
60	0xbd8ecf24	-0.06973103
61	0x3db4da42	0.08830692
62	0xbca10a2c	-0.01965817
63	0x3df56a00	0.119831085
64	0x3d45a16b	0.048249643
65	0xbdd6aba4	-0.104819566
66	0x3d225b34	0.03963776
67	0xbabdc480	-0.0014478117
68	0xbe05b0f1	-0.13055779
69	0xbdec6bf6	-0.115440294
70	0xbc1fde50	-0.009757593
71	0xba160438	-0.00057226745
72	0x3a63950a	0.00086815713
73	0xbd8c428a	-0.06848629
74	0xbdc24b37	-0.09487002
75	0x3df16250	0.1178633
76	0xbda22fc2	-0.07919265
77	0xbd773d24	-0.060361043
78	0xbdfd2cc2	-0.123620525
79	0xbd5aecbb	-0.05344842
80	0xbd9d9e2f	-0.07696187
81	0x3daded84	0.08492568
82	0xbda5e174	-0.080996424
83	0xbdf97504	-0.12180522
84	0xbb3c4240	-0.0028726012
85	0xbdcc26ac	-0.099683136
86	0x3dce9e4c	0.100887865
87	0xbd26f08d	-0.04075675
88	0xbda5dbd2	-0.08098568
89	0xbb97a5a1	-0.004627899
90	0xbc3f3ea0	-0.011672646
91	0x3dc864de	0.09784864
92	0xbddb16fa	-0.10697742
93	0x3d889794	0.06669536
94	0xbce15881	-0.027508022
95	0xbdd93be3	-0.106071256
96	0xbdfd7b14	-0.12376991
97	0x3c6aab52	0.0143230725
98	0x3d20af1c	0.039229497
99	0x3dc339c6	0.09532504
100	0xbde2bdcb	-0.110713564
101	0xbda2cffa	-0.07949825
102	0x3d0a2a50	0.03373176
103	0x3d6a00cc	0.057129666
104	0xbd08a570	-0.0333609
105	0xbd339d6b	-0.043851297
106	0x3d756d82	0.059918888
107	0x3daa0c00	0.0830307
108	0xbdfd30ec	-0.12362847
109	0x3d1ebebc	0.038756117
110	0x3ca56b95	0.0201929
111	0x3d9e3950	0.07725775
112	0x39a34362	0.00031139987
113	0xbcd79146	-0.026314389
114	0x3da223e6	0.07917003
115	0xbd37b8cc	-0.04485397
116	0xbd9ce9b1	-0.076617606
117	0xbd600f90	-0.05470234
118	0x3d7b730c	0.061389014
119	0x3d2e68f0	0.042580545
120	0xbd91f427	-0.071266465
121	0x3d9e2dc2	0.07723571
122	0x3d09762c	0.033559963
123	0xbd26e754	-0.040747955
124	0x3d9c6c70	0.0763787
125	0xbd5c0ed0	-0.053725064
126	0xbd1dfec8	-0.038573056
127	0x3d2bc690	0.04193741
128	0x3d5e980c	0.054344222
129	0x3efae8b2	0.49005657
130	0x3eed258d	0.4631771
131	0x3b74b691	0.0037340263
132	0xbd857262	-0.065159574
133	0x3e89b21a	0.26893693
134	0x3e50c994	0.20389396
135	0x3f003658	0.5008292
136	0xbd51bbd0	-0.051204503
137	0x3e08860f	0.1333239
138	0xbe1ec6d7	-0.15505539
139	0x3e7bf19a	0.24603882
140	0xbda38c64	-0.07985762
141	0xbe39e064	-0.18152004
142	0x3e180f8c	0.1484968
143	0xbd1c4897	-0.038155165
144	0xbe861a15	-0.26191774
145	0xbddc6ad0	-0.1076256
146	0x3b9657ef	0.004588119
147	0xbe098d14	-0.13432723
148	0x3f6faff1	0.9362784
149	0xbcfb44c4	-0.030672438
150	0xbce0b3c0	-0.027429461
151	0x3dd64978	0.10463232
152	0xbcbae3ea	-0.022813756
153	0xbd906aef	-0.07051646
154	0x3d847fa3	0.06469657
155	0x3d92467b	0.07142349
156	0x3eecddb3	0.46262893
157	0xbe2868cb	-0.16446225
158	0xbdbb9570	-0.09159362
159	0x3e199121	0.14996769
160	0xbe964a8c	-0.2935375
161	0xbe8d973f	-0.27654454
162	0xbcd1d09f	-0.025612174
163	0x3e9b6806	0.303528
164	0xbe5668cc	-0.20938414
165	0xbe580fd6	-0.21099791
166	0x3eb357b4	0.3502785
167	0x3deaa569	0.11457331
168	0xbe1f5445	-0.1555949
169	0x3eb3608c	0.35034597
170	0x3e19dbdb	0.15025274
171	0xbe02dae2	-0.1277881
172	0x3e7e49e9	0.24832882
173	0xbf0960dd	-0.53663427
174	0x3c2f61b6	0.010704448
175	0x3db12ad0	0.08650744
176	0xbef695f9	-0.48161295
177	0xbe64eea8	-0.22356665
178	0xbe85b5a0	-0.2611513
179	0x3d0d08fd	0.0344324
180	0xbdda675c	-0.106642455
181	0x3e6e2596	0.23256525
182	0x3f104e61	0.56369597
183	0xbe17e7bf	-0.14834498
184	0xbf13afec	-0.5769031
185	0x3d08651c	0.03329955
186	0x3f053af8	0.52043104
187	0xbe9558ae	-0.2916922
188	0x3df3d33a	0.11905523
189	0x3e1c9153	0.15289812
190	0x3de11cdd	0.10991833
191	0x3bc39d7e	0.0059697023
192	0x3df46794	0.119338185
193	0xbe597980	-0.21237755
194	0xbe6013b9	-0.21882524
195	0x3da0e693	0.078564785
196	0x3dcad00e	0.099029645
197	0xbe19b0fe	-0.15008923
198	0x3bed18d6	0.0072356267
199	0xbc316deb	-0.010829429
200	0xbbb1643b	-0.0054135597
201	0xbdafd0a3	-0.08584716
202	0x3e2a9606	0.16658792
203	0xbc87a1e6	-0.016556691
204	0xbdfa62cd	-0.12225876
205	0xbd8b467c	-0.06800553
206	0xbcbd2d2a	-0.023092825
207	0x3d550edc	0.052016124
208	0x3e00c445	0.12574871
209	0x3e51bd82	0.20482448
210	0x3dc4c775	0.09608356
211	0x3d394c45	0.045238752
212	0xbf5d13cc	-0.8635833
213	0xbc1b4461	-0.009476752
214	0xbe0683f8	-0.1313628
215	0x3d2c8651	0.04212028
216	0xbe5c864d	-0.21535607
217	0x3dfa951f	0.12235474
218	0x3c1c7114	0.009548444
219	0xbdd13ace	-0.10216294
220	0xbda0fa73	-0.078602694
221	0x3da50171	0.080569156
222	0x3d9a4467	0.07532578
223	0x3dbfbc0a	0.093620375
224	0x3db0d2c8	0.08633953
225	0x3e277035	0.16351397
226	0xbd83cada	-0.06435175
227	0x38b63d24	8.6898246e-05
228	0x3dd3bb26	0.1033843
229	0x3da166d4	0.07880941
230	0x3cca3a1d	0.024685914
231	0xbef3fe3e	-0.4765491
232	0xbc863d03	-0.016386515
233	0xbdaee1e0	-0.08539176
234	0x3e07b3f4	0.1325224
235	0xbccdcc70	-0.025121897
236	0x3d1d0106	0.038331054
237	0x3e11e100	0.14245987
238	0x3e4b371c	0.19845241
239	0xbd807455	-0.062721886
240	0x3e192eab	0.14959209
241	0x3e691a7b	0.22764008
242	0x3d2e5f6d	0.042571474
243	0xbe64bfcc	-0.2233879
244	0x3e2d5fec	0.16931123
245	0xbdb1af52	-0.08676018
246	0xbeeb6a8f	-0.45979735
247	0x3c0e2719	0.008676314
248	0x3e2eebf5	0.17082198
249	0xbd648584	-0.055791393
250	0xbe9e7bd7	-0.30953857
251	0x3d70d146	0.05879333
252	0x3d16cce7	0.036816504
253	0x3e5c3617	0.21505009
254	0x3db78ef7	0.08962815
255	0x3d87dec8	0.06634289

value.0.bias f4 [64]
0	0x3d9b9b9b	0.07598039
1	0xbd4d9ebf	-0.05020022
2	0xbe1672c5	-0.14692219
3	0x3e765eba	0.24059573
4	0x3e58d388	0.21174443
5	0x3d6e43d0	0.05817014
6	0xbd9eb8f6	-0.07750122
7	0xbdf9953c	-0.12186667
8	0xbdb5067a	-0.08839126
9	0x3dacdc39	0.08440442
10	0x3e3a4af9	0.18192662
11	0x3e4e3f17	0.20141254
12	0x3e60f17e	0.21967122
13	0x3e48aa18	0.19596136
14	0x3d9fb1e6	0.07797603
15	0xbd2ade4c	-0.041715905
16	0x3c95acc9	0.018270867
17	0x3ce4054a	0.027834553
18	0xbe0746a4	-0.13210541
19	0x3e69b3e8	0.22822535
20	0x3dff0f9c	0.12454149
21	0x3de853c0	0.11344099
22	0x3bd30246	0.00643948
23	0x3d8dc11d	0.06921599
24	0x3de8c798	0.113661945
25	0xbce2ce5a	-0.027686287
26	0x3e23bacc	0.15989226
27	0xbe5a29d7	-0.21305023
28	0x3e089ca5	0.13341005
29	0xbda630cc	-0.08114776
30	0xba263f38	-0.0006341818
31	0x3dd1fdff	0.10253524
32	0x3e88c097	0.26709434
33	0x3caafb1b	0.02087169
34	0x3e171111	0.14752604
35	0xbcc97b3c	-0.024594896
36	0xbe3bcf8f	-0.18340896
37	0xbd902c7d	-0.070397355
38	0x3e146222	0.1449056
39	0x3e63d816	0.22250399
40	0x3b2c0ca7	0.0026252659
41	0x3b4a29bc	0.003084763
42	0xbe5a9a4d	-0.21347924
43	0x3e5ac7d0	0.21365285
44	0xbda1598c	-0.07878408
45	0xbd17b835	-0.037040908
46	0x3e031ab3	0.12803154
47	0xbd1c9602	-0.038228996
48	0xbda8e483	-0.0824671
49	0x3d89b20e	0.06723414
50	0x3da43f37	0.0801987
51	0x3d67bb26	0.056574963
52	0x3dda6cb6	0.10665266
53	0x3da4d66a	0.08048709
54	0xbd960f95	-0.07327191
55	0xbdd4a472	-0.10382928
56	0x3e771ee1	0.24132873
57	0xbe054722	-0.13015416
58	0x3e0ef758	0.13961542
59	0xbd54265c	-0.051794395
60	0x3dc11472	0.09427728
61	0x3e4a15b2	0.19734839
62	0xbdba0b5a	-0.090841964
63	0x3cd2b913	0.025723016

value.2.weight f4 [1, 64]
0	0x3e6da7db	0.23208563
1	0xbd40fc11	-0.04711539
2	0xbf6c88d0	-0.9239626
3	0x3e2ecf7a	0.17071334
4	0x3e6a7402	0.22895816
5	0x3e52da8f	0.20591186
6	0xbed51889	-0.4162028
7	0x3c64eb20	0.013972074
8	0x3e854d27	0.26035425
9	0xbdca16fc	-0.09867665
10	0x3e89c57b	0.26908478
11	0x3e46876b	0.19387595
12	0x3e36536c	0.1780526
13	0x3e972374	0.29519236
14	0x3e712f6d	0.23553248
15	0x3d634d3c	0.05549358
16	0xbd822678	-0.063549936
17	0xbeb52f67	-0.35387728
18	0xbe91a492	-0.2844587
19	0x3e605e22	0.21910909
20	0x3e2b48e9	0.16727032
21	0x3e84cc5e	0.2593717
22	0xbb4f203c	-0.0031604907
23	0xbe10ddf9	-0.14147176
24	0x3e7b1e5f	0.24523304
25	0xbf5f7971	-0.8729468
26	0x3e87940b	0.26480135
27	0xbfa8504e	-1.3149507
28	0x3e7db68d	0.24776669
29	0xbf47eb62	-0.7809354
30	0xbb9a60f7	-0.004711266
31	0x3e8736ac	0.264089
32	0x3e3031c8	0.1720649
33	0xbf4d56e6	-0.8021072
34	0x3e873724	0.26409256
35	0x3c6a3358	0.014294468
36	0xbf8861cb	-1.0654844
37	0xbd994f55	-0.074858345
38	0x3e4c582f	0.19955514
39	0x3e75f15e	0.24017856
40	0xbe87361a	-0.26408464
41	0xbf708f2f	-0.9396848
42	0xbf56fe43	-0.8398172
43	0x3e26935d	0.16267152
44	0xbc208410	-0.009797111
45	0x3b841ca3	0.004031734
46	0x3eb2b791	0.34905675
47	0xbd06b7b3	-0.032890033
48	0xbca7fca5	-0.020506212
49	0xbe8bee78	-0.27330375
50	0x3ebdf999	0.3710449
51	0xbc1fcd64	-0.009753559
52	0x3ea48093	0.32129344
53	0x3e8c57d1	0.2741075
54	0xbea35152	-0.3189798
55	0x3bcad138	0.0061894916
56	0x3e1a1d2c	0.1505019
57	0xbe75da9d	-0.24009176
58	0x3e54b484	0.20771986
59	0xbd9f7665	-0.07786254
60	0xbd38ba3c	-0.045099482
61	0x3e8f56e5	0.27995983
62	0xbec7707c	-0.38953006
63	0x3e13a2b1	0.1441753
