logs/CartPole-v1/experiment-2020-04-16_15_19_48/checkpoint.pth (torch_old, 36991 bytes, 9 tensors)

feature.0.weight f4 [64, 4]
00000000: 0779 d4be 0a36 8c3c 9be8 293c 0757 bdbd
00000010: 962c c7be 27b4 8d3d 84d2 d9bf 0b3b 4cbd
00000020: 29f7 8ebe ed12 a0be 82db d93e 1d76 39be
00000030: 24b2 6b3e 7e00 be3e e5de d9be 67b5 543e
00000040: be43 6cbe 3ccd 763d 40b2 edbe cd69 fd3d
00000050: ab2c 92be 980c c6be f1a1 25bf 5bde 8bbe
00000060: 1e4e 313f cecc a33e fecc b6be 1e07 953d
00000070: 726e 1f3f fb75 b53c 6201 d6bd 619b 013c
00000080: 3ec3 e43e 9ac8 1b3e ffba 02bf 67fc 243e
00000090: 6aa9 d03e 49ad 03be 315a 0fbd 93fd 00be
000000a0: 97dc 8f3d 82a9 ffbe 1035 99be 7de7 9cbe
000000b0: 40bd 12be 8ab3 e93d af10 9cbf 48e3 ddbe
000000c0: feaf c5bd 31f4 f23d af66 9a3f 940e e13e
000000d0: 423c 28bd 91e1 ed3d 7971 3a3f 08f5 e7bd
000000e0: 3d4b 37bf cb7b a3be 41af 0e3e a9a8 613d
000000f0: 22ea 09be 1608 bf3d 536d 883e 1ca3 a8be
00000100: f6ba f8bd c2a7 0dbe 8687 c63e 7a86 2cbe
00000110: 1690 6ebe 3a8c 6dbe 47bb dabe 1bbd 23be
00000120: 3c20 c7be 6195 153f 019a 3f3f ce38 033e
00000130: 8a34 c7be 90f6 133e 4071 8e3f e234 8cbe
00000140: 0e2b 0dbd d9cd 2b3d a909 c1bf f9d2 efbd
00000150: 42ce 75be 9bbb aa3e 3996 c4be 3202 ccbd
00000160: d3b5 82be 459f 11bd 0db6 883e d7c9 cf3d
00000170: b1d1 4cbe f169 7fbe f55a 9ebe 42b1 29be
00000180: 6b50 cfbe 93bd 0d3e 45c6 8c3f 08cf 1e3e
00000190: a2a3 083e ef30 b53e 3f18 71bc dbd8 813d
000001a0: 6a25 863e 0c60 153f 7725 a23f e4dd 2f3e
000001b0: a05f adbe 2402 35bf c7a8 13bf 8632 99bd
000001c0: 8afd eebe b099 b1bd b266 603f 85d6 693e
000001d0: deb4 78bd 887c 64be cade ab3e f721 c4bd
000001e0: 8695 48be 75e4 cd3e b913 af3f 7810 3e3c
000001f0: 8502 d3bd 304b 2abe ea8b 0cc0 10bb 91be
00000200: 9b82 6d3e 9de8 8ebe 574c 183f e3f6 febc
00000210: beb2 083e f569 d2be 1548 5cbf 2637 43bd
00000220: 5840 be3e 80b0 623e 6763 ac3f e3b4 723e
00000230: dcbc acbe 16b4 413e e1e4 b3bf 558f 1dbe
00000240: c164 983e 0d6d d9be 0c4e f4be 05f2 d63d
00000250: e8c2 5a3e 1174 16be 1362 aebd 7e70 803e
00000260: cca5 3f3e 6329 283f c4f8 523e e1b2 1b3f
00000270: a33c 0fbe 09b5 043e 2bc5 b03f 7e77 883e
00000280: bc0a 403d 9a87 45be 92e4 413f 4d91 5fbe
00000290: 358a 963d 4287 0dbf 762c 25c0 598f e5be
000002a0: d9e9 4c3e 3402 bcbd 51a4 9dbf c870 bbbe
000002b0: 97b7 ad3e c76d 8b3e d085 0f3f 5804 ff3e
000002c0: 12e9 333d 916c 77be b29d 21c0 f226 9ebe
000002d0: fbf8 b8be 54d5 033f 98c2 713f a871 cb3e
000002e0: 6431 95be 4aba 35be f903 48be 8a5c 01be
000002f0: bee6 6a3f e05a 98bd d006 35bf 5bcb 80bd
00000300: 0919 73bd e41f 04bb 9871 453f a9b3 dd3d
00000310: 484a 513d 343a 23bc e71e 123e ed8c 973e
00000320: 9dcb 6ebe 1f14 6b3e 2cc5 3c3e 96e2 ce3e
00000330: 03bb f73e 5e27 a53e 3c38 913f 999c b33e
00000340: aa12 5cbe 37f4 3ebd ccc5 ad3e abf8 a9bd
00000350: 5e81 ac3e 8a0b 043f 4c14 25bf 76fa 86be
00000360: fcad 0dbf a847 953c 665f 873e cddb de3c
00000370: d076 52bd 06ad 13be e975 a43d b29b 23be
00000380: cafc b8be 7ce0 b63e 2187 2b3f 6564 ee3e
00000390: 2a25 99be d380 c6be d778 15bd b8c7 1dbf
000003a0: adbf 0cbf 854b 9ebd a04f 28bf 0132 3abe
000003b0: e7ba 813e 6d6d 64be 3f86 393f f6ce 7fbe
000003c0: 2760 63bd 60a2 aabe 567d ffbf 86d2 bfbe
000003d0: e7a4 f83c d459 a3be c58d a8bf 5e2d 85be
000003e0: a816 b83e b22f d3be 96f8 12bf d407 90bd
000003f0: 9787 293e 1fef 023f b7a2 223e 4fa0 263e
-0.41498587 0.017115612 0.010370399 -0.09245115 -0.38901204 0.06919127 -1.7017369 -0.049860995
-0.27922943 -0.3126444 0.42550284 -0.18111463 0.23017174 0.3710975 -0.42552868 0.20772325
-0.23072717 0.06025432 -0.46425056 0.123736955 -0.28549704 -0.38681483 -0.6470023 -0.2731808
0.6925982 0.3199219 -0.35703272 0.07276748 0.622779 0.022150984 -0.104494825 0.00791058
0.44680208 0.15213242 -0.51066583 0.16111909 0.40754253 -0.12859072 -0.034998123 -0.12596731
0.07024496 -0.49934012 -0.29923296 -0.30645362 -0.14330006 0.114111975 -1.2192591 -0.43337464
-0.096527085 0.11862982 1.2062587 0.43956435 -0.04107309 0.11615289 0.72829396 -0.11326033
-0.7159918 -0.31930384 0.13934042 0.055092487 -0.13468221 0.09327714 0.26645908 -0.32936943
-0.12145035 -0.13833526 0.3877527 -0.16848174 -0.23297152 -0.23198023 -0.42721006 -0.15990107
-0.3889178 0.5843106 0.74844366 0.12814638 -0.38907272 0.14449525 1.1128311 -0.27384096
-0.03446489 0.04194436 -1.5081073 -0.11710162 -0.24004462 0.33346257 -0.3839586 -0.09961356
-0.25529346 -0.035552282 0.26701394 0.1014592 -0.20001866 -0.24942757 -0.3092877 -0.16571525
-0.40491042 0.13841848 1.0998007 0.15508664 0.13343671 0.35388896 -0.014715253 0.0634019
0.2620042 0.5834968 1.2667683 0.17174488 -0.3386202 -0.7070639 -0.5767941 -0.0748034
-0.4667781 -0.08671892 0.876567 0.22835739 -0.060719363 -0.2231313 0.33568412 -0.09576791
-0.19588289 0.4021336 1.3677894 0.011600606 -0.10303215 -0.16630244 -2.1960397 -0.2846303
0.23194353 -0.27911845 0.59491485 -0.031123584 0.13349435 -0.41096464 -0.8604749 -0.047660016
0.37158465 0.22137642 1.3467835 0.23701815 -0.33737838 0.18916354 -1.4054223 -0.15386708
0.2976437 -0.42466012 -0.47715795 0.1049538 0.21363413 -0.14692713 -0.085148 0.25085825
0.1871559 0.6568815 0.20602709 0.6081982 -0.13987975 0.12959684 1.3810171 0.26653665
0.046885237 -0.19290009 0.75739396 -0.21832772 0.0735058 -0.5528451 -2.5808387 -0.44835928
0.20011081 -0.09180108 -1.231577 -0.36609483 0.3392913 0.2723219 0.56063557 0.49808002
0.043923445 -0.24162509 -2.52525 -0.30889088 -0.36127457 0.5149739 0.9443755 0.3973515
-0.29139245 -0.17746845 -0.19532765 -0.12632957 0.91758335 -0.07439208 -0.7071352 -0.06288787
-0.059350047 -0.002016061 0.77126455 0.10825283 0.05109623 -0.009962607 0.14269601 0.29599705
-0.2331986 0.22956894 0.1843459 0.40407246 0.48384866 0.32256597 1.1345286 0.35080412
-0.21491495 -0.04661962 0.3393997 -0.08299383 0.3369245 0.5158011 -0.64484096 -0.26362962
-0.55343604 0.018222645 0.2643997 0.027204419 -0.05138284 -0.14421472 0.08030302 -0.15977362
-0.36130363 0.35718143 0.67003065 0.4656097 -0.29911166 -0.3877016 -0.036492195 -0.6163287
-0.54979974 -0.07729248 -0.657465 -0.18183137 0.25337908 -0.22307368 0.7247047 -0.24981293
-0.05551162 -0.33327007 -1.9960124 -0.37465304 0.030352069 -0.3190447 -1.3168265 -0.26011175
0.35954785 -0.41247326 -0.5741056 -0.07032743 0.1655563 0.5114612 0.15882383 0.1627209

feature.0.bias f4 [64]
00000000: 90b0 8b3e 50be e73d 4084 ccbe 5995 e33e
00000010: dc75 123f fec0 ccbe 5c40 e0be ae4d 8dbe
00000020: 5654 5a3e b999 3dbf ca61 7f3e 9263 82be
00000030: 7167 05bf 024a cf3d 6f5d 4cbe e169 363f
00000040: 56b9 d23e 0ae8 403f 507b 443f 890d 49be
00000050: 86dd 9fbe 5728 293f 9514 2e3f f71d 3a3f
00000060: ee0c 82be fb0d 0c3f efd8 713d 46f7 673d
00000070: 9a87 f6be a9c2 2a3f e26a c33e 286f bd3e
00000080: c2ea 133f 6f90 a7bc e13d 2fbf 1def 08be
00000090: 551d bb3e 14b6 2f3f ea83 f2bd aca2 cabe
000000a0: ba15 dcba bd81 933e b02c 4b3f 4c00 0a3f
000000b0: 109f 5a3e 9e78 063f 7f15 4f3f 7694 ff3e
000000c0: 71a1 d83e fa06 183f 331f 253f 1945 27bf
000000d0: 0c79 183f b5f2 5cbe 3e11 31be 6023 a13e
000000e0: 46b7 513f 2212 943e 442f 04bf f05f 163f
000000f0: 073b df3e 9275 0b3f 34cf 4dbe 2a9a 5e3e
0.27283144 0.11315596 -0.3994465 0.4444988 0.5721109 -0.3999099 -0.43799102 -0.27598327
0.21321234 -0.7406269 0.24939647 -0.2546659 -0.52110964 0.10121538 -0.19957517 0.7125531
0.41157025 0.75354064 0.7675066 -0.1963407 -0.31223696 0.6607718 0.68000156 0.7270197
-0.2540049 0.5470883 0.059044775 0.056632303 -0.4815033 0.6670328 0.38167483 0.36998868
0.57780087 -0.020454613 -0.68453795 -0.13372464 0.36545816 0.68637204 -0.11841567 -0.39577234
-0.0016791143 0.2880992 0.7936506 0.53906703 0.2134974 0.525278 0.80892175 0.49917954
0.4231067 0.59385645 0.6450073 -0.6533981 0.595597 -0.2157696 -0.17291734 0.314723
0.8192028 0.28920084 -0.5163462 0.5874014 0.43599722 0.54476273 -0.20098573 0.21738496

advantage.0.weight f4 [64, 64]
00000000: 66c5 493d 4b76 09be 75cf 1cbf b47b b73c
00000010: 10ca 3b3e 6ac7 c43e 9d5b f5be e96c 29bf
00000020: 201f eebd a0c6 0dc0 91b1 d23d 2891 d9bd
00000030: 9f97 2d3e e02e cf3d 894f 5a3d 86a9 9d3d
00000040: 0f5f a23e a466 8a3e bc8a 203d c50c 9c3e
00000050: 4306 25c0 72d9 dc3d 902b 1f3e fe13 643e
00000060: 765b b4bd 3556 823d e291 2bbd 4e54 d0bd
00000070: bddc 1ebe f57c 153e 2e3d e33d d8e4 993e
00000080: 3aab f73d c75d 39bd 6cab aebf f725 8abc
00000090: 484f 3bbd 1828 053c 6f8e 08be ad67 98be
000000a0: 6216 6abc 9227 613e 655c cbbd 2c1c 863d
000000b0: 8cba 313e 4b23 843e 16a9 0e3e 6fcf adbd
000000c0: f0f8 003e 838c 4f3d 35e8 383e 013b c0be
000000d0: 0154 a33e b210 e13b 8761 88be 83ff 0d3e
000000e0: a557 4b3e 0bab ad3d 1d6a d33e 6673 8d3e
000000f0: 39f5 ca3d 4eb8 9e3d d5fe 703e d5d6 883d
00000100: afe7 a53d 5131 5abe d124 f2be 21bc 9a3d
00000110: e0d0 503e b042 92bf b7da 0fbe 398e 8abd
00000120: b14f 343c 46a7 a4bf be07 91bd e273 21bd
00000130: b142 1cbf ed87 303d 31a9 c9bd 6ee5 403e
00000140: bab4 5d3d 9615 c83d 275e 493e 322b 203e
00000150: 24e3 93bf f533 243e 4a5c c6be 52ab 1d3e
00000160: 903f babe d22c 2dbd 6a8f a73c 0b4d c93d
00000170: 427d 77bd d031 763e 5be9 583d 78cb 82be
00000180: bab0 df3d a47d 17be 1ffb 6dbf a65b 13be
00000190: a7f1 0ebe 3856 173e 8d86 633d 8322 f0bf
000001a0: 6036 8e3c 9ddd cebc 4468 f23c 6d28 ad3d
000001b0: 38d3 a8bd 3541 2b3d 829e a23e d8b9 f0bd
000001c0: a4bb 52bb 318a 8b3e 5861 f93d 0bf8 00be
000001d0: 8d51 983e 7731 31be bbf9 4ebd edc3 f03c
000001e0: c7f1 873e c43b 28be 13a2 e2be 6064 d03d
000001f0: f5ad 39be 7f27 c93d 43ad 38be ccff 87bd
00000200: 80e1 7a3d 0959 c73e 7973 d73e 048f 153e
00000210: 3706 2e3e de4c 813f 6a0f 3d3e df87 763c
00000220: db57 d3bc efee 1d3f 644e d23d 49be 3bbd
00000230: d2e6 d03e 0d7c ca3d c923 a43d 964b 823c
00000240: e53d 1f3e a08c e2bc 4fe9 073e 6c93 013e
00000250: 5bb0 923f cf5b 1b3e 1a58 b13e e35c e63d
00000260: d199 4a3f e8f4 463e 8aaa 463e 7bf8 1d3e
00000270: 1e30 ff3d 8b35 0fbc ccd9 ea3d e31c fa3d
00000280: 489d b43b f69d 3f3d 3ef2 623f 5e03 463e
00000290: c422 ab3d a90a 00bc 842c 153d 7885 913f
000002a0: 6d28 2bbd 5b57 473e 4561 fcbd 1626 363e
000002b0: 7b1a 093e d773 3a3e cd56 aabd 9ae5 143e
000002c0: 608e 8e3e eb81 023e 5955 393e ae8e a23e
000002d0: 9879 3a3d 2fcd 163e 911f 613e 806c 743e
000002e0: 9d97 1dbd 195b 353e a13f 503e c1bf 923d
000002f0: d664 393e 48ef 91bb 9dfb 503e a4fd c43d
00000300: 50a6 8f3d 9050 383d 50e2 35bd 60e4 d53c
00000310: 74f3 e13c dba8 603d 7466 81bd 75fd 9a3d
00000320: 9df1 f1bd ec37 d0bd a4eb cc3c 43e4 1a3d
00000330: 905c 1b3c 80c1 9a3b 7d99 343d 52df 563d
00000340: b07e bdbd 6b12 9fb9 661b 98bd 4c0f b0bd
00000350: 68ee cbbd b173 03be 838e b13d dad3 a0bd
00000360: 4d72 0cbd 2a01 1ebd 8966 c5bd f386 563d
00000370: fca3 abbc ada6 df3c 629d 653c 5fca 25be
00000380: 35b7 38be e354 0fbe 9ef8 d43d d1b3 f13d
00000390: adcf 5c3c 96c8 b7bd 8c64 283d 74a8 ccbd
000003a0: 9831 a63c 87f1 54bd d968 493d 873c f63a
000003b0: 2c56 04bd 5ef2 b7bc bf6f a73d ee91 06be
000003c0: 28d7 6d3d 8277 0dbe 4a60 05bd bc92 d6bd
000003d0: 4624 d03c 7861 c63d 690f 15bd e696 c93d
000003e0: d198 1cbe 6139 d83c 592f 663c d14d 99bd
000003f0: 249c 2cbd d58a 213c 06a5 6bbd b1ff 0abe
0.04926052 -0.13424031 -0.61254054 0.022397853 0.183388 0.3843339 -0.47921458 -0.6618181
-0.116270304 -2.215248 0.10287774 -0.106233895 0.1695237 0.101163626 0.053298507 0.0769835
0.3171315 0.27031434 0.039194807 0.30478492 -2.5785072 0.10783662 0.15543962 0.22273251
-0.08806507 0.06364099 -0.04188717 -0.1017233 -0.15513892 0.14598449 0.110956535 0.30057406
0.12093206 -0.04525545 -1.3646064 -0.016863806 -0.045729905 0.008127235 -0.13335584 -0.29766598
-0.014287563 0.21987751 -0.09929732 0.06548342 0.17356318 0.25808176 0.13931689 -0.084868304
0.12594962 0.05067111 0.1805733 -0.37545016 0.31900027 0.0068684453 -0.26636907 0.13867001
0.19857652 0.084798895 0.41291896 0.27627105 0.09910054 0.07749997 0.2353471 0.06681601
0.08100831 -0.21307875 -0.47293714 0.07555414 0.2039218 -1.1426601 -0.14048277 -0.06765408
0.011005328 -1.2863548 -0.07081555 -0.039417155 -0.61039263 0.04309838 -0.09846724 0.1883752
0.054127432 0.09769742 0.19664823 0.15641478 -1.1553693 0.16035445 -0.38742286 0.15397385
-0.3637662 -0.042279072 0.020454127 0.09829148 -0.06042219 0.2404244 0.05295692 -0.2554586
0.1092238 -0.14794022 -0.92961305 -0.1439043 -0.1395937 0.14778984 0.05554824 -1.8760532
0.017359912 -0.025252158 0.029590733 0.08454976 -0.08243412 0.041810233 0.31761557 -0.11754197
-0.00321553 0.2725387 0.1217677 -0.12594621 0.29749718 -0.17304026 -0.05053113 0.0293903
0.2655165 -0.16429049 -0.44264278 0.10175395 -0.18132766 0.098219864 -0.18034844 -0.06640586
0.06125021 0.38935116 0.42080286 0.14605337 0.16994558 1.0101583 0.18462911 0.015047043
-0.025798729 0.6169271 0.10268858 -0.045835767 0.40801102 0.09886942 0.08014638 0.015905183
0.15550955 -0.027654946 0.13272594 0.12653893 1.146007 0.15171741 0.3463753 0.112481855
0.79140955 0.19429362 0.19400993 0.15426819 0.124603495 -0.008740793 0.11467323 0.12212541
0.0055119134 0.046781503 0.8865088 0.19337222 0.083562404 -0.007815042 0.036419407 1.1368856
-0.0417866 0.19466917 -0.1232324 0.17787966 0.13389008 0.18208252 -0.08317337 0.14540711
0.27842999 0.12744872 0.18098964 0.3174948 0.045526117 0.14726709 0.21984698 0.23869514
-0.038474668 0.17710532 0.20336773 0.071654804 0.18104872 -0.0044535734 0.20408483 0.096186906
0.070141435 0.044998705 -0.04440528 0.026109874 0.027581908 0.054848533 -0.063183695 0.07567874
-0.11813662 -0.10166916 0.025014706 0.037815344 0.009482518 0.004722774 0.04409169 0.05245907
-0.09252679 -0.00030340566 -0.07427101 -0.08596668 -0.09957582 -0.12837102 0.0866976 -0.078529075
-0.034288693 -0.03857533 -0.09638698 0.05237479 -0.020952217 0.027301157 0.014014574 -0.1619048
-0.18038638 -0.13997225 0.103989825 0.118018754 0.013477248 -0.089738056 0.041111514 -0.099930674
0.02028732 -0.05198815 0.049172256 0.0018786349 -0.032308742 -0.022454437 0.08175611 -0.13141605
0.058066517 -0.1381512 -0.03256253 -0.10477206 0.025407922 0.096865594 -0.03639165 0.09843235
-0.1529267 0.026394548 0.0140493745 -0.074855454 -0.042141095 0.00985976 -0.057530425 -0.13574101

advantage.0.bias f4 [64]
00000000: 6681 ad3c e8a3 043f 0f38 aebf 5dc8 0dbe
00000010: f8d5 11bd 1779 52bd e662 6cbd 3e67 b1bd
00000020: 5991 fbbd 3b7c 6e3d caeb 123e 9847 9fbe
00000030: b8a1 cabd 9e63 c9bd 214d 5ebb 60c6 27be
00000040: 9d93 11bf 5895 15bd 5c9b e03e bd84 17bd
00000050: 7270 28be 4b1f 89bc 4f18 86bf f3e7 4dbd
00000060: 33fc c93e 2df0 acbd 7c1b fcbb fb7d 05be
00000070: d3a1 2dbf bbec bd3e 7a49 29bf b19c 4fbd
00000080: 9014 743e a4e6 7dbf d79d 633e 001c 363e
00000090: 60c1 74bc 520d 89bd 587a b1be 78b9 85be
000000a0: b33d bdbe f785 debd 25ab 4fbe ba18 253d
000000b0: d559 653e b88c 053d d9a1 b63d 3062 3ebf
000000c0: d8c7 b6bd d72c 063f cf5b 7f3e 25e1 13be
000000d0: c689 173e 4fa0 46be e051 01be 6e8c 933d
000000e0: 6e4f 14bf c43d ea3d bc48 e13c fcf2 edbd
000000f0: 3fdf d2bc 2756 27bf bc4e 483e 62b1 b53b
0.021179866 0.518126 -1.3610858 -0.13845964 -0.035604447 -0.05138501 -0.057711504 -0.0866227
-0.12283582 0.058223944 0.14347759 -0.3110931 -0.09894127 -0.098334536 -0.0033920484 -0.16384268
-0.56865865 -0.03651938 0.4386853 -0.036991823 -0.16449144 -0.016738554 -1.0476168 -0.050270032
0.39450225 -0.084442474 -0.007693706 -0.13036339 -0.6782505 0.37094674 -0.6612774 -0.050686542
0.23835969 -0.99180055 0.2222818 0.17784119 -0.014938682 -0.06691994 -0.34663653 -0.26118064
-0.36961135 -0.108653955 -0.2028013 0.040306784 0.2239755 0.032604903 0.08917589 -0.7436857
-0.08924836 0.5241217 0.24937366 -0.14441355 0.1479865 -0.1939709 -0.12628889 0.07204519
-0.579337 0.11437562 0.027500503 -0.11618611 -0.025741218 -0.65365833 0.19561285 0.0055448273

advantage.2.weight f4 [2, 64]
00000000: 751b bebe f1a2 783f 83c2 c2be 1307 9a3d
00000010: e21e b43d aa1a dbbf 8882 9d3d 9820 b83d
00000020: 619e f2bf 8909 913f 6e69 c2be 64a4 4c3d
00000030: 6e38 d3ba ec63 8abd b638 163c f453 b0bf
00000040: 0f8c 76be 91d5 a13e b9c4 cf3e 870e d9bb
00000050: a1ca d7bf f587 c63d b04a 9dbe 1edb eebe
00000060: 4873 4c3f 7a90 15bd 7c5a 33be 50d1 fcbd
00000070: d201 c3be 97f2 e93e 5c03 a9be b00c adbf
00000080: 1b72 643f 13c0 9bbe ebcb 373f ea83 8c3e
00000090: 0c80 25bc 4033 b7be c81f 9cbe 11b8 373f
000000a0: 0563 9fbe 7b90 9b3e bc5e b9bf ea95 78bf
000000b0: e426 223f cc25 4ebd 5a44 413f 574f a4be
000000c0: b87b 34bb 8c72 553f 17ed e9be 60fc 033b
000000d0: e77c f1be 2fa5 b3be 566e 26bf 8230 9dbd
000000e0: 77f4 c0be 8782 fc3e 2984 babf 5ea3 9c3d
000000f0: 1b4d f1bd b1a6 94bf b8d0 453f 2367 f0bf
00000100: 7ca8 0b3b 933b 193f 5c3c b0be 090c 8d3d
00000110: a8bc 43bd bcbd 00bf 2b6b d93b 9577 1b3d
00000120: 2a12 09bf 90f4 283f df76 26bf 0825 95bf
00000130: 4c22 ab3d f109 05bb e536 8cbc 7ee0 c1bf
00000140: df2e 07bf 02b0 603c ee35 123f bc69 31bb
00000150: 558a 533d 65d0 98bc 7111 a2be 09c4 1cbe
00000160: 60f1 043f 03cc 02bd ab6e cc3e 0020 053b
00000170: f835 abbe b5de 1b3f 0568 a0be cf65 95bf
00000180: 816a 203e 2254 89be 6295 b43e 5646 b83e
00000190: e387 af3e 4f07 93bf a80e 92be b203 3bbf
000001a0: dd3a 97be 4ca2 83bf e5f6 01c0 7a60 a2be
000001b0: 7321 593f 410d 063f 5b70 c1bf a2bd 1bbf
000001c0: 6753 acbd abe2 2c3f ab83 b0bd e4c6 73bc
000001d0: 61c4 3dbe 307c 97be ff36 90bf 60a2 a8bd
000001e0: 033d 9cbe 3da8 003f ce9a b6bf 0a75 ad3c
000001f0: 825b 23bd c631 b3bf 36a5 62bd 7269 03bf
-0.37130323 0.9712363 -0.38039026 0.075208806 0.08794953 -1.7117512 0.076909125 0.08990592
-1.8954583 1.1331035 -0.3797106 0.049961463 -0.001611484 -0.0675734 0.009168794 -1.377562
-0.24076866 0.3160825 0.40579775 -0.0066240462 -1.6858712 0.096939005 -0.30721045 -0.46651548
0.79863405 -0.036514737 -0.17514986 -0.12344611 -0.38087326 0.45692894 -0.33010375 -1.3519497
0.8923661 -0.30419978 0.7179553 0.27444392 -0.01010133 -0.35781288 -0.30492997 0.7176524
-0.31130233 0.30383667 -1.4482036 -0.9710375 0.6334059 -0.050329015 0.7549492 -0.32091781
-0.0027539562 0.8337791 -0.45688698 0.002013944 -0.47165605 -0.35086963 -0.6501211 -0.07675268
-0.37686512 0.49318334 -1.4571582 0.07648347 -0.11782285 -1.161337 0.77271605 -1.8781475
0.0021310141 0.5985653 -0.3442105 0.06887061 -0.04778734 -0.5028951 0.00663509 0.03795584
-0.5354334 0.6599817 -0.6502513 -1.1651926 0.08356151 -0.0020300115 -0.01711602 -1.5146635
-0.52805895 0.0137138385 0.5711354 -0.002707108 0.051645596 -0.018654058 -0.31653932 -0.15309156
0.5193081 -0.031932842 0.39928183 0.0020313263 -0.33439612 0.608867 -0.3132936 -1.1671695
0.15665628 -0.26822 0.3527022 0.35991162 0.3428336 -1.1486605 -0.28526807 -0.73052514
-0.29537097 -1.0283904 -2.0306942 -0.3171423 0.84816664 0.52363974 -1.5112413 -0.6083623
-0.08414345 0.6753337 -0.08618864 -0.014878962 -0.18531944 -0.29586935 -1.1266783 -0.082340956
-0.30515298 0.5025671 -1.4265993 0.021173973 -0.03988219 -1.3999565 -0.05533334 -0.5133277

advantage.2.bias f4 [2]
00000000: 4abb db3d 8aca b2bd
0.10729082 -0.087300375

value.0.weight f4 [64, 64]
00000000: 683c 093e dece 00be 5c6c 15bf 43f6 a43d
00000010: 053f ad3e 0cbe 85bf c7d4 63be a2ea d83d
00000020: 98d5 0a3e ddc7 18bf 4e26 5f3e 78d9 9cbc
00000030: c543 04be d8f1 873d 314b 56be b04c 5d3e
00000040: c25f 813e 28f1 973e 5e96 243e 73cf 0b3d
00000050: 2c5d 8ebf a5c2 203e 8b8c 10bd 7725 ad3e
00000060: 644a 3abf 4657 8d3e 14b3 96bc d284 ee3c
00000070: d1d3 2fbe b685 a33e 5d54 443e 0183 0b3e
00000080: 7024 783e 7f5b ae3d aac4 31bf 8acc 0abe
00000090: a82e 9d3d ba44 a73e 8304 0a3e a5a1 63bf
000000a0: 5c7b a63d 62e0 2c3e e50e 8d3e b954 ef3d
000000b0: 7a87 f63c 6e4e 1a3e 7de4 c13e 9833 6f3e
000000c0: 1575 573e 1348 b93e bbf3 5d3e 3dea 97be
000000d0: 3889 9b3e 1b78 983d 825c 68be a15e 083d
000000e0: ba01 d43e 732e f13d 56d6 66be c068 9f3e
000000f0: 3a31 ea3b d90a 8d3e 01af ffbc a620 283e
00000100: 572f 713d 7a61 cfbd 345b 223d dc5b eabc
00000110: 6421 01be f66b ecbd 50de 1fbc 520e 2cbb
00000120: 8bc9 b6bc 8a42 8cbd 1496 adbd b396 de3d
00000130: c22f a2bd 7173 8fbd 2dcc e1bd 1ec6 65bd
00000140: 8473 89bd 1d10 be3d 66b2 96bd 3358 e0bd
00000150: 2dc5 3a3c e4cb d5bd 194c c33d 3ab5 fabc
00000160: d2db a5bd 1ea6 91bc 563e dbbc 7550 e33d
00000170: 868d fabd b41a 953d bc41 94bc 96f1 c2bd
00000180: 792c 17be 9687 943c 9c7d 723c e52b cf3d
00000190: dbcd 08be 5800 a5bd 15bd 993c cc00 6a3d
000001a0: 9362 0cbd aae1 03bd 95ea 4f3d d1ef 653d
000001b0: 5c36 e5bd ece3 063d 065a e73c a818 8e3d
000001c0: 1955 d6ba e7b1 20bd 1352 173d ccb8 37bd
000001d0: 59e3 8abd 9a69 83bd 3610 853d 5a11 543d
000001e0: 31e2 acbd 33df b53d 7474 093d e967 44bd
000001f0: 887f b53d c99e 3cbd 0e5c d0bc c2fd cd3c
00000200: 06d1 533e 058c 273f bb14 663f f015 5e3e
00000210: 2416 f7be b54a 7e3f 7eed 053f 03dd 613f
00000220: 9180 063f fa74 2b3f 0f19 d5be e8d9 4f3e
00000230: 3f2a 0bbf 4e00 fcbd bfed 953e d4b4 84be
00000240: f5f8 1abf 5c24 86bf 8274 35be af67 af3e
00000250: 88da a23f e30d 4abe 07e4 15bf 8e84 64bf
00000260: d96f 433f 6627 0a3e 918b 5e3e e922 983e
00000270: 7749 4a3f a0dc dabe 5b5e f7bd dc58 16bf
00000280: 8cd4 fdbe a4cb 22bd 9d4d 393f 0286 243f
00000290: 9693 c9be 9451 65be e023 1a3f 8d93 02be
000002a0: 5f6b c6be 76e4 88be e3d6 1abd c1bf eabc
000002b0: a84b a5be f2d7 f1be bbfa 85bf 3443 883e
000002c0: 4b9a 0fbe 31d8 37be e1a0 b3be 9f69 703e
000002d0: 177c 74bf 8eb4 b43e 195f ed3e 1c96 c6be
000002e0: 31fe 25bf 64eb 3f3e 8929 023f 5c4e a1be
000002f0: 00c1 2dbf 914c d7bd 9561 963e 2a28 123e
00000300: 2fce eb3d f213 92be 3aa3 d9be cd9e 1b3e
00000310: ad0b 963e 6a76 85bf ba97 36be f454 353d
00000320: e2e4 9d3d e8b8 28bf b8cb 4e3e 7fa3 073e
00000330: 560c 5bbe 9c3b 94bd b1c2 b8bd 3b8f 8a3e
00000340: 6fa2 293e f32b d33e 73e5 6f3e ddd8 493c
00000350: 5478 99bf ec44 173e 9b67 4cbd ad24 573e
00000360: b1f5 55bf 1b51 6b3e 9ad9 cc3c ba4f 1abe
00000370: d1ab a1bc 02b6 833e 2bff df3d 55bc 693e
00000380: b2a3 7e3e 214a 2e3e 7b20 4abf 2140 eeb9
00000390: 66ff 273e 05d9 663e 4dda fa3b 536f 89bf
000003a0: 9bd8 d33b 9211 4e3d 2d03 c13e 8a99 943d
000003b0: ae3a 0f3e 05c4 8e3e 1f61 d03e 6da8 d93d
000003c0: c604 8b3e 923b c63e 7dd2 613e 11bf 5dbe
000003d0: ff4b b43e a06d 93bc c9ef b4be da51 db3d
000003e0: 188c bb3e 2f36 d4bd 63b6 39be b9b2 243e
000003f0: c205 e43d 1ced ce3e 33d2 893d 6078 e63d
0.1340195 -0.12578914 -0.5836847 0.08054783 0.33837143 -1.0448623 -0.22249137 0.10591628
0.13558042 -0.5967997 0.21791956 -0.019146666 -0.12916477 0.06637925 -0.20927121 0.21611285
0.2526837 0.29676175 0.16072986 0.034133386 -1.1122184 0.15699251 -0.035290282 0.33817646
-0.7276976 0.27605647 -0.018395938 0.029116068 -0.17170645 0.3193795 0.19172807 0.13624193
0.2423265 0.08513545 -0.6944071 -0.13554588 0.076749146 0.32669622 0.13478284 -0.88918525
0.08128998 0.1688247 0.27550426 0.116860814 0.030093897 0.15068981 0.37869635 0.23359525
0.21040757 0.361878 0.21675007 -0.29670897 0.30378127 0.07444783 -0.22691539 0.03329337
0.41407567 0.117764376 -0.225427 0.31134605 0.0071469815 0.2754734 -0.031211378 0.16418704
0.058883037 -0.10126014 0.03963776 -0.028608255 -0.12610394 -0.115440294 -0.009757593 -0.0026253653
-0.0223129 -0.06848629 -0.08475891 0.10868587 -0.07919265 -0.070044406 -0.110252716 -0.056097142
-0.06711486 0.09280417 -0.073582456 -0.10954323 0.011399549 -0.1043928 0.09535999 -0.030603994
-0.08098568 -0.017779406 -0.026763123 0.1109933 -0.12234025 0.07280484 -0.01809775 -0.09518735
-0.14763059 0.018131059 0.014800455 0.10115794 -0.13359778 -0.08056706 0.01876692 0.057129666
-0.034273695 -0.032197632 0.050760824 0.05613691 -0.11192009 0.032932207 0.028241169 0.069382966
-0.0016352265 -0.03923216 0.036943506 -0.04485397 -0.067816444 -0.06416626 0.064972326 0.05177436
-0.0844158 0.088804625 0.033558324 -0.04795066 0.08862215 -0.046049867 -0.02543452 0.025145415
0.20685205 0.6544803 0.8987538 0.21688056 -0.4825908 0.99332744 0.5231551 0.8822786
0.52539927 0.6697537 -0.4162068 0.20297968 -0.5436134 -0.123047456 0.29282948 -0.2591921
-0.6053613 -1.0479846 -0.17720225 0.34258792 1.272294 -0.1973186 -0.5855107 -0.8926476
0.7634254 0.13491592 0.21732928 0.29714134 0.7901835 -0.4274645 -0.12078544 -0.5872934
-0.49576223 -0.039744988 0.72384053 0.6426698 -0.39370412 -0.22394401 0.6021099 -0.12751599
-0.38753793 -0.26736802 -0.03780259 -0.028655889 -0.32284284 -0.47235066 -1.0467142 0.26613772
-0.14023702 -0.17953564 -0.35083678 0.23477791 -0.95501846 0.35294002 0.46361616 -0.387864
-0.6484099 0.18742138 0.5084463 -0.31505096 -0.6787262 -0.10512651 0.29371324 0.14273134
0.11513936 -0.28530842 -0.42507344 0.15197296 0.29305783 -1.0426762 -0.17831317 0.04427047
0.077096716 -0.65907145 0.201949 0.13245963 -0.21391425 -0.07237932 -0.090215094 0.270624
0.1656587 0.41244468 0.23427372 0.012319771 -1.1989846 0.14772385 -0.049903493 0.21010084
-0.8357802 0.22980158 0.025006104 -0.15069476 -0.019735249 0.25724798 0.10937341 0.22825749
0.24867132 0.17020465 -0.7895581 -0.00045442677 0.1640602 0.22543724 0.007655418 -1.0737098
0.0064650304 0.050309725 0.37697735 0.07255848 0.13987228 0.27883926 0.40699098 0.10627828
0.2715208 0.38717324 0.22052951 -0.21654917 0.3521423 -0.01799661 -0.35339192 0.10708971
0.3663032 -0.10361897 -0.18135981 0.16083802 0.11133911 0.40415275 0.067295454 0.112534285

value.0.bias f4 [64]
00000000: b8fc 8c3e b2c7 3cbd 8824 81be f296 e13e
00000010: e825 d33e 121b 843e 85f9 943d 3c95 f9bd
00000020: 2eeb eebd a93f 8d3d f652 c53e 686d cc3e
00000030: bd70 d63e 0ed5 ca3e 69ea 8e3e 4449 6abd
00000040: 060f 913c 5b68 b6ba eff4 17be fc3a dd3e
00000050: 65bc a63e 3cf2 9f3e 1b70 103c a9dd 51ba
00000060: b1e7 a13e dd00 ed3d 4f12 b73e 4952 87be
00000070: 3ee3 ab3e 5479 e5bd aad1 98b9 67d4 9b3e
00000080: 353e f03e 0304 ac3c 7634 b23e 94a9 04bd
00000090: e756 eebd f7ce 9cbd d30f b03e d33e d83e
000000a0: e271 03bd 4220 0b3e e827 76bd 753d d23e
000000b0: e4d5 c1bd 309d 07bd c527 ac3e 997c d6bc
000000c0: 8b0f 84bd ab99 c73d 4847 913e 1e26 683d
000000d0: 3219 ecbd 31b0 903e 13ba 42be 2a02 c2bd
000000e0: 8e4f e33e 4387 36be 2975 9d3e c23d 54bd
000000f0: 2d3c 1f3e 762e ce3e 859b b53c 501b 693e
0.2753656 -0.04608888 -0.25223184 0.44060475 0.41239858 0.25801903 0.072741546 -0.12186667
-0.11665951 0.06896908 0.38539857 0.3992722 0.41882887 0.39615673 0.27913216 -0.057198778
0.017707359 -0.0013916598 -0.14839529 0.43209064 0.3256561 0.31239498 0.0088157905 -0.0008005747
0.3162208 0.1157243 0.35756156 -0.26429966 0.3357181 -0.11204782 -0.0002914791 0.30435488
0.4692246 0.020998007 0.3480565 -0.032388285 -0.11637669 -0.07656663 0.34387073 0.4223543
-0.03209103 0.13586524 -0.06009665 0.41062513 -0.094646245 -0.03310889 0.33624092 -0.02618246
-0.06448277 0.09746107 0.28374696 0.056676976 -0.11528243 0.28259423 -0.19016294 -0.09473069
0.44396633 -0.17825036 0.3075345 -0.05181671 0.15550299 0.40269822 0.022168884 0.22764325

value.2.weight f4 [1, 64]
00000000: 6b38 d53e 837b 2bbd 6b99 0bc0 46db c03e
00000010: 7c44 dc3e 1325 c23e d8d0 85be 20eb 643c
00000020: 47bc 253d 72ed a4bd afe1 ea3e 7921 c03e
00000030: 45e7 be3e 8a23 113f 995f d73e 99a3 243d
00000040: 7ab6 6dbd d81d 6fbd c871 b3bf 3ac8 d43e
00000050: 5371 b73e 41db e03e ab5f bcbb 25d5 b6bf
00000060: 9082 de3e 35ac 41bf 7698 143f b920 fabf
00000070: 9117 e33e 25e0 f6bf 7bf4 89bb 891d e23e
00000080: a47d b83e 248b 7ebd 99db 053f 531a 8b3c
00000090: 9907 c0bc 2530 6dbd 3a4b c33e 6c4e dc3e
000000a0: 3800 05bf 7ed6 8abf 6b8d abbd ce8a b23e
000000b0: 9e36 c03b 1fd4 8ebb af28 fd3e 2d95 cfbb
000000c0: 865f 73bc d852 cdbe 0e0c 073f 9495 1fbc
000000d0: a9f2 873d d93e df3e 387c 8fbf 52f3 563b
000000e0: 89ac ae3e 0c33 f1be 91df 033f 4eed a0bd
000000f0: 2f5f 89bf 3b1a f43e 9065 a5bd 536f a83e
0.41644606 -0.041865837 -2.181239 0.37667292 0.43021 0.3791891 -0.26135898 0.013972074
0.04046276 -0.080531016 0.45875308 0.37525538 0.3728582 0.56694853 0.42065123 0.04019508
-0.05803535 -0.05837807 -1.4019098 0.4155901 0.35828647 0.43917277 -0.005748709 -1.4283797
0.43458986 -0.7565339 0.58045137 -1.9541236 0.44353917 -1.9287153 -0.0042100525 0.4416316
0.36033356 -0.062144414 0.52288204 0.016980326 -0.023441123 -0.057907242 0.3814333 0.4302858
-0.5195346 -1.0846708 -0.08376583 0.34871525 0.005865886 -0.004358783 0.49445102 -0.006334922
-0.0148543175 -0.40102267 0.5275277 -0.009740252 0.066380806 0.43602636 -1.1209784 0.0032798839
0.3411601 -0.47109258 0.5151301 -0.07857762 -1.0732173 0.47676262 -0.08076012 0.32897434
